Recurrent-Independent-Mechanisms/minigrid_experiments/storage/2023-11-17_wallgap-doorkey-redblue-crossing_ppo_345678_1000000_metalearn_True_rims_6_k_4_reshape_False/status2.pt (torch, 567247 bytes, 48 tensors)

image_conv.0.weight f4 [16, 3, 2, 2]
000000 d4 48 d4 bd eb 7f 39 be aa 9e 1f be 03 c0 93 3e
       -0.10365453 -0.18115203 -0.1558787 0.2885743
000010 e3 96 81 3e 89 e9 21 bf 17 0f 53 be e7 09 b2 bd
       0.2531043 -0.6324697 -0.20611225 -0.08693295
000020 65 89 c8 3e e0 34 a8 3e d1 24 c4 be 38 4c 7a be
       0.39167324 0.3285284 -0.3830934 -0.24443138
000030 49 35 a3 be ae fc 5c be bf 4e de be 1c e1 b5 bc
       -0.3187659 -0.21580765 -0.43419454 -0.022202067
000040 97 69 4e 3e f0 34 a5 3e 7c e7 96 be 78 1b fb be
       0.20157467 0.3226695 -0.29473484 -0.49044394
000050 34 3e 40 be ff 53 8f be e7 e3 15 3e 2d 31 d7 3e
       -0.18773729 -0.2799377 0.14637719 0.42029706
000060 d8 de d0 be 0e d1 87 be c2 ee 36 3e 69 83 ea 3e
       -0.40795016 -0.26526684 0.17864516 0.45803383
000070 31 c0 28 bd 14 a9 6c be cf c6 6e be f5 5a c1 bd
       -0.041198913 -0.23111373 -0.23318027 -0.09441177
000080 87 0a 78 be 14 c6 48 bd a7 f7 d4 be c3 6c 02 3f
       -0.24222766 -0.049017027 -0.41595194 0.5094721
000090 59 9e 52 3e c5 0f d1 3e 5f 45 59 be aa 8e e2 be
       0.20568217 0.40832344 -0.21217869 -0.4424947
0000a0 bf b4 30 be 18 ca 5f be 14 7e bf 3d 5d 20 dd bd
       -0.17256449 -0.21854436 0.09350219 -0.107971884
0000b0 8a fe e4 3d 63 e0 08 3f 06 ef 48 3e 20 25 cd 3d
       0.11181362 0.53467387 0.1962243 0.10016847
0000c0 33 d3 dd 3e 85 5a 55 be 32 d9 0b 3e b3 db 6d be
       0.43325195 -0.20835312 0.13657072 -0.2322834
0000d0 45 47 62 bd 33 5e f3 be 30 fc 8d be e0 33 c2 3e
       -0.05524375 -0.47532806 -0.27731466 0.37930202
0000e0 cb c1 5b 3e 44 c6 08 3e a0 5f aa 3e 18 22 94 3e
       0.21460645 0.13356882 0.3327608 0.2893226
0000f0 22 5d 1a bb 3d 85 99 3e 8e 20 4b be 5d 03 91 3d
       -0.0023554047 0.29984465 -0.19836637 0.070807196
000100 67 87 0f bf 38 b8 10 3e 87 ab 86 be 21 b1 a9 be
       -0.5606598 0.14132774 -0.2630274 -0.3314295
000110 0d ab cd 3e 61 da de 3e f0 f9 3c 3e 41 2f 11 3e
       0.40169564 0.43525985 0.18454719 0.14178182
000120 3b 81 11 3f 03 1c 3d be b5 75 34 3d 38 89 8b be
       0.56837815 -0.18467717 0.044057567 -0.27253127
000130 27 dd 0c bf 96 3d aa 3d 2f d7 94 be 48 03 48 3e
       -0.5502495 0.08312528 -0.29070422 0.19532502
000140 77 20 09 3f 1c 9d fd bb 1e 2a 11 3f 1e 4c f8 3d
       0.5356516 -0.007739676 0.5670489 0.12123893
000150 bd b2 6a 3e cd ad ab be a5 b1 b8 bd 67 1b c9 be
       0.22919746 -0.33531037 -0.09018258 -0.3927872
000160 22 e8 23 3e c2 3e 4e 3e da 27 4d 3e 8b 1e 9f bd
       0.1600652 0.20141128 0.20034733 -0.077694975
000170 ee db 31 bd 3e 85 2f be c8 01 b9 3e ea d4 2e be
       -0.043422632 -0.17140672 0.3613417 -0.17073408
000180 70 69 61 be 96 09 f9 bd 54 dd 7c 3d 99 fd b3 3e
       -0.22012877 -0.121600315 0.061734512 0.35154417
000190 c2 e5 b3 be c3 37 ff 3d b5 55 ef bd ec 09 f5 be
       -0.3513623 0.124618076 -0.11686269 -0.47859132
0001a0 f5 00 2b 3f 5d 6a 0b 3f 5c 5d 8c bd d9 20 99 3e
       0.66798335 0.5445917 -0.068537444 0.29907873
0001b0 08 c4 b9 be e1 c4 c8 bd b5 32 6a 3c 04 b1 dc bd
       -0.36282372 -0.09803177 0.014294316 -0.107759506
0001c0 e4 fb 92 be eb 36 12 bf 3e 3e aa 3e 2f bf 43 bf
       -0.28707802 -0.5711505 0.33250612 -0.764636
0001d0 ee 4a 45 bc 3c 9e 11 be 9e 2a 07 3f 2b 1f ea bc
       -0.01204179 -0.14220518 0.52799404 -0.028579315
0001e0 26 f0 e5 bd b9 6b d4 3e 41 de 00 bf 69 6e 8d be
       -0.11227445 0.41488436 -0.5033913 -0.276233
0001f0 9e 90 09 bd fe 84 35 be bf b9 48 be e9 be 99 bd
       -0.033585183 -0.17726514 -0.19602107 -0.07507116
000200 e2 32 d7 3d 8f a2 1f 3f e5 02 03 3e 56 86 8a 3e
       0.10507752 0.6235742 0.12794073 0.27055615
000210 8d c5 f1 3e 28 9f cf be bc 16 41 be f9 22 32 3d
       0.47221032 -0.40551114 -0.18856329 0.043490384
000220 6d c7 20 be 06 4b a6 be cc 90 6a bb 11 97 08 be
       -0.15701075 -0.32479113 -0.0035791872 -0.13338877
000230 6f 9f b6 be 36 b8 39 3e 60 70 5b 3e 32 32 a2 3f
       -0.35668513 0.18136677 0.21429586 1.2671568
000240 8f 83 ff 3d 3a 23 7a be 61 35 36 3e db 76 c7 be
       0.12476265 -0.244275 0.177938 -0.38957867
000250 d4 9c 4b bf 04 fa be 3d 1a 0b 9b 3e d0 60 c0 be
       -0.79536176 0.093250304 0.30281907 -0.37573862
000260 e4 a7 f7 3e 57 fc 2e 3e db 80 81 be b0 2f e0 3c
       0.48370278 0.17088448 -0.2529362 0.02736649
000270 65 12 10 be 14 32 7e be f0 0c ef 3d c0 a7 3e be
       -0.14069517 -0.24823791 0.116723895 -0.18618679
000280 04 94 27 3d 70 0a 44 3a 09 c7 df 3c cb 10 4e be
       0.040912643 0.0007478362 0.027316587 -0.20123594
000290 57 5d 13 3e 1f 8d 79 be 06 49 95 3d 6c 03 ad 3e
       0.14391075 -0.2437024 0.07289319 0.33791673
0002a0 07 ec a7 3e df 68 b1 bd 12 94 a2 3e e2 dc 05 bf
       0.32797262 -0.08662581 0.31753594 -0.52290165
0002b0 71 d3 d0 be 77 23 38 3e ae f8 89 be a4 0f 26 3d
       -0.40786317 0.17982279 -0.2694754 0.04054226
0002c0 97 05 4d 3f 9f 02 fb be 56 6d bf 3d 70 b8 0e 3e
       0.80086654 -0.49025437 0.09347026 0.13937545
0002d0 10 a7 d0 bd 7b ef 47 be 30 59 2e bd b1 8a d8 bd
       -0.10188115 -0.19524948 -0.042565525 -0.10573328
0002e0 f2 27 de 3e 22 20 97 3d 7e b8 a7 3e 26 88 ab bc
       0.4338985 0.07379176 0.32757944 -0.020938944
0002f0 18 30 e7 bd 8b 34 73 bb 10 16 47 be 4f 65 e4 3c
       -0.1128847 -0.0037110175 -0.1944201 0.027880339

image_conv.0.bias f4 [16]
000000 c7 f3 d9 bb bb e7 4c 3d 97 c2 d7 bd 21 24 0d bf
       -0.006651375 0.050025683 -0.10535162 -0.55133253
000010 f1 26 14 bd ea e7 7e bd 20 a1 94 be 31 be 1c 3c
       -0.03616995 -0.06223289 -0.2902918 0.00956683
000020 98 d4 00 be 3e b4 5e bd ea 0c d6 be b4 fd 39 be
       -0.12581098 -0.05437111 -0.41806728 -0.18163186
000030 16 1b 46 bd 1c 56 0f be e3 92 68 be 66 47 81 be
       -0.048365675 -0.13997692 -0.22712283 -0.25249785

image_conv.3.weight f4 [32, 16, 2, 2]
000000 6f 53 52 3e 07 d7 59 3d 2e ae 7a bd f6 19 64 3e
       0.2053964 0.05318358 -0.061201267 0.22275528
000010 d5 c1 cf 3e 9b 45 98 be 3e cd a3 bd 8c 32 a7 bd
       0.4057757 -0.29740605 -0.07998131 -0.08163938
000020 8c 20 55 3e e1 e1 ac 3e 43 43 f7 bd 60 e1 31 be
       0.20813197 0.33766082 -0.12073376 -0.1737113
000030 8d b1 17 3e 0a 26 83 3e db 6a b2 3a bf 88 ab bd
       0.14813824 0.2561496 0.0013612168 -0.083756916
000040 62 de c5 3e 60 ba 98 3e 94 b9 c7 be e3 f5 8f bd
       0.38646227 0.29829693 -0.39008772 -0.07029321
000050 20 1b 70 3e e6 70 25 bc 04 94 86 3e 98 56 6f 3d
       0.23447847 -0.010097718 0.26284802 0.05843219
000060 48 ae c3 3e f5 10 5e 3e 8e 20 43 be f7 18 b9 bd
       0.38218904 0.21686156 -0.19055387 -0.09037965
000070 da 0d 3c be fc 05 53 be e2 80 19 3d 61 2c 05 bf
       -0.18364659 -0.20607752 0.037476428 -0.5202084
000080 11 2e ea 3d 83 46 42 bc 2f d0 94 3d 5a 4d d9 3d
       0.11434568 -0.011857632 0.0726627 0.10610457
000090 fe 21 6d 3c 54 5a 03 3d 43 a8 af bd 19 10 13 3e
       0.014473436 0.032068565 -0.08577015 0.1436161
0000a0 a8 a3 f8 3d 2b 2c ba bb 5e 6b ff 3c 1a 79 11 3d
       0.1214059 -0.0056815348 0.031179126 0.035515882
0000b0 12 c2 48 3e 42 46 c2 3e 72 a6 c5 be 95 01 80 be
       0.19605282 0.37944227 -0.3860355 -0.25001207
0000c0 09 87 4f 3d c5 c2 c4 3e 0f af b7 3d 7c e9 90 bd
       0.05066589 0.38429847 0.08968937 -0.070757836
0000d0 09 6c 27 3c 56 16 bf 3c f8 d8 38 bd 98 a5 dd be
       0.010218629 0.02332608 -0.045128793 -0.432904
0000e0 09 e1 09 3e 66 f2 84 3e 2d 74 ef 3d 77 68 1d 3e
       0.1346475 0.25966185 0.11692081 0.15371881
0000f0 24 eb 4c be d0 30 a8 bc 4c 8e c8 3c ad 46 da be
       -0.20011574 -0.020531088 0.024481915 -0.42632046
000100 7a b4 d9 bd d8 61 ab 3e 6c ea 2c be cc 14 1f bf
       -0.10630126 0.33473086 -0.168863 -0.6214111
000110 58 86 b0 3d 63 5e d5 bd 18 38 29 3d 40 02 04 3c
       0.08619374 -0.104183935 0.04131326 0.008057177
000120 c2 36 45 3c a8 46 8e 3e 5b 28 11 3d 8e 3b fc bb
       0.012036981 0.2778828 0.035438877 -0.007697529
000130 4e cb 18 bd 7a f9 22 3f 96 76 78 3e 6d 14 c2 3d
       -0.03730326 0.6366192 0.24263987 0.09476552
000140 06 28 b3 bd e1 32 38 be 6a 7c 15 bd 83 ce 2a 3d
       -0.08747868 -0.17988159 -0.036495604 0.04170085
000150 09 d8 99 bc 6d c0 22 be b3 56 58 3e 39 96 de 3d
       -0.018779771 -0.15893717 0.21126823 0.108684964
000160 d3 34 b0 3d a5 30 57 3c 0b 8a 4d bd 4f 0e 5b be
       0.086038254 0.013134156 -0.050180476 -0.21392177
000170 d6 4d 2d 3d 47 de 36 3e a8 10 f9 bc 77 09 77 3a
       0.04231056 0.1785823 -0.03040345 0.00094237126
000180 2e c9 45 be 19 65 b2 be 92 d9 90 3e 3f 1c 32 3d
       -0.19315025 -0.34842756 0.28290993 0.04348397
000190 bf bb 0b be ad af e1 bd 81 37 2c 3e 7f fd 8d bd
       -0.13645838 -0.110198356 0.16818048 -0.06933116
0001a0 00 33 05 3e 9a 7c 87 3e ef 22 77 3e c2 14 47 bd
       0.13007736 0.2646225 0.2413442 -0.04860378
0001b0 bf 66 b5 bd 66 15 8f 3d a2 c8 b2 bd 71 1a f6 3d
       -0.08857488 0.06986503 -0.08729674 0.12016762
0001c0 f3 00 c0 bd fa a5 00 bd 3a 20 2c be 77 f9 5f 3e
       -0.09375181 -0.031408288 -0.16809168 0.21872507
0001d0 34 a0 23 be ba d9 45 3e 09 9c c8 bd f8 e8 96 3d
       -0.15979081 0.19321337 -0.09795386 0.07368654
0001e0 ad 72 d4 3d 62 f5 b4 bd 7c e4 92 3e e4 7a 6d be
       0.10373435 -0.088358656 0.28689945 -0.2319141
0001f0 06 89 31 3e 85 75 f7 3e 3d 0d ef bb 4e 39 f7 bd
       0.17337427 0.48331848 -0.0072952793 -0.12071477
000200 4b b3 df 3c f7 bd 95 3d 44 1b 86 be e9 1b 03 be
       0.027307173 0.073116235 -0.26192677 -0.12803616
000210 60 0d 4c 3e 1b f1 4d 3e 63 54 33 3c f9 bd 98 3e
       0.19926977 0.20111506 0.010945412 0.29832438
000220 aa 34 9f be 0e 96 85 bc 0e e9 9a be ad 24 07 bf
       -0.31094867 -0.016306903 -0.30255932 -0.5279034
000230 92 1a 35 be 11 8a 8c be 97 5a ab 3c ba 1b aa be
       -0.17685917 -0.27449086 0.02091722 -0.3322428
000240 b5 70 2c be d4 44 df 3e b3 eb dc 3d 5e d2 70 bd
       -0.1683987 0.436072 0.107871436 -0.05879437
000250 63 3e ad 3d 2d a5 d3 3d c0 c1 9d bd 10 a8 33 3e
       0.08459165 0.10334239 -0.077029705 0.1754458
000260 31 2e e4 3d eb 47 c9 bc 60 19 42 3e e2 1c 9d 3d
       0.11141623 -0.024570426 0.18954992 0.076715246
000270 25 34 e1 3c 4e c0 07 3e d3 87 2a 3e 46 08 44 3e
       0.027490685 0.13256952 0.16653375 0.19143781
000280 3d ed 69 3d b2 18 df 3d a3 26 33 be 0f 08 e0 3d
       0.057111014 0.10893382 -0.17495207 0.10939037
000290 00 ee a2 bd 87 8d 6e 3e 77 11 0d 3e 76 21 12 be
       -0.07955551 0.23296176 0.13776194 -0.14270577
0002a0 3b cd ae bd 25 17 ec be 29 38 9d be 09 4c 4c be
       -0.08535238 -0.46111408 -0.3070691 -0.1995088
0002b0 e7 cd b7 be 46 ba be be 11 51 5b bd 51 b1 31 be
       -0.3589928 -0.3725149 -0.053544108 -0.17352797
0002c0 53 ea 66 be af 18 10 3e 25 32 4f bb d2 2b 85 bc
       -0.22550325 0.14071916 -0.0031615582 -0.016256247
0002d0 c6 d5 2d 3d e2 01 81 bd 7f c7 e5 bd 4a ba 73 3d
       0.0424402 -0.06299187 -0.112196915 0.05950383
0002e0 ed df b8 3e 3d 83 d3 bd 13 c5 58 bd 80 6d b3 3d
       0.36108342 -0.10327766 -0.05292232 0.0876112
0002f0 e4 e8 e1 3d aa 2f e5 3d fe 62 15 3e 09 f4 b4 3d
       0.110307485 0.11190732 0.14588544 0.088356085
000300 31 53 dd 3d 2e 26 a9 bd e9 1c c1 3d cc dc 5a 3e
       0.10806883 -0.08259235 0.09429342 0.2137329
000310 fe 68 47 bb 50 9c 3c bd 1d 48 50 3e ae 4a 94 3d
       -0.003042757 -0.04604751 0.20340009 0.072408065
000320 02 bb 82 3c 18 bf 3c 3d 22 a5 91 3e 69 20 93 be
       0.015958313 0.04608068 0.284463 -0.28735664
000330 c3 cc 54 3e 6b 52 96 bc c0 ab 4d 3d 91 cb 3b be
       0.20781235 -0.018349847 0.05021262 -0.18339373
000340 72 6e 20 bd 11 0b 28 3e fe 2a 6b be 6c 8b cd 3e
       -0.03916783 0.16410471 -0.22965619 0.40145433
000350 4e 79 46 be d0 16 be 3c 4d f7 23 3e 06 b1 de 3d
       -0.19382212 0.023204237 0.16012307 0.10873608
000360 a7 a3 07 be f9 5d 7b 3e 89 60 9c bd 5d c9 82 3e
       -0.13246022 0.24547566 -0.076356 0.25544253
000370 1a cc 46 be ce 07 29 be cc 66 b3 bd 1a 83 01 be
       -0.19413796 -0.16506884 -0.08759841 -0.12647668
000380 43 a3 3a be b0 ea 1d 3d 26 13 6f 3e a2 db 7e 3d
       -0.18226342 0.038553894 0.23347148 0.062221177
000390 ad 1d f3 3c c0 88 24 3f f1 f0 5c bd a7 60 85 3e
       0.029677236 0.64271164 -0.053940717 0.26050302
0003a0 62 9f 11 3e 08 6c a9 bd fd c9 9e 3e 8a 93 fe bd
       0.14220956 -0.082725585 0.3101348 -0.124304846
0003b0 b3 02 dd 3d 16 d0 8b 3e fc 62 95 3d 4f 7d 86 3e
       0.107915305 0.27307194 0.072942704 0.26267478
0003c0 0f 27 85 3e a0 21 94 3e d1 15 d3 3d 98 21 d1 3e
       0.26006362 0.28931904 0.103068955 0.40845942
0003d0 11 6b 42 bd c9 da 0c 3e 4b c0 ae bd b6 b9 0b 3c
       -0.047465388 0.13755335 -0.08532771 0.008528164
0003e0 c6 66 02 bf e3 c0 08 bd 07 bf 47 3d f1 28 cd bd
       -0.5093807 -0.033387076 0.048766162 -0.100175746
0003f0 dd 20 c3 be ff b8 77 be c1 e8 77 be 65 4d 17 be
       -0.3811101 -0.24191664 -0.24209882 -0.14775617

image_conv.3.bias f4 [32]
000000 87 44 57 be a1 bb f8 3d 54 6e d3 bd 3e 1a 2c be
       -0.21022235 0.121451624 -0.10323778 -0.16806886
000010 81 4a 38 be d7 c7 c8 bd 84 09 3f be df 20 4d bd
       -0.17997171 -0.098037414 -0.18655974 -0.050080176
000020 22 a5 5e be 57 95 c5 bb e6 00 49 be 45 38 c1 bd
       -0.2174268 -0.0060297656 -0.19629249 -0.09434561
000030 02 8f 12 be ca 98 0d bd 78 5b 65 bd 53 ea ba bd
       -0.14312366 -0.03456954 -0.055995435 -0.09126725
000040 5e 3e 9d 3b ef 70 b6 bd 5d 58 61 3d 46 3c c8 bd
       0.0047986945 -0.08908259 0.05501591 -0.09777121
000050 a0 23 0f 3c 33 74 59 bd e0 5f 0d be a7 e9 21 be
       0.008736521 -0.05308933 -0.13806105 -0.15811788
000060 29 c2 24 be 4d 2a 26 be e9 a9 04 be db 7c f2 b7
       -0.16089691 -0.16227074 -0.1295544 -2.8906788e-05
000070 b4 82 89 3d f2 6f 0f be dc 69 cf 3d 2d 1d 42 bd
       0.06714383 -0.14007547 0.10127613 -0.047391105

image_conv.5.weight f4 [64, 32, 2, 2]
000000 34 a7 9e bd a8 68 0c 3b dc ec c3 3c 1d 38 0f 3e
       -0.07746735 0.0021424685 0.023916654 0.1398625
000010 cb 19 b7 3c 52 6d 15 be 16 c6 1f be a6 84 4f be
       0.022351166 -0.14592484 -0.15602908 -0.20265445
000020 98 07 cc 3d 83 fd 3a be 48 55 93 3a fb 7e 49 be
       0.09962386 -0.1826077 0.0011240626 -0.19677345
000030 a0 18 40 be 4f fb 55 be 00 f8 b4 bc a9 44 ff bd
       -0.18759394 -0.20896648 -0.022090912 -0.12464268
000040 95 10 2c 3d e8 c7 4c 3d b2 cf 64 bc 1a ca 03 3e
       0.042008 0.049995333 -0.013965534 0.12870064
000050 97 05 67 be 57 9d f4 bd 62 2b a6 bd 52 3a 7d be
       -0.22560726 -0.11944073 -0.08113743 -0.24729279
000060 bc e2 9a 3b b5 69 ef bc 3b e7 36 3c 56 93 98 bd
       0.004726736 -0.02922521 0.011163528 -0.07449977
000070 18 52 ae bd 98 65 22 be 98 92 79 bd 64 e3 91 3c
       -0.08511752 -0.15859067 -0.06093082 0.017808624
000080 87 9f c3 3d e7 f9 0c 3e fb 75 12 3d c7 90 e7 3c
       0.09551912 0.13767205 0.035757046 0.028267277
000090 fc 61 0c bd 2c 88 9e bd f9 d3 1f be 9c ca 00 be
       -0.034273133 -0.077408165 -0.15608205 -0.1257729
0000a0 aa 24 96 be 6e db 58 bd 87 dd b1 3d 94 17 4d bd
       -0.29324847 -0.05294364 0.08684831 -0.050071314
0000b0 ec e2 70 bd fe c7 25 3d ec a2 80 3d 5a 33 9b 3d
       -0.05881016 0.04047393 0.06281075 0.07578154
0000c0 2d e7 0d bd 93 c1 00 bd a5 e9 28 3d 98 a9 d3 bd
       -0.034644295 -0.031434607 0.041238446 -0.10335082
0000d0 21 d3 fb 3d d6 a0 40 be a4 25 5b 3d f0 83 0c 3d
       0.12296129 -0.18811354 0.053502694 0.034305513
0000e0 b9 b9 d5 bd 1b 1d 10 3e fa e8 94 be 0c 59 8a 3d
       -0.104358144 0.14073603 -0.29083997 0.067552656
0000f0 1f 4f 99 3d 78 0b 93 3c a7 01 8c bd 50 f7 03 bc
       0.07485794 0.017949805 -0.06836253 -0.008054569
000100 b0 b1 12 3e 6a 09 53 3e 7e 92 67 bd 6a 00 d0 bc
       0.14325595 0.2060906 -0.05653619 -0.025390822
000110 38 db b2 bd af 39 27 bd 10 bb 53 ba 70 97 b3 bd
       -0.08733219 -0.040826496 -0.0008076886 -0.08769119
000120 a2 f7 f3 3d 92 e9 4f bd 63 c0 fc 3d af c8 ed be
       0.119124666 -0.05075986 0.12341382 -0.46442172
000130 bb af bc bc c4 21 42 3d 1a b8 3c be 9d ec ba 3d
       -0.023033014 0.047395483 -0.18429604 0.09127162
000140 ca f4 05 be 40 1e 6d 39 81 4f 4a be 05 71 8d 3b
       -0.13081661 0.0002261335 -0.19756891 0.0043164515
000150 d8 51 8a bc 08 90 35 3e f2 ca 9a bc 76 49 d6 3d
       -0.01688473 0.17730725 -0.0188956 0.1046323
000160 0f 0d ea bd b4 bb 22 bc 89 8f 7b bd 4f 5f 79 bd
       -0.11428272 -0.009932447 -0.061416183 -0.06088191
000170 bd 7c be bd 77 64 13 bd 1d 78 16 be 32 6d d9 3d
       -0.09301136 -0.035984483 -0.14694257 0.106165305
000180 7c eb d3 bc a8 01 98 be ba 0d c7 bd 04 79 3b bd
       -0.025869124 -0.29688764 -0.09719415 -0.045769706
000190 5b 7b 62 3e e7 34 54 3e 96 5f 43 3e 41 ce d2 3d
       0.22117369 0.20723306 0.19079432 0.10293246
0001a0 19 8b 07 be d0 46 fe bc 4f 2f 0f be c4 08 77 be
       -0.13236655 -0.031039625 -0.1398289 -0.24124438
0001b0 dc ce a3 3d e0 1f 21 3a 69 8f 27 3c 8e dc ef bd
       0.0799844 0.00061464123 0.010227063 -0.11711989
0001c0 aa 3f 12 be c9 9a 35 be 1b 1f bc bd 21 47 d3 bd
       -0.14282098 -0.17734827 -0.091856204 -0.10316301
0001d0 cc 61 fb bc 72 e7 82 3d 24 14 24 bd 44 7f 9b bd
       -0.030686282 0.06391801 -0.04005827 -0.07592633
0001e0 b2 29 6b bb 95 16 b3 3d c6 30 8a 3b 75 08 1c 3e
       -0.0035883007 0.087445416 0.00421724 0.15237601
0001f0 13 63 25 3d de 63 2d 3e 68 9a 23 bc 2a f2 dc bc
       0.040377688 0.16932628 -0.009985544 -0.026970942
000200 70 56 94 3d bc 81 01 3d 59 94 01 be 4c ed a2 be
       0.07243049 0.031617865 -0.12654246 -0.31821668
000210 98 23 c5 3d f7 9a 1a 3e e5 f1 52 be af cb 9f bd
       0.096259296 0.15098177 -0.20600088 -0.078025214
000220 b7 2d 76 3d 7f bc c1 3e a1 82 05 bf 39 d3 80 be
       0.06010219 0.37839124 -0.5215245 -0.2516115
000230 be 6b b6 3d 21 e2 5c be 70 bd 88 3e 97 c7 68 bc
       0.08907269 -0.21570636 0.2670703 -0.014207742
000240 fe 45 82 be 83 0c b8 be eb 8a f4 3d 53 4d f3 3d
       -0.25444025 -0.35947046 0.11940559 0.11879983
000250 35 53 08 bd 94 fa 18 3e 79 0a ba bd b7 51 c5 3d
       -0.033282477 0.14939338 -0.09084029 0.096347265
000260 48 d4 a8 be 26 1f f7 bd 66 4d 73 3d 0e 4f c6 be
       -0.32974458 -0.12066488 0.059399985 -0.3873219
000270 e0 f0 97 be d1 d8 be bd 5e ce 44 3e 8e 69 83 3e
       -0.2967596 -0.09318698 0.19219348 0.2566647
000280 39 b8 3e be d9 fb b6 be 8a fa 91 bc 02 58 26 3f
       -0.18624963 -0.3573902 -0.017819662 0.6497804
000290 c0 69 20 bd 2b bd 87 bd 72 bf 2d be 7a 97 20 3a
       -0.03916335 -0.06627878 -0.16967562 0.00061260874
0002a0 ff ba 70 be 78 a3 ae be d7 c1 fe bd b8 66 0e bd
       -0.23508833 -0.34109092 -0.12439316 -0.03476593
0002b0 8f b2 d8 bd 4b a5 a1 3d dd aa fc bd 63 4e a1 be
       -0.10580932 0.07892855 -0.12337277 -0.31505117
0002c0 ea 80 04 bf 50 a0 d4 3c 35 69 10 be 08 67 7d 3e
       -0.5175921 0.02595535 -0.14102633 0.24746335
0002d0 69 51 77 3c 02 39 98 be 2e 83 6f 3e 1e a0 8f 3e
       0.015095093 -0.29730994 0.23389885 0.28051847
0002e0 5e a9 8a be b9 fc b1 3d f4 24 02 be fd 87 41 be
       -0.27082342 0.08690781 -0.12709409 -0.18899532
0002f0 cb 37 92 3d d5 e3 89 3b 3b 47 d1 3c f0 92 17 bd
       0.07139548 0.004208068 0.02554666 -0.037005365
000300 93 1d f4 bc ef b5 aa be 86 4f 7f be ec ce b4 3e
       -0.029799258 -0.3334193 -0.2493268 0.3531412
000310 e9 6d 9f be 57 0d 02 3e 73 d1 e5 bd b8 7e 8a 3e
       -0.31138542 0.12700401 -0.1122159 0.27049804
000320 65 63 a8 3e e6 43 c8 ba e5 50 93 3c af 8e 92 3e
       0.32888332 -0.0015279024 0.01798291 0.28624484
000330 d1 81 14 3d 8b 9d 2a 3d 69 37 c4 3e 9d 16 1a 3e
       0.036256615 0.04165415 0.38323525 0.15047689
000340 6f 85 86 3d aa 6d 0d bf 85 49 89 3c 48 a0 4b 3c
       0.06568419 -0.5524546 0.01675869 0.012428351
000350 d7 be 27 be e3 da 62 be fb e2 e2 3e 46 9d 5f 3e
       -0.16381393 -0.22153811 0.44313797 0.21837339
000360 eb 38 8c bd 65 21 7d be 4c f9 b0 be f8 6c 89 3c
       -0.06846794 -0.2471977 -0.34565198 0.016775593
000370 55 e2 83 3d 32 2f f3 bd 9f a4 5c bd 91 d9 06 bd
       0.06439654 -0.11874236 -0.053867932 -0.03292233
000380 28 c9 87 3b 69 8a 2b 3e 84 a0 91 3d 45 ca cb bd
       0.0041438527 0.16752018 0.07110694 -0.09950689
000390 18 68 a0 be bc 1a 60 bf fb 5c 28 be 08 90 30 3e
       -0.31329417 -0.87540793 -0.16441719 0.17242444
0003a0 45 3d 4f be ef 55 10 3d ab 34 cb 3e 03 eb 56 3e
       -0.20238216 0.035238203 0.3968862 0.20988087
0003b0 3f 70 41 be 98 af d2 3d a3 9f c5 bd 06 3b a2 3e
       -0.18890475 0.10287398 -0.09649589 0.31685656
0003c0 71 04 ef 3d 4a 27 86 3d 75 17 8a bd c3 25 8e bb
       0.11670769 0.065504625 -0.06742755 -0.0043379976
0003d0 77 07 a5 3c d4 1f f7 3d ad 6b 74 3d 22 b2 9b 3e
       0.020145161 0.120666176 0.059673 0.30409342
0003e0 fd 1d 4b bc a6 9a 01 3e a1 3c da bd ae 95 22 be
       -0.0123972865 0.1265665 -0.10656095 -0.15877411
0003f0 90 3c 11 be 7b 8e c3 be 25 ad 65 3e 61 34 ac 3e
       -0.14183259 -0.3819464 0.2242933 0.33633712

image_conv.5.bias f4 [64]
000000 a0 0b 5f be b1 f1 66 3e 13 96 67 3b 1e da 1c 3d
       -0.21781778 0.22553135 0.0035337254 0.03829395
000010 2a 8d 1b 3d c6 1e a3 3c de 2b df bb e9 ce c9 bd
       0.03797642 0.019912135 -0.0068106493 -0.09853918
000020 bc a5 a8 bd 7f 41 42 be 94 5f cf 3d 42 bb df be
       -0.08234736 -0.18970297 0.10125652 -0.43697554
000030 84 5a 72 bb d3 9b 33 3d 67 10 24 bd 26 10 b2 bd
       -0.003698022 0.043849777 -0.040054705 -0.08694486
000040 a8 8a 25 bd 59 fb 25 be 91 d8 b3 bd df 8c ab bd
       -0.040415436 -0.16209163 -0.08781541 -0.083764784
000050 b7 e1 86 bc b1 8e 03 3e 44 81 ec bc d1 7b 85 be
       -0.016465051 0.12847401 -0.028870232 -0.26071027
000060 3c 75 82 bc fa 8f f7 ba 58 a3 21 3e 3f 86 41 be
       -0.015925042 -0.0018887513 0.15784967 -0.18898867
000070 ce fc a5 bd be f1 37 bd 4f 75 4b bb bd 09 b1 bb
       -0.08104859 -0.044908278 -0.0031045263 -0.005402772
000080 33 67 4d be b9 fe b8 3d 6d de 0b be 4e 66 7f bd
       -0.20058899 0.090329595 -0.13659067 -0.062353425
000090 60 f1 8f be 69 41 0e be 3a a4 12 3e cb 68 57 bd
       -0.28113842 -0.1389214 0.1432046 -0.052590173
0000a0 87 bc 9b bd 69 7b b6 3b e2 6f 58 bd c0 58 e9 bd
       -0.07604318 0.005568911 -0.052841075 -0.11393881
0000b0 8e 5e 05 bd cb 55 b2 bd 93 6e 87 bb eb 56 02 3c
       -0.032560878 -0.0870777 -0.0041330545 0.007955293
0000c0 b3 cc 82 3d 68 f6 89 bc 58 9f 83 bd 75 2e ed 3d
       0.063866995 -0.016841128 -0.06426877 0.115811266
0000d0 9c 17 60 be 0c 71 18 3d 21 12 cc 3b e5 ee 99 3c
       -0.21884006 0.037217185 0.006227747 0.018790672
0000e0 aa 0f 8b 3d c1 69 41 be 8f 2c 39 3d 01 42 01 be
       0.06790097 -0.18887998 0.04520851 -0.12622835
0000f0 e5 d4 fc 3c 4e f2 93 bd 11 13 4d be e9 74 4e be
       0.030863235 -0.0722395 -0.20026805 -0.20161785

memory_rnn.key.weight f4 [64, 64]
000000 f2 aa 63 bc 9c 6a de 3d 74 b9 51 be 52 14 87 bd
       -0.013895737 0.10860178 -0.20480901 -0.06595673
000010 e1 b9 48 3e b8 ba eb 3d da ce 18 3e 52 fd 62 be
       0.19602157 0.11510223 0.14922658 -0.22166947
000020 35 a2 ae 3d 9b f7 ba 3e 82 99 88 3d 6c 56 8e bd
       0.08527032 0.36517033 0.06669904 -0.069500774
000030 f1 56 96 3e bb 88 5f be cc e4 ce 3d ac 42 b4 3e
       0.29363206 -0.21829502 0.10102233 0.35207117
000040 ba 05 fd bd d7 ef ac 3e 59 31 a4 be 8b 5a 79 3d
       -0.12354608 0.33776733 -0.320689 0.060877364
000050 84 87 b4 3e 50 c8 24 3e bd df b4 bd f5 82 87 3b
       0.3525964 0.16092038 -0.08831737 0.0041354843
000060 cc 57 5f 3e 7c 71 00 bd 81 fc 40 3f d3 75 cc 3c
       0.21810836 -0.031358227 0.7538529 0.024958527
000070 4d f2 a2 3d 18 a5 33 3e 37 01 39 be c7 6d 97 3e
       0.079563715 0.17543447 -0.1806687 0.2957594
000080 d2 56 42 3e f0 94 2b 3e b1 8b c3 be 85 5b 62 bc
       0.18978432 0.16756034 -0.38192514 -0.013815765
000090 d0 1d 12 be 5c ec 15 3e 95 cf de 3e f4 e1 a0 bd
       -0.14269185 0.14640945 0.43517748 -0.07855597
0000a0 55 70 4f 3f 8f d7 6a 3e b5 a6 40 bb d1 6c 47 3f
       0.8103078 0.22933792 -0.002939624 0.77900416
0000b0 b4 35 39 3e 9e 6d af 3d 93 64 a5 be d5 e7 eb 3e
       0.18086892 0.0856583 -0.32303295 0.4607531
0000c0 43 93 fb 3e bc 14 8e 3d ae 0e 6c 3d 74 36 9d 3e
       0.4913579 0.069375485 0.057631187 0.30705607
0000d0 12 b9 0a bd 3f 49 51 be ab f9 92 be da 73 4b bd
       -0.033867903 -0.20438097 -0.28706107 -0.04967103
0000e0 16 94 2e bc 2d 55 41 3e 6c a1 d1 3e a3 c4 9c bd
       -0.010655424 0.18880148 0.40943468 -0.07654693
0000f0 d7 0f fe bd 3d 47 a0 3e d1 5f 13 3d 1b af 85 be
       -0.12405365 0.3130435 0.03598005 -0.26110157
000100 98 21 a9 bd fc 6a ef bd d9 3c ec bc 1f fd 3f be
       -0.082583606 -0.116903275 -0.028837608 -0.18748902
000110 e8 ac bc 3b 48 df 0c 3f 32 56 ff 3d 7f 8f a8 be
       0.0057579167 0.550282 0.12467612 -0.3292198
000120 33 49 8c be e0 38 1d be 34 ac 84 3e 2a a5 97 be
       -0.27399597 -0.15353727 0.2591263 -0.29618198
000130 c6 95 67 be d7 c0 cd bd bd 0f 2a be 31 ec 03 3f
       -0.22615728 -0.10046547 -0.16607566 0.51532274
000140 c1 f5 1a ba 86 2f eb be 35 54 a2 bd c5 1c 1f 3e
       -0.0005911254 -0.45934695 -0.079262175 0.15538318
000150 3c c2 a6 bd c1 b7 20 3e e3 49 d6 3d 49 7d 98 bd
       -0.08142516 0.15695097 0.104633115 -0.07445771
000160 40 7a 26 3e f3 81 2b bd 97 61 84 bd 2d 7b e6 be
       0.16257572 -0.041871976 -0.06463926 -0.4501585
000170 c9 cb 66 be 81 0a 0e 3e 9b 00 21 be e8 a9 11 be
       -0.22538675 0.13871194 -0.15722887 -0.1422497
000180 40 84 90 3c b7 f5 e5 3d 3b 0f fc bb ee a2 60 be
       0.017641187 0.11228507 -0.0076922453 -0.21937153
000190 48 0e fb 3d 67 d3 32 be ab c0 e2 b8 a2 a2 c6 3c
       0.12258583 -0.17463456 -0.00010812407 0.024247471
0001a0 1a b3 04 3d a5 cd 65 be d4 4d 4b be 40 81 e5 3e
       0.032397367 -0.22441728 -0.19853908 0.44825172
0001b0 76 2d 76 3d 6c 07 55 3d 7e 00 dd bc 6c 54 96 3e
       0.06010195 0.05200903 -0.026977774 0.29361284
0001c0 80 08 46 bd 61 be 50 be 5d e5 f4 be 29 45 e0 bc
       -0.04834795 -0.20385124 -0.4783124 -0.027376728
0001d0 26 38 8c bc fa df 04 3d 49 e0 71 3e 89 36 e3 bd
       -0.017116617 0.032440163 0.23620714 -0.11094386
0001e0 91 4d 11 3e 48 2d 41 be 6f 70 67 be da 50 2f be
       0.14189745 -0.1886493 -0.22601484 -0.17120686
0001f0 91 f0 79 bd ed e0 a6 3d 11 63 01 bc 68 f3 98 be
       -0.061020438 0.0814837 -0.007897154 -0.29873204
000200 38 b0 b8 bd 40 53 4e be 78 c7 64 3d c3 47 92 be
       -0.09017986 -0.20148945 0.05585429 -0.28570375
000210 5d d4 b0 3e 41 c2 18 be 2f 75 25 3c 2c 30 3c 3e
       0.3453702 -0.14917852 0.0100987395 0.18377751
000220 5e 43 97 3e 1d ca ee bd 8d be af 3e 35 e2 62 be
       0.29543585 -0.11659644 0.34325066 -0.22156604
000230 c1 ce f3 3d 20 24 b0 3e f2 20 cf 3e 09 25 ed 3e
       0.119046696 0.3440256 0.40454823 0.46317318
000240 e0 b3 64 3e 15 3e 82 be dd 9f f0 3d ad 28 1c 3e
       0.22334242 -0.2543799 0.117492415 0.15249892
000250 e2 30 70 bd 87 71 0c 3e 57 cd 65 3e fc a8 88 3e
       -0.05864037 0.13715182 0.22441612 0.26691425
000260 91 03 de 3e 41 3e 4a 3e ba 4b 05 3f 5e 96 5a 3d
       0.43362096 0.1975031 0.52068675 0.053366058
000270 04 35 0a be b7 67 16 3d 21 42 22 be 2e 7f 01 3e
       -0.13496786 0.036720004 -0.15845539 0.12646171
000280 f5 19 89 bd 5c 0f 63 3e e1 7b 89 bd 66 fd af 3d
       -0.06694404 0.22173828 -0.06713081 0.08593254
000290 63 05 dc bb 8c 70 c5 3d 34 38 11 3f 0b 69 46 bb
       -0.0067145093 0.09640607 0.56726384 -0.0030275013
0002a0 7a d9 00 3f 14 b9 92 3e a9 3b 44 3d 2b 7a e0 3e
       0.5033184 0.28656828 0.04790846 0.43843207
0002b0 5d 91 d6 bc f9 82 65 3e 79 ae e6 3d d3 ca 5f bd
       -0.026192361 0.22413243 0.11263747 -0.054636788
0002c0 0c 4b e6 3e f9 c9 ee bb 95 bb 14 bf d6 03 a5 3e
       0.4497913 -0.0072872606 -0.5809873 0.3222949
0002d0 7d 6b 47 3e 38 9b 6c 3e c2 44 dc 3a fc de 2f 3d
       0.19474597 0.23106086 0.0016805159 0.042937264
0002e0 eb 5b 6f 3e 11 4f a0 bd d8 35 42 3e eb 3f ff 3d
       0.23374908 -0.07827581 0.18965852 0.12463363
0002f0 59 ba 9b 3e 69 59 4b bd 5c e5 3c bd f3 33 7c bd
       0.3041561 -0.049645815 -0.04611717 -0.06157298
000300 b8 77 c7 3d 1b a5 9f 3e 99 4c f3 bc f9 2b 82 3e
       0.097396314 0.31180653 -0.02969961 0.25424173
000310 b4 7f 0a 3f 05 24 57 ba f5 04 2f 3e dd 32 84 3e
       0.5410111 -0.00082069664 0.17091735 0.25820056
000320 18 ad 61 bc b0 bc 8a 3d 6a 58 0e 3d 0e fd 18 be
       -0.013774179 0.067742705 0.034752287 -0.14940283
000330 2a 27 75 3b d5 02 c8 3e 5a 6b 2c 3e 76 51 c2 3d
       0.0037407377 0.3906466 0.16837826 0.09488194
000340 b3 8b 58 3e 97 e3 be 3d 00 98 3e be a8 a3 03 bd
       0.21147041 0.09320753 -0.18612671 -0.032138497
000350 d4 40 a4 bc 18 b2 59 3e 79 40 db bd 4e e3 83 3d
       -0.020050444 0.21259344 -0.107056566 0.06439839
000360 44 98 91 3e a3 70 2a 3e c6 97 e9 3e 32 0d 17 3e
       0.28436482 0.1664453 0.45623606 0.14751127
000370 99 60 87 3d 60 e1 e4 bd d7 d8 e4 3e 39 ba f0 3e
       0.066102214 -0.11175799 0.44696686 0.47017077
000380 2a 1f d5 3e e0 e6 f3 3c b6 1e 16 be 6f 9e 90 bd
       0.4162534 0.029773176 -0.14660153 -0.07061469
000390 7d 9a e4 bc 56 c6 91 3e 94 51 a7 3e 0f ed 56 be
       -0.027905697 0.2847163 0.32679427 -0.20988868
0003a0 f5 d0 15 3f 8d 80 b5 3e b8 8e a7 3e e3 e6 9b 3e
       0.5852197 0.3544964 0.32726073 0.3044959
0003b0 87 96 59 3e 10 37 69 be 15 69 12 be 88 a8 55 3e
       0.21248828 -0.22774911 -0.14297898 0.20865071
0003c0 c5 78 be 3e 1f 2c b2 3e 0e c7 e2 3e e4 d1 8a 3e
       0.37201515 0.34799287 0.44292492 0.2711326
0003d0 da 2f 60 3e d8 ec 14 3d 1e a8 af 3c 26 9f dd 3e
       0.21893254 0.036358684 0.02144247 0.43285483
0003e0 e7 24 3b bd f4 15 c5 3e 53 18 b1 3e 74 3d 01 3d
       -0.04568949 0.3849331 0.3458887 0.031552747
0003f0 0b bd 89 3d 2b f8 2d be 2d 12 39 be 39 86 f8 3e
       0.0672551 -0.169892 -0.1807334 0.48539904

memory_rnn.key.bias f4 [64]
000000 9b 48 9e b8 eb a0 af b8 7f ba 10 37 ac ad 9d 37
       -7.547551e-05 -8.3746236e-05 8.626491e-06 1.879673e-05
000010 42 23 e9 b6 f9 2a 5b 38 ef 6a 79 b7 84 22 91 37
       -6.9480457e-06 5.225369e-05 -1.4866454e-05 1.730142e-05
000020 28 5d 12 38 81 54 63 37 f2 29 fd 38 70 b5 c1 38
       3.489587e-05 1.35499295e-05 0.00012071793 9.2367525e-05
000030 42 7e b3 b7 14 34 55 38 d0 08 f7 37 e4 87 6d b8
       -2.1397256e-05 5.083166e-05 2.9448798e-05 -5.663176e-05
000040 2f 58 e2 b8 98 ce c6 b7 87 87 18 37 62 d5 d5 b8
       -0.00010792945 -2.3699642e-05 9.091461e-06 -0.00010196377
000050 80 69 d3 37 00 8d 80 38 8a 3e aa b7 22 4c 1e 38
       2.5202287e-05 6.129779e-05 -2.0294701e-05 3.774104e-05
000060 9c 35 43 b5 9e 26 4b 38 64 e4 26 b8 0b 48 b0 37
       -7.272117e-07 4.8434937e-05 -3.979019e-05 2.1014383e-05
000070 84 9c b7 b8 e8 79 88 b7 bc f1 13 b9 f9 8b 7a b8
       -8.755273e-05 -1.626923e-05 -0.00014109066 -5.9735004e-05
000080 c6 0f 55 b8 70 42 38 b9 25 95 49 38 35 8b 45 b8
       -5.0797848e-05 -0.00017572357 4.8061036e-05 -4.7098107e-05
000090 75 6b 22 35 df e9 45 37 08 7b 89 b8 5c fe 91 b7
       6.0506073e-07 1.1796567e-05 -6.5555854e-05 -1.7403792e-05
0000a0 0d 5b c4 38 01 dc 2b 36 95 ea aa 38 28 dd 81 36
       9.362968e-05 2.5609045e-06 8.149926e-05 3.8702456e-06
0000b0 9f 60 f2 37 7f 22 8f b8 ff 31 fd b6 18 0f 73 b6
       2.889364e-05 -6.825197e-05 -7.545808e-06 -3.6218607e-06
0000c0 c8 61 2d 36 53 61 42 38 74 26 de 38 c4 63 ba b7
       2.5835925e-06 4.6343845e-05 0.000105929474 -2.2219385e-05
0000d0 2c 57 64 38 96 4c 8b 38 22 3a 02 b9 ec 92 71 37
       5.444062e-05 6.642302e-05 -0.00012419422 1.4398927e-05
0000e0 02 1b 88 38 d3 7f b8 b7 d6 b1 16 38 3b d1 74 38
       6.490016e-05 -2.1994032e-05 3.592841e-05 5.8368994e-05
0000f0 ee 27 b6 38 c9 e1 6b b8 7f 9f b7 b7 68 51 49 37
       8.685874e-05 -5.6238645e-05 -2.1889571e-05 1.19994875e-05

memory_rnn.value.weight f4 [64, 64]
000000 7b 2b de 3d ae 2a 0f be d2 e0 c2 3e 37 4b ad 3e
       0.10848137 -0.13981125 0.3806215 0.33846447
000010 2e af 05 3d ba f2 d7 bd 1b 9b ed bd 2f ee e6 bd
       0.032637767 -0.10544343 -0.1160185 -0.11275899
000020 94 62 d8 3e d3 c3 89 3e c9 58 dd bd 65 f2 27 3f
       0.4226271 0.26907215 -0.1080795 0.6560424
000030 72 24 8b be ef 54 9e bc 6a a8 e0 3e d7 34 db 3d
       -0.27176243 -0.019327609 0.4387849 0.10703438
000040 04 ad 34 bc e2 c5 76 3e d2 ed d6 be a7 ef 90 be
       -0.011027578 0.24098924 -0.41978317 -0.2830784
000050 9c 6d 96 3e 03 29 b0 be 45 74 a3 3e e6 de 5c 3e
       0.293805 -0.3440629 0.31924644 0.21569404
000060 b0 6d 89 3e a6 a0 21 be e0 67 bb be d1 f4 0e 3e
       0.26841497 -0.15783939 -0.36602688 0.13960578
000070 df 0e ec 3c 16 cb c2 3d e0 0e bd 3b 73 8a a2 3e
       0.028815685 0.09511392 0.0057695955 0.31746253
000080 c7 16 84 3d b9 bb 55 3d f8 a0 6f 3e bc 94 96 bd
       0.06449657 0.05218098 0.23401248 -0.073525876
000090 db 6a 00 3e 1a db e3 3d 9e 9f e8 be 74 7b 06 3e
       0.12540762 0.11125775 -0.45434278 0.13133031
0000a0 b5 b9 4e 3d 1c 33 5a be f2 d3 ed bd a7 66 98 3c
       0.050470073 -0.21308559 -0.11612691 0.018603636
0000b0 35 70 28 bd e3 f4 10 3e 0a 56 d8 bd 61 e5 ab 3d
       -0.041122634 0.14155917 -0.10563286 0.0839336
0000c0 72 5a 28 3e 0b 0a 9a 3e 6b 97 31 3f e3 d5 44 3e
       0.16440752 0.30085787 0.6937167 0.19222216
0000d0 40 00 46 be f8 ed 6c bd 7c d3 02 be 4d d4 92 3e
       -0.19336033 -0.057844132 -0.12775987 0.28677598
0000e0 5b 95 c3 bd d6 69 a8 3e 6c 90 62 bd f2 1a e5 be
       -0.09549972 0.32893246 -0.055313513 -0.4474712
0000f0 a7 52 c6 3d e5 56 cd 3a 28 e0 7a be 04 37 77 3e
       0.096837334 0.0015666155 -0.24499571 0.2414208
000100 e7 59 52 be 16 d7 9b be 33 f6 74 3d 67 65 1b 3e
       -0.20542108 -0.30437535 0.059805106 0.151754
000110 db 69 30 3d 05 b8 16 3e ab b5 db bd b2 18 9b 3d
       0.0430697 0.14718635 -0.1072801 0.0757307
000120 bf 65 b1 be ec 2d 21 ba 7e 64 36 3b 45 b3 8a 3e
       -0.3464794 -0.00061485055 0.0027830894 0.27089897
000130 36 b1 2d 3e 6f 68 d5 3e b7 b2 bc bc 69 78 c4 3e
       0.16962132 0.4168124 -0.023034437 0.38373116
000140 0e da 51 bc 28 56 a5 3e 75 35 81 3e 28 0a d2 bd
       -0.012808336 0.32292295 0.25236097 -0.102558434
000150 fa a8 f1 3e cb 40 ae 3e 28 5a c4 3e e5 61 8f 3e
       0.4719923 0.34033808 0.38350034 0.28004375
000160 66 b4 87 3d be 82 2b 3e d1 54 94 3d 74 17 0b 3d
       0.06626205 0.16749093 0.0724274 0.033957914
000170 e1 63 3c 3e 30 f0 8e be a7 fe 59 3e 11 35 94 3e
       0.18397476 -0.27917624 0.21288548 0.28946736
000180 f1 bd ae bd f5 89 cc 3d 67 17 15 3c 9b bc 2c 3d
       -0.08532322 0.09987251 0.009099818 0.042172056
000190 a9 c5 75 bd a9 63 be bd 39 67 3e 3e c9 97 33 3e
       -0.060002957 -0.092963524 0.18594064 0.1753837
0001a0 2e 46 13 3c eb 7b 14 3e 4c bd 81 3e 64 c4 6f bd
       0.0089889 0.14500396 0.25339735 -0.058536902
0001b0 7a 1c b0 3d 24 c5 3c be 18 6f 19 3e cd 08 c2 3e
       0.085991815 -0.18434578 0.14983785 0.3789734
0001c0 6f e0 67 be bf 49 88 3e 31 f8 f7 be d4 b8 d7 3d
       -0.22644208 0.26618764 -0.48431543 0.105333
0001d0 3a 72 9a 3e 33 84 4d 3e 1d f0 dc 3d 23 76 26 3e
       0.30165273 0.20069961 0.107879855 0.16256003
0001e0 65 88 fb 3d 2f 0c 9d bc 97 1a 60 3e ae b0 5a be
       0.122818746 -0.019170849 0.21885143 -0.2135646
0001f0 ce 2d f4 3e 09 ba 1c be 37 b1 29 bd 2d 9e 9c 3e
       0.47691196 -0.15305342 -0.04142877 0.3058943
000200 92 2c 19 be 76 72 9f 3d e7 a1 36 3e 5e 75 25 3e
       -0.14958408 0.077855036 0.17835198 0.16158053
000210 f6 89 91 3e f9 f9 85 3e fe 6a 47 bc 87 28 39 be
       0.28425568 0.26167277 -0.012171505 -0.18081866
000220 07 83 b8 bd e5 4a 49 3e f7 e1 4c 3e 2c 4d 3e 3e
       -0.090093665 0.19657476 0.20008074 0.18584126
000230 9a 12 62 3e 5d 1d ae 3e d2 bc c9 bd 69 cb 34 3e
       0.22077408 0.34006777 -0.09850468 0.1765572
000240 00 a2 2f bc 2f 86 04 3d 5a e3 e9 3e 9b 83 9f bd
       -0.010719776 0.03235453 0.45681268 -0.077887736
000250 87 42 b3 3d 59 db 9d 3e d6 47 b5 3d eb 79 9d bd
       0.087529235 0.3083141 0.08851592 -0.0768927
000260 c7 1b 28 3e 92 c0 9a 3e f4 bc 01 3f 0e 79 03 bd
       0.16416846 0.30225044 0.50678945 -0.03209787
000270 04 4e 79 3e 81 51 8b 3e 1c 42 4b 3e fc db 50 3e
       0.24346167 0.2721062 0.19849437 0.20396417
000280 9e a5 cf 3e f5 4a 6b 3e ad 42 53 bb c2 b7 a7 3d
       0.40556043 0.22977813 -0.0032235787 0.08189346
000290 e0 6b bc bc 41 e7 29 be f0 e9 be 3e 2a 2b 2f be
       -0.023000658 -0.16592123 0.37287855 -0.1710631
0002a0 e0 3c a7 3e 93 2f 4d 3e 50 3d 8c be 8a 8b 3b bd
       0.3266363 0.2003768 -0.27390528 -0.04578737
0002b0 a5 2e 7c 3d 9d 0f 16 be 9d c9 5c 3d 4f 52 26 3e
       0.06156792 -0.14654393 0.05390321 0.16242336
0002c0 d1 8c 5f 3e 47 83 79 3d 7b 08 1e 3e 93 04 32 3d
       0.21831061 0.06091621 0.15432923 0.043461394
0002d0 e3 e9 f6 bd 61 ba 66 3e f0 12 89 be bb 13 6b 3d
       -0.12056329 0.22532035 -0.2677226 0.057391863
0002e0 bb eb 90 3e 03 4a ae 3d 2a 46 ee 3d 52 54 c7 3e
       0.28304848 0.0851021 0.116344765 0.3893152
0002f0 b7 10 a6 3e 09 0c 2b 3e cd 48 d3 bc a1 57 89 bd
       0.32434627 0.1670381 -0.02579155 -0.06706167
000300 45 e3 a0 bd a4 33 99 3d 28 6d 6a 3e 4b ce 32 3e
       -0.07855848 0.07480553 0.22893202 0.17461507
000310 ca 65 6f 3e fe 61 f1 bd 1a 6c a4 bc c3 2b 90 3d
       0.23378673 -0.11786269 -0.020071078 0.07039597
000320 29 13 43 3d 66 47 df 3e 7a a8 2d be 6e b7 6b 3e
       0.047625694 0.4360916 -0.169588 0.23019192
000330 53 4a 62 bd 82 cf 6f be 17 94 79 3d f7 44 25 be
       -0.055246662 -0.23419002 0.060932245 -0.16139589
000340 48 d7 5b 3e 31 7d 10 be f8 31 8d bd 0a f7 ef 3d
       0.21468842 -0.14110257 -0.068942964 0.11717041
000350 7f 41 e4 bd 4f bf 12 3e 64 a4 65 3c 1f aa 18 be
       -0.11145305 0.14330791 0.014016245 -0.14908646
000360 69 a3 b2 3e 98 b6 f5 be a9 95 6a be 5b 02 1f 3e
       0.34890297 -0.4799087 -0.22908653 0.15528242
000370 d9 e7 65 3d df aa f4 bc c4 5e 55 3e 95 58 56 3c
       0.05612931 -0.029866634 0.20836931 0.013082643
000380 a3 61 77 bd 74 4c f5 3c 38 ca 27 3e 83 84 0b bc
       -0.060395848 0.029943682 0.16385734 -0.00851548
000390 0d 54 90 bd 29 2e 01 be a3 b4 26 3e 42 0e 7f 3d
       -0.070472814 -0.12615265 0.16279845 0.062269457
0003a0 cf 30 ca 3d 6d ae 8e 3e 21 a9 f0 3d 17 e0 3b 3e
       0.09872591 0.2786745 0.11751009 0.18347202
0003b0 d5 69 a9 3e a0 1e 8a bd 5e 35 b5 3d 84 6e 95 3e
       0.33088556 -0.067441225 0.088480696 0.2918588
0003c0 a3 e7 0b be 84 02 eb bd f0 9c fe 3d 82 3e 98 3e
       -0.13662581 -0.11475089 0.12432277 0.2973519
0003d0 52 83 e1 bd e7 63 d8 3a 38 4a f5 bd 63 e0 92 3e
       -0.110113755 0.0016509265 -0.11977047 0.28686818
0003e0 2c f2 96 bc b6 42 fb 3d 2e b6 f3 3d 97 6b 99 bd
       -0.018426023 0.122685835 0.118999824 -0.07491224
0003f0 7e 74 11 3c d4 fa 09 3d 34 09 29 3e 34 2b 2b 3e
       0.008877872 0.033686474 0.16507417 0.167157

memory_rnn.value.bias f4 [64]
000000 04 25 a0 3c 90 f5 d4 3d f5 48 6c bd 0c ee b4 3d
       0.0195489 0.103984 -0.057686765 0.08834466
000010 80 25 ce 3d 3b 6c 51 3d d9 bf 85 3c 44 95 ae bd
       0.10065746 0.051128607 0.016326832 -0.08524564
000020 85 37 32 be eb 7a 84 3d e5 61 01 be 4a 8a 35 3e
       -0.17403992 0.06468757 -0.12635 0.17728534
000030 d2 0c 41 bd 56 b4 44 be 6b 60 f3 3d f4 ce 46 3e
       -0.047131367 -0.19209418 0.11883625 0.19414884
000040 fd b0 39 3e 2a d0 1f bd 1f a4 b6 3d 4d 8f be bc
       0.18133922 -0.03901688 0.08918022 -0.02326169
000050 a2 ac 2c 3d cc 31 26 bd 09 26 80 3d 31 d9 2e be
       0.042156823 -0.040574834 0.06257255 -0.1707504
000060 0d 30 4d bd 48 7c 84 3b 07 e1 b6 bc 3f a7 27 3d
       -0.050094653 0.004043136 -0.022324098 0.040930983
000070 54 3e 52 be 15 b1 00 bb 56 8d 87 3d 59 fa 99 bd
       -0.20531589 -0.00196368 0.066187546 -0.07518453
000080 9b 8e b7 bc d5 48 f1 bc 9a 3e 7f 3e d6 8c 15 bd
       -0.022406867 -0.029453674 0.24926224 -0.036511265
000090 a3 74 28 be 39 d4 1e 3e f8 6e 9c 3d 44 67 52 3d
       -0.16450743 0.15510644 0.07638353 0.051368013
0000a0 a6 49 c0 bd 79 dc 9c bd 3a 1b 90 3d d2 35 9e bc
       -0.09389047 -0.07659239 0.07036443 -0.019312773
0000b0 8f 96 cf bd 11 de 5d 3d 30 d7 d7 3d 92 35 6e bd
       -0.10136139 0.054166857 0.10539091 -0.058156557
0000c0 6c 33 af bd bf 01 b6 ba 61 ab 13 3d aa c2 45 3e
       -0.0855473 -0.0013886018 0.03605211 0.1931254
0000d0 07 c7 8a bd f2 6d 87 3c 48 2f 20 be 67 17 b1 bc
       -0.06776243 0.016531918 -0.15643036 -0.021617604
0000e0 ff b3 c1 3c 4b e2 7e bd bf cd e0 bc c3 b3 d3 3d
       0.0236454 -0.06222753 -0.027441857 0.10337021
0000f0 96 dd 9b bd 24 a7 6c bd f0 4c 0e 3d 66 10 3f bc
       -0.076106235 -0.057776585 0.034741342 -0.011661625

memory_rnn.rnn.i2h.w f4 [6, 64, 40]
000000 84 48 10 3e 05 45 d7 be ff 4f e6 3c a8 79 0b 3f
       0.14090163 -0.42044845 0.028114317 0.5448251
000010 7f 05 89 be 0b 45 2a be 7b 66 53 bc 29 f3 b4 3e
       -0.26762006 -0.166279 -0.012902851 0.35341766
000020 8a 26 06 3e 2f d6 3d bd 44 71 0a 3d 91 75 00 bf
       0.13100639 -0.04634684 0.033799425 -0.5017939
000030 e5 d0 67 3e a9 ce 69 3e 0f 09 3c be 32 04 9f 3e
       0.2263828 0.22832741 -0.1836283 0.31057888
000040 39 21 a8 3e 28 7a 0a bf 71 f9 21 3f 01 51 39 3e
       0.32837847 -0.54092646 0.6327124 0.18097307
000050 18 f5 70 3e 50 41 1a be b4 75 1c 3f e2 7c 10 3f
       0.23530996 -0.15063977 0.611171 0.56440556
000060 1d a1 02 be 63 ff 1a 3f 9d e9 b9 be fb 9c 9a 3d
       -0.12756772 0.6054594 -0.36311045 0.07549473
000070 7b 56 c0 3e 54 d9 74 be 58 80 41 be 0c f4 d7 3e
       0.3756598 -0.23911029 -0.18896616 0.4217838
000080 03 cc 01 3d d1 9d 0f bd fa bf c9 3e 6e 0f 34 3e
       0.0316887 -0.035062615 0.3940428 0.17584011
000090 4d a6 16 3d 08 33 16 be f0 07 c5 3d 47 07 a1 be
       0.03677969 -0.14667904 0.096206546 -0.31450865
0000a0 d4 d0 96 bd 71 46 51 3e 4f 2e 0c 3f 16 ce 36 3f
       -0.073640496 0.20437028 0.5475816 0.7140821
0000b0 ae 01 fe 3d 77 dd cb 3e b8 42 0c 3b 4d 7d 93 3e
       0.12402664 0.39817402 0.0021402072 0.28806534
0000c0 ee ea b3 3e ed 0b 1a be 3b 78 c0 3d 7b 40 31 be
       0.35140175 -0.15043612 0.09397932 -0.17309754
0000d0 91 65 dd 3c 9c 8b 94 be 58 f1 96 be 14 48 81 be
       0.02702597 -0.29012764 -0.29481006 -0.25250304
0000e0 cf 2c 5f 3e a0 73 c8 3e 0b 17 3b 3d 57 fb fb bd
       0.21794437 0.39150715 0.045676272 -0.12303799
0000f0 b5 6a cf 3e d7 e1 50 3e bb 04 22 3e 39 09 5b 3f
       0.40511099 0.20398651 0.15822117 0.8556095
000100 73 a7 3f 3d b7 a0 dd 3e f6 5e 72 bc 58 ff 42 3f
       0.04679055 0.43286678 -0.014793148 0.76170874
000110 02 cf 81 3d be 45 46 3e 97 a0 1f 3e fa f7 48 be
       0.06338312 0.19362542 0.15588604 -0.19625846
000120 98 83 d2 3e 6f d8 42 be ca e1 87 be 5b 48 94 3e
       0.41116023 -0.19027875 -0.2653945 0.28961453
000130 dc 87 74 be 97 b4 ac bd 53 7e 4f be c9 5c 6c 3e
       -0.23879951 -0.08432882 -0.20263033 0.2308227
000140 19 48 13 3f f4 ee 0a 3e 59 b7 34 3e 17 a1 4f 3e
       0.5753189 0.13567716 0.17648067 0.20276295
000150 fd 9f 4b be 33 bb 9b 3e 16 a5 b8 3b 44 cf b6 3e
       -0.1988525 0.3041626 0.005634914 0.35705006
000160 6d 24 2b be 63 7a 54 be 3c cd ef 3e 53 4e 65 3e
       -0.16713114 -0.20749812 0.4683627 0.2239316
000170 02 da 06 3d 58 8d 6d be 5a 75 bd be c7 67 c3 3e
       0.032922752 -0.2319845 -0.37003595 0.38165113
000180 a8 4a a9 be f1 dc 10 3e a6 a8 84 be 92 68 49 bc
       -0.3306477 0.14146782 -0.2590992 -0.012292998
000190 74 c1 03 3e 83 42 00 3d e6 f4 05 3e 87 6a 1f 3e
       0.12866765 0.03131343 0.13081703 0.1556798
0001a0 fd 66 bc 3e 03 38 0f 3f 98 d2 95 3e 5d d9 aa bd
       0.36797324 0.5594484 0.29262233 -0.0834224
0001b0 4d 46 bd 3d 5b 3e f2 3e 2c d7 e8 bd 75 8b 52 3f
       0.092419244 0.47313198 -0.11369166 0.82244045
0001c0 5c 03 b2 3e c5 d9 c3 be 07 c0 80 3e 68 86 f3 3d
       0.34768188 -0.38252082 0.25146505 0.1189087
0001d0 13 fc 81 be 79 7f d5 be 71 52 c8 bc 90 f2 a8 be
       -0.2538763 -0.41698816 -0.024453374 -0.3299756
0001e0 f2 59 19 3f 24 93 1e 3d 86 b4 8e 3d b1 ec ac 3e
       0.5990287 0.038714543 0.06968026 0.3377433
0001f0 f5 f8 bd be d3 15 c0 3e 01 4d bc bd 9b ca 45 3f
       -0.37104002 0.3751665 -0.09194375 0.77262276
000200 25 c6 09 3e 0c 6e d0 3e 36 82 d9 bc d0 04 26 3f
       0.13454492 0.4070896 -0.026551347 0.64851093
000210 4d 92 c4 bd 9e 5c 1f be d2 b0 40 3b 53 e4 b7 3e
       -0.09598217 -0.15562674 0.0029402268 0.35916385
000220 65 33 bc 3e e5 08 fa 3b 4e 03 81 3d 65 61 8b 3d
       0.3675796 0.007630455 0.062994584 0.06805686
000230 ef 7f b6 3e a0 67 b0 be 3e 70 78 3e 5e 30 27 3f
       0.3564448 -0.3445406 0.24261567 0.6530818
000240 36 8e 1e be e0 71 c1 3e 24 35 19 bd 5d 95 41 3f
       -0.15483937 0.37782192 -0.037404194 0.75618535
000250 0d 2e bb 3e cd 4c a3 3e f4 1f 75 3e 67 69 49 bd
       0.3655857 0.31894532 0.2393797 -0.049172785
000260 66 20 aa bd 75 af 89 be 1e 94 dd 3e 24 51 85 3e
       -0.08306961 -0.26891676 0.43277067 0.26038468
000270 e5 94 de 3e 46 c6 34 3e 64 5f a0 3d cf fb 2f 3d
       0.43472973 0.1765376 0.07830694 0.042964753
000280 88 a7 04 be a3 6e 8c be 5f 7b 04 3d 78 e8 32 3e
       -0.12954533 -0.2742816 0.03234422 0.17471492
000290 0d 66 93 3e 65 55 83 3f 89 fd 70 bc 2f 36 09 bc
       0.28788796 1.0260435 -0.014708885 -0.008374735
0002a0 20 ce fa bd 4a 21 d9 be 9f f1 d3 be 72 fd 37 3e
       -0.122463465 -0.4240821 -0.4139528 0.17967775
0002b0 52 cd f3 bd 19 1b 1a bf e8 14 73 3e 65 0a 95 be
       -0.11904396 -0.601976 0.23738444 -0.29109493
0002c0 5e b6 c6 bd 91 4b af be e4 00 42 be 24 b2 f4 3e
       -0.097027525 -0.3423734 -0.18945652 0.4779216
0002d0 18 a5 ea bd 57 6a 8f be 75 de 4e be 76 c4 7c be
       -0.114572704 -0.28010818 -0.20202048 -0.24684319
0002e0 0f 8f ef 3e 1e 49 e8 3d db 18 54 bc 64 50 44 be
       0.46788833 0.11342071 -0.012945379 -0.19171292
0002f0 12 d1 15 3e 22 32 38 bb 0e 68 c6 bc e5 11 c6 3e
       0.14630535 -0.0028106053 -0.024219539 0.38685527
000300 f3 0b db bd ad fe b3 be 39 93 b1 3c 01 7f 26 be
       -0.106956385 -0.3515524 0.021676647 -0.16259386
000310 b4 2e 7b bd b1 35 30 be 27 27 49 bd f8 be 1c bd
       -0.061323836 -0.17207982 -0.049109604 -0.03826806
000320 3b e9 4a be 11 29 01 bd a1 42 24 3f fb 76 11 be
       -0.19815533 -0.031533305 0.6416417 -0.14205544
000330 b4 f9 e0 be 96 95 65 be da 31 07 be ce 5f ad bc
       -0.43940508 -0.22420344 -0.1320261 -0.021163847
000340 6d ea 0a bf 85 ce 91 3d f1 0e d5 be 28 26 b3 3d
       -0.54263955 0.071194686 -0.41612962 0.08747512
000350 60 75 b5 3d 14 cc d7 3e 8a f9 2e be 1d 30 2b 3d
       0.08860278 0.42147887 -0.17087379 0.04179393
000360 02 fe 84 be 76 f6 12 be 18 57 ad bd 2c c1 63 be
       -0.25975043 -0.1435183 -0.084638774 -0.22241658
000370 67 bd 2a bf e3 ff 15 be 8c 73 12 3f 97 24 15 3e
       -0.66695255 -0.14648394 0.5720756 0.14564739
000380 97 1b e7 be 5c 00 85 3e 11 35 c4 3e d7 a1 48 be
       -0.45138237 0.25976837 0.38321736 -0.19592987
000390 b4 30 1f ba 87 d1 20 be d3 6d 3c be 8f e7 6f be
       -0.0006072626 -0.15704928 -0.1840127 -0.23428176
0003a0 b4 2a d4 be bd b2 85 be 82 c2 41 3e 2a ba 94 3e
       -0.4143883 -0.2611293 0.18921855 0.29048282
0003b0 23 2e b0 be a3 a7 40 3d a9 bd 97 3e 7f 48 9e bd
       -0.344102 0.04703487 0.29636887 -0.07728671
0003c0 c6 c2 cb 3e 4f 7b 60 3d 1f d7 68 be ab 31 6c bd
       0.39797038 0.054805096 -0.22738312 -0.057664555
0003d0 68 41 0b 3f f6 b7 c6 3d c4 3e eb 3e ca db a3 3e
       0.54396677 0.097030565 0.45946324 0.32003623
0003e0 67 1d 6c 3e 87 c4 2e 3e 23 a5 36 be e6 a9 49 3e
       0.23058091 0.17067157 -0.17836432 0.19693717
0003f0 9e 4f 15 3e 5e cd 4e bf 52 a8 e1 be ab 3e b3 3e
       0.14581153 -0.80782115 -0.4407373 0.3500875
