Recurrent-Independent-Mechanisms/minigrid_experiments/storage/2023-11-15_wallgap-doorkey-redblue-crossing_ppo_123456_500000_metalearn_True_rims_6_k_4_reshape_False/2023-11-15_wallgap-doorkey-redblue-crossing_ppo_123456_500000_metalearn_True_rims_6_k_4_reshape_False_fullmodel_task_2.pth (torch, 288794 bytes, 24 tensors)

weight f4 [16, 3, 2, 2]
-0.36440176 0.17702556 -0.03535433 0.45173025 -0.2659632 -0.07664594 0.017070543 -0.14436871
-0.07427974 -0.08502972 -0.33008897 0.43794054 0.27827325 -0.42213693 0.092405125 -0.24366671
0.24224819 -0.1492481 -0.37530914 0.010843938 -0.008286203 0.23301841 0.39969647 0.32526025
0.13942574 -0.14928547 0.1785451 -0.31525382 -0.23159815 0.39119288 -0.20731027 0.17982118
0.60335976 -0.1458224 0.15549156 -0.17320034 0.17621706 -0.18365067 0.099886276 -0.19864112
0.006750927 0.016966 -0.25651586 0.3602277 -0.031270348 -0.03657821 -0.08574194 -0.104180366
0.06508978 0.0024909934 -0.033215452 0.23636103 -0.36594987 -0.4883359 -0.04807594 0.07653729
-0.01578694 0.26200002 -0.078781284 0.5944638 -0.153233 -0.11555281 0.03937954 0.48033738
0.07168498 0.024233393 0.2249158 -0.36196518 -0.24223542 0.1234231 -0.11552141 -0.3976255
0.25950885 0.66199344 -0.26173925 -0.31279352 -0.10266967 -0.19597378 -0.0135034695 0.09213
0.16497916 -0.125311 0.16999374 -0.06806547 0.14284866 0.2081205 -0.29117158 0.37730664
-0.30866915 -0.0066295066 0.06935703 -0.10628536 0.08322813 0.09068877 -0.04314062 0.32602093
0.4069531 -0.2505678 0.08787345 -0.21292424 0.1171898 0.045741133 -0.51050633 0.14692175
0.74212945 -0.197926 0.015183676 -0.008313881 -0.20311889 0.07870981 -0.39298773 -0.33561572
0.15215214 -0.12432253 -0.05236584 0.17786843 -0.048707813 0.2337802 -0.15798838 0.3030507
0.07554869 0.08793085 0.13504986 -0.36671928 -0.12920196 0.14740434 -0.44770664 -0.0978364
0.40889013 -0.19634044 0.037622992 -0.28643614 -0.118988484 -0.281345 0.00907537 -0.39004487
0.36928096 0.14074342 0.41028714 0.03625981 0.13105547 -0.28389686 0.17853624 -0.16619992
0.38533303 -0.19012898 0.36151603 -0.2795697 -0.44752288 -0.5078481 -0.09776048 0.10623433
-0.1337177 -0.13337545 0.43413872 -0.20124356 0.038913526 0.09065465 -0.06279791 0.0978472
0.1290055 0.25056455 -0.36499962 -0.24345402 -0.41608226 -0.34530735 -0.21775381 0.059839576
-0.10445535 -0.43041742 0.26487997 0.15409894 -0.1436711 0.20529857 -0.19549175 0.40308923
0.49623153 -0.4479049 -0.16407178 -0.32393506 0.35133857 -0.16739812 0.6201262 -0.09671695
-0.2867874 0.24457517 -0.14813495 -0.43764174 0.55100334 0.3218523 -0.020689532 0.13126501
00000000: de92 babe 3046 353e b4cf 10bd 3049 e73e
00000010: 542c 88be 8cf8 9cbd 86d7 8b3c 64d5 13be
00000020: fa1f 98bd 1024 aebd 6c01 a9be be39 e03e
00000030: d579 8e3e 5522 d8be e63e bd3d c483 79be
00000040: e90f 783e 7ed4 18be 8528 c0be c6aa 313c
00000050: dbc2 07bc 619c 6e3e 04a5 cc3e 8388 a63e
00000060: 9fc5 0e3e 4ade 18be 87d4 363e f368 a1be
00000070: 1128 6dbe 6f4a c83e 2549 54be 0b23 383e
00000080: c975 1a3f 7852 15be 2e39 1f3e 6e5b 31be
00000090: 3f72 343e ec0e 3cbe 2d91 cc3d 9468 4bbe
000000a0: e136 dd3b 48fc 8a3c 0c56 83be c46f b83e
000000b0: 5615 00bd 08d3 15bd 7899 afbd 845c d5bd
000000c0: ca4d 853d ef3f 233b ed0c 08bd a008 723e
000000d0: c85d bbbe 2a07 fabe 47eb 44bd 95bf 9c3d
000000e0: 9d53 81bc de24 863e 1558 a1bd c82e 183f
000000f0: 1de9 1cbe f4a6 ecbd 714c 213d c8ee f53e
00000100: 93cf 923d 1c85 c63c 5450 663e 8053 b9be
00000110: 900c 78be 40c5 fc3d 7d96 ecbd 9295 cbbe
00000120: 58de 843e 6778 293f b002 86be 7926 a0be
00000130: 7a44 d2bd 5aad 48be a83d 5dbc a7ae bc3d
00000140: 4cf0 283e 8751 00be d712 2e3e e965 8bbd
00000150: eb46 123e 8a1d 553e 7114 95be 562e c13e
00000160: e209 9ebe 553c d9bb 0f0b 8e3d 24ac d9bd
00000170: 8373 aa3d 09bb b93d 38b4 30bd 37ec a63e
00000180: 285c d03e 6c4a 80be fff6 b33d d008 5abe
00000190: 3501 f03d 0e5b 3b3d 8bb0 02bf a872 163e
000001a0: 32fc 3d3f 1dad 4abe f4c4 783c f236 08bc
000001b0: 66fe 4fbe 9c32 a13d b035 c9be d3d5 abbe
000001c0: c5cd 1b3e d09c febd 907d 56bd 2423 363e
000001d0: d881 47bd 1464 6f3e b5c7 21be 7629 9b3e
000001e0: 46b9 9a3d 1715 b43d 834a 0a3e a1c2 bbbe
000001f0: 854d 04be 2af1 163e ce39 e5be 735e c8bd
00000200: 0c5a d13e 780d 49be 911a 1a3d c2a7 92be
00000210: 3cb0 f3bd 740c 90be dcb0 143c f6b3 c7be
00000220: 6512 bd3e 0b1f 103e 2811 d23e 2b85 143d
00000230: 6833 063e ee5a 91be 34d2 363e 5030 2abe
00000240: 5f4a c53e 2cb1 42be a118 b93e c223 8fbe
00000250: b821 e5be 5502 02bf a636 c8bd 6291 d93d
00000260: 4bed 08be 9393 08be 6e47 de3e cb12 4ebe
00000270: ca63 1f3d 25a9 b93d 319c 80bd 1d64 c83d
00000280: 051a 043e ff49 803e 3be1 babe 034c 79be
00000290: bc08 d5be 20cc b0be dbfa 5ebe 581a 753d
000002a0: b0ec d5bd ac5f dcbe 599e 873e 1dcc 1d3e
000002b0: 841e 13be ca39 523e fd2e 48be b661 ce3e
000002c0: 0f12 fe3e cb53 e5be 6f02 28be d1da a5be
000002d0: a6e2 b33e 6a6a 2bbe 97c0 1e3f 8913 c6bd
000002e0: ccd5 92be ea71 7a3e b0b0 17be 9412 e0be
000002f0: 8e0e 0d3f d3c9 a43e 187d a9bc 566a 063e

bias f4 [16]
-0.43893442 0.16659538 0.008878829 0.091368526 -0.17475054 -0.30507252 0.049146846 -0.43389097
-0.24259372 -0.030328652 -0.017163634 -0.21783255 -0.21595189 -0.024307942 -0.12786393 -0.1629006
00000000: 03bc e0be fb97 2a3e 8278 113c 6c1f bb3d
00000010: cef1 32be 7732 9cbe 344e 493d f526 debe
00000020: 7d6a 78be cb73 f8bc c09a 8cbc 7f0f 5fbe
00000030: 7e22 5dbe 7321 c7bc c3ee 02be 6acf 26be

weight f4 [32, 16, 2, 2]
-0.04577193 7.903791e-05 0.19280152 -0.18864381 -0.120347425 0.37268692 -2.6326277e-05 -0.25628155
-0.01476711 -0.42361277 0.10934655 -0.006996858 -0.11313639 0.07656301 -0.037409022 -0.13698876
-0.15214008 0.01321104 0.15316275 0.06207096 -0.17407866 0.043145675 0.2382471 0.009482277
-0.2077797 0.24153975 0.36001474 -0.03126067 0.13010143 0.21564738 -0.02164207 0.009162652
0.13475385 0.38393098 0.18152656 0.03506876 -0.15054834 0.12461101 0.0024381764 -0.13464093
-0.31344467 0.0032296844 0.028242374 0.08561492 -0.09130161 0.011163126 -0.16037786 -0.005238057
-0.32484722 0.19466886 0.16641116 0.26135138 -0.1269248 -0.02421369 0.08171498 0.2535126
-0.08697996 -0.3761543 -0.070744306 -0.091646925 -0.19124216 0.3277332 0.02041485 0.050709683
-0.19992451 -0.05213436 0.28617615 0.21078655 0.33453417 0.021639545 -0.007437724 -0.007009847
0.13690186 -0.1760049 -0.11215162 -0.27306786 0.16690402 0.03732577 -0.07469845 -0.011169981
0.09802234 0.10006257 0.04110969 0.22600265 -0.17248385 0.1779883 -0.40122712 0.2684542
0.0028660225 -0.02398339 0.15305263 0.20789413 0.16629584 -0.11000017 0.27629924 0.19318391
0.24091116 0.045405306 -0.07361454 -0.1664647 -0.12804936 -0.15335348 0.21245036 -0.013104351
0.11435677 -0.0054923133 0.052379582 -0.058213353 -0.26251966 -0.14097379 -0.14670786 -0.1382697
0.13407591 -0.005931951 0.154995 0.5107994 -0.1723229 -0.118695855 -0.03216734 -0.0597743
0.093774036 -0.052482035 0.115748644 -0.08577305 0.06715942 -0.18044479 0.18315618 0.4437409
-0.046131745 -0.13289195 -0.057907224 -0.12216567 -0.00338529 -0.02931267 0.024129428 0.077493
-0.013410116 -0.057075944 0.059525564 -0.015865475 -0.035048913 -0.13145247 0.064042725 0.05143362
-0.046914518 0.039262712 -0.11187025 0.07673713 0.08062057 -0.017372746 -0.059459284 0.030843923
0.041593242 0.0030974897 -0.02140255 0.06052632 0.05507075 -0.1177515 -0.042513527 -0.022390168
0.0649891 0.02164358 -0.10198961 -0.04511953 0.05644281 -0.15567237 0.043526247 -0.11155412
-0.01481166 -0.112715006 -0.08043415 0.029961305 0.047408678 -0.057950333 -0.06694063 -0.011280438
-0.109108046 -0.13950792 0.0059348396 -0.007992542 -0.024925314 -0.017281417 -0.061337292 0.056560695
-0.13766836 -0.01472272 -0.1114119 -0.08026405 -0.11369119 0.032377195 -0.07960554 0.06223531
-0.0990357 -0.1843961 -0.1246805 -0.16371007 -0.11684964 0.2608521 -0.113159455 0.060332302
-0.08015021 -0.123468764 -0.03328951 0.27252546 0.067813486 0.10831938 0.05023002 -0.090087935
-0.029925546 -0.017005395 -0.013359487 -0.07011164 0.05011746 -0.25937113 0.019550325 0.05727101
0.03474156 -0.36610442 -0.10182317 -0.31964937 0.0032862343 -0.16336377 -0.1520054 -0.094717555
0.13318725 0.112454005 -0.085060075 0.16465627 -0.15577058 0.083100185 -0.041829806 -0.016172033
0.056758687 0.09039434 -0.22914334 0.030769715 0.024607714 0.21485633 0.124745995 0.2216473
-0.065301254 -0.22097532 -0.11402716 0.034073412 0.08534255 0.05756518 -0.072796375 0.21456514
0.037077434 0.14643207 0.030470148 0.035283163 0.0056677726 0.02366636 -0.06931972 0.0013227204
00000000: 597b 3bbd 28c1 a538 c36d 453e d82b 41be
00000010: b678 f6bd d2d0 be3e 40d7 dcb7 5637 83be
00000020: c0f1 71bc c6e3 d8be 16f1 df3d e645 e5bb
00000030: 0db4 e7bd 11cd 9c3d 343a 19bd c846 0cbe
00000040: 9cca 1bbe 1e73 583c b2d6 1c3e 1e3e 7e3d
00000050: ad41 32be 85b9 303d 0cf7 733e 8d5b 1b3c
00000060: 34c4 54be 3256 773e da53 b83e 300b 00bd
00000070: 4f39 053e abd2 5c3e b64a b1bc f31e 163c
00000080: eafc 093e 9a92 c43e 19e2 393e 43a4 0f3d
00000090: 5829 1abe 0f34 ff3d d0c9 1f3b 50df 09be
000000a0: d27b a0be 1da9 533b 8d5c e73c e056 af3d
000000b0: 57fc babd 8be5 363c 183a 24be 02a4 abbb
000000c0: 6052 a6be 4657 473e b067 2a3e d9cf 853e
000000d0: 93f8 01be ca5b c6bc 2f5a a73d 67cc 813e
000000e0: 8d22 b2bd 4c97 c0be 64e2 90bd 62b1 bbbd
000000f0: fcd4 43be a5cc a73e 0b3d a73c f5b4 4f3d
00000100: 03b9 4cbe d78a 55bd ae85 923e 6ed8 573e
00000110: 1048 ab3e 6a45 b13c 27b8 f3bb dcb2 e5bb
00000120: 0030 0c3e a13a 34be c0af e5bd 8dcf 8bbe
00000130: e3e8 2a3e e8e2 183d 80fb 98bd 4c02 37bc
00000140: f0bf c83d 9bed cc3d a262 283d 3d6d 673e
00000150: 9b9f 30be 9142 363e a46d cdbe d472 893e
00000160: e1d3 3b3b d078 c4bc d4b9 1c3e 33e2 543e
00000170: 7549 2a3e c547 e1bd 1877 8d3e 01d2 453e
00000180: 6ab1 763e eafa 393d 38c3 96bd b975 2abe
00000190: 5f1f 03be b208 1dbe 968c 593e a2b3 56bc
000001a0: e233 ea3d ddf8 b3bb f98b 563d 2071 6ebd
000001b0: fa68 86be 6f5b 10be 963a 16be 9296 0dbe
000001c0: 324b 093e d060 c2bb 02b7 1e3e c0c3 023f
000001d0: 6a75 30be d016 f3bd e7c1 03bd e5d5 74bd
000001e0: 9a0c c03d 67f7 56bd a00d ed3d c8a9 afbd
000001f0: e18a 893d 85c6 38be 4b8d 3b3e 0232 e33e
00000200: a4f4 3cbd d414 08be 2030 6dbd ff31 fabd
00000210: bedb 5dbb 2021 f0bc 14ab c53c a6b4 9e3d
00000220: 1ab6 5bbc 77c8 69bd 14d1 733d 50f8 81bc
00000230: 738f 0fbd 7a9b 06be d528 833d 0fac 523d
00000240: 7029 40bd f0d1 203d 3b1c e5bd 5b28 9d3d
00000250: 661c a53d 4a51 8ebc 948b 73bd 65ac fc3c
00000260: ad5d 2a3d 41ff 4a3b 6754 afbc 72ea 773d
00000270: de91 613d b327 f1bd aa22 2ebd 966b b7bc
00000280: 0119 853d e14d b13c eedf d0bd 42cf 38bd
00000290: 9330 673d 9468 1fbe 9448 323d 7d76 e4bd
000002a0: 9bac 72bc 20d7 e6bd a9ba a4bd 6971 f53c
000002b0: 9a2f 423d 545d 6dbd 2b18 89bd 96d1 38bc
000002c0: 0a74 dfbd 2adb 0ebe 0b79 c23b 27f3 02bc
000002d0: 2c30 ccbc c291 8dbc d03c 7bbd 30ac 673d
000002e0: eff8 0cbe 9037 71bc ec2b e4bd 7a61 a4bd
000002f0: edd6 e8bd f39d 043d 3b08 a3bd 74ea 7e3d
00000300: 3bd3 cabd 55d2 3cbe 7d58 ffbd 9da3 27be
00000310: dd4e efbd 688e 853e 25c0 e7bd 011f 773d
00000320: cb25 a4bd 31dd fcbd 955a 08bd 7588 8b3e
00000330: cce1 8a3d 8dd6 dd3d febd 4d3d 0680 b8bd
00000340: 6b26 f5bc e64e 8bbc c0e1 5abc b196 8fbd
00000350: f747 4d3d 4bcc 84be 0128 a03c 0295 6a3d
00000360: 2b4d 0e3d 0a72 bbbe ab88 d0bd 15a9 a3be
00000370: dd5d 573b d548 27be 4ea7 1bbe 47fb c1bd
00000380: 3d62 083e 494e e63d fa33 aebd a79b 283e
00000390: 5382 1fbe 6e30 aa3d bb55 2bbd 367b 84bc
000003a0: cc7b 683d ab20 b93d 8da4 6abe c510 fc3c
000003b0: 1e96 c93c 4c03 5c3e d47a ff3d 83f7 623e
000003c0: aabc 85bd 5b47 62be 1287 e9bd 9090 0b3d
000003d0: 13c8 ae3d 77c9 6b3d 4416 95bd f7b6 5b3e
000003e0: 82de 173d 4af2 153e 889c f93c 1485 103d
000003f0: b9b8 b93b f4df c13c 7ff7 8dbd 225f ad3a

bias f4 [32]
-0.06454305 -0.03588095 -0.03578922 -0.03453247 0.02104367 -0.06873208 -0.11997619 0.0028329792
0.026233787 0.10635979 0.03548755 -0.08772876 -0.07441272 0.13774353 -0.019055758 0.20770523
-0.11117802 -0.043922305 -0.08423084 0.07231638 0.105353296 -0.10514074 -0.102688886 -0.0035662458
0.07682746 -0.04363288 0.09680315 -0.19725816 -0.2184227 -0.13480683 0.018774802 0.033262007
00000000: 262f 84bd e7f7 12bd b897 12bd eb71 0dbd
00000010: c663 ac3c 68c3 8cbd 14b6 f5bd 81a9 393b
00000020: 3de8 d63c 29d3 d93d 655b 113d 23ab b3bd
00000030: b265 98bd a40c 0d3e d21a 9cbc aeb0 543e
00000040: 4db1 e3bd e0e7 33bd 3881 acbd 9c1a 943d
00000050: 78c3 d73d 0754 d7bd 8d4e d2bd adb7 69bb
00000060: b757 9d3d 64b8 32bd bb40 c63d 0bfe 49be
00000070: 33aa 5fbe cd0a 0abe 9dcd 993c be3d 083d

weight f4 [64, 32, 2, 2]
-0.15298657 0.28099236 0.18743259 0.09164652 0.0049016043 -0.09386472 -0.1666635 0.04529619
0.011001987 -0.08245994 -0.06965052 0.06835227 0.07131968 -0.34723285 0.039872173 0.09574049
0.013264782 0.13804701 0.09494665 0.36229807 0.13143043 -0.12351255 0.2746512 -0.1276384
0.06389002 0.09498322 0.054503433 0.052087106 -0.1945237 0.45283058 -0.013446727 0.26194918
0.06273427 -0.090464495 0.010526663 0.036425218 0.017822308 0.14643306 -0.032539483 -0.08205272
-0.03341068 -0.35223246 -0.01740254 -0.3932598 -0.09670044 0.05636052 -0.020525876 -0.0071881674
-0.013402696 0.36489382 -0.13197798 0.16340667 0.0972836 0.034496482 -0.04145547 -0.019749667
-0.011689011 -0.05737715 0.07593636 0.07066913 0.10940787 0.56407046 0.054551747 0.20111686
0.06825921 -0.23847218 0.1793437 0.023488956 0.019605074 0.0995225 0.093983725 0.0066635422
0.03140571 0.35533255 0.16555035 0.078460306 -0.08134548 0.24722469 0.083986826 0.15889311
0.2865275 -0.13736801 0.29793715 0.18269865 0.28240693 0.5469416 -0.08952676 -0.14789778
0.032324214 -0.011626529 -0.06222473 0.08149572 0.21592318 0.25047433 -0.032462448 -0.31174198
-0.08258551 0.02272421 0.15460669 -0.04479201 0.121540435 -0.03328432 0.13711482 -0.22979891
0.028577873 -0.3967081 0.06362217 -0.014236309 0.064593896 -0.036350187 -0.30296627 -0.061259992
0.16111688 0.21019207 -0.016190654 -0.30093694 0.22234191 0.1349925 -0.22958192 0.061159175
0.06360635 0.057633348 0.032505136 -0.03611148 0.14945637 -0.051293734 0.027863422 -0.15581247
-0.04681067 -0.01912754 0.03673579 -0.1705143 -0.071444824 -0.020973712 -0.30557564 -0.053478334
-0.043789513 -0.008076449 -0.04878564 -0.08832859 -0.02420808 0.05530106 -0.020893432 0.016249284
0.099042274 0.013241056 -0.1401317 -0.089704074 0.047831688 -0.14829604 -0.112301216 0.03068631
-0.05724913 -0.008289271 0.058270164 -0.06549807 -0.055871926 0.024242792 0.0248641 0.032543402
-0.1845611 0.06974428 -0.15621234 -0.16830948 -0.16426031 -0.13097866 -0.1657319 0.09105922
-0.036272466 0.073057614 0.01859452 -0.1266714 -0.14702158 0.12777027 -0.121518515 -0.024922373
-0.08887499 -0.29075015 0.03795285 -0.13407965 -0.02658375 0.12866497 -0.20548119 0.18727663
0.06509926 -0.010338269 -0.010460323 0.08075934 -0.13934825 -0.17844537 -0.043300595 -0.16812657
0.041568626 -0.019427856 -0.14205569 -0.010713363 -0.08812089 0.028907042 0.03755555 0.015269424
-0.06560582 -0.28628904 -0.04390104 -0.11815871 0.03959651 -0.20862189 -0.091660775 0.04166846
-0.00690824 -0.1536291 0.03091233 -0.029924601 -0.0661975 -0.11342054 0.07871855 0.006949081
-0.054422412 0.08381102 -0.08714588 0.06194925 0.088675 0.044032257 -0.15290199 0.04637194
-0.04837803 -0.00951561 -0.1693608 -0.05328718 0.033958223 0.011776527 -0.027105637 0.03565358
-0.18700999 -0.16368777 -0.10235727 0.0033995365 0.06582627 -0.032135427 -0.044990618 -0.034752853
0.12761688 0.011304417 -0.22157383 -0.15764625 -0.0557861 0.07813835 -0.17816117 0.0856006
-0.12912384 -0.11343631 -0.123797394 -0.054691784 -0.21669857 0.09703396 -0.012694018 0.056585036
00000000: 83a8 1cbe 3bde 8f3e 54ee 3f3e 2cb1 bb3d
00000010: a39d a03b 253c c0bd d6a9 2abe 7f88 393d
00000020: ae41 343c c2e0 a8bd efa4 8ebd 46fc 8b3d
00000030: 0d10 923d 81c8 b1be 0151 233d 9713 c43d
00000040: 8754 593c 325c 0d3e 6473 c23d 227f b93e
00000050: b395 063e 26f4 fcbd 159f 8c3e a4b3 02be
00000060: c5d8 823d 9086 c23d fe3e 5f3d 4a59 553d
00000070: 3931 47be 69d9 e73e a94f 5cbc 341e 863e
00000080: d37a 803d 7345 b9bd 0678 2c3c 9c32 153d
00000090: 1700 923c 8cf2 153e 1f48 05bd 420b a8bd
000000a0: a3d9 08bd d057 b4be c68f 8ebc 5959 c9be
000000b0: e10a c6bd 4ada 663d e225 a8bc b88a ebbb
000000c0: fb96 5bbc 5dd3 ba3e 3c25 07be 1454 273e
000000d0: a03c c73d 2f4c 0d3d 36cd 29bd 0eca a1bc
000000e0: 4483 3fbc 4d04 6bbd 8684 9b3d faba 903d
000000f0: 3c11 e03d ec66 103f a771 5f3d 94f1 4d3e
00000100: 7ccb 8b3d 0d32 74be e0a5 373e e96b c03c
00000110: d29a a03c 74d2 cb3d 8a7a c03d d859 da3b
00000120: 46a3 003d 26ee b53e 0886 293e ccaf a03d
00000130: 7698 a6bd 7828 7d3e 4901 ac3d e0b4 223e
00000140: bcb3 923e 33aa 0cbe 388b 983e 5b15 3b3e
00000150: a497 903e 5d04 0c3f ce59 b7bd 8472 17be
00000160: 6566 043d 327d 3ebc 5cdf 7ebd 3ae7 a63d
00000170: f71a 5d3e 2c3e 803e 58f7 04bd a59c 9fbe
00000180: 9822 a9bd 1f28 ba3c 3751 1e3e d477 37bd
00000190: 31ea f83d 2455 08bd d467 0c3e 6850 6bbe
000001a0: 251c ea3c 531d cbbe 574c 823d 683f 69bc
000001b0: ce49 843d efe3 14bd 651e 9bbe c2eb 7abd
000001c0: d3fb 243e 973c 573e 43a2 84bc 6814 9abe
000001d0: 99ad 633e 793b 0a3e 8617 6bbe 0b82 7a3d
000001e0: 0c44 823d f210 6c3d 1b24 053d a2e9 13bd
000001f0: 170b 193e 6119 52bd d541 e43c 4e8d 1fbe
00000200: 8cbc 3fbd 5cb1 9cbc 4578 163d 4d9b 2ebe
00000210: aa51 92bd 10d1 abbc 6974 9cbe 190c 5bbd
00000220: a25c 33bd 1553 04bc 74d3 47bd 9fe5 b4bd
00000230: 0650 c6bc 5d83 623d b428 abbc 381d 853c
00000240: add6 ca3d 04f1 583c af7e 0fbe c5b6 b7bd
00000250: 29eb 433d ebda 17be 2efe e5bd db61 fb3c
00000260: 107e 6abd b9cf 07bc b2ac 6e3d da23 86bd
00000270: f6d9 64bd d298 c63c ccaf cb3c 3b4c 053d
00000280: 96fd 3cbe 17d6 8e3d 21f6 1fbe 5259 2cbe
00000290: db33 28be 451f 06be a0b5 29be 427d ba3d
000002a0: 7092 14bd 3b9f 953d 8953 983c 26b6 01be
000002b0: d38c 16be 36d6 023e b3de f8bd 012a ccbc
000002c0: 1704 b6bd 34dd 94be 7374 1b3d 2d4c 09be
000002d0: 2ac6 d9bc c0c0 033e a969 52be 72c5 3f3e
000002e0: c352 853d d861 29bc c661 2bbc 2765 a53d
000002f0: 4fb1 0ebe 62ba 36be f75b 31bd 5f29 2cbe
00000300: dd43 2a3d 2b27 9fbc 0c77 11be 1a87 2fbc
00000310: ba78 b4bd 76ce ec3c d9d3 193d 9b2c 7a3c
00000320: 585c 86bd 7a94 92be 94d1 33bd 32fd f1bd
00000330: f32f 223d faa0 55be a5b8 bbbd 8cac 2a3d
00000340: 845e e2bb f250 1dbe db3b fd3c 7024 f5bc
00000350: 8e92 87bd 0749 e8bd 3137 a13d 1eb5 e33b
00000360: 09ea 5ebd 1da5 ab3d 8a79 b2bd 7fbe 7d3d
00000370: 3d9b b53d 2b5b 343d 5792 1cbe 81f0 3d3d
00000380: 0b28 46bd 5ce7 1bbc eb6c 2dbe a843 5abd
00000390: c717 0b3d 56f2 403c a40c debc 7d09 123d
000003a0: 8c7f 3fbe c49d 27be b0a0 d1bd c2ca 5e3b
000003b0: eccf 863d 70a0 03bd 1548 38bd 0259 0ebd
000003c0: 00ae 023e 2936 393c 40e4 62be 056e 21be
000003d0: f77f 64bd 0007 a03d e26f 36be 5e4f af3d
000003e0: 0a39 04be 4c51 e8bd 7d89 fdbd 7e04 60bd
000003f0: 3be6 5dbe beb9 c63d 92fa 4fbc b6c5 673d

bias f4 [64]
0.026909174 -0.19164912 -0.0861084 -0.0009079642 0.050209604 -0.057705007 -0.011514865 0.010991865
-0.17437556 -0.089241214 -0.003698958 -0.08509879 -0.07625853 0.16676241 0.14291519 -0.052270733
-0.03192572 0.09464195 0.08628071 0.08215946 -0.08650217 -0.09570774 0.12676337 -0.02082445
0.18213566 -0.11212874 0.045326807 -0.011568309 -0.056672763 0.06129641 0.04408779 0.13233928
-0.081102215 -0.15976843 0.14265154 0.14744163 -0.16254178 0.023194622 0.070043944 0.13530858
0.060207378 -0.026611343 0.1299327 -0.11559446 -0.052349113 -0.08057462 -0.0022907774 0.009380153
-0.118917935 0.050526295 -0.11515603 -0.050492793 -0.12803932 0.050597697 0.045582313 0.118507266
0.108452156 0.009478407 0.032929555 0.21926753 -0.02008795 0.07028591 -0.011676433 -0.1576076
00000000: a170 dc3c ab3f 44be 9a59 b0bd 7204 6eba
00000010: 96a8 4d3d 165c 6cbd d8a8 3cbc 3917 343c
00000020: 828f 32be 19c4 b6bd 386a 72bb 4648 aebd
00000030: 6f2d 9cbd c4c3 2a3e 5c58 123e d619 56bd
00000040: 8bc4 02bd a4d3 c13d f1b3 b03d 3843 a83d
00000050: 0d28 b1bd 6b02 c4bd 42ce 013e 0998 aabc
00000060: c581 3a3e c1a3 e5bd 9aa8 393d 0189 3dbc
00000070: b321 68bd f211 7b3d 6695 343d f383 073e
00000080: eb18 a6bd 569a 23be 3f13 123e f0fa 163e
00000090: 5a71 26be a602 be3c 3373 8f3d 558e 0a3e
000000a0: 039c 763d 0800 dabc 140d 053e cabc ecbd
000000b0: 066c 56bd 4e04 a5bd de20 16bb 37af 193c
000000c0: 3f8b f3bd a9f4 4e3d edd6 ebbd 88d1 4ebd
000000d0: bd1c 03be 883f 4f3d 85b4 3a3d f0b3 f23d
000000e0: 2a1c de3d 524b 1b3c 24e1 063d ab87 603e
000000f0: 7c8f a4bc 0ff2 8f3d 824e 3fbc e363 21be

weight f4 [64, 64]
0.26476073 0.113255836 0.00015327436 -0.0051820823 -0.2061815 0.104085654 0.22240871 0.1756945
0.29651165 0.19011635 0.118570596 -0.008490551 0.14385714 -0.04498785 0.15220878 0.4101104
-0.12037799 0.1328889 0.046188246 0.17756821 -0.133751 -0.058419958 -0.0658816 -0.045831323
-0.070081584 0.23440778 -0.20256062 0.16873576 0.08824352 0.12553918 -0.09039584 0.12029325
0.12758395 0.16702043 0.053228337 0.102213435 0.35293248 0.19397166 0.35363495 0.13545762
-0.11278508 0.24051939 -0.15024573 -0.03598621 0.2479142 0.23326568 0.20636185 -0.11279023
0.35784826 -0.07893259 0.08219682 -0.16345347 0.150123 0.107335016 -0.21195675 -0.06974695
0.00740368 -0.0059191305 0.21751451 0.065690674 0.025136495 -0.08147285 0.030903667 -0.101400614
-0.08724588 -0.20468237 0.07484539 -0.044122547 0.18285622 0.13715567 -0.09029658 0.075172484
0.23929146 0.51976985 -0.2002936 0.049198058 0.31208047 0.31091538 0.24374892 -0.038349465
0.12344229 0.22109999 -0.08084507 0.07349771 -0.025840947 -0.08369536 0.11405603 -0.123927265
0.14429638 0.05233597 -0.08150885 0.26885 0.13967563 0.095580496 0.0036746182 -0.004673931
-0.10489952 0.00052639516 0.28741983 0.29804307 0.2109178 0.17301756 0.29211447 0.51097846
-0.05178282 0.31020123 0.13373266 -0.055733792 0.036430612 0.14421682 0.11067143 -0.1641889
0.20485948 0.0023169727 0.044127967 0.25130242 0.042948503 -0.08988066 0.10165159 0.1446911
-0.2283511 0.14644738 0.20755415 -0.08067993 0.17148843 -0.15110815 0.19124459 0.10443614
0.14652066 -0.05343875 -0.013172302 -0.10843431 0.28350395 0.115841754 0.2344905 0.386663
0.38905612 0.17407359 -0.36944875 -0.09823239 0.25595352 0.32568392 -0.21988808 0.32195517
-0.27357513 0.57447064 -0.07282999 0.13258062 -0.02103666 -0.1258859 0.09610573 -0.205759
0.25356865 -0.24080569 -0.077586375 0.06611631 0.13459428 0.20677742 -0.03926472 -0.0034630226
-0.20205817 0.23781484 0.13281152 0.14095712 0.083628714 -0.11206402 0.29426402 0.3076803
-0.012843134 0.18249127 -0.13824074 -0.2595767 0.34149656 -0.09986721 0.0056084506 0.021570181
-0.16928463 0.016651602 0.04235081 0.17419237 0.2747005 0.19095168 -0.04671648 -0.008975035
0.30693352 0.010547024 0.17029794 0.14646149 -0.053518318 0.13781556 -0.39871275 -0.35436594
0.2389612 0.13828604 0.30809724 0.0326315 0.040563542 -0.020230332 0.2182443 0.2834186
0.093018435 0.2542881 -0.049932104 -0.13199346 0.06313889 0.21819681 -0.093572274 0.2539348
0.03913113 0.29480776 0.13404268 -0.13591528 0.06666361 -0.26660323 -0.004961073 -0.015588892
0.1795228 -0.41503748 -0.24181134 0.15529607 0.23518756 -0.018639196 -0.031544857 0.19146672
-0.28552577 -0.03689645 -0.28469276 0.7636025 0.24818324 0.19977145 0.23618421 0.078481525
-0.09753567 0.24571368 0.34208843 0.014789944 0.09493058 0.16251735 0.20292494 -0.10618451
-0.10217281 0.26551992 0.15105017 -0.3158187 0.37386325 -0.069375105 -0.56564397 -0.16067752
0.044703986 0.25337204 -0.007905526 0.13800097 -0.09287742 -0.03100606 -0.2742077 -0.36739635
00000000: b88e 873e adf2 e73d 46b8 2039 75ce a9bb
00000010: 3e21 53be dc2a d53d 1cbf 633e 42e9 333e
00000020: 60d0 973e dcad 423e 24d5 f23d f41b 0bbc
00000030: 494f 133e 2e45 38bd 9edc 1b3e fef9 d13e
00000040: bc88 f6bd 0714 083e e32f 3d3d 71d4 353e
00000050: 06f6 08be c449 6fbd efec 86bd a0b9 3bbd
00000060: ef86 8fbd 9808 703e 0d6c 4fbe 11c9 2c3e
00000070: 05b9 b43d 588d 003e 7421 b9bd 4f5c f63d
00000080: 5ea5 023e 6707 2b3e f505 5a3d 4755 d13d
00000090: 91b3 b43e 82a0 463e a40f b53e 67b5 0a3e
000000a0: ddfb e6bd b74a 763e 04da 19be 4766 13bd
000000b0: 38dd 7d3e 33dd 6e3e 8550 533e 90fe e6bd
000000c0: e337 b73e 69a7 a1bd ce56 a83d 5960 27be
000000d0: d8b9 193e 76d2 db3d 310b 59be 7dd7 8ebd
000000e0: 929a f23b 44f5 c1bb 20bc 5e3e d588 863d
000000f0: 0deb cd3c 3ddb a6bd b029 fd3c 20ab cfbd
00000100: f8ad b2bd 4198 51be 8a48 993d d8b9 34bd
00000110: a93e 3b3e 8972 0c3e 6aed b8bd 08f4 993d
00000120: d208 753e a30f 053f c419 4dbe e783 493d
00000130: 03c9 9f3e 4d30 9f3e 5199 793e 5414 1dbd
00000140: 50cf fc3d 0968 623e 1a92 a5bd f885 963d
00000150: 65b0 d3bc 7968 abbd 3596 e93d 94cd fdbd
00000160: 6ec2 133e 3e5e 563d 1dee a6bd b5a6 893e
00000170: 2107 0f3e b5bf c33d ddd1 703b c627 99bb
00000180: 8fd5 d6bd c8fd 093a b128 933e 1a99 983e
00000190: d6fa 573e 842b 313e 0790 953e 7ccf 023f
000001a0: 391a 54bd b2d2 9e3e 37f1 083e 1e49 64bd
000001b0: 4438 153d 93ad 133e b4a7 e23d 2321 28be
000001c0: afc6 513e 5ad8 173b 87bf 343d b6aa 803e
000001d0: c5ea 2f3d 5a13 b8bd b52e d03d e729 143e
000001e0: dfd4 69be 4df6 153e 1389 543e 853b a5bd
000001f0: aa9a 2f3e 18bc 1abe 9fd5 433e 9de2 d53d
00000200: 8309 163e 97e2 5abd a4d0 57bc cf12 debd
00000210: 6e27 913e 713e ed3d 471e 703e b1f8 c53e
00000220: 5d32 c73e 5940 323e 6328 bdbe 102e c9bd
00000230: 570c 833e 0bc0 a63e 572a 61be 4fd7 a43e
00000240: 0a12 8cbe 8210 133f e427 95bd 37c3 073e
00000250: 1355 acbc 3ce8 00be 15d3 c43d 7db2 52be
00000260: c0d3 813e c495 76be 9be5 9ebd fd67 873d
00000270: 15d3 093e 76bd 533e 0bd4 20bd e1f3 62bb
00000280: 56e8 4ebe bc85 733e beff 073e 1057 103e
00000290: 8845 ab3d d281 e5bd c6a9 963e 4688 9d3e
000002a0: 026c 52bc fede 3a3e fb8e 0dbe 3de7 84be
000002b0: a3d8 ae3e 2e87 ccbd 18c7 b73b f3b3 b03c
000002c0: f358 2dbe f168 883c 0b78 2d3d 7c5f 323e
000002d0: 8ba5 8c3e d688 433e c859 3fbd 060c 13bc
000002e0: 6426 9d3e 6dcd 2c3c 9562 2e3e 00fa 153e
000002f0: 0636 5bbd 861f 0d3e 1424 ccbe 746f b5be
00000300: 3fb2 743e db9a 0d3e ecbe 9d3e 9ca8 053d
00000310: f525 263d 15ba a5bc 6f7b 5f3e 3e1c 913e
00000320: 7380 be3d 0d32 823e 9b85 4cbd 4b29 07be
00000330: f64e 813d fc6e 5f3e d2a2 bfbd be03 823e
00000340: f747 203d 0bf1 963e 7c42 093e 602d 0bbe
00000350: ee86 883d 3880 88be 7f90 a2bb 8d68 7fbc
00000360: d3d4 373e cb7f d4be 649d 77be ef05 1f3e
00000370: 02d5 703e 3ab1 98bc 2e35 01bd da0f 443e
00000380: 6f30 92be bb20 17bd 40c3 91be 747b 433f
00000390: bf23 7e3e e390 4c3e 46da 713e ecba a03d
000003a0: c8c0 c7bd 5e9c 7b3e 3726 af3e 8551 723c
000003b0: f76a c23d f36a 263e 8ecb 4f3e 4477 d9bd
000003c0: fa3f d1bd 3af2 873e e5ac 1a3e fdb2 a1be
000003d0: 016b bf3e 8914 8ebd 0bce 10bf a688 24be
000003e0: 871b 373d fbb9 813e 2e86 01bc 2050 0d3e
000003f0: 8436 bebd 6c00 febc f464 8cbe 601b bcbe

bias f4 [64]
-4.629794e-06 -7.392384e-06 -4.345775e-06 1.3815151e-06 -2.4856317e-05 1.9980685e-05 2.6318069e-06 1.6131096e-05
1.9152301e-05 1.471898e-05 -3.8604172e-05 1.5573054e-05 5.246135e-06 5.765646e-07 -1.1251095e-06 2.6802345e-05
1.8333594e-05 -2.1876926e-06 -4.559899e-05 -9.504897e-06 3.6834837e-05 2.5087525e-06 -5.436688e-06 1.2586098e-05
4.3986904e-07 1.2576776e-05 1.5888809e-05 -5.9058203e-07 1.0035002e-05 4.4817157e-06 2.601304e-06 -2.4022695e-05
5.571158e-06 -9.051775e-06 3.4549495e-05 2.6308e-06 2.8619838e-06 -3.2969492e-06 1.7057087e-05 6.202571e-06
-5.409655e-06 2.0403375e-05 -1.1979828e-05 8.564031e-06 -3.9363763e-06 -1.6344566e-05 -1.7470818e-05 -2.177971e-05
-2.6010128e-05 -9.164858e-07 -2.232627e-06 7.2537823e-06 -8.624775e-06 -2.9538045e-05 -2.1705739e-05 1.5723257e-05
2.7715421e-05 1.99835e-05 1.0784403e-05 -1.5541249e-05 -7.40144e-06 -8.709155e-06 -2.4901492e-06 4.0731684e-06
00000000: a159 9bb6 180c f8b6 ecd1 91b6 7f6c b935
00000010: 8982 d0b7 329c a737 199e 3036 4451 8737
00000020: 41a9 a037 8af1 7637 eaea 21b8 e1a2 8237
00000030: f507 b036 38c5 1a35 7802 97b5 99d5 e037
00000040: 18cb 9937 46d0 12b6 8b41 3fb8 3977 1fb7
00000050: 1b7f 1a38 0a5c 2836 cb6c b6b6 e128 5337
00000060: 2427 ec34 d700 5337 f548 8537 7d88 1eb5
00000070: 015c 2837 a561 9636 1092 2e36 5884 c9b7
00000080: e2ef ba36 14dd 17b7 3de9 1038 cd8c 3036
00000090: 8210 4036 2841 5db6 d115 8f37 ae1f d036
000000a0: 9584 b5b6 ea27 ab37 f8fc 48b7 3cae 0f37
000000b0: 3715 84b6 b01b 89b7 4c8e 92b7 92b3 b6b7
000000c0: 5330 dab7 6d04 76b5 3dd4 15b6 8465 f336
000000d0: 20b3 10b7 78c8 f7b7 b814 b6b7 70e5 8337
000000e0: 6a7e e837 3da2 a737 a8ee 3437 945e 82b7
000000f0: e359 f8b6 891d 12b7 701c 27b6 40ac 8836

weight f4 [64, 64]
0.32163218 0.18916836 0.0033947583 0.26326334 -0.24315324 0.26748747 0.09761094 -0.10001924
-0.0015782537 -0.027305206 -0.17998 0.11916555 -0.07482584 -0.046011478 -0.41669017 0.3281497
-0.13949004 -0.08467619 0.13834587 0.023900013 -0.04375419 -0.10424502 0.4292371 -0.07056621
0.11582301 -0.08830414 0.07732254 -0.2300634 -0.07087753 -0.11123111 0.18199788 -0.063575424
-0.3075073 -0.21040715 -0.33146605 0.10134714 -0.26189852 -0.38030165 0.076598324 0.010328243
0.036971275 0.11737013 0.08996791 -0.12268661 0.13256899 -0.18588726 0.035362378 0.081863895
0.121539764 -0.14065848 0.06036966 -0.009692871 0.228371 -0.24580987 -0.5102824 0.09333195
-0.121776305 0.049460437 -0.13231328 -0.08002843 -0.13059291 0.1342874 -0.30405927 -0.0038248694
-0.050936848 0.028472964 0.17286365 -0.12813143 -0.016454248 -0.08163627 0.04595269 -0.03327967
0.13461956 0.04306053 0.062616326 0.20425487 0.11887514 0.053850476 -0.1689921 0.10477315
0.023390584 0.12210953 0.039889786 0.17615195 0.13847713 0.05116001 0.058066983 0.07828547
-0.014978619 0.33061072 0.12186801 -0.17705603 0.15478836 -0.02701678 0.35055342 0.17260897
0.009669871 -0.17022626 -0.08763927 -0.019904627 -0.12952156 0.049749605 -0.28836948 0.09699647
-0.116740994 0.102396905 0.0009552362 -0.11788724 -0.23586716 0.16036877 0.14429826 0.07729106
0.2841265 0.11483526 0.3092283 0.017581817 0.16078241 0.27788675 -0.03336928 0.38326472
0.13547157 -0.20164725 0.048201688 0.07444984 -0.019252488 -0.027154408 0.060587376 -0.15662079
-0.2055111 -0.09811539 0.011954471 -0.10682764 -0.0076112845 -0.29661068 -0.22687833 -0.3052117
-0.011958789 0.061650004 -0.22164375 -0.09312936 -0.2407423 -0.03596854 0.09470456 0.5923688
-0.02108671 -0.038848657 0.15159999 0.08934803 -0.26627177 -0.09902408 0.13753633 0.023844756
0.289001 -0.075610444 -0.33290195 0.119171135 0.17768367 0.01108214 -0.17571011 -0.1665594
-0.3472922 0.010066281 0.1024087 0.0752954 -0.18294369 0.068896815 -0.3118672 -0.21733339
-0.20094775 -0.14808884 0.3177655 -0.13339011 -0.24346559 -0.028001023 0.0026881434 0.04415069
-0.017102882 0.268381 -0.07384162 -0.0069513046 -0.19812049 0.20316286 0.051242612 -0.15796761
-0.25977975 -0.04064026 0.21048847 0.019302033 -0.0955847 0.15095451 0.11304262 -0.031751167
-0.031677216 0.05349747 -0.05458822 0.019690003 0.16442332 0.08166188 -0.056505486 -0.044826508
-0.0064567677 0.12630342 0.04761891 0.05130097 0.16623482 -0.0747694 0.17913523 -0.54912835
-0.023108931 0.080465935 0.060611475 0.26292667 -0.109506436 -0.06189209 0.029317303 0.15132461
-0.059111323 0.017293097 0.09802027 0.0006051309 -0.051678717 -0.14365156 -0.32920986 0.31438562
-0.07754569 0.116697825 0.1489054 0.050660133 -0.3983495 -0.042331543 0.26436752 -0.04060598
0.03900677 0.051855467 -0.26466206 0.09713764 0.36940262 -0.030542487 -0.26170105 0.30240998
-0.056716308 -0.09885134 -0.22915758 0.2317936 -0.19845873 0.118960425 -0.1945943 0.23027457
0.38162535 0.08532073 -0.11351921 -0.13121991 -0.059238844 -0.19524017 0.22657336 0.041168537
00000000: f9ac a43e 5ab5 413e 987a 5e3b 74ca 863e
00000010: 2afd 78be 1ef4 883e 3fe8 c73d e3d6 ccbd
00000020: 68dd ceba 2baf dfbc ad4c 38be 110d f43d
00000030: 4a3e 99bd 8876 3cbd 6a58 d5be 3d03 a83e
00000040: 7ad6 0ebe b66a adbd 8aaa 0d3e f6c9 c33c
00000050: 9837 33bd 6a7e d5bd f7c4 db3e 0485 90bd
00000060: 9d34 ed3d cdd8 b4bd 485b 9e3d bd95 6bbe
00000070: 3d28 91bd 23cd e3bd a75d 3a3e d533 82bd
00000080: 9971 9dbe f974 57be ebb5 a9be 178f cf3d
00000090: 9017 86be e6b6 c2be 95df 9c3d ca37 293c
000000a0: 316f 173d c05f f03d 1841 b83d 1e43 fbbd
000000b0: 2ac0 073e 3b59 3ebe 24d8 103d 42a8 a73d
000000c0: d7e9 f83d c708 10be 2d46 773d d9ce 1ebc
000000d0: 16da 693e 95b5 7bbe dea1 02bf d224 bf3d
000000e0: db65 f9bd 0797 4a3d 227d 07be f2e5 a3bd
000000f0: 26ba 05be a382 093e a8ad 9bbe a9aa 7abb
00000100: 28a3 50bd 2240 e93c 2b03 313e e334 03be
00000110: 0fcb 86bc eb30 a7bd e338 3c3d 4350 08bd
00000120: b6d9 093e 3d60 303d fd3c 803d 3028 513e
00000130: cf74 f33d 5192 5c3d 440c 2dbe 4e93 d63d
00000140: 9c9d bf3c 9014 fa3d 7963 233d 2d61 343e
00000150: f3cc 0d3e 298d 513d a5d7 6d3d 2254 a03d
00000160: e268 75bc cf45 a93e ef95 f93d 2d4e 35be
00000170: d780 1e3e 4b52 ddbc bd7b b33e 68c0 303e
00000180: 616e 1e3c cb4f 2ebe 387c b3bd 070f a3bc
00000190: 4da1 04be 3ec6 4b3d 2aa5 93be 16a6 c63d
000001a0: e715 efbd 78b5 d13d d168 7a3a de6e f1bd
000001b0: 2987 71be b637 243e ecc2 133e c64a 9e3d
000001c0: 0779 913e c02e eb3d 2c53 9e3e be07 903c
000001d0: 25a4 243e 2c47 8e3e 3aae 08bd 463b c43e
000001e0: 0fb9 0a3e 9e7c 4ebe 226f 453d 2879 983d
000001f0: 65b7 9dbc ec72 debc 782a 783d 3361 20be
00000200: 8071 52be b9f0 c8bd afdc 433c 73c8 dabd
00000210: 1568 f9bb 5bdd 97be cb52 68be b544 9cbe
00000220: ccee 43bc b784 7c3d 94f6 62be 9bba bebd
00000230: 2685 76be bf53 13bd 77f4 c13d 7ba5 173f
00000240: 09be acbc c51f 1fbd 073d 1b3e 1afc b63d
00000250: c654 88be 23cd cabd 53d6 0c3e 1456 c33c
00000260: f0f7 933e a6d9 9abd 2072 aabe ff0f f43d
00000270: b5f2 353e dd91 353c 5aed 33be 8c8e 2abe
00000280: 49d0 b1be 0bed 243c a7bb d13d 7a34 9a3d
00000290: 9755 3bbe c619 8d3d 0fad 9fbe a58c 5ebe
000002a0: 3fc5 4dbe 9aa4 17be 29b2 a23e 6b97 08be
000002b0: 0b4f 79be 6762 e5bc 902b 303b 5bd7 343d
000002c0: 581b 8cbc 3c69 893e 463a 97bd c5c7 e3bb
000002d0: 19e0 4abe ed09 503e c6e3 513d 43c2 21be
000002e0: da01 85be 6776 26bd 4a8a 573e 4c1f 9e3c
000002f0: e9c1 c3bd d293 1a3e e482 e73d 830d 02bd
00000300: f8bf 01bd 2a20 5b3d e697 5fbd ee4c a13c
00000310: 965e 283e 583e a73d 4c72 67bd 009c 37bd
00000320: 4b93 d3bb af55 013e 0c0c 433d f720 523d
00000330: 7639 2a3e b320 99bd 3a6f 373e ad93 0cbf
00000340: f14e bdbc 53cb a43d bd43 783d 539e 863e
00000350: e944 e0bd 8f82 7dbd d72a f03c d7f4 1a3e
00000360: b71e 72bd 41aa 8d3c dabe c83d a6a1 1e3a
00000370: 10ad 53bd 6519 13be 328e a8be 27f7 a03e
00000380: 46d0 9ebd 45ff ee3d a87a 183e 0081 4f3d
00000390: 77f4 cbbe d763 2dbd 2e5b 873e 7552 26bd
000003a0: 90c5 1f3d 6666 543d c981 87be 19f0 c63d
000003b0: 5722 bd3e 3d34 fabc aefd 85be 7bd5 9a3e
000003c0: 5c4f 68bd 9272 cabd 49a8 6abe 4d5b 6d3e
000003d0: c438 4bbe 86a1 f33d ba43 47be 19cd 6b3e
000003e0: 6664 c33e a3bc ae3d c27c e8bd 835e 06be
000003f0: 6ea4 72bd 0aed 47be d902 683e 57a0 283d

bias f4 [64]
-0.2056309 0.1299329 0.21077104 -0.09219734 -0.15568244 -0.13320945 -0.15427141 0.11871247
0.1277146 0.0940949 0.20357807 0.019413047 0.027651008 0.06965151 -0.14993876 0.017388478
0.0020110486 -0.07558643 -0.201832 -0.23657663 -0.05558757 0.054170903 0.13858439 -0.15959212
0.11806032 -0.287022 0.24875501 -0.14271103 -0.19512825 -0.19588478 0.092043556 -0.073795155
-0.13637461 -0.11616798 0.061986666 0.17149043 0.06625214 -0.19816698 0.32834247 -0.117117055
-0.19503458 0.020477926 -0.049704343 -0.02906209 0.06501125 0.10560927 0.02806647 0.28450465
0.28122813 -0.3141768 -0.110364735 0.22136605 0.15435337 -0.05418255 -0.5730865 -0.36934146
-0.29648238 -0.11253113 -0.23591278 -0.17038152 -0.05422168 -0.082588226 0.01812201 -0.32731986
00000000: e890 52be 210d 053e 5dd4 573e f6d1 bcbd
00000010: 386b 1fbe 0f68 08be 53f9 1dbe 861f f33d
00000020: 9ec7 023e d4b4 c03d c576 503e 1c08 9f3c
00000030: 5e84 e23c 73a5 8e3d 8c89 19be 4872 8e3c
00000040: cccb 033b 0fcd 9abd 0cad 4ebe 2541 72be
00000050: cbaf 63bd 4fe2 5d3d 11e9 0d3e 1e6c 23be
00000060: 9cc9 f13d 8cf4 92be a2b9 7e3e d722 12be
00000070: b3cf 47be 0596 48be 5581 bc3d ea21 97bd
00000080: c9a5 0bbe 7ae9 edbd bbe5 7d3d 309b 2f3e
00000090: 34af 873d 49ec 4abe 811c a83e 11db efbd
000000a0: 25b7 47be 53c1 a73c c896 4bbd 9f13 eebc
000000b0: 9e24 853d ac49 d83d a7eb e53c 98aa 913e
000000c0: 22fd 8f3e c8db a0be e806 e2bd c8ad 623e
000000d0: cf0e 1e3e 86ee 5dbd ccb5 12bf 531a bdbe
000000e0: 8acc 97be b976 e6bd 1f93 71be 7e78 2ebe
000000f0: 8d17 5ebd 0424 a9bd 9c74 943c 7896 a7be

w f4 [6, 64, 40]
-0.2823919 0.41453934 0.11078372 -0.33191115 -0.2309486 -0.14685819 -0.0891955 -0.27970198
-0.39458638 0.38337773 -0.32465893 0.03875511 0.20742829 0.20235027 0.074086554 -0.26826268
-0.11818093 0.13707106 -0.059807394 0.10505028 -0.26795956 -0.33473894 0.18460253 0.085231654
-0.4553384 0.24306992 -0.050102588 -0.4342704 -0.17537485 -0.09271721 0.0020343913 -0.22077498
0.10557609 -0.332404 0.19335397 0.05159547 -0.41744038 0.1407146 0.29416418 0.097958475
-0.49669877 -0.45229176 -0.32848242 0.12550387 -0.32679752 -0.6538115 -0.32949507 -0.6073468
-0.14528883 0.29805276 -0.41230628 0.08474179 -0.15538742 0.34321588 -0.285371 0.32371798
-0.55613124 -0.20335694 -0.20362087 -0.29467127 0.11376774 0.30929375 -0.21180081 -0.17449476
-0.01590631 -0.2712926 -0.13605261 -0.55863684 -0.36742917 0.1636391 -0.18652934 0.0065245675
-0.1401695 -0.24372078 0.014727629 -0.13536532 0.19942181 -0.096824996 -0.1521377 0.4400946
0.20777403 -0.20334205 -0.11629496 0.034532744 -0.1589548 0.13852173 0.27146113 -0.12165021
0.21844111 -0.009778291 0.37243015 0.026524253 -0.020865439 -0.1358422 -0.58723235 0.14819759
0.32641336 -0.12188073 0.3589941 0.08794639 0.11514938 0.068704784 -0.16810867 0.39930105
0.37528542 0.1843387 0.13289806 0.40431613 0.12518108 0.1454815 0.4137369 0.39827117
-0.10590016 0.27386376 -0.1899029 0.07037367 0.020211337 -0.47288752 -0.06557724 -0.08157306
-0.028566252 -0.18099064 0.13620704 -0.15429619 0.38681343 0.11504212 0.5719399 0.33126223
0.15874578 0.09159164 0.4620067 -0.20192952 0.29979217 0.28353128 0.046204027 0.20507424
-0.0058859726 -0.07569885 0.43187708 -0.21568957 0.55737895 -0.30875468 0.6111435 0.25993696
0.051905975 0.32607326 0.22507086 0.4006964 -0.36032447 0.117889404 0.40947542 -0.020522583
-0.24985512 0.27811754 0.1852843 0.33874708 0.32871425 -0.076487705 -0.112745486 0.23239842
0.10697578 -0.03602917 -0.5516338 -0.19124848 0.24387567 0.049024995 0.3165797 0.08889565
-0.3882358 0.10225183 -0.064817965 0.1614673 -0.22659817 -0.0049508293 0.054455593 0.03137688
0.09174858 -0.1723852 0.10863851 -0.270226 0.21178412 -0.37756914 -0.6928237 -0.25537154
0.33815473 0.28478014 0.22944477 0.09190608 -0.14598285 -0.1302232 -0.1684625 0.20266202
-0.49056852 -0.3338866 0.06984119 0.38819578 0.11064174 -0.11709649 -0.09330027 -0.06938269
-0.30789375 -0.062875055 -0.14032152 -0.3077958 0.34897274 0.0777148 0.046185475 -0.26590583
-0.66880465 0.07155369 0.26206067 0.17878704 0.24461032 0.035029512 0.3041018 0.280658
0.22471341 -0.13913889 0.076684766 -0.03822655 -0.25360587 0.18697779 0.043874092 0.03369135
0.12272816 -0.3121966 -0.014984139 -0.054699145 -0.45527464 -0.33589458 0.3097534 -0.40698123
-0.48692462 0.26543254 -0.28311336 -0.044320688 -0.24473245 -0.10373761 -0.014745532 0.20446697
-0.18396117 0.2883075 -0.25423977 -0.06245093 -0.15161887 -0.09690641 -0.15823749 -0.16931626
-0.29582348 0.114405744 0.088629335 0.10637808 -0.010000201 0.09911116 0.4333161 0.19501361
00000000: ac95 90be 803e d43e 93e2 e23d 42f0 a9be
00000010: ca7d 6cbe fe61 16be 21ac b6bd 1935 8fbe
00000020: 3a07 cabe 164a c43e b239 a6be aebd 1e3d
00000030: 1568 543e e934 4f3e b1ba 973d ba59 89be
00000040: d808 f2bd 5b5c 0c3e 99f8 74bd 9a24 d73d
00000050: ff31 89be e762 abbe 7208 3d3e ef8d ae3d
00000060: 1d22 e9be 52e7 783e 5f38 4dbd b158 debe
00000070: 7795 33be 85e2 bdbd 6c53 053b d612 62be
00000080: 4738 d83d db30 aabe 95fe 453e c655 533d
00000090: bfba d5be 7d17 103e b09c 963e 749e c83d
000000a0: 4d4f febe c992 e7be d92e a8be 1684 003e
000000b0: 0152 a7be 3160 27bf 94b3 a8be 147b 1bbf
000000c0: 98c6 14be 5f9a 983e cf19 d3be 1b8d ad3d
000000d0: e11d 1fbe feb9 af3e 261c 92be 5dbe a53e
000000e0: 9e5e 0ebf cd3c 50be fd81 50be 27df 96be
000000f0: 10ff e83d c05b 9e3e 50e2 58be c1ae 32be
00000100: f34d 82bc dde6 8abe 6051 0bbe d302 0fbf
00000110: ad1f bcbe 0291 273e 8c01 3fbe 0acc d53b
00000120: 9888 0fbe f191 79be 274c 713c 359d 0abe
00000130: 3b35 4c3e 2f4c c6bd fcc9 1bbe 1454 e13e
00000140: b7c2 543e e638 50be 0d2c eebd 3572 0d3d
00000150: 0cc5 22be a4d8 0d3e f4fc 8a3e bf23 f9bd
00000160: 07af 5f3e 2035 20bc 2aaf be3e 6449 d93c
00000170: ffed aabc 381a 0bbe dc54 16bf 1cc1 173e
00000180: a71f a73e 9b9c f9bd 13ce b73e 3d1d b43d
00000190: 70d3 eb3d 18b5 8c3d ae24 2cbe 3071 cc3e
000001a0: 6925 c03e 49c3 3c3e 6e16 083e 8602 cf3e
000001b0: 782f 003e 1af9 143e 53d5 d33e 33ea cb3e
000001c0: 2fe2 d8bd df37 8c3e e875 42be 1220 903d
000001d0: 3f92 a53c 501e f2be 5c4d 86bd c70f a7bd
000001e0: c603 eabc 9c55 39be dc79 0b3e d2ff 1dbe
000001f0: 690c c63e 349b eb3d a76a 123f 349b a93e
00000200: 418e 223e 6694 bb3d 248c ec3e 9dc6 4ebe
00000210: 5c7e 993e 032b 913e 6f40 3d3d fbfe 513e
00000220: 1edf c0bb 0008 9bbd fe1e dd3e badd 5cbe
00000230: 63b0 0e3f 1815 9ebe e773 1c3f 7516 853e
00000240: 5c9b 543d 13f3 a63e fa78 663e 1428 cd3e
00000250: 737c b8be 0070 f13d c3a6 d13e fa1e a8bc
00000260: 05da 7fbe 6c65 8e3e 2bbb 3d3e 4270 ad3e
00000270: 3c4d a83e 96a5 9cbd 1be7 e6bd daf9 6d3e
00000280: 1e16 db3d 5393 13bd df37 0dbf a4d6 43be
00000290: 8bba 793e 6fce 483d bc16 a23e ec0e b63d
000002a0: d8c6 c6be 6869 d13d 48bf 84bd af57 253e
000002b0: 5a09 68be 913a a2bb d40c 5f3d 0b85 003d
000002c0: aee6 bb3d bf85 30be de7d de3d 105b 8abe
000002d0: f0dd 583e be50 c1be e55c 31bf 0fc0 82be
000002e0: 9e22 ad3e b4ce 913e 92f3 6a3e 4139 bc3d
000002f0: 877c 15be 3b59 05be 6f81 2cbe a286 4f3e
00000300: cc2b fbbe 2ff3 aabe e608 8f3d 99c1 c63e
00000310: 2398 e23d 49d0 efbd 3614 bfbd 8318 8ebd
00000320: 40a4 9dbe a3c4 80bd 72b0 0fbe 6997 9dbe
00000330: 8eac b23e f028 9f3d fb2c 3d3d cf24 88be
00000340: c836 2bbf be8a 923d d12c 863e f313 373e
00000350: 217b 7a3e 1b7b 0f3d 3bb3 9b3e 68b2 8f3e
00000360: 461b 663e 6d7a 0ebe e70c 9d3d 7193 1cbd
00000370: a1d8 81be 1b77 3f3e 52b5 333d f1ff 093d
00000380: e758 fb3d 3cd8 9fbe 0980 75bc 360c 60bd
00000390: c219 e9be 60fa abbe ff97 9e3e d85f d0be
000003a0: 2f4e f9be c6e6 873e 3cf4 90be 9c89 35bd
000003b0: 259b 7abe 6274 d4bd 3e97 71bc ca5f 513e
000003c0: 5160 3cbe 0a9d 933e b72b 82be 8ccc 7fbd
000003d0: fa41 1bbe de76 c6bd 0209 22be 3e61 2dbe
000003e0: 2d76 97be 8f4d ea3d 4c83 b53d c0dc d93d
000003f0: e2d7 23bc cbfa ca3d 9cdb dd3e a6b1 473e

w f4 [6, 10, 40]
0.17775817 0.31827256 0.21144325 0.36066672 0.7199156 0.00042220615 0.66215724 -0.18076381
0.04149179 -0.06592834 0.009963981 0.2685043 0.23623562 0.45929143 0.05645129 0.13464516
0.74762064 0.42626205 0.33468154 0.029133093 -0.1240849 0.26988867 -0.2152212 -0.14631929
0.11770227 0.16511612 0.22392869 -0.035335913 0.43015626 -0.3694192 0.57262725 -0.019001955
-0.099583544 -0.08643667 -0.21328728 0.13226606 0.5903214 0.12232116 0.019652272 -0.28397056
-0.28784782 -0.33997807 -0.23697226 -0.16359663 -0.18221168 0.38289797 -0.3330826 0.06036531
0.73625016 0.344281 -0.1477818 0.4670039 -0.10553986 0.057887632 0.02259993 -0.45138413
-0.07678032 -0.014407697 0.4849523 0.12767942 0.3386015 0.15687095 -0.17371702 0.13477674
-0.04454832 -0.04506543 0.10500247 0.006318712 0.862822 0.45230404 0.13896617 0.6825613
0.24949822 -0.22692125 -0.22833842 0.28687042 -0.2587214 0.18039416 0.36193678 0.44157648
-0.16008818 0.35535583 0.16632253 0.10184336 -0.040767405 -0.3621911 0.33951053 0.5167688
-0.07491666 -0.02985399 -0.21387723 -0.20156705 -0.1970038 0.12379886 -0.18547778 -0.00860626
0.16739294 -0.0709034 -0.26590732 -0.28833988 -0.22179094 -0.08513069 0.0430819 -0.036288753
-0.1887169 -0.050008092 0.74892116 0.18357156 0.10250388 0.3466231 -0.024109708 -0.09745399
-0.09544517 -0.0745033 -0.14737335 -0.062404715 0.1034254 0.11064226 0.30595842 0.27642006
0.094710186 -0.45568463 -0.11072555 0.5555964 0.041230112 -0.016553096 -0.21513698 0.02756816
0.29328454 0.32345486 0.45380443 -0.08169314 0.30339208 0.32568467 0.81355363 0.49936077
0.9253145 0.33639172 0.26507133 0.47293994 0.6288602 0.015652657 0.55064404 0.32892027
0.68503624 0.5807783 0.49818584 0.6098424 -0.050868597 0.55891544 0.20702094 -0.14826085
-0.09917613 0.45931107 0.14248604 0.28925514 0.75732005 0.028218003 -0.40567264 0.13317741
0.80688494 0.033692203 -0.024014046 0.015674204 0.34420186 0.1137322 0.2931458 -0.1927638
0.8265421 0.20627621 0.00043205498 -0.064942196 -0.25282696 0.10847935 -0.23184374 -0.016513811
0.27043134 -0.26948413 0.084278665 -0.10758563 0.39164102 0.19091417 -0.24385986 0.3452256
0.17142178 0.022585612 0.098519124 0.20692201 0.08992841 0.028817344 0.100491606 -0.43719187
-0.3673532 -0.000513435 0.1758415 0.20057248 -0.13513958 -0.45665765 0.41509283 -0.002996393
0.01400566 -0.44539282 0.1567843 0.0095701525 -0.06110996 0.2864826 -0.26589426 0.09913756
0.01661331 0.27433476 0.58827007 0.35306156 -0.09467975 0.049321268 0.5438282 0.010483052
-0.084736526 0.03739057 0.005024657 0.31346306 0.5045279 -0.42777386 0.53986233 0.09376473
-0.1703179 0.11752859 0.04547046 0.4095769 0.29003826 0.10222301 0.2613321 -0.20341896
0.012568078 0.0545543 0.21853346 -0.09973539 0.14957476 0.07831647 -0.1527933 0.040931456
-0.19281445 -0.36467898 0.17990506 0.14313516 -0.0012628336 -0.019864056 0.31651387 -0.16421561
-0.28270832 -0.10293275 0.3344202 0.5543466 0.14578873 0.2683388 -0.025079057 0.21783558
00000000: 3d06 363e 9ff4 a23e 9484 583e 4fa9 b83e
00000010: 644c 383f 8d5b dd39 2383 293f 261a 39be
00000020: 4cf3 293d 7005 87bd f73f 233c 6579 893e
00000030: c0e7 713e 3f28 eb3e 7839 673d 6ce0 093e
00000040: 1164 3f3f 053f da3e 615b ab3e 86a8 ee3c
00000050: 3920 febd d92e 8a3e f262 5cbe b9d4 15be
00000060: e30d f13d 3314 293e 904d 653e 64bc 10bd
00000070: 713d dc3e 8324 bdbe b397 123f fda9 9bbc
00000080: 75f2 cbbd b505 b1bd fb67 5abe c170 073e
00000090: 4e1f 173f 8483 fa3d cdfd a03c 9764 91be
000000a0: ca60 93be 9b11 aebe dba8 72be e085 27be
000000b0: b395 3abe 340b c43e cd89 aabe 9e41 773d
000000c0: e47a 3c3f 9945 b03e 1d54 17be 231b ef3e
000000d0: 4825 d8bd 951b 6d3d 7d23 b93c d21b e7be
000000e0: 003f 9dbd 430e 6cbc ab4b f83e 65be 023e
000000f0: 2d5d ad3e c7a2 203e e0e2 31be ea02 0a3e
00000100: 4d78 36bd 8796 38bd 890b d73d 330d cf3b
00000110: e7e1 5c3f 6594 e73e 264d 0e3e 56bc 2e3f
00000120: 767c 7f3e 0b5e 68be 8cd1 69be aee0 923e
00000130: 2277 84be 3fb9 383e c74f b93e 5016 e23e
00000140: 28ee 23be 33f1 b53e 7450 2a3e 4093 d03d
00000150: b9fb 26bd 1d71 b9be 53d4 ad3e f64a 043f
00000160: e86d 99bd 5b90 f4bc a202 5bbe 9867 4ebe
00000170: 5dbb 49be 428a fd3d e3ed 3dbe 4501 0dbc
00000180: 0e69 2b3e cd35 91bd 0125 88be 49a1 93be
00000190: 2a1d 63be 0059 aebd a576 303d 84a3 14bd
000001a0: 013f 41be 49d5 4cbd 4cb9 3f3f 2ffa 3b3e
000001b0: 8eed d13d 9578 b13e b981 c5bc f595 c7bd
000001c0: c278 c3bd 3095 98bd 0ae9 16be 169c 7fbd
000001d0: b2d0 d33d 6998 e23d 95a6 9c3e ee86 8d3e
000001e0: 6af7 c13d 7f4f e9be 14c4 e2bd 913b 0e3f
000001f0: e8e0 283d 5c9a 87bc de4c 5cbe 9fd6 e13c
00000200: 6429 963e e09b a53e 0e59 e83e bc4e a7bd
00000210: 3556 9b3e 24c0 a63e 0d45 503f 37ac ff3e
00000220: 69e1 6c3f 893b ac3e 6eb7 873e 2f25 f23e
00000230: fbfc 203f 003a 803c 02f7 0c3f 3d68 a83e
00000240: 895e 2f3f e3ad 143f 3712 ff3e a21e 1c3f
00000250: 975b 50bd 1515 0f3f 4cfd 533e b1d1 17be
00000260: db1c cbbd d22a eb3e dce7 113e 4019 943e
00000270: badf 413f 7129 e73c 53b4 cfbe a95f 083e
00000280: 0390 4e3f d600 0a3d 1bb9 c4bc 3067 803c
00000290: 3a3b b03e 6dec e83d 3517 963e e063 45be
000002a0: 4398 533f 123a 533e 7085 e239 6a00 85bd
000002b0: 8972 81be 6c2a de3d 7268 6dbe f947 87bc
000002c0: fa75 8a3e d3f9 89be 4b9a ac3d db55 dcbd
000002d0: 2c85 c83e 017f 433e 66b6 79be 69c1 b03e
000002e0: 3189 2f3e 7605 b93c 65c4 c93d 5de3 533e
000002f0: 632c b83d 5a12 ec3c 8bce cd3d 9dd7 dfbe
00000300: b815 bcbe 0a98 06ba cb0f 343e df62 4d3e
00000310: 0862 0abe 08cf e9be 0c87 d43e 225f 44bb
00000320: ff77 653c 870a e4be 108c 203e 21cc 1c3c
00000330: 704e 7abd d9ad 923e 4b23 88be a208 cb3d
00000340: a318 883c 9b75 8c3e de98 163f 7cc4 b43e
00000350: 75e7 c1bd 1905 4a3d 5338 0b3f 1bc1 2b3c
00000360: 588a adbd db26 193d e1a5 a43b 3b7e a03e
00000370: be28 013f 2d05 dbbe 6b34 0a3f b907 c03d
00000380: d167 2ebe d4b2 f03d 3c3f 3a3d 10b4 d13e
00000390: e57f 943e 4c5a d13d 52cd 853e 0f4d 50be
000003a0: 57ea 4d3c 5474 5f3d 3cc7 5f3e 1142 ccbd
000003b0: 202a 193e 6364 a03d d975 1cbe bea7 273d
000003c0: 2771 45be 34b7 babe 0839 383e 0692 123e
000003d0: aa85 a5ba f2b9 a2bc 1b0e a23e 2328 28be
000003e0: 25bf 90be 68ce d2bd 2039 ab3e a9e9 0d3f
000003f0: a449 153e b463 893e 9872 cdbc 4a10 5f3e
