Recurrent-Independent-Mechanisms/minigrid_experiments/storage/2023-11-15_wallgap-doorkey-redblue-crossing_ppo_123456_500000_metalearn_True_rims_6_k_4_reshape_False/2023-11-15_wallgap-doorkey-redblue-crossing_ppo_123456_500000_metalearn_True_rims_6_k_4_reshape_False_fullmodel_task_1.pth (torch, 288794 bytes, 24 tensors)

weight f4 [16, 3, 2, 2]
0	0xbe61bf52	-0.22045639
1	0x3e9fdf37	0.31224987
2	0x3c7c17f3	0.015386569
3	0x3ef158ce	0.47138065
4	0xbd20ec11	-0.03928763
5	0xbc79dc11	-0.015250222
6	0x3b782be1	0.003786795
7	0xbe05b108	-0.13055813
8	0xbd8914d3	-0.06693425
9	0xbd473236	-0.04863187
10	0xbeac1f3f	-0.3361759
11	0x3e2bb75c	0.16769165
12	0x3e86882d	0.2627577
13	0xbef21380	-0.47280502
14	0xbd3bcd34	-0.045849994
15	0xbe7e5ac9	-0.2483932
16	0x3e6b4eac	0.2297923
17	0xbe33c7cf	-0.1755669
18	0xbe733d4f	-0.23753856
19	0x3d8ffa2d	0.07030139
20	0xbdb9cf95	-0.09072796
21	0x3dcd91df	0.10037588
22	0x3e0ac3ba	0.13551226
23	0x3eacdad9	0.33760718
24	0x3da3a8b2	0.079911605
25	0xbe60e39d	-0.21961828
26	0x3d59014e	0.05297976
27	0xbea72739	-0.32647112
28	0xbe84fc26	-0.25973624
29	0x3e9fb080	0.31189346
30	0xbe44d030	-0.19220042
31	0x3d31d2d3	0.04341395
32	0x3ed05cee	0.406959
33	0xbe155278	-0.1458224
34	0x3e706d45	0.23479183
35	0x3db0ba9e	0.086293444
36	0x3e90497e	0.2818107
37	0xbe810935	-0.25202337
38	0x3d0e03ea	0.0346717
39	0xbe709e68	-0.23497927
40	0x3cdde667	0.027087403
41	0xbd3a4272	-0.045473523
42	0xbe68123d	-0.22663207
43	0x3e91a43b	0.2844561
44	0x3e0a1dd6	0.13487944
45	0xbd2407df	-0.04004657
46	0xbea0c548	-0.31400514
47	0xbe129ccd	-0.14317627
48	0x3dc2c11b	0.09509488
49	0x3c1dabf3	0.009623515
50	0x3d26fc49	0.04076794
51	0x3e59fff3	0.21289043
52	0xbe961800	-0.29315186
53	0xbead7bc0	-0.33883476
54	0x3d14605d	0.03622471
55	0x3e08d740	0.13363361
56	0x3c1914e8	0.009343363
57	0x3ec9354c	0.39298475
58	0xbe3f58e0	-0.18686247
59	0x3e82a82f	0.2551894
60	0xbe658078	-0.22412288
61	0xbde40760	-0.11134219
62	0xbaca5517	-0.0015436736
63	0x3efdbcf6	0.49558228
64	0xbcc22795	-0.023700515
65	0xbc30c33d	-0.010788736
66	0x3e01c13a	0.12671366
67	0xbe77c56a	-0.24196401
68	0xbe2c6dab	-0.1683871
69	0x3db4f9dc	0.088367194
70	0x3cff1b05	0.031140814
71	0xbe8ecd1d	-0.27890864
72	0x3e54c2f1	0.20777489
73	0x3f222d7b	0.6335065
74	0xbe215d45	-0.15758236
75	0xbea6745c	-0.3251065
76	0xbe2748c5	-0.16336353
77	0xbe69b9e8	-0.22824824
78	0x3ceb3c12	0.028715167
79	0x3d64a82e	0.05582445
80	0xbd1f8c30	-0.038952053
81	0xbe84e38c	-0.25954854
82	0x3e415edc	0.18883842
83	0xbd4a3690	-0.04936844
84	0x3e34f46a	0.17671362
85	0x3e546506	0.20741662
86	0xbe3146f9	-0.1731223
87	0x3ebda87a	0.370426
88	0xbe3dd894	-0.18539649
89	0xbcc8f8c1	-0.024532678
90	0x3d808993	0.0627624
91	0xbe707dc6	-0.23485479
92	0x3e4e0710	0.20119882
93	0xbd7b0680	-0.061285496
94	0xbd809829	-0.06279022
95	0x3e088909	0.13333525
96	0x3eae492a	0.34040195
97	0xbe8874bd	-0.26651564
98	0xbd16c8bd	-0.036812533
99	0xbe8204b0	-0.253942
100	0x3dd05290	0.101719975
101	0x3d06b592	0.032888003
102	0xbedfc85f	-0.4370756
103	0x3e133222	0.14374593
104	0x3e9f72cd	0.31142274
105	0xbdf79383	-0.120886825
106	0xbe1d0197	-0.15332638
107	0xbc0836f2	-0.008313881
108	0xbe04073d	-0.12893386
109	0x3e01dd32	0.12682036
110	0xbe3bc9d0	-0.18338704
111	0xbe6d16de	-0.23153254
112	0x3deca10b	0.11554154
113	0xbe040e8a	-0.12896171
114	0x3de78b48	0.11305863
115	0x3e7690b0	0.24078631
116	0xbc7eabf2	-0.015543925
117	0x3d3aba2f	0.045587715
118	0xbdb59259	-0.08865804
119	0x3e83b94f	0.25727317
120	0xbc9df405	-0.019281397
121	0x3dac7999	0.084216304
122	0x3d4e5f76	0.050384007
123	0xbedadecc	-0.42748106
124	0xbe3a8021	-0.1821294
125	0x3e05a2ed	0.13050433
126	0xbee0794b	-0.4384254
127	0xbdd64c65	-0.1046379
128	0x3d066d07	0.03281882
129	0xbe5dc320	-0.21656466
130	0xbdc9b66c	-0.09849247
131	0xbe92a7c2	-0.28643614
132	0xbe0dee6d	-0.13860483
133	0xbe8baf17	-0.2728202
134	0x3c86865d	0.016421491
135	0xbec5157c	-0.38492954
136	0x3eaeec80	0.3416481
137	0x3dfa264c	0.12214336
138	0x3eafd8d8	0.34345126
139	0x3d266f4c	0.040633485
140	0x3df52187	0.119692855
141	0xbde5dc89	-0.11223704
142	0x3e91d03f	0.28479192
143	0xbd49ab97	-0.049235906
144	0x3ebb62b8	0.36598754
145	0xbe3056e6	-0.17220649
146	0x3e93a3f3	0.2883602
147	0xbea030c5	-0.31287208
148	0xbea3058f	-0.31840178
149	0xbf020255	-0.5078481
150	0xbe2cc2d4	-0.16871196
151	0xbd971a50	-0.073780656
152	0xbde241cf	-0.11047708
153	0xbe089393	-0.13337545
154	0x3d8735ef	0.06602084
155	0xbe4e12cb	-0.20124356
156	0x3c9c07b7	0.019046647
157	0x3d7997cc	0.06093578
158	0xbdc27003	-0.09494021
159	0x3d3fb949	0.04680756
160	0x3d415a5d	0.047205318
161	0x3e5154c2	0.20442489
162	0xbe974f45	-0.29552665
163	0xbec65b89	-0.3874171
164	0xbe88ca3d	-0.26716796
165	0xbea0d097	-0.3140914
166	0xbe05c6d5	-0.1306413
167	0x3c965e23	0.018355435
168	0xbd9a4e73	-0.07534494
169	0xbee2597d	-0.442089
170	0x3e20685c	0.1566481
171	0x3e17f35a	0.14838925
172	0xbd7eda5f	-0.062219974
173	0x3e5d8bcc	0.2163536
174	0xbea20e46	-0.31651515
175	0x3e92832e	0.28615707
176	0x3f1364f1	0.575759
177	0xbeaf899e	-0.3428468
178	0xbe9910ca	-0.29895622
179	0xbe813951	-0.2523904
180	0x3ead27f8	0.33819556
181	0xbe2629fb	-0.16226952
182	0x3f1d5d12	0.6147014
183	0xbdd4b2bd	-0.10385654
184	0xbe8578a2	-0.26068598
185	0x3e508da3	0.2036653
186	0xbe253142	-0.16132072
187	0xbedf50ee	-0.43616432
188	0x3e82e357	0.25564072
189	0x3eb895db	0.3605183
190	0xbe22d12c	-0.15900105
191	0xbcfbc54a	-0.030733723

bias f4 [16]
0	0xbec21448	-0.37906098
1	0x3e2c3d90	0.16820359
2	0xbd58e9fa	-0.052957512
3	0x3e048146	0.12939939
4	0xbe0c2310	-0.1368525
5	0xbe977971	-0.2958484
6	0x3d363f98	0.04449424
7	0xbea82bf5	-0.32846037
8	0xbe692477	-0.22767816
9	0x3d83cd79	0.06435675
10	0x3df6b34d	0.12045918
11	0xbe532426	-0.20619258
12	0xbe4e2466	-0.20131072
13	0xbd50a886	-0.050941966
14	0xbe2e65bd	-0.17030998
15	0xbe14a00a	-0.14514175

weight f4 [32, 16, 2, 2]
0	0xbe3431d4	-0.17597133
1	0xbcfb1dda	-0.030653883
2	0x3e7531dc	0.23944801
3	0xbdae2403	-0.085029624
4	0xbdd9db0b	-0.10637482
5	0x3e920431	0.28518823
6	0x3d4a22d8	0.049349636
7	0xbe97a932	-0.29621273
8	0x3d1af858	0.037834495
9	0xbe960802	-0.29302984
10	0x3dbec594	0.09315029
11	0x3d457f5d	0.048217166
12	0xbd9a932a	-0.075476006
13	0x3e4ef88d	0.20212002
14	0xbdc33214	-0.09531036
15	0xbe1e58ac	-0.15463513
16	0xbe2408c8	-0.16018975
17	0xbc922d94	-0.017843999
18	0x3d691a1f	0.056909677
19	0x3c151a68	0.009100534
20	0xbe60afe0	-0.21942091
21	0x3c5bf770	0.013425693
22	0x3d8e251c	0.06940672
23	0x3bb25e6a	0.005443384
24	0xbe99f9b1	-0.30073312
25	0x3e82f205	0.2557527
26	0x3ead51ec	0.33851564
27	0xbd8ed6b4	-0.06974545
28	0xbcd84a92	-0.026402745
29	0x3e4040f8	0.18774784
30	0x3c0191b8	0.007908277
31	0x3d4364e5	0.047703642
32	0xbdb86c6b	-0.09005054
33	0x3ed34762	0.41265398
34	0x3d04d1a9	0.03242651
35	0xbd8da799	-0.06916732
36	0xbe0a85dc	-0.13527626
37	0x3dd628ae	0.10456978
38	0x3d9ad5a6	0.075602815
39	0xbe87ab64	-0.26497948
40	0xbe921f6a	-0.28539592
41	0x3e0f4242	0.13990119
42	0xbd87969f	-0.066205256
43	0x3db6c6de	0.0892465
44	0xbc816b3c	-0.015798204
45	0xbc618f4f	-0.013767078
46	0xbddb71ce	-0.10715066
47	0xbdae2706	-0.08503537
48	0xbe8ce262	-0.27516466
49	0x3dd26ed2	0.102750435
50	0x3db0fef0	0.086423755
51	0x3e21d683	0.15804486
52	0xbe791ead	-0.24328108
53	0xbc19c8a2	-0.0093862135
54	0x3d4511bf	0.048112627
55	0x3e4eb5e1	0.20186569
56	0xbcdf6d5d	-0.027273828
57	0xbe8f84ef	-0.28031108
58	0xb7132700	-8.770963e-06
59	0xbe045600	-0.12923431
60	0xbe591608	-0.2119981
61	0x3e912bf7	0.28353855
62	0x3c0e6f2e	0.0086934995
63	0x3d505522	0.05086244
64	0xbe6cc2d5	-0.23121198
65	0xbe066b4b	-0.13126867
66	0x3dcb3f66	0.09924202
67	0x3e0d27e4	0.13784748
68	0x3eac9833	0.3370987
69	0x3d93241b	0.07184621
70	0xbccd4ff6	-0.025062542
71	0x3c67b678	0.014142625
72	0x3ca8652a	0.020556051
73	0xbdab7300	-0.08371544
74	0xbd9d0f10	-0.076688886
75	0xbe4450fd	-0.1917152
76	0x3d02d8ed	0.031945158
77	0x3da1088f	0.078629605
78	0xbdf693cc	-0.12039909
79	0x3d8caf16	0.068693325
80	0x3e21ca49	0.15799822
81	0x3d7939b2	0.06084604
82	0x3d332106	0.043732665
83	0x3ddf4301	0.10901452
84	0xbe84e234	-0.2595383
85	0x3d8a8a6f	0.06764685
86	0xbde5b77f	-0.1121664
87	0x3e781bfb	0.24229424
88	0xbc321521	-0.010869295
89	0xbd5dc464	-0.05414237
90	0xbd006c2b	-0.031353157
91	0x3e2f19e8	0.17099726
92	0x3d3b7e73	0.04577489
93	0xbe21c06a	-0.15796056
94	0x3dde5a36	0.1085705
95	0x3df723b2	0.12067355
96	0x3e5d8ff8	0.21636951
97	0x3e302667	0.1720215
98	0x3b1990d8	0.002343228
99	0xbe802ee5	-0.25035778
100	0xbd590367	-0.05298176
101	0xbe46ef3e	-0.19427201
102	0xbcbbffa2	-0.022949044
103	0xbdaa4925	-0.083147325
104	0x3e3f2b73	0.18668918
105	0x3d910b1b	0.07082196
106	0x3d415c02	0.047206886
107	0x3cb4e52f	0.02208194
108	0xbe4d8a8b	-0.20072381
109	0xbe0942ed	-0.13404436
110	0x3c5ee337	0.013603977
111	0xbe2419a9	-0.16025414
112	0x3da98633	0.082775496
113	0xbd90bca1	-0.07067228
114	0x3dfe126f	0.1240586
115	0x3ef9d099	0.4879196
116	0xbe52e9fd	-0.20597072
117	0xbc42298c	-0.011850726
118	0xbd2c8f33	-0.042128753
119	0xbd4528c2	-0.048134573
120	0x3b9a014c	0.0046998616
121	0x3ab23124	0.0013594967
122	0x3dc6d156	0.097078964
123	0xbbefddaf	-0.007320128
124	0x3e33a981	0.1754513
125	0xbe2d04e5	-0.16896398
126	0x3e472989	0.19449438
127	0x3ebc75e3	0.3680869
128	0xbd3cf4a4	-0.046131745
129	0xbe0814d4	-0.13289195
130	0xbd6d3020	-0.057907224
131	0xbdfa31ff	-0.12216567
132	0xbb5ddbbe	-0.00338529
133	0xbcf02120	-0.02931267
134	0x3cc5ab14	0.024129428
135	0x3d9eb4a6	0.077493
136	0xbc5bb61a	-0.013410116
137	0xbd69c877	-0.057075944
138	0x3d73d114	0.059525564
139	0xbc81f850	-0.015865475
140	0xbd0f8f73	-0.035048913
141	0xbe069b7a	-0.13145247
142	0x3d8328d5	0.064042725
143	0x3d52ac0f	0.05143362
144	0xbd402970	-0.046914518
145	0x3d20d1f0	0.039262712
146	0xbde51c3b	-0.11187025
147	0x3d9d285b	0.07673713
148	0x3da51c66	0.08062057
149	0xbc8e514a	-0.017372746
150	0xbd738b94	-0.059459284
151	0x3cfcac65	0.030843923
152	0x3d2a5dad	0.041593242
153	0x3b4aff41	0.0030974897
154	0xbcaf5467	-0.02140255
155	0x3d77ea72	0.06052632
156	0x3d6191de	0.05507075
157	0xbdf127b3	-0.1177515
158	0xbd2e22aa	-0.042513527
159	0xbcb76b96	-0.022390168
160	0x3d851901	0.0649891
161	0x3cb14de1	0.02164358
162	0xbdd0dfee	-0.10198961
163	0xbd38cf42	-0.04511953
164	0x3d673093	0.05644281
165	0xbe1f6894	-0.15567237
166	0x3d324894	0.043526247
167	0xbde4767d	-0.11155412
168	0xbc72ac9b	-0.01481166
169	0xbde6d720	-0.112715006
170	0xbda4baa9	-0.08043415
171	0x3cf57169	0.029961305
172	0x3d422f9a	0.047408678
173	0xbd6d5d54	-0.057950333
174	0xbd89182b	-0.06694063
175	0xbc38d196	-0.011280438
176	0xbddf740a	-0.109108046
177	0xbe0edb2a	-0.13950792
178	0x3bc2790b	0.0059348396
179	0xbc02f327	-0.007992542
180	0xbccc302c	-0.024925314
181	0xbc8d91c2	-0.017281417
182	0xbd7b3cd0	-0.061337292
183	0x3d67ac30	0.056560695
184	0xbe0cf8ef	-0.13766836
185	0xbc713790	-0.01472272
186	0xbde42bec	-0.1114119
187	0xbda4617a	-0.08026405
188	0xbde8d6ed	-0.11369119
189	0x3d049df3	0.032377195
190	0xbda3083b	-0.07960554
191	0x3d7eea74	0.06223531
192	0xbdfcd119	-0.1234457
193	0xbdf5a3ad	-0.11994109
194	0xbd392c8c	-0.0452085
195	0xbe2d1d6a	-0.16905752
196	0xbd791e4d	-0.060819913
197	0x3db4463d	0.088024594
198	0x3d1b74cf	0.037953194
199	0xbd114fc9	-0.03547648
200	0x3d405590	0.0469566
201	0xbe10d198	-0.14142454
202	0x3ac0eca3	0.0014718961
203	0x3e568e96	0.2095283
204	0x3e36bf24	0.17846352
205	0x3d29cd91	0.04145581
206	0x3db9932b	0.09061273
207	0xbd0a082b	-0.033699196
208	0xbe057ef9	-0.13036717
209	0x3cd382b6	0.025819164
210	0x3add220e	0.0016871111
211	0xbaed9be4	-0.0018128124
212	0x3d430a7c	0.04761742
213	0xbe00b682	-0.12569621
214	0xbddc99ff	-0.1077156
215	0xbc4e691d	-0.012598303
216	0x3cf9e19f	0.030503092
217	0xbe8790de	-0.26477712
218	0x3cc99d68	0.02461119
219	0xbea0bfe7	-0.3139641
220	0xbd5e376c	-0.054252073
221	0xbe4b5247	-0.19855605
222	0xbd453a08	-0.048151046
223	0xbdf294a0	-0.11844754
224	0x3db96135	0.09051744
225	0x3c9b5a81	0.018964054
226	0xbddfea92	-0.109334126
227	0x3e16544f	0.14680599
228	0xbdd16374	-0.10224047
229	0x3d768af5	0.060191114
230	0x3dff6a50	0.124714494
231	0x3d915b06	0.070974395
232	0x3d0b566c	0.034017965
233	0xbd6e892c	-0.058236286
234	0xbd44bbb8	-0.048030585
235	0xbb427896	-0.0029673926
236	0x3ceeee3e	0.029166337
237	0x3e645334	0.22297364
238	0x3ded83b5	0.11597387
239	0x3e6135a7	0.21993123
240	0x3c8aa57b	0.01692461
241	0xbe2e34bb	-0.17012303
242	0xbd605156	-0.054765068
243	0xbdb9359d	-0.09043429
244	0x3c782ca8	0.015147366
245	0xbb0f65f9	-0.0021880849
246	0x3d0b87d2	0.034065075
247	0x3e5c024e	0.21485254
248	0x3e081b39	0.13291635
249	0x3dc16c72	0.094445124
250	0x3d4f0bb3	0.050548267
251	0x3d8828a4	0.066483766
252	0xbbd8b0e7	-0.0066128853
253	0xbd53168f	-0.051535185
254	0x3d0437cb	0.03227977
255	0xbca398b4	-0.019970275

bias f4 [32]
0	0xbd3297b1	-0.043601695
1	0x3d1a8804	0.03772737
2	0xbd1297b8	-0.03578922
3	0x3d181e9f	0.037138578
4	0xbc022470	-0.007943258
5	0x3c71036e	0.01471029
6	0xbddf425e	-0.109013304
7	0xbc8642a1	-0.016389193
8	0x3df3ec47	0.11910301
9	0x3e2821b3	0.16419105
10	0x3d1818d3	0.03713305
11	0xbcd6e990	-0.026234418
12	0xbddc58d5	-0.10759131
13	0x3d31b604	0.043386474
14	0xbd62ab8e	-0.05533939
15	0x3e583a5a	0.2111601
16	0xbe22c09e	-0.1589379
17	0xbd33e7e0	-0.043922305
18	0xbd63c2e9	-0.055605803
19	0x3cfe8984	0.031071432
20	0x3e02b666	0.12764892
21	0xbe0e6d78	-0.13908947
22	0xbdcaf3e2	-0.09909798
23	0x3d1a13d5	0.03761657
24	0x3dc0d119	0.09414882
25	0xbc2e9ed6	-0.010657987
26	0x3dcc3541	0.09971095
27	0xbe10773a	-0.14107981
28	0xbe08b02e	-0.13348457
29	0xbd733a5a	-0.05938182
30	0x3cd5b4ca	0.026087184
31	0x3d5b4dcb	0.053540986

weight f4 [64, 32, 2, 2]
0	0x3c760576	0.01501595
1	0x3e53dcf1	0.20689751
2	0xbbc91e8f	-0.006137676
3	0xbc6d7844	-0.014494006
4	0xbd5cc973	-0.053903054
5	0xbe4918b0	-0.19638324
6	0xbe195d53	-0.14977007
7	0x3c634161	0.013870568
8	0x3c3441ae	0.011001987
9	0xbda8e0c2	-0.08245994
10	0xbd8ea4ef	-0.06965052
11	0x3d8bfc46	0.06835227
12	0x3d975d7d	0.07390878
13	0xbeac4cd4	-0.33652365
14	0x3d18f05f	0.03733861
15	0x3d36d1b2	0.044633575
16	0xbe0e44ff	-0.13893507
17	0x3e0748ee	0.13211414
18	0x3e065523	0.13118415
19	0x3ec0af6f	0.37633845
20	0xbc9ab0df	-0.018883167
21	0xbe211da0	-0.15733957
22	0x3e036b75	0.1283396
23	0xbe28d15a	-0.16486111
24	0x3d82d8c5	0.06389002
25	0x3dc07317	0.09396952
26	0x3d5f3efe	0.054503433
27	0x3d4206a0	0.0473696
28	0xbe76d018	-0.24102819
29	0x3efe87d1	0.49712995
30	0xbcaaed64	-0.02086515
31	0x3e9cbce7	0.3061287
32	0x3d3d035d	0.046145786
33	0xbe21fd06	-0.15819177
34	0x3b300d4e	0.00268634
35	0x3dbec5fe	0.09315108
36	0xbde798b0	-0.1130842
37	0x3e004261	0.12525322
38	0xbe16645c	-0.14686722
39	0xbe20c965	-0.15701826
40	0xbc7d1137	-0.015445999
41	0xbe7fd303	-0.24982838
42	0xbd95f323	-0.07321765
43	0xbee11f66	-0.43969268
44	0xbd66cdbf	-0.05634856
45	0xbda6b475	-0.08139888
46	0xbd7b0d06	-0.061291717
47	0xbd8b287d	-0.06794832
48	0x3d9ee592	0.07758631
49	0x3ead331b	0.33828053
50	0xbd7fe3b3	-0.06247301
51	0x3dab4da9	0.08364422
52	0xbb0cfd13	-0.0021513149
53	0x3e712afc	0.23551553
54	0xbe2c151a	-0.16804925
55	0xbdf0f86d	-0.117661335
56	0x3beaddc0	0.007167548
57	0x3b9ac8dd	0.004723652
58	0x3d97e3bf	0.07416486
59	0x3d93dbe3	0.072196744
60	0x3ce9b85f	0.028530298
61	0x3ee6806f	0.45019862
62	0xbd9171e1	-0.07101799
63	0x3dc1ae7f	0.094571106
64	0x3d2ba9ad	0.041909862
65	0xbe203925	-0.15646799
66	0x3db03a22	0.08604838
67	0xbd0e4ea6	-0.034742974
68	0x3ca09ad2	0.019605074
69	0x3dcbd274	0.0995225
70	0x3dc07a8a	0.093983725
71	0x3bda59d8	0.0066635422
72	0xbcff9e0c	-0.031203292
73	0x3ec35c23	0.38156232
74	0x3d5f8709	0.05457214
75	0x3bbf43f2	0.005836957
76	0xbe1fd303	-0.15607838
77	0x3e2105a2	0.15724805
78	0x3a9ea251	0.0012102817
79	0x3e1ed842	0.15512183
80	0x3db7c5a0	0.08973241
81	0xbe1bf659	-0.15230693
82	0x3d15076a	0.036384024
83	0x3e4e7dff	0.20165251
84	0x3e6211e0	0.22077131
85	0x3ed36974	0.41291392
86	0x3da6755e	0.08127855
87	0xbe2215f4	-0.15828687
88	0x3d046665	0.032324214
89	0xbbb821ab	-0.005619248
90	0xbd7edf5c	-0.06222473
91	0x3da6e73a	0.08149572
92	0x3e5a7b2c	0.21336049
93	0x3e506af3	0.20353298
94	0x3d20ab0e	0.03922563
95	0xbe351cfd	-0.1768684
96	0x3cf00c3d	0.02930271
97	0x3d7abfd9	0.061218116
98	0x3c9da7be	0.019245025
99	0xbe0433a2	-0.12910321
100	0xbcec1540	-0.028818727
101	0x3ddcaf03	0.10775568
102	0x3bc5bfd0	0.0060348287
103	0xbe0be52d	-0.13661642
104	0xbc65ecf8	-0.0140335485
105	0xbe632b83	-0.22184567
106	0x3d3bd00c	0.045852706
107	0x3c3b0618	0.011415027
108	0xbd86686f	-0.06562888
109	0xbd3d1685	-0.046164054
110	0xbe8548b0	-0.2603202
111	0x3b9f9f6b	0.004871299
112	0x3ceb8a57	0.028752489
113	0x3dffb131	0.124849685
114	0xbdeb8314	-0.114996105
115	0xbe763544	-0.24043757
116	0x3e36546e	0.17805645
117	0x3ddbf8e5	0.10740832
118	0xbe6a48c8	-0.22879326
119	0xbb1597e4	-0.002282613
120	0xbd676dd6	-0.056501232
121	0x3d1ad172	0.0377974
122	0xbd8bf41c	-0.068336695
123	0x3d73c5ba	0.05951474
124	0xbd03f497	-0.03221568
125	0xbdfd3d8c	-0.12365255
126	0xbd8c5028	-0.06851226
127	0xbe6fc6f0	-0.23415732
128	0x38e8e333	0.00011104941
129	0x3d43e2cb	0.04782371
130	0x3d542ce4	0.051800624
131	0xbe28f79c	-0.16500705
132	0xbd455d80	-0.04818487
133	0x3d093317	0.03349599
134	0xbe96e559	-0.29471853
135	0xbd8613e1	-0.0654676
136	0xbd335ca2	-0.043789513
137	0xbc045315	-0.008076449
138	0xbd47d374	-0.04878564
139	0xbdb4e59f	-0.08832859
140	0x3cb73263	0.022362893
141	0x3de18879	0.11012358
142	0x3cfd28de	0.030903276
143	0x3da0b925	0.078478135
144	0x3e1ef578	0.15523326
145	0x3d1da66c	0.03848879
146	0xbde1906c	-0.110138744
147	0xbe03693b	-0.12833111
148	0x3deb88b4	0.115006834
149	0xbdb9d873	-0.090744875
150	0xbd211a29	-0.03933159
151	0x3da970b1	0.08273447
152	0xbd6a7e10	-0.05724913
153	0xbc207fa8	-0.009796061
154	0x3d6eacb2	0.058270164
155	0xbd8e2061	-0.069397695
156	0xbca01214	-0.01953987
157	0x3d59e69a	0.053198434
158	0x3d1c6463	0.038181674
159	0x3d2b10ee	0.041764192
160	0xbdf59fd1	-0.11993373
161	0x3d8f74d9	0.07004709
162	0xbc86b878	-0.016445383
163	0xbe32a4e2	-0.1744571
164	0xbe1d3e47	-0.15355788
165	0xbd9e097c	-0.07716653
166	0xbd97bd51	-0.07409156
167	0x3e1fe6d0	0.15615392
168	0x3c938c68	0.018011287
169	0x3e0b1ceb	0.1358525
170	0x3d6a9c55	0.057277996
171	0xbd7e7eb1	-0.06213254
172	0xbd8c100a	-0.06838997
173	0x3e5dcafe	0.21659467
174	0xbdbe8752	-0.09303154
175	0xbd46dd21	-0.04855073
176	0xbd38ed4f	-0.04514819
177	0xbe7d26d5	-0.24721844
178	0x3d84c33b	0.0648255
179	0xbd9feb29	-0.07808525
180	0xbbee8112	-0.00727857
181	0x3e449d0d	0.19200535
182	0xbe01eaae	-0.1268718
183	0x3e83d18c	0.2574581
184	0x3da886e6	0.08228855
185	0xbb696ba2	-0.0035617133
186	0x3b9b353d	0.004736571
187	0x3da56527	0.08075934
188	0xbda9b6ba	-0.082868055
189	0xbe54a474	-0.20765859
190	0x3d0211b3	0.03175516
191	0xbe244e2b	-0.16045444
192	0x3d6109e2	0.054941066
193	0xbc56fe5b	-0.0131221665
194	0xbe047578	-0.12935436
195	0xbc8b989b	-0.017040541
196	0xbdb478ba	-0.08812089
197	0x3cecce76	0.028907042
198	0x3d19d3d9	0.03755555
199	0x3c7a2c9b	0.015269424
200	0xbc8dc503	-0.017305857
201	0xbe6d1f2e	-0.23156425
202	0xbcf97410	-0.03045085
203	0xbd4c27c2	-0.049842604
204	0x3ddeed5a	0.10885115
205	0xbe3d2355	-0.1847051
206	0x3cec719b	0.028862765
207	0x3d258355	0.04040845
208	0x3dc40692	0.09571566
209	0xbdbb607a	-0.09149261
210	0x3deb680f	0.11494457
211	0x3d03afae	0.032149963
212	0xbc887b9f	-0.01666051
213	0xbdcc9a9b	-0.09990426
214	0x3de5d3c0	0.11222029
215	0x3cb0cbcb	0.021581551
216	0xbd5eea09	-0.054422412
217	0x3daba51d	0.08381102
218	0xbdb2798a	-0.08714588
219	0x3d7dbe7f	0.06194925
220	0x3e1914ef	0.14949392
221	0x3dbab59c	0.091166705
222	0xbda60d60	-0.0810802
223	0x3da07933	0.07835617
224	0x3cb86243	0.022507792
225	0x3d269063	0.04066504
226	0xbdb11240	-0.08646059
227	0x3ce2d707	0.027690424
228	0x3d7f9a92	0.06240327
229	0x3cf320ad	0.029678667
230	0x3cafc08d	0.02145412
231	0x3bd84f3b	0.006601242
232	0xbdff78bd	-0.12474201
233	0xbe030635	-0.12795337
234	0xbbd8fc0b	-0.0066218427
235	0x3d844f5d	0.0646045
236	0x3dcae747	0.09907394
237	0x3d515552	0.05110676
238	0xbcaae773	-0.020862317
239	0x3aed6f92	0.0018114916
240	0x3e3191b8	0.17340744
241	0x3d949f1d	0.07256911
242	0xbe2a55cf	-0.16634296
243	0xbdb31302	-0.0874386
244	0xbce60f98	-0.028083608
245	0x3de8d017	0.11367815
246	0xbe16f269	-0.1474091
247	0x3db75457	0.089516334
248	0xbd8e0b34	-0.069357306
249	0xbce1f057	-0.027580423
250	0xbd1e7120	-0.038682103
251	0xbd2ed332	-0.04268188
252	0xbe2615b6	-0.1621922
253	0x3e29a20c	0.16565722
254	0x3d937be1	0.072013624
255	0x3ded07c7	0.11573749

bias f4 [64]
0	0xb9dd1d66	-0.00042174308
1	0xbe01e5e0	-0.12685347
2	0xbd745cdf	-0.05965888
3	0xbd307aa3	-0.043085705
4	0x3a30fada	0.0006751247
5	0xbda635a7	-0.08115702
6	0xbd37eff3	-0.044906568
7	0xbd34c3fe	-0.044132225
8	0xbdc54996	-0.09633176
9	0xbcdb9e7b	-0.026808968
10	0xbca2860e	-0.019839313
11	0xbd7b6bb0	-0.061381996
12	0x3be4e908	0.0069857873
13	0x3e169daa	0.14708582
14	0x3d125721	0.035727624
15	0xbd437558	-0.04771933
16	0xbd02c48b	-0.03192572
17	0x3dc83c64	0.097771436
18	0x3d222b62	0.039592154
19	0xbc8a07f5	-0.016849497
20	0xbe157252	-0.14594391
21	0xbdc4026b	-0.09570774
22	0x3d89db26	0.06731252
23	0xbc477a6b	-0.012175183
24	0x3e3aea5d	0.18253465
25	0xbd6a1462	-0.057148345
26	0xbd19f9b5	-0.037591655
27	0xbceac8e2	-0.028660242
28	0xbd47b4c2	-0.04875637
29	0xbc713085	-0.014721041
30	0x3cc98af6	0.024602395
31	0x3d32412c	0.043519184
32	0xbd416dd2	-0.047223873
33	0xbe217ec8	-0.1577102
34	0x3dab1288	0.08353144
35	0x3e04158d	0.12898846
36	0xbd4478d8	-0.047966808
37	0xbd9f1dc4	-0.07769349
38	0x3d8afbc9	0.067863055
39	0x3e14dda9	0.14537682
40	0x3d2203b0	0.039554298
41	0x3d05d515	0.032673914
42	0x3df2611d	0.11834929
43	0xbe1b6029	-0.15173401
44	0xbd55e5b6	-0.052221023
45	0xbd9c2885	-0.07624916
46	0xbd21c8e5	-0.03949823
47	0x3c19af37	0.009380153
48	0xbe27b8d0	-0.16379094
49	0x3cab133c	0.020883195
50	0xbd44a339	-0.048007224
51	0xbd4ed188	-0.050492793
52	0xbddc766a	-0.10764773
53	0x3c198e1f	0.009372263
54	0x3c157b39	0.009123617
55	0x3de1d496	0.11026876
56	0xbc2cf78c	-0.010557067
57	0xbccde25b	-0.025132349
58	0xbbe0eeda	-0.006864411
59	0x3e3d8ff6	0.18511948
60	0xbca48f7c	-0.02008795
61	0x3d59f640	0.053213358
62	0x3d08becc	0.033385083
63	0xbd9963d2	-0.07489742

weight f4 [64, 64]
0	0x3e898e3f	0.26866338
1	0x3dab7aef	0.08373057
2	0xbbf34f99	-0.0074252603
3	0x3d07ad54	0.033124283
4	0xbe2d0fcf	-0.16900562
5	0x3da25915	0.07927147
6	0x3e79d8ba	0.24399081
7	0x3e883ddd	0.26609698
8	0x3e7ee403	0.24891667
9	0x3e7f8901	0.24954607
10	0x3e4cc430	0.19996715
11	0xbd2567e8	-0.040382296
12	0x3dd98c27	0.10622435
13	0xbd4f0aed	-0.05054753
14	0x3e77786e	0.24167034
15	0x3eb5c732	0.35503536
16	0xbdf688bc	-0.12037799
17	0x3e439f33	0.19103698
18	0x3dc5f475	0.09665767
19	0x3e660e32	0.22466353
20	0xbd8440ef	-0.064576976
21	0xbd6f49c4	-0.058419958
22	0xbc0ed860	-0.00871858
23	0xbc401fb6	-0.0117263105
24	0xbb3ccdd7	-0.0028809214
25	0x3e63a7b8	0.22231948
26	0xbdeecdc2	-0.11660339
27	0x3e865df9	0.2624357
28	0x3df97888	0.12181193
29	0x3d2ad811	0.041709963
30	0xbdb8790c	-0.09007463
31	0x3e094562	0.13405374
32	0x3e3aa069	0.18225254
33	0x3e7395cd	0.23787613
34	0x3dc3ea79	0.095662065
35	0x3ded6258	0.11591023
36	0x3e9daa2c	0.30793893
37	0x3e37e11a	0.17956963
38	0x3ed3a878	0.4133947
39	0x3e193200	0.1496048
40	0xbd624b5f	-0.05524766
41	0x3e81c773	0.2534748
42	0xbddf12e0	-0.10892272
43	0xbcb980fe	-0.022644516
44	0x3e9664bc	0.2937373
45	0x3e4a6da7	0.19768392
46	0x3e11a274	0.14222127
47	0xbde6fe90	-0.11279023
48	0x3ed7061d	0.41996852
49	0xbb95d223	-0.0045721694
50	0x3e1776d0	0.14791417
51	0xbe276059	-0.16345347
52	0x3d91ad62	0.07113148
53	0x3e13c634	0.14431077
54	0xbdf72296	-0.120671436
55	0x3be6a9cd	0.007039285
56	0xbcc4e0e6	-0.024033021
57	0x3d85253e	0.06501244
58	0x3e9a1f5f	0.3010206
59	0x3d8b45e7	0.06800442
60	0x3ccdeb0d	0.025136495
61	0xbc54fbd1	-0.012999491
62	0x3c45c119	0.012069964
63	0xbdcb7814	-0.099350125
64	0xbd3df2af	-0.04637402
65	0xbe4e7173	-0.20160465
66	0x3d54ff8d	0.052001525
67	0x3c8e35ba	0.017359603
68	0x3e576019	0.21032752
69	0x3e75296c	0.23941582
70	0xbd571f25	-0.052519936
71	0x3e2429fc	0.16031641
72	0x3e53dc97	0.20689617
73	0x3f1449af	0.5792493
74	0xbde76fdd	-0.11300633
75	0xbc8e2a8b	-0.01735427
76	0x3ea6a06b	0.32544264
77	0x3eac80c2	0.33691984
78	0x3e8a8d62	0.27060992
79	0xbc0c1e68	-0.008552171
80	0x3dfccf50	0.12344229
81	0x3e8c1075	0.27356306
82	0xbccfb01f	-0.025352536
83	0x3e5a1d78	0.21300304
84	0x3d88c79f	0.066787
85	0xbdab6879	-0.08369536
86	0x3dfd84e3	0.12378862
87	0xbd4a3760	-0.049369216
88	0x3e2c3dc9	0.16820444
89	0x3d6127ab	0.05496947
90	0x3da6b1c2	0.08139373
91	0x3eb02ccb	0.34409174
92	0x3e3a3618	0.18184698
93	0x3e47cc49	0.19511522
94	0xbcbba297	-0.022904677
95	0x3cfc74be	0.030817386
96	0xbc42586b	-0.011861901
97	0x3df4fbf9	0.119621225
98	0x3e9e9cc9	0.30978993
99	0x3ec49b6d	0.3839983
100	0x3e436e06	0.1908494
101	0x3e886759	0.26641348
102	0x3ece958b	0.40348467
103	0x3ef5251c	0.47879875
104	0xbd49a23b	-0.04922698
105	0x3e8387f0	0.2568965
106	0x3e0dc808	0.13845837
107	0xbd0c71ca	-0.034288205
108	0x3e666d3d	0.22502609
109	0x3dd6197f	0.10454082
110	0x3d9d12d9	0.076696105
111	0xbe282123	-0.1641889
112	0x3e65439b	0.2238907
113	0x3d631c67	0.05544701
114	0x3d1c4326	0.038149975
115	0x3e80aab6	0.25130242
116	0x3de60b99	0.11232681
117	0x3c1c7645	0.009549682
118	0x3e59af8f	0.21258377
119	0x3e190b97	0.14945827
120	0xbe182d5b	-0.14861052
121	0x3e1090ba	0.14117709
122	0x3e76fadd	0.24119134
123	0xbd5e6711	-0.05429751
124	0x3e2f9aaa	0.17148843
125	0xbdc05f7b	-0.093932115
126	0x3e83c06c	0.25732744
127	0x3dfc9dce	0.12334786
128	0xbb34226a	-0.0027486333
129	0xbd7de986	-0.061990283
130	0xba2cd240	-0.0006592609
131	0xbe6adbd6	-0.22935423
132	0x3e8492f0	0.25893354
133	0x3dbf0afb	0.09328266
134	0x3e65d68e	0.22445127
135	0x3e8eeba3	0.27914152
136	0x3ebd48d5	0.3696963
137	0x3e21f4ed	0.15816088
138	0xbebcc298	-0.36867213
139	0xbe3c4e18	-0.18389165
140	0x3e8c0380	0.2734642
141	0x3e8137ee	0.25237983
142	0xbe72c99d	-0.23709722
143	0x3d76906d	0.06019633
144	0xbe8c120a	-0.27357513
145	0x3f036428	0.513247
146	0xbdf63d4a	-0.12023409
147	0x3d220676	0.039556943
148	0xbdcd8d8d	-0.10036764
149	0xbe00e83c	-0.1258859
150	0x3c59e8cf	0.013300135
151	0xbe4301dd	-0.1904368
152	0x3e538add	0.20658441
153	0xbe8ddf03	-0.27709207
154	0xbd9359a1	-0.0719483
155	0x3dd2606c	0.10272297
156	0x3d8b1aae	0.06792198
157	0x3e65a2cc	0.22425383
158	0xbcbae94e	-0.022816326
159	0xbde9abc9	-0.114097185
160	0xbe5e1938	-0.21689308
161	0x3d9773da	0.07395144
162	0x3df8ec80	0.12154484
163	0x3d52d416	0.051471792
164	0x3d828b7f	0.06374263
165	0xbe0cb810	-0.1374209
166	0x3e61dcba	0.22056857
167	0x3eab780a	0.3349002
168	0xbcc3aec1	-0.02388704
169	0x3e4d1182	0.2002621
170	0xbe535202	-0.20636752
171	0xbe87e9ba	-0.26545507
172	0x3e823270	0.25429106
173	0xbe0d9563	-0.13826518
174	0xbd19ceac	-0.037550613
175	0x3cb0b3f3	0.021570181
176	0xbe626212	-0.22107723
177	0x3c581289	0.013188013
178	0x3b28232e	0.0025655734
179	0x3e325f7c	0.17419237
180	0x3de2e0b0	0.11078012
181	0x3e5840ae	0.21118423
182	0xbddc3f8c	-0.10754308
183	0xbd1df18e	-0.038560443
184	0x3e9bab9e	0.3040437
185	0xbd341a24	-0.043970242
186	0x3e42fa37	0.19040762
187	0x3c3880d7	0.011261187
188	0xbd5b3606	-0.053518318
189	0x3dcbf157	0.09958141
190	0xbef38bcb	-0.4756759
191	0xbeb31d82	-0.3498345
192	0x3db35583	0.087565444
193	0x3de41d00	0.11138344
194	0x3ea1c228	0.31593442
195	0xbdb57aba	-0.08861299
196	0x3d360945	0.044442434
197	0xbe086bd0	-0.13322377
198	0x3e33bf26	0.17553386
199	0x3e2e1816	0.17001376
200	0x3dc4c402	0.09607698
201	0x3e0f5867	0.13998567
202	0xbcef0b7f	-0.029180286
203	0xbe5e2e77	-0.21697412
204	0x3d4b1416	0.049579702
205	0x3dda58af	0.10661446
206	0xbe1329da	-0.14371434
207	0x3d90a4b2	0.07062663
208	0x3d2047f7	0.03913113
209	0x3e7f0f63	0.24908213
210	0x3d70263a	0.058630206
211	0xbe7856e7	-0.242519
212	0x3b39b8fd	0.0028339021
213	0xbe888038	-0.26660323
214	0xbde4c6ce	-0.111707315
215	0xbccc8dcb	-0.024969956
216	0x3dcf227e	0.10114001
217	0xbee4c62d	-0.44682446
218	0xbe6fd86f	-0.23422407
219	0x3e00b79d	0.12570043
220	0x3dd67a39	0.10472531
221	0xbdde0003	-0.10839846
222	0xbd516deb	-0.051130217
223	0x3e01d2c6	0.1267806
224	0xbe939238	-0.28822494
225	0xbe0e8140	-0.13916492
226	0xbeaeab51	-0.3411508
227	0x3f271dab	0.65279645
228	0x3e3e398e	0.18576643
229	0x3e12f5cd	0.14351578
230	0x3e0900d0	0.13379216
231	0x3d972020	0.07379174
232	0xbe087467	-0.13325654
233	0x3e3e0bf1	0.18559243
234	0x3e5d745e	0.21626422
235	0xbcd663a6	-0.026170563
236	0xbd07cea6	-0.03315606
237	0x3db5c0a4	0.08874634
238	0x3e26cf0e	0.16289923
239	0xbdd97744	-0.10618451
240	0xbe14605a	-0.1448988
241	0x3e52fbb2	0.20603827
242	0x3d9f21d7	0.07770126
243	0xbea1b2fd	-0.3158187
244	0x3e2d0264	0.16895443
245	0xbe18ae2a	-0.14910188
246	0xbf23ae60	-0.6393795
247	0xbe442aa0	-0.19156885
248	0xbcf0f151	-0.029411944
249	0x3e501635	0.20320971
250	0xbd88af50	-0.06674063
251	0x3c025317	0.0079543805
252	0xbdbe3684	-0.09287742
253	0xbdbe1fac	-0.09283385
254	0xbe99bbce	-0.30026096
255	0xbebe226f	-0.37135646

bias f4 [64]
0	0xb387a903	-6.3171704e-08
1	0x359058c3	1.0754669e-06
2	0x3514ebfa	5.547769e-07
3	0xb6c441f5	-5.8489336e-06
4	0xb607344e	-2.0147013e-06
5	0x366a055c	3.4871837e-06
6	0x36300e71	2.623445e-06
7	0x36f67d48	7.345956e-06
8	0x369792dc	4.5172474e-06
9	0x364a85a0	3.0178126e-06
10	0xb71753a3	-9.019775e-06
11	0x362708cb	2.4890057e-06
12	0xb523d026	-6.102513e-07
13	0x363cc351	2.8127872e-06
14	0x34c5cc80	3.6842903e-07
15	0x373e6ca3	1.13501765e-05
16	0x3680eb98	3.842124e-06
17	0x3675b8a4	3.661532e-06
18	0xb6ae0c89	-5.1870634e-06
19	0xb58e9cc6	-1.0625452e-06
20	0x373b7c8c	1.1175067e-05
21	0xb52a9ab2	-6.3555046e-07
22	0xb626f904	-2.4880874e-06
23	0x36d54660	6.3560874e-06
24	0x35120b9e	5.4406144e-07
25	0x36e1b2ae	6.7263236e-06
26	0x357ae9fd	9.3472755e-07
27	0xb62821b5	-2.505357e-06
28	0x35757345	9.143735e-07
29	0xb5efeba4	-1.7875468e-06
30	0xb636603a	-2.7176125e-06
31	0xb5fa8358	-1.8664678e-06
32	0x368d1a65	4.2052e-06
33	0xb68dc45b	-4.2249862e-06
34	0x36d00178	6.199054e-06
35	0xb5bca999	-1.4056451e-06
36	0x3664682e	3.4035288e-06
37	0x35677dce	8.6237276e-07
38	0x369e31ff	4.7145872e-06
39	0x34b1dd63	3.31299e-07
40	0xb6390dee	-2.7575256e-06
41	0x36fbb480	7.501396e-06
42	0xb5b34d6a	-1.335907e-06
43	0x33cb7229	9.47369e-08
44	0xb612a4e8	-2.1851683e-06
45	0xb5c8a893	-1.4950223e-06
46	0xb6263e9c	-2.477237e-06
47	0xb69fd3dc	-4.763233e-06
48	0xb712bd15	-8.746302e-06
49	0xb58750a1	-1.008175e-06
50	0xb64b25b7	-3.027131e-06
51	0x36645182	3.4022091e-06
52	0xb64f7f54	-3.0919518e-06
53	0xb6cf5d45	-6.1799387e-06
54	0x35be6820	1.4186407e-06
55	0x36d4f75a	6.346888e-06
56	0x3718bfb3	9.1045395e-06
57	0x360a313c	2.059226e-06
58	0xb48c50e3	-2.6135885e-07
59	0xb5facdbd	-1.8686329e-06
60	0xb6387808	-2.7488004e-06
61	0xb4f7e055	-4.6170558e-07
62	0xb52d479c	-6.455173e-07
63	0x3586e979	1.0051727e-06

weight f4 [64, 64]
0	0x3ea0d7a2	0.31414515
1	0x3e1729ca	0.14762035
2	0x3b15fa10	0.0022884645
3	0x3e2dca11	0.16971613
4	0xbe16b792	-0.14718464
5	0x3e4314cd	0.19050904
6	0x3e0767ed	0.13223238
7	0xbd87198e	-0.06596671
8	0xbd0e4176	-0.034730397
9	0xbdab4faa	-0.08364804
10	0xbe844d03	-0.25840005
11	0x3d9e0ec1	0.07717658
12	0xbd35c3da	-0.04437623
13	0xbdb7c498	-0.08973044
14	0xbedb86c4	-0.42876256
15	0x3e36b23c	0.17841429
16	0xbe0ed67a	-0.13949004
17	0xbe18f2b6	-0.14936337
18	0x3df230ee	0.11825739
19	0xbdc802ce	-0.0976616
20	0xbdf6d1f0	-0.12051761
21	0xbdd57e6a	-0.10424502
22	0x3e54bb0b	0.20774476
23	0x3b46dde6	0.0030344664
24	0x3deae186	0.114687964
25	0xbdc2cbb2	-0.09511508
26	0xbd2d101b	-0.042251687
27	0xbe7c51dd	-0.24640603
28	0xbdad9147	-0.08474975
29	0xbdded83e	-0.10881089
30	0x3d6437c1	0.055717234
31	0xbe1f5e93	-0.15563421
32	0xbe9c51b5	-0.30531088
33	0xbe6351cb	-0.2219917
34	0xbeaf18c0	-0.3419857
35	0x3d5fc25d	0.05462872
36	0xbe96b8c5	-0.29437843
37	0xbed728ca	-0.42023307
38	0x3bbf7c24	0.005843656
39	0xbc5b0eab	-0.013370196
40	0xbd765c9e	-0.06014692
41	0x3dad2211	0.08453763
42	0x3d582024	0.052765027
43	0xbd8f0ebb	-0.069852315
44	0x3de63db6	0.11242239
45	0xbd70543f	-0.058674093
46	0x3e367365	0.17817457
47	0x3da7a842	0.081863895
48	0x3da7331d	0.08164046
49	0xbe155e92	-0.14586857
50	0xbd7292ec	-0.059222147
51	0xbc1eced9	-0.009692871
52	0x3e547d1c	0.2075085
53	0xbe4e2171	-0.20129944
54	0xbf0a2653	-0.5396473
55	0x3bb4c9d6	0.005517225
56	0xbc096466	-0.008385753
57	0x3df5f00b	0.12008675
58	0x3c868f6b	0.016425809
59	0xbe0ccc14	-0.13749725
60	0xbe05ba26	-0.13059291
61	0x3de71c70	0.11284721
62	0xbe78d279	-0.24299039
63	0xbd2c816e	-0.04211562
64	0xbe5683d6	-0.20948729
65	0x3cf91b9e	0.030408677
66	0x3e1433bb	0.14472859
67	0xbdf31429	-0.118690796
68	0xbc558075	-0.013031115
69	0xbe0d0e52	-0.13774994
70	0x3cbd2906	0.02309085
71	0xbd95fdaa	-0.07323773
72	0x3e0993ea	0.13435331
73	0xbbde964f	-0.0067928205
74	0x3d1fe4bb	0.039036494
75	0x3e2bc063	0.16772608
76	0x3e20db5d	0.1570868
77	0xbc27044c	-0.010193896
78	0xbe1e5f75	-0.15466101
79	0x3deb0d7f	0.114771836
80	0x3cbf9d9c	0.023390584
81	0x3d2bb375	0.04191919
82	0xbc123067	-0.008922673
83	0x3e81a9d5	0.25324884
84	0x3e9ad7f0	0.30242872
85	0x3d518d29	0.05116001
86	0x3d8665e7	0.06562405
87	0x3d821a73	0.06352701
88	0xbdc8216a	-0.09771998
89	0x3e9465e6	0.28983992
90	0x3db73be1	0.08946968
91	0xbdfe9ea3	-0.12432601
92	0x3ceef5e4	0.029169984
93	0x3cfa2722	0.030536238
94	0x3e9de9bf	0.30842397
95	0x3e1251cd	0.14289017
96	0x3dc673a1	0.09690023
97	0xbe3eb32e	-0.18623039
98	0xbe410429	-0.18849243
99	0xbd9f7544	-0.077860385
100	0xbdbad51c	-0.09122679
101	0xbddecf53	-0.10879388
102	0xbea339ee	-0.31880134
103	0x3d8d152d	0.068888046
104	0xbe1bf63c	-0.1523065
105	0xbbf88cfa	-0.007585165
106	0xbde2135c	-0.11038849
107	0xbe16a10d	-0.14709873
108	0xbe4e55ec	-0.20149964
109	0x3d5c425b	0.05377422
110	0xbcbe8d08	-0.023260608
111	0x3d9e4ac6	0.07729106
112	0x3e723425	0.23652704
113	0x3d8554e3	0.065103315
114	0x3e87d434	0.26529086
115	0x3c9007be	0.017581817
116	0x3e1575ca	0.14595714
117	0x3e6a904f	0.22906612
118	0x3b526dc1	0.0032108875
119	0x3eab63dc	0.33474624
120	0x3df33b87	0.11876588
121	0xbe9174e6	-0.284095
122	0x3bc7e9e6	0.006100881
123	0x3abaaea0	0.0014242716
124	0xbc9db765	-0.019252488
125	0xbd8d4c8c	-0.06899366
126	0x3dfdd352	0.12393822
127	0xbe0819ff	-0.13291167
128	0xbe1227ae	-0.14272949
129	0xbdce4af7	-0.10072892
130	0xbdcd7e32	-0.100338355
131	0xbdb4c9d8	-0.08827561
132	0xbdd2c4ee	-0.102914676
133	0xbe2b115a	-0.16705838
134	0xbe7d0dd2	-0.24712303
135	0xbe2c177d	-0.16805835
136	0xbd67ef01	-0.056624416
137	0xbccd1f87	-0.025039447
138	0xbe415cd8	-0.18883073
139	0xbe04d0e9	-0.12970318
140	0xbe68468f	-0.22683166
141	0xbd24e8cc	-0.040261075
142	0x3e111145	0.14166744
143	0x3f25d689	0.6478048
144	0xbcacbe09	-0.02108671
145	0x3c935cca	0.017988581
146	0x3e40adf9	0.18816365
147	0x3e059517	0.13045155
148	0xbe6c682f	-0.23086618
149	0xbdcacd23	-0.09902408
150	0x3e6d3fb0	0.23168826
151	0xbcacd830	-0.02109918
152	0x3e8d9c25	0.2765819
153	0xbd0d1ee7	-0.0344533
154	0xbe92d88b	-0.28680834
155	0x3e1488e0	0.14505339
156	0x3e68469d	0.22683187
157	0x3d9ecd9d	0.07754061
158	0xbe4ff66c	-0.20308846
159	0xbda33eb3	-0.07970943
160	0xbebbd34a	-0.36684638
161	0x3c6888d6	0.0141927805
162	0x3de77ef4	0.11303511
163	0x3decf0e8	0.11569387
164	0xbe0ae64f	-0.13564418
165	0xbdbc4478	-0.09192747
166	0xbe90ab0f	-0.28255507
167	0xbe7e145b	-0.24812452
168	0xbe8c59f9	-0.27412394
169	0xbe3970a7	-0.1810938
170	0x3eac30da	0.3363102
171	0xbe3c9b28	-0.18418562
172	0xbe18e54b	-0.14931218
173	0xbd7002ac	-0.058596298
174	0xbdc2d1a4	-0.09512642
175	0x3d34d75b	0.04415069
176	0xbcb056b4	-0.021525718
177	0x3e8f46e3	0.2798377
178	0xbd609b8f	-0.054835852
179	0xbbe3c7c5	-0.0069513046
180	0xbe7e835c	-0.24854797
181	0x3e3f177c	0.18661302
182	0x3dac1295	0.08401982
183	0xbe38ea37	-0.18058096
184	0xbe3456bf	-0.17611216
185	0xbd602bb3	-0.054729175
186	0x3e714e1e	0.23564956
187	0x3d4d8c33	0.050182533
188	0xbdc3c1e9	-0.0955847
189	0x3db3b0c8	0.08773953
190	0x3e021328	0.1270262
191	0xbd408415	-0.047000963
192	0xbd3bc483	-0.045841705
193	0x3cc3e7c8	0.023914233
194	0xbd6029e3	-0.054727446
195	0xbbdbfda9	-0.0067135883
196	0x3de417c1	0.11137343
197	0x3d7d4a24	0.061838284
198	0x3c32dddb	0.010917152
199	0xbdb8290f	-0.08992206
200	0xbca7b1e8	-0.020470574
201	0x3e12fa42	0.14353278
202	0x3d3264c4	0.04355313
203	0x3c97afef	0.018516509
204	0x3dec9526	0.11551885
205	0xbc9ba53f	-0.018999694
206	0x3e6aa5da	0.2291483
207	0xbeac4589	-0.336468
208	0xbcbd4ef1	-0.023108931
209	0xbd05fde5	-0.032712836
210	0x3e018e57	0.12651955
211	0x3e8fb96b	0.2807115
212	0xbe3677c0	-0.17819118
213	0xbd7d828f	-0.06189209
214	0x3d9bda46	0.07609992
215	0xbd6244a1	-0.05524123
216	0xbb601a32	-0.00341953
217	0x3d07fc01	0.033199314
218	0x3d97821d	0.07397864
219	0x3d24a072	0.040192075
220	0xbce3ca5c	-0.027806453
221	0xbe04d7af	-0.12972902
222	0xbebd1b25	-0.36934772
223	0x3e9d813d	0.30762663
224	0xbe423918	-0.18967092
225	0x3e779eb8	0.2418164
226	0x3e40e37c	0.18836778
227	0x3d817aea	0.06322272
228	0xbec1fe6d	-0.37889424
229	0x3d8ce675	0.06879894
230	0x3e99f9ff	0.30073544
231	0xbdd2d084	-0.102936774
232	0x3ddd9c8d	0.10820875
233	0x3e102635	0.14077075
234	0xbe62aa44	-0.22135264
235	0x3d6a7614	0.057241514
236	0x3eaf1bf3	0.3420101
237	0x3ba0bdc4	0.0049054343
238	0xbe934f35	-0.28771368
239	0x3e9ad57b	0.30240998
240	0xbcb12f19	-0.021628903
241	0xbd8d82b6	-0.06909697
242	0xbe6aac4d	-0.2291729
243	0x3e6d5b4d	0.2317936
244	0xbe29e8da	-0.16592732
245	0x3e01a9f0	0.12662482
246	0xbe0cb2db	-0.13740103
247	0x3ea5114f	0.32239768
248	0x3ea55150	0.322886
249	0x3d882082	0.066468254
250	0xbd93d520	-0.07218385
251	0xbd814149	-0.0631128
252	0xbd72a46e	-0.059238844
253	0xbe025771	-0.12728669
254	0x3d20d2e7	0.039263632
255	0x3d4e74b8	0.05040428

bias f4 [64]
0	0xbde6a44e	-0.112618074
1	0x3da48f32	0.08035125
2	0x3dc0699b	0.09395143
3	0xbd54a5cd	-0.051915932
4	0xbdeb099d	-0.11476443
5	0xbd300acb	-0.042979043
6	0xbd2cc226	-0.042177342
7	0x3baaba70	0.0052102134
8	0x3d242cb8	0.04008171
9	0xbd094239	-0.03351042
10	0x3e0b9591	0.13631274
11	0x3c045c87	0.008078701
12	0xbd661042	-0.05616785
13	0x3baf91d7	0.0053579616
14	0xbca04a80	-0.019566774
15	0x3cc5bbfb	0.024137488
16	0xbc54c173	-0.012985575
17	0x3c1183b7	0.008881501
18	0xbd96056b	-0.07325252
19	0xbe0b9df8	-0.13634479
20	0xbd22d774	-0.039756253
21	0xbcb686eb	-0.02228113
22	0x3d363ed4	0.04449351
23	0xbdf76470	-0.12079704
24	0x3dcc52e4	0.09976748
25	0xbdf8d443	-0.12149861
26	0x3d9e33eb	0.07724746
27	0xbdd0e624	-0.10200146
28	0xbdb27fac	-0.08715758
29	0xbd2f682e	-0.042823963
30	0x3bdd4922	0.006753103
31	0x3c018906	0.007906204
32	0xbb427674	-0.0029672654
33	0xbd4c6f7b	-0.049911004
34	0x3c9a7960	0.018856704
35	0x3d950f12	0.07278265
36	0x3c923650	0.017848164
37	0xbd3fc985	-0.046823043
38	0x3dfcc73a	0.12342687
39	0xbd486c55	-0.04893144
40	0xbdd48461	-0.10376812
41	0xbd43dadb	-0.04781614
42	0xbc537b17	-0.012907765
43	0xbba022e7	-0.004886973
44	0xbc96b94a	-0.0183989
45	0xbd5501cc	-0.052003667
46	0x3c859aae	0.016309109
47	0x3db34409	0.08753211
48	0x3da6e621	0.08149362
49	0xbe0598dd	-0.13046594
50	0xbcb25366	-0.021768283
51	0x3da8009f	0.082032435
52	0x3d50ad9a	0.05094681
53	0xbd8c90bd	-0.06863544
54	0xbe12bde8	-0.14330256
55	0xbdef5de0	-0.11687827
56	0xbdab0221	-0.083500154
57	0x39114124	0.00013852544
58	0xbdb02bad	-0.086020805
59	0xbce2d7be	-0.027690765
60	0xbd4b066f	-0.049566682
61	0x3d6dedf2	0.05808825
62	0xbb5166ae	-0.003195207
63	0xbe0ffad3	-0.14060526

w f4 [6, 64, 40]
0	0xbe85c727	-0.26128504
1	0x3e85029b	0.2597855
2	0x3e5268b5	0.20547755
3	0xbe8c46ee	-0.27397865
4	0xbe381cda	-0.17979756
5	0xbdff8ba9	-0.1247781
6	0xbb128b5c	-0.0022360897
7	0xbe1d3002	-0.15350345
8	0xbe39155c	-0.18074554
9	0x3e71c89c	0.23611683
10	0xbc874193	-0.01651076
11	0x3e3356e3	0.17513613
12	0x3e56d97b	0.209814
13	0x3df7079e	0.12062
14	0xbe1c1f1b	-0.15246241
15	0xbe3fe321	-0.18738987
16	0xbd869801	-0.06571961
17	0x3e4e21fa	0.20130149
18	0x3de470ac	0.11154303
19	0x3e48fbf0	0.19627357
20	0xbd959e6e	-0.07305609
21	0xbe6548cc	-0.22391051
22	0x3e99002a	0.29882938
23	0xbc838c99	-0.016058253
24	0xbec15dd6	-0.37766904
25	0x3e9226d3	0.28545246
26	0x3cc2c75a	0.023776699
27	0xbeabadb0	-0.3353095
28	0xbe77580f	-0.24154685
29	0xbda01f78	-0.07818502
30	0x3db623fa	0.08893581
31	0xbe6cdfda	-0.23132268
32	0x3dc42f78	0.095793664
33	0xbe90af19	-0.2825859
34	0x3e421cce	0.189563
35	0x3dd63e12	0.10461058
36	0xbee2cc31	-0.4429641
37	0x3de20817	0.11036699
38	0x3e797a4f	0.24363063
39	0x3e3be589	0.1834928
40	0xbe76236a	-0.24036947
41	0xbec9849a	-0.3935898
42	0xbe943155	-0.28943887
43	0x3e12edcb	0.14348523
44	0xbdcdd30a	-0.10050018
45	0xbef35a85	-0.47529998
46	0xbe9e3521	-0.3089991
47	0xbf0bfc6a	-0.5468203
48	0xbe17ca1a	-0.1482319
49	0x3e63971a	0.2222561
50	0xbeb73ffc	-0.35791004
51	0x3d8eba8d	0.069691755
52	0xbe939c63	-0.2883025
53	0x3eb4ed31	0.35337213
54	0xbe4af89e	-0.19821402
55	0x3e5821bc	0.21106619
56	0xbf0862d6	-0.5327581
57	0xbe90c0d0	-0.28272104
58	0xbdde7c09	-0.108635016
59	0xbec2eed8	-0.38072848
60	0x3d6fee53	0.058576893
61	0x3e97745a	0.29580957
62	0xbe9243f0	-0.28567457
63	0xbd6a9e68	-0.057279974
64	0xbd81512b	-0.0631431
65	0xbdeb7a11	-0.11497892
66	0xbdca8f63	-0.0989063
67	0xbf1287f1	-0.5723868
68	0xbed7b61f	-0.42131135
69	0x3d6de902	0.05808354
70	0xbe216747	-0.15762053
71	0xbd2a2109	-0.04153541
72	0xbdb2af9f	-0.08724903
73	0xbeab1c63	-0.33420095
74	0x3c393b2a	0.01130561
75	0xbdbb273f	-0.09138345
76	0x3e333f2f	0.17504571
77	0xbdf8eaf3	-0.12154188
78	0xbd888c6a	-0.06667407
79	0x3e9f9ee9	0.31175926
80	0x3ddc09c9	0.10744054
81	0xbe2eb668	-0.1706177
82	0xbe6a72c1	-0.22895338
83	0xbd9d0de9	-0.07668669
84	0xbdda83d4	-0.106696755
85	0x3e049683	0.1294804
86	0x3ed0b771	0.40764955
87	0xbda6c86b	-0.081436954
88	0x3e9698c1	0.29413417
89	0x3e24cb92	0.16093281
90	0x3e29f71a	0.16598168
91	0xbdd51bbb	-0.1040568
92	0xbcee3e29	-0.029082375
93	0xbe87422d	-0.26417676
94	0xbee74937	-0.45173046
95	0x3e0f048d	0.1396658
96	0x3e54365d	0.20723863
97	0xbe6d8434	-0.23194963
98	0x3e3a3860	0.18185568
99	0x3d7e283d	0.062050093
100	0xbda6f610	-0.081524014
101	0xbdae9395	-0.08524243
102	0xbe4534c6	-0.19258413
103	0x3dc77b82	0.09740354
104	0x3ea2b342	0.31777388
105	0x3e0ef736	0.13961491
106	0x3dc108de	0.094255194
107	0x3e7f633a	0.24940196
108	0x3d1f2245	0.03885104
109	0x3e45cf79	0.19317426
110	0x3e9a4d74	0.30137217
111	0x3eed5e4e	0.4636101
112	0x3cac4e2d	0.02103337
113	0x3e83519f	0.2564821
114	0xbe7ca5d9	-0.24672641
115	0x3dbb9c08	0.0916062
116	0x3e0edaf7	0.13950716
117	0xbe8ae97d	-0.27131262
118	0xbcf1f41a	-0.029535342
119	0xbe235010	-0.1594851
120	0x3dcdb94c	0.10045108
121	0xbc8b6d4f	-0.017019896
122	0x3d79050f	0.06079584
123	0xbe232b0e	-0.15934393
124	0x3ea00509	0.31253842
125	0x3d001ce9	0.03127757
126	0x3f108519	0.5645309
127	0x3ec2b65a	0.38029748
128	0x3dc7c4ec	0.09754357
129	0x3df6a89e	0.1204388
130	0x3ebffc4d	0.37497178
131	0xbe6663bf	-0.22498988
132	0x3e9420e1	0.28931335
133	0x3e835179	0.25648096
134	0x3d7f4799	0.06232414
135	0x3e8ebefa	0.2788008
136	0x3d770834	0.060310557
137	0x3b2a60e9	0.0025997704
138	0x3f12b729	0.5731073
139	0xbe9fd6f6	-0.3121869
140	0x3f076d51	0.5290118
141	0xbde835da	-0.11338396
142	0x3ee8d6f2	0.4547649
143	0x3ea0c40f	0.3139958
144	0x3d94eed7	0.072721176
145	0x3e7320b0	0.23742938
146	0x3e36b9c3	0.178443
147	0x3ec54ac0	0.38533592
148	0xbe908b34	-0.28231204
149	0x3e3327d4	0.17495662
150	0x3e82d338	0.25551772
151	0x3d96bb35	0.07359926
152	0xbe6cc3cc	-0.23121566
153	0x3e8221c2	0.2541638
154	0x3e271ffc	0.16320795
155	0x3e82f220	0.25575352
156	0x3e3748ab	0.17898814
157	0xbd84b155	-0.06479136
158	0xbd7e13c8	-0.062030584
159	0x3e88a63e	0.26689333
160	0x3e1c07a7	0.15237294
161	0x3d9a6932	0.07539596
162	0xbf272c3a	-0.6530186
163	0xbe8994fd	-0.26871482
164	0x3df63a67	0.12022858
165	0x3dc7f4ba	0.09763475
166	0x3eb95ce7	0.3620369
167	0x3e10bdcc	0.14134902
168	0xbea6818c	-0.3252071
169	0x3e0fd358	0.14045465
170	0x3d111581	0.0354209
171	0x3daa2491	0.08307756
172	0xbe457e7b	-0.1928653
173	0xbd97bbb5	-0.07408849
174	0xbd850166	-0.06494407
175	0xbbbeddc6	-0.0058247773
176	0x3db360f5	0.087587275
177	0x3a44988f	0.00074995396
178	0x3d118096	0.03552302
179	0xbe2dd368	-0.16975176
180	0x3e711b7c	0.2354564
181	0xbe654b5f	-0.22392033
182	0xbf24e1b0	-0.6440687
183	0xbe9ca3f6	-0.30593842
184	0x3e9987b8	0.29986358
185	0x3e885ff3	0.26635703
186	0x3e5613b4	0.20905954
187	0xbd0b2b3d	-0.033976782
188	0xbe542d9e	-0.20720527
189	0xbc832db5	-0.016013006
190	0xbe1c3c63	-0.1525741
191	0x3e37cb70	0.17948699
192	0xbed8c6a7	-0.4233906
193	0xbec77983	-0.38959894
194	0xbdb3e041	-0.087830074
195	0x3ee267c8	0.44219804
196	0x3e42d984	0.19028288
197	0xbd57dd6a	-0.05270139
198	0xbda8fa8f	-0.08250915
199	0x3cfe64d1	0.031053932
200	0xbe2cd6fd	-0.16878887
201	0xbd7de6a8	-0.06198755
202	0xbdd60696	-0.10450475
203	0xbe770039	-0.24121179
204	0x3ea93fdd	0.33056536
205	0x3d40c23c	0.047060236
206	0x3ddf376a	0.10899241
207	0xbe961e3f	-0.2931995
208	0xbf144c91	-0.5792933
209	0x3e467205	0.19379432
210	0x3e625215	0.22101624
211	0x3e03a73f	0.12856768
212	0x3e18c6c9	0.1491958
213	0x3dbe05c5	0.09278444
214	0x3eba903c	0.36438167
215	0x3e964569	0.2934983
216	0x3e1b837c	0.15186876
217	0x3c2e2bf4	0.010630596
218	0x3e41cebf	0.18926524
219	0x3c55b466	0.013043499
220	0xbe64e52a	-0.22353044
221	0x3eacfc85	0.33786407
222	0xbe4d6c98	-0.20060956
223	0x3da323a7	0.079657845
224	0x3e8a65f0	0.27030897
225	0xbe968390	-0.2939725
226	0xbdc4797e	-0.09593485
227	0xbcb16dfd	-0.021658892
228	0xbe98ac09	-0.29818752
229	0xbe666cb6	-0.22502407
230	0x3ea00ae3	0.31258306
231	0xbebfb023	-0.3743907
232	0xbf0df9ae	-0.55459106
233	0x3e10e83a	0.14151087
234	0xbeba40b8	-0.363775
235	0xbdb0aa2e	-0.08626209
236	0xbe897d8e	-0.26853603
237	0xbdaad257	-0.083409004
238	0x3c83e27a	0.016099203
239	0x3e72af5c	0.23699707
240	0xbe2ffe7c	-0.17186922
241	0x3e9d8549	0.3076575
242	0xbe328a08	-0.17435467
243	0xbc9d6606	-0.019213688
244	0xbe17fa09	-0.14841475
245	0xbe0448e2	-0.12918428
246	0xbe63602b	-0.22204654
247	0xbe03f9bc	-0.12888235
248	0xbe6baad3	-0.23014383
249	0xbce24ca2	-0.027624432
250	0x3e92acd3	0.2864748
251	0x3e5434e4	0.20723301
252	0x3dcacd98	0.09902495
253	0x3e68a0a7	0.22717534
254	0x3e92241a	0.28543168
255	0x3e062abc	0.1310224
