Recurrent-Independent-Mechanisms/minigrid_experiments/storage_old/MiniGrid-WallGapS6-v0_meta_RIM_5_3_frames_300k_tasks_2_recur_64_16_proc_16_RMSProp_lr_7e4_gae_099_nxt_MiniGrid-DoorKey-6x6-v0/status.pt (torch, 578575 bytes, 48 tensors)

image_conv.0.weight f4 [16, 3, 2, 2]
0.21182728 -0.08442124 -0.035520073 0.00611091 -0.3332586 0.33674687 -0.1530569 -0.009007979
0.21044865 -0.035346568 0.2717163 0.03455782 -0.06425367 -0.19506754 -0.14423923 -0.19878073
0.17822269 0.06838452 0.19067118 0.05186232 -0.09166688 -0.2092253 -0.09879051 -0.25086275
-0.21289316 0.007130375 0.022994777 0.15348683 -0.3678584 0.16043073 0.058684155 0.22152752
0.15849076 -0.26302278 -0.41493064 -0.043122377 0.060877953 -0.22838242 0.0790585 -0.3035084
0.33840874 -0.12787779 0.22752465 -0.16296834 -0.23541088 0.04526876 -0.07553494 0.014368105
-0.101679325 -0.25900638 -0.34439585 -0.23352925 0.2653339 -0.004496757 0.27851197 0.16450718
0.023813905 -0.20492578 -0.030636212 -0.042605624 -0.12592351 0.38859 0.06961831 0.4849625
-0.07178907 -0.13376978 0.0027843534 -0.17894568 -0.13571617 -0.2178511 0.1474911 -0.07902881
0.18422595 -0.14423324 0.027647272 -0.2170318 0.035547275 0.10430611 -0.2022831 0.08015378
-0.2648797 -0.20763816 0.1470086 -0.094230756 0.18552622 -0.17333895 -0.23903047 0.48282725
-0.07499954 0.10455116 0.02102799 -0.111031964 -0.033081178 0.057804473 -0.23648298 -0.2726818
-0.08374231 -0.13190015 -0.15575019 -0.21392728 0.27293766 -0.052725285 0.19633345 0.09681829
-0.1378604 -0.18297724 0.30542916 -0.1469393 0.13584208 0.2688264 0.0052800863 0.30944803
0.16806588 -0.24743688 -0.1017922 0.104367316 0.11625421 0.260171 -0.15768357 -0.370113
-0.1942841 0.17234762 0.46636018 -0.23954554 0.124777876 -0.12157408 -0.1964739 -0.19800757
0.2087919 0.3002153 -0.43999025 0.06264573 0.15934826 0.33046603 0.27865398 0.46826765
0.067798465 -0.14315194 -0.22074708 -0.26727432 -0.19390628 0.029227499 -0.31060973 0.11916324
0.053116586 -0.1288332 0.10247927 -0.028467324 0.17072219 0.10902809 -0.08435141 0.26137155
0.17802648 0.010392641 -0.35452804 -0.05870511 -0.044986892 -0.07896037 0.38573286 -0.16880167
-0.15227096 0.18991257 -0.09656715 0.06655346 -0.0846175 0.1723082 -0.052366357 -0.11476277
-0.25297385 -0.115897514 -0.12601386 -0.015137213 0.09091693 0.09275711 0.2635264 0.22078368
0.1945301 0.01670948 -0.23887819 0.20361033 0.013819573 0.094117284 0.0757374 -0.027025582
-0.35280007 0.36013266 -0.21276239 -0.4140003 0.061872285 -0.12867087 0.028072122 -0.08726269
00000000: 40e9 583e 0be5 acbd 7f7d 11bd 073e c83b
00000010: dfa0 aabe 166a ac3e f3ba 1cbe 3496 13bc
00000020: da7f 573e 90c7 10bd 661e 8b3e 808c 0d3d
00000030: 6e97 83bd c9bf 47be 73b3 13be 2d8d 4bbe
00000040: 0280 363e 2f0d 8c3d 4e3f 433e 966d 543d
00000050: d8bb bbbd 283f 56be ae52 cabd 1571 80be
00000060: aa00 5abe eca5 e93b 8b5f bc3c a72b 1d3e
00000070: f057 bcbe f447 243e cc5e 703d 1cd8 623e
00000080: 674b 223e ecaa 86be ca71 d4be 17a1 30bd
00000090: 295b 793d 15dd 69be 6ce9 a13d 7465 9bbe
000000a0: e943 ad3e 65f2 02be 39fc 683e 2ce1 26be
000000b0: 8d0f 71be bc6b 393d 10b2 9abd 3368 6b3c
000000c0: 403d d0bd 7c9c 84be a754 b0be 4b22 6fbe
000000d0: d8d9 873e 8859 93bb 1f99 8e3e 9274 283e
000000e0: 6115 c33c 10d8 51be cbf8 fabc 3c83 2ebd
000000f0: 18f2 00be 45f5 c63e 0b94 8e3d 014d f83e
00000100: 2606 93bd f2fa 08be b379 363b 893d 37be
00000110: 2ef9 0abe 5c14 5fbe e807 173e dbd9 a1bd
00000120: baa5 3c3e e1b1 13be 887c e23c 963d 5ebe
00000130: 059a 113d 719e d53d 4d23 4fbe aa27 a43d
00000140: 509e 87be 199f 54be 6c89 163e 0efc c0bd
00000150: 96fa 3d3e c47f 31be 67c4 74be 2235 f73e
00000160: 5c99 99bd eb1e d63d e442 ac3c ba64 e3bd
00000170: 2180 07bd 62c4 6c3d 9828 72be f39c 8bbe
00000180: 1781 abbd d510 07be fa7c 1fbe c10f 5bbe
00000190: 7cbe 8b3e 78f6 57bd a30b 493e ab48 c63d
000001a0: 472b 0dbe 635e 3bbe 3661 9c3e 4177 16be
000001b0: 301a 0b3e 9da3 893e 9304 ad3b f96f 9e3e
000001c0: 7619 2c3e 1860 7dbe 6e78 d0bd 88be d53d
000001d0: b016 ee3d 2235 853e cd77 21be 737f bdbe
000001e0: 69f2 46be e57b 303e c3c6 ee3e 6d4b 75be
000001f0: 8b8b ff3d d5fb f8bd 7430 49be 7fc2 4abe
00000200: 8bcd 553e d2b5 993e 6746 e1be 684c 803d
00000210: 312c 233e d832 a93e bcab 8e3e c7c0 ef3e
00000220: ecd9 8a3d 6c96 12be 860b 62be 2ed8 88be
00000230: 5e8f 46be 826e ef3c 3d08 9fbe db0b f43d
00000240: c790 593d daec 03be a7e0 d13d 4e34 e9bc
00000250: ccd1 2e3e 1f4a df3d 6fc0 acbd 7ed2 853e
00000260: 934c 363e e545 2a3c b384 b5be c574 70bd
00000270: 2d44 38bd f9b5 a1bd c77e c53e 58da 2cbe
00000280: ebec 1bbe 7178 423e ffc4 c5bd 2e4d 883d
00000290: f14b adbd 9071 303e 1b7e 56bd be08 ebbd
000002a0: ca85 81be ad5b edbd c709 01be 1302 78bc
000002b0: a832 ba3d 71f7 bd3d efec 863e 1e15 623e
000002c0: e632 473e 52e2 883c 7c9c 74be 3a7f 503e
000002d0: 7e6b 623c 90c0 c03d 361c 9b3d c164 ddbc
000002e0: 36a2 b4be 4f63 b83e 62de 59be d9f7 d3be
000002f0: cb6d 7d3d 4cc2 03be 82f7 e53c c8b6 b2bd

image_conv.0.bias f4 [16]
-0.15322542 -0.033033308 0.05712489 -0.25213537 0.067906246 -0.0029496225 0.1419005 -0.22090088
-0.033959053 -0.3804226 0.18484488 -0.17884097 0.08094353 -0.0047574583 -0.0975109 0.01779315
00000000: 20e7 1cbe ef4d 07bd cafb 693d e317 81be
00000010: 6e12 8b3d 744e 41bb 5d4e 113e d733 62be
00000020: a618 0bbd c0c6 c2be fa47 3d3e 1622 37be
00000030: b9c5 a53d 74e4 9bbb cbb3 c7bd f1c2 913c

image_conv.3.weight f4 [32, 16, 2, 2]
0.02273763 0.12019632 0.011750455 0.01008015 -0.039696403 -0.0028121504 0.10684325 0.08103607
0.09826815 -0.15271474 -0.0807554 0.038740616 -0.063903436 0.07958275 -0.12644567 -0.14470325
0.09469646 -0.17638381 -0.05913894 0.068456426 0.08835666 0.21879387 -0.13576616 -0.2827816
0.08146441 -0.07279651 -0.08368692 0.021068577 -0.098562226 0.22804037 -0.0749115 -0.2081694
-0.08526358 -0.054390714 0.029861877 -0.047404446 -0.024414973 0.027023211 -0.19967788 -0.20913662
-0.111546 0.32208216 0.051041447 -0.14804256 0.04893809 0.12006733 0.012719692 -0.16740711
0.09012737 0.0667392 -0.017885417 -0.044074688 0.09439824 0.18767154 -0.095489584 0.036694236
0.06383886 -0.10982412 0.04724356 -0.13581559 0.05448485 0.1820515 0.058102097 0.12487048
-0.055760026 0.13522775 -0.09425063 -0.17681797 -0.083607376 -0.05121335 -0.055075537 0.03495708
-0.08537949 -0.022671614 0.099424705 0.10578279 0.00855386 -0.08516755 -0.11316316 0.14978974
-0.029222962 -0.024473056 0.012329 -0.035492342 0.14346576 0.21409433 0.02890703 -0.08865432
-0.09749825 -0.072570376 -0.055363968 -0.046891853 0.14059679 -0.01127087 0.07803456 -0.08510939
0.020443225 -0.02805084 -0.06701049 0.13179642 0.06921662 0.18880115 0.016039126 0.010593855
-0.091739856 0.03922625 -0.01627857 -0.25636366 0.07220521 0.20106497 0.09018817 0.02157263
-0.094821416 -0.0148727 -0.060845584 0.0023492211 -0.024636438 -0.06460675 -0.1233108 -0.042316068
-0.13472976 -0.10268095 0.041520853 0.113445 0.07658342 0.22299576 -0.1190092 -0.29970282
-0.023071475 -0.019180693 -0.019998614 0.1918659 -0.091101356 -0.14508444 -0.13783132 0.21863009
-0.028015023 0.034182586 -0.11779317 -0.10639926 -0.12075691 -0.16407388 0.10105372 0.14826143
-0.06722796 -0.088140175 0.03975997 0.1749365 0.12932046 0.0039290437 0.03519479 -0.13044855
-0.12805146 -0.2341271 0.067178 0.12800159 0.122247286 -0.061515003 -0.11545496 -0.2543498
0.03819227 -0.008027148 -0.1632266 0.08103268 0.0009459322 0.0020919251 0.01367504 -0.064134456
0.0151487775 0.056423165 0.03988215 -0.053999476 0.0065119676 -0.16419074 0.11370987 -0.053060018
-0.13514937 0.089002095 -0.037540603 0.089341186 0.031909723 0.07780814 -0.05008936 0.2477908
-0.009990568 -0.021785246 0.034969017 -0.0221464 0.11524175 0.33234492 0.11014719 0.105726406
-0.038683593 0.1451879 -0.006916363 -0.08494001 -0.11619265 -0.11435726 -0.13001138 -0.20099029
0.08695689 -0.04303832 -0.051641285 0.10202807 -0.06323442 -0.04719662 -0.054594666 -0.015355879
-0.16802631 0.09312753 -0.13496381 -0.162433 -0.18138336 0.20837276 -0.03238114 0.25430444
-0.005233556 0.027069528 -0.08428652 -0.14602956 -0.011102897 0.07001209 -0.032644965 0.10639855
-0.096452475 0.01872078 -0.032649226 -0.15414071 -0.0076088267 0.006168712 0.014386547 0.17123257
-0.086618 0.09640993 -0.11036071 0.2451575 -0.08228072 0.124649465 -0.164406 0.19576041
-0.05425471 -0.11109872 -0.0024595715 0.04693679 0.15118536 -0.04522374 0.0875049 0.06644767
-0.060027204 -0.14348325 0.08163146 -0.055232935 -0.13241535 -0.28266075 0.06287602 0.22042489
00000000: 4444 ba3c 7d29 f63d fb84 403c 3727 253c
00000010: b298 22bd 0e4c 38bb a2d0 da3d 3df6 a53d
00000020: d040 c93d 4161 1cbe 1663 a5bd 7bae 1e3d
00000030: cedf 82bd 48fc a23d f97a 01be 172d 14be
00000040: 38f0 c13d f59d 34be ac3b 72bd e232 8c3d
00000050: 56f4 b43d 800b 603e 4906 0bbe c0c8 90be
00000060: d0d6 a63d 5616 95bd 0c64 abbd 0298 ac3c
00000070: feda c9bd 6a83 693e 336b 99bd 5c2a 55be
00000080: ac9e aebd ccc8 5ebd e5a0 f43c 2a2b 42bd
00000090: e901 c8bc c85f dd3c 5c78 4cbe e927 56be
000000a0: 3b72 e4bd f4e7 a43e d610 513d 7898 17be
000000b0: 4f73 483d dce5 f53d 4166 503c c56c 2bbe
000000c0: b394 b83d 90ae 883d 7084 92bc a987 34bd
000000d0: dd53 c13d f82c 403e 0b90 c3bd b24c 163d
000000e0: f3bd 823d 78eb e0bd 7782 413d 3e13 0bbe
000000f0: 822b 5f3d b56b 3a3e 77fc 6d3d 18bc ff3d
00000100: a064 64bd 2579 0a3e 7906 c1bd c50f 35be
00000110: 583a abbd 17c5 51bd e396 61bd 282f 0f3d
00000120: 71db aebd d2b9 b9bc 2e9f cb3d a6a4 d83d
00000130: 7d25 0c3c 536c aebd 16c2 e7bd 7b62 193e
00000140: fe64 efbc b87b c8bc 93ff 493c 6b60 11bd
00000150: b0e8 123e 8b3b 5b3e 70ce ec3c 6590 b5bd
00000160: 2aad c7bd c79f 94bd 54c5 62bd ac11 40bd
00000170: 9bf8 0f3e 75a9 38bc 95d0 9f3d d54d aebd
00000180: 8d78 a73c e0ca e5bc cc3c 89bd a4f5 063e
00000190: 71c1 8d3d 1755 413e 7c64 833c d991 2d3c
000001a0: 1be2 bbbd b4ab 203d a35a 85bc 1942 83be
000001b0: 53e0 933d fae3 4d3e 93b4 b83d 16b9 b03c
000001c0: bb31 c2bd a0ac 73bc 3839 79bd 64f5 193b
000001d0: 5bd2 c9bc 8b50 84bd 5f8a fcbd 9d53 2dbd
000001e0: 99f6 09be 644a d2bd c511 2a3d da55 e83d
000001f0: c5d7 9c3d 0059 643e 18bb f3bd a672 99be
00000200: 6400 bdbc d420 9dbc 22d4 a3bc 7f78 443e
00000210: 5993 babd 0491 14be a723 0dbe 91e0 5f3e
00000220: c37f e5bc 0a03 0c3d 8c3d f1bd dbe7 d9bd
00000230: 664f f7bd fc02 28be 41f5 ce3d d8d1 173e
00000240: d0ae 89bd d682 b4bd 5adb 223d 8e22 333e
00000250: 956c 043e 35bf 803b 6a28 103d 4e94 05be
00000260: ec1f 03be 04bf 6fbe 9f94 893d d912 033e
00000270: c95c fa3d 28f7 7bbd a673 ecbd 233a 82be
00000280: 7f6f 1c3d 4d84 03bc e024 27be 76f4 a53d
00000290: 6ff8 773a ae18 093b 460d 603c ed58 83bd
000002a0: 9432 783c fa1b 673d 775b 233d 8e2e 5dbd
000002b0: 5862 d53b 9e21 28be b8e0 e83d 7655 59bd
000002c0: 9964 0abe bb46 b63d 2dc4 19bd 83f8 b63d
000002d0: c5b3 023d e059 9f3d 802a 4dbd dfbc 7d3e
000002e0: 7baf 23bc f976 b2bc ac3b 0f3d 5e6c b5bc
000002f0: de03 ec3d 1d29 aa3e da94 e13d 1687 d83d
00000300: b072 1ebd 23ac 143e a8a2 e2bb 07f5 adbd
00000310: 69f6 edbd 2434 eabd b421 05be 66d0 4dbe
00000320: 7416 b23d f348 30bd d085 53bd 18f4 d03d
00000330: 0c81 81bd 3e51 41bd a89e 5fbd 3a97 7bbc
00000340: 170f 2cbe a5b9 be3d f433 0abe d654 26be
00000350: 8fbc 39be ab5f 553e 16a2 04bd 3134 823e
00000360: 407e abbb eac0 dd3c 699e acbd c688 15be
00000370: ede8 35bc 8062 8f3d bab6 05bd 7ce7 d93d
00000380: e088 c5bd 525c 993c 32bb 05bd 10d7 1dbe
00000390: 7753 f9bb e822 ca3b 8db5 6b3c 9757 2f3e
000003a0: c764 b1bd 9272 c53d cc04 e2bd 910a 7b3e
000003b0: cb82 a8bd 3848 ff3d 0c5a 28be 6b75 483e
000003c0: 303a 5ebd ba87 e3bd c330 21bb cb40 403d
000003d0: 56d0 1a3e 873c 39bd c535 b33d b715 883d
000003e0: 16df 75bd 46ed 12be 652e a73d ee3b 62bd
000003f0: e497 07be e9b8 90be 25c5 803d 10b7 613e

image_conv.3.bias f4 [32]
-0.05406938 -0.06644589 0.089105316 -0.14462225 -0.087239385 -0.037356492 -0.11614488 0.052362747
0.058450077 0.11284924 0.016554397 -0.051622402 -0.11520761 -0.04162618 -0.08675792 -0.16587213
0.00635541 0.0745697 0.09188445 -0.075151004 -0.05152346 0.153187 -0.061913755 -0.13241364
-0.02436764 -0.025566783 -0.028835984 -0.048452526 -0.035108242 -0.017898912 -0.0661481 0.047969364
00000000: db77 5dbd c814 88bd d97c b63d db17 14be
00000010: 90aa b2bd 1f03 19bd 5edd edbd 527a 563d
00000020: 5969 6f3d 811d e73d 169d 873c 0372 53bd
00000030: f8f1 ebbd 3780 2abd 23ae b1bd 62da 29be
00000040: 0b41 d03b 00b8 983d ea2d bc3d c5e8 99bd
00000050: 430a 53bd 0edd 1c3e 4799 7dbd 7197 07be
00000060: a59e c7bc 6e71 d1bc 7139 ecbc 2876 46bd
00000070: a9cd 0fbd bda0 92bc a878 87bd 867b 443d

image_conv.5.weight f4 [64, 32, 2, 2]
0.17674857 -0.121539585 -0.05481318 -0.037168168 0.034461506 0.0826653 -0.03207497 -0.015895156
-0.04763973 -0.08548143 0.02684748 -0.054961663 0.13045856 -0.1751015 0.0532051 -0.15232946
-0.03606889 0.081154086 0.047243513 -0.21233809 -0.042345233 -0.022822414 -0.04153002 0.19219798
-0.08838058 -0.15974005 0.037028935 0.09938015 -0.13542368 -0.04674791 0.006691177 0.086795315
0.036109496 0.05449169 0.032159127 0.035570875 -0.14955822 -0.03945057 -0.032850444 -0.19192542
0.022102006 0.061440013 -0.068747714 -0.064305976 -0.018636558 0.01692023 -0.08314814 0.010145324
0.03269528 -0.027568305 0.005893691 -0.020107273 -0.06519615 0.050782755 -0.13057652 0.027235415
0.056912903 -0.110484086 -0.051920734 0.029041046 0.059530873 -0.022069015 0.067905426 -0.005741826
0.04859522 -0.0057111317 0.14008161 0.05375586 0.17798188 -0.14243366 -0.09913224 -0.19775298
-0.09900475 0.018848334 0.056768928 0.037471734 -0.013235036 0.024752144 0.011301585 0.086483434
0.13711096 -0.12742372 -0.1417279 -0.046699602 0.09193106 0.095237106 -0.12642752 -0.098878786
-0.0053254617 -0.021691522 0.03443975 -0.2131058 -0.05293352 -0.07392881 -0.02149567 -0.001991175
0.05337052 -0.15905797 0.0509532 -0.010166186 0.13827002 0.032531258 0.20261052 0.016294029
-0.04894283 0.0020271689 0.026520422 -0.04252386 0.11270089 0.0023764651 -0.15428907 -0.019684823
0.018447712 0.05716533 0.058084067 0.19504987 0.07544846 -0.0889978 -0.10775509 -0.049323697
0.0490614 -0.047435693 0.12105421 -0.035918515 -0.09347845 0.12981969 -0.010601425 -0.023052428
-0.04095342 0.05034149 -0.027542703 0.036416374 0.050619073 0.093003474 -0.05794332 0.05121162
-0.081769876 -0.043851774 0.054041617 0.046692926 0.12211248 0.03812067 -0.0034296657 -0.10096074
0.14123811 0.0030688257 0.025938777 -0.1884199 -0.10536961 0.17725213 -0.07736198 0.04734747
-0.07260177 0.09348282 -0.061376337 0.066372044 0.01884244 -0.009087016 0.06542174 -0.12591289
0.022299452 0.16039354 0.08670563 -0.014931211 -0.067056715 -0.07563915 -0.02413373 0.05339552
0.04334342 -0.030573703 -0.04408948 -0.07536786 -0.0566674 0.013229414 0.03759229 0.015423491
0.07261865 0.016008718 -0.017954685 -0.03242841 -0.059581377 0.22080725 -0.17830975 -0.11592455
0.041291498 -0.008309951 -0.0731716 -0.04491932 -0.03694973 -0.13006784 -0.063525066 -0.03177569
-0.051866073 0.11514594 -0.13376178 0.053385798 -0.009621495 0.2253905 0.04648861 -0.15367334
0.011536754 0.04157355 -0.05387511 0.17099111 -0.009297371 -0.013961505 0.043631203 0.07600157
0.040186748 0.16385625 -0.14390637 -0.13191152 -0.024938738 -0.041277733 0.09778448 -0.079236284
-0.040971853 0.14427054 0.010370024 -0.06659831 -0.06431918 -0.02228053 0.009091504 0.0381132
-0.037218273 0.0014052032 -0.03739486 -0.038349636 0.03009256 -0.038932282 0.07465897 0.03502188
-0.08334234 0.026039505 -0.025608592 -0.08718392 -0.024370514 0.10979631 -0.045849852 -0.22420137
-0.13035345 -0.22190922 -0.0925636 0.036943622 -0.04515004 0.1371684 0.021635907 -0.103520736
0.03549574 0.020950431 0.0743789 0.0012972631 0.06197485 -0.14139843 0.09069444 -0.048666622
00000000: 94fd 343e bfe9 f8bd c983 60bd a63d 18bd
00000010: 8227 0d3d 6d4c a93d 0b61 03bd 8f36 82bc
00000020: e121 43bd e310 afbd 3fef db3c 7b1f 61bd
00000030: ee96 053e cf4d 33be 97ed 593d 41fc 1bbe
00000040: f9bc 13bd 1d34 a63d 6a82 413d 286f 59be
00000050: 3272 2dbd 12f6 babc 621b 2abd 8ccf 443e
00000060: e100 b5bd e592 23be a7ab 173d d287 cb3d
00000070: 81ac 0abe bd7a 3fbd a941 db3b bec1 b13d
00000080: 8de7 133d ae32 5f3d 4ab9 033d c4b2 113d
00000090: ca25 19be ec96 21bd 308e 06bd 1988 44be
000000a0: 440f b53c 86a8 7b3d 9acb 8cbd dab2 83bd
000000b0: b2ab 98bc 4b9c 8a3c 9249 aabd 9338 263c
000000c0: 7ceb 053d edd6 e1bc dd1f c13b 02b8 a4bc
000000d0: 8f85 85bd 9401 503d dab5 05be ce1c df3c
000000e0: 811d 693d 7b45 e2bd d6aa 54bd 7de7 ed3c
000000f0: a5d6 733d 14ca b4bc 0012 8b3d ed25 bcbb
00000100: c80b 473d 7224 bbbb 8e71 0f3e 1b2f 5c3d
00000110: e240 363e 21da 11be d805 cbbd c27f 4abe
00000120: 01c3 cabd d267 9a3c 8986 683d f67b 193d
00000130: c4d7 58bc 02c5 ca3c 482a 393c 3a1e b13d
00000140: d166 0c3e 5d7b 02be 1e21 11be 1548 3fbd
00000150: 5a46 bc3d ac0b c33d 3776 01be f680 cabd
00000160: 3681 aebb 6bb2 b1bc b210 0d3d 6838 5abe
00000170: d2d0 58bd fd67 97bd b017 b0bc 607e 02bb
00000180: 0c9b 5a3d 18e0 22be 4db4 503d 1390 26bc
00000190: a896 0d3e 7f3f 053d 2279 4f3e 0e7b 853c
000001a0: 4778 48bd 40da 043b 5b41 d93c 802d 2ebd
000001b0: b9cf e63d 78be 1b3b f4fd 1dbe 1142 a1bc
000001c0: a81f 973c 3126 6a3d 8fe9 6d3d 27bb 473e
000001d0: b984 9a3d 7b44 b6bd b3ae dcbd a507 4abd
000001e0: 9bf4 483d ee4b 42bd 45eb f73d 4b1f 13bd
000001f0: a171 bfbd 74ef 043e 99b1 2dbc 72d8 bcbc
00000200: c6be 27bd e132 4e3d 3ca1 e1bc 5629 153d
00000210: f255 4f3d 9b78 be3d fa55 6dbd 47c3 513d
00000220: f776 a7bd eb9d 33bd be5a 5d3d 1541 3f3d
00000230: 1c16 fa3d 6b24 1c3d 3ec4 60bb 81c4 cebd
00000240: b9a0 103e 5a1e 493b 8f7d d43c 25f1 40be
00000250: 06cc d7bd 9581 353e f56f 9ebd 6cef 413d
00000260: 3db0 94bd ec73 bf3d c165 7bbd 11ee 873d
00000270: 765b 9a3c b5e1 14bc d5fb 853d 4fef 00be
00000280: 57ad b63c 343e 243e b992 b13d 0aa2 74bc
00000290: 0855 89bd b3e8 9abd 1ab4 c5bc 43b5 5a3d
000002a0: df88 313d b475 fabc 2c97 34bd 775a 9abd
000002b0: 131c 68bd 2fc0 583c 60fa 193d cfb2 7c3c
000002c0: 16b9 943d b724 833c b415 93bc a7d3 04bd
000002d0: 9a0b 74bd 4c1b 623e d596 36be da69 edbd
000002e0: 4621 293d 7626 08bc feda 95bd 52fd 37bd
000002f0: 9a58 17bd 8130 05be 6e19 82bd 3a27 02bd
00000300: 8571 54bd a2d1 eb3d d9f8 08be 11ab 5a3d
00000310: 7aa3 1dbc c4cc 663e d76a 3e3d 8b5c 1dbe
00000320: a704 3d3c 0749 2a3d 26ac 5cbd 4b18 2f3e
00000330: 0054 18bc ccbe 64bc a2b6 323d b6a6 9b3d
00000340: dc9a 243d efc9 273e 315c 13be d013 07be
00000350: 534c ccbc d712 29bd 3b43 c83d a246 a2bd
00000360: 1ad2 27bd a8bb 133e 08e7 293c b264 88bd
00000370: c6b9 83bd a885 b6bc 88f4 143c 961c 1c3d
00000380: 3072 18bd cc2e b83a 5a2b 19bd 8214 1dbd
00000390: ac84 f63c 7577 1fbd cde6 983d 1a73 0f3d
000003a0: 64af aabd cd50 d53c 1cc9 d1bc 7c8d b2bd
000003b0: aca4 c7bc e3dc e03d 0ecd 3bbd 0b95 65be
000003c0: 607b 05be 2c3c 63be fc91 bdbd 3252 173d
000003d0: 40ef 38bd e075 0c3e c93d b13c ae02 d4bd
000003e0: fb63 113d 3da0 ab3c f753 983d ed08 aa3a
000003f0: 57d9 7d3d c0ca 10be 02be b93d a756 47bd

image_conv.5.bias f4 [64]
-0.017046774 -0.009939144 -0.015008124 0.036999345 -0.00019299409 0.038236182 0.061262876 0.086518146
0.0664702 -0.0629981 0.07386214 0.09442415 -0.07175012 -0.0560644 -0.030814894 -0.047899146
0.0023147212 0.049925826 0.090663314 0.026578581 0.05408427 0.03937357 -0.10602332 -0.074787475
0.0026469277 0.0137312645 0.08210138 -0.019512406 0.102201454 -0.12296411 0.012996532 -0.018762914
-0.06832969 -0.093840875 0.06902654 -0.040453896 -0.10369845 -0.034549955 -0.008755986 0.068537
0.0011106977 0.039064646 -0.044290368 0.002183843 -0.03214994 0.034087196 0.020164525 -0.035663787
0.05647968 -0.047645375 -0.08602904 -0.057899144 0.06601246 0.10035494 -0.07594166 0.116230294
-0.07016782 0.019752918 0.008318392 -0.031886864 0.020730408 0.07698335 0.07509904 0.07412957
00000000: ada5 8bbc cbd7 22bc a2e4 75bc a08c 173d
00000010: 755e 4ab9 8b9d 1c3d c8ee 7a3d 6d30 b13d
00000020: 8721 883d 2605 81bd 0945 973d 7361 c13d
00000030: baf1 92bd c9a3 65bd 846f fcbc e531 44bd
00000040: 94b2 173b 067f 4c3d b0ad b93d 53bb d93c
00000050: 7887 5d3d 2e46 213d c122 d9bd 2d2a 99bd
00000060: 1478 2d3b 19f9 603c c524 a83d 7bd8 9fbc
00000070: ff4e d13d 9bd4 fbbd 68ef 543c afb4 99bc
00000080: 70f0 8bbd a52f c0bd c95d 8d3d fcb2 25bd
00000090: da5f d4bd 4184 0dbd 4475 0fbc 205d 8c3d
000000a0: d594 913a 4002 203d d169 35bd ce1e 0f3b
000000b0: a8af 03bd 049f 0b3d 1330 a53c 3114 12bd
000000c0: 3d57 673d cc27 43bd fe2f b0bd a727 6dbd
000000d0: 8a31 873d e486 cd3d 4d87 9bbd 260a ee3d
000000e0: 25b4 8fbd dfd0 a13c dd49 083c cd9b 02bd
000000f0: d1d2 a93c 72a9 9d3d 87cd 993d 3ed1 973d

memory_rnn.key.weight f4 [64, 64]
0.041466326 0.06387685 0.124691755 -0.026225824 0.17332248 0.15454675 0.19120131 0.25254813
0.2504629 0.15854831 0.33370316 -0.10662861 0.003672258 0.03861567 -0.3132225 0.024872078
0.070633985 0.18275985 -0.29187685 0.26105794 0.21212684 0.41938528 -0.29113403 0.12711017
0.057380214 0.0069530853 0.20050132 0.016694583 0.23525646 0.015664931 0.0864086 0.03074425
0.23261267 -0.0065667112 0.12414378 0.07624815 0.06333664 -0.0007249651 0.05015485 0.123223975
-0.19401063 0.105781086 0.075394556 -0.021114185 -0.09943581 -0.1549828 -0.033972505 -0.038326878
-0.023818346 0.039087806 0.1652702 0.11804248 -0.28715003 -0.28495485 0.052012447 0.43467736
0.1533254 -0.09107097 0.19174123 0.21183966 0.042912424 0.14334242 0.11856632 0.18260334
-0.2759195 0.078796625 0.06106074 -0.025742978 -0.11282554 0.246594 -0.053425908 -0.109036095
-0.36442503 0.06537371 -0.18010287 -0.14657089 -0.21102966 -0.089531034 -0.058206417 -0.110088766
0.35160682 -0.19779375 0.08885632 -0.13530935 -0.20970294 -0.16573778 -0.09217413 -0.00060585607
-0.026394337 0.01575644 -0.13778187 0.0049866983 0.016591124 0.23136246 -0.28766555 0.24488765
-0.09926337 -0.16418846 0.019920176 -0.07749288 -0.23024623 -0.19693758 0.17191465 -0.15492494
0.01965129 0.011811248 -0.072625175 -0.013915118 -0.10820934 -0.032805055 0.11130471 0.06336974
-0.16066594 -0.10999405 0.1273041 -0.11629683 -0.018821891 0.18770744 -0.12609495 -0.072211936
-0.36550856 0.16898698 -0.29263625 -0.04527087 -0.010110694 -0.003738841 -0.14793637 -0.12507688
0.06240678 -0.098679915 -0.23695728 0.02694145 -0.06679685 -0.023556901 0.017498637 -0.07126416
0.10802302 0.050244782 0.11047059 0.1559779 -0.37619838 -0.086756945 0.08775308 -0.07431473
-0.043813337 0.036578547 -0.050504487 -0.01591008 0.0009792462 -0.18544504 0.09710305 0.0044450136
-0.0043269387 -0.07104867 0.05290328 0.17524433 -0.001304593 -0.11539915 -0.2543869 -0.07751095
-0.20707862 0.18933015 -0.037241586 -0.2270323 -0.22573528 0.14198363 -0.084219016 -0.07515545
0.023823213 0.053554844 0.39086592 0.07030585 0.051689588 -0.07359819 0.0041948357 -0.0066229994
-0.10772397 -0.021879816 0.14368524 -0.085530534 0.14695503 -0.31059888 0.08986092 0.026339233
-0.066585064 0.12404241 0.08827247 -0.11243148 -0.12489835 -0.12143204 0.034371715 -0.19121884
-0.18626587 0.11185743 -0.27791992 0.3808283 -0.14692459 -0.07108992 -0.29495043 -0.18851951
-0.32578602 0.15955558 -0.35802895 0.0013066649 0.10455837 -0.045500007 0.030746542 0.04204925
-0.103670076 -0.07359646 0.08690878 0.035080776 -0.117008194 -0.18850906 0.122044384 -0.015415255
-0.019959977 0.19022775 -0.40895435 -0.08412226 -0.44857398 -0.084840745 -0.13399838 0.078163296
0.02297872 0.15769377 -0.018891849 -0.09110302 -0.23582758 -0.2317189 -0.15386043 0.00422183
0.030333703 -0.15854384 0.01266165 -0.2609377 0.06091273 -0.029178657 0.10670678 -0.2017468
-0.06579094 -0.17373616 -0.07957202 0.15401678 0.1669225 -0.1033873 0.06409631 -0.0995506
0.060876384 -0.09543835 -0.32327187 -0.1588014 -0.17594576 -0.33086264 0.074972786 0.065964796
00000000: 98d8 293d ded1 823d 645e ff3d 8ad7 d6bc
00000010: 737b 313e 8141 1e3e 47ca 433e fd4d 813e
00000020: ac3c 803e 7d5a 223e 24db aa3e 1a60 dabd
00000030: 44aa 703b 772b 1e3d b35e a0be 87c0 cb3c
00000040: 8da8 903d 6625 3b3e e270 95be 63a9 853e
00000050: c737 593e abb9 d63e 850f 95be 2b29 023e
00000060: 8407 6b3d b5d6 e33b 3850 4d3e 14c3 883c
00000070: 12e7 703e be53 803c fef6 b03d 5edb fb3c
00000080: 0432 6e3e 912d d7bb 183f fe3d fd27 9c3d
00000090: a4b6 813d 960b 3eba 2c6f 4d3d da5c fc3d
000000a0: b9aa 46be c1a3 d83d 7668 9a3d a8f7 acbc
000000b0: 01a5 cbbd d0b3 1ebe c126 0bbd a5fc 1cbd
000000c0: b11e c3bc 891a 203d 973c 293e 41c0 f13d
000000d0: 5405 93be 9ae5 91be 010b 553d 088e de3e
000000e0: 5501 1d3e 6b83 babd d057 443e 7fec 583e
000000f0: f0c4 2f3d 5bc8 123e e6d2 f23d 5ffc 3a3e
00000100: 5245 8dbe 2060 a13d d41a 7a3d f0e2 d2bc
00000110: 1411 e7bd 2383 7c3e 20d5 5abd 514e dfbd
00000120: eb95 babe a7e2 853d e36c 38be ae16 16be
00000130: 2918 58be 0c5c b7bd da69 6ebd 3876 e1bd
00000140: cf05 b43e 728a 4abe 4dfa b53d 898e 0abe
00000150: 5ebc 56be 2ab7 29be cac5 bcbd 50d2 1eba
00000160: f038 d8bc a613 813c b116 0dbe 7567 a33b
00000170: 1cea 873c 48ea 6c3e e648 93be d4c3 7a3e
00000180: 984a cbbd 0521 28be a32f a33c 96b4 9ebd
00000190: abc5 6bbe 01aa 49be 650a 303e a5a4 1ebe
000001a0: befb a03c f783 413c 82bc 94bd 3cfc 63bc
000001b0: dc9c ddbd 985e 06bd b9f3 e33d ffc7 813d
000001c0: 9d85 24be 8f44 e1bd 025c 023e 082d eebd
000001d0: 5e30 9abc 6136 403e 091f 01be dae3 93bd
000001e0: f023 bbbe ec0a 2d3e 6bd4 95be f36d 39bd
000001f0: 53a7 25bc 5807 75bb a27c 17be 2714 00be
00000200: 409e 7f3d b218 cabd eea4 72be 51b4 dc3c
00000210: c9cc 88bd 67fa c0bc 4d59 8f3c f2f2 91bd
00000220: 2c3b dd3d 79cd 4d3d 683e e23d acb8 1f3e
00000230: 139d c0be a0ad b1bd e3b7 b33d 5232 98bd
00000240: 9d75 33bd 63d3 153d cbdd 4ebd db55 82bc
00000250: 0d5a 803a 4ee5 3dbe f7dd c63d 7aa7 913b
00000260: fec8 8dbb f781 91bd 1cb1 583d 4073 333e
00000270: e1fe aaba 6456 ecbd 003f 82be 10be 9ebd
00000280: 6b0c 54be c3df 413e a28a 18bd 287b 68be
00000290: 2627 67be 2864 113e 057b acbd 1aeb 99bd
000002a0: e628 c33c 535c 5b3d 941f c83e 83fc 8f3d
000002b0: 76b8 533d a6ba 96bd d574 893b bf05 d9bb
000002c0: 639e dcbd 4d3d b3bc 3922 133e a22a afbd
000002d0: 617b 163e d106 9fbe 0109 b83d 60c5 d73c
000002e0: c05d 88bd f209 fe3d 32c8 b43d 7a42 e6bd
000002f0: b5ca ffbd 5db1 f8bd 5bc9 0c3d dfce 43be
00000300: 7bbc 3ebe 8215 e53d 854b 8ebe edfb c23e
00000310: 6673 16be 9897 91bd be03 97be 420b 41be
00000320: 6dcd a6be 8a62 233e 924f b7be 6644 ab3a
00000330: b322 d63d 375e 3abd 2ce0 fb3c d63b 2c3d
00000340: fa50 d4bd beb9 96bd 3bfd b13d dcb0 0f3d
00000350: fea1 efbd 8508 41be 68f2 f93d 4490 7cbc
00000360: 1b83 a3bc 10cb 423e 7762 d1be 4b48 acbd
00000370: 7dab e5be fcc0 adbd df36 09be 1414 a03d
00000380: de3d bc3c 7a7a 213e 14c3 9abc 3894 babd
00000390: c97c 71be b847 6dbe 978d 1dbe 4757 8a3b
000003a0: 637e f83c 5159 22be cf72 4f3c a099 85be
000003b0: a07f 793d 1408 efbc 1689 da3d b796 4ebe
000003c0: 66bd 86bd e4e7 31be a8f6 a2bd 93b6 1d3e
000003d0: bbed 2a3e b9bc d3bd ed44 833d 2fe1 cbbd
000003e0: 8459 793d 2f75 c3bd e483 a5be d69c 22be
000003f0: 202b 34be d466 a9be 558b 993d 8d18 873d

memory_rnn.key.bias f4 [64]
1.6517024e-06 -1.314688e-06 -3.7647903e-06 -2.6056757e-06 2.5450352e-06 2.95538e-07 -2.6971618e-06 1.2343943e-07
-1.7603035e-06 2.011137e-06 -2.8747152e-06 -2.2815007e-06 2.7781613e-07 2.961422e-06 -3.7253158e-06 -3.6142712e-06
6.8914014e-06 -1.8371911e-06 6.2281595e-07 -2.0869704e-06 2.7099527e-06 -5.3847766e-06 -1.275152e-06 6.9944494e-06
2.9916798e-06 -2.4521253e-06 3.0433628e-06 -2.4512963e-06 3.011185e-06 -2.1986432e-06 -3.5412224e-06 -1.8844346e-06
1.3049391e-06 3.2134265e-06 -2.1041876e-06 3.648574e-06 3.5908563e-06 2.7150306e-06 -2.6318846e-06 -3.667368e-06
-4.019497e-06 -8.647726e-07 -2.6498685e-06 -1.7450438e-06 2.1942033e-06 3.8435883e-06 4.026937e-06 1.0911599e-06
1.6741767e-06 2.2652068e-06 2.3074979e-06 2.4337805e-06 -2.9883365e-06 1.8828167e-06 -4.7943217e-08 -2.3481018e-06
4.2250456e-08 -2.4997585e-06 2.0312432e-06 -5.3482686e-06 -1.6855912e-06 3.829345e-06 3.0377512e-06 -3.0612748e-07
00000000: 10b0 dd35 5674 b0b5 9ba6 7cb6 2bdd 2eb6
00000010: 5fcb 2a36 6faa 9e34 e300 35b6 c68a 0434
00000020: 9143 ecb5 12f7 0636 3beb 40b6 e21b 19b6
00000030: c226 9534 d8bc 4636 7000 7ab6 b58c 72b6
00000040: b03c e736 6895 f6b5 962f 2735 e10d 0cb6
00000050: a2dc 3536 e1ae b4b6 e425 abb5 ddb1 ea36
00000060: abc4 4836 318f 24b6 933c 4c36 f380 24b6
00000070: c413 4a36 678c 13b6 bda5 6db6 aeec fcb5
00000080: 5e25 af35 3fa6 5736 ab35 0db6 06da 7436
00000090: 71fa 7036 df33 3636 6f9f 30b6 e71c 76b6
000000a0: 37df 86b6 b822 68b5 65d4 31b6 4037 eab5
000000b0: 2040 1336 2cf8 8036 201f 8736 f873 9235
000000c0: 46b4 e035 f503 1836 83da 1a36 0854 2336
000000d0: 3b8b 48b6 17b5 fc35 20ea 4db3 1594 1db6
000000e0: de76 3533 86c1 27b6 7e50 0836 4775 b3b6
000000f0: 793c e2b5 d37d 8036 2bdc 4b36 d759 a4b4

memory_rnn.value.weight f4 [64, 64]
0.22854555 0.13819681 0.15002331 0.058230747 0.10768698 -0.039274104 0.07975824 -0.21505862
0.1544313 0.056884684 -0.07507308 -0.05594311 -0.04485233 -0.00088509277 -0.1954662 -0.087740965
-0.18434285 -0.035256293 0.14980409 -0.11710627 0.024070524 0.05492072 -0.058684573 0.20989197
-0.081077494 -0.08723937 -0.016697457 0.118035 0.046574526 -0.009303326 0.11595089 0.112423815
-0.10916229 -0.13330103 0.18703799 0.22610179 -0.26352045 0.11679255 -0.17158625 -0.13547494
-0.25763237 0.028007666 -0.012301308 0.06562505 -0.015579651 -0.16420633 -0.10721831 0.051283374
0.16782883 -0.1949069 0.26475057 0.07376292 -0.1874605 -0.035165362 -0.16486403 0.20424035
-0.21732748 -0.21766518 -0.082257666 -0.0038516077 -0.092394754 0.10088235 0.20369141 -0.11078682
0.099402584 0.14646529 0.23416749 0.15830603 0.18264093 -0.094869144 -0.06444876 -0.033179402
0.10522591 0.08339387 -0.058718115 0.064360976 -0.20378505 0.08983831 -0.27319595 0.00050742156
-0.031468395 0.017771004 0.21475835 -0.092479736 -0.07626855 -0.030163417 0.17520997 -0.061806638
0.10051926 0.31759086 -0.15120716 0.20014815 0.15886381 -0.109313264 -0.12716329 -0.2490775
0.006397921 -0.012045981 0.18798748 0.012564124 -0.21462333 -0.103392646 0.10605375 0.104207925
-0.20498514 0.14043783 0.029723328 0.049705163 0.17360991 0.033156697 -0.05346527 0.2609257
-0.0004356014 0.06512068 -0.10644682 -0.16819863 -0.065341406 0.015447275 -0.06625296 0.15426536
0.21391325 0.025512144 -0.09284131 -0.10542934 -0.038010657 -0.0013369194 0.0064001335 0.03438059
0.10779658 -0.3213146 -0.12810212 -0.18332492 -0.24710411 -0.2373823 0.020021632 0.12943225
-0.13763182 -0.018752113 0.05640079 -0.06815927 0.00033432097 -0.14734572 0.14805534 0.099060915
0.21192823 0.040602118 0.1770604 -0.10496313 0.04753093 -0.08614369 0.20417348 0.067004986
0.13990018 -0.32951698 -0.28495744 -0.10689697 -0.010065302 -0.023392417 0.10200519 0.24355982
0.08562951 0.22013001 0.014194289 -0.16580926 0.07653909 -0.20337921 0.009246211 -0.14568059
0.1585286 -0.09093653 0.058109332 -0.13322343 -0.040312435 0.17936848 0.01231761 0.057976194
0.24079756 0.050031733 -0.09384024 -0.27006626 0.065562405 0.13973787 0.113046855 -0.065907024
-0.17582552 0.1382424 0.017846707 -0.02926998 -0.07005656 -0.18235429 -0.13801698 -0.15889414
0.118120156 -0.17175126 0.30258885 -0.08940942 0.17307557 -0.0851692 -0.07788664 0.0033580475
-0.17191857 0.0051443526 0.020693043 -0.013838288 0.06383897 0.18260688 0.2065017 -0.07898119
-0.037860695 -0.1579531 0.10714083 0.22791472 0.077710815 0.25134987 0.10188383 0.062668905
-0.06938611 0.15879764 0.25713804 -0.039462544 0.12231178 -0.0072418237 0.22389929 0.1275371
-0.083141774 0.28484255 -0.009881291 0.15145946 -0.2872542 -0.0044863364 -0.24411395 0.16328491
0.2023929 -0.10929828 0.16198674 0.16387992 0.07969719 0.042362433 0.17416298 -0.0514382
-0.02955517 0.07240683 -0.023924004 -0.17821525 0.23255381 -0.045860447 0.14843522 -0.08358898
0.01399228 0.10056019 -0.2913135 0.16945632 0.28125554 -0.02002028 -0.14963572 0.06606935
00000000: d807 6a3e 7783 0d3e b69f 193e 5d83 6e3d
00000010: fe8a dc3d e2dd 20bd 4a58 a33d 5438 5cbe
00000020: 3d23 1e3e eaff 683d eabf 99bd 9a24 65bd
00000030: 14b7 37bd 9205 68ba 4b28 48be 89b1 b3bd
00000040: 5fc4 3cbe e768 10bd 3e66 193e 69d5 efbd
00000050: 8c2f c53c 8df4 603d 3c5f 70bd eced 563e
00000060: f50b a6bd 8eaa b2bd 1bc9 88bc 56bc f13d
00000070: eec4 3e3d fa6c 18bc a977 ed3d 753e e63d
00000080: 7b90 dfbd 1180 08be e386 3f3e 3a87 673e
00000090: 27ec 86be ef30 ef3d 4eb4 2fbe f1b9 0abe
000000a0: 64e8 83be 5570 e53c 6d8b 49bc 6d66 863d
000000b0: cb41 7fbc b425 28be 4695 dbbd 840e 523d
000000c0: 52db 2b3e ad95 47be 638d 873e 0411 973d
000000d0: a5f5 3fbe 8e09 10bd 1ed2 28be 6224 513e
000000e0: 188b 5ebe 9fe3 5ebe b576 a8bd 416b 7cbb
000000f0: 7639 bdbd 689b ce3d 7b94 503e 33e4 e2bd
00000100: 9593 cb3d fffa 153e 9ac9 6f3e fa1a 223e
00000110: 3906 3b3e c14a c2bd b6fd 83bd 20e7 07bd
00000120: af80 d73d 68ca aa3d 6882 70bd b0cf 833d
00000130: 07ad 50be 26fd b73d 57e0 8bbe 7c04 053a
00000140: 01e5 00bd 7f94 913c 9de9 5b3e 0466 bdbd
00000150: af32 9cbd 4519 f7bc 3e6a 333e f528 7dbd
00000160: 0bdd cd3d 459b a23e 0dd6 1abe a3f3 4c3e
00000170: 32ad 223e a2df dfbd 1837 02be 2c0e 7fbe
00000180: a7a5 d13b 825c 45bc ca7f 403e c1d9 4d3c
00000190: 38c6 5bbe 86bf d3bd b532 d93d f76a d53d
000001a0: a0e7 51be efce 0f3e 567e f33c a497 4b3d
000001b0: ccc6 313e 51cf 073d 66fe 5abd 0e98 853e
000001c0: 6e61 e4b9 fe5d 853d ca00 dabd 433c 2cbe
000001d0: b7d1 85bd 9116 7d3c a2af 87bd bdf7 1d3e
000001e0: 130c 5b3e d8fe d03c 9623 bebd 56eb d7bd
000001f0: 10b1 1bbd 923b afba 36b8 d13b a9d2 0c3d
00000200: 74c4 dc3d 5983 a4be 342d 03be 87b9 3bbe
00000210: dc08 7dbe 5814 73be 6804 a43c e389 043e
00000220: 5bef 0cbe 089e 99bc 8404 673d 1697 8bbd
00000230: cd47 af39 cce1 16be d29b 173e 73e0 ca3d
00000240: b703 593e 684e 263d 524f 353e e9f6 d6bd
00000250: cbaf 423d 1a6c b0bd da12 513e e939 893d
00000260: fe41 0f3e 73b6 a8be f1e5 91be ccec dabd
00000270: f0e8 24bc 74a1 bfbc 19e8 d03d bf67 793e
00000280: 865e af3d c369 613e 2a8f 683c e7c9 29be
00000290: 87c0 9c3d a442 50be 6b7d 173c 4b2d 15be
000002a0: 5255 223e ee3c babd 0d04 6e3d b96b 08be
000002b0: a71e 25bd 5fac 373e cdcf 493c 7278 6d3d
000002c0: a393 763e 13ee 4c3d 502f c0bd 2046 8abe
000002d0: 9545 863d 7217 0f3e 1c85 e73d 43fa 86bd
000002e0: 9b0b 34be 6a8f 0d3e 4233 923c 99c7 efbc
000002f0: d079 8fbd 15bb 3abe 5354 0dbe 25b5 22be
00000300: fbe8 f13d 90df 2fbe edec 9a3e 491c b7bd
00000310: b93a 313e 316d aebd 0883 9fbd b012 5c3b
00000320: 6c0b 30be f591 a83b 7584 a93c fdb9 62bc
00000330: 02be 823d 4cfd 3a3e 2f75 533e e4c0 a1bd
00000340: d113 1bbd 75be 21be a76c db3d 7a62 693e
00000350: d926 9f3d eeb0 803e 78a8 d03d 8e58 803d
00000360: 4e1a 8ebd d99b 223e 99a7 833e 7aa3 21bd
00000370: 997e fa3d d24c edbb db45 653e 1699 023e
00000380: 3c46 aabd e2d6 913e 23e5 21bc 3018 1b3e
00000390: fc12 93be 1e02 93bb 02f9 79be 2934 273e
000003a0: 1640 4f3e c7d7 dfbd dadf 253e 23d0 273e
000003b0: 4838 a33d 3b84 2d3d c857 323e ddb0 52bd
000003c0: af1d f2bc 084a 943d 46fc c3bc 0f7e 36be
000003d0: 9622 6e3e 2ad8 3bbd 67ff 173e b330 abbd
000003e0: e03f 653c 80f2 cd3d 0b27 95be f585 2d3e
000003f0: ba00 903e 9201 a4bc 1b3a 19be 5e4f 873d

memory_rnn.value.bias f4 [64]
0.008360794 0.01587851 -0.0296266 -0.020459052 -0.06333993 0.15219004 0.070032 -0.008551579
0.1064591 0.018203605 -0.05262973 0.01762115 0.09427349 0.035466153 0.06784093 -0.029088467
-0.06717962 0.020751141 -0.081399776 0.017267523 0.07245624 0.04904085 0.10518981 -0.057367392
-0.030804953 -0.005195841 -0.027051577 -0.05929871 -0.06388572 -0.10451462 0.07968237 0.06919659
-0.039128628 -0.03577871 0.056111995 0.056042768 0.052750655 0.10051226 -0.09374983 -0.0643674
0.094807126 0.062566616 -0.03827998 0.13554607 0.034138046 0.078611225 -0.038636196 0.055168275
-0.033151396 0.048903044 0.011168045 0.08217818 -0.1500275 -0.07588198 0.12037917 0.10615768
0.009617087 0.023259867 -0.059932716 -0.042020094 0.039694875 0.03727625 -0.12118032 -0.07715542
00000000: b6fb 083c a613 823c 7cb3 f2bc be99 a7bc
00000010: 5db8 81bd b5d7 1b3e f06c 8f3d ec1b 0cbc
00000020: 3b07 da3d ba1f 953c 4692 57bd 3b5a 903c
00000030: 7612 c13d f544 113d 2ff0 8a3d f04a eebc
00000040: 7895 89bd 4cfe a93c edb4 a6bd 9f74 8d3c
00000050: f063 943d 0fdf 483d c16d d73d 12fa 6abd
00000060: ab5a fcbc e041 aabb 459b ddbc 34e3 72bd
00000070: 84d6 82bd c30b d6bd 8330 a33d f1b6 8d3d
00000080: 5745 20bd b28c 12bd b1d5 653d 1a8d 653d
00000090: 1211 583d 5fd9 cd3d e9ff bfbd 0ed3 83bd
000000a0: 3d2a c23d ed22 803d 78cb 1cbd 97cc 0a3e
000000b0: 56d4 0b3d ecfe a03d fd40 1ebd 21f8 613d
000000c0: c2c9 07bd 8f4e 483d 2dfa 363c 094d a83d
000000d0: cfa0 19be 0368 9bbd 5b89 f63d 3369 d93d
000000e0: fd90 1d3c 7a8b be3c 027c 75bd 431d 2cbd
000000f0: 1897 223d fbae 183d 632d f8bd a903 9ebd

memory_rnn.rnn.i2h.w f4 [5, 64, 48]
-0.13216846 -0.05634944 -0.14887322 -0.31043598 -0.17224924 0.036993846 -0.30453163 -0.37991154
-0.1816234 0.1358535 0.31977144 -0.22624926 0.040263575 -0.30123115 0.212422 -0.023925517
0.24834925 -0.30159697 -0.30716622 0.11611542 0.028649777 -0.21380015 -0.15365772 0.12120225
0.059093982 -0.029608872 0.09971093 -0.31370676 -0.24604517 -0.19256492 -0.4433602 0.18825552
-0.1254955 -0.3030442 -0.0040472704 0.046827868 -0.17341445 0.20031819 -0.030903183 0.17073648
-0.10030888 0.09128927 0.24550031 0.16974172 -0.3365387 -0.20064841 0.14630237 -0.075865984
-0.43078962 0.21448717 0.016507855 0.031583767 -0.024970872 0.13890566 0.2398401 -0.14389342
0.056446627 -0.06851567 0.21828097 0.31873706 -0.021707354 0.2687614 0.11035652 -0.096692525
-0.10920421 -0.013421694 -0.09599491 -0.32634205 -0.053974565 0.2780657 0.37212682 0.18153404
-0.25047222 -0.15399526 0.09830406 -0.2439751 -0.36071873 0.16857982 0.030359495 -0.03609992
0.09858581 -0.054241855 0.088590376 0.012779988 -0.33892694 0.12234171 0.06943711 0.21774867
-0.1906347 0.03126534 0.19957064 0.08067982 0.39484406 -0.015826752 -0.10190661 -0.50171876
-0.15554784 0.28377333 0.094598494 0.13056687 -0.07553855 -0.27492344 -0.14025398 0.30095172
0.069300435 -0.35688087 0.04637258 0.08149683 -0.015191816 0.26386815 0.14260373 -0.28686562
0.065581426 -0.08831153 0.068721764 -0.13372263 -0.25582078 0.06831072 0.1370251 -0.04428103
0.08583264 -0.032482717 0.008444898 -0.11311069 -0.17213911 0.08202409 -0.08489659 0.08416283
0.20133485 -0.3109943 -0.3628719 0.077186055 0.22939742 -0.17257553 -0.14001061 -0.31862733
0.013383678 0.20786077 0.17808706 -0.16195926 -0.08563305 0.08638829 -0.101238355 0.02885098
0.037093014 -0.0863201 0.10411769 -0.039632488 -0.20008603 -0.08343668 -0.13209906 -0.15354113
0.040087238 0.12467213 -0.17609638 -0.17577437 -0.4089886 -0.11536958 0.03721487 -0.20995492
0.064317346 -0.2892844 -0.140634 0.16151631 0.01084033 -0.13139471 0.17268191 0.15719189
-0.12521861 0.16022688 -0.27558434 -0.22349599 0.0769057 0.30049008 0.24849497 0.24429318
0.2621089 0.18964125 0.21536027 -0.24269174 0.35654578 -0.1910936 -0.13014407 -0.26872277
-0.040948704 0.004243759 -0.0682282 0.017850623 0.10987465 0.12751107 -0.24654683 0.3600447
0.3050979 -0.26758736 -0.055224754 0.021225289 -0.056972045 0.096167095 0.25524712 -0.2608685
-0.012335562 -0.18265888 0.1684363 0.044201903 0.12727635 -0.167841 -0.32751933 -0.24824817
0.24593922 -0.070627235 0.13075998 0.02067065 -0.33165202 -0.031762972 -0.09424723 0.06898875
0.13082309 -0.23937726 -0.16880743 -0.012261628 0.09524234 0.2752923 -0.20832585 0.28493688
0.061225463 0.1707514 -0.15293454 -0.06574003 0.009857669 -0.02885822 0.00030172474 -0.10254237
-0.35430348 0.13580106 -0.1191488 0.22758642 -0.11936894 0.21841957 -0.10567682 0.36543894
0.18507726 0.12103697 -0.09508181 0.18267658 -0.15196565 0.05580268 0.2276579 -0.09223371
-0.041719645 0.05179464 0.20987064 0.12458479 -0.29760596 -0.12870114 0.15299733 -0.18265033
00000000: 2b57 07be acce 66bd 3972 18be 77f1 9ebe
00000010: 1b62 30be dc86 173d 92eb 9bbe c483 c2be
00000020: 7cfb 39be 2e1d 0b3e 15b9 a33e e3ad 67be
00000030: 6beb 243d f83a 9abe 2785 593e 72ff c3bc
00000040: 444f 7e3e eb6a 9abe e444 9dbe eccd ed3d
00000050: f0b2 ea3c 6dee 5abe 7358 1dbe e338 f83d
00000060: 880c 723d 4e8e f2bc 3e35 cc3d 2c9e a0be
00000070: 44f3 7bbe bd2f 45be 1c00 e3be 0ec6 403e
00000080: e481 00be 9c28 9bbe f79e 84bb 94ce 3f3d
00000090: 8f93 31be 3620 4d3e ac28 fdbc 8bd5 2e3e
000000a0: be6e cdbd def5 ba3d 6f64 7b3e c6d0 2d3e
000000b0: cd4e acbe c776 4dbe 4ad0 153e a05f 9bbd
000000c0: 7590 dcbe 86a2 5b3e 7b3b 873c fb5d 013d
000000d0: b78f ccbc 493d 0e3e a598 753e cc58 13be
000000e0: 9434 673d f251 8cbd 0c85 5f3e 8131 a33e
000000f0: 9fd3 b1bc 189b 893e 9902 e23d bb06 c6bd
00000100: 75a6 dfbd aae6 5bbc fb98 c4bd 4e16 a7be
00000110: 6f14 5dbd a15e 8e3e 6887 be3e 0fe4 393e
00000120: e53d 80be efb0 1dbe a453 c93d 9cd4 79be
00000130: 20b0 b8be 30a0 2c3e 7ab4 f83c 82dd 13bd
00000140: 5be7 c93d b52c 5ebd df6e b53d 2863 513c
00000150: d587 adbe 4a8e fa3d 0b35 8e3d 82f9 5e3e
00000160: be35 43be 1610 003d 3f5c 4c3e 763b a53d
00000170: 0029 ca3e 1ba7 81bc 6ab4 d0bd a470 00bf
00000180: ef47 1fbe bd4a 913e dbbc c13d 52b3 053e
00000190: f5b3 9abd c4c2 8cbe bd9e 0fbe 5816 9a3e
000001a0: 63ed 8d3d 17b9 b6be 2df1 3d3d cfe7 a63d
000001b0: 18e7 78bc ba19 873e b606 123e 0de0 92be
000001c0: 8e4f 863d addc b4bd ffbd 8c3d 96ee 08be
000001d0: f1fa 82be 7ee6 8b3d 4f50 0c3e 0660 35bd
000001e0: 06c9 af3d 990c 05bd 785c 0a3c 94a6 e7bd
000001f0: 3c45 30be 3ffc a73d 43de adbd 905d ac3d
00000200: b92a 4e3e a53a 9fbe 58ca b9be b913 9e3d
00000210: 28e7 6a3e a4b7 30be f15e 0fbe 1f23 a3be
00000220: 3747 5b3c 74d9 543e 745c 363e a6d8 25be
00000230: 6160 afbd 58ec b03d 0e56 cfbd e458 ec3c
00000240: d8ee 173d 98c8 b0bd a83b d53d ad55 22bd
00000250: 5ae3 4cbe dae0 aabd fa44 07be e339 1dbe
00000260: 8432 243d 1a54 ff3d 9c52 34be 32fe 33be
00000270: f466 d1be e346 ecbd 9f6e 183d 6cfe 56be
00000280: d0b8 833d 161d 94be 5c02 10be 8864 253e
00000290: a49b 313c 568c 06be 87d3 303e e9f6 203e
000002a0: 4f39 00be 8412 243e 6419 8dbe 22dc 64be
000002b0: bc80 9d3d d6d9 993e 7775 7e3e fe27 7a3e
000002c0: 2333 863e 5131 423e 6787 5c3e 2f84 78be
000002d0: 2b8d b63e 0aae 43be 7d44 05be 0896 89be
000002e0: d4b9 27bd 3b0f 8b3b 3abb 8bbd 783b 923c
000002f0: f605 e13d 4392 023e c676 7cbe c757 b83e
00000300: cb35 9c3e 3601 89be 5a33 62bd a8e0 ad3c
00000310: 855b 69bd 41f3 c43d c0af 823e 8e90 85be
00000320: 191b 4abc ee0a 3bbe 917a 2c3e 0e0d 353d
00000330: bb54 023e 83de 2bbe 9db0 a7be c534 7ebe
00000340: 7ed7 7b3e 03a5 90bd f2e5 053e 7f55 a93c
00000350: 4bce a9be e419 02bd b104 c1bd f949 8d3d
00000360: 7df6 053e 501f 75be dbdb 2cbe ffe4 48bc
00000370: 6a0e c33d 1df3 8c3e 5f53 55be 3fe3 913e
00000380: 8dc7 7a3d 74d9 2e3e df9a 1cbe b5a2 86bd
00000390: 0f82 213c 1368 ecbc cf30 9e39 bc01 d2bd
000003a0: 4467 b5be 6f0f 0b3e 4904 f4bd 6a0c 693e
000003b0: b477 f4bd 61a9 5f3e 176d d8bd d01a bb3e
000003c0: e584 3d3e 3be2 f73d 41ba c2bd 920f 3b3e
000003d0: e29c 1bbe 5a91 643d 271f 693e 07e5 bcbd
000003e0: 38e2 2abd 9e26 543d 54e8 563e 4f26 ff3d
000003f0: cf5f 98be 3bca 03be 55ab 1c3e b008 3bbe

memory_rnn.rnn.h2h.w f4 [5, 12, 48]
0.08635735 0.1547214 -0.14403123 0.066354185 -0.37759775 -0.021065926 -0.018751832 -0.036760375
0.18219444 -0.19064048 0.13442607 0.39777732 0.2778431 0.2974939 -0.14269829 -0.18951944
-0.13032319 0.16865917 0.09664303 -0.32398656 -0.16155113 0.24687698 0.061687358 -0.14415435
0.15567832 -0.13404395 0.119788855 -0.015456468 -0.16930605 0.24278945 0.076730825 0.394384
-0.13431177 -0.056709953 0.11223476 -0.01134823 0.22030541 -0.13683698 -0.07528307 0.3027899
-0.21307991 -0.10054607 -0.19857661 0.03617758 -0.19029309 0.28840405 -0.4328403 0.30123162
-0.13676612 -0.3812641 -0.22636086 0.1630254 0.26282 0.051903084 -0.1425856 -0.25334725
0.0029320135 -0.011817763 0.15024027 0.03545428 0.0711354 -0.15667441 -0.0946565 -0.14440008
-0.20425963 -0.24147724 -0.36198902 0.0768438 0.115513004 -0.18570231 -0.14334072 -0.17205714
-0.28766572 0.1437454 0.042896274 0.21547782 -0.16997814 0.06558528 -0.23707162 -0.123905875
-0.08680998 -0.12528263 0.036930945 -0.2870827 -0.14994341 0.016589604 0.1921616 0.30445087
0.06489776 0.09685085 -0.08646589 0.1846402 0.06545599 0.05007515 -0.20671451 0.2829422
0.09845074 0.13926476 -0.27111605 0.15195201 0.17772126 0.032644633 0.11992755 -0.03882455
0.07548834 -0.22475915 0.26304615 0.17091486 0.2374014 0.0749921 0.12980692 0.12007254
0.30861405 0.23010801 -0.18504669 0.37433204 -0.18485315 -0.15908863 0.4579957 -0.031963136
-0.077681296 0.042441282 -0.20383035 0.073359944 0.043606397 0.2880776 -0.0856385 0.28102973
-0.27883366 0.18437874 0.42235628 -0.03757125 0.002109845 -0.11619475 0.18349631 0.037547067
0.024769878 -0.16367392 -0.18681927 0.11959731 0.2549208 -0.06760812 0.34161222 0.06006891
0.18187138 0.19173862 0.19844294 0.17244832 0.021194117 0.019654118 0.42355525 0.25715154
-0.042269584 0.4412478 -0.1270446 0.1575281 0.25392154 0.26840845 -0.10913491 0.32391298
-0.014136625 0.26414466 0.42646846 0.038542848 -0.13482052 0.28195745 -0.09717354 0.55046576
0.08667155 0.15200448 -0.1773867 0.23091567 0.21588056 -0.12604646 -0.060255095 0.20318985
-0.21433775 0.30901596 0.14298816 -0.027454114 0.32382426 -0.29322454 -0.022529883 0.4990614
-0.060705747 0.094829686 0.00039040792 -0.06676358 -0.1074367 0.08113487 0.04749429 0.11761624
-0.1077643 -0.0981021 0.14545836 0.25853992 0.2509348 -0.054492585 -0.2525835 -0.014860085
0.024472158 0.010001315 0.121746875 -0.22620232 -0.19455194 0.107958175 -0.10390577 -0.25877163
0.2050567 -0.25894028 -0.0074786153 0.37091553 0.4038646 -0.2948032 -0.047840316 0.241649
0.032960515 -0.37086952 0.039823133 -0.17905673 -0.106958054 -0.25776252 0.022804357 0.084088884
0.1183251 -0.09040515 -0.15503985 -0.016739454 0.1527848 -0.16804956 0.38849354 0.122382514
-0.1770188 0.07895093 0.10638869 0.21811797 0.1251317 0.30437696 -0.073083 -0.2683772
-0.0047008973 0.094370246 -0.16520211 0.27427885 0.13774702 0.2581753 0.009086672 0.35883686
-0.111623116 0.020959347 -0.3243008 -0.046769977 -0.07480922 0.06755315 0.10191918 0.11166213
00000000: 1fdc b03d 496f 1e3e ec7c 13be b4e4 873d
00000010: 7e54 c1be 7392 acbc 719d 99bc 0c92 16bd
00000020: 2e91 3a3e 4237 43be fda6 093e 78a9 cb3e
00000030: 7341 8e3e 1f51 983e 801f 12be 6211 42be
00000040: 7173 05be fdb4 2c3e c8ec c53d 91e1 a5be
00000050: a96d 25be 52cd 7c3e e2ab 7c3d 339d 13be
00000060: 236a 1f3e d142 09be dc53 f53d 203d 7dbc
00000070: 915e 2dbe cc9d 783e 0d25 9d3d b3ec c93e
00000080: 0689 09be b248 68bd 56db e53d eded 39bc
00000090: be97 613e fe1e 0cbe 032e 9abd 4707 9b3e
000000a0: 9f31 5abe 19eb cdbd ab57 4bbe f12e 143d
000000b0: 31dc 42be b2a9 933e 3e9d ddbe 083b 9a3e
000000c0: 6b0c 0cbe 0c35 c3be 24cb 67be 21f0 263e
000000d0: 5890 863e 5498 543d f601 12be bbb6 81be
000000e0: 0627 403b 4a9f 41bc 96d8 193e 8238 113d
000000f0: 70af 913d 426f 20be 44db c1bd 9ddd 13be
00000100: 7029 51be cf45 77be a056 b9be 4860 9d3d
00000110: 1592 ec3d bf28 3ebe e9c7 12be bf2f 30be
00000120: ec48 93be fe31 133e 01b4 2f3d 38a6 5c3e
00000130: c00e 2ebe 9351 863d e7c2 72be 5dc2 fdbd
00000140: 6ec9 b1bd 174a 00be e744 173d 81fc 92be
00000150: c48a 19be ece6 873c 03c6 443e fce0 9b3e
00000160: 1ee9 843d bd59 c63d 0715 b1bd 5212 3d3e
00000170: ca0d 863d 9a1b 4d3d f8ac 53be cddd 903e
00000180: 8ba0 c93d 6c9b 0e3e b9cf 8abe 4f99 1b3e
00000190: 90fc 353e 61b6 053d 939c f53d 7e06 1fbd
000001a0: a199 9a3d 4327 66be fcad 863e 4e04 2f3e
000001b0: 5a19 733e 7595 993d 1bec 043e 98e8 f53d
000001c0: a902 9e3e 6fa1 6b3e e17c 3dbe 73a8 bf3e
000001d0: 254a 3dbe 21e8 22be 6a7e ea3e c7eb 02bd
000001e0: 5f17 9fbd e9d6 2d3d e7b8 50be bd3d 963d
000001f0: 9f9c 323d e87e 933e 3d63 afbd 21e3 8f3e
00000200: 49c3 8ebe c8cd 3c3e 153f d83e 50e4 19bd
00000210: 5345 0a3b 83f7 edbd 75e6 3b3e f4ca 193d
00000220: 33ea ca3c 239a 27be 8d4d 3fbe 6fef f43d
00000230: fb84 823e 2076 8abd cce7 ae3e d10a 763d
00000240: 7e3c 3a3e 2157 443e a034 4b3e 4b96 303e
00000250: 499f ad3c ac01 a13c 3cdc d83e 5ea9 833e
00000260: df22 2dbd 3beb e13e fb17 02be 0c4f 213e
00000270: 0102 823e d56c 893e 2082 dfbd ecd7 a53e
00000280: 4e9d 67bc f83d 873e 135a da3e 1bdf 1d3d
00000290: 640e 0abe ba5c 903e ec02 c7bd 53eb 0c3f
000002a0: db80 b13d 10a7 1b3e dca4 35be 2875 6c3e
000002b0: cb0f 5d3e 5312 01be 0cce 76bd 0011 503e
000002c0: 5b7b 5bbe 5737 9e3e 7d6b 123e 73e7 e0bc
000002d0: 4bcc a53e 8721 96be 9790 b8bc fa84 ff3e
000002e0: 97a6 78bd 1136 c23d aaaf cc39 58bb 88bd
000002f0: c607 dcbd 0a2a a63d 5f89 423d c9e0 f03d
00000300: 88b3 dcbd c1e9 c8bd 09f3 143e 585f 843e
00000310: 877a 803e 9e33 5fbd a052 81be b777 73bc
00000320: d679 c83c 8edc 233c 6d56 f93d 95a1 67be
00000330: a038 47be 2d19 dd3d 8ccc d4bd b77d 84be
00000340: 62fa 513e d293 84be 2c0f f5bb a4e8 bd3e
00000350: 57c7 ce3e 72f0 96be 35f4 43bd d672 773e
00000360: 9b01 073d 9ce2 bdbe 951d 233d a65a 37be
00000370: d30c dbbd 73f9 83be 34d0 ba3c cb36 ac3d
00000380: 6e54 f23d 5626 b9bd c4c2 1ebe 2e21 89bc
00000390: 9e73 1c3e 2f15 2cbe a0e8 c63e afa3 fa3d
000003a0: 6b44 35be 06b1 a13d 50e2 d93d 515a 5f3e
000003b0: 8622 003e 4cd7 9b3e 8aac 95bd bd68 89be
000003c0: fc09 9abb 3045 c13d be2a 29be 476e 8c3e
000003d0: 8e0d 0d3e 8e2f 843e 44e0 143c 77b9 b73e
000003e0: a99a e4bd f0b2 ab3c c10a a6be e091 3fbd
000003f0: 9435 99bd 4e59 8a3d 01bb d03d 1daf e43d
