Recurrent-Independent-Mechanisms/minigrid_experiments/storage/2023-11-17_wallgap-doorkey-redblue-crossing_ppo_123456_1000000_metalearn_True_rims_6_k_4_reshape_False/2023-11-17_wallgap-doorkey-redblue-crossing_ppo_123456_1000000_metalearn_True_rims_6_k_4_reshape_False_fullmodel_task_3.pth (torch, 294634 bytes, 24 tensors)

weight f4 [16, 3, 2, 2]
000000 8c 4f 08 bf af 78 d4 3e 04 9b 10 be f6 87 c1 3e
       -0.5324638 0.41498324 -0.14121634 0.37799042
000010 3e 3e 21 bd a6 21 18 bc e2 f6 0a 3c 24 49 6c be
       -0.039366 -0.009285366 0.008481713 -0.23074776
000020 12 f2 93 3c 09 f7 9a 3e 05 16 17 be 26 fa 22 3f
       0.018059764 0.30266598 -0.14754494 0.63662946
000030 c3 d3 97 3c 85 06 92 be 30 59 69 be a8 de 17 be
       0.018533593 -0.285206 -0.22787929 -0.1483103
000040 c8 bb 6d bb 28 31 f5 bd 31 74 8f be 4c a1 e6 bd
       -0.0036275256 -0.119722664 -0.28018335 -0.11261234
000050 00 cf a7 bb e0 91 cd 3d b0 54 dd 3d 70 b8 6e 3e
       -0.005121112 0.10037589 0.108071685 0.23312545
000060 d6 a3 3c 3e 19 fe 7f be 6d e2 2b bb e5 fb ce be
       0.18421873 -0.24999274 -0.002622749 -0.40426555
000070 40 92 17 be 32 59 95 3e cf 4f ac be c2 d0 4d 3e
       -0.14801884 0.29169613 -0.3365464 0.20099166
000080 90 7c 9b bd 78 52 15 be 6e dd 24 3e 9a 22 a2 3d
       -0.07592118 -0.1458224 0.16100094 0.07916756
000090 49 af 89 3d ff ad 96 be 2f 43 1c 3e 01 df a0 be
       0.06722886 -0.29429623 0.15260004 -0.31420138
0000a0 0b ac 88 3e bf 32 a1 be 60 46 7b be a9 d8 8a 3e
       0.26693758 -0.3148403 -0.24538565 0.27118424
0000b0 f7 99 39 be 9e 3c 39 be 6a aa 95 bf 54 eb 9c bd
       -0.18125139 -0.1808953 -1.1692631 -0.07662073
0000c0 f9 0a a7 bd 61 8d 7c 3e e6 81 0b bd 58 54 01 3e
       -0.0815639 0.24663307 -0.034059428 0.12629831
0000d0 53 0b ef be 07 b7 49 bf af 3b 13 3c e1 d2 23 3e
       -0.46688327 -0.787949 0.008986398 0.15998413
0000e0 10 19 a4 3c e3 27 cb 3e da 47 56 3d 96 c8 d2 3d
       0.020031482 0.3967887 0.052314617 0.10292165
0000f0 f5 96 f6 be f8 e8 b6 bc 5e 0f 01 be c0 a2 df 3e
       -0.48162046 -0.022327885 -0.12603518 0.43678856
000100 1e 9d 53 3c 47 17 2e be 6b e3 d6 bd 2d b2 ff be
       0.012915878 -0.17001067 -0.10492595 -0.49940625
000110 5a 19 53 3e 4c 9e c3 3d 69 8f 63 3e 48 09 66 3e
       0.2061514 0.09551677 0.22222675 0.22464478
000120 7c 2f 69 3e c6 42 1b 3f 5a f2 70 be 5e 95 1a bf
       0.2277202 0.60648763 -0.2352995 -0.60384166
000130 67 8f 40 be 93 ea 23 bf 77 20 f3 bb 2e 34 9c be
       -0.18804704 -0.64029807 -0.0074196416 -0.3050856
000140 4d 6e 38 bd 97 06 ef bc 22 f3 4e 3e 67 65 0f 3e
       -0.045027066 -0.029177947 0.20209935 0.14003526
000150 7d 93 93 3d 5f 45 91 3d 71 fc 46 be 72 71 cf 3e
       0.072058655 0.070933096 -0.19432236 0.4051624
000160 12 a0 29 be 44 9b 08 be 32 52 ec bb 56 ed 42 be
       -0.16564968 -0.13340479 -0.007211947 -0.19035849
000170 e3 28 5d 3f ca 51 65 3d c8 78 8c 3e 8a 8a 3f 3f
       0.86390513 0.055986203 0.274359 0.7482077
000180 6e 78 b5 3e 55 85 b5 be 68 1f fd 3d d9 13 80 be
       0.35443443 -0.35453287 0.12359506 -0.25015143
000190 48 d1 5d 3d da 91 4e bd b8 45 01 bf cb bc 9f 3e
       0.054154664 -0.050432064 -0.5049701 0.31198725
0001a0 c4 06 c0 3e 46 a6 11 be 09 2f e1 be fa 75 12 be
       0.37505162 -0.14223585 -0.43981197 -0.14302817
0001b0 b1 7c 7b 3e 22 fb bc 3e 8b 66 d6 be c3 2f ab be
       0.24559285 0.3691035 -0.4187511 -0.33434877
0001c0 1c f2 52 bd ea f0 1e be c0 47 cb bb 49 9d a5 3d
       -0.051500425 -0.15521589 -0.0062036216 0.080866404
0001d0 39 41 40 be bc 88 fb 3e e9 2c 8e be a1 49 00 3f
       -0.1877488 0.49127758 -0.2776864 0.5011235
0001e0 51 22 85 3e 5f 82 d2 bb 42 13 9b bd 5b e3 4f bf
       0.26002744 -0.006424233 -0.075720325 -0.8120629
0001f0 da 0c de bd 4a 60 1e 3e c8 3b 0a bf 4e 76 02 bb
       -0.10842295 0.15466419 -0.5399747 -0.001990694
000200 18 b2 b9 be df e3 5e be ca ff 14 be c2 a7 92 be
       -0.36268687 -0.21766613 -0.14550701 -0.28643614
000210 2f 2d 4c be c1 35 9b be ab 3c 25 be 05 61 e3 be
       -0.19939111 -0.30314448 -0.16136424 -0.44409958
000220 48 7f 7a 3e df c4 a3 3d aa 0b 96 3e c3 80 6a 3e
       0.24462616 0.079965346 0.29305774 0.22900681
000230 d9 c4 f3 3e 00 a2 16 bf 3f 14 77 3d 31 6d c2 bd
       0.4761112 -0.5884094 0.060322043 -0.09493483
000240 6b 93 ba 3e eb 9c 98 bd ff b3 93 3e 15 e8 ea bd
       0.36440596 -0.07451805 0.28848264 -0.114700474
000250 04 ad d2 be cf 26 46 bf 1e e8 e1 be 93 36 93 3e
       -0.41147625 -0.7740297 -0.44122404 0.28752574
000260 30 d7 77 be da 5f 00 be 19 e3 c1 3e 72 2c 09 3e
       -0.24203181 -0.12536564 0.37868574 0.13395861
000270 3d 0d f9 3c 96 c7 42 3d bb e5 40 3d 95 16 11 3d
       0.03040182 0.04755362 0.047094088 0.035421927
000280 a9 29 9d be d6 b8 8e 3e 0a 07 11 bf 9b 4b 48 bf
       -0.30695847 0.27875394 -0.56651366 -0.78240365
000290 23 34 b0 be c3 cf 7c be 13 ee 6e 3e f6 43 14 be
       -0.34414777 -0.2468863 0.23333006 -0.1447905
0002a0 e7 6a 13 bf b3 52 34 bf 33 45 8d 3e 92 1a 3a 3e
       -0.57584995 -0.7043869 0.27591857 0.18174198
0002b0 62 1f 18 be 67 8b 72 3d 0b a8 98 be 0a ca 42 3e
       -0.14855722 0.059214976 -0.29815707 0.19022384
0002c0 2d d7 1c 3f 2c fd 89 be 0d 59 9d 3d cd 0c d7 3d
       0.6126583 -0.26950967 0.07683001 0.105004884
0002d0 fc fe 8c 3e 65 3c 43 be d6 f7 ee 3e 81 83 1b be
       0.27538288 -0.19066007 0.4667346 -0.15186884
0002e0 f5 ba 08 bf 31 ca 9d 3e 04 63 c8 be 5f 71 19 bf
       -0.53410274 0.30818322 -0.39138043 -0.59938616
0002f0 b6 80 2c 3f 8f 3b a0 3c 39 d9 9b 3e 64 bd 6d 3e
       0.673839 0.01955965 0.30439165 0.23216778

bias f4 [16]
000000 69 92 21 bf fb e0 0b bd d8 e4 4e be d5 cf 53 3d
       -0.6311403 -0.034150105 -0.20204484 0.051711876
000010 75 2d 63 be bb e4 cd be 3d c2 f8 bd 45 99 cd be
       -0.22185309 -0.4021357 -0.12146423 -0.40155998
000020 c2 08 80 be fd b7 68 3d 3a 08 42 bc 51 f0 a2 be
       -0.25006682 0.05681609 -0.011842782 -0.31823972
000030 ac fb 7e be ac be 4d be 63 fb 7d be 38 33 2a be
       -0.24900693 -0.20092267 -0.24802928 -0.16621101

weight f4 [32, 16, 2, 2]
000000 fb e4 32 be b5 32 6d be d9 72 69 bd 6a bd 09 bf
       -0.17470162 -0.23163874 -0.056994293 -0.5380465
000010 40 7d 6e 3c 80 e4 d4 3d c2 e6 ba 3d 3c 5b 03 3d
       0.014556229 0.103951454 0.09126045 0.03206943
000020 0c cf 75 bd 7e 31 e0 3d 50 0f f1 3b 34 e6 13 3e
       -0.06001191 0.1094694 0.0073565617 0.14443284
000030 80 65 25 be 14 20 0f be 8a 03 14 be e0 b0 d3 3e
       -0.16152 -0.1397708 -0.14454475 0.41345882
000040 8b 55 8e be ab f3 03 bd 46 e2 0a be da 4b 9a 3e
       -0.2779964 -0.0322148 -0.13562879 0.30135995
000050 7d 1e 97 be 2b 77 cc 3c 8d a6 9e be 99 8a 78 bd
       -0.29515448 0.024959167 -0.30986443 -0.060679052
000060 b6 8b 97 3c 66 2d 05 3f 1f c3 a5 3d f9 74 2b be
       0.018499237 0.520224 0.08093857 -0.1674384
000070 51 5a 01 be 24 cb 3a 3e 24 50 8f be 51 68 b9 be
       -0.12632109 0.18241554 -0.2799083 -0.362124
000080 53 32 60 3e 00 6b 63 3d 7d 56 aa be a3 d9 1d bc
       0.21894197 0.055521965 -0.3326911 -0.009634408
000090 e4 b1 81 be 3a b8 6b 3e 25 72 36 be 79 ef b6 be
       -0.25331032 0.23019496 -0.1781698 -0.35729578
0000a0 1d 4f ee bd 08 ce 47 3d 8c 55 76 bd 3c 11 0b 3e
       -0.116361834 0.04878047 -0.060140178 0.13580793
0000b0 31 62 0f bf 83 50 d8 3c c7 50 b6 be 79 c3 c0 bd
       -0.56009203 0.026405578 -0.35608503 -0.094122835
0000c0 5a 81 2d bf 6f f2 89 3d 9d ee 2b bf 29 6c 0c be
       -0.677755 0.06735694 -0.6716097 -0.13713135
0000d0 7a ad f1 be c3 af be 3e 59 c0 61 3e 3a 94 68 3e
       -0.47202665 0.3724347 0.22046031 0.22712794
0000e0 a3 73 f2 bb 79 57 e2 bd 23 66 8c bd 84 e1 3f bd
       -0.007399039 -0.1105184 -0.068554185 -0.046845928
0000f0 ac c9 1f bf 53 15 12 3e ae fe ac bd 98 03 05 3e
       -0.624171 0.14265947 -0.08447014 0.12989652
000100 e0 ae 83 be 97 40 a9 3d ea 8b 99 3e 39 60 9f 3e
       -0.25719357 0.08264273 0.29989558 0.311281
000110 9e 33 e2 3d 44 90 23 3d 98 b2 b7 bd 22 b8 92 bc
       0.110450014 0.039932504 -0.08969611 -0.017910067
000120 ca 74 c8 bd ed 9f 6b 3d b2 fb b4 bd 86 60 1f be
       -0.09787901 0.057525564 -0.088370696 -0.15564165
000130 84 a8 ea bd c4 d6 9a bd ed e2 ff be 23 74 91 be
       -0.11457923 -0.075604945 -0.49977818 -0.28408918
000140 6e ce 20 be b8 32 b8 3d ac a5 be bd 6f 55 16 be
       -0.15703747 0.08994049 -0.09308943 -0.14681028
000150 1e f5 99 be 8d 4a bd 3e 84 32 77 3e 3e b8 11 3f
       -0.30069822 0.3697094 0.24140364 0.56921756
000160 26 22 91 bd 6d 32 d7 3e 27 25 2b bd 1a 0f a5 3d
       -0.070865914 0.4203066 -0.041783478 0.08059521
000170 ec 40 ca bd ea df 5e 3e ea f5 c7 3e 07 54 a8 3e
       -0.09875664 0.21765104 0.39054805 0.32876608
000180 c3 f3 0f bd d1 22 2b be 97 8d b7 3e 41 72 30 3d
       -0.03514458 -0.167125 0.35850212 0.04307771
000190 4d 55 1e 3e e7 d2 4e 3e a6 b7 73 3d 7d 54 27 3e
       0.15462227 0.2019764 0.059501313 0.16340823
0001a0 b8 e1 0a 3e 0c 1c 10 3e c6 50 bd 3e f1 69 87 be
       0.13562667 0.14073199 0.36975688 -0.26448014
0001b0 b0 eb dd bd c0 91 af bc ce 50 1e be db 18 9d bd
       -0.108359694 -0.021431804 -0.15460512 -0.076707564
0001c0 58 78 93 be cd 52 9d 3e 59 dd a0 bd 8e 96 90 3e
       -0.28802752 0.30727234 -0.07854719 0.28239864
0001d0 6c 20 e8 be 12 e1 52 3e 20 ea a2 3e bf 6e 8e be
       -0.45337236 0.2059367 0.31819248 -0.27818868
0001e0 a9 87 1f 3e 34 e2 4d 3d 55 b2 dd bd dd cc 01 3e
       0.15579094 0.050264552 -0.1082503 0.12675805
0001f0 6c f3 83 be aa 28 00 3e 06 a1 80 3e 56 e5 76 3e
       -0.25771654 0.12515512 0.2512285 0.24110922
000200 fa 4b 16 3e 27 40 bb 3d 62 59 8f bc b7 b2 8e bd
       0.1467742 0.091430955 -0.017498676 -0.06967681
000210 00 d6 4c 3a 50 50 df bc 20 8b 16 3d 6e 84 c4 3d
       0.0007813871 -0.027259976 0.036753774 0.095955715
000220 26 77 03 3d 42 54 1c bf 4e 0b 39 3c 49 08 81 3e
       0.03209605 -0.6106607 0.011294199 0.25201634
000230 d6 da 81 be 8e b2 81 3e b5 b8 88 3d 38 a2 54 3e
       -0.2536227 0.2533154 0.06675855 0.20765007
000240 e3 99 61 be c5 34 3c 3e 45 98 c4 bd 9b 39 c9 bc
       -0.2203136 0.18379505 -0.095993556 -0.024563601
000250 07 2c 6e 3e b5 49 42 3e db 22 2e 3e b7 3e 43 3e
       0.23258983 0.1897343 0.17005484 0.19066893
000260 5e 0d 63 3e 29 fc 5a 3d 2e 44 04 3e 08 61 d3 3e
       0.22173068 0.053463135 0.12916633 0.41284966
000270 df 2f 8a 3e 34 74 06 3d b3 69 bd 3c 3b 98 fa 3d
       0.26989648 0.032825664 0.02312169 0.12236067
000280 6c fa e0 3d 55 06 5d 3d 48 19 d2 3d 32 46 5a bd
       0.10985264 0.053961117 0.10258728 -0.0532896
000290 b2 dc 8e 3e 51 75 69 be 35 d0 93 bd f1 8b bc bd
       0.27902752 -0.22798659 -0.07217447 -0.09206379
0002a0 b8 ce eb 3d 52 5b e2 be 77 4a 7c be d1 d1 cc 3e
       0.11514038 -0.44210297 -0.24637781 0.40003827
0002b0 c7 88 de bd 6c 32 17 bf 8d db 59 3d 9e 32 91 3d
       -0.10865932 -0.5906131 0.053187896 0.070897326
0002c0 5e c3 3f be da 3b ef 3d 2e 29 1e 3e d9 1c 26 3e
       -0.1872687 0.11681338 0.15445396 0.16221942
0002d0 8c 9d 75 bd f7 c1 fa 3d 31 f9 ba be c9 6e 7d 3d
       -0.0599647 0.12244027 -0.36518243 0.06187323
0002e0 bf e6 49 be ad a7 19 bf aa 73 3d 3d 48 83 44 3e
       -0.19716929 -0.6002148 0.046252884 0.19190705
0002f0 27 1c b7 bd b9 ae 47 3e 6a b9 5c bd ff 1e dd 3d
       -0.089409165 0.19500245 -0.053887762 0.10796928
000300 3e 9e 0b be 51 fe 93 bd f0 01 b5 bd 59 a9 a5 be
       -0.13634583 -0.072262414 -0.0883826 -0.32355765
000310 14 e7 a7 3d a8 13 6c 3d 02 cf ba 3d 60 29 d2 bd
       0.081983715 0.057635933 0.09121515 -0.10261798
000320 36 60 b4 3e cc f5 81 bc 42 ad 35 3e d3 fe 19 3e
       0.35229653 -0.015864275 0.17741874 0.15038614
000330 91 91 77 3d 0c 39 ff bc 3c e9 8a be a8 0e 1a ba
       0.060441557 -0.031155132 -0.2713107 -0.0005876818
000340 94 07 81 3e 74 10 e6 bd c7 a9 25 3e c6 f6 05 be
       0.25201094 -0.11233607 0.16178046 -0.13082418
000350 c5 a2 4a 3e 25 4a f4 bd 86 4b 03 3e 02 43 96 3b
       0.19788654 -0.119282044 0.12821779 0.0045856247
000360 c5 5a e3 be ee bc 65 be d9 aa 8a 3e 63 f6 f7 3e
       -0.4440519 -0.22435352 0.2708347 0.48430166
000370 fb 4c 71 bd 7e bb 64 be 60 69 cf 3d ab cb f6 bd
       -0.058911305 -0.22337148 0.101275206 -0.12050565
000380 94 49 a0 3e 4a 7e ed 3d 1f 8c cd bd 22 1b 8f bd
       0.31306136 0.11596353 -0.100364916 -0.06987597
000390 f8 ce 0c bf 79 da 84 bd 54 ba ed bd 8e 0a 9b bd
       -0.5500331 -0.06486983 -0.11607805 -0.075703725
0003a0 fe 83 61 be a8 b1 b5 3d b5 63 6e be da 46 27 be
       -0.22023007 0.08871776 -0.23280223 -0.16335621
0003b0 a4 cb 1b 3e 54 f5 85 3d cc 16 ea 3d 7e 26 b8 3b
       0.15214401 0.06540933 0.114301294 0.005619823
0003c0 72 f6 95 bb f0 13 14 bf e6 a0 28 3d 0c 1d 68 3e
       -0.0045764977 -0.5784292 0.04116907 0.2266733
0003d0 db 51 f5 3e 7b 70 84 3e dd 4b a9 3e 53 62 2a be
       0.47914013 0.25867066 0.33065692 -0.1663907
0003e0 f8 5c a7 be 5d 7a c4 bd 2f 5f 57 be 86 66 9b 3d
       -0.32688117 -0.095936514 -0.21032403 0.07587914
0003f0 50 9e 39 3e f4 8f 47 3e 26 5c 1b 3d 2a e8 a4 be
       0.18126798 0.19488508 0.037929676 -0.32208377

bias f4 [32]
000000 eb 61 bc bd 65 5e 24 be 94 61 2c be a7 37 52 be
       -0.09198364 -0.16051634 -0.16834098 -0.20529042
000010 0c 41 c2 3b 52 0f e5 bd e1 fd ae bd cc b9 34 be
       0.0059281643 -0.11184563 -0.08544517 -0.17649001
000020 08 31 cd 3d 6a 46 96 3d 65 f9 5d 3d d9 1e a7 bd
       0.100191176 0.07337649 0.05419292 -0.081601806
000030 1e dc b7 be c8 80 7d ba df 9e 02 3d a9 00 91 3d
       -0.35910124 -0.0009670374 0.031889793 0.07080204
000040 13 10 a2 bd f9 a2 d2 bd 5b 00 84 be 9f b2 31 be
       -0.07913222 -0.10284991 -0.2578152 -0.17353295
000050 63 04 7a bd 2e 39 68 be 9c 99 ce bd 98 6d 51 be
       -0.06103934 -0.22678062 -0.100878924 -0.20451963
000060 fb 98 45 3d ff 96 43 bd 1f 45 33 bd 49 f5 11 be
       0.048241597 -0.047751423 -0.04376709 -0.14253725
000070 82 a8 50 be 52 c6 6c be ac 2b 5a bc 9a 95 50 bd
       -0.2037678 -0.23122528 -0.013316076 -0.05092392

weight f4 [64, 32, 2, 2]
000000 d1 bd 96 bc a9 e8 cc 3e 49 6b ba 3e ae ce 21 be
       -0.018401058 0.40021256 0.36409977 -0.15801498
000010 4a 6d ec bc b0 f8 0f be 2e 9e 86 3e 28 a0 1a be
       -0.028860707 -0.1405971 0.26292557 -0.15100157
000020 9f f8 89 3e 29 53 44 bd ab 2e 56 3e e6 70 a9 3e
       0.26947495 -0.04793087 0.2091624 0.33093947
000030 9e 1c 34 3e 70 15 90 bd 12 73 40 3e 75 2c dc be
       0.17589042 -0.07035339 0.18793896 -0.43002668
000040 99 0e 6c be 30 c8 00 be d1 51 d4 3d f8 34 65 bd
       -0.23052444 -0.12576365 0.10367168 -0.055958718
000050 7e d1 d1 3d 9d 4d e4 3d 5b 77 34 3c c6 e9 3b 3d
       0.102450356 0.11147616 0.011014785 0.04587724
000060 d4 77 c1 3d 9d 4d 87 3e 16 e0 b2 3d 1f c3 9d 3e
       0.094466835 0.26426402 0.08734147 0.30812928
000070 e8 33 c1 3a ea 17 58 3e 79 52 2f 3e df 95 11 3e
       0.0014740201 0.21102872 0.17121305 0.14217328
000080 a8 76 27 be 19 f4 7a 3d a0 d7 fc 3b 71 c3 2c 3c
       -0.16353858 0.061267946 0.007716134 0.010544644
000090 e9 a0 63 3e 6b 93 cb bd fe a5 a8 bc ab a6 22 be
       0.22229351 -0.09940227 -0.020586964 -0.15883891
0000a0 59 79 2b 3e 47 d4 1b be a0 33 29 be a3 1b af bd
       0.16745509 -0.15217696 -0.165236 -0.08550193
0000b0 cc 41 61 3e 0a a3 d5 3d c4 2c 2b 3d e5 18 d4 bd
       0.21997756 0.10431488 0.04179074 -0.10356311
0000c0 0c e7 38 3e 01 25 27 3e 6c 19 fb 3e 78 6e e0 3e
       0.18056887 0.1632271 0.49042833 0.4383428
0000d0 8d 32 bd bc 6f 6d 37 3d 71 6d 24 be 38 d9 c2 3e
       -0.023095394 0.0447821 -0.16057374 0.3805635
0000e0 c7 62 33 3e 14 f6 f3 be e5 a5 9c bd e4 15 80 be
       0.1751815 -0.4764868 -0.07648829 -0.250167
0000f0 0c 32 24 3d 44 97 18 be f1 cf 96 3e 17 96 14 3d
       0.04008679 -0.14901453 0.29455522 0.03627595
000100 ea e4 07 3e 74 c2 18 bd af 2d cd 3c 8a e8 92 3c
       0.13270918 -0.03729482 0.025046198 0.017933149
000110 9e 58 f5 3d 58 09 12 3d 42 21 6f 3d b4 d2 02 3e
       0.11979793 0.035653442 0.058381326 0.1277569
000120 63 bf 11 3d 34 f7 ae 3e 48 35 a3 3c d0 8b d3 bd
       0.03558291 0.34172976 0.019922867 -0.103294015
000130 d0 6a 09 3e 04 cb 96 3e 68 4b 11 bd 46 23 a2 be
       0.13419652 0.29451764 -0.035472304 -0.31667536
000140 ca 44 88 3e b3 5c 8a bd 5a e6 69 3d 2c 9a 0c bd
       0.26614982 -0.06755962 0.057104446 -0.034326717
000150 21 8f 26 3e cd ad bb 3e d5 93 6f 3e 69 e5 34 3d
       0.16265537 0.36656037 0.23396237 0.044164095
000160 51 c0 16 3e ff 0d c1 3e 9e ac 45 3e 01 0b c8 bd
       0.147218 0.3770599 0.1930413 -0.09767724
000170 ee 43 82 3e bb c3 92 3e a1 e2 8d 3e 7a 67 15 be
       0.2544245 0.28664955 0.27711967 -0.14590254
000180 55 4c 2c be 00 3d 84 be 95 de 1e be ba 4a b8 3e
       -0.16825993 -0.2582779 -0.15514596 0.35994512
000190 55 6f 42 3e fa 76 91 3e 1c 4c 91 bd 79 7f 6e 3c
       0.18987782 0.28411084 -0.07094595 0.014556759
0001a0 f4 71 91 3d fc 24 fc be 43 b3 08 3e cb a6 54 3d
       0.07101813 -0.49246967 0.13349633 0.05191688
0001b0 b5 c9 9c bd ed 63 08 3e fa d3 1d bd f0 77 9d bd
       -0.0765566 0.13319369 -0.038532235 -0.07688892
0001c0 78 f3 df 3c 67 3a fa 3e d3 2b d2 bd 89 8d 60 be
       0.027337775 0.48872682 -0.10262265 -0.21928991
0001d0 c5 f2 2e 3d 5b 63 0f 3f 8c 52 21 be 6e 36 09 3e
       0.04271199 0.5601098 -0.15754145 0.1339967
0001e0 d8 3a 97 bc ce 9d 69 3d a9 dc 16 bd 98 4c 83 3d
       -0.018460676 0.05703526 -0.03683153 0.064110935
0001f0 87 c2 68 bd ed 49 9d be e9 7c a4 3d cd 47 dd 3e
       -0.05682614 -0.30720463 0.08031637 0.43218842
000200 c0 d5 a0 3e b1 02 f3 3d c1 6f 33 3e 66 87 71 3d
       0.31413078 0.11865748 0.175231 0.058967017
000210 f7 29 3f 3e e5 c9 8d 3c 86 57 6f 3a 8b 3b b9 be
       0.18668352 0.017308185 0.00091301685 -0.3617824
000220 d0 04 9b 3e 8a eb 66 3d 27 95 15 3e d1 e9 18 be
       0.3027711 0.05637697 0.14607678 -0.14932944
000230 55 a9 65 3e dd 79 52 3e da c7 18 3d 6e 0c 99 3e
       0.22427876 0.205543 0.03729997 0.29892296
000240 6b 3a c0 bd 66 cb c1 3e c9 54 45 3d f6 3f 06 3e
       -0.09386142 0.37850493 0.04817656 0.13110337
000250 00 fe 95 be 04 27 eb be d6 b4 65 bd 3a 5a c2 3d
       -0.2929535 -0.45928204 -0.05608066 0.094898656
000260 1c 6f a2 bd 23 74 59 3e 2e ce 04 3e 6d c3 bf bd
       -0.07931349 0.21235709 0.12969276 -0.093634464
000270 db 3b e1 3c 8c 50 73 3e e9 a4 0c be 0a c9 c6 3c
       0.027494362 0.23761195 -0.13734783 0.024265785
000280 da 2a 1b be 22 d8 15 3e 7c da 4d 3e 0a 98 7f 3e
       -0.15153065 0.1463323 0.20102876 0.24960342
000290 07 7d a8 3c 96 8c e5 be 73 0d 24 3c e8 5c 33 3d
       0.02056743 -0.4483382 0.010012972 0.043789774
0002a0 bc 46 d3 bc bc 8d 20 bb 06 62 32 be cd 36 02 bd
       -0.025790565 -0.0024498543 -0.17420205 -0.031790543
0002b0 5e c9 56 bc c7 62 0d 3e 43 52 a1 bd fb 59 01 3e
       -0.013109533 0.13807212 -0.07877018 0.12631981
0002c0 4e 51 50 be cf 0d 72 be dc 52 82 3e cc 25 eb 3d
       -0.20343515 -0.2363808 0.25453842 0.114818186
0002d0 a3 b9 aa 3e d5 1e 94 3e 74 03 81 3c e5 22 11 be
       0.33344755 0.28929773 0.015748717 -0.14173467
0002e0 50 24 4a 3e ea f8 32 3e 34 86 88 be 6f 52 2f be
       0.19740415 0.17477766 -0.2666489 -0.1712129
0002f0 60 fc a3 3d c4 a3 a0 be b6 7f dd 3d 45 bb f4 3e
       0.08007121 -0.31374943 0.108153746 0.47799125
000300 c0 e4 65 3e ea 70 3a bd 0f 5c c0 be 35 62 01 3e
       0.22450542 -0.04551784 -0.37570235 0.1263512
000310 c3 9a 01 3c 26 e2 1e bd d8 a5 fb bd 91 ee 7c be
       0.007910433 -0.03878989 -0.122874916 -0.24700381
000320 cc f5 0c 3e d6 a3 7b 3e e1 27 b9 3e a5 d2 b2 be
       0.13765639 0.24574217 0.36163238 -0.34926334
000330 c5 c9 c1 3e 8f db 33 be d5 41 79 3e 12 54 30 be
       0.3784925 -0.17564224 0.24341519 -0.1721957
000340 ce c1 9b 3e 41 12 b9 3d 10 08 ea bd ba 4e 90 3e
       0.304213 0.09036685 -0.11427319 0.28185064
000350 39 d3 56 3e 95 14 3e 3e 7a 8d dc 3d 2f a7 ab 3c
       0.20979013 0.18562539 0.10769172 0.020953743
000360 b6 1a 6f 3e 57 d7 ba 3e e6 60 1e bd 19 10 18 3f
       0.23350033 0.36492416 -0.03866663 0.59399563
000370 e6 60 df 3e 8c 27 a3 3e c6 6d 54 be 06 17 66 be
       0.43628615 0.3186611 -0.20745 -0.2246972
000380 7d 3f 11 3e 00 2a 91 bd 11 b7 3a be 24 f8 ff bd
       0.14184375 -0.07088089 -0.18233897 -0.12498501
000390 46 17 c7 3d 81 c1 29 3e 18 d5 86 3e b9 fc 80 3e
       0.09721236 0.16577722 0.26334453 0.25192812
0003a0 a3 b3 25 be 82 73 6e be 94 31 9d bd 12 58 46 3d
       -0.16181807 -0.2328625 -0.07675472 0.048423834
0003b0 9b e0 8b be 89 f6 a3 be 4e 69 04 bf b9 fe ea bd
       -0.27319798 -0.3202403 -0.5172318 -0.11474366
0003c0 56 06 1f 3f d4 b7 a4 3e 3c 3d bf 3d 4a 4f cf 3d
       0.6211904 0.321715 0.093378514 0.10122545
0003d0 f5 f4 23 3d 03 d4 30 bd 57 c8 cc bd 9f 9b 4e 3c
       0.04002853 -0.04317094 -0.09999149 0.012610345
0003e0 52 e8 3e bd 56 e1 88 bc 90 39 a7 bc fc 58 41 bd
       -0.046608277 -0.016709011 -0.02041319 -0.047204003
0003f0 a7 3b d3 3c e9 44 ab 3e c3 43 a9 3d e1 f5 c2 be
       0.02578528 0.33451012 0.08264878 -0.38078216

bias f4 [64]
000000 9d 19 74 bd 5d 18 3f be 52 0f 39 3e cc 40 0b be
       -0.05959474 -0.18661638 0.1807225 -0.13598937
000010 3a 7c bc 3d a7 7b 29 be 67 71 e0 bd 63 3d 4a bd
       0.09203382 -0.16551076 -0.1095913 -0.04937495
000020 c8 3e 9f bd dc 6d 23 be 09 ff 0d be 05 8b 5c bd
       -0.077756464 -0.15959877 -0.1386682 -0.053843517
000030 8c d7 f2 3d cf df e6 bd 17 b2 ac 3d 2a 9e 19 3c
       0.118575186 -0.11273157 0.084324054 0.009376088
000040 ba d8 d0 3c e6 15 8f 3d 23 d2 d4 bd 0f cd 19 be
       0.025493968 0.06986599 -0.10391643 -0.1501963
000050 83 de 90 bd cc ea b9 3d 80 f5 02 3c 9c fb 7a be
       -0.07073691 0.09077987 0.007993102 -0.24510044
000060 83 76 de 3d 6b f3 11 be 4c ab cb 3d 37 b7 99 bd
       0.10862448 -0.14253013 0.09944782 -0.075056486
000070 28 63 18 be e1 c1 b7 3d 75 96 b4 bb 8f 3f 2f 3e
       -0.14881575 0.08972526 -0.0055111 0.1711409
000080 de 9b 1b 3b 3a 07 d3 be aa fe c4 bb b2 bc 32 3c
       0.0023744027 -0.4121645 -0.0060118036 0.010909246
000090 dd a3 ac bd 3c 20 09 bd 5a b3 98 bd f4 10 43 bb
       -0.08429692 -0.033478007 -0.074560836 -0.0029764744
0000a0 7b b3 8c b9 ff 92 14 bd 5c 55 90 3d c2 e3 ff bd
       -0.00026836604 -0.036273 0.07047531 -0.12494613
0000b0 db 33 a1 be 22 5c 53 bb cd c0 8a bd 1a 2d 6d 3b
       -0.31484875 -0.003225096 -0.06775055 0.0036190213
0000c0 27 3d 32 be 91 60 08 bc 07 1d 3b 3c 3d 05 af be
       -0.1740614 -0.0083238045 0.011420495 -0.34183684
0000d0 c1 97 19 be f5 b5 c8 be 09 c1 1c 3e a0 30 82 3e
       -0.14999296 -0.39201322 0.15308012 0.25427723
0000e0 91 0e 04 be c1 99 34 be bf 94 3b be 8c 60 5c 3d
       -0.12896182 -0.17636777 -0.18318461 0.05380301
0000f0 0f dc 2a bd 55 2b 94 bd d1 01 b8 bd 5e c5 fc bd
       -0.04171377 -0.072348274 -0.089847215 -0.12342332

weight f4 [64, 64]
000000 9d c2 c8 3e 9b e3 fd bd cc f8 80 be 81 13 d9 bc
       0.39210978 -0.12396928 -0.25189817 -0.026498558
000010 5a 9b 10 be 00 36 42 3c 9c b8 3a 3e 3b b5 99 bc
       -0.14121762 0.011853695 0.18234485 -0.018763175
000020 63 58 00 3e 68 b2 c8 be e1 e6 e0 3e 31 79 95 be
       0.12533717 -0.39198613 0.43926147 -0.29194024
000030 56 c5 ad be 80 fd d2 3d 1e d7 bd 3e e1 cd 99 be
       -0.33939618 0.103022575 0.37078184 -0.30039886
000040 3e 9a 15 bf f0 e1 5b be 1b f5 83 3d c4 55 b1 3e
       -0.5843848 -0.21472907 0.064432345 0.34635746
000050 27 12 72 3e 0e 81 a5 3c 56 e9 f5 bd ee 25 41 3f
       0.23639737 0.02020314 -0.12007396 0.754485
000060 30 0c 80 3e c0 13 31 bd cf 08 3f bd e9 55 48 3e
       0.25009298 -0.043231726 -0.04663926 0.19564022
000070 2e 8b 2b 3e 55 12 b6 be b9 eb 23 3d 39 09 14 bf
       0.16752312 -0.3556086 0.040019725 -0.5782657
000080 4b 37 fa 3d 36 4a 81 3e 57 8b 20 3e 33 7c 2f 3e
       0.122175775 0.2525193 0.15678154 0.17137222
000090 4e 56 67 be c0 87 e2 3e 71 ae f3 3e f8 f5 62 be
       -0.22591516 0.44244194 0.47594026 -0.22164142
0000a0 9d 07 b8 bd f6 fc 58 3e cb 34 e9 be 79 a3 ec bd
       -0.08985827 0.21190247 -0.4554809 -0.115546174
0000b0 e6 5d 9d 3c 0b bc 7a 3d 7b fe b6 3e 00 ff dd bd
       0.019209813 0.061214488 0.35741028 -0.10839653
0000c0 fa 1d fe 3e e6 3b 21 bf 18 14 2c bd e3 94 8f 3e
       0.49632245 -0.6298202 -0.04201135 0.2804328
0000d0 a0 d3 2a 3d 19 c8 29 3e 06 7e a0 3d e8 66 ad 3b
       0.041705728 0.16580237 0.07836537 0.0052918084
0000e0 80 f7 b2 3d e3 cc 18 be 83 18 0d 3f db 83 c0 bc
       0.08738613 -0.14921908 0.55115527 -0.023500374
0000f0 94 ec 15 be c6 52 0d be 18 c2 2a bd 9b 54 20 be
       -0.14641029 -0.13801107 -0.04168901 -0.15657274
000100 14 65 7e be 14 d0 3b be 99 78 26 3f 3e b0 c5 3d
       -0.24843246 -0.18341094 0.6502777 0.09652756
000110 99 b8 f8 bc 04 e4 3d 3e 3a 3b 65 3d a6 44 7f 3e
       -0.03036146 0.18544012 0.055964686 0.24928531
000120 a8 e2 8e 3e 3c ce d6 3e 96 38 21 be 85 82 fc 3c
       0.279073 0.4195422 -0.15744242 0.030823955
000130 6a 42 eb 3d 89 f0 3a 3e c6 5b d6 3e 02 57 f0 3e
       0.11487277 0.1825582 0.41866893 0.46941382
000140 db 14 79 3e 7c 2d b7 3e ba 9c 80 bd 4f 54 8e bd
       0.24324362 0.3577689 -0.06279893 -0.06949674
000150 f9 a0 6f 3e a4 45 40 be e0 f8 3f bd 94 78 44 3e
       0.2340125 -0.18776566 -0.046868205 0.19186622
000160 22 48 b5 bc 2c 61 fa bd 68 3b 1f 3e 94 27 00 3f
       -0.022129122 -0.12225565 0.15550005 0.5006039
000170 62 a8 b9 bd 1c 97 c7 3e 42 c7 11 bd 4d 32 9a 3e
       -0.090653196 0.38982475 -0.035590418 0.301165
000180 4d 20 b6 3c 4a ff a4 be 4a a0 a9 3e 72 42 6c 3e
       0.0222322 -0.3222602 0.33130103 0.23072222
000190 d1 3d 80 3e ef 26 2b 3f 37 1e cb 3c 13 07 25 3f
       0.25047162 0.6685628 0.024794681 0.6446392
0001a0 de 48 92 3e 2b ff 08 3f 35 e1 00 3f 04 32 c6 3d
       0.28571218 0.53514355 0.5034364 0.096775085
0001b0 e9 cb 69 be 8a dc f9 3d 64 38 36 3d 18 80 69 be
       -0.22831692 0.122002676 0.044487372 -0.2280277
0001c0 d8 0c a3 3e 04 98 5f 3d fb 8a ed 3e 19 0d 53 3e
       0.31845737 0.054588333 0.46395096 0.20610465
0001d0 e3 66 28 bd ab 82 1a bf cd 9c 61 3e bd 8b b2 3e
       -0.041113745 -0.60355633 0.22032471 0.34872237
0001e0 05 e9 1d 3b b2 db ef 3d 46 ec 30 3e 3b 66 7e 3d
       0.002409519 0.117118254 0.17277631 0.062109213
0001f0 15 11 81 3e 35 6d 22 be 04 2e 5a 3d 1b 6a a8 3e
       0.25208345 -0.15861972 0.05326654 0.32893452
000200 53 7e b0 3e 3b eb db 3d 67 20 09 bf bf 92 fa 3d
       0.34471378 0.10738226 -0.5356507 0.12235021
000210 67 19 88 3e d9 2b 6e 3d 65 72 55 3e c5 d2 52 3e
       0.2658188 0.058147285 0.2084442 0.20588215
000220 50 2a 6f bd a3 01 87 be cc 60 14 be 24 34 df bd
       -0.05838996 -0.26368436 -0.1449005 -0.10898617
000230 1d 31 7f bd 55 f0 73 3e cd 1f 63 bd 1c a3 6c be
       -0.062302697 0.23822148 -0.05545025 -0.23109096
000240 c2 a0 cf be 62 4f ce be 6d 2f f9 bd 02 95 ea bc
       -0.40552336 -0.4029494 -0.12167249 -0.028635506
000250 8f 26 3c 3e 5f cf 84 bc 14 0c cd 3d ef c6 0b be
       0.18374084 -0.016212163 0.10012069 -0.13650106
000260 94 71 a3 3e 3c c8 e5 bb a1 2b 2a 3e 32 af 34 be
       0.3192259 -0.007012395 0.16618206 -0.17644957
000270 1c 91 fe 3c be d8 32 bf 27 0b 98 3c 09 89 9a be
       0.031075053 -0.6986197 0.018560005 -0.30182675
000280 f2 c3 cc bd fa 51 2c 3f ab 39 b6 bd c6 c9 54 3e
       -0.09998311 0.67312586 -0.08897718 0.20780095
000290 00 33 73 be 93 40 c5 be a6 0b 89 3e ee 6d ac be
       -0.23749924 -0.3852583 0.267667 -0.3367762
0002a0 ea 8d 2a be d2 a2 d5 bd 84 8a 2c bf 98 4a 7c be
       -0.16655698 -0.10431446 -0.6739886 -0.2463783
0002b0 b8 d3 60 3e e4 3c 0f bf ab bc 59 be f5 59 8e 3d
       0.21955764 -0.55952287 -0.21263377 0.06950752
0002c0 98 29 ab 3b 50 59 b1 be 62 03 65 be 2f f8 d3 3e
       0.005223464 -0.34638453 -0.22364572 0.41400287
0002d0 93 22 59 3e 02 40 58 3e a0 78 85 bd 14 23 15 be
       0.21204595 0.21118167 -0.06517148 -0.14564162
0002e0 b3 97 81 3e 32 e3 a2 be 86 ed 66 be d4 06 9f 3d
       0.2531105 -0.3181396 -0.22551546 0.07764974
0002f0 34 e7 d2 3d ad 99 98 3d 20 d7 5c bd 62 b8 c7 be
       0.10298005 0.07451186 -0.053916097 -0.3900786
000300 87 3d ec bd 9d d3 b9 3d 5f e3 2e 3e 0f 60 97 3e
       -0.11535173 0.09073565 0.17078923 0.29565474
000310 f3 82 9e 3e ca ab 66 be 25 e9 8f 3e f1 c0 04 3f
       0.3095928 -0.2252647 0.28107563 0.51856905
000320 b9 fe 70 3e eb d8 b1 3e 7d fb 6a 3e 15 41 a1 bd
       0.23534669 0.34735808 0.22947498 -0.078737415
000330 a0 41 74 3e 2f 20 60 3c 8b f7 a6 3e 28 51 2d 3e
       0.23853159 0.013679548 0.32610735 0.1692549
000340 01 5d c6 3e e4 15 c7 be 2e 8a 78 3d 66 6e 60 be
       0.3874283 -0.3888389 0.060678653 -0.21917114
000350 6e 33 b5 3e aa 76 bf 3e ff 4d b8 bc d5 5d 8f 3d
       0.353908 0.3739522 -0.022498129 0.07000319
000360 88 71 05 3d 2e 14 ba bd 34 d5 24 3e e2 e3 2b 3f
       0.032578975 -0.0908588 0.16096956 0.67144597
000370 7f 14 77 3e a6 6e b4 be a6 f4 89 3e 5c db 22 3f
       0.24128912 -0.35240668 0.26944464 0.63615966
000380 ee a9 f4 bd 5e ee 55 be 08 99 83 bd c0 4d 48 3f
       -0.11946474 -0.20891711 -0.06425673 0.7824364
000390 42 74 cc 3e 75 88 97 3e cd 34 bf 3e ac ac ad 3d
       0.39932448 0.29596296 0.3734497 0.084802
0003a0 00 36 ea 3e 31 b1 63 3e 39 46 89 be 4d dc 51 3e
       0.45744324 0.22235562 -0.26811388 0.20494194
0003b0 f6 ef 5b be fd 59 71 be ff 51 a0 3e 1b 94 99 bd
       -0.21478257 -0.23569484 0.31312558 -0.07498952
0003c0 b8 88 6e 3e ae 2d ac 3e 7d e0 9f 3e b4 a5 3c 3e
       0.23294342 0.336286 0.31225958 0.18422586
0003d0 49 53 2f 3e 78 86 ac be 8e 9f 24 be 45 00 eb 3d
       0.17121615 -0.33696342 -0.1607649 0.11474661
0003e0 1b e7 b1 be 1d 2b 16 be 99 5d 97 be d3 b6 d3 3e
       -0.34746632 -0.14664884 -0.29563597 0.4135042
0003f0 3d b8 04 3d ae 0a 5d bd 4b e9 63 be c5 e1 62 bd
       0.032402266 -0.053965263 -0.22256963 -0.05539109

bias f4 [64]
000000 f8 5f 1f b7 1c 3b 92 37 91 2e 9a 36 f1 81 ed 36
       -9.499483e-06 1.7432081e-05 4.5949787e-06 7.0782776e-06
000010 96 bc ec b7 32 b3 50 36 33 40 2c 38 82 83 06 38
       -2.822121e-05 3.109872e-06 4.1067786e-05 3.2070566e-05
000020 fc ff 7c 37 cf 14 04 b6 93 fc 4d 38 be 58 62 b7
       1.50799715e-05 -1.9681645e-06 4.9111037e-05 -1.3491312e-05
000030 a2 97 77 38 71 3b 1f b8 4b 29 db 37 2b f0 64 37
       5.9030608e-05 -3.7963913e-05 2.6126063e-05 1.36457775e-05
000040 e1 10 66 b8 b1 e4 ec 37 0b c2 4d 38 9e 83 98 38
       -5.4851993e-05 2.8239885e-05 4.9056525e-05 7.2724404e-05
000050 27 db 09 b8 fb a7 e7 b7 ef cc 0d 38 6b 64 fb b5
       -3.2867447e-05 -2.7615568e-05 3.380788e-05 -1.8730183e-06
000060 27 54 53 38 44 ef bc b6 fc 26 0d b8 99 c6 65 38
       5.0384693e-05 -5.630691e-06 -3.3653327e-05 5.4782813e-05
000070 d6 e0 1d b8 44 5e ef 37 8d c7 7d b7 fc 9b a3 b7
       -3.764111e-05 2.8534916e-05 -1.5126437e-05 -1.950375e-05
000080 d4 0d 06 38 ea ae d5 b7 e1 84 0f 37 02 0b ca b7
       3.1960968e-05 -2.547303e-05 8.5544025e-06 -2.4085402e-05
000090 af 78 55 37 62 3b 49 b8 84 05 b6 b7 bc 16 74 37
       1.2723888e-05 -4.797744e-05 -2.169866e-05 1.4548827e-05
0000a0 6c 31 43 38 ab 19 2d b8 fa 2f 88 b7 a1 33 e7 35
       4.653765e-05 -4.127032e-05 -1.6234804e-05 1.7225867e-06
0000b0 2a 42 86 37 21 75 75 b8 ee 8f c6 37 92 e8 db 37
       1.6004855e-05 -5.8521637e-05 2.3670462e-05 2.6215133e-05
0000c0 89 e1 4d b8 ed 3c 9f 38 e3 56 68 b8 b3 4e 91 b7
       -4.9085855e-05 7.593059e-05 -5.539403e-05 -1.7321994e-05
0000d0 83 cc 12 b8 d4 c3 50 b8 ca a6 17 37 ad 5f 9c b8
       -3.499958e-05 -4.9773444e-05 9.039135e-06 -7.456481e-05
0000e0 25 97 33 38 2e c7 0e 38 ba 84 a2 37 14 a3 1c b5
       4.281769e-05 3.404094e-05 1.937371e-05 -5.835184e-07
0000f0 ec 6f 00 b8 13 2b 71 37 99 25 3a b8 93 18 eb b6
       -3.0621813e-05 1.4374748e-05 -4.438087e-05 -7.0064066e-06

weight f4 [64, 64]
000000 50 e9 0e 3e a8 8a da 3d 11 05 85 be 4b 46 92 3d
       0.13956189 0.10670978 -0.25980428 0.071423136
000010 de 32 a4 3d ff 71 af 3c 75 71 26 3e af 7f 3b be
       0.08017515 0.021416662 0.16254218 -0.18310426
000020 48 29 c6 bc 43 75 d3 bd de 17 18 bf 70 1c 30 3e
       -0.024189606 -0.103251 -0.5941142 0.17198348
000030 bd 1f 83 be 65 d3 c7 3d 09 5c 83 be bf 2d d5 3c
       -0.25610152 0.09757117 -0.25656155 0.02602279
000040 d3 33 71 bd 0a 65 e6 bd 7d b3 6f 3e 11 46 85 3d
       -0.058887314 -0.112497404 0.23408313 0.06507505
000050 3e da 80 be ab 76 85 bd 54 1b d0 3e df ba a6 3d
       -0.25166506 -0.06516775 0.4064585 0.081411116
000060 0a b7 b7 3e 7b 64 82 be b6 ad c0 ba 78 f9 11 be
       0.35881835 -0.25467286 -0.0014700207 -0.14255321
000070 53 87 da be dc cd cd 3e c9 0a fa 3d 2f 5a 18 bd
       -0.4268137 0.4019612 0.12209088 -0.03719538
000080 d5 34 8d bd d7 38 a3 be a7 9c 25 be f9 a0 22 3e
       -0.068948425 -0.31879303 -0.1617304 0.15881719
000090 6d b8 cd be 86 27 fe bd 0b 98 5e 3d 9c 99 11 be
       -0.40179768 -0.12409882 0.05434422 -0.14218754
0000a0 e0 72 ee 3d 87 83 77 3e 34 10 b9 3a 79 03 97 bd
       0.116430044 0.24171267 0.0014119209 -0.07373709
0000b0 58 a9 77 3e b3 bc 76 3c 31 8b e7 3e 58 ea 5c 3d
       0.24185693 0.015059638 0.45223382 0.053934425
0000c0 d1 8c 65 be 2c 18 31 be c3 80 8a 3e 13 02 68 bd
       -0.22416998 -0.17294377 0.27051362 -0.056642603
0000d0 20 39 1a be a6 6b 54 be 22 34 37 3e 31 9c a5 bd
       -0.15060854 -0.2074419 0.17890981 -0.08086432
0000e0 e2 18 4a be 56 3a b9 3d 09 56 8a 3d ee 54 d2 bb
       -0.19736055 0.0904433 0.06754691 -0.006418816
0000f0 e3 3c b2 bd 06 fa a4 bb 36 59 a6 be 21 cf e9 3e
       -0.087030195 -0.005034688 -0.32489938 0.4566584
000100 45 ff 31 3e bb dd d4 3d be 5a 93 bc df f1 c7 3d
       0.17382534 0.10393854 -0.017987605 0.0976293
000110 2c 0b 13 3f 95 d0 8d 3e cb b5 a5 3e 77 bf f3 3e
       0.5743892 0.27698198 0.3236526 0.47607014
000120 50 71 07 bc 10 0f 7f 3e 9c bb 44 3c 6f 09 9a 3e
       -0.008266762 0.2490809 0.01200762 0.30085322
000130 04 5d 0c 3e 56 51 a2 3e 3e cf a1 3e 72 78 a5 3e
       0.13707358 0.3170268 0.31603426 0.32318455
000140 53 19 57 3e 6e ff df 3c cf 38 49 bd e7 59 66 3e
       0.21005754 0.027343478 -0.049126443 0.22495233
000150 88 0f db 3d d6 8a a9 bc 00 dc c5 bd b6 37 d5 bd
       0.10696322 -0.020696085 -0.09661102 -0.10411017
000160 fa 24 07 3f e2 1c 3b 3f 4b d1 f1 bd 28 11 24 3e
       0.52790797 0.73090947 -0.118074976 0.1602217
000170 3f a4 5c 3e c8 e4 3e 3e 77 67 20 3f e9 88 63 be
       0.2154703 0.1864196 0.62657875 -0.22220196
000180 eb 57 0a 3e 8b 81 34 bd 2d bf 20 3e 86 20 57 3e
       0.135101 -0.044068854 0.15697928 0.210085
000190 ee 75 db bd 07 7b 41 3d be 5b 86 3c 82 b6 31 bd
       -0.10715853 0.04723647 0.016401168 -0.043386944
0001a0 ff 7c 87 3e 90 23 25 3f b9 c9 6f 3e 84 b0 74 bd
       0.26462552 0.6450739 0.23416795 -0.05973865
0001b0 60 31 89 3e 6b b4 ea bd fc e5 0d 3e e0 bc fb 3d
       0.26795483 -0.11460193 0.13857263 0.122918844
0001c0 3b c9 e9 3d 87 0b 5d bd f8 d7 7f 3e cd c7 09 3e
       0.11415335 -0.05396607 0.2498473 0.13455124
0001d0 b3 a2 ee 3d 3b fd 04 3d 0c 6e 21 be f7 b1 ba 3c
       0.11652126 0.032468062 -0.15764636 0.022789938
0001e0 25 bf ad 3c 3b 53 69 3e 18 eb 77 3e b4 96 54 3e
       0.021209309 0.22785656 0.24210775 0.20760614
0001f0 e0 6a 2e be 4c 31 60 be d8 3f 67 be d7 c8 51 3e
       -0.17032957 -0.21893805 -0.22582948 0.2048677
000200 d5 05 c0 bd ec 84 94 3e d1 92 3b 3e 8c 99 a8 3d
       -0.09376112 0.2900766 0.18317725 0.08232412
000210 49 e2 41 bc 13 73 a1 3d b1 32 e2 be 65 da 9b be
       -0.011833736 0.07883277 -0.441793 -0.3044006
000220 32 36 17 3e d8 ac c6 3e 2c 1e 12 be d1 d2 8b 3d
       0.14766768 0.38803744 -0.14269322 0.068273194
000230 c0 bd 2a be 39 a3 25 be 0e 2d a1 3d 48 ba 2e 3e
       -0.16673946 -0.16175546 0.078699216 0.17063248
000240 f4 06 9b 3d 58 2d bf bd b6 45 ad 3d a4 35 1a 3d
       0.075696856 -0.093348205 0.08460562 0.037648812
000250 08 45 d0 3d 53 50 9d 3c 9a 63 a7 3c a4 b5 bc 3d
       0.10169417 0.01920334 0.020433236 0.09214333
000260 f4 76 16 3f 01 a1 a6 3d 3b 83 cb be 5f 69 1a 3f
       0.5877526 0.08136178 -0.39748558 0.60317034
000270 a7 08 5d be 1f b3 5c 3e 74 29 2b bf 0f 53 dd bc
       -0.21585332 0.21552704 -0.6686013 -0.027017144
000280 2c f9 80 3b e3 6a 08 3f c3 50 a8 3c e8 a8 81 3e
       0.0039359536 0.53288096 0.020546323 0.25324178
000290 80 98 de bb cd e6 d5 3c 7d 40 80 3d 5f a1 c4 bd
       -0.0067930818 0.026111031 0.062623 -0.096010916
0002a0 84 df 25 3d 61 16 a1 3d 15 d9 c1 bd 3d 01 8b bd
       0.040496364 0.078655966 -0.09465233 -0.067873456
0002b0 c0 83 da bc fa 39 db 3d 16 8b 26 3e 0b b3 9d bb
       -0.026674151 0.107044175 0.16263995 -0.0048126034
0002c0 23 8c de 3d b0 6b 93 3d a7 f3 80 be 93 78 cc bc
       0.10866573 0.07198274 -0.25185892 -0.024959838
0002d0 25 14 7b 3e 44 07 3a 3e 13 eb 67 bd a2 b4 e9 3d
       0.24519403 0.18166834 -0.05662067 0.11411406
0002e0 a7 fb a7 bd 1f 91 47 3e 0a 1e e8 3e e0 c0 21 3e
       -0.08202296 0.19488953 0.45335418 0.15796232
0002f0 40 d1 9d 3e 93 54 0e 3e cc 36 b2 3e 69 ae b8 3e
       0.30823708 0.1389945 0.34807432 0.36070564
000300 c4 b2 57 be fe 56 21 3e 84 ac 20 be 4e 55 8b bd
       -0.21064287 0.15755841 -0.1569081 -0.0680338
000310 42 a5 33 be 8b 80 17 bf 78 e2 be bc 7f 93 79 bc
       -0.1754351 -0.59180516 -0.023301348 -0.01523292
000320 7d 1a 83 bd f1 8c 53 3d 63 72 2d be 66 d2 fd bd
       -0.064015366 0.051648084 -0.16938166 -0.12393646
000330 7d 74 55 be 7b e4 29 3e 7a 40 7b 3d 98 bf e3 be
       -0.20845218 0.16591065 0.061340787 -0.44482112
000340 bf 2c 96 be b1 c2 bb be f3 90 91 bd b8 93 d2 3d
       -0.29331014 -0.36671975 -0.07107725 0.10282081
000350 f6 a1 79 be 9d 09 15 bc 52 8e 37 3e e6 db a2 be
       -0.2437819 -0.00909653 0.17925385 -0.31808394
000360 f9 5d aa 3d b5 27 07 be f5 ac 5b 3e d7 3a de be
       0.08318705 -0.13198741 0.21452697 -0.43404266
000370 c0 2f f8 be ca 2a 6a 3d ba aa 00 3e 61 60 84 3e
       -0.4847393 0.057169713 0.12565127 0.2585478
000380 79 46 03 bf 5b c5 70 3e c5 f6 00 3e 8e 72 9f bc
       -0.5127941 0.23512785 0.12594135 -0.019463804
000390 fb 9d 34 bd 33 33 68 3e 0e 38 14 3e 24 0b a0 be
       -0.044095974 0.22675781 0.14474508 -0.312585
0003a0 68 e2 39 be dc a3 77 3e 8c 94 e9 be 05 cb 50 3c
       -0.18152773 0.24183601 -0.45621145 0.012743716
0003b0 8f 31 a4 3c c6 44 ab 3d 99 ab b5 be 86 cc 4d 3d
       0.020043163 0.08362727 -0.3548248 0.050243877
0003c0 21 e8 0d be d2 f3 15 be 32 ff d2 bb 5b 4f 08 bd
       -0.13858081 -0.14643791 -0.006439113 -0.033278804
0003d0 65 c2 c6 bd 22 21 1a be 1c 41 10 be b4 a5 29 3e
       -0.097050466 -0.15051702 -0.14087337 0.16567117
0003e0 d4 89 42 bd ae ac 17 be c7 32 e7 be e0 6c 58 3c
       -0.047494724 -0.14811966 -0.45155928 0.013209552
0003f0 8a 40 55 3e f8 e9 db 3c fd 76 03 be b8 ca 9d be
       0.20825401 0.026844963 -0.12838359 -0.30818725

bias f4 [64]
000000 58 ef 49 3e de 39 54 3d bf ea 6d 3c 46 3c 20 bd
       0.19720209 0.051813 0.0145213 -0.03911998
000010 09 11 59 bd d8 f1 f0 3b b1 c7 27 3d 06 34 ca bd
       -0.05299476 0.007353049 0.040961925 -0.09873204
000020 4c d8 16 bd 6b 68 9b bd 61 1d b7 bd 0f c8 85 bd
       -0.03682737 -0.075882755 -0.089411505 -0.06532299
000030 11 5f e5 bd af d1 27 3c 86 a8 6f 3d 6e e3 7b be
       -0.11199773 0.010242864 0.058510326 -0.24598476
000040 fe ea b5 bd 30 58 b8 bb 7e 2a a3 bd 61 ac c9 3d
       -0.08882712 -0.005625747 -0.07967089 0.09847332
000050 a2 c4 3c be 43 25 a8 3d f1 b3 f4 bd 91 28 78 3d
       -0.18434384 0.08210232 -0.119483836 0.060585562
000060 8e 02 21 3e 6a 3e e2 3b e1 af 8c bd 6b 1a 88 bd
       0.15723631 0.006904413 -0.06869484 -0.06645664
000070 21 ca 6b bd 82 1d 8e 3d 93 4f 8c 3c bd ca 4e bb
       -0.057565812 0.06939222 0.017127788 -0.0031553947
000080 8f d0 d2 bc 4f 3f 38 3e dd f4 b0 3d fa 57 ad bd
       -0.025734214 0.179929 0.08640454 -0.08464046
000090 32 b7 59 3e b9 ec ca 3d bf f0 dc 3d 76 77 ec 3d
       0.2126129 0.099084325 0.10788106 0.11546223
0000a0 17 cd 11 bd 5d 27 02 3c 15 a1 d2 bc 1a cf 35 bd
       -0.03559598 0.007943955 -0.025711576 -0.04438696
0000b0 44 28 0f 3d cf 77 c0 3c 58 0c 41 3e 3a 7b 52 bd
       0.03495051 0.02349463 0.18852365 -0.05138705
0000c0 e5 e3 47 3b 78 c5 ab bc 38 20 9f bc 74 0b fe 3d
       0.0030500826 -0.020968184 -0.019424543 0.12404528
0000d0 58 c1 2a 3e b7 6a 79 be 81 75 c4 bd 82 ca ac bd
       0.16675317 -0.24357115 -0.095927246 -0.08437063
0000e0 d7 42 0c 3e 56 17 0d 3e 81 06 63 3d c0 00 21 be
       0.13697372 0.13778433 0.055426124 -0.15722942
0000f0 18 ea 0e 3e 2f ff a2 bd 2f e7 24 3e 6f 6f 2f bd
       0.13956487 -0.07958829 0.16103815 -0.04283088

w f4 [6, 64, 40]
000000 82 ac 54 be b5 57 db 3e 4c 85 17 be af b4 5c be
       -0.20768932 0.42840353 -0.14796942 -0.215533
000010 e3 33 5b be b7 78 eb bc f9 c7 73 be ff d6 fc 3c
       -0.21406512 -0.028744085 -0.23806752 0.030864237
000020 fa 69 95 3d b8 49 82 3e 3a c3 af 3d 62 ac 49 3f
       0.07295604 0.25446868 0.085821584 0.7877866
000030 27 36 a5 3e 34 44 01 3f a5 1d 07 3d b5 1d ec bd
       0.32267877 0.50494695 0.032987256 -0.11529104
000040 99 10 03 3f 4a c0 ca be 18 02 9d 3e a0 72 a5 bd
       0.511972 -0.3959983 0.3066566 -0.080785036
000050 e4 52 c0 3d 49 51 37 3e f4 88 fa 3c 10 4a c7 bd
       0.0939081 0.17902102 0.030582882 -0.09730923
000060 e9 1b 1a be d1 d2 23 3f a6 7b 09 3d 83 28 32 3c
       -0.1504971 0.63993555 0.033565186 0.010873917
000070 a1 8e fe 3d 2e 57 d8 bc 1c ed d5 bc 4d 00 7b be
       0.12429548 -0.026408758 -0.02611404 -0.24511833
000080 b5 dc a8 3e f1 78 22 bc 25 f7 a0 3e 75 77 c9 3e
       0.32980886 -0.00991653 0.31438556 0.3934895
000090 31 97 2c be 8a b4 28 b9 3e 58 cb be c6 0f 1f be
       -0.1685455 -0.00016088985 -0.3971576 -0.15533361
0000a0 6c e5 80 3e fd c7 a2 bd 46 4c 0c bf e1 a9 8b 3e
       0.25175035 -0.07948301 -0.54803884 0.27278045
0000b0 04 b3 e9 3e a0 fd 6b be de 75 ff 3c a1 b9 c5 be
       0.4564439 -0.23045969 0.031184133 -0.38618186
0000c0 81 d2 23 3e e5 49 d9 3d 12 16 b9 be e9 cb 3d 3d
       0.1599827 0.106097974 -0.3614965 0.046337042
0000d0 80 ed c1 3d 1d b1 39 3d 1e 1e 12 bf 87 e6 ce bd
       0.09469128 0.045334924 -0.57077205 -0.10102563
0000e0 df 54 0d 3c a8 1c 25 bf 66 4c 0b 3f 85 1c 17 bd
       0.008626192 -0.6449685 0.5441345 -0.036892433
0000f0 0c 1e 14 3f d3 23 0e 3f f7 82 95 be cd 94 5f 3d
       0.5785835 0.55523413 -0.2920148 0.054585267
000100 ec 60 9d be 3a 1c 26 3e ef b2 2a be ef 24 16 bf
       -0.30738008 0.16221705 -0.1666982 -0.58650106
000110 d1 fa ad be ef de 53 be 17 ff 01 3f fd 89 60 be
       -0.3398042 -0.20690511 0.5077986 -0.21927638
000120 49 a8 9f be b9 0a 05 3e 41 2e 14 3e 89 0c 22 3e
       -0.3118308 0.12992372 0.1447077 0.15825094
000130 d0 fb 33 3f f8 1a a1 3d 57 f9 4d bd 7b c2 fa 3e
       0.7030611 0.07866472 -0.050286617 0.48976502
000140 27 df 60 3e ac 2a 90 3d 91 67 db be 5e c9 14 bf
       0.21960126 0.07039389 -0.42852452 -0.5811976
000150 69 20 02 be ed d3 07 3d 92 86 56 3e 68 dd 03 3e
       -0.12707676 0.033161093 0.20949772 0.12877429
000160 b5 29 ed bd 8f ed 94 3e ba 3d 8d bd 20 b2 73 3d
       -0.115802206 0.29087493 -0.06896539 0.059496045
000170 98 43 1e 3c c9 24 6f be 2e fb a2 be 4d 32 5e 3e
       0.00965967 -0.23353876 -0.3183226 0.21698876
000180 6d b8 04 3c 9d 35 12 3e e0 eb 69 bd ea b3 e7 3d
       0.008100611 0.14278264 -0.057109714 0.11313613
000190 01 c4 f5 be c0 7b 8b 3d d8 94 03 bf 1f 64 57 be
       -0.48001102 0.06810713 -0.5139899 -0.21034287
0001a0 cb 69 0d 3f 3c d0 10 3e e1 ab 74 be b1 d6 6d 3e
       0.5523955 0.14141935 -0.23893692 0.2322643
0001b0 98 6d e1 bd ab d6 6f 3e c1 08 ad 3d ae 56 11 3f
       -0.110072315 0.23421733 0.08448935 0.5677289
0001c0 86 e5 e7 be 80 79 d6 3e 6b 4a 5f be b6 2f 6e 3e
       -0.452923 0.41889572 -0.21805732 0.23260388
0001d0 d5 ec 2f bd cf 22 8f bd c2 22 b3 be 73 95 fe be
       -0.04295047 -0.06989061 -0.34987456 -0.49723396
0001e0 08 da b4 be e6 a8 8c be 97 fb c1 3d d3 a9 79 3e
       -0.35322595 -0.2747261 0.09471815 0.24381189
0001f0 29 4b ab 3e 71 a3 3b 3d e9 77 49 3f d9 e0 de 3d
       0.3345578 0.045810167 0.78698593 0.1088273
000200 de cd 41 3e 68 ff e5 3d 42 de c3 3e 20 67 9a bd
       0.18926188 0.112303555 0.38255507 -0.07539201
000210 96 c8 81 3e d1 50 80 3e 91 3a 0f 3f be e3 73 3f
       0.25348347 0.25061658 0.5594874 0.9526938
000220 99 9b 80 bd c4 c6 c9 3e 91 d1 07 3e 40 e1 a0 3e
       -0.06279678 0.3940946 0.13263537 0.31421852
000230 af 11 ec 3d 9c 7e 87 3b 55 17 56 3e 93 ae 2f 3f
       0.115268104 0.004134966 0.20907338 0.68625754
000240 92 a7 11 3f eb e4 e3 3e 17 35 cf 3e d5 b6 27 3f
       0.56896317 0.44510588 0.40470192 0.65513355
000250 a1 83 68 be 46 1d 15 3f fc 93 73 3e a8 74 a6 3e
       -0.22706462 0.5824779 0.2378692 0.32510877
000260 b5 f9 80 3e 07 eb 98 3c 2b 6f 8c be 1b 6b 11 3d
       0.2519051 0.018666757 -0.27428564 0.035502534
000270 aa c6 48 be 2b d3 64 be ea 30 1c 3d 0d 02 ee 3d
       -0.19607034 -0.22346179 0.038132586 0.11621485
000280 0f f6 db bd 0a 40 bc be c4 5b 11 bf 49 9b cd be
       -0.10740291 -0.36767608 -0.5678065 -0.40157536
000290 18 8a 04 3d f0 f8 b6 3e 81 a5 08 3f 52 12 0e 3f
       0.03235826 0.357368 0.5337754 0.55496705
0002a0 c5 4f 00 bf fd 54 fd bd 7c 41 0c 3f e6 d0 87 3e
       -0.5012172 -0.12369726 0.5478742 0.26526564
0002b0 3c 33 29 3c 5e 00 28 bf 9a eb 97 be eb b6 86 be
       0.010327157 -0.6562556 -0.29671937 -0.2631143
0002c0 8a a6 ae be 59 b0 17 be fe 0d 27 3e 75 e2 0b bf
       -0.34111434 -0.14813365 0.16313931 -0.5464242
0002d0 ad cf 83 3d 98 3d 7e bd b9 fb 6a be d4 c7 55 be
       0.064360954 -0.06207046 -0.22947587 -0.2087701
0002e0 32 33 b5 3e c8 bf 83 3e 1c 0c 57 3e 62 7e d9 3d
       0.3539062 0.25732255 0.21000713 0.10619809
0002f0 91 5f ea be 04 8d 2e 3c d1 73 95 be e1 0f 8b bd
       -0.45776036 0.010653738 -0.29189923 -0.06790138
000300 69 8e 4c be f0 23 44 bf ec dd 02 3e 82 0a af 3e
       -0.199762 -0.76617336 0.12779969 0.34187704
000310 59 51 77 3e d3 75 30 be e4 02 0c be bf 78 d8 be
       0.24152125 -0.17232446 -0.13672978 -0.42279622
000320 b4 e3 a4 3b 01 36 e0 3c fe 1d af 3d c4 d2 1e 3c
       0.005032027 0.027369501 0.085506424 0.009693805
000330 76 63 24 bd 16 0d 0d 3e c0 61 b6 be db 18 34 bf
       -0.040133916 0.13774523 -0.35621452 -0.70350426
000340 fd e3 9a 3e 47 78 85 3d c5 51 98 3e 90 cf 2b be
       0.30252066 0.06517082 0.29749885 -0.16778398
000350 16 9c d6 3e 34 22 2e 3f f3 56 c2 bd 38 2d a5 3d
       0.4191596 0.6802094 -0.094892405 0.080652654
000360 75 db 31 3e 91 7e 90 bd 6d 8a 16 3f c3 92 0f 3f
       0.17368872 -0.070553906 0.5880497 0.56083316
000370 c7 7b 39 be de 1e e2 3d aa 3f f5 3d 4e 70 87 3e
       -0.18113624 0.11041044 0.119750336 0.2645287
000380 90 0d fd bd 55 19 17 be 9a 40 56 3e c3 be 85 3d
       -0.123561025 -0.14755757 0.20923081 0.065305255
000390 48 ae e8 3e 50 52 82 bd 2d b5 a6 3e 90 b6 85 bd
       0.45445466 -0.06363356 0.325601 -0.06528962
0003a0 0d c5 e2 be 5b dd 26 3f d7 f5 72 be 77 ba 1f bf
       -0.44290963 0.6518151 -0.23726593 -0.623939
0003b0 99 b8 87 be 2e 1c 8a bd 8b 27 20 3e c9 32 5a 3e
       -0.26508024 -0.06743656 0.15640084 0.21308435
0003c0 e7 29 8e be 96 0a ea 3b ce 29 e4 be a7 04 4d 3d
       -0.27766344 0.007142375 -0.44563144 0.050053265
0003d0 b7 da 1e be 48 10 6a bd b1 82 bd be e8 c1 a8 3e
       -0.1551312 -0.057144433 -0.37013772 0.3296044
0003e0 2a b9 67 be 9a 84 d2 3a dc 86 21 3e 6c 77 eb 3e
       -0.22629228 0.0016061247 0.15774101 0.4598955
0003f0 05 fd cb 3d ce 8a 8d 3e 40 f0 e8 3d 62 c3 12 be
       0.09960369 0.27644962 0.11373949 -0.14332345
