policy-consolidation/_oldmodels/test_ppo_lstm_32_frames_128_wallgap_doorkey_crossing_reshaped/status.pt (torch, 430483 bytes, 34 tensors)

image_conv.0.weight f4 [16, 3, 2, 2]
0	0x3ecd31f4	0.40077174
1	0xbe0a7dd7	-0.13524567
2	0xbdeab605	-0.11460499
3	0xbd63089f	-0.055428144
4	0xbe8e90e0	-0.27844906
5	0x3e5782c8	0.21045983
6	0xbeb9a9e3	-0.36262426
7	0xbcfc4977	-0.03079675
8	0x3d94c7f1	0.07264698
9	0xbd10c790	-0.035346568
10	0x3da3fa44	0.08006719
11	0xbd91776c	-0.07102856
12	0x3e1b2547	0.15150939
13	0xbd8fb557	-0.0701701
14	0xbdc84ddc	-0.097804755
15	0x3d1ac969	0.037789736
16	0xbe9b06e1	-0.30278686
17	0xbe97e2ac	-0.29665124
18	0x3e7de4d6	0.24794325
19	0x3d08f84a	0.033439912
20	0xbe26e773	-0.16299228
21	0xbe328872	-0.17434862
22	0xbdbd37b3	-0.092391394
23	0xbd6d3c22	-0.057918675
24	0xbe815cad	-0.25266019
25	0xbcf77836	-0.030208688
26	0x3e270103	0.1630898
27	0xbc5f0ded	-0.01361416
28	0xbf1e37c4	-0.6180384
29	0x3e695049	0.22784533
30	0xbe657995	-0.22409661
31	0x3e5eb58f	0.21748947
32	0x3e431daa	0.19054285
33	0xbe86aaec	-0.26302278
34	0xbeb2564f	-0.34831473
35	0xbe77e64e	-0.24208948
36	0x3e82b934	0.25531924
37	0xbe830014	-0.25585997
38	0x3e1048d5	0.14090283
39	0xbe8e608b	-0.2780803
40	0x3ea96cbf	0.3309078
41	0xbe9bfa9c	-0.30464637
42	0x3e5df62a	0.21675935
43	0xbe66b387	-0.22529422
44	0xbe88e4a3	-0.26736936
45	0x3e2461a1	0.16052867
46	0xbd971e2f	-0.07378804
47	0x3e3895ff	0.18025969
48	0xbdddee11	-0.10836423
49	0xbe969895	-0.29413286
50	0xbed12fab	-0.4085668
51	0xbe39ce97	-0.18145214
52	0x3e70607f	0.2347431
53	0xbd1218d3	-0.035668205
54	0x3e69724a	0.22797504
55	0x3e94e737	0.29082653
56	0x3e0a7f7b	0.13525192
57	0xbe454f6b	-0.19268577
58	0x3d212e36	0.03935071
59	0x3d81a153	0.06329598
60	0xbe643a49	-0.22287859
61	0x3ec1b958	0.3783672
62	0x3de1a946	0.110186145
63	0xbd19e5bd	-0.03757261
64	0xbdb3a0ab	-0.08770879
65	0xbc7ab925	-0.015302931
66	0x3c610ac3	0.013735476
67	0xbe83fda7	-0.2577946
68	0xbe86f813	-0.2636114
69	0xbeb9de55	-0.36302438
70	0x3e2c5ab7	0.1683148
71	0xbe15a5e5	-0.14614065
72	0x3d281864	0.041038886
73	0xbdc157c8	-0.09440571
74	0x3d4c359b	0.04985581
75	0x3d3f8b41	0.046763662
76	0x3db4c01b	0.08825704
77	0x3df75632	0.12076987
78	0xbe81ef35	-0.25377813
79	0x3ea8a551	0.32938626
80	0xbe493b87	-0.19651614
81	0xbe7d93b9	-0.24763383
82	0x3d318416	0.043338858
83	0xbdebec0a	-0.1151963
84	0x3e9a7d9a	0.3017395
85	0xbea6d384	-0.3258325
86	0xbe9b87f6	-0.30377167
87	0x3f0b8301	0.5449677
88	0xbd83d519	-0.064371295
89	0xbdce15d0	-0.10062754
90	0x3d4a87e1	0.04944599
91	0xbe3296c7	-0.1744033
92	0xbd0c020e	-0.034181647
93	0xbd70e7b3	-0.058814716
94	0xbe45ec7c	-0.19328493
95	0xbe8593f7	-0.2608945
96	0x3bbb22c9	0.005710934
97	0xbe60f648	-0.21968949
98	0xbe0d03da	-0.13771
99	0xbe62c42a	-0.22145143
100	0x3ebc6d00	0.3680191
101	0xbe5730e7	-0.21014749
102	0x3ddcd359	0.10782499
103	0x3d0700bf	0.032959696
104	0xbdfcb322	-0.12338854
105	0xbe9d7cb4	-0.30759203
106	0x3ea54b13	0.3228384
107	0xbcc1b136	-0.023644071
108	0x3de488d8	0.111589134
109	0xbe0b710d	-0.13617344
110	0x3dae8537	0.085215025
111	0x3eafa0fc	0.3430251
112	0x3daf2ce3	0.08553483
113	0xbefbfc9d	-0.49216166
114	0xbd8bee61	-0.068325765
115	0xbc7a93e6	-0.015294051
116	0x3db712be	0.08939122
117	0x3dd2bcbc	0.102899045
118	0xbe792af6	-0.24332795
119	0xbe1280b8	-0.14306915
120	0xbe5840b0	-0.21118426
121	0x3e6f366a	0.23360601
122	0x3ef6ef4d	0.48229447
123	0xbe899a95	-0.2687575
124	0x3e122af9	0.14274205
125	0xbe54ff08	-0.20800412
126	0xbe6665a9	-0.22499718
127	0xbe8809ec	-0.2657007
128	0x3e07da63	0.13266902
129	0x3e8f955b	0.28043637
130	0xbe8c4792	-0.27398354
131	0x3d804c68	0.06264573
132	0x3e9b00db	0.3027409
133	0x3e7c832b	0.24659412
134	0x3e9759aa	0.29560596
135	0x3ed206f2	0.41020924
136	0x3dd0f0af	0.10202157
137	0xbd418da7	-0.04725423
138	0xbee2f975	-0.44330946
139	0xbeb94077	-0.36181995
140	0xbdc2010f	-0.09472858
141	0xbbe639cb	-0.0070259324
142	0xbe9d48fb	-0.30719742
143	0x3e5761f6	0.21033463
144	0xbd743106	-0.059617065
145	0xbe745bf6	-0.23863205
146	0x3d64c7d3	0.05585463
147	0xbded914c	-0.11599979
148	0x3c5237f8	0.012830727
149	0x3e11f516	0.14253649
150	0xbea6b36d	-0.32558766
151	0x3e56688d	0.2093832
152	0x3d0e9424	0.034809247
153	0xbd905c3b	-0.070488416
154	0xbe9a6783	-0.30157098
155	0xbe6866eb	-0.2269551
156	0x3d4ec8b1	0.050484363
157	0xbdbf2636	-0.0933346
158	0x3ed38c38	0.41317916
159	0xbe9792ca	-0.2960418
160	0xbe78d418	-0.24299657
161	0x3e6d5a55	0.2317899
162	0xbe320064	-0.17382962
163	0xbe2de46e	-0.1698167
164	0xbe29512f	-0.16534875
165	0xbc7da0b8	-0.015480213
166	0xbd9c6e9b	-0.07638284
167	0xbd84d446	-0.064858004
168	0xbeaa21c3	-0.33228883
169	0xbe108a7d	-0.14115329
170	0xbddad819	-0.106857486
171	0x3e08dd02	0.13365558
172	0xbea20beb	-0.31649718
173	0xbe5d41f0	-0.21607184
174	0x3ea075e8	0.31339955
175	0x3de7325a	0.11288901
176	0x3e392dd6	0.18083891
177	0x3c169be0	0.009192437
178	0xbe480b36	-0.19535527
179	0x3ea4c70e	0.32183117
180	0xbd0c6781	-0.034278397
181	0x3dff51b6	0.12466757
182	0xbc569616	-0.013097307
183	0xbd252cd8	-0.04032597
184	0xbec31ae9	-0.38106468
185	0x3ed47c5d	0.41501132
186	0xbeaf0f24	-0.3419124
187	0xbef5db6e	-0.48018974
188	0xbd137ff5	-0.0360107
189	0xbe37391a	-0.17892876
190	0x3dd38a68	0.10329133
191	0xbde9f70a	-0.11424072

image_conv.0.bias f4 [16]
0	0xbe5dd8af	-0.2166469
1	0xbd247cbe	-0.040158026
2	0xbc423170	-0.011852607
3	0xbe9ce0c4	-0.30640233
4	0xbc4961d6	-0.012291392
5	0xbd731725	-0.059348244
6	0xbe0d6824	-0.13809258
7	0xbe6f94a3	-0.23396544
8	0xbce3e46d	-0.027818883
9	0xbed3bb70	-0.4135394
10	0x3e396994	0.18106681
11	0xbe48a824	-0.1959539
12	0xbe12104c	-0.1426403
13	0x3c5870e5	0.01321051
14	0xbe1e942a	-0.15486208
15	0x3dd568ee	0.104204044

image_conv.3.weight f4 [32, 16, 2, 2]
0	0x3b204293	0.0024453744
1	0x3e660db9	0.22466172
2	0x3dfb715e	0.122774825
3	0x3dfa47f0	0.12220752
4	0xbe21157d	-0.15730853
5	0x3e2c4ead	0.16826887
6	0xbdf8d37c	-0.121497124
7	0x3c88b014	0.016685523
8	0x3dc2ecf1	0.09517849
9	0xbda119af	-0.07866227
10	0x3d0af057	0.033920612
11	0x3c4add33	0.01238184
12	0xbe18b985	-0.1491452
13	0x3da8e1df	0.082462065
14	0xbe0448fd	-0.12918468
15	0xbe5dcdfc	-0.21660608
16	0x3d7f34bb	0.062306147
17	0xbe2af7eb	-0.16696136
18	0xbd0397a1	-0.032127026
19	0x3cb6bc91	0.022306712
20	0x3e1b62c9	0.15174402
21	0x3ec2d4ca	0.3805297
22	0x3e0aa021	0.13537647
23	0xbe0d3293	-0.13788824
24	0x3ded3d6c	0.11583981
25	0xbe0719af	-0.13193391
26	0xbca36ed7	-0.019950313
27	0xbc0de4c3	-0.008660498
28	0x3de54d31	0.11196364
29	0x3f70d18f	0.9406976
30	0x3cfbc83c	0.030735128
31	0x3e6df21f	0.23236893
32	0xbe1c553b	-0.15266888
33	0xbddc95ae	-0.10770737
34	0x3d86613b	0.06561514
35	0xbd6b9a35	-0.05752011
36	0xbdf12e94	-0.11776462
37	0x3d809c0f	0.06279766
38	0xbe393660	-0.18087149
39	0xbe22d0dc	-0.15899986
40	0xbe56c73c	-0.2097444
41	0x3ea76bd8	0.32699466
42	0x3cd417df	0.025890289
43	0xbdf3a9b9	-0.118976064
44	0xbce8e1cb	-0.028427979
45	0x3e54b9c6	0.20773992
46	0xbe0495ab	-0.12947719
47	0xbdb1a6bb	-0.086743794
48	0x3d8623ac	0.065497726
49	0x3c6ae90a	0.014337787
50	0x3d53f6a7	0.051748898
51	0xbd8eb939	-0.06968922
52	0xbd966af4	-0.073446184
53	0x3e5a5c29	0.21324219
54	0x3dd1cbad	0.10243926
55	0x3d06b4cb	0.03288726
56	0x3daba90b	0.08381852
57	0xbd4a22a2	-0.049349435
58	0xbd701af4	-0.058619455
59	0xbe26365c	-0.16231674
60	0xbdd0fd8e	-0.10204612
61	0x3e92815c	0.28614318
62	0x3e39d46f	0.18147443
63	0xbdaaa3cc	-0.08332023
64	0xbc5be1fd	-0.013420579
65	0x3e834e65	0.25645748
66	0xbe67da51	-0.22641875
67	0xbcdbf861	-0.026851835
68	0xbe42a8af	-0.1900966
69	0x3e1fcceb	0.15605514
70	0xbe17cf2e	-0.14825127
71	0xbe17ff2f	-0.14843439
72	0xbda2fa69	-0.07957918
73	0x3da2d5a2	0.079509035
74	0xbcdd8267	-0.02703972
75	0x3dc2d439	0.095131345
76	0xbdab7997	-0.08372801
77	0xb98252d6	-0.0002485725
78	0xbe7938d0	-0.24338078
79	0x3dcef283	0.10104849
80	0xbdbeba38	-0.09312862
81	0x3e2f9327	0.17145978
82	0xbd1e84c1	-0.038700823
83	0xbd730a8d	-0.059336234
84	0xbd1d47b9	-0.03839848
85	0x3efad8bc	0.4899348
86	0xbd3a6173	-0.04550309
87	0xbd8a3349	-0.06748063
88	0xbe0d941b	-0.13826029
89	0x3ce70b08	0.028203502
90	0xbe31237f	-0.17298697
91	0xbcbb2b22	-0.022847716
92	0x3cc51356	0.024057072
93	0x3ec78a42	0.3897267
94	0xbd38dc7e	-0.045132153
95	0x3d494246	0.04913547
96	0xbd8e8c37	-0.069603376
97	0x3d06aa3c	0.032877192
98	0xbe424fc2	-0.18975738
99	0x3e3fb7a9	0.18722405
100	0xbe56eb99	-0.20988311
101	0x3e824f90	0.25451326
102	0xbe6cff1c	-0.23144192
103	0xbd09f041	-0.03367639
104	0xbe215684	-0.1575566
105	0x3ddb7fe2	0.10717751
106	0x3d1b683e	0.03794121
107	0xbe97bf18	-0.2963798
108	0xbe392812	-0.18081692
109	0x3e6b67f2	0.2298887
110	0xbd471c29	-0.04861084
111	0x3b80a726	0.0039261756
112	0xbd77aee1	-0.060469512
113	0x3d9ffa95	0.078114666
114	0xbe29364c	-0.16524619
115	0x3cc7a1c9	0.024369137
116	0xbd0ef3bd	-0.034900416
117	0x3a514338	0.00079827337
118	0xbe5a6b59	-0.21330012
119	0xbda938d5	-0.08262793
120	0xbe5aa06a	-0.21350256
121	0x3dd3c1d7	0.103397064
122	0xb9c9b43c	-0.00038471993
123	0x3caf1bec	0.021375619
124	0x3e2edc8e	0.17076322
125	0xbd4ac1bf	-0.049501177
126	0x3d7b9be1	0.061427955
127	0xbdaca0fd	-0.084291436
128	0xbd9ad47e	-0.07560061
129	0xbe3ee65d	-0.18642564
130	0x3d562ced	0.05228894
131	0xbe2280cc	-0.15869445
132	0xbe29462e	-0.16530678
133	0xbdeea274	-0.11652079
134	0x3d2f5249	0.042803083
135	0x3e99d066	0.30041808
136	0x3cd89d02	0.026442055
137	0xbd429459	-0.047504757
138	0xbc98e3b3	-0.018663263
139	0xbcc71560	-0.024302185
140	0xbe4e09a3	-0.20120864
141	0xbbed8dbd	-0.0072495625
142	0x3dbd6d07	0.09249311
143	0xbd2f7ef6	-0.04284569
144	0x3c863e43	0.01638711
145	0x3dbaf8fa	0.0912952
146	0x3e0b4b07	0.1360284
147	0x3de91d71	0.11382569
148	0x3c0adc08	0.008475311
149	0xbd37135c	-0.044696197
150	0x3dcffc06	0.101554915
151	0xbd085aae	-0.033289604
152	0xbc4220fe	-0.011848686
153	0xbd6c0f31	-0.057631675
154	0x3dfc176c	0.12309155
155	0xbb0e1193	-0.0021677956
156	0xbe7a5dce	-0.24449846
157	0xbeb755b7	-0.35807583
158	0xbe754125	-0.23950632
159	0xbecc7bb2	-0.39938122
160	0xbc1d81e4	-0.009613488
161	0x3d237749	0.03990868
162	0xbe2cc09a	-0.16870347
163	0xbca04c48	-0.019567624
164	0xbcaab7e8	-0.020839646
165	0xbd450c43	-0.048107397
166	0x3bf3ff38	0.007446196
167	0x3da56f40	0.0807786
168	0xbe391396	-0.18073878
169	0xbd97387e	-0.07383822
170	0x3d8ff21e	0.07028602
171	0xbd9df060	-0.077118635
172	0xbe21ef98	-0.15814054
173	0xbe2c2cac	-0.16813916
174	0x3e077d76	0.13231453
175	0x3d513a89	0.051081214
176	0xbc828d48	-0.015936509
177	0x3e04c621	0.12966205
178	0x3d778016	0.060424887
179	0xbd1d4b28	-0.038401753
180	0xbd56c0cc	-0.05242996
181	0xbe68f740	-0.22750568
182	0x3da34fea	0.07974227
183	0xbc94ff4d	-0.018188143
184	0xbd303d45	-0.04302718
185	0xbdc61fc0	-0.096740246
186	0x3e882ee4	0.26598275
187	0x3e1c51c9	0.15265574
188	0xbdd93be2	-0.10607125
189	0xbe3f5f50	-0.18688703
190	0x3e8b5b1a	0.27217942
191	0x3e9ad5e6	0.30241317
192	0x3d3746b8	0.044745177
193	0x3e4fd8a6	0.20297489
194	0x3e636498	0.22206342
195	0xbd1065f5	-0.035253484
196	0xbd199782	-0.037498005
197	0xbe870d7d	-0.26377478
198	0x3db74e82	0.08950521
199	0xbd083426	-0.033252858
200	0x3dcb4078	0.09924406
201	0xbd0280b9	-0.03186104
202	0x3bf7cfaf	0.0075625996
203	0x3e04daa3	0.12974028
204	0x3c9e773b	0.019343963
205	0x3d8b9db2	0.06817187
206	0x3e7e1abe	0.24814889
207	0x3d2b3b7a	0.04180477
208	0xbe434116	-0.19067797
209	0x3e0965dd	0.13417764
210	0xbdfd00a0	-0.12353635
211	0xbe0ea3d9	-0.1392969
212	0x3d280436	0.04101964
213	0x3df10713	0.117689274
214	0x3e3fe966	0.18741378
215	0x3dde3525	0.1084998
216	0x3da309cb	0.07960852
217	0x3e704a40	0.23465824
218	0xbc1b21d3	-0.009468514
219	0xbea56bd7	-0.32308838
220	0x3e3a18a2	0.18173459
221	0xbde96c50	-0.11397612
222	0x3e7409ad	0.23831816
223	0x3e76f9f4	0.24118787
224	0xbe04b9c8	-0.12961495
225	0x3d068aac	0.03284709
226	0x3d268f98	0.040664285
227	0xbe0a2b2a	-0.13493028
228	0x3d9a4fc1	0.07534743
229	0xbda33430	-0.07968938
230	0x3e0bc67d	0.13649936
231	0x3db99f0e	0.090635404
232	0xbe06f1ce	-0.13178179
233	0xbe1bf3a0	-0.15229654
234	0x3e121ae6	0.14268073
235	0x3e99e6d7	0.3005893
236	0x3cfac8d8	0.030613348
237	0xbd220f44	-0.03956534
238	0x3dbae627	0.09125929
239	0x3e319240	0.17340946
240	0x3cdbff55	0.02685515
241	0x3bfcb7ce	0.007712341
242	0x3dacd306	0.08438687
243	0xbd99d9c3	-0.07512238
244	0x3ea843be	0.32864183
245	0x3e43a00a	0.19104019
246	0x3e9ae853	0.30255374
247	0x3e9842f5	0.29738584
248	0x3d8f0e26	0.069851205
249	0xbe566e51	-0.2094052
250	0x3e1ced59	0.15324916
251	0xbdc44cf1	-0.09584988
252	0xbe7d188e	-0.24716398
253	0xbeadc64d	-0.33940354
254	0x3da2ebc7	0.07955127
255	0x3ebcaba9	0.36849716

image_conv.3.bias f4 [32]
0	0xbe0870f3	-0.13324337
1	0xbbbaad8d	-0.0056969584
2	0x3d616461	0.05502737
3	0xbe4586f8	-0.19289768
4	0x3c62d212	0.01384403
5	0xbd809f0d	-0.062803365
6	0xbdf365bf	-0.11884641
7	0xbc021314	-0.007939119
8	0xbd421aca	-0.04738883
9	0x3e19f54c	0.1503498
10	0xbd0fb587	-0.035085227
11	0xbcde2839	-0.027118789
12	0xbdf1a30b	-0.11798676
13	0xbdec7152	-0.11545052
14	0xbc84f0dd	-0.016228134
15	0xbdaf1248	-0.08548409
16	0x3d8d89b4	0.069110304
17	0x3dc6a148	0.09698731
18	0x3cf241d0	0.029572397
19	0xbcdaec57	-0.026724024
20	0xbdca2206	-0.09869771
21	0x3ddd25f5	0.10798255
22	0xbde666ed	-0.112501
23	0xbdd46ce8	-0.10372335
24	0xbd46d369	-0.04854146
25	0xbda9e76c	-0.08296093
26	0xbd97e117	-0.07415979
27	0xbd0eb9a3	-0.034845006
28	0xbd469716	-0.04848393
29	0xbbbf6e15	-0.00584198
30	0xbe00d4a4	-0.12581116
31	0xbd22e611	-0.03977019

image_conv.5.weight f4 [64, 32, 2, 2]
0	0x3d37a9f4	0.044839814
1	0xbdfb5af8	-0.1227321
2	0xbdd30a24	-0.103046685
3	0x3af5eb9c	0.0018762234
4	0xbbf5fc06	-0.00750685
5	0x3ca5a524	0.020220347
6	0x3bead18a	0.0071660923
7	0x3c2f4eac	0.010699909
8	0xbc03611a	-0.008018756
9	0x3d7b4e28	0.061353832
10	0x3d8dff34	0.06933442
11	0xbd8b6b20	-0.06807542
12	0xb8ccb034	-9.7602984e-05
13	0xba438d74	-0.0007459738
14	0x3d88d481	0.06681157
15	0xbe39dba0	-0.18150187
16	0xbd9dfaa7	-0.07713824
17	0x3d64ba05	0.055841465
18	0x3d25049b	0.040287595
19	0xbb849a3c	-0.0040467065
20	0x3d5b1fd3	0.053497147
21	0xbd926301	-0.0714779
22	0xbc79b086	-0.01523984
23	0x3d9c56fb	0.07633778
24	0xbe026d52	-0.12737015
25	0xbd85e591	-0.06537927
26	0x3b96f5d1	0.0046069403
27	0x3cf52d34	0.029928781
28	0xbde374cf	-0.11106264
29	0xbd449b25	-0.04799952
30	0x3dc951b0	0.09830034
31	0x3d87589b	0.06608697
32	0x3d01dfee	0.031707697
33	0x3d2e06a6	0.04248681
34	0xbdd6ccdc	-0.104882926
35	0x3de52466	0.11188583
36	0xbd24fc69	-0.04027978
37	0xbd65b8ba	-0.056084372
38	0x3c998b41	0.01874316
39	0xbd1d2d52	-0.0383733
40	0x3e052e80	0.1300602
41	0x3db5e083	0.08880713
42	0xbe13b9ca	-0.14426342
43	0xbcd1fec5	-0.025634179
44	0x3a9d2955	0.0011990467
45	0xbd031f14	-0.03201206
46	0xbd23de32	-0.040006824
47	0x3e035710	0.1282618
48	0x3d05a27a	0.032625653
49	0xbcf01230	-0.029305547
50	0x3bbe79da	0.0058128657
51	0xbca631cf	-0.020287422
52	0xbd95e43b	-0.07318922
53	0x3d86a93e	0.06575249
54	0xbe218eda	-0.1577715
55	0xbd39b5e2	-0.045339473
56	0x3d885a19	0.0665781
57	0xbdd3138f	-0.10306465
58	0x3d158bad	0.03651016
59	0x3ddfce92	0.10928072
60	0xbd0b78cf	-0.03405076
61	0xbd42b371	-0.04753441
62	0x3d96ef78	0.07369894
63	0xbd9125cb	-0.070872866
64	0x3c8d4e75	0.017249325
65	0x3da343b1	0.079718955
66	0x3d284866	0.04108467
67	0xbc0a8199	-0.00845375
68	0x3dab13fe	0.083534226
69	0x3c4a2532	0.01233797
70	0x3bab7542	0.005232484
71	0x3c29fe1f	0.010375529
72	0xbd92e7fe	-0.07173155
73	0xbdbfe7a9	-0.093703575
74	0x3c8757d9	0.016521381
75	0xbc19102e	-0.009342236
76	0xbdc33422	-0.09531428
77	0xbdb4b7f7	-0.08824151
78	0xbc79e65b	-0.015252675
79	0x3d1b3634	0.03789349
80	0x3e331291	0.17487551
81	0xbdae0158	-0.0849635
82	0xbdd2bd13	-0.10289969
83	0x3ce535ef	0.02797982
84	0x3dfa080a	0.122085646
85	0xbac56712	-0.0015060625
86	0x3dd8744c	0.10569057
87	0x3d4c2e57	0.04984888
88	0xbddf5a03	-0.1090584
89	0x3d8851a1	0.066561945
90	0x3d4b1ed3	0.049589943
91	0xbd5dbfdd	-0.054138053
92	0xbc12cc9e	-0.008959917
93	0xbd0897c7	-0.03334787
94	0xbda9347e	-0.08261965
95	0x3d629a68	0.055323035
96	0x3e097dd2	0.13426903
97	0xbe658635	-0.22414477
98	0x3d6793b6	0.056537353
99	0xbdbe7392	-0.09299387
100	0x3da2992e	0.07939373
101	0x3cbea780	0.02327323
102	0x3b4ab27c	0.003092914
103	0xbd6d3603	-0.057912838
104	0xbe19566b	-0.14974372
105	0xbdb77bd2	-0.08959164
106	0xb9b08e8c	-0.00033675542
107	0xbd5f24e6	-0.05447855
108	0x3dfdf181	0.12399579
109	0xbdaf3976	-0.08555882
110	0x3b40ab83	0.0029399104
111	0xbd6fa132	-0.058503337
112	0xbd0a9c6b	-0.033840578
113	0x3d56a60a	0.05240444
114	0x3c8772f9	0.016534315
115	0xbb6d953e	-0.0036252285
116	0x3da4a102	0.08038522
117	0xbe30b7c8	-0.17257607
118	0xbdf880a2	-0.1213391
119	0xbc8cce3f	-0.01718819
120	0xbade9a8a	-0.0016983312
121	0xbd86d87c	-0.0658426
122	0x3df20ae9	0.11818487
123	0xbd98fbbc	-0.074698895
124	0xbd542c13	-0.051799845
125	0x3d5bacba	0.05363152
126	0x3d9e8b69	0.07741434
127	0x3bd7a62d	0.006581089
128	0xbb662277	-0.0035115757
129	0xbdcff031	-0.10153235
130	0xbd7a50dd	-0.061112273
131	0x3d96e5ae	0.07368027
132	0x3b1f3b49	0.0024296811
133	0x3bf61209	0.007509474
134	0xbda0e44c	-0.07856044
135	0x3e077ba0	0.13230753
136	0x3d2fecf5	0.04295059
137	0xbe06b8bb	-0.13156407
138	0x3d80a580	0.062815666
139	0x3d8a44ee	0.067514285
140	0xbcf7407a	-0.030182112
141	0x3d613635	0.054983336
142	0xbe854a07	-0.2603304
143	0x3d3d1b1b	0.046168428
144	0x3d79c2f4	0.060976937
145	0xbe667ec0	-0.22509289
146	0xbe5b2354	-0.21400195
147	0xbd28f36e	-0.041247778
148	0xbdfb605a	-0.12274237
149	0x3b7ef8c4	0.00389056
150	0xbdb3d67b	-0.08781143
151	0xbd94d143	-0.07266476
152	0xbe5b81fd	-0.21436305
153	0x3e686b1a	0.22697106
154	0xbe82bd3e	-0.25535005
155	0x3d6e3ee7	0.058165457
156	0xbe2786b5	-0.1635998
157	0xbdff7d6a	-0.12475093
158	0x3e6faff9	0.23406972
159	0xbd3de6b9	-0.046362612
160	0xbe29daad	-0.16587324
161	0x3e068714	0.13137466
162	0xbbcf98d7	-0.0063353586
163	0xbd0adece	-0.03390389
164	0xbe491462	-0.19636682
165	0x3da64dfb	0.08120342
166	0x3cb9962b	0.022654613
167	0x3dd1eb96	0.102500126
168	0x3dfc218e	0.123110875
169	0x3d7334b6	0.05937644
170	0xbd8dbc40	-0.069206715
171	0xbdd8f4e4	-0.10593584
172	0xbe79a0e9	-0.24377789
173	0x3d275250	0.040849984
174	0x3e3dfa44	0.185525
175	0xbd39bfc8	-0.045348912
176	0x3d9cfb4f	0.07665121
177	0x3cf694b6	0.030100208
178	0xbc9315b4	-0.017954685
179	0xbd04c0ba	-0.03241036
180	0xbd6a8db2	-0.057264037
181	0x3dea5dc0	0.11443663
182	0xbdd6263d	-0.10456512
183	0xbdf10bed	-0.11769853
184	0xbc0bd73f	-0.008535205
185	0x3e14ebad	0.14543028
186	0xbe1c80c0	-0.15283489
187	0x3c1713db	0.0092210425
188	0xbe1ea9e9	-0.15494503
189	0xbea15c55	-0.31515756
190	0x3de1fd12	0.110345975
191	0x3e3166ae	0.17324325
192	0xbe324ebb	-0.17412846
193	0x3e796341	0.24354269
194	0xbd67c6ea	-0.056586184
195	0xbd16a343	-0.036776792
196	0x3e144a1c	0.14481395
197	0x3e12fb6c	0.14353722
198	0xbd77f980	-0.060540676
199	0x3e582356	0.2110723
200	0xbe5dbb43	-0.21653466
201	0x3e14e562	0.14540628
202	0xbea71a9c	-0.3263749
203	0x3e2c77fc	0.16842645
204	0xbc6ab92d	-0.014326376
205	0x3e286216	0.16443667
206	0x3d901189	0.070345946
207	0x3d94d610	0.07267392
208	0xbd2b7955	-0.041863758
209	0x3e9b8dc4	0.30381596
210	0xbd19a38d	-0.03750949
211	0xbd10c0c2	-0.03534008
212	0xbd7ed745	-0.062217016
213	0xbe0a9f9d	-0.1353745
214	0x3dc0d4c5	0.094155826
215	0x3e560e67	0.20903932
216	0xbdcec1b9	-0.100955434
217	0xbdd188d8	-0.10231179
218	0xbe4c7465	-0.19966276
219	0x3e3e3235	0.1857384
220	0xbde4d22f	-0.11172902
221	0x39eaec58	0.00044808048
222	0xbd243ecb	-0.040098947
223	0x3ba7713f	0.0051099355
224	0xbec8498c	-0.39118612
225	0x3dfeced6	0.124417946
226	0xbe96465d	-0.29350558
227	0xbd6419dc	-0.055688724
228	0xbd18bac4	-0.03728749
229	0x3c7658b6	0.015035799
230	0x3d85044a	0.06494959
231	0x3d9368ae	0.071977004
232	0xbdb7f9fc	-0.089832276
233	0x3d5f9571	0.054585878
234	0xbdd327da	-0.103103355
235	0xbd09f4bf	-0.033680674
236	0xbd8145da	-0.06312151
237	0x3dc7f316	0.09763162
238	0xbe0a7676	-0.13521752
239	0xbdd288fc	-0.10280034
240	0xbe2951cb	-0.16535108
241	0xbde91065	-0.1138008
242	0x3e05b3c5	0.13056858
243	0xbe29a7df	-0.16567944
244	0xbe337942	-0.17526725
245	0x3e307c21	0.17234851
246	0xbe4b221d	-0.19837232
247	0xbd5ab94c	-0.05339937
248	0xbda231c5	-0.07919649
249	0x3dfe4a4b	0.12416514
250	0xbdaefac8	-0.085439265
251	0x3da2daf5	0.07951919
252	0x3d5263fc	0.051364884
253	0xbd162ae2	-0.03666199
254	0xb9cd5fc3	-0.00039171995
255	0xbd913a49	-0.07091195

image_conv.5.bias f4 [64]
0	0x3cf45d88	0.029829755
1	0x3d3ed0c5	0.046585817
2	0xbd2756d6	-0.040854298
3	0x3dd14ef4	0.10220137
4	0x3d0e8112	0.03479106
5	0x3dfc81e5	0.12329463
6	0x3bf1645f	0.0073667015
7	0x3b470078	0.003036527
8	0x3c52812f	0.012848183
9	0xbd362230	-0.044466197
10	0xbb144f7c	-0.0022630384
11	0x3da1809a	0.07885857
12	0xbcb52d76	-0.022116404
13	0xbacb0360	-0.0015488677
14	0x3d3a6687	0.045507934
15	0xbcd0135d	-0.025399858
16	0xbdc0d1bb	-0.09415003
17	0xbc830fc0	-0.015998721
18	0x3d2bacc6	0.041912816
19	0x3def2173	0.11676302
20	0x3d93111d	0.071809985
21	0xbcce254e	-0.025164273
22	0xbe13d681	-0.14437295
23	0xbd4c377e	-0.04985761
24	0x3bac9fae	0.0052680587
25	0x3ac64522	0.0015126804
26	0x3d4d5d5e	0.05013787
27	0x3d749092	0.059708185
28	0x3cf1dfb7	0.02952562
29	0xbbc7d087	-0.0060978564
30	0x3dc1a78a	0.09455784
31	0x3d11034a	0.035403527
32	0xbd53bf5e	-0.051696174
33	0xbd2383b7	-0.039920535
34	0x3d41b84d	0.047294904
35	0xbd3c532f	-0.045977768
36	0xbd8aa3ed	-0.067695476
37	0xbda4e04f	-0.08050596
38	0xbc7ccf04	-0.015430216
39	0x3c67505e	0.014118282
40	0x3d0cf4a5	0.034413
41	0x3d8534d3	0.06504216
42	0x3c27fc70	0.010253057
43	0x3d55be26	0.052183293
44	0x3d4795af	0.048726734
45	0x3dd73ea4	0.105099946
46	0x3d8413dd	0.06449101
47	0xbd1c19ad	-0.038110424
48	0x3d4c902f	0.04994219
49	0x39cde9d0	0.0003927485
50	0xbd9a8125	-0.075441636
51	0xbd48f2f4	-0.049059823
52	0x3d8a007b	0.06738373
53	0x3d7125aa	0.05887381
54	0xbdcc37a4	-0.0997155
55	0x3cd8bb38	0.02645646
56	0xbc17998e	-0.009252919
57	0x3d824a55	0.06361834
58	0x3ce81b74	0.028333403
59	0xbca0441f	-0.019563733
60	0xbd3a0001	-0.04541016
61	0xbc4220d6	-0.011848649
62	0x3dea79da	0.114490226
63	0xbced857c	-0.028994314

memory_rnn.weight_ih f4 [256, 64]
0	0xbd22c446	-0.039737962
1	0xbe9dd2e5	-0.30824962
2	0x3e23116f	0.15924619
3	0x3d001725	0.031272072
4	0x3d2aef5d	0.04173218
5	0x3e35422d	0.17701025
6	0x3d85c35f	0.06531405
7	0xbe412827	-0.18862973
8	0x3d4a925a	0.049455978
9	0xbe1804c5	-0.1484557
10	0x3d873af7	0.066030435
11	0x3d9ee16e	0.07757841
12	0x3de7231f	0.11285996
13	0xbbebe7c1	-0.007199258
14	0x3dd5c860	0.10438609
15	0xbd2654b3	-0.04060812
16	0xbd5cdea2	-0.053923257
17	0x3ddcd382	0.107825294
18	0xbdf82160	-0.12115741
19	0xbc1471f2	-0.00906037
20	0xbe235294	-0.1594947
21	0xbe8ad721	-0.27117255
22	0xbe037aff	-0.12839888
23	0xbd94e6f2	-0.07270612
24	0xbdfecead	-0.12441764
25	0xbdb6ecce	-0.08931886
26	0xba939612	-0.0011259934
27	0xbdaee888	-0.085404456
28	0x3e00b6f8	0.12569797
29	0xbe1c771f	-0.15279816
30	0xbe8efe2a	-0.27928287
31	0xbe078cf6	-0.13237366
32	0xbe1f02fa	-0.15528479
33	0xbd1ff02c	-0.039047405
34	0xbd773d14	-0.060360983
35	0xbebd5e69	-0.36986092
36	0x3d30027b	0.042971116
37	0x3d81042b	0.06299623
38	0x3d1e2470	0.03860897
39	0xbd212d64	-0.03934993
40	0xbd989c6e	-0.074517116
41	0xbdc463c8	-0.09589344
42	0xbd978861	-0.07399059
43	0x3d8284ff	0.06373023
44	0x3d2cc024	0.042175427
45	0xbc69747b	-0.0142489625
46	0x3dfdaa7f	0.12386035
47	0x3ade62e7	0.0016966731
48	0x3db7002f	0.08935582
49	0x3d703cb9	0.05865166
50	0xbd928162	-0.07153584
51	0x3e28e951	0.16495253
52	0x3db1e4cf	0.0868622
53	0xbe4493b0	-0.19196963
54	0xbe1d23b0	-0.15345645
55	0xbd337c00	-0.043819427
56	0xbe182765	-0.14858778
57	0xbe12d0aa	-0.14337412
58	0x3d5e4601	0.05426598
59	0xbcf1dcde	-0.029524263
60	0xbcc64601	-0.024203302
61	0xbc9747fe	-0.018466946
62	0xbe29ff45	-0.16601284
63	0xbe0a5592	-0.13509205
64	0x3cf87b59	0.030332254
65	0xbc2212b4	-0.0098921545
66	0xbe0cba88	-0.13743031
67	0xbd0a79dd	-0.033807624
68	0xbaf6b2db	-0.0018821614
69	0xbd3f4753	-0.04669888
70	0xbe82aeba	-0.2552393
71	0xbe1a20d2	-0.15051582
72	0x3e1c0db9	0.1523961
73	0x3dd0fe51	0.10204757
74	0x3e3dda2e	0.1854026
75	0x3ecf9372	0.4054218
76	0x3e94fd42	0.2909947
77	0x3c576366	0.013146257
78	0x3d8d02fa	0.06885333
79	0x3e1df74b	0.15426366
80	0xbd2c6bef	-0.04209512
81	0xbd32ced4	-0.043654278
82	0x3dac2177	0.084048204
83	0x3c20b7c4	0.009809438
84	0xbd43e330	-0.047824085
85	0xbe0f38c8	-0.13986504
86	0x3f21eb38	0.6324954
87	0xbd06a7e9	-0.032874975
88	0x3d60445c	0.054752693
89	0xbd3a0808	-0.045417815
90	0x3ddb51c2	0.107089534
91	0x3c0e2d08	0.0086777285
92	0xbdafb8b6	-0.08580153
93	0x3d2e60d7	0.042572822
94	0xbbed53c8	-0.0072426535
95	0xbdad2d5a	-0.08455916
96	0x3e1c1a68	0.15244448
97	0xbdbc94dc	-0.0920808
98	0x3defc927	0.11708289
99	0xbebb38c7	-0.36566755
100	0x3d45d225	0.048296113
101	0x3dcc04e0	0.09961867
102	0x3d8bb2a8	0.06821185
103	0x3e9801a0	0.2968874
104	0x3e0fc3e0	0.14039564
105	0xbe0bf6b8	-0.13668334
106	0xbc1464df	-0.009057253
107	0xbe1dfb18	-0.15427816
108	0x3de5e48f	0.11225235
109	0xbd0b2f3e	-0.0339806
110	0xbdbe016a	-0.092776135
111	0x3e8552ee	0.26039833
112	0xbdb688e1	-0.08912826
113	0xbcf2b079	-0.029625164
114	0x3c7de0d0	0.015495494
115	0x3e025e41	0.12731268
116	0xbb2324db	-0.0024893794
117	0xbde1947a	-0.11014648
118	0xba7c7b81	-0.00096314406
119	0xbe09c8ab	-0.13455455
120	0x3d8646fc	0.06556508
121	0xbe249006	-0.16070566
122	0xbda7895f	-0.08180498
123	0xbc6fd742	-0.014638724
124	0xbd0ff817	-0.035148706
125	0xbd27ee6c	-0.04099886
126	0x3df587bf	0.11988782
127	0xbdfb7493	-0.12278094
128	0x3de01553	0.10941567
129	0xbe47ce31	-0.1951225
130	0x3ec842ab	0.39113364
131	0xbe1608cc	-0.14651793
132	0x3d2d4303	0.042300235
133	0x3e145a9a	0.14487687
134	0x3e2997b3	0.16561775
135	0xbe3855db	-0.18001501
136	0xbe7abb9b	-0.24485628
137	0xbd204c3b	-0.0391352
138	0x3dd5fb4c	0.10448322
139	0xbd6ec459	-0.05829272
140	0xbde7cdef	-0.113185756
141	0xbe810d4b	-0.25205454
142	0x3e46a7a7	0.19399892
143	0xbd56d3a7	-0.05244794
144	0x3dd7023a	0.104984716
145	0xbd022b51	-0.03177959
146	0xbd35b7d2	-0.044364758
147	0x3e159c4b	0.14610402
148	0x3cfe9071	0.031074734
149	0xbcf91787	-0.030406727
150	0xbd6f8fee	-0.05848687
151	0x3e437a7c	0.19089693
152	0xbdf915c5	-0.12162355
153	0x3ea5376c	0.32268846
154	0x3def690b	0.11689957
155	0xbe54d76d	-0.20785303
156	0x3eb29aa4	0.34883606
157	0xbddc2372	-0.10748948
158	0xbe89ed33	-0.2693878
159	0xbcf3c453	-0.0297567
160	0x3e831b00	0.25606537
161	0x3e6c05a7	0.23049031
162	0xbdb2fec0	-0.08739996
163	0x3e1444e1	0.144794
164	0x3e01542f	0.1262977
165	0xbddb0456	-0.106941864
166	0xbdd46754	-0.10371271
167	0xbe495f12	-0.19665173
168	0xbc450944	-0.012026135
169	0x3dcb73c0	0.09934187
170	0xbe2559c9	-0.16147532
171	0x3e8a95fe	0.2706756
172	0xbde47980	-0.11155987
173	0x3bd28e3d	0.0064256475
174	0x3cbf04e7	0.023317767
175	0xbd435dbf	-0.047696825
176	0x3e6fcad1	0.23417212
177	0xbe6ce20b	-0.23133104
178	0xbba1e8ca	-0.0049410807
179	0x3db8b1c0	0.09018278
180	0x3eecbf75	0.4623982
181	0x3e54c489	0.20778097
182	0xbcd1a12a	-0.025589544
183	0x3e85b64a	0.26115638
184	0xbcce265d	-0.025164777
185	0x3e8255b4	0.2545601
186	0x3c9f8806	0.01947404
187	0xbda34068	-0.07971269
188	0x3d2e3525	0.04253115
189	0xbe212484	-0.15736586
190	0xbd82d4e0	-0.06388259
191	0xbb8fa33d	-0.004383473
192	0x3d56f7ed	0.052482534
193	0x3e0a5090	0.13507295
194	0x3deff218	0.117160976
195	0x3e35ddf3	0.17760448
196	0x3ccb4328	0.024812296
197	0xbdae612b	-0.08514627
198	0x3ea06cb9	0.3133295
199	0x3e46461a	0.19362679
200	0x3d9aa6ec	0.07551369
201	0xbdb4836c	-0.08814129
202	0x3cd9dfae	0.026595917
203	0xbcbaefbc	-0.022819392
204	0x3d0a49a9	0.033761654
205	0x3dda7fc5	0.10668901
206	0x3e02f246	0.12787732
207	0x3d9641db	0.0733678
208	0xbcc0bf00	-0.023528576
209	0xbe95a178	-0.29224753
210	0x3d459d0c	0.048245475
211	0x3e190aa4	0.14945465
212	0x3e0ed810	0.13949609
213	0xbe86c070	-0.26318693
214	0xbdad51a8	-0.0846284
215	0xbce7907e	-0.028267141
216	0x3ba526ae	0.0050400114
217	0x3da780ac	0.08178839
218	0x3daa3c92	0.08312334
219	0x3da6a579	0.0813703
220	0xbe4248d2	-0.18973091
221	0xbd7f1635	-0.062277038
222	0xbd9af21f	-0.07565712
223	0xbe0f923b	-0.14020626
224	0xbc6b71cb	-0.014370392
225	0xbe4e20d5	-0.20129712
226	0x3dba977b	0.09110924
227	0xbe927942	-0.28608137
228	0xbd0d0fbb	-0.03443883
229	0x3df68d34	0.12038651
230	0xbd1acb75	-0.037791688
231	0x3f0198df	0.5062389
232	0x3e019848	0.12655747
233	0x3dd3ce0a	0.10342033
234	0x3e3db8a8	0.18527472
235	0x3e1d0ed3	0.15337686
236	0xbdae5c2d	-0.08513675
237	0xbde776e0	-0.113019705
238	0x3c686e29	0.0141864205
239	0xbd4f6a08	-0.05063823
240	0xbd11f6c3	-0.03563572
241	0xbd5f9867	-0.0545887
242	0x3e0aa18f	0.13538192
243	0xbba51cea	-0.005038847
244	0xbdad74d0	-0.08469546
245	0x3d8d0654	0.068859726
246	0x3d2f0c9e	0.042736642
247	0xbd3471d1	-0.044053856
248	0xbc3633a4	-0.0111207105
249	0xbb8360b2	-0.0040093297
250	0x3d3cd3d3	0.04610045
251	0xbe3234f3	-0.17403011
252	0x3dd22f80	0.10262966
253	0x3e0e1dc8	0.13878548
254	0x3e1e4b12	0.15458325
255	0xbd0734de	-0.033009402

memory_rnn.weight_hh f4 [256, 64]
0	0xbe310261	-0.17286064
1	0x3d47e509	0.04880241
2	0x3e9c0b98	0.30477595
3	0x3db92a5e	0.09041284
4	0xbe061a32	-0.1309593
5	0xbd2f2682	-0.042761333
6	0xbec8e499	-0.39236906
7	0xbd7d5d2b	-0.06185643
8	0xbda22bf0	-0.07918537
9	0x3cff0838	0.031131849
10	0x3e42ecaa	0.19035593
11	0x3da30a98	0.07961005
12	0xbe9d20ea	-0.30689174
13	0x3d3c7585	0.046010513
14	0xbe51b21c	-0.204781
15	0x3dd3cd4b	0.10341891
16	0xbe0489e8	-0.12943232
17	0xbe3fa0d3	-0.18713693
18	0xbba0704e	-0.0048962003
19	0xbdb941da	-0.09045763
20	0xbdd01020	-0.101593256
21	0xbdb9aa43	-0.09065678
22	0x3e55e06b	0.2088639
23	0x3e274b8d	0.16337414
24	0xbe871a44	-0.26387227
25	0xbe059380	-0.13044548
26	0x3e6c2a48	0.23063004
27	0x3d9d9481	0.076943405
28	0x3ea9c5b4	0.33158648
29	0xbe07b0dd	-0.13251062
30	0xbc4dd499	-0.012562894
31	0xbda164be	-0.07880543
32	0x3eae9d5d	0.34104434
33	0x3e191701	0.14950182
34	0x3bb9fc07	0.005675796
35	0xbdd5cc60	-0.10439372
36	0x3dedbabe	0.11607884
37	0xbeabd852	-0.33563477
38	0x3d0294e0	0.03188026
39	0xbdd74df8	-0.10512918
40	0x3d130094	0.035889223
41	0xbd0ba3ca	-0.03409175
42	0x3df398d2	0.118943825
43	0xbe33cd8c	-0.17558879
44	0x3e23fc6e	0.16014263
45	0xbdcf4cf4	-0.101220995
46	0x3df57f1f	0.11987137
47	0x3e20e61b	0.15712778
48	0xbdb6904a	-0.0891424
49	0x3e5267fc	0.2054748
50	0x3d414e0b	0.04719357
51	0xbce28df1	-0.027655574
52	0xbdab5b3c	-0.08367011
53	0x3deaf64a	0.11472757
54	0xbdecbc1e	-0.11559318
55	0x3e42531c	0.18977016
56	0xbd91772d	-0.07102809
57	0x3da0880e	0.0783845
58	0x3d3d8652	0.046270676
59	0xbdcb5b58	-0.09929532
60	0xbdd236b4	-0.1026434
61	0xbdab7b25	-0.08373097
62	0x3a9190e0	0.0011105798
63	0xbe34de88	-0.17663014
64	0xbd9abdc1	-0.07555724
65	0x3d91e1a7	0.07123118
66	0x3dcc60d3	0.09979405
67	0x3e49d0ee	0.19708607
68	0x3e2caff6	0.16863999
69	0x3d6f26f1	0.058386747
70	0x3d8a6b9d	0.06758807
71	0xbd925ce6	-0.07146625
72	0x3dca7673	0.09885874
73	0xb8fa1164	-0.00011924168
74	0xbe7da629	-0.24770416
75	0x3b61c78a	0.003445121
76	0x3c2202ff	0.00988841
77	0xbd5185be	-0.051152937
78	0xbe2aff70	-0.16699004
79	0xbe045ba6	-0.12925586
80	0xbe004fbb	-0.12530415
81	0x3e717283	0.23578839
82	0x3e4e1ec1	0.20128919
83	0xbe07b0dc	-0.1325106
84	0xbda3ca7f	-0.079976074
85	0x3e77d33a	0.2420167
86	0xbc56cd7e	-0.013110517
87	0x3d1ae495	0.03781565
88	0xbc2df1db	-0.010616745
89	0x3d83cf4b	0.06436022
90	0x3d29736c	0.04136984
91	0xbe7bb2cd	-0.24579926
92	0x3e1e67a9	0.1546923
93	0x3db5eeac	0.08883414
94	0x3d8ae00a	0.06781013
95	0xbe5eae65	-0.21746214
96	0xbe6046cf	-0.21902011
97	0x3d3e7906	0.046502136
98	0x3e57ca9a	0.2107338
99	0xbe51acfe	-0.20476148
100	0xbd75370e	-0.059866957
101	0x3c44eb90	0.012019053
102	0x3e744f4f	0.23858379
103	0xbe1f0e86	-0.15532884
104	0xbe2dacf5	-0.16960509
105	0x3e3225ed	0.1739728
106	0x3d55200a	0.052032508
107	0xbe053c34	-0.13011247
108	0x3e15cdc2	0.14629272
109	0x3e6dfc71	0.2324083
110	0xbe64386e	-0.22287151
111	0xbe6c5398	-0.23078763
112	0x3dd5a10b	0.10431107
113	0x3e215e54	0.1575864
114	0xbdc4e41c	-0.09613821
115	0xbcdb0ad1	-0.026738556
116	0x3d96b174	0.07358065
117	0x3e5a0f22	0.21294835
118	0xbe87fc0a	-0.26559478
119	0x3e7f50eb	0.24933212
120	0x3e0b799a	0.13620606
121	0x3ce553db	0.027994087
122	0xbd3a9b74	-0.045558408
123	0xbd4928e0	-0.049111247
124	0x3cdd4f13	0.027015245
125	0xbd63ebae	-0.055644684
126	0x3a9a5b40	0.0011776462
127	0x3e3e3c49	0.18577684
128	0x3d491ef9	0.049101803
129	0xbe25808a	-0.16162315
130	0xbe5d625f	-0.21619557
131	0x3da3131f	0.079626314
132	0x3cbdb8d0	0.023159415
133	0xbdd4bea6	-0.10387926
134	0xbd1087a1	-0.035285596
135	0x3c2f2621	0.010690243
136	0xbe274b8c	-0.16337413
137	0x3c1dcc31	0.009631203
138	0x3c6e2c03	0.01453686
139	0xbd885c3c	-0.06658217
140	0x3e830d96	0.25596303
141	0x3c8e7606	0.017390262
142	0xbb425bd7	-0.0029656792
143	0xbe3a5405	-0.18196113
144	0xbd8cb340	-0.06870127
145	0x3e376636	0.17910084
146	0xbe4592f5	-0.19294341
147	0xbd033be4	-0.032039538
148	0x3d815ca0	0.06316495
149	0xbd93b3aa	-0.072120026
150	0xbd569941	-0.052392248
151	0xbd397c0d	-0.04528432
152	0xbda57eac	-0.08080801
153	0xbd1fa517	-0.0389758
154	0x3d932aef	0.07185923
155	0xbda693be	-0.08133648
156	0x3c82ada8	0.015951946
157	0x3d49f7ed	0.049308706
158	0x3e98cbcc	0.29842985
159	0x3e41f673	0.18941669
160	0xbdca8d8a	-0.09890278
161	0x3dcfb9a6	0.101428315
162	0x3d4d2412	0.050083227
163	0xbd496464	-0.049168006
164	0x3d8a6b9c	0.06758806
165	0xbde1f085	-0.110322036
166	0xbd34fbc0	-0.0441854
167	0x3ddf1416	0.10892503
168	0xbd45b3d1	-0.04826719
169	0x3e2f4018	0.17114294
170	0x3d42052b	0.04736821
171	0x3cd6c443	0.026216632
172	0xbd5fa17f	-0.054597374
173	0x3e5c8d15	0.21538194
174	0x3e318086	0.17334184
175	0xbd971909	-0.07377822
176	0xbc960d6d	-0.018316949
177	0x3ccdc785	0.025119552
178	0x3e2afbca	0.16697612
179	0x3d5fe864	0.054664984
180	0x3d794b95	0.060863096
181	0x3d0f7a68	0.035028845
182	0x3dbaf59e	0.09128879
183	0x3bd97070	0.006635718
184	0x3d415a37	0.047205176
185	0x3e1bad14	0.15202743
186	0xbdc8b6bd	-0.098004796
187	0xbe1edfac	-0.15515012
188	0xbd2f736d	-0.042834688
189	0x3e2930b5	0.16522487
190	0xbdab7088	-0.08371073
191	0xbdd65511	-0.10465444
192	0xbd00b448	-0.03142193
193	0xbd916bd2	-0.07100643
194	0xbc32c8f7	-0.010912172
195	0xbd7dc311	-0.061953608
196	0xbe1d13f2	-0.1533964
197	0xbe11d028	-0.14239562
198	0xbd747ecf	-0.059691247
199	0xbaf8eb02	-0.0018990936
200	0xbe327191	-0.17426135
201	0x3d983b43	0.07433178
202	0xbdc89633	-0.09794273
203	0xbe7fe974	-0.24991399
204	0xbe1785dc	-0.14797157
205	0xbe1ed4db	-0.15510885
206	0xbcdf2443	-0.02723897
207	0xbc1c111c	-0.009525564
208	0xbe2843be	-0.16432092
209	0xbdb82780	-0.08991909
210	0xbda600ca	-0.08105619
211	0xbd312317	-0.043246355
212	0xbdafbaae	-0.08580528
213	0x3d138ebf	0.036024805
214	0xbdc5afb1	-0.09652651
215	0x3d914233	0.070927046
216	0xbe10f3e4	-0.14155537
217	0x3dd3106f	0.10305869
218	0xbb0c095b	-0.002136788
219	0xbe6d97f9	-0.23202504
220	0x3e81ad34	0.25327456
221	0xbc88be74	-0.016692378
222	0xbefc8d0c	-0.4932636
223	0xbeaec690	-0.34135866
224	0x3de33c3a	0.11095472
225	0x3d4f6c88	0.050640613
226	0xbe649af7	-0.2232474
227	0xbd9bc4ce	-0.07605897
228	0xbe293932	-0.16525725
229	0xbe05c691	-0.13064028
230	0x3e5e22bf	0.21692942
231	0xbe70a58e	-0.23500654
232	0x3d38c875	0.045113046
233	0x3db8dc2f	0.09026372
234	0xbdcd66f1	-0.100294
235	0x3e456b3f	0.19279192
236	0x3d1bb111	0.03801066
237	0xbde40343	-0.111334346
238	0xbe432573	-0.19057254
239	0x3c2b3007	0.010448462
240	0xbcd4fc2b	-0.02599915
241	0x3d889140	0.06668329
242	0xbd1fd6ea	-0.039023317
243	0x3e281f47	0.16418181
244	0xbd367fe3	-0.044555556
245	0xbe0a58cd	-0.13510437
246	0xbc884590	-0.016634732
247	0xbd6016af	-0.054709133
248	0xbd0b2174	-0.03396745
249	0x3b971ab8	0.0046113394
250	0xbe3b4eb9	-0.18291749
251	0xbe3a9c98	-0.18223798
252	0xbc7cf922	-0.015440257
253	0x3ce46b9b	0.027883342
254	0x3c8fda02	0.017560009
255	0xbdcac3f9	-0.0990066

memory_rnn.bias_ih f4 [256]
0	0x3d92d91c	0.071703166
1	0xbdc627fd	-0.09675596
2	0xbd94a9aa	-0.07258923
3	0x3ce6caa8	0.028172806
4	0xbd2d9496	-0.04237803
5	0xbd7d959a	-0.06191025
6	0xbd1cc71f	-0.038275834
7	0x3d5d31cb	0.054002564
8	0xbb7f9711	-0.0038999955
9	0xbdc7044f	-0.09717619
10	0xbd023a7f	-0.031794067
11	0xbcd1ec67	-0.02562542
12	0xbde3095b	-0.11085769
13	0xbe403e68	-0.18773806
14	0xbceb02f4	-0.028687932
15	0xbde0e4f3	-0.109811686
16	0xba67b092	-0.0008838262
17	0xbdbe8811	-0.09303296
18	0xbd70a934	-0.058755115
19	0x3d1652f3	0.0367002
20	0x3d478403	0.04870988
21	0xbdccc82d	-0.09999118
22	0x3eb2cd11	0.34922078
23	0xbd93034b	-0.071783625
24	0xbd9f9f0b	-0.07794007
25	0xbb85f6b7	-0.0040882486
26	0xbda78a8b	-0.08180722
27	0x3d631080	0.055435658
28	0x3d9797e8	0.07402021
29	0xbda4ae64	-0.08041075
30	0xbce3cd5c	-0.027807884
31	0xbceb6c5f	-0.028738199
32	0x3d2a34bc	0.041554198
33	0x3debae53	0.11507859
34	0x3da2403e	0.079224095
35	0xbe0df4be	-0.13862893
36	0x3f11b114	0.56910825
37	0x3e1b6861	0.15176536
38	0xbcc4f3f6	-0.02404211
39	0xbd1399ef	-0.036035474
40	0x3dbfa269	0.09357149
41	0x3e26052e	0.16212913
42	0x3dc79f05	0.097471274
43	0x3baf443b	0.00534871
44	0xbd29184a	-0.04128293
45	0xbe0d6554	-0.13808185
46	0x3c23bcc7	0.0099937385
47	0x3e81f7e4	0.25384438
48	0x3e05cc25	0.13066156
49	0x3c463a67	0.012098885
50	0x3d9043a2	0.0704415
51	0x3e855f01	0.26049045
52	0x3bddba5d	0.006766601
53	0x3e8b57e6	0.272155
54	0x3d09a01d	0.03359996
55	0x3d201e40	0.03909135
56	0xbd3b83ee	-0.045780115
57	0x3dc602da	0.09668513
58	0x3c434414	0.011918087
59	0x3d4b9b50	0.049708664
60	0x3eabb48a	0.33536178
61	0x3d9f6680	0.07783222
62	0x3e956285	0.29176727
63	0x3d1a2c3c	0.03763984
64	0x3dfc03f9	0.12305445
65	0x3da2fc71	0.079583056
66	0x3ddc33f4	0.10752097
67	0xbe3ab9d7	-0.18234955
68	0x3d17fa1e	0.037103765
69	0x3bda72fa	0.0066665383
70	0x3d7b9b17	0.061427202
71	0x3cdf6104	0.02726794
72	0xbd600903	-0.054696094
73	0xbd664a18	-0.056223005
74	0x3de8b186	0.11361985
75	0xbcdab02d	-0.026695335
76	0x3d9b1bca	0.0757366
77	0x3e42d086	0.19024858
78	0xbdde71d3	-0.10861554
79	0x3c0cd3a3	0.00859538
80	0x3c9b2846	0.018940102
81	0x3d6cde6f	0.057829317
82	0x3d2ed150	0.042680085
83	0x3e2bc954	0.1677602
84	0x3e18d925	0.14926584
85	0xbdb6d325	-0.089269914
86	0x3e14ee40	0.1454401
87	0xbde13c42	-0.109978214
88	0xbd08a976	-0.033364736
89	0xbd93eef0	-0.07223308
90	0x3cdd205a	0.026992965
91	0x3e4ad1b1	0.19806553
92	0xbd377585	-0.04478981
93	0xbe0d9055	-0.1382459
94	0x3c9381b2	0.01800618
95	0x3e12c35f	0.1433234
96	0xbe110a9d	-0.14164205
97	0x3e901e72	0.28148228
98	0x3da476fa	0.080305055
99	0x3dc96770	0.09834182
100	0x3e8ea61a	0.278611
101	0xbe1befb0	-0.15228152
102	0x3d9c6737	0.07636874
103	0xbd6200af	-0.055176433
104	0x3d9e16dd	0.077192046
105	0x3cf1b928	0.029507235
106	0x3dc02f7f	0.09384059
107	0xbd694dd2	-0.05695898
108	0xbd52ccff	-0.05146503
109	0x3e89260c	0.2678684
110	0x3e2fbab8	0.17161071
111	0x3b4acaa6	0.0030943542
112	0xbd23a1c6	-0.0399492
113	0xbd25b7d1	-0.040458504
114	0x3d82e64e	0.063915834
115	0xbd95e547	-0.07319122
116	0x3c9e1157	0.019295378
117	0x3e173a7f	0.14768408
118	0x3cf1fe51	0.029540213
119	0x3e4badd7	0.19890533
120	0xbd348233	-0.04406948
121	0x3d5c1534	0.05373116
122	0x3d95b48c	0.07309827
123	0x3deea06a	0.1165169
124	0x3decb414	0.11557785
125	0x3d90f473	0.07077875
126	0x3d4ad411	0.04951865
127	0xbd63b670	-0.055593908
128	0x3d759e9f	0.059965726
129	0xbdb9d853	-0.09074464
130	0xbd890f77	-0.06692403
131	0x3d90aa97	0.070637874
132	0x3d112d97	0.03544387
133	0x3d3c8ebe	0.046034567
134	0x3ed6a89f	0.41925523
135	0xbe0c82d6	-0.13721785
136	0x3cb9a5ef	0.022662131
137	0xbd034638	-0.032049388
138	0x3d7635b2	0.0601098
139	0x3d82b81a	0.06382771
140	0x3da298e8	0.07939321
141	0x3b05bea2	0.0020407815
142	0xbc3ebfe4	-0.01164243
143	0xbd9c6e10	-0.0763818
144	0x3cbcdd5c	0.023054771
145	0x3d256c84	0.04038669
146	0xbdd62145	-0.104555644
147	0x3d92d47c	0.071694344
148	0x3db49dfc	0.08819196
149	0x3d2b5525	0.041829247
150	0xbeaffeb0	-0.34374
151	0x3d4c9279	0.049944375
152	0x3e1ec2a1	0.15503933
153	0xbe5aa3c1	-0.2135153
154	0xbc9a52ce	-0.018838312
155	0x3e015c5d	0.1263289
156	0xbd819595	-0.06327359
157	0xbd2eb7a2	-0.042655595
158	0x3d2a99a1	0.04165042
159	0x3d6eee81	0.058332924
160	0xbe11438b	-0.14185922
161	0xbd3e207f	-0.04641771
162	0xbd98aadd	-0.074544646
163	0xbcc335d2	-0.023829374
164	0xbee52fb7	-0.44762966
165	0x3d89fc78	0.06737608
166	0xbd2f1b40	-0.042750597
167	0x3dcf7a7c	0.10130784
168	0x3d26a2b0	0.040682495
169	0xbe45c02d	-0.1931159
170	0xbdf903f4	-0.12158957
171	0xbe011e85	-0.12609299
172	0xbda52d68	-0.08065301
173	0xbe08f0e1	-0.13373138
174	0x3e00cf82	0.12579158
175	0x3e678333	0.22608642
176	0xbde2118f	-0.11038505
177	0xbde79010	-0.113067746
178	0xbd165df4	-0.036710694
179	0x3e17d82c	0.14828557
180	0xbdc67caa	-0.096917465
181	0xbe812626	-0.25224417
182	0x3dfc349b	0.12314721
183	0xbd974001	-0.07385255
184	0xbda47a60	-0.08031154
185	0xbe3b5932	-0.18295744
186	0x3df1ca6f	0.11806189
187	0xbc7fc55b	-0.015611018
188	0x3de7c591	0.1131698
189	0x3d263dda	0.04058633
190	0x3df8c8df	0.12147688
191	0x3d0ea856	0.034828506
192	0x3da24751	0.07923759
193	0x3d23259c	0.03983079
194	0x3d8705ad	0.065928794
195	0xbbc7a17b	-0.006092248
196	0x3e435ec9	0.19079126
197	0x3e12e8d2	0.14346626
198	0xbe015a29	-0.1263205
199	0x3da1c44d	0.078987695
200	0x3de37810	0.111068845
201	0xbd3f8634	-0.046758845
202	0x3d2cd065	0.042190928
203	0x3d7c5094	0.061600283
204	0x3d1ff926	0.039055966
205	0x3d155787	0.036460426
206	0xbccb216f	-0.024796216
207	0x3da31432	0.07962836
208	0x3e4c82a1	0.19971706
209	0xbdc5fda1	-0.096675165
210	0x3e12f647	0.1435176
211	0xbc43632d	-0.011925501
212	0x3e0bb7bc	0.13644308
213	0xbbd2c96e	-0.0064327037
214	0x3dfd0324	0.12354115
215	0xbd0e711e	-0.034775846
216	0x3dc82762	0.09773137
217	0xbddf5a1b	-0.10905858
218	0x3d5348d0	0.05158311
219	0xbddbd6e0	-0.107343435
220	0xbd1a098c	-0.03760676
221	0xbe2b61a8	-0.16736472
222	0x3e77c153	0.24194841
223	0xbd8452f1	-0.06461132
224	0xbd11cd76	-0.035596333
225	0xbba36fec	-0.0049877074
226	0x3e0e7b6d	0.1391427
227	0xbde4cb3e	-0.11171578
228	0x3c860eaa	0.016364414
229	0xbe89cd47	-0.26914427
230	0x3da7f585	0.08201126
231	0x3dddff52	0.10839714
232	0xbda8825e	-0.082279906
233	0x3e1cdfed	0.15319796
234	0x3d811831	0.06303442
235	0x3db5abc7	0.088706546
236	0x3de43684	0.111432105
237	0x3d24071e	0.04004585
238	0x3e74be57	0.23900734
239	0x3da72aa0	0.08162427
240	0x3c6aea03	0.014338019
241	0x3cc50844	0.024051793
242	0x3ccfa8d1	0.025349053
243	0x3e5d5742	0.21615317
244	0xbd3aabb2	-0.045573898
245	0x3e10fa8c	0.14158076
246	0xbb0e05f3	-0.0021671026
247	0x3caeef7e	0.021354433
248	0xbd43b95d	-0.047784198
249	0xbe1a13c3	-0.15046601
250	0xbd57b40e	-0.052661948
251	0xbcff2cf6	-0.031149369
252	0x3b43ae4a	0.0029858523
253	0x3dea5f5a	0.11443968
254	0x3e8ae204	0.2712556
255	0x3d510abd	0.05103563

memory_rnn.bias_hh f4 [256]
0	0xbdb71f28	-0.089414895
1	0x3d8da0db	0.06915446
2	0x3c0662a0	0.008202225
3	0x3dd627ac	0.104567856
4	0x3e216696	0.1576179
5	0x3d002f3b	0.031295042
6	0xbdafcd92	-0.08584131
7	0xbcd94185	-0.0265205
8	0x3d1c8411	0.038211886
9	0xbd248a32	-0.040170856
10	0xbd1667d7	-0.036720123
11	0x3e094ae1	0.1340747
12	0x3d808c83	0.062768005
13	0xbe1998cc	-0.14999694
14	0x3cd012e6	0.025399636
15	0xbdca97c9	-0.09892232
16	0x3de25d21	0.11052919
17	0x3d4ad1c1	0.049516443
18	0x3d2b1ffc	0.04177855
19	0xbda8f76a	-0.082503155
20	0x3df567d8	0.11982697
21	0x3db2e879	0.08735747
22	0x3ea5b45f	0.32364175
23	0xbd084d7f	-0.03327703
24	0x3e0ed578	0.1394862
25	0xbdfed5e8	-0.12443143
26	0xbd45d54c	-0.04829912
27	0x3e322b4a	0.17399326
28	0xbdaec004	-0.08532718
29	0xbe5516a7	-0.20809422
30	0x3e2422e6	0.16028938
31	0xbb609aa8	-0.003427187
32	0x3dd71624	0.1050227
33	0xbcb72e23	-0.022360867
34	0xbd679fa7	-0.05654874
35	0xbc8ed946	-0.017437588
36	0x3f04abb9	0.5182453
37	0x3e492b7a	0.19645491
38	0x3de23065	0.11044387
39	0xbd709e03	-0.05874444
40	0x3d804743	0.06263592
41	0xbd051118	-0.032487005
42	0x3cfab931	0.030605884
43	0x3c5087b9	0.012727671
44	0xbd97d5ac	-0.074138016
45	0xbd918169	-0.07104761
46	0x3d40e544	0.047093645
47	0x3e0bd085	0.13653763
48	0x3e54783d	0.20748992
49	0x3d1b784c	0.03795652
50	0x3ca60537	0.020266159
51	0x3e070d14	0.13188583
52	0xbd3f5d36	-0.046719752
53	0x3f03b679	0.51450306
54	0xbd44137b	-0.04787014
55	0xbd1d23ae	-0.038364105
56	0xbd16e662	-0.036840804
57	0x3dd0239a	0.101630405
58	0xbd97377b	-0.07383629
59	0x3ca0219e	0.01954728
60	0x3e9c91c2	0.30579954
61	0xbd978874	-0.07399073
62	0x3e00fcbd	0.12596412
63	0x3e027781	0.127409
64	0x3ddac5b1	0.10682238
65	0x3e209fe9	0.15686001
66	0x3e0e19bf	0.13877009
67	0x3d64846b	0.055790346
68	0x3d3a451a	0.045476057
69	0xbd513fd8	-0.051086277
70	0x3c80884f	0.015689997
71	0x3d85fb9d	0.06542132
72	0xbd99dd1a	-0.07512875
73	0xbe414e23	-0.18877463
74	0x3e56d1cd	0.2097847
75	0x3dc35123	0.0953696
76	0x3dcfa916	0.101396725
77	0x3d7e12ac	0.062029526
78	0x3d7603e2	0.060062297
79	0x3d86a4be	0.06574391
80	0xbcd14c24	-0.025549002
81	0xbc7340ef	-0.014847024
82	0xbca780a5	-0.020447085
83	0x3e30bcee	0.17259571
84	0x3d935c7d	0.07195375
85	0xbd0085ac	-0.03137748
86	0x3dde125c	0.108433455
87	0xbe103b67	-0.1408516
88	0x3d89c840	0.06727648
89	0xbdedc578	-0.1160993
90	0x3e0d4c47	0.13798629
91	0x3cfb162d	0.030650223
92	0x3de1ee7a	0.11031814
93	0xbe47350c	-0.1945383
94	0xbd19c136	-0.037537776
95	0x3c453761	0.012037129
96	0xbdb8dd3c	-0.09026572
97	0x3e887dc4	0.26658452
98	0xbd4319e6	-0.04763212
99	0x3d8a27fc	0.06745908
100	0x3ef24544	0.4731847
101	0xbc56dfbf	-0.013114869
102	0x3d90eccf	0.07076418
103	0x3caa7050	0.020805508
104	0x3e0b7f3a	0.13622752
105	0x3d628c7a	0.05530975
106	0xbd0ee005	-0.03488161
107	0xbcfb9ce7	-0.030714465
108	0x3db3d28b	0.08780392
109	0x3e3b3ab7	0.18284117
110	0x3e2b7090	0.16742158
111	0x3d10b49f	0.035328504
112	0xbbb53228	-0.0055296607
113	0xbd9e4573	-0.0772809
114	0xbc8abb86	-0.016935121
115	0xbe0a8ab1	-0.13529469
116	0x3e7065b7	0.23476301
117	0x3db26aed	0.08711801
118	0x3da3601d	0.079773165
119	0x3dd0a421	0.10187555
120	0x3c439c50	0.011939123
121	0x3b71624b	0.0036832269
122	0xbd8c3706	-0.068464324
123	0x3d8ba288	0.0681811
124	0x3db1fefe	0.08691214
125	0xbd406c6e	-0.046978407
126	0xbd4dfd31	-0.05029029
127	0x3d549bce	0.0519064
128	0xbcdc03f6	-0.026857357
129	0xbda420cd	-0.08014069
130	0xbd86612d	-0.065615036
131	0x3db7a79d	0.089675166
132	0x3da428a7	0.08015566
133	0x3e13e787	0.1444379
134	0x3e6be221	0.2303548
135	0xbd424a07	-0.04743388
136	0x3e066fb0	0.13128543
137	0xbd9ba123	-0.07599094
138	0x3d8da313	0.069158696
139	0x3e353fd2	0.17700127
140	0x3d5f20a0	0.054474473
141	0xbcf9cad6	-0.030492228
142	0x3d2bc8c0	0.041939497
143	0xbcfd278f	-0.030902652
144	0x3cd3e270	0.02586481
145	0x3c88137a	0.01661085
146	0xbe1d2a01	-0.15348054
147	0xbaaf8aeb	-0.0013392841
148	0x3e0361e9	0.12830319
149	0xbe1302da	-0.14356557
150	0xbeaab0fc	-0.33338153
151	0x3d8afcba	0.06786485
152	0x3d5e3c55	0.054256756
153	0xbd24aa53	-0.040201496
154	0xbbecea9c	-0.007230116
155	0x3e0b8475	0.13624747
156	0xbd1e12a0	-0.03859198
157	0xbd2577a2	-0.040397294
158	0xbdf62f6e	-0.12020765
159	0xbdb47940	-0.08812189
160	0xbdbb9729	-0.09159691
161	0x3d9eb664	0.07749632
162	0xbc03e8bd	-0.008051095
163	0xbce734e2	-0.028223459
164	0xbefc7a4b	-0.49312052
165	0xbd8035cd	-0.06260262
166	0xbdeb5ed9	-0.114927
167	0x3dd0d854	0.10197511
168	0xbe3863f1	-0.18006875
169	0xbdc0c7a8	-0.094130814
170	0x3d46588b	0.048424285
171	0xbd524c13	-0.05134208
172	0xbd1d081d	-0.038337816
173	0x3d8cf6eb	0.06883033
174	0x3e40f74c	0.18844336
175	0x3e68f919	0.22751273
176	0xbd737bff	-0.059444424
177	0xbd31f143	-0.043442976
178	0xbd9eb45a	-0.07749243
179	0x3de8d203	0.113681816
180	0xbd95e985	-0.07319931
181	0xbebfa6e9	-0.3743203
182	0x3debc1cd	0.11511574
183	0xbd71ed90	-0.059064448
184	0xbd85f95c	-0.06541702
185	0xbe10b6a2	-0.14132169
186	0x3d3ac050	0.04559356
187	0xbd0e77bd	-0.03478216
188	0xbd6d5e0a	-0.05795101
189	0x3ce96777	0.028491719
190	0x3d34890a	0.044076003
191	0xbd558fd6	-0.052139126
192	0x3db9e1cb	0.0907627
193	0x3e09e3f5	0.13465865
194	0xbaf2bdf2	-0.0018519743
195	0x3e254df3	0.16143017
196	0x3c4ce131	0.012504862
197	0x3e2095ae	0.15682098
198	0x3c085d6b	0.008323054
199	0xbc3acc9f	-0.0114013245
200	0x3e1f53a2	0.15559247
201	0xbdc64f54	-0.096830994
202	0xbd16c8b9	-0.036812518
203	0x3e173ee0	0.14770079
204	0xbdb7cf29	-0.089750595
205	0x3d630a21	0.05542958
206	0x3e30ea47	0.1727687
207	0xbcb75687	-0.022380127
208	0x3d3e01d4	0.046388462
209	0x3cca8f9a	0.024726678
210	0x3bbbf137	0.005735542
211	0xbdc9163d	-0.09818695
212	0x3e04a36d	0.12952967
213	0xbddb7c04	-0.107170135
214	0x3e63ce5c	0.22246689
215	0xbe1cbf91	-0.15307452
216	0xbdb86ad0	-0.09004748
217	0xbdb6e72b	-0.089308105
218	0xbd059fd9	-0.032623146
219	0x3a9da922	0.0012028555
220	0x3e042279	0.12903775
221	0xbddb8b08	-0.107198775
222	0x3e7e4373	0.24830417
223	0xbd55e929	-0.052224312
224	0x3d5b73d8	0.053577274
225	0x3dc81cf3	0.097711466
226	0xbd77db9f	-0.06051218
227	0xbd274a0c	-0.0408421
228	0x3d492eec	0.049117014
229	0xbdda320d	-0.10654078
230	0xbdf47fe7	-0.11938458
231	0x3e30206c	0.17199868
232	0x3c1640d0	0.009170726
233	0x3dd02a0c	0.1016427
234	0x3e6f0d52	0.23344925
235	0x3b91e14e	0.0044519072
236	0x3ddf3124	0.10898045
237	0x3d80077d	0.06251428
238	0x3e6f0673	0.23342304
239	0xbd883e3a	-0.06652494
240	0x3dd06da9	0.10177166
241	0x3e0dc60c	0.1384508
242	0x3de35374	0.11099902
243	0x3da64e2a	0.08120377
244	0x3cf1c5ed	0.029513324
245	0x3db9d155	0.0907313
246	0xbaa3f80e	-0.0012509839
247	0x3dc97b19	0.09837932
248	0xbd9d99eb	-0.07695373
249	0x3d833e93	0.064084195
250	0xbde1b5ef	-0.11021029
251	0x3e1e6bd3	0.15470819
252	0x3d982cba	0.07430406
253	0xbd936450	-0.071968675
254	0x3ec1ebf1	0.37875322
255	0x3ced126f	0.028939454
