Recurrent-Independent-Mechanisms/minigrid_experiments/storage/2023-11-17_wallgap-doorkey-redblue-crossing_ppo_789012_1000000_metalearn_True_rims_6_k_4_reshape_False/status0.pt (torch, 567055 bytes, 48 tensors)

image_conv.0.weight f4 [16, 3, 2, 2]
-0.12336592 0.07275936 -0.114468165 -0.08718691 -0.32459927 -0.12042048 0.25862774 -0.09495208
-0.16862406 -0.061515212 -0.19554278 -0.08152111 -0.105161704 0.4191334 -0.14643557 -0.3098263
0.13489746 -0.2518928 0.07367406 -0.09172319 -0.07889441 0.033420384 0.068122715 0.15410346
-0.26016313 -0.28018254 -0.020647928 -0.037382945 0.18733622 0.03816912 0.11303998 0.26492456
0.14237031 0.027832568 -0.067010865 0.17306915 -0.16411111 0.16318968 0.13645133 0.09762831
0.08762148 0.023652343 -0.05945917 -0.25951037 0.2564621 0.030957997 0.1882984 0.030985653
0.04910311 -0.2943959 0.20595013 -0.03796567 -0.07785354 -0.09781591 -0.37684244 0.3729959
-0.050008133 -0.25993502 -0.04925388 -0.15140626 0.043247215 -0.28233 0.1628477 0.380094
0.21949597 -0.14538011 -0.38925856 -0.17579852 0.28264654 0.13793546 0.24533689 -0.27498683
-0.1619612 -0.17308155 0.13030465 0.078206636 -0.16824542 -0.30799645 0.14107612 0.14012823
0.033473015 0.13579544 0.09334925 0.08336979 0.28465706 0.14616121 0.19949149 -0.15563804
-0.22300082 0.215112 -0.30671299 -0.45414242 -0.017738134 -0.17173538 -0.056568578 -0.054713607
-0.15087879 0.16806456 -0.22999981 0.09134893 0.056500476 0.03062414 -0.3500101 0.078408144
-0.075682595 0.22633088 -0.08118644 -0.21847492 0.40819672 0.25933746 -0.10308878 -0.032720685
-0.3380125 -0.6713653 0.068886615 0.013380903 -0.20153415 -0.07903747 0.02764979 -0.14706719
0.23960358 -0.3779628 0.0717187 0.03969197 -0.23917697 0.0057159713 -0.31941652 0.17074446
0.0033158362 -0.0075812936 0.030246288 0.254933 0.19984742 0.3232894 0.16501102 -0.24248575
-0.22970217 0.13280204 -0.16773432 -0.3211794 0.20120636 -0.018166125 0.27178007 -0.23045477
0.07154874 -0.13847063 0.020657392 0.30490693 -0.19759968 -0.34808913 -0.41487968 0.1922361
0.25116086 -0.21087793 0.04214385 -0.1637699 -0.29820952 -0.18917793 0.12720294 -0.24481681
-0.032125507 -0.53117394 0.18225457 0.2247238 -0.20484744 0.26126367 0.037650406 0.23595351
-0.046431437 -0.38896328 -0.023208281 -0.2834562 0.2906264 0.06256804 0.32886037 -0.3084622
-0.008146793 0.16819388 -0.0066758096 0.006295651 -0.10340723 0.23202007 -0.16290525 0.46580324
-0.09793792 -0.09133288 0.048250504 -0.18649982 -0.03186965 0.26816565 0.13965163 -0.24548705
00000000: 45a7 fcbd dc02 953d 496e eabd 0d8f b2bd
00000010: e031 a6be 039f f6bd db6a 843e 3c76 c2bd
00000020: c9ab 2cbe 60f7 7bbd 5e3c 48be 8af4 a6bd
00000030: 055f d7bd a798 d63e 35f3 15be 8ea1 9ebe
00000040: 8f22 0a3e 18f8 80be 6de2 963d 5ed9 bbbd
00000050: 6493 a1bd d0e3 083d ec83 8b3d 4ccd 1d3e
00000060: 1a34 85be 1674 8fbe d825 a9bc dc1e 19bd
00000070: 11d5 3f3e 3957 1c3d 8181 e73d 31a4 873e
00000080: 86c9 113e 2001 e43c fe3c 89bd 0a39 313e
00000090: be0c 28be 321b 273e e6b9 0b3e 5af1 c73d
000000a0: e472 b33d 8fc2 c13c 758b 73bd 8bde 84be
000000b0: 004f 833e a09b fd3c 4cd1 403e a0d5 fd3c
000000c0: 5820 493d 0fbb 96be 97e4 523e e481 1bbd
000000d0: ad71 9fbd b553 c8bd 7ef1 c0be 52f9 be3e
000000e0: 54d5 4cbd 3416 85be 70be 49bd 3e0a 1bbe
000000f0: fe23 313d 8f8d 90be 8cc1 263e ae9b c23e
00000100: 8dc3 603e 86de 14be e64c c7be 8704 34be
00000110: 0cb7 903e f43e 0d3e 9839 7b3e 13cb 8cbe
00000120: 28d9 25be 4a3c 31be 956e 053e cd2a a03d
00000130: 8748 2cbe b6b1 9dbe 4276 103e c67d 0f3e
00000140: 001b 093d f60d 0b3e e42d bf3d c8bd aa3d
00000150: 92be 913e 49ab 153e 7f47 4c3e 945f 1fbe
00000160: 545a 64be 5246 5c3e 7c09 9dbe 5b85 e8be
00000170: 904f 91bc 66db 2fbe 74b4 67bd 601b 60bd
00000180: f87f 1abe 1e19 2c3e 1285 6bbe 2615 bb3d
00000190: 0b6d 673d 7adf fa3c 8634 b3be 7394 a03d
000001a0: 7aff 9abd 48c3 673e 1445 a6bd e4b7 5fbe
000001b0: 29ff d03e e1c7 843e 3620 d3bd 2006 06bd
000001c0: f90f adbe 99de 2bbf 6d14 8d3d 933b 5b3c
000001d0: f85e 4ebe 66de a1bd d081 e23c c898 16be
000001e0: a45a 753e 5784 c1be 41e1 923d 0c94 223d
000001f0: cfea 74be 0b4d bb3b 908a a3be a3d7 2e3e
00000200: 804e 593b 806c f8bb 10c7 f73c 9486 823e
00000210: cda4 4c3e 3086 a53e a6f8 283e 2f4e 78be
00000220: 0c37 6bbe 42fd 073e 8cc2 2bbe a071 a4be
00000230: 0a09 4e3e 20d1 94bc c226 8b3e 56fc 6bbe
00000240: 2588 923d 3fcb 0dbe b139 a93c c31c 9c3e
00000250: 9257 4abe bd38 b2be 1c6b d4be 8ad9 443e
00000260: 2898 803e 62f0 57be 089f 2c3d 4cb3 27be
00000270: ebae 98be dcb7 41be 7d41 023e 42b1 7abe
00000280: 0996 03bd 04fb 07bf f1a0 3a3e ff1d 663e
00000290: 87c3 51be 5ac4 853e 5037 1a3d cc9d 713e
000002a0: e42e 3ebd 3226 c7be 4b1f bebc 2c21 91be
000002b0: fccc 943e ac23 803d 6360 a83e c2ee 9dbe
000002c0: 207a 05bc 043b 2c3e c0c0 dabb c04b ce3b
000002d0: 2bc7 d3bd ab96 6d3e a2d0 26be c37d ee3e
000002e0: ad93 c8bd bc0c bbbd 52a2 453d cff9 3ebe
000002f0: c089 02bd 024d 893e d600 0f3e f560 7bbe

image_conv.0.bias f4 [16]
-0.16202432 -0.28243282 -0.11736741 -0.34290612 -0.06084717 -0.04932115 -0.028388197 0.2099422
-0.07294745 0.18636487 -0.058854796 -0.07141452 0.20597309 -0.2168756 0.0792595 -0.20800756
00000000: b4e9 25be 099b 90be 535e f0bd 6491 afbe
00000010: e23a 79bd f904 4abd 5d8e e8bc 17fb 563e
00000020: 7965 95bd 6fd6 3e3e ba11 71bd c741 92bd
00000030: 9cea 523e a314 5ebe ce52 a23d efff 54be

image_conv.3.weight f4 [32, 16, 2, 2]
0.0033284836 0.15220088 0.36029115 -0.0054759 -0.112028226 -0.14901549 -0.03781766 0.20142204
-0.048400804 0.06667408 0.04375841 0.043770377 0.08757726 0.15242803 0.043470368 0.21146953
-0.19574095 -0.24583007 0.021617688 -0.19046843 -0.040116075 -0.028275976 0.03129052 0.25375655
-0.021940937 0.030081404 0.1993527 -0.14702092 0.09091769 -0.07358155 0.013361024 -0.2588554
-0.081282176 0.18058783 0.07725706 0.16182485 0.15225263 0.12116537 -0.10839744 -0.18512255
-0.021412306 0.009465899 0.096591264 -0.10133699 -0.010441562 -0.020961462 -0.22127372 -0.02908412
0.030027995 -0.17749113 -0.1322069 -0.20564516 0.16797954 -0.06541313 0.08412416 0.08945011
-0.043288846 -0.08948927 0.24888395 0.23094828 0.09695862 0.14193432 -0.062547214 0.13776273
0.0144528765 -0.18255249 0.117619805 0.21499923 0.049620446 -0.07100883 0.026264418 0.023263833
0.16714783 0.058777567 0.24413596 -0.1195544 -0.045026544 -0.06219089 -0.0889538 -0.15651515
0.07740222 0.00093491795 0.13652514 0.03551658 0.008836682 0.31798366 0.09012479 -0.17324701
-0.18742278 -0.16582754 -0.10528973 -0.19376338 0.10184484 0.025523134 -0.085860096 -0.19623487
0.15954453 0.015642317 0.25868055 0.0061575333 -0.0139397 -0.20884523 0.062245388 -0.065668635
0.10931746 0.08635489 0.034196332 0.038232353 -0.045550518 -0.13316894 0.19672069 -0.16480763
-0.14981638 -0.014174109 -0.117454 -0.07585933 -0.25364983 -0.18891731 0.09390091 -0.11919301
-0.050072577 0.15121461 -0.016990442 0.23680423 0.13113424 -0.23298834 0.025539827 -0.16438235
0.017169796 0.0313301 0.0045730146 0.17213887 0.14339617 0.10547095 0.011529515 -0.08952907
-0.06752282 0.009076552 0.11453128 0.10037041 -0.077951774 -0.16478571 -0.05445297 -0.02275349
0.078846335 0.14458746 -0.014080457 0.016493684 -0.22098 -0.21732415 -0.0108721 -0.013218154
-0.121721365 -0.014504972 -0.050421588 0.05556439 -0.26615387 -0.24817571 -0.2684486 0.07372908
0.05698413 0.011838243 0.033162918 -0.11680084 -0.12880595 -0.13539326 -0.07619584 0.18265419
-0.0037159338 -0.07703254 0.10076353 0.06406499 -0.1246606 -0.06667333 -0.104725905 -0.07121006
-0.20779763 -0.03676575 -0.2368415 0.08151415 -0.039505288 0.036940776 0.0145527795 -0.0011324105
0.17243837 0.028801851 -0.081342794 0.048040982 -0.06184296 -0.035635486 0.20690456 0.010571764
0.22224982 -0.06658595 -0.14600714 -0.1513936 -0.2211636 0.2811405 0.09381542 0.060844623
0.033097133 -0.04213956 -0.08104081 -0.018772038 -0.09378069 0.16927914 -0.23564577 0.034747094
-0.1284625 0.2623287 -0.0013162174 0.047169413 -0.10005089 0.07137995 -0.03651431 -0.11383495
0.00783444 -0.25405782 -0.245841 0.10104226 -0.18619946 0.18988495 -0.090835795 0.23584093
0.0001727687 -0.058304682 0.08573569 -0.109489284 -0.050495308 -0.015496015 -0.11648515 -0.18576443
-0.011677217 0.14814343 0.061545096 0.03238751 0.014386475 0.22769742 -0.16917874 0.082382284
0.07541485 -0.05177257 0.10096156 0.062185332 0.023172151 -0.037455242 -0.15349215 0.026356522
-0.06567365 -0.07901005 -0.042404056 -0.028713614 -0.21101898 0.36805028 0.054938972 0.110285014
00000000: b022 5a3b 8cda 1b3e 1578 b83e 2e6f b3bb
00000010: 0e6f e5bd 8497 18be b1e6 1abd 9441 4e3e
00000020: ec3f 46bd 6c8c 883d 053c 333d 9148 333d
00000030: b55b b33d 1816 1c3e fc0d 323d 788b 583e
00000040: 5170 48be e1ba 7bbe 9417 b13c 280a 43be
00000050: c150 24bd 05a3 e7bc 7d2a 003d 61ec 813e
00000060: 7bbd b3bc 476d f63c 1d23 4c3e a78c 16be
00000070: 0e33 ba3d ecb1 96bd 32e8 5a3c b288 84be
00000080: 4577 a6bd 04ec 383e f338 9e3d 6ab5 253e
00000090: 1de8 1b3e 8d25 f83d 7aff ddbd c490 3dbe
000000a0: dc68 afbc dc16 1b3c a4d1 c53d c589 cfbd
000000b0: 1613 2bbc 5fb7 abbc 9495 62be d241 eebc
000000c0: 45fd f53c 3cc0 35be 3f61 07be a594 52be
000000d0: d402 2c3e 52f7 85bd 4a49 ac3d 9f31 b73d
000000e0: a54f 31bd 2646 b7bd 6fdb 7e3e b57d 6c3e
000000f0: 3e92 c63d 3b57 113e c118 80bd ac11 0d3e
00000100: c2cb 6c3c 0aef 3abe a7e2 f03d c228 5c3e
00000110: cf3e 4b3d 146d 91bd 7a28 d73c cb93 be3c
00000120: cd28 2b3e bfc0 703d c7fe 793e f0d8 f4bd
00000130: c16d 38bd e0bb 7ebd 692d b6bd 8245 20be
00000140: 0e85 9e3d 4815 753a 3fcd 0b3e d579 113d
00000150: bbc7 103c c1ce a23e 5993 b83d aa67 31be
00000160: c2eb 3fbe b2ce 29be 24a2 d7bd e869 46be
00000170: 0794 d03d e415 d13c 6bd7 afbd cbf1 48be
00000180: a45f 233e 5124 803c c771 843e 22c5 c93b
00000190: 5763 64bc 86db 55be 05f5 7e3d 477d 86bd
000001a0: d5e1 df3d d5da b03d 7411 0c3d 8799 1c3d
000001b0: 2e93 3abd 705d 08be 2671 493e 55c3 28be
000001c0: 7769 19be 863a 68bc b98b f0bd 235c 9bbd
000001d0: 64de 81be 8a73 41be 1f4f c03d 771b f4bd
000001e0: e718 4dbd 01d8 1a3e 8a2f 8bbc cf7c 723e
000001f0: 0e48 063e 7f94 6ebe e638 d13c d953 28be
00000200: aca7 8c3c fe53 003d 3ad9 953b 2c45 303e
00000210: 72d6 123e 2701 d83d 4ae6 3c3c 045b b7bd
00000220: 6749 8abd d2b5 143c 608f ea3d 008f cd3d
00000230: 2ea5 9fbd 96bd 28be 140a 5fbd 8765 babc
00000240: 307a a13d bc0e 143e b8b1 66bc c31d 873c
00000250: 9548 62be 398a 5ebe e420 32bc f590 58bc
00000260: 0d49 f9bd 43a6 6dbc de86 4ebd 7c97 633d
00000270: 5245 88be c621 7ebe 1872 89be 46ff 963d
00000280: 3168 693d 31f5 413c d7d5 073d 4735 efbd
00000290: b5e5 03be 88a4 0abe 910c 9cbd b309 3b3e
000002a0: 0687 73bb 3dc3 9dbd 1c5d ce3d 8134 833d
000002b0: 0f4e ffbd 078c 88bd 897a d6bd 94d6 91bd
000002c0: e7c8 54be af97 16bd 9486 72be e4f0 a63d
000002d0: 4cd0 21bd 364f 173d c86e 6e3c 646d 94ba
000002e0: af93 303e dcf1 eb3c 0d97 a6bd 9fc6 443d
000002f0: 0b4f 7dbd 84f6 11bd cade 533e 3135 2d3c
00000300: 7595 633e 375e 88bd e582 15be ed06 1bbe
00000310: b678 62be a6f1 8f3e 4d22 c03d 3638 793d
00000320: dc90 073d 889a 2cbd b9f8 a5bd d1c7 99bc
00000330: 1710 c0bd 8357 2d3e 204d 71be f852 0e3d
00000340: ac8b 03be f34f 863e ed84 acba b734 413d
00000350: 7be7 ccbd a72f 923d 0790 15bd 4c22 e9bd
00000360: 065c 003c de13 82be bebd 7bbe 3fef ce3d
00000370: 12ab 3ebe 3371 423e 1e08 babd 4980 713e
00000380: 3f29 3539 e4d0 6ebd 3296 af3d eb3b e0bd
00000390: 2bd4 4ebd ffe2 7dbc c48f eebd 0839 3ebe
000003a0: cc51 3fbc e9b2 173e b616 7c3d c4a8 043d
000003b0: 40b5 6b3c 8329 693e 313d 2dbe 0bb8 a83d
000003c0: 1a73 9a3d 790f 54bd efc4 ce3d 0cb6 7e3d
000003d0: 86d3 bd3c ab6a 19bd 0c2d 1dbe a2e9 d73c
000003e0: e87f 86bd 05d0 a1bd e0af 2dbd d038 ebbc
000003f0: 5c15 58be 1671 bc3e b007 613d 1cdd e13d

image_conv.3.bias f4 [32]
0.028396076 0.08089299 -0.028927172 -0.11127866 0.014712324 0.004765327 -0.20229457 -0.14421788
-0.0898609 -0.15538003 0.017449219 -0.18067999 0.049106248 0.06627798 -0.027212292 -0.055671684
-0.13304843 -0.087687865 0.19138002 -0.051168185 -0.08547677 -0.013149834 -0.010838557 -0.090218805
0.07681529 -0.12058657 0.017806882 0.014793372 0.050068878 -0.053619556 -0.07528449 -0.060655583
00000000: e39e e83c 39ab a53d adf8 ecbc 11e6 e3bd
00000010: f60b 713c 7626 9c3b 4f26 4fbe daad 13be
00000020: fe08 b8bd f11b 1fbe aaf1 8e3c 2d04 39be
00000030: a223 493d c0bc 873d 50ec debc fe07 64bd
00000040: d93d 08be b295 b3bd 20f9 433e bb95 51bd
00000050: 720e afbd 6772 57bc 3494 31bc a3c4 b8bd
00000060: 5651 9d3d 17f6 f6bd bddf 913c e65f 723c
00000070: 0615 4d3d 2ea0 5bbd c12e 9abd fd71 78bd

image_conv.5.weight f4 [64, 32, 2, 2]
-0.05976193 0.148574 0.11810334 0.03287457 0.1421665 0.030157112 -0.26794416 0.0833947
0.053691536 0.20659812 -0.15394595 0.21739696 -0.03737258 0.04845988 0.0626947 0.026732247
0.07602627 -0.17085543 0.11210972 -0.036264587 0.22042802 0.03264634 -0.10214588 0.23563968
-0.08862196 -0.07073948 0.098426804 -0.22071579 0.04306272 0.15616746 -0.034477226 -0.099195644
0.040322594 0.1968485 0.06332993 0.17119874 -0.040433608 -0.081775285 0.14832258 0.075120926
-0.03427716 -0.18380505 -0.085338086 0.015360868 -0.006999134 0.075080596 -0.21705167 0.28342623
-0.005020888 0.3394691 -0.0788283 0.018745746 0.1257427 -0.024853228 0.13572164 -0.17182729
-0.03272032 -0.12292016 0.18421073 0.0333955 0.112537555 0.2412899 0.076552354 0.057017785
0.07008111 -0.08686575 0.20921801 0.033434544 -0.15251748 -0.047831323 -0.09975403 0.048373066
0.21430588 0.13945471 0.1761085 -0.008169993 0.074382946 0.17558308 0.0729416 0.17236984
0.0077102794 -0.039922174 -0.06345543 0.05329128 -0.07762908 0.112018995 0.08266141 0.06487624
0.23117685 -0.19759499 0.1314598 -0.0093329055 -0.15505463 -0.033843864 0.03718511 0.06878598
0.032396875 0.01073844 -0.21970679 -0.13280994 -0.06863639 -0.036153562 0.036542844 0.073555395
-0.041962314 -0.35884833 0.07143869 -0.12888713 -0.043164987 -0.065921344 -0.12139433 -0.052770153
-0.0024441166 0.07108977 0.079870105 -0.02097202 0.1620235 0.247155 0.056356434 0.14989756
-0.027562406 0.05155868 0.05141347 -0.032441977 0.055928867 -0.10773739 0.10045946 0.12627077
0.0073827817 -0.18120903 -0.15737958 -0.006433996 -0.016797692 -0.16921015 -0.12815543 -0.1246345
-0.011810106 -0.011588473 0.068275005 -0.038711723 0.17263913 -0.39434448 0.007832141 -0.083231345
-0.027874073 -0.008714388 0.027442832 -0.26430988 0.044080894 -0.089342825 -0.023343546 -0.16117994
-0.15406625 -0.026530636 0.019444423 0.18415268 -0.08341634 -0.3991757 -0.004560254 0.08209749
0.040383242 0.11527991 -0.20980129 0.032920767 -0.11517191 0.12089297 -0.13865095 -0.04769293
-0.08902883 -0.17763954 -0.032030094 0.048274454 0.082213804 -0.12670214 -0.09427994 -0.19168818
-0.16627519 -0.028130604 0.111715235 -0.06534198 -0.25393397 -0.24590163 -0.23967896 0.16406174
-0.1321189 -0.25151962 0.07377953 0.059863467 0.07321315 -0.15464759 -0.1137906 -0.047182422
-0.002769728 0.038079377 0.08369007 -0.09870216 0.29316732 0.0036902225 -0.114911735 -0.055200256
0.065080225 -0.09798555 -0.026977586 -0.07415757 0.035622176 0.048421755 0.0032034328 0.14510097
0.0070993835 0.013546514 0.027866818 0.06863248 -0.10353724 -0.054263614 -0.020743614 -0.06790785
-0.047355615 0.089587085 -0.22960764 0.028745405 0.033346336 -0.15331833 0.011263621 -0.075635165
0.14433342 -0.103894286 -0.15391175 -0.06950381 -0.06662765 -0.061886717 -0.0029735444 -0.02634539
0.032979347 -0.081991255 -0.06427171 -0.09423967 0.054005098 -0.19854632 -0.07107861 -0.09718021
0.011893442 0.037531305 -0.047178414 0.011967443 -0.13584898 0.059738237 -0.056574553 -0.05028493
-0.063847676 -0.0673389 0.051625825 -0.08008447 0.026493153 -0.018279307 -0.0514608 -0.22951658
00000000: edc8 74bd c823 183e 2ae0 f13d 7ca7 063d
00000010: 1894 113e 0c0c f73c fa2f 89be d7ca aa3d
00000020: a8eb 5b3d 758e 533e 02a4 1dbe 4f9d 5e3e
00000030: fe13 19bd de7d 463d 1466 803d 96fd da3c
00000040: a9b3 9b3d baf4 2ebe c899 e53d 2d8a 14bd
00000050: e2b7 613e 2bb8 053d dc31 d1bd 874b 713e
00000060: 6e7f b5bd dcdf 90bd fe93 c93d 5203 62be
00000070: 8962 303d 5dea 1f3e fe37 0dbd 1627 cbbd
00000080: 4e29 253d a792 493e 1fb3 813d b94e 2f3e
00000090: b69d 25bd cd79 a7bd e0e1 173e 00d9 993d
000000a0: 3566 0cbd 6437 3cbe bcc5 aebd 26ac 7b3c
000000b0: fe58 e5bb dbc3 993d cb42 5ebe 3e1d 913e
000000c0: 4386 a4bb e5ce ad3e bb70 a1bd ae90 993c
000000d0: b2c2 003e ff98 cbbc 9dfa 0a3e 7ef3 2fbe
000000e0: be05 06bd 91bd fbbd bda1 3c3e b8c9 083d
000000f0: 177a e63d b314 773e 7bc7 9c3d 7b8b 693d
00000100: af86 8f3d ace6 b1bd 3f3d 563e a9f2 083d
00000110: 8b2d 1cbe c7ea 43bd d74b ccbd d622 463d
00000120: 0073 5b3e 37cd 0e3e c955 343e 6fdb 05bc
00000130: 1656 983d 0dcc 333e 6862 953d b881 303e
00000140: 83a6 fc3b 6f85 23bd ecf4 81bd f547 5a3d
00000150: fffb 9ebd 376a e53d 634a a93d d6dd 843d
00000160: a0b9 6c3e 5756 4abe 669d 063e 0be9 18bc
00000170: a4c6 1ebe dd9f 0abd 6a4f 183d aadf 8c3d
00000180: 96b2 043d 48f0 2f3c d1fa 60be 54ff 07be
00000190: 3c91 8cbd c215 14bd f3ad 153d 36a4 963d
000001a0: ade0 2bbd f8ba b7be 734e 923d fdfa 03be
000001b0: c5cd 30bd c501 87bd 979d f8bd 8425 58bd
000001c0: 792d 20bb 8397 913d f092 a33d 84cd abbc
000001d0: 7de9 253e 3316 7d3e 01d6 663d bf7e 193e
000001e0: 8eca e1bc 322f 533d ee96 523d e1e1 04bd
000001f0: ab15 653d 6ca5 dcbd b0bd cd3d 204d 013e
00000200: 43eb f13b dc8e 39be 1d28 21be 45d4 d2bb
00000210: 509b 89bc 6d45 2dbe 2d3b 03be 5f40 ffbd
00000220: 2d7f 41bc 94dd 3dbc c4d3 8b3d 2f90 1ebd
00000230: 50c8 303e 85e7 c9be 6152 003c 3275 aabd
00000240: 2b58 e4bc cbc6 0ebc cacf e03c a053 87be
00000250: 2b8e 343d 5ff9 b6bd f73a bfbc 5b0c 25be
00000260: 8bc3 1dbe c756 d9bc e949 9f3c 8592 3c3e
00000270: 30d6 aabd c260 ccbe 2f6e 95bb bb22 a83d
00000280: e668 253d e017 ec3d 26d6 56be edd7 063d
00000290: 40df ebbd bc96 f73d 84fa 0dbe a959 43bd
000002a0: bf54 b6bd 24e7 35be fd31 03bd 6fbb 453d
000002b0: b65f a83d 35be 01be d715 c1bd e849 44be
000002c0: 0b44 2abe 2772 e6bc f5ca e43d 04d2 85bd
000002d0: a203 82be a3cd 7bbe 676e 75be cdff 273e
000002e0: 2d4a 07be 2ec7 80be b919 973d 6533 753d
000002f0: c7f0 953d f05b 1ebe 0c0b e9bd 5b42 41bd
00000300: 5384 35bb 1ff9 1b3d b365 ab3d 5c24 cabd
00000310: 071a 963e a9d7 713b d856 ebbd aa19 62bd
00000320: c848 853d a6ac c8bd 1900 ddbc eddf 97bd
00000330: 8fe8 113d e455 463d aff0 513b 5995 143e
00000340: f2a1 e83b 33f2 5d3c f448 e43c 308f 8c3d
00000350: 550b d4bd 8643 5ebd 83ee a9bc 4513 8bbd
00000360: f6f7 41bd 6f79 b73d 441e 6bbe 7c7b eb3c
00000370: 2b96 083d 7bff 1cbe 0d8b 383c 9ce6 9abd
00000380: 24cc 133e 87c6 d4bd 0b9b 1dbe 0358 8ebd
00000390: 1474 88bd ed7c 7dbd ccdf 42bb 4ad2 d7bc
000003a0: 5a15 073d 08eb a7bd e3a0 83bd ba00 c1bd
000003b0: 7334 5d3d ba4f 4bbe aa91 91bd 6b06 c7bd
000003c0: b6dc 423c 6dba 193d 273e 41bd 1813 443c
000003d0: ff1b 0bbe 15b0 743d b8ba 67bd 92f7 4dbd
000003e0: 92c2 82bd fae8 89bd 9a75 533d 5403 a4bd
000003f0: 2b08 d93c 7cbe 95bc 8fc8 52bd 6506 6bbe

image_conv.5.bias f4 [64]
-0.06698182 -0.002007506 -0.13450333 -0.04072172 0.08815703 -0.033509452 -0.1418001 -0.18011732
-0.053205587 -0.13366741 -0.08485368 -0.070502475 0.027627598 -0.1394296 -0.03434097 -0.071598604
0.07387238 -0.01837199 0.041567694 0.036345802 -0.052128065 0.09674092 0.084728085 0.03409632
0.064119615 -0.14092195 -0.0064931894 -0.08025175 -0.097057045 -0.11828809 -0.0007513163 -0.05517057
0.0363781 0.05576123 0.03748078 0.067121744 -0.047670964 -0.06004538 0.01669762 0.04818852
0.015681928 0.096949235 -0.043330215 -0.07568892 0.049130034 -0.044618946 0.07529176 -0.093648255
0.08111818 -0.18615232 0.09880409 0.010971899 0.0091887005 -0.0084759835 0.10713674 -0.038270917
0.11399198 0.051708817 0.07171874 -0.051379375 -0.08514244 -0.0903143 -0.031157954 0.005500884
00000000: c42d 89bd 5d90 03bb 3ebb 09be d1cb 26bd
00000010: ac8b b43d 3541 09bd 0c34 11be ad70 38be
00000020: 1aee 59bd 1ce0 08be c4c7 adbd 9a63 90bd
00000030: 4653 e23c a2c6 0ebe 1ea9 0cbd 4aa2 92bd
00000040: 674a 973d db80 96bc e342 2a3d 56df 143d
00000050: 3d84 55bd 1a20 c63d eb85 ad3d 95a8 0b3d
00000060: 2551 833d d84d 10be d2c4 d4bb 085b a4bd
00000070: d8c5 c6bd 0741 f2bd fcf3 44ba 89fa 61bd
00000080: 3401 153d e365 643d 7285 193d 2077 893d
00000090: a142 43bd 25f2 75bd 72c9 883c 5361 453d
000000a0: 6377 803c 528d c63d 067b 31bd cb02 9bbd
000000b0: 933c 493d 5bc2 36bd 9132 9a3d a8ca bfbd
000000c0: 4a21 a63d b79e 3ebe cc59 ca3d 7bc3 333c
000000d0: 348c 163c dade 0abc 826a db3d f7c1 1cbd
000000e0: a174 e93d a0cc 533d 46e1 923d 2e73 52bd
000000f0: 295f aebd b4f6 b8bd f73e ffbc c240 b43b

memory_rnn.key.weight f4 [64, 64]
0.051229276 -0.021806942 0.108751975 0.28059036 0.4520419 -0.08238967 0.004323868 -0.071888804
-0.018556077 -0.10751051 0.012697806 -0.026178258 -0.16815598 -0.15183891 0.17098176 0.112389244
-0.00046169938 -0.23989247 0.22125039 -0.063145205 -0.053627957 0.21478784 0.25669488 -0.20910698
0.16540958 -0.32741204 0.07128613 0.07580381 -0.14449343 0.1594331 0.02276167 0.091057114
-0.07524556 -0.39595088 0.1848163 0.21256785 -0.10851516 -0.46509796 0.29977712 0.26739156
0.013574508 0.2634877 -0.032714825 0.20906442 0.20654824 -0.12123523 0.017211441 -0.30417103
-0.36842477 0.056747332 -0.057586007 -0.3557283 0.08250026 -0.1559539 0.167586 -0.41566962
-0.21022463 0.078045085 0.18930954 -0.09653547 -0.12873943 0.1304855 0.53177595 -0.031123016
-0.19511147 0.045312207 0.06988049 -0.18357234 -0.29493162 0.038179737 -0.16730052 -0.15916967
0.020476632 -0.14008655 0.041628342 -0.008612472 0.31437135 -0.32983264 0.24065574 0.087203
-0.14615601 0.2077378 -0.14422062 -0.17857425 0.029078169 -0.1471305 -0.0284239 0.2006561
-0.28566372 0.20931184 -0.07253453 0.07394629 0.29454517 0.097762786 -0.06785701 0.10891963
0.14013773 0.15436432 -0.17746727 -0.23948383 -0.15266417 -0.08400186 -0.14999095 -0.33201241
-0.006579702 -0.114321575 0.2362237 0.27104607 -0.0029932596 -0.1950951 -0.013519273 0.15075767
0.02572168 0.21051714 0.026668208 -0.0024230678 -0.060573474 0.041366585 -0.19304349 0.060329445
0.087022565 -0.25362822 -0.082965486 0.13125196 0.21014908 -0.08158339 0.0029972044 -0.08055851
-0.101500325 0.07736747 -0.11794194 -0.053382874 -0.06268032 -0.351481 -0.04755021 0.16307522
-0.05808642 0.10322151 -0.24321154 -0.2476475 0.022984857 -0.089646615 -0.0010022938 0.18229084
0.13764541 0.14951539 -0.1619422 -0.26732674 0.47511292 -0.017784486 -0.052392233 0.31957668
-0.41998905 0.019631984 -0.10964337 0.009059567 0.21503676 0.017509334 -0.101986036 0.03625734
-0.20391487 -0.13219647 -0.12125865 0.007826822 -0.05777985 -0.23014566 -0.20134829 -0.12650868
0.15234125 0.009216962 -0.011022957 0.16091368 -0.2155113 -0.0865083 -0.34834537 0.06031871
0.012834198 0.4525728 0.22854733 0.045015622 -0.09224645 -0.15259936 -0.07330006 0.03474806
0.2050457 -0.3340993 -0.1604141 0.030288564 0.18415067 -0.21484266 -0.19621234 0.28810263
-0.153052 -0.49514604 0.046207216 -0.06324553 0.27041882 0.22222634 -0.162804 -0.10656123
0.040781863 -0.044499703 -0.06918244 0.0061927857 -0.41443628 -0.1338016 -0.08766581 -0.13855241
-0.4488834 -0.119765565 -0.23086876 -0.063121006 -0.37522072 -0.053037804 -0.21449304 -0.42695484
-0.26174596 -0.35465792 -0.014069567 -0.044667214 -0.07613965 0.10013705 -0.12342858 0.026994081
-0.0880025 -0.4288115 0.14890774 -0.095927775 -0.18042381 -0.14478916 0.07027423 0.09449814
-0.11013302 -0.032582693 -0.081900656 -0.06978711 -0.032125745 0.27478173 0.25552967 -0.29506108
-0.21677917 -0.07130291 -0.16888165 -0.034075838 0.21848598 -0.17426845 0.053798866 0.03786966
-0.1928359 0.14759909 0.0373741 -0.19850595 -0.48867765 -0.0013593226 0.07747626 -0.43419424
00000000: cad5 513d 79a4 b2bc 5bb9 de3d 8aa9 8f3e
00000010: 0972 e73e eabb a8bd 3caf 8d3b 703a 93bd
00000020: ea02 98bc 782e dcbd 750a 503c c973 d6bc
00000030: 1531 2cbe a97b 1bbe d815 2f3e 552c e63d
00000040: 3e10 f2b9 5fa6 75be 768f 623e 4652 81bd
00000050: fda8 5bbd 58f1 5b3e 836d 833e 2420 56be
00000060: 2161 293e 8da2 a7be 76fe 913d 073f 9b3d
00000070: 16f6 13be 6e42 233e af76 ba3c 277c ba3d
00000080: 581a 9abd 13ba cabe 7c40 3d3e 63ab 593e
00000090: 323d debd 5221 eebe 637c 993e 8ce7 883e
000000a0: 9d67 5e3c dce7 863e fbff 05bd fc14 563e
000000b0: 6281 533e 2d4a f8bd 02ff 8c3c 4ebc 9bbe
000000c0: 2ca2 bcbe e46f 683d 4edf 6bbd 0522 b6be
000000d0: e5f5 a83d 61b2 1fbe aa9b 2b3e a6d2 d4be
000000e0: 2045 57be 1ad6 9f3d 5cda 413e 63b4 c5bd
000000f0: 45d4 03be fe9d 053e 7822 083f b2f5 febc
00000100: 4dcb 47be 4b99 393d 811d 8f3d 63fa 3bbe
00000110: 4701 97be 5b62 1c3d d450 2bbe 60fd 22be
00000120: 9cbe a73c d972 0fbe 7b82 2a3d 531b 0dbc
00000130: 48f5 a03e d3df a8be 756e 763e 7d97 b23d
00000140: eca9 15be 38b9 543e 92ae 13be 2bdc 36be
00000150: 5735 ee3c 61a9 16be 3dd9 e8bc cb78 4d3e
00000160: 8442 92be d855 563e fc8c 94bd 2771 973d
00000170: a0ce 963e db37 c83d 9ef8 8abd 4111 df3d
00000180: 4480 0f3e ae11 1e3e fbb9 35be 403b 75be
00000190: ff53 1cbe 2b09 acbd 3a97 19be 88fd a9be
000001a0: 8a9a d7bb 6e21 eabd a0e4 713e 8dc6 8a3e
000001b0: 902a 44bb 03c7 47be f17f 5dbc 3860 1a3e
000001c0: 46b6 d23c ce91 573e 4977 da3c 55cc 1ebb
000001d0: e41b 78bd 0270 293d 31ad 45be 021c 773d
000001e0: e338 b23d 8fdb 81be cfe9 a9bd ea66 063e
000001f0: 5231 573e 3115 a7bd bf6c 443b dcfb a4bd
00000200: 67df cfbd d672 9e3d 8b8b f1bd 00a8 5abd
00000210: 8a5e 80bd 51f5 b3be 02c4 42bd 31fd 263e
00000220: 07ec 6dbd cd65 d33d 720c 79be 4e97 7dbe
00000230: bd4a bc3c a598 b7bd 665f 83ba 73aa 3a3e
00000240: ebf2 0c3e 901a 193e 2dd4 25be 0ddf 88be
00000250: 0042 f33e c5b0 91bc 3d99 56bd 8e9f a33e
00000260: ce08 d7be 41d3 a03c b48c e0bd 946e 143c
00000270: 9932 5c3e bc6f 8f3c 0ede d0bd 9482 143d
00000280: 0fcf 50be 835e 07be 7556 f8bd 123c 003c
00000290: 90aa 6cbd 4eab 6bbe 3f2e 4ebe 7e8b 01be
000002a0: 58ff 1b3e be02 173c a299 34bc 8ec6 243e
000002b0: ffae 5cbe 432b b1bd 535a b2be c010 773d
000002c0: 8746 523c 9fb7 e73e 5008 6a3e 4d62 383d
000002d0: b5eb bcbd 0243 1cbe 581e 96bd fb53 0e3d
000002e0: 80f7 513e 100f abbe 9843 24be b91f f83c
000002f0: fe91 3c3e b7ff 5bbe e3eb 48be 3082 933e
00000300: aab9 1cbe c883 fdbe c743 3d3d df86 81bd
00000310: 5674 8a3e 4d8f 633e 17b6 26be c63c dabd
00000320: e20a 273d 5245 36bd 86af 8dbd daec ca3b
00000330: fe30 d4be 4903 09be 228a b3bd afe0 0dbe
00000340: 0cd4 e5be a647 f5bd dc68 6cbe 9645 81bd
00000350: ee1c c0be 2b3e 59bd 10a4 5bbe d399 dabe
00000360: 9103 86be b995 b5be 0b84 66bc f8f4 36bd
00000370: 1bef 9bbd a714 cd3d 20c8 fcbd b122 dd3c
00000380: a83a b4bd 2e8d dbbe 457b 183e c875 c4bd
00000390: 05c1 38be 9c43 14be efeb 8f3d 3e88 c13d
000003a0: 6c8d e1bd 6e75 05bd 88bb a7bd 8bec 8ebd
000003b0: 4996 03bd 31b0 8c3e c9d4 823e 3f12 97be
000003c0: 5cfb 5dbe 4307 92bd 50ef 2cbe 1b93 0bbd
000003d0: caba 5f3e 6e73 32be 335c 5c3d 371d 1b3d
000003e0: c676 45be 3724 173e 9615 193d 2545 4bbe
000003f0: f533 fabe 4c2b b2ba e0ab 9e3d b54e debe

memory_rnn.key.bias f4 [64]
6.0898437e-06 -3.0569868e-06 3.2567077e-06 -3.4132627e-06 -5.353331e-07 2.9195567e-06 5.322029e-06 -3.5369176e-06
4.4894214e-06 -2.5152901e-06 3.584539e-06 -4.41771e-06 -6.8174704e-06 -5.3870654e-06 -1.1908137e-06 -3.3736883e-06
3.821554e-06 2.3314728e-06 -2.4528476e-06 2.6091031e-06 -5.316259e-06 -7.0679204e-07 -2.6198386e-06 -2.8193966e-07
-1.6094356e-06 -4.224145e-06 -4.56626e-07 3.4002362e-06 -5.119052e-06 -3.1375444e-06 -3.330854e-06 2.871457e-07
-5.773442e-06 -2.9752653e-06 -4.1261724e-06 4.4527073e-06 -1.5803662e-06 9.263862e-07 -2.5152126e-06 -4.3312184e-06
8.3331423e-07 -4.7592503e-06 1.8565312e-06 6.5829217e-06 -4.1452463e-06 -1.0820991e-06 -4.9131636e-06 1.2609078e-06
-3.416471e-06 -2.0772975e-06 -3.3139247e-06 6.210554e-06 -1.0283783e-06 -2.9726332e-06 -3.336936e-06 2.1882809e-06
-3.445418e-06 5.4421976e-06 -3.4518152e-06 3.377161e-06 -3.984237e-06 3.6187635e-07 3.9606666e-06 9.2964456e-07
00000000: 5c57 cc36 a226 4db6 d08d 5a36 680f 65b6
00000010: cfb3 0fb5 9aed 4336 e293 b236 c85b 6db6
00000020: d6a3 9636 5bcc 28b6 e98d 7036 d73b 94b6
00000030: a0c1 e4b6 8ac2 b4b6 0cd4 9fb5 8667 62b6
00000040: e63a 8036 6676 1c36 9a9b 24b6 0d18 2f36
00000050: 5162 b2b6 61ba 3db5 7cd0 2fb6 7e5d 97b4
00000060: c903 d8b5 21bd 8db6 3326 f5b4 9d2f 6436
00000070: 52c4 abb6 9a8e 52b6 a387 5fb6 0129 9a34
00000080: 7db9 c1b6 abaa 47b6 8d73 8ab6 7768 9536
00000090: f81c d4b5 c6ac 7835 06cb 28b6 e254 91b6
000000a0: ebb0 5f35 a6b1 9fb6 ed2d f935 dee2 dc36
000000b0: 6517 8bb6 a43c 91b5 c1db a4b6 763c a935
000000c0: 8646 65b6 b367 0bb6 cb64 5eb6 4164 d036
000000d0: cf06 8ab5 737d 47b6 20f0 5fb6 61da 1236
000000e0: d537 67b6 1f9c b636 bca5 67b6 2fa3 6236
000000f0: 56b0 85b6 e847 c234 dee5 8436 b08c 7935

memory_rnn.value.weight f4 [64, 64]
0.117946245 -0.31223667 0.082578026 -0.035928532 0.1352763 -0.07251974 -0.20304367 0.02220232
-0.050188955 -0.079084046 0.045067247 -0.0588122 -0.16694523 -0.019243099 -0.43512273 0.101723656
0.11743248 -0.43670958 -0.059324663 -0.01751214 -0.13898529 -0.029611612 -0.32047418 0.03293795
-0.16866396 -0.21467297 0.017564835 -0.0666394 -0.1515681 0.013035103 -0.16033034 -0.15308903
-0.13196959 -0.26593962 -0.14314948 -0.24674106 -0.036186203 -0.030826546 -0.21252728 -0.02501596
-0.20991714 -0.19352922 -0.24127851 -0.2509468 -0.11817556 -0.014056784 0.22533219 -0.09445711
-0.25041297 -0.26177034 -0.26883772 0.059933737 0.051620066 0.02990865 -0.091619335 -0.23746797
-0.10392529 -0.32566178 -0.15139408 -0.06437545 -0.29772735 0.13149554 0.049059875 0.0998436
0.027748117 -0.07638784 -0.19216605 -0.11273145 0.005065511 -0.031125523 -0.23372246 -0.22373973
-0.025800033 -0.44618148 -0.115373045 -0.11155364 -0.3080541 0.06509803 -0.20635751 -0.24363174
0.13168168 -0.3617566 -0.030357523 0.16662642 -0.34844184 -0.024580617 0.035915446 -0.010085757
-0.07107359 -0.016764024 0.007052829 0.14341065 0.34932464 -0.24931303 0.2234379 -0.27759123
-0.114438534 -0.19183859 -0.0535536 -0.13920644 -0.18187575 -0.10113961 -0.061677564 -0.039515212
0.037330102 0.028860634 0.015568789 -0.08709257 0.1967032 -0.21984465 0.041055903 -0.278813
-0.16195886 -0.19942679 0.06339702 -0.03296536 -0.25189823 0.079804085 0.0015438355 0.06117998
-0.20621179 0.03189426 0.3199707 0.111483455 -0.1626625 -0.11655468 0.18567201 -0.15069327
-0.37414446 -0.12859271 0.090144336 -0.11994519 -0.04856507 0.074172005 -0.023840686 -0.16945411
-0.10624465 0.41785142 -0.16467564 0.008006983 0.25737792 -0.002990853 0.19208603 -0.11964608
0.110329434 0.12384213 0.2779286 -0.49471864 0.07518576 -0.086871125 0.31781846 0.018648714
-0.20261237 0.10555389 0.21790184 -0.11553825 -0.12418148 -0.1112796 0.20998195 0.06781698
0.2323834 0.40793622 0.011748947 -0.0543311 -0.04876984 -0.08397496 -0.12640534 -0.089032695
0.14714265 0.13263173 0.050145816 0.05791148 0.10945197 -0.16937622 0.018796496 0.42033628
0.2213028 0.006721624 -0.046216544 -0.13816619 -0.027279582 0.1687098 -0.07259359 0.036359385
-0.11858273 0.048457753 -0.16730714 -0.006987475 0.5970049 -0.005339347 -0.016905736 -0.10858843
0.12718534 0.06963441 -0.058213662 0.19599488 -0.04724539 0.04889605 -0.07525705 -0.02642357
0.05906525 -0.23652577 0.09885919 -0.019866085 0.29118 0.0451708 0.0085783545 -0.020307107
0.04820402 -0.017200833 -0.023389636 0.11031922 -0.19853997 -0.0019343272 -0.07086757 0.10505156
-0.005877454 -0.054971445 0.13671845 0.045662448 -0.10924007 -0.17153838 -0.28298733 0.008665459
0.1297009 0.17039691 0.017445322 0.025922298 -0.026316531 -0.04882935 0.10983668 -0.06367609
-0.1963116 -0.026150731 0.15588816 0.30675507 0.066593625 0.100844875 -0.061894 -0.06563786
-0.07373495 -0.29512048 0.17968 -0.09535105 -0.36453575 -0.1672362 -0.06836345 0.29198608
-0.051063724 0.030826012 0.12078731 -0.086258456 0.20943826 0.04299253 -0.30405515 -0.35246605
00000000: cd8d f13d 7cdd 9fbe ab1e a93d cc29 13bd
00000010: df85 0a3e 3b85 94bd aeea 4fbe a4e1 b53c
00000020: ef92 4dbd d1f6 a1bd 6f98 383d 10e5 70bd
00000030: b1f3 2abe b4a3 9dbc 68c8 debe 7e54 d03d
00000040: 7180 f03d 6698 dfbe 6bfe 72bd 9f75 8fbc
00000050: 2952 0ebe 0d94 f2bc 3115 a4be f2e9 063d
00000060: 3fb6 2cbe 3bd3 5bbe 21e4 8f3c 3d7a 88bd
00000070: ab34 1bbe 2f91 553c a32d 24be 5fc3 1cbe
00000080: 0923 07be 3d29 88be c795 12be b0a9 7cbe
00000090: fc37 14bd f487 fcbc c0a0 59be 45ee ccbc
000000a0: 85f4 56be 862c 46be b711 77be 197c 80be
000000b0: 0706 f2bd 6d4e 66bc 7bbd 663e bb72 c1bd
000000c0: 2136 80be c306 86be 19a5 89be 147d 753d
000000d0: 906f 533d fc02 f53c eba2 bbbd ce2a 73be
000000e0: c8d6 d4bd 24bd a6be 0d07 1bbe 47d7 83bd
000000f0: b86f 98be c4a6 063e 02f3 483d cd7a cc3d
00000100: 0550 e33c 3a71 9cbd 2dc7 44be bfdf e6bd
00000110: 96fc a53b f4fa febc f154 6fbe 071c 65be
00000120: 975a d3bc e671 e4be b448 ecbd 3c76 e4bd
00000130: 44b9 9dbe 1e52 853d 624f 53be 997a 79be
00000140: 90d7 063e 2938 b9be 57b0 f8bc 1ea0 2a3e
00000150: f866 b2be 4a5d c9bc 131c 133d bb3e 25bc
00000160: 088f 91bd b554 89bc 6b1b e73b 3eda 123e
00000170: aeda b23e ea4b 7fbe e8cc 643e 7020 8ebe
00000180: c05e eabd 5671 44be 055b 5bbd 228c 0ebe
00000190: a33d 3abe 4922 cfbd 9da1 7cbd b4da 21bd
000001a0: 73e7 183d 236d ec3c 3c14 7f3c 975d b2bd
000001b0: 906c 493e f51e 61be 3c2a 283d 94c0 8ebe
000001c0: 8bd8 25be 8936 4cbe 4cd6 813d af06 07bd
000001d0: cef8 80be 5370 a33d 865a ca3a dc97 7a3d
000001e0: 2f29 53be 8ea3 023d 33d3 a33e 7051 e43d
000001f0: 0091 26be 38b4 eebd ce20 3e3e 564f 1abe
00000200: dd8f bfbe cfad 03be 989d b83d d3a5 f5bd
00000210: 2bec 46bd 7ee7 973d 8b4d c3bc 6185 2dbe
00000220: cc96 d9bd 9ff0 d53e bba0 28be b92f 033c
00000230: 0ac7 833e 3002 44bb 33b2 443e 0109 f5bd
00000240: 66f4 e13d f1a0 fd3d a84c 8e3e c34b fdbe
00000250: fefa 993d 7de9 b1bd 1ab9 a23e 30c5 983c
00000260: 9e79 4fbe a32c d83d a921 5f3e 519f ecbd
00000270: dc52 febd 8fe6 e3bd 8205 573e a1e3 8a3d
00000280: eaf5 6d3e 04dd d03e a87e 403c 4a8a 5ebd
00000290: e2c2 47bd 10fb abbd 6770 01be c656 b6bd
000002a0: 90ac 163e 9dd0 073e b365 4d3d 9734 6d3d
000002b0: 5b28 e03d f670 2dbe 1cfb 993c 5136 d73e
000002c0: 349d 623e 1241 dc3b 8f4d 3dbd 707b 0dbe
000002d0: 6e79 dfbc 43c2 2c3e f3ab 94bd 94ed 143d
000002e0: 81db f2bd a37b 463d 9052 2bbe 30f7 e4bb
000002f0: 50d5 183f b0f5 aebb e67d 8abc 9c63 debd
00000300: e03c 023e 7c9c 8e3d 7371 6ebd e2b2 483e
00000310: 6284 41bd 3947 483d 5e20 9abd 3e76 d8bc
00000320: 67ee 713d d033 72be b076 ca3d 33be a2bc
00000330: 8c15 953e 0405 393d 3a8c 0c3c 175b a6bc
00000340: 9471 453d c3e8 8cbc 9f9b bfbc 0bef e13d
00000350: 104e 4bbe 4089 fdba 0423 91bd 4625 d73d
00000360: a897 c0bb bd29 61bd ecff 0b3e 8c08 3b3d
00000370: 42b9 dfbd c2a7 2fbe b7e3 90be 92f9 0d3c
00000380: 50d0 043e 877c 2e3e 7ee9 8e3c 005b d43c
00000390: c495 d7bc 4901 48bd 0ef2 e03d 9c68 82bd
000003a0: e805 49be 0f3a d6bc 25a1 1f3e 000f 9d3e
000003b0: 3d62 883d c287 ce3d 9084 7dbd 246d 86bd
000003c0: 5902 97bd 081a 97be 09fe 373e 6947 c3bd
000003d0: 6ea4 babe f73f 2bbe 2302 8cbd 337f 953e
000003e0: 3228 51bd d586 fc3c 565f f73d 46a8 b0bd
000003f0: fc76 563e ef18 303d 1ead 9bbe 6e76 b4be

memory_rnn.value.bias f4 [64]
-0.15656292 -0.002660363 0.048706245 -0.076026246 0.032115523 -0.12103803 -0.025315885 -0.008471166
0.028501615 0.27108422 0.011794245 0.18472944 0.14830671 0.14187577 0.040271733 -0.011763469
-0.029725736 -0.111772284 -0.045209028 0.015784707 -0.24190526 0.07966815 0.09139322 -0.043017913
-0.059461493 0.043615352 0.102357276 2.008077e-06 -0.17932591 0.033745166 0.09146946 0.0024553016
-0.028064284 0.119417414 -0.010921592 -0.030653037 0.040806815 -0.05750611 0.055651814 -0.0906233
0.065054916 -0.056635212 -0.045589652 0.054486927 -0.043843344 0.16342796 0.16504344 -0.11118746
-0.03608894 -0.02030396 -0.041469 0.004758343 -0.03406334 0.06373233 -0.09432122 0.0694525
-0.027453845 -0.037247684 -0.07393821 -0.011937412 -0.0094462745 -0.0066641644 0.082166545 -0.06998896
00000000: 0852 20be 7c59 2ebb 3380 473d a6b3 9bbd
00000010: 918b 033d c9e2 f7bd 4263 cfbc a5ca 0abc
00000020: 387c e93c 8dcb 8a3e a63c 413c b729 3d3e
00000030: b7dd 173e e247 113e f9f3 243d 91bb 40bc
00000040: 6383 f3bc dee8 e4bd 1a2d 39bd ee4e 813c
00000050: 03b6 77be 0e29 a33d 5e2c bb3d 8d33 30bd
00000060: e58d 73bd 03a6 323d b1a0 d13d 80c2 0636
00000070: 36a1 37be 5f38 0a3d 5754 bb3d 20e9 203b
00000080: 12e7 e5bc 1e91 f43d 7af0 32bc 141c fbbc
00000090: 0c25 273d 878b 6bbd 28f3 633d b598 b9bd
000000a0: 833b 853d 53fa 67bd 37bc 3abd af2d 5f3d
000000b0: 1495 33bd a959 273e 2601 293e 40b6 e3bd
000000c0: ffd1 13bd 7e54 a6bc 66db 29bd e0eb 9b3b
000000d0: 0086 0bbd 1986 823d 7c2b c1bd 1d3d 8e3d
000000e0: e3e6 e0bc 0791 18bd eb6c 97bd 2395 43bc
000000f0: 8cc4 1abc 105f dabb ef46 a83d 5f56 8fbd

memory_rnn.rnn.i2h.w f4 [6, 64, 40]
-0.25914538 -0.2842705 -0.16064683 -0.009672268 -0.086771876 0.2206099 0.1949225 0.17035402
-0.45938897 -0.22741815 -0.030976841 -0.21842286 0.1803791 0.054165933 -0.28413376 0.40212873
-0.13364209 0.13042279 0.15280414 0.22337309 0.1314289 0.14002822 -0.22055581 0.18287334
0.105679765 -0.12419401 -0.043878272 0.041240606 -0.40795594 -0.044751197 0.21608421 0.35784656
-0.44874153 0.009256653 0.37052292 0.3930425 -0.1836658 0.10977641 -0.14039326 -0.039773062
0.0080061685 -0.24975681 -0.2477658 -0.2788671 0.3395199 0.05087229 0.020484392 -0.3025512
0.07463977 -0.4575966 -0.23107153 0.086299196 -0.35283464 -0.35337013 -0.25463703 -0.20699118
0.4369267 -0.29932266 -0.27323353 0.03251021 -0.35393932 -0.49332523 -0.18001732 -0.21816252
0.4207141 0.015815498 0.2225034 0.054669887 -0.101873994 -0.38047826 0.19332834 -0.07679069
-0.08686962 -0.08106879 0.14122047 0.122218035 -0.15446661 -0.27242672 -0.58988684 0.23147127
0.19497089 -0.19439074 0.041096438 -0.2517102 0.119512305 -0.16195911 -0.47134447 -0.06586975
-0.17347358 -0.23654087 -0.30310053 -0.36302543 0.16172658 0.2381571 0.11532773 -0.014667824
-0.33847967 -0.018986117 0.07362093 -0.39054647 -0.1788502 -0.065721296 0.30149055 0.2642255
0.013468154 -0.084984146 -0.3521612 0.16358797 0.48569575 0.22770692 0.2676077 0.001051452
0.31678963 0.24939856 -0.12774156 -0.20611353 0.14145397 0.20641366 -0.074223936 -0.069046274
-0.38190654 -0.28560242 -0.100820616 0.23877421 -0.31378818 0.29610956 -0.34867182 -0.1404046
-0.42156094 -0.0064195935 0.05305582 0.15284064 -0.14033218 0.35425475 -0.12353548 -0.101973824
-0.16488141 0.25868747 0.096608505 0.08649645 -0.31183547 -0.0590442 -0.024100106 -0.17704676
-0.29549766 0.10770945 0.4348309 0.31721246 -0.02560494 0.36167675 0.118971944 0.30860728
0.079134904 -0.3866451 -0.05509563 -0.019652942 0.029628627 -0.013709678 -0.023232235 -0.24684818
0.18974628 0.42088717 -0.0031743306 0.5352653 0.23513891 -0.12072378 -0.15807982 0.12127341
0.5271977 0.339202 -0.2384326 -0.18721351 0.07866242 -0.14025193 -0.022872796 -0.2883938
-0.059832506 -0.23144154 0.05195691 -0.15597792 0.020531174 0.12436324 0.47191772 0.36965314
0.60469264 0.009642636 0.3994506 -0.026084414 0.018905118 0.110054746 0.3234473 0.12305569
0.0395373 0.22890091 -0.3227419 -0.04908692 0.100810975 -0.118900046 -0.21946304 -0.2780791
-0.12573864 -0.08983293 -0.11161608 0.041114103 0.042270467 0.06483431 -0.13477167 -0.35094783
-0.34878722 -0.038271893 -0.02753628 -0.10626321 -0.21583292 0.13307452 -0.03694126 0.112498775
0.10631835 -0.0051233047 -0.13111067 -0.094534524 -0.26815236 -0.21375193 -0.13525225 0.2291972
0.17342518 0.27890563 -0.3082125 0.09773652 -0.28065768 -0.21723182 -0.2796722 0.060198985
-0.2094896 -0.0070965644 0.37563482 0.3989981 0.2450073 -0.28546053 0.09312388 -0.0309759
0.21496305 -0.22007103 -0.45609817 0.06257092 -0.35830408 -0.19115311 0.03777671 -0.16287105
-0.073728085 -0.58323187 0.20087223 -0.4454323 -0.33452162 -0.26591417 -0.06295545 -0.13265307
00000000: b4ae 84be e78b 91be 9a80 24be 6f78 1ebc
00000010: 74b5 b1bd 90e7 613e c499 473e 4971 2e3e
00000020: 0835 ebbe 4ee0 68be 25c3 fdbc 3eaa 5fbe
00000030: 4cb5 383e 19dd 5d3d fb79 91be d1e3 cd3e
00000040: 79d9 08be 8d8d 053e b078 1c3e eabb 643e
00000050: 4c95 063e 8f63 0f3e 62d9 61be 2643 3b3e
00000060: a26e d83d 6e59 febd b4b9 33bd e9eb 283d
00000070: 9adf d0be 084d 37bd 2e45 5d3e aa37 b73e
00000080: 73c1 e5be 37a9 173c 2eb5 bd3e de3c c93e
00000090: e312 3cbe 74d2 e03d 40c3 0fbe 14e9 22bd
000000a0: 4e2c 033c 40c0 7fbe 51b6 7dbe abc7 8ebe
000000b0: 8dd5 ad3e 765f 503d e2ce a73c fee7 9abe
000000c0: bcdc 983d 1a4a eabe 049e 6cbe a2bd b03d
000000d0: bea6 b4be eeec b4be c95f 82be 7ff5 53be
000000e0: dbb4 df3e d240 99be 44e5 8bbe 6d29 053d
000000f0: 8937 b5be 2095 fcbe 7656 38be ff65 5fbe
00000100: d767 d73e 818f 813c eed7 633e 88ed 5f3d
00000110: 50a3 d0bd 0cce c2be ddf7 453e 7044 9dbd
00000120: b3e8 b1bd 6507 a6bd 199c 103e 734d fa3d
00000130: 7f2c 1ebe 847b 8bbe d302 17bf ce06 6d3e
00000140: 73a6 473e 5e0e 47be bd54 283d 29e0 80be
00000150: dec2 f43d 9cd8 25be 1054 f1be b8e6 86bd
00000160: 0fa3 31be c537 72be fe2f 9bbe 78de b9be
00000170: a79b 253e 74df 733e f230 ec3d 5051 70bc
00000180: 354d adbe c688 9bbc 92c6 963d b5f5 c7be
00000190: 8224 37be e398 86bd f85c 9a3e 9148 873e
000001a0: 88a9 5c3c 2b0c aebd 794e b4be 9b83 273e
000001b0: 1dad f83e 012c 693e e003 893e e0d0 893a
000001c0: 4032 a23e 5662 7f3e afce 02be 6d0f 53be
000001d0: 4fd9 103e 1a5e 533e b802 98bd 2268 8dbd
000001e0: 4189 c3be 7b3a 92be 0a7b cebd 3a81 743e
000001f0: d8a8 a0be ac9b 973e 1d85 b2be 39c6 0fbe
00000200: d6d6 d7be 745b d2bb 0f51 593d 4282 1c3e
00000210: 3db3 0fbe e160 b53e 2b00 fdbd a7d7 d0bd
00000220: acd6 28be af72 843e aeda c53d 0d25 b13d
00000230: e6a8 9fbe 55d8 71bd 966d c5bc bf4b 35be
00000240: 784b 97be c696 dc3d 28a2 de3e ac69 a23e
00000250: 73c1 d1bc b22d b93e 90a7 f33d c601 9e3e
00000260: 7b11 a23d 59f6 c5be f5ab 61bd 35ff a0bc
00000270: bcb7 f23c 8f9e 60bc 8751 bebc c5c5 7cbe
00000280: d94c 423e 867e d73e 6e08 50bb 2607 093f
00000290: 41c8 703e 073e f7bd addf 21be 325e f83d
000002a0: 6ef6 063f e2ab ad3e ad27 74be e6b4 3fbe
000002b0: c319 a13d 349e 0fbe bb5f bbbc 5aa8 93be
000002c0: ee12 75bd 03ff 6cbe c5d0 543d adb8 1fbe
000002d0: fe30 a83c 28b2 fe3d 339f f13e 2d43 bd3e
000002e0: 23cd 1a3f 26fc 1d3c ca84 cc3e fbae d5bc
000002f0: e8de 9a3c 6264 e13d e29a a53e 9f04 fc3d
00000300: ddf1 213d 0065 6a3e 6d3e a5be 5e0f 49bd
00000310: fc75 ce3d de81 f3bd ebba 60be 6260 8ebe
00000320: a1c1 00be 54fa b7bd f996 e4bd 4367 283d
00000330: cc23 2d3d dac7 843d 9601 0abe 6faf b3be
00000340: 3d94 b2be fdc2 1cbd c493 e1bc 87a0 d9bd
00000350: 4e03 5dbe b044 083e b84f 17bd c265 e63d
00000360: 6fbd d93d 65e1 a7bb e041 06be 519b c1bd
00000370: 444b 89be c9e1 5abe 917f 0abe acb2 6a3e
00000380: 5f96 313e b8cc 8e3e 07ce 9dbe 162a c83d
00000390: 5db2 8fbe 0572 5ebe 3231 8fbe 3693 763d
000003a0: 7184 56be 4c8a e8bb 3553 c03e 7b49 cc3e
000003b0: 32e3 7a3e e227 92be bcb7 be3d 2cc1 fdbc
000003c0: 461f 5c3e 4d5a 61be b385 e9be 2f25 803d
000003d0: a273 b7be a4bd 43be c0bb 1a3d abc7 26be
000003e0: c0fe 96bd af4e 15bf 73b1 4d3e b40f e4be
000003f0: 6b46 abbe e725 88be c9ee 80bd 35d6 07be

memory_rnn.rnn.h2h.w f4 [6, 10, 40]
-0.23645501 -0.037635338 0.47211367 -0.0028885829 0.1412424 -0.20085128 0.19245465 0.039845604
0.5347432 -0.073626995 0.18232471 0.22784016 0.5809075 -0.37233946 -0.44506523 0.050406348
-0.14304738 0.086038426 0.5295458 -0.2959469 0.12465539 -0.14967918 0.36457387 -0.1387128
0.15389147 -0.2503779 -0.3207645 0.08766479 0.6652174 0.02883731 0.20182325 -0.45423642
0.43057847 -0.1037106 0.17630804 -0.27365163 0.049584407 -0.04146445 0.0625074 0.48301545
-0.05432073 -0.08137773 -0.15651274 -0.14785816 -0.3745726 -0.20605604 -0.37073678 -0.20312476
0.28177318 0.3727898 0.032690734 0.18131182 0.07145738 -0.42737877 0.15778509 -0.124087706
0.16147593 0.26606074 0.14293984 -0.10712063 -0.25304973 0.098469324 0.055809654 0.26995653
-0.21340784 -0.17798762 -0.07838034 -0.25881806 -0.21182555 -0.1082703 -0.1524918 0.110429324
-0.10169425 0.42267516 0.07630449 -0.6706161 -0.45930684 -0.11282259 -0.24683408 -0.022804182
0.0092559215 -0.111851215 0.2780256 -0.37367275 -0.18625289 -0.3321499 -0.20736183 -0.33438283
-0.019941412 0.071814515 -0.11513007 0.04443465 0.22963063 0.08962312 0.23953861 -0.23045678
0.20884041 0.22606193 -0.0037127503 0.31393114 0.081667036 -0.0938023 0.28930026 -0.40384108
0.028609328 -0.3028765 0.066260755 -0.025134614 0.22692387 0.19276375 0.39754274 -0.57019323
0.12761505 -0.32764998 0.265349 0.029025562 -0.029006138 0.22864206 0.16492848 0.124359645
0.09762803 0.046729583 -0.04805912 0.0008363568 -0.30237162 0.4519883 0.11533137 0.19572188
-0.20745897 -0.073650144 0.3970868 0.06775292 0.66031075 -0.23983702 -0.51699734 0.3347786
-0.098756924 0.36927417 0.28210875 -0.118652694 0.2587453 -0.15732463 0.08403305 0.029129094
-0.2899691 0.2787337 -0.041961577 -0.1839783 0.3838007 -0.3116515 -0.015127411 0.009076366
0.32599443 -0.3200662 -0.14509907 -0.4193226 -0.013667711 -0.094977215 0.18162307 0.27606976
-0.10862283 0.17273046 0.0015805387 0.019403156 -0.36348733 -0.25002855 0.5774044 -0.021391997
0.14022669 -0.42124662 -0.29378346 -0.44769877 -0.28163436 0.27132833 0.36758304 0.10634124
0.0041537615 0.038726624 -0.16502818 -0.18251322 0.119325764 -0.20330518 -0.36968493 -0.24412587
-0.2069423 -0.5185978 -0.054105394 -0.26131353 0.086244285 -0.13252279 0.10984344 -0.13928057
0.1564595 0.13913772 0.28115886 0.22396788 -0.23289414 -0.14071368 -0.24542886 -0.35530657
-0.23380187 0.25702834 -0.20956486 -0.20829591 -0.32919544 0.035430953 -0.13689329 -0.03584349
-0.23731744 -0.095079236 0.40638268 -0.12922657 0.2143456 -0.063760325 0.01416106 -0.08137856
0.09240899 -0.38491827 0.11588386 0.17976522 0.044070773 0.07971625 -0.40962714 -0.13909659
-0.1789207 -0.011305843 -0.11603979 0.17004167 0.27415293 0.051561452 -0.075208604 0.16528991
-0.05575324 -0.08692325 0.06978263 0.3597893 -0.03546357 0.049202815 0.05523289 -0.22190478
0.07808959 -0.15522973 -0.22933032 -0.17131245 0.443162 -0.031259976 -0.21143258 0.34439453
0.215544 0.0460913 -0.26646924 -0.11162462 -0.121490665 0.24003784 0.2617225 0.0011769133
00000000: 4321 72be 8327 1abd e2b8 f13e 614e 3dbb
00000010: d9a1 103e f5ab 4dbe d512 453e 2535 233d
00000020: eee4 083f c0c9 96bd 54b3 3a3e ee4e 693e
00000030: 5bb6 143f 47a3 bebe 97df e3be e376 4e3d
00000040: 037b 12be ea34 b03d 5090 073f 5a86 97be
00000050: 534b ff3d 8045 19be 6da9 ba3e ba0a 0ebe
00000060: ba95 1d3e 8831 80be 3f3b a4be 9989 b33d
00000070: b04b 2a3f 393c ec3c c1aa 4e3e ad91 e8be
00000080: c874 dc3e 3966 d4bd 188a 343e 111c 8cbe
00000090: 0519 4b3d a1d6 29bd e103 803d cd4d f73e
000000a0: 6a7f 5ebd 5ea9 a6bd e044 20be 2168 17be
000000b0: fbc7 bfbe 5b00 53be 36d1 bdbe f0ff 4fbe
000000c0: 9344 903e 4ede be3e b8e6 053d cea9 393e
000000d0: 3f58 923d 64d1 dabe 6a92 213e b221 febd
000000e0: f259 253e 1d39 883e d25e 123e 1062 dbbd
000000f0: bc8f 81be 49aa c93d aa98 643d be37 8a3e
00000100: 9687 5abe 6342 36be df85 a0bd cd83 84be
00000110: cce8 58be d2bc ddbd cf26 1cbe c528 e23d
00000120: 1345 d0bd e168 d83e 8745 9c3d 7fad 2bbf
00000130: 442a ebbe 880f e7bd 13c2 7cbe d6cf babc
00000140: 26a6 173c 4012 e5bd 5f59 8e3e 0952 bfbe
00000150: 14b9 3ebe 8d0f aabe a956 54be 3a34 abbe
00000160: 2c5c a3bc 7d13 933d 50c9 ebbd 1c01 363d
00000170: 4b24 6b3e 548c b73d 9c49 753e ddfc 6bbe
00000180: 43da 553e c77c 673e 9d51 73bb 95bb a03e
00000190: 0c41 a73d 6c1b c0bd 2a1f 943e 42c4 cebe
000001a0: 1c5e ea3c a112 9bbe b8b3 873d 1be7 cdbc
000001b0: bb5e 683e dc63 453e b98a cb3e 2ff8 11bf
000001c0: 85ad 023e bdc1 a7be d3db 873e 04c7 ed3c
000001d0: 489e edbc 2521 6a3e 03e3 283e 45b0 fe3d
000001e0: 34f1 c73d 8567 3f3d a4d9 44bd f43e 5b3a
000001f0: 74d0 9abe 036b e73e da32 ec3d 516b 483e
00000200: 2070 54be e3d5 96bd f64e cb3e 0bc2 8a3d
00000210: 200a 293f d697 75be f059 04bf 1a68 ab3e
00000220: 1241 cabd 8111 bd3e 8f70 903e 2f00 f3bd
00000230: 447a 843e b519 21be 8519 ac3d 23a0 ee3c
00000240: d476 94be 2fb6 8e3e e7df 2bbd cf64 3cbe
00000250: 8681 c43e c990 9fbe f6d8 77bc 0ab5 143c
00000260: bee8 a63e b8df a3be da94 14be 74b1 d6be
00000270: 89ee 5fbc 6a83 c2bd 66fb 393e 0459 8d3e
00000280: a575 debd 41e0 303e 142a cf3a 5ef3 9e3c
00000290: 031b babe be03 80be c6d0 133f 453e afbc
000002a0: 9697 0f3e a3ad d7be c96a 96be c638 e5be
000002b0: 6132 90be 8ceb 8a3e d833 bc3e 70c9 d93d
000002c0: 471c 883b cf9f 1e3d 26fd 28be bfe4 3abe
000002d0: 1161 f43d 3c2f 50be 5847 bdbe 22fc 79be
000002e0: afe8 53be d3c2 04bf 9e9d 5dbd e3ca 85be
000002f0: d8a0 b03d 0eb4 07be 99f5 e03d 919f 0ebe
00000300: eb36 203e 1e7a 0e3e 0ef4 8f3e d657 653e
00000310: cd7b 6ebe 3f17 10be b451 7bbe beea b5be
00000320: c269 6fbe 3899 833e 2c98 56be 864b 55be
00000330: 4e8c a8be 0c20 113d c12d 0cbe a0d0 12bd
00000340: 5803 73be e7b8 c2bd 6411 d03e f853 04be
00000350: 6a7d 5b3e c694 82bd ca03 683c cda9 a6bd
00000360: ed40 bd3d 0214 c5be 8454 ed3d 6014 383e
00000370: 8e83 343d 4642 a33d a6ba d1be 566f 0ebe
00000380: fd36 37be 243c 39bc 45a6 edbd 671f 2e3e
00000390: c65d 8c3e 1a32 533d f806 9abd c241 293e
000003a0: 825d 64bd d104 b2bd 32ea 8e3d 4e36 b83e
000003b0: 4042 11bd e488 493d e23b 623d 023b 63be
000003c0: 6fed 9f3d 8bf4 1ebe 91d5 6abe 886c 2fbe
000003d0: 21e6 e23e 760a 00bd c881 58be 7b54 b03e
000003e0: 91b7 5c3e 3bca 3c3d a86e 88be 739b e4bd
000003f0: 19d0 f8bd 7bcc 753e 7e00 863e a842 9a3a
