Recurrent-Independent-Mechanisms/minigrid_experiments/storage/2023-11-17_wallgap-doorkey-redblue-crossing_ppo_789012_1000000_metalearn_True_rims_6_k_4_reshape_False/status2.pt (torch, 567247 bytes, 48 tensors)

image_conv.0.weight f4 [16, 3, 2, 2]
-0.026061187 0.0789917 -0.009803218 -0.3182207 -0.35818473 -0.051756933 0.36781895 -0.24557734
-0.33623078 -0.10553815 -0.19554278 -0.6211825 -0.2205912 0.46024254 -0.19013119 -0.39574945
0.124363296 -0.30320713 0.07115569 0.027035085 -0.070716925 0.08010862 0.07635456 0.10304908
-0.38098913 -0.26459217 -0.0839627 -0.14126751 0.20343384 -0.019748304 0.112557195 0.28065023
-0.17235458 -0.097904645 -0.6821622 0.28315565 -0.3064017 0.16182649 0.20890284 0.16385591
0.001797979 -0.3411965 -0.092832394 -0.39542532 0.012068358 1.1984656 0.11558152 0.841942
0.3369568 -0.30356267 0.22934179 -0.18115357 -0.031984035 -0.23250999 -0.45657578 0.3452923
-0.11080639 -0.2458109 -0.23669283 -0.2518191 -0.1624637 -0.394346 0.14495212 0.39479363
0.14955391 0.0035828885 -0.7106451 -0.13138172 0.39930385 0.0714596 0.5649659 -0.3095486
-0.007853789 -0.06976271 0.024568385 0.14316936 -0.054190505 -0.30799645 0.0033844472 -0.20548034
0.24404445 -0.04149685 0.09375233 0.7709463 0.39082426 -0.008580141 0.23915379 -0.274959
-0.23649688 0.018056208 -0.29936802 -0.49528608 0.8091087 -0.17341472 0.32900295 -0.083615355
-0.18694863 0.27612802 -0.28308323 0.09431365 -0.06731884 -0.19097157 -0.40947685 0.018728878
0.09695496 0.8740711 -0.030990107 -0.18949507 0.38738462 0.25133687 -0.25619373 -0.11402216
-0.7042709 -0.82118464 0.028438685 0.07663839 -0.15372516 0.285242 -0.1670577 -0.34553936
0.6203489 -0.38225564 0.13420628 -0.06434657 0.0214946 -0.0073501347 -0.16260691 0.11940671
0.28544086 0.05606913 -0.086762555 0.440778 -0.013027617 0.3968391 -0.009197019 -0.26406264
-0.4013033 -0.0134627195 -0.2419824 -0.11482224 0.68136823 0.4477209 0.33761087 -0.22302173
0.04813598 -0.14487137 -0.05536855 0.19146554 -0.03956129 -0.45503142 -0.5073968 0.16381985
0.3305469 -0.18803416 -1.1518464 -0.053302474 -0.17759565 0.032838996 -0.03194227 -0.29851308
0.05042821 -0.6568407 0.03269321 0.24384947 -0.26209885 0.19823283 -0.0692458 0.46600688
-0.085701406 -0.44822896 -0.17959376 -0.37438342 0.2204559 0.08253884 0.3292546 -0.490773
-0.011882849 -0.26215342 -0.2709188 -0.42504686 -0.33946973 0.2872879 -0.28832883 0.48731467
-0.37164155 -0.071659446 -0.10582603 -0.22200224 -0.106783405 0.004450814 0.3501734 -0.08745668
00000000: 457e d5bc 67c6 a13d ad9d 20bc d3ed a2be
00000010: fd63 b7be 14ff 53bd c452 bc3e a078 7bbe
00000020: 7126 acbe 6324 d8bd 5e3c 48be d105 1fbf
00000030: a9e2 61be e9a4 eb3e c0b1 42be ac9f cabe
00000040: 2fb2 fe3d f73d 9bbe 13ba 913d af78 dd3c
00000050: 09d4 90bd fd0f a43d c85f 9c3d 650b d33d
00000060: 0211 c3be a078 87be a3f4 abbd 6ea8 10be
00000070: f650 503e 32c7 a1bc 6384 e63d 63b1 8f3e
00000080: b87d 30be 3b82 c8bd 2fa2 2ebf c7f9 903e
00000090: afe0 9cbe d8b5 253e a0ea 553e d8c9 273e
000000a0: 2aaa eb3a 4fb1 aebe e91e bebd 3075 cabe
000000b0: 5dba 453c 5267 993f 01b6 ec3d 8389 573f
000000c0: 9a85 ac3e 916c 9bbe 93d8 6a3e 5280 39be
000000d0: b101 03bd 1917 6ebe 4dc4 e9be 27ca b03e
000000e0: 76ee e2bd dab5 7bbe 9b5f 72be 6fee 80be
000000f0: e25c 26be b8e7 c9be 546e 143e 6422 ca3e
00000100: a924 193e e5ce 6a3b d6ec 35bf ee88 06be
00000110: 8e71 cc3e 6959 923d 9ba1 103f 277d 9ebe
00000120: 2ead 00bc c0df 8ebd a343 c93c fd9a 123e
00000130: ddf6 5dbd b6b1 9dbe 9acd 5d3b 7069 52be
00000140: cae6 793e 9af8 29bd 3901 c03d bd5c 453f
00000150: 1e1a c83e b893 0cbc bbe4 743e 6dc7 8cbe
00000160: 3d2c 72be 9dea 933c c446 99be 2396 fdbe
00000170: bf21 4f3f a193 31be 1373 a83e 873e abbd
00000180: 766f 3fbe a760 8d3e 49f0 90be 8427 c13d
00000190: 76de 89bd 0d8e 43be f3a6 d1be 4e6d 993c
000001a0: 5290 c63d 20c3 5f3f f7de fdbc ff0a 42be
000001b0: 4757 c63e 3aaf 803e d32b 83be 7384 e9bd
000001c0: 194b 34bf 2839 52bf 3ff8 e83c 97f4 9c3d
000001d0: 216a 1dbe 3d0b 923e 2c11 2bbe 89ea b0be
000001e0: 2fcf 1e3f 03b7 c3be 5f6d 093e 22c8 83bd
000001f0: 7215 b03c 66d9 f0bb 6d82 26be 818b f43d
00000200: 4e25 923e bea8 653d 91b0 b1bd a7ad e13e
00000210: c971 55bc 7f2e cb3e 18af 16bc 3833 87be
00000220: a077 cdbe bd92 5cbc 3cca 77be ec27 ebbd
00000230: 266e 2e3f ac3b e53e 55db ac3e cf5f 64be
00000240: 3c2a 453d 2959 14be 22ca 62bd 8b0f 443e
00000250: 050b 22bd e1f9 e8be c2e4 01bf 64c0 273e
00000260: 713d a93e 078c 40be b46f 93bf b253 5abd
00000270: a2db 35be 2f82 063d e6d5 02bd b5d6 98be
00000280: d08d 4e3d b626 28bf 51e9 053d adb3 793e
00000290: d231 86be 8cfd 4a3e bed0 8dbd 7498 ee3e
000002a0: 3884 afbd 447e e5be 6de7 37be 2faf bfbe
000002b0: 31bf 613e 200a a93d 0f94 a83e 9946 fbbe
000002c0: 48b0 42bc f938 86be deb5 8abe be9f d9be
000002d0: face adbe 6617 933e d69f 93be 4f81 f93e
000002e0: cd47 bebe 30c2 92bd 51bb d8bd 8e54 63be
000002f0: 42b1 dabd 22d8 913b ee49 b33e 7d1c b3bd

image_conv.0.bias f4 [16]
-0.075083524 -0.28897437 -0.19261597 -0.4444579 -0.04249347 -0.24273387 -0.13580018 0.041764915
-0.14664085 -0.043941803 -0.062450316 -0.15967053 0.11158224 -0.33196405 -0.054506253 -0.36759827
00000000: 64c5 99bd 73f4 93be 1f3d 45be fc8f e3be
00000010: a20d 2ebd 3a8f 78be 340f 0bbe b011 2b3d
00000020: 0529 16be 52fc 33bd e7cb 7fbd ac80 23be
00000030: 3b85 e43d 31f7 a9be f341 5fbd d735 bcbe

image_conv.3.weight f4 [32, 16, 2, 2]
-0.01313468 -0.0016569685 0.3639775 -0.41572544 -0.2799893 -0.22579889 -0.039460536 0.07581746
-0.18274026 0.11610612 0.06349166 -0.01743248 -0.025582103 0.45876032 0.051745567 0.39961308
-0.14150797 -0.3808078 0.14211322 -0.09752027 -0.2737141 0.12149386 0.13883007 0.071093455
-0.059153497 0.14708623 0.2004016 0.07130229 0.075863294 -0.20505695 0.042351097 -0.32177
-0.15743923 0.2352871 -0.32742083 0.24825178 0.11242707 -0.07870426 -0.2221084 -0.116480604
-0.14057897 -0.45812127 0.10510355 -0.22741197 -0.05547828 0.02218597 0.1389745 0.110855475
0.048691977 0.091420814 -0.13609672 -0.21619563 0.15756617 -0.08492852 -0.16108304 0.06528057
-0.1452671 -0.21728793 0.24165376 -0.08643794 -0.096557714 0.4152818 -0.05695113 -0.27499858
-0.09976673 0.018881371 0.50489485 -0.22285874 -0.38991335 -0.21570744 0.18902524 -0.18156824
0.10524085 0.10446797 0.1755365 -0.36436424 0.11264775 -0.36099777 -0.1639748 -0.06846984
0.3656114 0.08531861 0.17797977 -0.13502859 -0.15543948 0.1843689 -0.05938135 0.12370029
-0.4493684 0.03519651 -0.23246235 -0.24269734 -0.0056701675 0.011927849 -0.28204066 -0.1569685
-0.012088169 -0.2217576 0.6337622 0.01873109 -0.20050728 -0.12311002 0.13420078 -0.1918987
0.050660554 -0.082058065 0.03254042 0.04578807 -0.34189704 -0.5243474 0.2151582 0.010215871
0.0289548 0.027582768 -0.13173358 -0.022463156 -0.2889134 -0.06627871 0.07439113 -0.33348086
-0.21722952 0.19707084 -0.14101532 0.121449135 0.22740361 -0.24917631 0.10723799 0.016166681
0.010594937 0.48205146 0.07181747 0.46614015 0.28100845 -0.05891669 0.051042106 -0.29385155
0.19976972 -0.054097544 0.30131406 0.13392887 -0.4366159 -0.039329827 -0.13134095 -0.49949625
0.12432274 0.1613779 0.2476502 -0.2038218 -0.15255928 0.2003013 0.02526208 -0.21284129
-0.0695408 -0.23356807 0.16905674 -0.3860481 -0.22985394 -0.33884278 -0.0025021865 0.05465489
0.034005087 0.06766451 -0.0030855767 -0.5444966 -0.0067051672 0.022290666 -0.13219209 0.123576045
0.09747636 0.033655245 0.23836021 0.14511691 -0.06469756 -0.03723794 -0.15778406 -0.17770675
-0.23576169 0.053268824 -0.4011309 0.06523844 0.15775712 0.07755257 0.15849935 -0.2191528
0.4100372 -0.032094613 0.26629427 0.12971708 0.23400265 0.07683709 0.08521376 0.043148197
0.21312247 0.03248859 -0.2734316 -0.051050697 -0.3874168 0.13598122 0.09523047 -0.016183086
-0.041161 -0.31880683 -0.21698806 -0.39588344 -0.026460959 0.38040695 -0.16915487 0.106867924
-0.013419772 0.13549513 -0.008154397 -0.24551287 -0.09107396 0.061387993 0.07981802 -0.19867806
0.21153672 -0.23144846 -0.03212296 0.09474544 -0.39883113 0.11116184 0.022870576 0.19013683
-0.026755849 -0.13747364 0.09278523 -0.059946474 -0.29747522 -0.5634828 0.12917313 0.06334694
-0.09759575 0.44805717 0.20525196 0.0063948175 0.031998836 0.3759941 -0.094002575 0.05233533
0.30405936 -0.6358721 0.23462337 -0.05296609 0.059736475 -0.3741443 0.21942411 -0.21596333
-0.039217986 -0.10777881 -0.1785837 -0.22142433 -0.10023959 0.41915804 0.12468857 -0.19278927
00000000: d732 57bc a32e d9ba 425b ba3e f7d9 d4be
00000010: c25a 8fbe d337 67be 5fa1 21bd 2f46 9b3d
00000020: 4320 3bbe 0cc9 ed3d ea07 823d 8fce 8ebc
00000030: 8f91 d1bc a2e2 ea3e 29f3 533d 169a cc3e
00000040: 77e7 10be 3df9 c2be 2186 113e b5b8 c7bd
00000050: 4124 8cbe c6d1 f83d 7829 0e3e 7299 913d
00000060: f04a 72bd c69d 163e 1436 4d3e ef06 923d
00000070: 375e 9b3d 73fa 51be 5878 2d3d 0abf a4be
00000080: c037 21be 1aef 703e b4a3 a7be b735 7e3e
00000090: 2a40 e63d b32f a1bd 6270 63be 628d eebd
000000a0: eff3 0fbe df8e eabe 8840 d73d afde 68be
000000b0: 313d 63bd 5abf b53c 554f 0e3e 3208 e33d
000000c0: 3d71 473d d63a bb3d f05c 0bbe 6362 5dbe
000000d0: 0759 213e 01ef adbd f4f2 24be d2b1 853d
000000e0: e6c0 14be ba80 5ebe 1574 773e 6006 b1bd
000000f0: 0dc0 c5bd d19f d43e 9745 69bd 9dcc 8cbe
00000100: 8052 ccbd 1bad 9a3c ca40 013f 1535 64be
00000110: b9a2 c7be 69e2 5cbe d58f 413e 06ed 39be
00000120: 8488 d73d 4ef3 d53d d7bf 333e f38d babe
00000130: ddb3 e63d b3d4 b8be 03e9 27be ea39 8cbd
00000140: 6b31 bb3e 86bb ae3d 5440 363e ef44 0abe
00000150: 872b 1fbe 33cb 3c3e dc39 73bd 9456 fd3d
00000160: 9d13 e6be 372a 103d 9c0a 6ebe a785 78be
00000170: d0cc b9bb 066d 433c a267 90be 5abc 20be
00000180: 750d 46bc 6d14 63be 3d3e 223f f171 993c
00000190: c851 4dbe 1b21 fcbd ee6b 093e 1881 44be
000001a0: 7181 4f3d 0f0e a8bd 1a49 053d 458c 3b3d
000001b0: 210d afbe a23b 06bf 6e52 5c3e 7860 273c
000001c0: 9e32 ed3c 42f5 e13c 2be5 06be a704 b8bc
000001d0: 75ec 93be 22bd 87bd 605a 983d 01be aabe
000001e0: 6a71 5ebe f0cc 493e 5266 10be 53ba f83d
000001f0: 7edc 683e 1328 7fbe 979f db3d fd6f 843c
00000200: 6396 2d3c 73cf f63e 0a15 933d eca9 ee3e
00000210: 57e0 8f3e a152 71bd 8711 513d b673 96be
00000220: 6f90 4c3e 6395 5dbd d645 9a3e a624 093e
00000230: 1f8c dfbe 5018 21bd 3e7e 06be f9bd ffbe
00000240: ec9c fe3d 4040 253e 0498 7d3e a9b6 50be
00000250: 8038 1cbe c91b 4d3e 6cf2 ce3c 11f3 59be
00000260: 686b 8ebd 782c 6fbe 361d 2d3e 19a8 c5be
00000270: d55e 6bbe cd7c adbe b9fb 23bb cedd 5f3d
00000280: eb48 0b3d b193 8a3d 6337 4abb 2164 0bbf
00000290: 05b7 dbbb ea9a b63c 5d5d 07be 7015 fd3d
000002a0: b0a1 c73d 15da 093d b314 743e 8799 143e
000002b0: 2880 84bd cf86 18bd 2592 21be c2f8 35be
000002c0: 836b 71be 6930 5a3d 0861 cdbe bb9b 853d
000002d0: 158b 213e e2d3 9e3d a74d 223e 9769 60be
000002e0: 65f0 d13e a475 03bd b957 883e 8ed4 043e
000002f0: 649e 6f3e c45c 9d3d 8d84 ae3d 2abc 303d
00000300: c73c 5a3e c112 053d 3aff 8bbe 891a 51bd
00000310: 7f5b c6be a93e 0b3e 3108 c33d 6492 84bc
00000320: 7098 28bd a63a a3be 1e32 5ebe 3cb1 cabe
00000330: a7c4 d8bc b3c4 c23e ef36 2dbe 92dd da3d
00000340: 9ade 5bbc 3cbf 0a3e 059a 05bc ba67 7bbe
00000350: fc84 babd fa71 7b3d a177 a33d 4372 4bbe
00000360: 159d 583e d300 6dbe 5d93 03bd e609 c23d
00000370: 9833 ccbe d2a8 e33d 135b bb3c 3bb3 423e
00000380: 152f dbbc e4c5 0cbe 2f06 be3d 6f8a 75bd
00000390: ac4e 98be 6940 10bf f645 043e 0abc 813d
000003a0: 48e0 c7bd c067 e53e 922d 523e 9e8b d13b
000003b0: 3611 033d 4c82 c03e 6c84 c0bd 925d 563d
000003c0: abad 9b3e 84c8 22bf 1c41 703e f9f2 58bd
000003d0: 3cae 743d d78f bfbe b7b0 603e 7e25 5dbe
000003e0: 0aa3 20bd 23bb dcbd a5de 36be 0fbd 62be
000003f0: 6a4a cdbd e29b d63e b95c ff3d 8d6a 45be

image_conv.3.bias f4 [32]
-0.11035307 -0.02408818 -0.06776544 -0.28552178 0.012493745 0.056288306 -0.22545438 -0.27463302
-0.023021936 -0.063013405 -0.083473496 -0.17371826 -0.047271434 -0.043920238 0.07808486 -0.0460596
-0.12231944 -0.069466405 0.104231164 -0.06791749 -0.025439383 -0.01940575 -0.0927906 -0.02690944
0.08617379 -0.12748171 -0.1384606 0.053154472 -0.050580997 -0.026975242 -0.08944808 -0.12997584
00000000: ca00 e2bd 9354 c5bc 9bc8 8abd e92f 92be
00000010: 91b2 4c3c 918e 663d 83dd 66be b39c 8cbe
00000020: 8098 bcbc 2c0d 81bd 27f4 aabd 33e3 31be
00000030: b19f 41bd b5e5 33bd f5ea 9f3d fea8 3cbd
00000040: 9d82 fabd 6744 8ebd 2677 d53d 5318 8bbd
00000050: 4166 d0bc cff8 9ebc 0009 bebd 3071 dcbc
00000060: e27b b03d 918a 02be 9ec8 0dbe 81b8 593d
00000070: 052e 4fbd 2ffb dcbc 8e30 b7bd 6318 05be

image_conv.5.weight f4 [64, 32, 2, 2]
-0.29656607 0.028194238 0.12543298 -0.24309632 0.32065943 -0.15148509 0.070394605 -0.16054253
-0.09986524 0.15497357 -0.29301742 0.21890284 -0.17196375 0.4217079 0.2141261 0.16298112
-0.41233936 -0.36580828 -0.005158426 -0.1540841 0.23838697 -0.003075287 -0.1805753 0.015608572
-0.20099334 0.1048738 0.28576118 -0.024105156 0.11078103 -0.16773686 0.022638598 -0.5163007
0.07968459 -0.20672624 0.40000883 0.2391121 0.11770125 -0.47851583 0.02347925 0.09430151
-0.2781768 -0.53138095 -0.27414104 -0.33483446 -0.20887221 -0.5513742 -0.20199253 0.22380441
0.23434687 -0.0050038123 0.1884907 -0.12334585 0.30261308 -0.1573419 0.31654802 -0.144689
0.21602936 -0.41758263 0.14515728 0.015210875 -0.13755387 -0.31631222 0.4805635 0.17855825
0.24061902 0.021895453 0.17886035 0.3510417 -0.13183482 -0.55147177 0.013151479 0.14249004
0.11613546 0.4910894 0.047213424 0.12668173 0.51947254 0.32847452 -0.08243775 0.044009812
0.105052054 -0.051912017 0.05676433 -0.12294453 0.049794365 0.18322515 0.035348188 0.28858995
-0.026830528 -0.0360893 -0.35480613 0.12660374 -0.45464665 -0.23814917 0.2985356 0.29808187
-0.102650926 -0.40818265 -0.0865309 -0.17718582 -0.06863639 -0.036153562 0.036542844 0.073555395
-0.34109086 -0.4366464 -0.07459252 -0.111501954 -0.03804264 0.16385685 -0.09157834 -0.29155222
-0.2025181 0.09561507 -0.08094316 -0.25100365 0.06665917 0.30143535 0.024575008 0.3125188
-0.027562406 0.05155868 0.051512133 -0.03243942 0.25634897 -0.19677718 0.005743808 -0.01623889
0.0045228903 -0.19982913 -0.14701511 -0.020964604 -0.053122543 -0.15062739 -0.15102766 -0.17196365
-0.019091979 -0.0648177 0.06434822 -0.055499017 0.16726416 -0.4296218 0.014476605 -0.14674668
-0.058266666 -0.021131255 0.004170977 -0.23467763 0.014975685 -0.06074782 -0.036673784 -0.14899607
-0.16097857 -0.026530636 0.018392934 0.20300744 -0.089045554 -0.38477266 0.00018323399 0.055153966
0.050195444 0.096283674 -0.20337157 -0.0064598355 -0.05230582 0.07555494 -0.09057785 -0.0622469
-0.118691474 -0.16510606 -0.03795069 0.09748254 0.0697307 -0.17064296 -0.08187949 -0.21097846
-0.16626899 -0.03748256 0.100173645 -0.006179312 -0.27274674 -0.26410437 -0.2659419 0.1394931
-0.14463703 -0.2822727 0.06763265 0.015354769 0.07419909 -0.14080967 -0.09194026 -0.06498848
0.0058507887 -0.0015054047 0.08478658 -0.12485562 0.28339434 0.06271044 -0.11056383 -0.07013367
0.043203726 -0.108010195 -0.05842059 -0.083628714 0.04392338 0.03137164 0.010542872 0.15158483
-0.0068299263 0.0033595106 0.019021947 0.055700548 -0.129721 -0.07227836 -0.048261177 -0.095757246
-0.086374335 0.07117302 -0.2589638 0.019262522 -0.040281687 -0.15188247 -0.06178891 -0.10230707
0.11626558 -0.132865 -0.17630503 -0.1328128 -0.06662765 -0.061886717 -0.0029735444 -0.02634539
0.048910707 -0.102260195 -0.05342528 -0.10700622 0.08010094 -0.1806831 -0.03110413 -0.06097315
0.011893442 0.037531305 -0.047178414 0.011967443 -0.09593572 0.026299594 -0.039340734 -0.056683905
-0.063847676 -0.0673389 0.051625825 -0.08008447 0.021084934 -0.021187957 -0.051070794 -0.2242035
00000000: 82d7 97be 9af7 e63c 8171 003e 3eee 78be
00000010: 792d a43e e81e 1bbe 0c2b 903d 4365 24be
00000020: 2686 ccbd 64b1 1e3e 6106 96be 1128 603e
00000030: 4417 30be 19ea d73e df43 5b3e 86e4 263e
00000040: 251e d3be 394b bbbe 0308 a9bb 39c8 1dbe
00000050: b71b 743e c18a 49bb bbe8 38be 19bb 7f3c
00000060: 33d1 4dbe 13c8 d63d 4a4f 923e 2d78 c5bc
00000070: 2ae1 e23d 36c3 2bbe 9574 b93c 482c 04bf
00000080: ad31 a33d 0bb0 53be f5cd cc3e cdd9 743e
00000090: 5a0d f13d 0700 f5be 8e57 c03c 2621 c13d
000000a0: 316d 8ebe 9508 08bf 375c 8cbe 6c6f abbe
000000b0: 99e2 55be dc26 0dbf 21d7 4ebe fc2c 653e
000000c0: a0f8 6f3e 05f7 a3bb b503 413e c09c fcbd
000000d0: 1af0 9a3e 3c1e 21be 9512 a23e 5a29 14be
000000e0: cd36 5d3e 64cd d5be 1ca4 143e 0937 793c
000000f0: ecda 0cbe adf3 a1be 6b0c f63e f9d7 363e
00000100: d564 763e 185e b33c 2b27 373e bdbb b33e
00000110: b5ff 06be 412d 0dbf 4d79 573c e9e8 113e
00000120: 6ed8 ed3d 1270 fb3e dd62 413d dbb8 013e
00000130: 27fc 043f d02d a83e 20d5 a8bd a243 343d
00000140: 8825 d73d b2a1 54bd b781 683d 57ca fbbd
00000150: 2df5 4b3d 609f 3b3e 43c9 103d 10c2 933e
00000160: b2cb dbbc 60d2 13bd 26a9 b5be 69a4 013e
00000170: 72c7 e8be 60dd 73be a8d9 983e 309e 983e
00000180: a63a d2bd 51fd d0be 1d37 b1bd 3370 35be
00000190: 3c91 8cbd c215 14bd f3ad 153d 36a4 963d
000001a0: 76a3 aebe 1e90 dfbe f7c3 98bd 235b e4bd
000001b0: 99d2 1bbd 17ca 273e 6d8d bbbd 5546 95be
000001c0: e860 4fbe d5d1 c33d 87c5 a5bd 8d83 80be
000001d0: 9a84 883d bc55 9a3e 8751 c93c 7702 a03e
000001e0: 8eca e1bc 322f 533d 63fe 523d 33df 04bd
000001f0: 2c40 833e f57f 49be 8e36 bc3b 6c07 85bc
00000200: c134 943b 02a0 4cbe 218b 16be f6bd abbc
00000210: 0697 59bd 113e 1abe ffa6 1abe 3d17 30be
00000220: c866 9cbc 24bf 84bd 00c9 833d f052 63bd
00000230: 4c47 2b3e 63f7 dbbe 482f 6d3c c344 16be
00000240: 07a9 6ebd 741b adbc b1ac 883b 554f 70be
00000250: 935c 753c b5d2 78bd 4037 16bd 6d92 18be
00000260: 91d7 24be c756 d9bc c7ac 963c 2fe1 4f3e
00000270: 845d b6bd ec00 c5be 8022 4039 20e9 613d
00000280: bd99 4d3d 6030 c53d a340 50be 07ad d3bb
00000290: a13e 56bd 8cbc 9a3d e180 b9bd 9bf6 7ebd
000002a0: 8414 f3bd 9011 29be 2f72 1bbd eda4 c73d
000002b0: f8ce 8e3d 07bd 2ebe 6fb0 a7bd bd0a 58be
000002c0: 6b42 2abe 5087 19bd d727 cd3d d37b cabb
000002d0: 76a5 8bbe b038 87be 8929 88be 47d7 0e3e
000002e0: bb1b 14be 0c86 90be fd82 8a3d 9292 7b3c
000002f0: b1f5 973d 6930 10be 2d4b bcbd ae18 85bd
00000300: f9b7 bf3b 0051 c5ba 96a4 ad3d 4eb4 ffbd
00000310: 1019 913e 556e 803d 4a6f e2bd 3ea2 8fbd
00000320: 64f6 303d 7334 ddbd 6e4a 6fbd 8845 abbd
00000330: 01e9 333d 8c7f 003d 03bc 2c3c 0e39 1b3e
00000340: 93cd dfbb 3c2b 5c3b ead3 9b3c 4226 643d
00000350: 95d5 04be ad06 94bd 83ad 45bd 601c c4bd
00000360: 07e5 b0bd 29c3 913d e796 84be 70cc 9d3c
00000370: 69fe 24bd 1487 1bbe 5e16 7dbd 5e86 d1bd
00000380: a61c ee3d c30d 08be 4e89 34be 1400 08be
00000390: 1474 88bd ed7c 7dbd ccdf 42bb 4ad2 d7bc
000003a0: 9856 483d cb6d d1bd 77d4 5abd 1426 dbbd
000003b0: f60b a43d fe04 39be 17ce febc fbbe 79bd
000003c0: b6dc 423c 6dba 193d 273e 41bd 1813 443c
000003d0: f279 c4bd 3f72 d73c c023 21bd 622d 68bd
000003e0: 92c2 82bd fae8 89bd 9a75 533d 5403 a4bd
000003f0: 50ba ac3c 5e92 adbc 9c2f 51bd 9a95 65be

image_conv.5.bias f4 [64]
-0.14284518 -0.04666846 -0.13966425 -0.10029274 0.13382512 -0.25456658 -0.06124634 -0.278608
-0.053205587 -0.14210449 -0.12084637 -0.27050707 -0.064589806 -0.20272644 -0.15511744 -0.03791644
0.15258723 0.059622336 0.02515977 -0.22879289 -0.12054619 0.071365155 -0.07694116 0.34216034
0.055905223 -0.05442643 -0.19349857 -0.17808314 -0.0058164564 -0.053350378 0.0019379533 -0.09258887
0.05997236 0.10702963 -0.038883977 0.031337067 -0.07715297 -0.07846247 0.08445548 -0.124710195
0.047784507 0.2297526 -0.032753658 -0.05215458 0.06162278 -0.26206002 -0.022652036 -0.11794846
-0.045041874 -0.13034205 0.12527183 -0.099454716 -0.09940518 -0.038122162 -0.028564092 -0.052913178
0.19837947 0.052277297 0.27669725 -0.07169668 0.038224336 -0.03596519 -0.12016068 -0.047310557
00000000: 0246 12be 6d27 3fbd 2504 0fbe 4866 cdbd
00000010: 7409 093e 8d56 82be 71dd 7abd b5a5 8ebe
00000020: 1aee 59bd d783 11be 4d7e f7bd e77f 8abe
00000030: a947 84bd 8597 4fbe 1bd7 1ebe 454e 1bbd
00000040: d43f 1c3e 8d36 743d dd1b ce3c af48 6abe
00000050: ece0 f6bd e527 923d 5493 9dbd a42f af3e
00000060: e0fc 643d 40ee 5ebd 7d24 46be 6d5b 36be
00000070: f997 bebb ed85 5abd ec02 fe3a 3c9f bdbd
00000080: 94a5 753d 5a32 db3d ce44 1fbd 4c5b 003d
00000090: 6002 9ebd eeb0 a0bd fff6 ac3d 0f68 ffbd
000000a0: b0b9 433d 4444 6b3e b328 06bd 0aa0 55bd
000000b0: 2b68 7c3d bb2c 86be c390 b9bc f68e f1bd
000000c0: d47d 38bd 6378 05be 4247 003e eaae cbbd
000000d0: f194 cbbd fc25 1cbd 3eff e9bc 7dbb 58bd
000000e0: fd23 4b3e b820 563d 43ab 8d3e b5d5 92bd
000000f0: 1f91 1c3d 3c50 13bd cd16 f6bd b7c8 41bd

memory_rnn.key.weight f4 [64, 64]
0.15844136 0.007804079 -0.01185656 0.11926653 0.44810146 0.10874993 -0.007813891 -0.31320235
-0.018556077 -0.10458599 -0.07877188 0.03602218 -0.43586123 -0.4887209 -0.10564063 -0.044709645
0.21635588 -0.19194622 0.306034 -0.024345838 -0.22978029 0.05389278 0.24425806 -0.0047035143
0.24302852 -0.31911582 0.12646767 -0.41489452 -0.15577675 -0.1633915 -0.2535356 -0.29825804
0.024587808 -0.33721617 0.20988497 0.15467069 -0.11029979 -0.10542261 0.345476 0.44071987
0.10905656 0.28871176 -0.12258008 -0.34645158 0.019291684 -0.3570892 0.026875501 -0.30265668
-0.49856216 -0.10319027 -0.12240943 -0.5426158 0.13044205 -0.11440663 -0.077878125 -0.41566962
-0.1029044 -0.11696016 0.28283164 -0.21537031 -0.26417512 0.21332285 0.19566017 -0.24773951
-0.4802138 -0.014688037 0.2436784 -0.17334245 -0.4600806 0.09080041 -0.16925134 -0.3178404
0.020476632 -0.1423497 -0.18077746 -0.052071635 0.16782436 -0.47071236 0.14689878 0.24204639
-0.38030046 -0.090832196 -0.3790417 -0.13490097 -0.029424028 -0.2666529 0.07016643 0.10530143
-0.4266833 0.22751659 -0.329872 0.0828003 0.20050105 -0.002157108 -0.05891781 0.010628773
-0.21143569 -0.0034593623 -0.22721884 -0.48746815 -0.15040037 -0.5261677 -0.39746875 -0.27641678
-0.52727425 -0.27948505 0.24200495 0.3341666 -0.13431184 -0.19032265 -0.11337334 0.14970557
-0.14839943 0.24388668 -0.19558387 0.004570948 -0.32848772 -0.35079688 -0.55195016 0.060329445
-0.09039178 -0.27316827 -0.28560638 -0.05182372 0.0011195499 -0.24283405 0.09577996 -0.09927867
-0.31979138 0.026949903 -0.09461813 -0.09427895 -0.38659874 -0.52622205 0.04170333 -0.097468324
-0.05808642 0.08687402 -0.41635558 -0.31474218 -0.47855112 -0.25789654 -0.077903435 0.3286332
-0.08036112 -0.030158883 -0.44753668 -0.38784215 0.31705514 -0.1648626 -0.0007046162 0.2736204
-0.5015707 0.121008806 -0.44649863 -0.2749373 -0.10196363 -0.12705395 -0.46007463 -0.09990165
-0.511607 -0.33292216 -0.15106541 -0.30423313 -0.055361047 -0.3145023 -0.580712 -0.14750318
-0.15391837 -0.09329543 -0.07654396 -0.18329965 -0.41924217 -0.20114456 -0.5001995 0.057370085
-0.32405683 0.578232 -0.03269071 -0.08566162 -0.43173462 -0.60845816 -0.53414613 0.03474806
-0.0699061 -0.30023265 -0.46364826 -0.052511875 -0.046757393 -0.41253313 -0.3730604 -0.062426064
0.24066152 -0.48758534 -0.15332904 -0.05138641 0.6134423 0.4788705 0.07794032 -0.18190603
0.040781863 -0.051318277 -0.24804771 0.27761397 -0.3425436 -0.017069718 0.108134866 0.08569072
-0.011181079 -0.09660893 -0.23205493 0.16707928 -0.23191358 0.055175792 0.049107663 0.020805273
-0.23309553 -0.37659866 0.19305816 0.27530643 0.22011596 0.15433905 0.46632192 -0.29377568
0.32617328 -0.043051966 0.13097246 0.09086369 -0.18224394 0.2436311 0.20488235 0.19843832
0.06170043 0.08286268 0.24307182 -0.096508734 0.3973715 0.27821478 0.37836316 -0.29152638
-0.20217335 -0.0028795793 0.12865822 0.14620507 0.18264927 -0.012826336 0.35469183 0.03786966
0.18322605 0.1593889 0.34562418 -0.16745704 -0.22418559 0.25796837 0.08441769 -0.5012711
00000000: 743e 223e 5cb9 ff3b 0442 42bc 0342 f43d
00000010: 8e6d e53e 49b8 de3d d605 00bc 0f5c a0be
00000020: ea02 98bc 2e31 d6bd 2753 a1bd fe8b 133d
00000030: 3429 dfbe a039 fabe 1d5a d8bd 7621 37bd
00000040: 658c 5d3e 8d8d 44be 7db0 9c3e ec70 c7bc
00000050: 864b 6bbe adbe 5c3d c91e 7a3e f01f 9abb
00000060: 78dc 783e 2663 a3be be80 013e 0e6d d4be
00000070: f183 1fbe 1a50 27be 6bcf 81be 47b5 98be
00000080: 5f6c c93c 99a7 acbe 16ec 563e fe61 1e3e
00000090: dbe4 e1bd cfe7 d7bd 3be2 b03e 09a6 e13e
000000a0: 0c59 df3d 07d2 933e 440b fbbd 1a62 b1be
000000b0: 9809 9e3c 65d4 b6be 032a dc3c d1f5 9abe
000000c0: 8a43 ffbe 6c55 d3bd ccb1 fabd dee8 0abf
000000d0: 9a92 053e 064e eabd 917e 9fbd a6d2 d4be
000000e0: 8bbf d2bd cf88 efbd 4fcf 903e 098a 5cbe
000000f0: f641 87be 4e71 5a3e 245b 483e 6daf 7dbe
00000100: 95de f5be 18a6 70bc d586 793e af80 31be
00000110: af8f ebbe 91f5 b93d 3950 2dbe fabb a2be
00000120: 9cbe a73c 1fc4 11be ba1d 39be 1149 55bd
00000130: 26da 2b3e 3601 f1be a26c 163e 02db 773e
00000140: beb6 c2be 3b06 babd c111 c2be 7b23 0abe
00000150: a90a f1bc bb86 88be 6bb3 8f3d 47a8 d73d
00000160: 3c76 dabe 1cfa 683e fce4 a8be 3493 a93d
00000170: 2650 4d3e 445e 0dbb cd53 71bd 4e24 2e3c
00000180: 9982 58be 78b6 62bb 0eac 68be 6d95 f9be
00000190: 8e02 1abe edb2 06bf 0681 cbbe 8086 8dbe
000001a0: 72fb 06bf aa18 8fbe 25d0 773e e217 ab3e
000001b0: 0b89 09be f1e3 42be 4830 e8bd 6b4c 193e
000001c0: 05f6 17be 6ebd 793e 2347 48be e4c7 953b
000001d0: 8b2f a8be a69b b3be 9b4c 0dbf 021c 773d
000001e0: 531f b9bd b6dc 8bbe 003b 92be 1c45 54bd
000001f0: dcbd 923a 7da9 78be 4928 c43d 9e52 cbbd
00000200: b2bb a3be 0bc6 dc3c 26c7 c1bd 5215 c1bd
00000210: 45f0 c5be 7db6 06bf 1cd1 2a3d 799d c7bd
00000220: 07ec 6dbd 02eb b13d 8f2c d5be e325 a1be
00000230: a704 f5be 040b 84be d68b 9fbd 9c42 a83e
00000240: 5f94 a4bd c30f f7bc 8723 e5be 3f93 c6be
00000250: 0d55 a23e bed1 28be feb5 38ba f917 8c3e
00000260: f066 00bf 77d3 f73d 789b e4be 95c4 8cbe
00000270: 4fd2 d0bd 6e1a 02be e78e ebbe 3c99 ccbd
00000280: adf8 02bf c674 aabe e4b0 1abe 72c4 9bbe
00000290: 44c2 62bd 7206 a1be 8ba9 14bf 130b 17be
000002a0: c79c 1dbe ad11 bfbd 14c3 9cbd e7b2 3bbe
000002b0: e9a6 d6be d7f8 4dbe 130d 00bf e5fc 6a3d
000002c0: c7ea a5be 0307 143f b2e6 05bd 5c6f afbd
000002d0: 520c ddbe eac3 1bbf cdbd 08bf fb53 0e3d
000002e0: ee2a 8fbd 18b8 99be 4e63 edbe b116 57bd
000002f0: ae84 3fbd 8b37 d3be c601 bfbe 79b2 7fbd
00000300: f96f 763e c9a4 f9be 4a02 1dbe 8e7a 52bd
00000310: 8e0a 1d3f 842e f53e 2d9f 9f3d 9345 3abe
00000320: e20a 273d 1d33 52bd 3800 7ebe 6b23 8e3e
00000330: e061 afbe cbd5 8bbc d075 dd3d 9e7e af3d
00000340: d830 37bc e7da c5bd cf9f 6dbe d516 2b3e
00000350: c17a 6dbe 0300 623d 1e25 493d d26f aa3c
00000360: 98b0 6ebe 8ad1 c0be 0ab1 453e f7f4 8c3e
00000370: 1466 613e 0e0b 1e3e bfc1 ee3e c469 96be
00000380: 2f00 a73e 4257 30bd a51d 063e be16 ba3d
00000390: 289e 3abe 6e7a 793e aecc 513e 6a33 4b3e
000003a0: 97b9 7c3d e9b3 a93d d2e7 783e 5fa6 c5bd
000003b0: 4774 cb3e 2b72 8e3e d1b8 c13e f242 95be
000003c0: 8806 4fbe 53b7 3cbb fbbe 033e c8b6 153e
000003d0: 6908 3b3e 8d25 52bc 2b9a b53e 371d 1b3d
000003e0: 9c9f 3b3e d836 233e a7f5 b03e dc79 2bbe
000003f0: e890 65be 6e14 843e 2fe3 ac3d 4e53 00bf

memory_rnn.key.bias f4 [64]
-7.7919e-06 -8.164417e-06 -1.3356033e-05 -4.766029e-06 -9.694342e-06 2.0396048e-05 1.9052948e-05 -1.1791349e-05
-1.8219736e-05 -2.5248264e-07 -3.2642274e-05 -6.3818597e-06 -1.3098338e-06 3.3352117e-05 -1.3819272e-05 4.4174535e-06
4.3016316e-05 2.622107e-05 -5.981374e-06 1.987232e-05 -5.9094896e-06 8.3801973e-07 -1.3708705e-05 -8.419184e-06
-2.5783927e-06 2.2711862e-05 -2.8958195e-05 1.0070568e-05 -8.58858e-06 -2.1670654e-05 5.1633333e-06 -3.690507e-07
4.0426985e-06 -1.478491e-05 -9.069677e-06 -1.168184e-05 1.9790794e-05 2.6965892e-05 5.7292073e-06 -2.4259412e-05
9.206362e-06 -4.619853e-06 2.9075869e-05 1.8874727e-05 1.9419804e-05 -1.4017342e-05 -1.4493416e-05 1.503904e-05
-7.4250456e-06 2.6170164e-05 -9.411106e-06 3.4782403e-05 -2.5789275e-05 2.1405133e-06 8.981972e-06 2.923653e-06
-1.3371304e-05 7.5817334e-06 7.502218e-06 1.9092578e-05 -1.2149783e-05 1.9471303e-05 -2.4367884e-05 -7.541889e-06
00000000: f5b9 02b7 e7f9 08b7 ba13 60b7 e1eb 9fb6
00000010: e2a4 22b7 2e18 ab37 e5d3 9f37 75d3 45b7
00000020: 96d6 98b7 f38c 87b4 60e9 08b8 c223 d6b6
00000030: 8ccd afb5 90e3 0b38 52d9 67b7 a339 9436
00000040: 6b6c 3438 52f5 db37 9db3 c8b6 7bb3 a637
00000050: 214a c6b6 47f4 6035 71fe 65b7 1f40 0db7
00000060: 7308 2db6 5a85 be37 40eb f2b7 c3f4 2837
00000070: ac17 10b7 60c9 b5b7 b240 ad36 f121 c6b4
00000080: 84a6 8736 b40c 78b7 f729 18b7 1ffd 43b7
00000090: 6804 a637 d034 e237 843d c036 b180 cbb7
000000a0: 0675 1a37 3c04 9bb6 f4e7 f337 2b55 9e37
000000b0: b6e7 a237 072c 6bb7 bf28 73b7 2f50 7c37
000000c0: a824 f9b6 0088 db37 64e4 1db7 52e3 1138
000000d0: 0c56 d8b7 bda5 0f36 47b1 1637 fa33 4436
000000e0: 5055 60b7 9866 fe36 90bb fb36 0029 a037
000000f0: ecd6 4bb7 4e56 a337 a269 ccb7 5510 fdb6

memory_rnn.value.weight f4 [64, 64]
0.3297333 -0.24353315 -0.118397236 0.23961142 0.011679287 0.10065476 0.040996864 0.17414673
-0.050188955 -0.09330398 0.15192316 0.031248381 -0.088865794 0.4048888 -0.35915968 0.13385487
0.412336 0.038781893 -0.140953 0.23619887 -0.020900048 0.21060458 -0.124382176 0.045704063
0.0027965927 -0.26964563 0.17633633 -0.050782222 -0.029848227 0.123960994 -0.21029685 0.10153273
0.4183356 0.13412334 -0.06847907 -0.060811277 -0.020404056 0.04849341 -0.11750943 0.15412882
-0.10722473 -0.027281033 -0.0088439975 -0.10042137 -0.04225349 0.12596783 0.11237075 -0.0866101
-0.09800802 -0.40119666 0.16526832 0.29353487 0.1747489 0.09061209 0.08011153 -0.23746797
0.048350714 -0.274112 0.01654077 0.13447818 -0.07837639 0.22906798 0.104940236 0.01681611
0.20991366 -0.08844167 -0.19295643 -0.18293802 -0.016714238 0.098942764 0.040298373 -0.13895614
-0.025800033 -0.4520114 -0.11797403 0.13148928 -0.25749427 0.012172982 -0.15292253 -0.042150475
0.38527715 -0.13258307 0.03284801 0.13804363 0.21579164 -0.019107228 0.3503458 -0.048247557
0.012162224 -0.009683586 -0.087053984 0.5536742 0.38377452 0.05507336 0.50047255 -0.14506303
-0.023394305 -0.2615591 -0.25814384 -0.2205431 -0.19193842 0.022086024 -0.1499007 -0.015578169
0.23059551 0.27246115 -0.0051781973 -0.075364865 0.163737 0.18837522 -0.36436018 -0.26808533
-0.08446666 0.03412766 0.1852366 0.010567371 0.1064842 -0.041755557 0.22283182 0.06117998
-0.110950224 -0.019754618 0.3439656 0.17526829 0.10797083 0.07549616 0.14720541 -0.10773648
-0.09462825 -0.14175639 0.2008057 0.04994602 -0.16580892 0.072963975 0.005388711 -0.24579872
-0.10624465 0.41304785 -0.025257936 0.110178396 0.3167628 -0.28379416 0.1717647 -0.04797022
-0.052098583 -0.028181184 0.039021507 -0.36054865 0.17507857 -0.32006767 0.55635387 -0.060042065
-0.20536594 -0.017995602 -0.05596959 -0.005954253 0.031428676 -0.057396207 0.21685427 0.24126591
0.15407649 0.5433055 -0.018306442 -0.13439146 -0.037789825 -0.1675228 -0.2827651 -0.12778386
0.2558676 0.10900307 0.09365784 0.12494436 0.3040815 -0.041115735 0.018206844 0.40325585
0.17982155 0.00639076 0.017166672 -0.21096459 -0.22021255 0.2936657 -0.14114219 0.036359385
-0.34404323 0.038899694 -0.0064097284 -0.040679004 0.26820615 0.15321973 -0.09431294 0.11142411
0.30474982 0.062126752 0.004112325 0.18715087 -0.08842988 -0.08297417 -0.34195969 0.18929742
0.05906525 -0.25944066 -0.03632087 -0.056385614 0.3991622 0.3482346 0.18770409 0.044214938
-0.14876285 -0.065469675 0.0964296 -0.026618654 -0.21044323 0.09456712 -0.1316282 0.06841026
0.0931249 -0.066007145 0.06658837 0.041248832 -0.007939448 -0.26834774 -0.16880864 0.061710075
0.05416883 0.22190051 0.26197386 0.30661988 -0.041227087 -0.2577101 0.30271685 -0.3445187
-0.26593974 -0.03323939 0.12601501 0.46942553 0.23043737 0.24324071 -0.053830255 -0.055710547
0.13251336 -0.40878662 0.12631889 0.014056449 -0.1514744 -0.17818956 0.06529866 0.29198608
0.2380251 0.30697274 0.104100965 -0.16337076 0.13839145 -0.09377253 -0.17159314 -0.1565081
00000000: ced2 a83e c160 79be 407a f2bd b25c 753e
00000010: 7b5a 3f3c 1524 ce3d 54ec 273d 8553 323e
00000020: ef92 4dbd 2816 bfbd bf91 1b3e 9bfc ff3c
00000030: 45ff b5bd 964d cf3e c7e3 b7be 4011 093e
00000040: b41d d33e c3d9 1e3d fc55 10be 1ede 713e
00000050: 9436 abbc baa8 573e 15bc febd 2f34 3b3d
00000060: 0a47 373b fe0e 8abe 8391 343e 0501 50bd
00000070: 4584 f4bc 43df fd3d 0f58 57be 64f0 cf3d
00000080: 1530 d63e a157 093e c13e 8cbd 3f15 79bd
00000090: 6826 a7bc 07a1 463d c9a8 f0bd f2d3 1d3e
000000a0: a498 dbbd 797c dfbc 6ae6 10bc b8a9 cdbd
000000b0: ff11 2dbd b6fd 003e a322 e63d a360 b1bd
000000c0: 6eb8 c8bd a669 cdbe 193c 293e 344a 963e
000000d0: 60f1 323e d592 b93d 8411 a43d ce2a 73be
000000e0: 660b 463d 6858 8cbe 8280 873c a6b4 093e
000000f0: cd83 a0bd cc90 6a3e e8ea d63d f0c1 893c
00000100: 9bf3 563e e820 b5bd 5f96 45be 1b54 3bbe
00000110: 4cec 88bc 81a2 ca3d e80f 253d 854a 0ebe
00000120: 975a d3bc 0a6e e7be 5e9c f1bd 20a5 063e
00000130: 4ad6 83be 3071 473c b997 1cbe faa5 2cbd
00000140: 0c43 c53e dbc3 07be a38b 063d 4f5b 0d3e
00000150: 7cf8 5c3e c386 9cbc 8660 b33e 3b9f 45bd
00000160: 1144 473c e7a7 1ebc 5c49 b2bd 98bd 0d3f
00000170: 187e c43e 9b94 613d f81e 003f 678b 14be
00000180: 6aa5 bfbc 13eb 85be 6e2b 84be 0dd6 61be
00000190: 818b 44be c0ed b43c 927f 19be 943b 7fbc
000001a0: 3b21 6c3e 0780 8b3e dead a9bb e558 9abd
000001b0: acaa 273e 6fe5 403e 6b8d babe 7b42 89be
000001c0: dbfc acbd 72c9 0b3d aaae 3d3e c422 2d3c
000001d0: 6314 da3d e007 2bbd 062e 643e dc97 7a3d
000001e0: df39 e3bd 70d4 a1bc 421c b03e 8879 333e
000001f0: cf1f dd3d bb9d 9a3d 04bd 163e f2a4 dcbd
00000200: 75cc c1bd 9628 11be 02a0 4d3e 3394 4c3d
00000210: d0c9 29be 236e 953d c993 b03b a9b2 7bbe
00000220: cc96 d9bd 027b d33e bbe9 cebc 36a5 e13d
00000230: bc2e a23e 784d 91be 16e3 2f3e 6c7c 44bd
00000240: 5365 55bd 3adc e6bc 04d5 1f3d d599 b8be
00000250: cc47 333e e9df a3be 356d 0e3f abee 75bd
00000260: 734b 52be 836b 93bc 5e40 65bd e51b c3bb
00000270: 5bbb 003d 4918 6bbd 0c0f 5e3e 690e 773e
00000280: 3ac6 1d3e 1216 0b3f 64f7 95bc ea9d 09be
00000290: 81c9 1abd 198b 2bbe 96c6 90be c6d9 02be
000002a0: 1401 833e 003d df3d aecf bf3d d4e2 ff3d
000002b0: 92b0 9b3e f968 28bd 8526 953c 8d77 ce3e
000002c0: 2423 383e 9569 d13b 1fa1 8c3c 1a07 58be
000002d0: 667f 61be 5a5b 963e 9487 10be 94ed 143d
000002e0: 6f26 b0be 4955 1f3d b308 d2bb 079f 26bd
000002f0: 5152 893e a2e5 1c3e 2527 c1bd 5332 e43d
00000300: 2b08 9c3e 9f78 7e3d afc0 863b 7aa4 3f3e
00000310: ba1a b5bd 5dee a9bd 5715 afbe 2fd7 413e
00000320: 67ee 713d 68d5 84be 31c5 14bd 9af4 66bd
00000330: fd5e cc3e ce4b b23e 8035 403e b91a 353d
00000340: 4a55 18be f714 86bd e27c c53d 5d0f dabc
00000350: 6e7e 57be 68ac c13d 8bc9 06be ae1a 8c3d
00000360: 44b8 be3d c12e 87bd 7c5f 883d 89f4 283d
00000370: 7514 02bc e064 89be 2cdc 2cbe b4c3 7c3d
00000380: 23e0 5d3d e339 633e 7021 863e 48fd 9c3e
00000390: bcdd 28bd 94f2 83be b4fd 9a3e c164 b0be
000003a0: 4129 88be 0726 08bd 140a 013e 8b58 f03e
000003b0: c6f7 6b3e 1814 793e 1d7d 5cbd be30 64bd
000003c0: 95b1 073e 7b4c d1be bd59 013e 054d 663c
000003d0: 1b1c 1bbe 5377 36be 4ebb 853d 337f 953e
000003e0: dabc 733e 882b 9d3e e332 d53d aa4a 27be
000003f0: 7db6 0d3e d00b c0bd 1db6 2fbe a943 20be

memory_rnn.value.bias f4 [64]
0.25955483 0.058072105 -0.101592384 0.083496474 -0.040050462 0.27474958 0.08460426 -0.14260265
0.22155282 0.26051688 -0.09109274 0.09188969 0.23445286 -0.099979274 -0.020099305 -0.10683651
-0.18374619 -0.16539529 0.1429838 0.08546855 -0.2675368 0.09887773 -0.088644855 0.045287292
-0.10733981 0.077149846 0.1075186 0.062426556 -0.22673887 0.06982584 -0.02139464 -0.15581971
0.026564363 0.47436187 0.16268097 0.1698289 -0.24340211 -0.019457558 -0.10365216 -0.15675256
-0.019421913 -0.16248672 0.021437764 0.22642267 -0.05915621 0.17848037 0.23769316 -0.11463504
0.10929854 0.05697541 0.27121747 -0.033609156 -0.03296333 0.0032919827 -0.18314403 0.027958129
0.028779637 -0.05117454 -0.030893419 -0.09052537 0.17478347 -0.17380273 0.11265855 -0.23851018
00000000: 5fe4 843e 04dd 6d3d ab0f d0bd 3300 ab3d
00000010: f40b 24bd faab 8c3e 0045 ad3d 6e06 12be
00000020: bede 623e 7862 853e d58e babd a930 bc3d
00000030: 6914 703e efc1 ccbd 4ca7 a4bc 1acd dabd
00000040: f627 3cbe 625d 29be 586a 123e 230a af3d
00000050: 95fa 88be 6880 ca3d 6f8b b5bd 2b7f 393d
00000060: f9d4 dbbd bd00 9e3d b632 dc3d fdb2 7f3d
00000070: 3c2e 68be da00 8f3d d043 afbc 348f 1fbe
00000080: 829d d93c 8fdf f23e d795 263e a1e7 2d3e
00000090: 673e 79be 7565 9fbc 9547 d4bd be83 20be
000000a0: b41a 9fbc eb62 26be 409e af3c 58db 673e
000000b0: c84d 72bd 8fc3 363e d665 733e c7c5 eabd
000000c0: ead7 df3d 0c5f 693d 04dd 8a3e c1a9 09bd
000000d0: 8f04 07bd 4ebe 573b 1c8a 3bbe 7208 e53c
000000e0: 46c3 eb3c 659c 51bd 3214 fdbc 5d65 b9bd
000000f0: 70fa 323e 58f9 31be 87b9 e63d 033c 74be

memory_rnn.rnn.i2h.w f4 [6, 64, 40]
-0.19684015 -0.47385287 0.32487684 0.2750592 -0.059816178 0.23387738 0.29111466 0.079185426
-0.23226714 -0.18738988 0.16273738 -0.4903755 0.13300775 0.1000486 -0.35748482 0.42854068
-0.2561785 -0.03365042 0.52313435 0.23870207 0.15289962 -0.3960277 -0.30109832 0.50190425
0.11925737 -0.38894543 0.37836394 -0.034552425 0.010604857 -0.03394043 0.521708 0.30919752
0.1953276 -0.014395328 0.12020922 0.22893316 -0.17962581 -0.18456492 -0.0624237 0.092507474
0.1242765 0.05324337 -0.37712625 -0.29323336 0.09642591 -0.05086144 -0.2090843 -1.0179552
0.29998416 -0.4981296 -0.39484537 -0.04046424 -0.34992325 -0.49200502 -0.27851048 -0.038389686
0.13017838 -0.70112485 -0.019245408 -0.104539104 -0.5521603 -0.5789597 -0.21466191 0.019703439
0.0904997 -0.18969363 -0.107654154 -0.5073995 0.1410659 -0.49673828 0.19184928 -0.013215943
0.07319323 0.029720811 0.4855046 -0.20678745 -0.01318431 -0.32540074 -0.60387087 0.04830765
0.15941067 0.10032585 0.27640462 -0.43053365 0.030511044 -0.01459997 -0.3912266 0.16295469
-0.2312395 -0.42703202 -0.2932444 -0.37598327 0.35708573 0.05398959 0.17263387 -0.11484685
-0.30149364 0.04761184 0.07385099 -0.30005208 -0.24470842 -0.058945246 0.3956712 0.51359046
-0.07594976 -0.059247464 -0.3554601 0.07612345 0.53380996 0.13328828 0.11072899 0.034486163
0.4818693 0.030647973 0.18585873 -0.26122236 -0.08349394 0.19495307 0.09593501 -0.0110747265
-0.59431154 -0.28585553 0.015146092 0.1757621 -0.14738631 -0.16020644 -0.18283021 -0.16294159
-0.16347711 0.06251017 0.100949414 0.262182 0.13706616 0.35496798 -0.21989246 0.037986923
-0.46407408 0.29938078 0.14167516 -0.0097467825 -0.3934676 0.28048244 0.18265456 -0.41152394
-0.26944515 -0.046349734 0.53489864 0.30136904 0.3689462 0.1257035 0.335706 0.6767162
0.31669056 -0.45193872 -0.24011533 -0.31685805 -0.080753736 -0.15418813 -0.2334193 -0.12971734
0.39780998 0.16530684 -0.24137266 0.43851206 0.08287262 -0.014517581 -0.056805342 -0.06288155
0.41267514 -0.037771188 -0.4679834 -0.47300944 0.022392893 -0.23225445 0.09288575 -0.19294368
-0.032614805 -0.09848494 0.05250685 -0.34956682 0.20006756 0.096278936 0.42737442 0.3785928
0.38868833 0.08530346 0.48943675 0.00219546 -0.39817765 0.1068639 0.12554811 0.13027732
-0.18741491 0.2364296 0.4817004 -0.2022158 0.074335635 -0.03641949 0.09910138 -0.40744913
0.48064497 0.022389276 0.08475196 0.2108608 0.08009181 0.07201157 -0.048970316 -0.19921295
-0.09998759 0.2283596 -0.12364176 -0.22335908 -0.15022296 -0.17940807 -0.34398702 -0.015347353
0.28524426 0.2461243 -0.26264128 0.119992666 0.03101663 -0.2489897 -0.16751032 0.0067530484
0.1961049 0.3232323 -0.29491973 0.041651655 -0.08303636 -0.11194023 0.14680292 0.31318396
0.43443924 -0.27236405 0.54063445 0.198676 -0.12772432 -0.535323 -0.050649796 -0.24312544
0.5271127 0.15838748 -0.4028352 0.09990422 -0.17168039 -0.24709688 0.13956909 -0.3343892
0.05478047 -0.20882833 0.03643269 -0.56124395 -0.19033234 -0.064704716 -0.007746055 0.014581372
00000000: 7790 49be d89c f2be 4256 a63e 8fd4 8c3e
00000010: cf01 75bd 8d7d 6f3e fb0c 953e f82b a23d
00000020: 70d7 6dbe 22e3 3fbe a1a4 263e 7f12 fbbe
00000030: 2f33 083e 48e6 cc3d 4008 b7be af69 db3e
00000040: d429 83be 06d5 09bd 22ec 053f 516e 743e
00000050: b891 1c3e 25c4 cabe 8f29 9abe cc7c 003f
00000060: 353d f43d db23 c7be ebb8 c13e d886 0dbd
00000070: febf 2d3c 1f05 0bbd a88e 053f 234f 9e3e
00000080: f503 483e 62da 6bbc 4030 f63d 746d 6a3e
00000090: d4ef 37be 96fe 3cbe feaf 7fbd 8f74 bd3d
000000a0: ad84 fe3d b815 5a3d b116 c1be af22 96be
000000b0: f37a c53d 1654 50bd 321a 56be 5b4c 82bf
000000c0: 8697 993e d80a ffbe 2c29 cabe d5bd 25bd
000000d0: 2429 b3be 15e8 fbbe ed98 8ebe 813e 1dbd
000000e0: 7b4d 053e eb7c 33bf 8ca8 9dbc 9918 d6bd
000000f0: 615a 0dbf b436 14bf 55d0 5bbe 1b69 a13c
00000100: e857 b93d 0c3f 42be c879 dcbd efe4 01bf
00000110: 9473 103e 7b54 febe 2374 443e af87 58bc
00000120: 55e6 953d 0f79 f33c 0f94 f83e 17c0 53be
00000130: 0103 58bc ed9a a6be 4897 1abf 3ede 453d
00000140: 8d3c 233e a477 cd3d e884 8d3e e86e dcbe
00000150: 4cf2 f93c b634 6fbc da4e c8be 98dd 263e
00000160: 0cca 6cbe f1a3 dabe 2124 96be e180 c0be
00000170: f1d3 b63e 3024 5d3d efc6 303e d334 ebbd
00000180: 605d 9abe a204 433d 303f 973d 6da0 99be
00000190: d894 7abe 9270 71bd 6a95 ca3e aa7a 033f
000001a0: 8c8b 9bbd 78ad 72bd defe b5be 9de6 9b3d
000001b0: c5a7 083f b97c 083e e1c5 e23d 5d41 0d3d
000001c0: 93b7 f63e 7511 fb3c c051 3e3e f0be 85be
000001d0: dffe aabd c7a1 473e 9379 c43d c572 35bc
000001e0: cd24 18bf a85b 92be 5027 783c fbfa 333e
000001f0: 70ec 16be 280d 24be d837 3bbe 29da 26be
00000200: 8b66 27be 5505 803d 91be ce3d b83c 863e
00000210: 125b 0c3e 5dbe b53e 7d2b 61be 2d98 1b3d
00000220: 1e9b edbe 7048 993e 4b13 113e f8b0 1fbc
00000230: 9674 c9be 659b 8f3e cc09 3b3e 44b3 d2be
00000240: b7f4 89be 38d9 3dbd 1eef 083f 0b4d 9a3e
00000250: 84e6 bc3e 6bb8 003e a8e1 ab3e 463d 2d3f
00000260: 4425 a23e 8364 e7be cbe0 75be 383b a2be
00000270: 3762 a5bd 7ee3 1dbe 7805 6fbe 9fd4 04be
00000280: c0ad cb3e 3246 293e 652a 77be a784 e03e
00000290: 1fb9 a93d 26db 6dbc b8ac 68bd 0bc8 80bd
000002a0: 284a d33e f6b5 1abd 859b efbe 4b2e f2be
000002b0: 4d71 b73c 1cd4 6dbe e23a be3d 0793 45be
000002c0: 1a97 05bd 79b2 c9bd 6c11 573d 6cfa b2be
000002d0: 83de 4c3e e42d c53d d2d0 da3e ead6 c13e
000002e0: 2802 c73e 95b3 ae3d 7497 fa3e b5e1 0f3b
000002f0: f1dd cbbe 76db da3d af8f 003e 6b67 053e
00000300: b2e9 3fbe 9a1a 723e 6fa1 f63e a911 4fbe
00000310: 483d 983d 9a2c 15bd aaf5 ca3d 2c9d d0be
00000320: 1917 f63e b769 b73c 7092 ad3d e5eb 573e
00000330: 2d07 a43d cd7a 933d 1995 48bd 7bfe 4bbe
00000340: 4bc6 ccbd 19d7 693e e437 fdbd 3eb8 64be
00000350: 0cd4 19be c0b6 37be 111f b0be 7773 7bbc
00000360: 890b 923e 0208 7c3e eb78 86be b7be f53d
00000370: 9616 fe3c 28f7 7ebe d387 2bbe ad48 dd3b
00000380: b9cf 483e b47e a53e b8ff 96be ed9a 2a3d
00000390: f80e aabd eb40 e5bd 8153 163e a659 a03e
000003a0: d26e de3e 4d73 8bbe 0567 0a3f b971 4b3e
000003b0: 2aca 02be ee0a 09bf 2976 4fbd e0f5 78be
000003c0: dcf0 063f 5430 223e 6a40 cebe 959a cc3d
000003d0: fccc 2fbe f706 7dbe 33eb 0e3e 1035 abbe
000003e0: 7c61 603d 18d7 55be 723a 153d afad 0fbf
000003f0: 7be6 42be e883 84bd 9ed2 fdbb b5e6 6e3c

memory_rnn.rnn.h2h.w f4 [6, 10, 40]
-0.20364712 -0.15137266 0.4829301 -0.09938105 -0.14538047 -0.42298603 0.03918102 0.02344747
0.4024603 0.21946599 -0.2106692 0.2034532 0.5264494 -0.38026848 -0.7975479 -0.29732898
-0.140916 -0.1757107 0.551799 -0.2263892 -0.14327237 -0.019384261 0.18320967 -0.5007296
0.06983222 -0.7643302 -0.5169841 -0.23381957 0.52051216 0.10916969 0.67670584 -0.3670682
0.56587064 -0.06997212 -0.1033668 -0.29612273 0.013731513 0.427559 -0.013077293 0.72999054
-0.083479136 -0.15332647 -0.47093612 -0.078577764 -0.06669201 -0.11760816 -0.52031946 -0.42980817
0.0016747409 0.18967257 0.32420313 0.3210994 -0.5734486 -0.513629 0.54568386 0.080179155
0.11686932 0.10314983 -0.06367091 -0.2783152 -0.11256395 -0.0053472044 -0.4827531 0.46631768
0.17345102 0.10075333 -0.11552835 -0.3603637 -0.47250614 -0.24880078 -0.3240377 0.113444775
-0.21054529 0.36913934 0.07779736 -0.23200563 -0.103056595 -0.023133213 -0.3698241 0.004793758
0.041669097 0.12295843 0.8175794 -0.45593306 -0.5241888 -0.2545796 -0.023172976 -0.18098576
0.23675273 0.12130493 -0.122395135 0.20079625 0.69412655 0.033859015 0.12739459 -0.16021463
0.3860412 0.545751 0.28704888 0.6958138 -0.042793646 0.29440582 0.930653 -0.48452353
-0.2850353 -0.2916832 0.354177 0.11905358 0.6370378 0.47700438 0.49997386 -0.45006847
0.31982508 -0.3356359 0.18553762 -0.07905146 -0.32897657 0.067395434 0.19178426 0.39459
-0.09642838 0.17149657 -0.14181997 0.048712496 -0.5783468 0.13280007 -0.2983581 0.32214352
-0.39980102 -0.066969216 0.1917751 0.026120594 0.47195664 -0.5064189 -0.6008109 0.399347
-0.14655893 0.6403434 0.4070223 -0.052808773 0.12823617 0.13389727 0.018401563 -0.16992974
-0.47664496 -0.16220492 -0.31605816 0.09216466 0.29817942 -0.59937006 -0.08310126 -0.020039657
0.47664005 -0.43426436 0.08894326 -0.3558135 0.14989059 -0.09604112 -0.065236636 0.1550568
0.15304741 0.4642417 -0.00632756 0.10434442 0.0358631 0.124983996 0.5712315 0.23506069
0.3545918 -0.2727141 -0.14075592 -0.54976684 -0.18780774 0.10047916 0.12234743 -0.1061359
-0.055505965 0.5264733 -0.37465405 -0.1047841 0.34753564 -0.04691391 -0.55148566 -0.1480322
-0.2693112 -0.18772873 -0.16908145 0.0064147357 0.12043785 0.03986302 -0.05758756 -0.18832797
0.12332998 0.14608212 0.40108466 0.49236703 -0.21922909 -0.14812897 -0.22900526 -0.5941239
-0.44987118 0.20800614 -0.2513751 -0.113433845 -0.38661122 0.17430036 0.12880945 0.02692666
-0.2371581 -0.12597844 0.40499952 -0.07051943 0.23136072 0.13805981 -0.17584068 -0.42187575
0.29105493 -0.29479635 -0.20367247 0.03343366 -0.13343841 0.2058812 -0.5419979 -0.0047743325
-0.2983288 -0.26377645 0.14985766 0.075595714 0.04825199 0.031007083 0.37846598 0.26124898
-0.06630528 -0.36581266 -0.06306325 0.66876185 -0.38542363 0.22017226 -0.18813021 0.08723633
0.43097386 -0.17575394 -0.48490807 -0.0809686 0.38538852 -0.035506066 -0.05177518 0.30949795
0.4828556 -0.11704189 -0.45660576 0.111147486 -0.29748133 0.37265292 0.57710487 0.011164095
00000000: df88 50be 6f01 1bbe 9d42 f73e 4b88 cbbd
00000010: 9ede 14be a091 d8be 477c 203d e914 c03c
00000020: 470f ce3e b1bb 603e abb9 57be 0956 503e
00000030: 63c5 063f 8db2 c2be 192c 4cbf 813b 98be
00000040: 494c 10be 81ed 33be b342 0d3f 92d2 67be
00000050: feb5 12be becb 9ebc 519b 3b3e d12f 00bf
00000060: 3204 8f3d 25ab 43bf 1259 04bf 666e 6fbe
00000070: 4940 053f 5c94 df3d 983c 2d3f 5df0 bbbe
00000080: e6dc 103f 8b4d 8fbd f9b1 d3bd 669d 97be
00000090: 24fa 603c 03e9 da3e 2442 56bc a9e0 3a3f
000000a0: 1cf7 aabd 9d01 1dbe 8a1e f1be 61ed a0bd
000000b0: d295 88bd 8cdc f0bd a833 05bf d10f dcbe
000000c0: fb82 db3a 8739 423e f4fd a53e 2467 a43e
000000d0: 87cd 12bf 317d 03bf f0b1 0b3f f834 a43d
000000e0: 2f59 ef3d 3840 d33d e565 82bd 547f 8ebe
000000f0: ee87 e6bd 9a37 afbb 6a2b f7be 31c1 ee3e
00000100: 259d 313e c357 ce3d 219a ecbd 9781 b8be
00000110: 53ec f1be a2c5 7ebe 45e8 a5be bc55 e83d
00000120: 2f99 57be d5ff bc3e 3954 9f3d e292 6dbe
00000130: 560f d3bd dd81 bdbc 9659 bdbe f514 9d3b
00000140: 37ad 2a3d a1d1 fb3d e24c 513f 0f70 e9be
00000150: 3d31 06bf 4258 82be 41d5 bdbc 5554 39be
00000160: 4f6f 723e b86e f83d 4daa fabd 889d 4d3e
00000170: 47b2 313f c0af 0a3d ba73 023e 4e0f 24be
00000180: 31a7 c53e 56b6 0b3f 12f8 923e da20 323f
00000190: 6448 2fbd 5cbc 963e 463f 6e3f 7813 f8be
000001a0: 26f0 91be 8057 95be b056 b53e 5dd2 f33d
000001b0: e914 233f eb39 f43e 93fc ff3e 606f e6be
000001c0: 1dc0 a33e 78d8 abbe 93fd 3d3e bbe5 a1bd
000001d0: 9e6f a8be 9e06 8a3d 1863 443e b307 ca3e
000001e0: 3e7c c5bd cc9c 2f3e 4139 11be c186 473d
000001f0: 890e 14bf befc 073e 65c2 98be ffef a43e
00000200: b8b2 ccbe 2827 89bd b160 443e dbfa d53c
00000210: 4da4 f13e aba4 01bf bece 19bf 3677 cc3e
00000220: 8b13 16be 8ced 233f 3a65 d03e 034e 58bd
00000230: 5850 033e 5e1c 093e e0be 963c 1002 2ebe
00000240: cf0a f4be 0c19 26be 60d2 a1be d3c0 bc3d
00000250: f9aa 983e 5170 19bf fe30 aabd 352a a4bc
00000260: 2a0a f43e e657 debe e227 b63d 302d b6be
00000270: eb7c 193e 35b1 c4bd c99a 85bd 36c7 1e3e
00000280: 76b8 1c3e 17b1 ed3e 6c57 cfbb 87b2 d53d
00000290: 30e5 123d 9cf7 ff3d 3a3c 123f c0b3 703e
000002a0: 0e8d b53e 2fa1 8bbe 5222 10be 85bd 0cbf
000002b0: ac50 40be 05c8 cd3d 4a91 fa3d c75d d9bd
000002c0: 395a 63bd f4c6 063f a8d2 bfbe 0c99 d6bd
000002d0: 31f0 b13e cd28 40bd 2a2e 0dbf c195 17be
000002e0: 28e3 89be f63b 40be b023 2dbe b432 d23b
000002f0: 1fa8 f63d 6847 233d efe0 6bbd 0cd9 40be
00000300: 6e94 fc3d 8d96 153e f85a cd3e 8817 fc3e
00000310: 977d 60be 1faf 17be 5b80 6abe 8118 18bf
00000320: 8455 e6be 90ff 543e 3db4 80be 0150 e8bd
00000330: e8f1 c5be cb7b 323e a0e6 033e 4d95 dc3c
00000340: 93d9 72be 7e00 01be 195c cf3e 7e6c 90bd
00000350: d3e9 6c3e 8d5f 0d3e 940f 34be 1900 d8be
00000360: 2705 953e 8cef 96be 848f 50be bcf1 083d
00000370: 14a4 08be 85d2 523e 60c0 0abf 0172 9cbb
00000380: 8dbe 98be b50d 87be 4974 193e edd1 9a3d
00000390: e1a3 453d 9102 fe3c 4bc6 c13e 6dc2 853e
000003a0: 10cb 87bd cc4b bbbe 4e27 81bd fa33 2b3f
000003b0: 3f56 c5be d674 613e 35a5 40be f6a8 b23d
000003c0: 9ba8 dc3e d7f8 33be df45 f8be ded2 a5bd
000003d0: a551 c53e cf6e 11bd 3612 54bd 8476 9e3e
000003e0: d938 f73e a9b3 efbd 3bc8 e9be 4ba1 e33d
000003f0: 794f 98be 5dcc be3e 25bd 133f 9ce9 363c
