policy-consolidation/_oldmodels/test_ppo_lstm_32_frames_128_wallgap_doorkey_crossing/status.pt (torch, 430483 bytes, 34 tensors)

image_conv.0.weight f4 [16, 3, 2, 2]
000000 52 72 3e 3e 1e b4 3c be 18 0b f5 3d 77 f6 de 3c
       0.18598297 -0.18428084 0.119650066 0.027217133
000010 c0 ab db be 44 e2 b1 3e d4 bf c9 be a8 71 3c 3e
       -0.42904472 0.3474294 -0.39404166 0.18402731
000020 13 7f 03 3e 2b a5 b4 bc a3 41 82 3e a9 22 36 3c
       0.12841444 -0.022051414 0.25440702 0.011116662
000030 7d 07 12 3e 52 97 a4 be c9 d6 b2 bd a2 69 a3 be
       0.14260669 -0.32146698 -0.08732373 -0.3191653
000040 a7 30 ad bd bb 58 d4 bd 0a fd 3f 3e 90 40 90 bc
       -0.08456545 -0.103684865 0.1874887 -0.01760891
000050 e9 d3 02 be 72 88 32 be ca d7 4a bd 0d 02 62 be
       -0.1277615 -0.17434862 -0.0495222 -0.22071095
000060 5b 2f 55 bc 35 9a 8e be c3 de 81 3e f1 8e 2c bd
       -0.013011779 -0.27852026 0.25365266 -0.042128507
000070 c3 03 73 3a 81 69 e0 3c e3 4b 27 be 90 94 ba 3d
       0.0009270275 0.027394058 -0.16337542 0.09110367
000080 c1 7d 86 3e 91 f2 8a be 06 16 84 bd 19 a8 90 be
       0.26267818 -0.27138188 -0.06449513 -0.28253248
000090 3a 91 4b bd 68 5c 99 be 97 90 dc 3b 89 28 bc be
       -0.049699046 -0.29953313 0.0067311036 -0.36749676
0000a0 5d 35 b6 3e a9 74 e0 bd 1b e8 96 3e 96 d9 bc bd
       0.35587588 -0.10959751 0.29473957 -0.09221189
0000b0 70 29 89 be 74 2b 05 3e 0f e9 24 be 7c 2d 87 3d
       -0.26789427 0.13004857 -0.1610453 0.06600472
0000c0 55 22 0f be 52 09 4d be 27 de e6 be 68 14 82 be
       -0.1397794 -0.20023087 -0.45091364 -0.25406194
0000d0 77 d0 8c 3e 66 7c 80 be 98 23 34 3e 9a 36 7c 3e
       0.27502796 -0.25094908 0.17591703 0.24630204
0000e0 6c c3 46 3a 6b 4f 45 be 21 74 27 3d 56 da df bd
       0.0007582221 -0.19268577 0.040882234 -0.10930316
0000f0 cf a1 b7 be a2 84 f4 3e 22 48 8e 3d 11 c4 83 3e
       -0.35865638 0.4775744 0.06947352 0.25735524
000100 67 41 ee bd 1e f4 ea bd 89 27 0c 3e b3 fb 6e be
       -0.11633568 -0.11472343 0.13686956 -0.23338203
000110 25 a9 4f be a3 e2 ad be 91 15 72 3e 34 2f da bc
       -0.20279367 -0.33961973 0.2364104 -0.026633836
000120 ea 86 8e 3e 47 9f a7 be 2f 8d 69 3e dc 86 cf bd
       0.27837306 -0.32738706 0.22807764 -0.10133144
000130 3c 33 88 bd 29 7e 0c be 53 68 00 bf 6c e9 89 3e
       -0.06650397 -0.13720001 -0.50159186 0.269359
000140 24 f1 b1 be 25 3a 8b be 83 17 69 3d 9e f3 2f be
       -0.34754288 -0.27192798 0.05690719 -0.17182776
000150 50 e7 c9 3e dc 27 5a be f4 54 7d be ff 52 a5 3e
       0.3943429 -0.21304268 -0.24739438 0.32289883
000160 7c 12 ae be d9 79 30 3e 6a b3 0d 3e ca fe 8e be
       -0.33998477 0.17233981 0.13837972 -0.27928764
000170 1a 41 94 3d d1 f6 1f bd 7c ec 45 be 86 0b 21 bd
       0.0723898 -0.03905374 -0.19328493 -0.03931763
000180 85 89 3c bd 96 a4 98 be ae f1 a6 be 88 fd 90 be
       -0.046029586 -0.2981307 -0.32606262 -0.2831843
000190 39 71 a1 3e d7 66 cf bd 73 ea fb bc 7d 7b 61 3e
       0.31531695 -0.10127037 -0.030751443 0.22019763
0001a0 71 72 2b be 86 e8 95 be 39 88 3e 3e 4f 36 05 be
       -0.16742875 -0.29278964 0.18606652 -0.13008998
0001b0 4c 98 77 3e 2a e4 85 3e 67 18 02 be a8 98 32 3e
       0.2417919 0.26150638 -0.12704621 0.17441046
0001c0 85 02 0f 3e 06 66 0b bf 63 b5 8e be 8e f6 1c 3e
       0.13965805 -0.5445255 -0.27872762 0.15328428
0001d0 47 b8 21 3e 1c 9e 84 3e b1 c2 aa bd cf f9 3f be
       0.15792952 0.25901878 -0.08337916 -0.18747638
0001e0 38 51 3a be 32 12 4e 3d dd 34 11 3f 19 73 be be
       -0.18195045 0.05031032 0.5672129 -0.37197188
0001f0 8c bb 1e 3e 52 a9 07 be 78 be 6b be 07 86 0a bf
       0.15501231 -0.13248184 -0.23021877 -0.5411076
000200 20 9d 50 3e 27 bf 95 3e 4d 02 84 be 68 4c 80 3d
       0.20372438 0.292474 -0.25783005 0.06264573
000210 6f 9f 6d 3e b1 d1 9c 3e e6 74 13 3e 08 d6 e0 3e
       0.2320535 0.30628732 0.14400062 0.43913293
000220 bc 4f c1 3d ef 09 7c be 44 14 4d be af 4d 38 be
       0.09439036 -0.24613164 -0.20027262 -0.17998384
000230 11 0a cf 3c 70 b2 d5 bc 8c 3c 8f be 63 a0 64 3e
       0.025273355 -0.026086062 -0.2797588 0.22326808
000240 9a 48 9d 3b da 52 82 be 33 bc 99 bd 65 90 0a be
       0.0047999145 -0.25453836 -0.07506599 -0.13531645
000250 c4 c5 32 3e c6 74 4c 3e e0 47 81 be ef 25 77 3e
       0.17458254 0.1996642 -0.2525015 0.24135564
000260 78 5c 07 3d 2e 38 fe bd fa 46 b7 be 99 f9 2b be
       0.03304717 -0.12413059 -0.35796338 -0.16794433
000270 d7 47 3e 3d 26 ec a9 be 93 03 d4 3e af 33 05 be
       0.04645523 -0.3318798 0.41408977 -0.13007997
000280 0a 58 00 bf 84 e8 ad bd 18 74 68 be 50 83 4e 3e
       -0.50134337 -0.084916145 -0.22700536 0.20167279
000290 6c f7 18 be 30 b9 f8 3d b8 76 40 bd 3f 63 6e bd
       -0.14938134 0.12144697 -0.04698822 -0.058200117
0002a0 6e f8 86 be bb bf 63 be df ca 10 be 3b 36 13 be
       -0.26361412 -0.22241108 -0.14139889 -0.14376156
0002b0 34 e3 59 bc 86 76 76 be 5a 96 97 3e 6c 22 92 3e
       -0.013298798 -0.2406865 0.29606897 0.28541887
0002c0 88 5d 5a 3e 6b 1d 25 3e 91 49 a9 be d6 4c 01 3e
       0.21324742 0.16124503 -0.3306394 0.12626967
0002d0 06 a2 ab 3d 7c 92 e0 3d 39 15 90 bd b9 d3 1c bd
       0.08380513 0.1096544 -0.07035298 -0.038287852
0002e0 c8 67 83 be db 4f d2 3e 37 8d 7b be 70 08 e7 be
       -0.25665116 0.4107655 -0.24565588 -0.45123625
0002f0 ce e8 bc 3d 22 ce 45 be 68 8a d3 3d d5 c2 be bd
       0.092240915 -0.19316915 0.10329133 -0.09314505

image_conv.0.bias f4 [16]
000000 73 25 25 be d5 cd 83 bd 84 cc bc bd dc ff f1 be
       -0.16127567 -0.06435744 -0.09218696 -0.47265518
000010 74 b0 99 bc 43 50 81 be 8a 42 8b ba 05 78 31 be
       -0.018760897 -0.25256547 -0.0010624689 -0.1733094
000020 02 f7 02 be f2 1a 04 bf 62 42 5d 3d 4d 53 b8 be
       -0.12789539 -0.51603615 0.054018386 -0.36001053
000030 14 df 34 be 50 3c 2e 3a 93 3f 32 be 5f d4 a6 bc
       -0.17663223 0.00066465605 -0.17407064 -0.020364938

image_conv.3.weight f4 [32, 16, 2, 2]
000000 5b 1b f9 3d 7c c1 75 3e 9c b5 49 3d 21 48 50 3e
       0.12163421 0.2399959 0.04924546 0.20340015
000010 9d c1 12 3e ab 2f d8 bd 19 f8 e4 3d e9 5e 93 bd
       0.1433167 -0.10555967 0.111801334 -0.07195837
000020 d1 f3 72 3e 6d 6c 7d bd 99 96 51 3d 30 01 e5 3d
       0.23725821 -0.06187098 0.05116901 0.11181867
000030 df 62 82 3d cd 4d fd 3d c7 7c 80 bd 7a d8 5d be
       0.063665144 0.12368355 -0.062737994 -0.2166461
000040 f1 48 c3 3d a1 f3 97 be 65 a3 1b bd fe 10 2d be
       0.09535397 -0.29678062 -0.037997622 -0.16901013
000050 86 dc 2c 3e 5d 76 95 3d f0 d3 0a 3d e2 99 3c 3d
       0.16880998 0.07297967 0.033893526 0.04604519
000060 49 c2 a9 3e e7 5f 16 3d 67 fe 39 3e 51 fe 53 3e
       0.3315604 0.036712553 0.18163453 0.20702483
000070 7c 1e 28 3d 3a 24 39 3e 1b 39 21 3e 32 ad 16 3e
       0.041044697 0.18080226 0.1574444 0.14714506
000080 ce 4f 1f bd 10 db 82 be ca f9 be 3d ef 4d d7 bd
       -0.038894467 -0.25557756 0.09324987 -0.105129115
000090 36 6b b8 3d 00 14 98 3d b8 68 2c bd 6a c0 99 3c
       0.09004824 0.0742569 -0.042092055 0.018768508
0000a0 23 9d a1 bd ce d1 64 3e 35 24 ee 3d f7 1e 0c 3d
       -0.078912996 0.22345659 0.11628 0.034209218
0000b0 d7 53 72 3d b1 62 27 3e fd ed 82 b9 15 71 98 bd
       0.059161987 0.16346242 -0.00024972847 -0.07443444
0000c0 41 7e f2 3d 6c 84 c7 bd 5d 64 3f bd 57 04 5b be
       0.11840487 -0.09742054 -0.046726573 -0.21388374
0000d0 20 c8 cd 3d f9 c5 2b 3e 79 be 16 3e 87 03 f8 3e
       0.100479364 0.1677474 0.14721097 0.4844019
0000e0 60 46 25 3d d9 74 a3 be 3e ed 3e 3d 59 60 93 be
       0.040350318 -0.31925085 0.04661297 -0.28784445
0000f0 85 ad 93 3d cf de d5 bd 4f 95 d5 3d ac 91 a1 3d
       0.072108306 -0.10442888 0.10428869 0.07889113
000100 55 ca 71 bd 11 31 3e 3d 19 81 c7 bd 94 08 e5 bd
       -0.05903085 0.046433512 -0.0974142 -0.11183277
000110 0c 99 54 3e c6 2a 9d 3c df b2 9d bd f8 55 89 bd
       0.20761508 0.019185435 -0.077001326 -0.0670585
000120 c9 0f 14 3d 5c 89 09 be da dd 1e 3e d8 47 11 3e
       0.036147866 -0.13431305 0.15514317 0.14187562
000130 32 15 89 3b 96 08 6a bd 4c 1f 22 be 41 03 fe 3d
       0.004183435 -0.057137094 -0.15832251 0.124029644
000140 01 dd 17 bd 81 e0 44 bd 96 d6 c5 39 31 e1 2a bc
       -0.037076 -0.048065666 0.00037734647 -0.010429666
000150 6f 73 1d 3e 9b 05 f1 3e 13 52 c8 3c f1 60 7a 3e
       0.15376066 0.4707459 0.024453199 0.24451043
000160 66 5e 61 3e 05 4d 9f bd 8a 04 de bd bd d6 46 3c
       0.22008666 -0.07778362 -0.108407095 0.0121361585
000170 31 d3 f2 3d b2 77 35 3e d7 df 6f 3e 67 60 82 3d
       0.11856688 0.17721441 0.23425232 0.063660435
000180 72 ac 6b 3d e5 66 86 bd 29 c9 96 bd 6c 94 38 3e
       0.057537504 -0.06562594 -0.07362587 0.18025368
000190 06 a8 82 3e af 0a d1 3e bd 0c 19 3c 01 d1 9e 3d
       0.25518817 0.40828463 0.009341416 0.07754708
0001a0 50 6d 36 be dd 20 8e bd 29 c2 b3 3d 6c b2 98 be
       -0.17815137 -0.06939862 0.087772675 -0.29823625
0001b0 38 0b f7 3c d1 e2 8a 3e c7 3f 8c 3d 5b c2 aa bd
       0.030156717 0.27126172 0.06848102 -0.083378516
0001c0 9b 17 5e bd b2 f0 06 3b 0e a2 cf bd 80 06 0e bd
       -0.05422173 0.0020590243 -0.10138331 -0.034674168
0001d0 85 74 5c 3e 65 dc a9 be 1f 43 a5 3d 6c 2e 95 3e
       0.21528824 -0.3317596 0.08069443 0.2913698
0001e0 ca 19 75 bc b5 83 d9 bc 3c 33 d4 bc 4e 25 db 3c
       -0.014959762 -0.02655206 -0.025903337 0.026751187
0001f0 a1 25 0d 3e c6 ad dd bd 9e 1e 1a be 39 cd 51 be
       0.13783886 -0.1082416 -0.15050742 -0.20488442
000200 12 5b 6d be 84 05 92 be f7 ae 6e bb fe d9 1c be
       -0.23179272 -0.28519833 -0.0036420205 -0.15317532
000210 2c 2b b0 3d 90 64 8d 3d 23 78 32 be 9d c0 a3 3d
       0.086019844 0.069039464 -0.17428641 0.079957224
000220 d4 24 46 bd e2 96 40 bd 61 66 dc 3c 0c 3c 2c be
       -0.048374966 -0.047018893 0.026904287 -0.16819781
000230 d1 a4 a1 bd 27 4e bc be 86 e4 9e 3d cd 9b 7d 3d
       -0.07892764 -0.36778376 0.07758431 0.06191616
000240 c3 e5 1e be 32 2b 6a be d6 6e d2 3d 6d 2e 0e 3e
       -0.15517335 -0.2286804 0.102750465 0.13884898
000250 a1 01 a0 3e e5 e0 af 3d b4 ec 85 3d 31 f5 80 be
       0.31251243 0.08587817 0.06539288 -0.25187066
000260 e2 0a 21 3d 68 46 77 be e6 5d 0b 3e 38 2c 68 be
       0.03931702 -0.24147952 0.13610038 -0.22673118
000270 2d e7 49 3e a8 1e 47 3e c3 e1 5b bb 82 aa 8e be
       0.19717093 0.19445288 -0.0033551313 -0.27864462
000280 a0 0f 21 3e 62 12 9f be 97 8d dd bd f7 30 64 3e
       0.15728617 -0.31068712 -0.10818022 0.22284304
000290 4f ce 01 3e 06 98 10 3c 1c 1b 33 3d 14 e0 d2 3c
       0.12676357 0.008825308 0.043727025 0.025741614
0002a0 e5 a6 a9 3e 7b d6 72 3e 89 e6 7d 3d 10 36 4b 3e
       0.33135143 0.2371463 0.061987434 0.19844842
0002b0 90 6e 29 3e ee f6 2c bb 33 c5 38 3c b6 fb de bd
       0.16546082 -0.0026392299 0.011277485 -0.10887854
0002c0 0c 97 26 be 65 d4 af bd aa 2a 41 3c 5d 6a 1c 3e
       -0.16268557 -0.08585433 0.011789957 0.1527495
0002d0 77 79 e7 3c fb 4b 9d bd 9a a2 b1 3e 1f 21 59 3d
       0.028256161 -0.07680508 0.34694368 0.053010102
0002e0 24 ef ab 3d 0b 21 b8 3b 95 95 16 3d 78 44 1d 3c
       0.08395222 0.0056191734 0.036763746 0.009598844
0002f0 eb bc a0 3e 07 fe 93 3e 5a 13 8b 3d d1 0f 28 bd
       0.31394133 0.28904745 0.067908004 -0.04103071
000300 2a e3 08 3b 52 d5 8b 3e 71 d9 81 bc ea bb 30 3d
       0.0020887353 0.27311188 -0.015850754 0.04314796
000310 fe 42 24 3e 74 3e 9f be 39 43 ce 3d 89 b6 51 bd
       0.1604118 -0.31102335 0.100714155 -0.05119947
000320 3d 75 67 3e 90 e7 a3 3c 4f 39 f8 3b 73 d1 99 bd
       0.22603317 0.020007879 0.007575191 -0.075106524
000330 52 9d 34 3d 75 09 90 3d 47 46 3d bc fa d9 ff 3d
       0.044095345 0.07033054 -0.0115524 0.124927476
000340 c9 69 d1 bd 03 79 97 bc 3c e6 cc bd fd 7e a1 be
       -0.10225255 -0.01849032 -0.10004851 -0.31542197
000350 6d 26 8d bd e5 82 0a 3d 12 39 29 bb db e0 15 3f
       -0.06892095 0.033816237 -0.002582137 0.5854623
000360 60 1d 80 3e 65 dc 88 3d 53 8c 2a 3e 7a 56 1a be
       0.2502241 0.06682662 0.16655092 -0.1507205
000370 9a d8 d3 3e 95 b5 e7 3d 7e ed 85 bd 73 2a b4 3e
       0.4137619 0.11313931 -0.06539439 0.35188636
000380 2f 27 f5 bd c6 96 b6 bd 72 09 cd 3d ac 2d 91 be
       -0.11970364 -0.089154765 0.10011567 -0.28355157
000390 77 0c a3 3e 51 b1 28 bc 47 0a 0a 3e 78 ba 8a 3e
       0.31845447 -0.010296182 0.13480483 0.2709539
0003a0 9b af f3 3d 46 2e 89 3e 7d 70 e2 bd 1a ef 68 3e
       0.118987285 0.26793116 -0.11056612 0.2274746
0003b0 6e 01 f7 3d 6a eb 6b 3e 63 82 3e be 81 5c 5d 3e
       0.120608196 0.23039022 -0.18604426 0.21617319
0003c0 28 57 08 be 17 0f 91 be e9 f2 22 3d 80 a9 a5 bd
       -0.13314497 -0.28331825 0.03978244 -0.0808897
0003d0 7e 75 c8 3d 83 e1 4c bc 57 26 38 3e 29 81 b4 3d
       0.09788035 -0.012504938 0.17983375 0.08813698
0003e0 8e 5f 2d bd 9e 99 97 be 7e 7e c5 3d 52 13 3d be
       -0.042327456 -0.29609388 0.09643267 -0.18464401
0003f0 c2 7c 29 3e 07 32 35 be 31 fc 08 3e 3f d8 6e bd
       0.16551498 -0.17694865 0.13377453 -0.058311697

image_conv.3.bias f4 [32]
000000 dd 18 55 bd 16 fd 12 be 17 71 03 bd 49 28 b5 bd
       -0.052025665 -0.14354357 -0.032090273 -0.088455744
000010 1d 20 e0 bd 6e 9f 3b bd 75 14 39 be 5e c3 a4 bd
       -0.10943625 -0.04580634 -0.1807421 -0.08045076
000020 3b 0b 22 bd db 58 f4 3d 5b e1 e0 3d 9d 23 13 bd
       -0.03956149 0.1193101 0.10980483 -0.035922635
000030 33 dd 0e be f6 98 85 bd 0c 00 91 bd 6e af b0 bd
       -0.13951568 -0.065233156 -0.07080087 -0.086272106
000040 52 cb 0f 3e b0 5d 61 3d d3 18 0b bd f9 bf af bd
       0.14042404 0.055020988 -0.03395922 -0.08581538
000050 38 1a 0d be 31 bb 70 3d af de e8 bd 34 99 2f be
       -0.13779533 0.05877227 -0.113705985 -0.17148286
000060 7e 1a d1 bd d1 5b fb bd d9 f8 a7 bc 12 1b 51 bd
       -0.10210131 -0.12273372 -0.020504402 -0.051051207
000070 4f 79 4e bd 3d dd 7b bc ad 24 f1 bd 6e f6 62 3d
       -0.050408658 -0.015372572 -0.117745735 0.055410795

image_conv.5.weight f4 [64, 32, 2, 2]
000000 52 a2 5b 3e b3 46 fb 3c c6 e2 56 be 8a 0d 78 bd
       0.21448639 0.03067336 -0.20984945 -0.060559787
000010 d7 03 36 3e ad f4 06 3c 68 9c 33 be 5e f7 4b 3e
       0.17774902 0.008237046 -0.17540133 0.19918582
000020 bc 63 69 bd 72 29 8a be cf b8 d3 3d 3b c1 69 3d
       -0.05697988 -0.26984745 0.10337984 0.057069045
000030 17 44 3d 3e ee c1 68 be 2f 9d 82 3e d4 c7 c7 bd
       0.18483005 -0.22730228 0.25510547 -0.09754911
000040 07 f9 27 3e bf 8e 95 3c 88 f7 d0 3d 41 91 fd 3d
       0.1640359 0.018256543 0.10203463 0.123812206
000050 36 8a 0c 3c 02 d9 64 be c5 1a 07 be 28 e1 4e 3d
       0.008577874 -0.22348407 -0.13193806 0.050507694
000060 0d d5 36 be 63 06 8c bd 88 90 2f 3d fb 3b 17 3e
       -0.1785471 -0.06837156 0.042862445 0.14768974
000070 49 3f 22 be dd 98 af bd f2 99 23 be a8 cc 58 3c
       -0.15844454 -0.08574078 -0.15976694 0.013232388
000080 9a 48 f6 3c c5 0f 23 be 95 2b e4 bd 0a e0 79 3d
       0.030063916 -0.15923984 -0.11141125 0.061004676
000090 f8 f5 24 be 0e be 3f be 8f 10 35 3e 1a 49 90 bd
       -0.16109455 -0.18724844 0.17682098 -0.07045193
0000a0 28 83 07 3d be 09 1c be 1c 40 15 be a7 25 95 be
       0.033084065 -0.15238091 -0.14575237 -0.2913029
0000b0 5e 69 db 3d f9 2e 66 be dd d6 9e 3d 3b 75 31 3e
       0.107134566 -0.22478856 0.07755826 0.17329876
0000c0 94 46 fe bc 92 b4 2c 3e dc eb 98 3b 00 7c 8f 3e
       -0.031039514 0.16865757 0.0046667885 0.28024292
0000d0 6f be 9e 3d ad 5b 1e 3d 68 ce b7 bc 3c b5 8e bd
       0.07751166 0.038661648 -0.02243729 -0.069681615
0000e0 44 b3 87 bd f2 1d 12 be 68 2f bf 3d 05 b6 75 3e
       -0.06625989 -0.14269236 0.09335214 0.23995216
0000f0 6b 47 7f bc 52 ff 67 be 3b e4 39 bd 3a 1b cb bd
       -0.015580992 -0.2265599 -0.045383673 -0.099173024
000100 25 48 07 be 79 77 82 3d 6c d1 a5 3d d4 74 31 bc
       -0.13211115 0.06370444 0.08096585 -0.010831077
000110 62 e6 f9 3d 0c 63 92 bd 6d c1 25 3e 6f f6 d9 bd
       0.12202145 -0.07147798 0.16187067 -0.106427066
000120 d9 7f 85 bd ed 45 9e bd ce b2 06 be 1a 5d 28 3c
       -0.06518526 -0.07728181 -0.13154146 0.010276103
000130 1f bc ea 3d 46 1f 9d 3d d6 f7 e3 bd 2b 86 ce ba
       0.114616625 0.076719806 -0.11131255 -0.0015756538
000140 79 09 46 3d 2e c2 98 be 07 a9 89 be d7 7f 23 3e
       0.048348878 -0.29835647 -0.2688677 0.15966736
000150 92 13 94 3e 4a 03 ad 3d c0 73 15 3d a7 65 ef bd
       0.2892118 0.08447893 0.03648734 -0.116893105
000160 10 da 9f 3d 37 63 8e 3e de be 10 be c3 ab a8 be
       0.07805264 0.2781007 -0.1413531 -0.32943544
000170 f9 7c e9 3d 32 21 2c 3e 83 c6 b5 bd 18 19 bb 3d
       0.1140079 0.16809538 -0.08875754 0.09135646
000180 df f1 c9 3d be 8d 8a be 35 e8 2e 3e d7 7d b2 bd
       0.098605864 -0.27061266 0.17080767 -0.08715408
000190 15 9f f0 3d c8 b4 d5 bd ca 43 4a 3e 90 23 1d be
       0.117490925 -0.10434872 0.19752422 -0.15345597
0001a0 20 f3 b8 bd 56 1e 3b be 80 be 91 3d b5 3a 10 be
       -0.090307474 -0.18273291 0.07116413 -0.14084895
0001b0 52 1c 9b 3d b0 24 11 bd e2 73 84 be 5d 2c 11 3e
       0.07573761 -0.03543538 -0.25869662 0.1417708
0001c0 d5 41 f9 3c 76 87 c3 3d 0f 21 35 3e 05 4d db be
       0.030426899 0.095473215 0.17688392 -0.428322
0001d0 26 fa 32 bc aa f9 61 be 8d 16 a9 3d 00 16 15 3e
       -0.010923898 -0.22067896 0.08256254 0.14559174
0001e0 e2 ef 99 3c 70 3f 99 bd fb 9e 85 3d fd da 85 bc
       0.018791143 -0.07482803 0.06524464 -0.016339773
0001f0 10 92 6f 3d 88 eb 87 3e f4 58 13 3e 9a c3 8e be
       0.058488905 0.26546884 0.14389402 -0.27883607
000200 0d db 2f 3c 9c 39 d1 bd 6f e6 82 3d 3a cd be 3d
       0.010733378 -0.10216066 0.06391608 0.093164876
000210 2c 43 1f bc 8e 8a bb be b4 66 15 be c3 9d 3d 3e
       -0.009720605 -0.36629146 -0.1458996 0.18517213
000220 38 e1 f5 bc b3 3a 3d be a6 5f 92 3d 71 1e 46 bd
       -0.03001462 -0.18479423 0.0714715 -0.048368875
000230 be 2a 10 be 60 80 2a 3d 2d 10 06 bc 46 e2 68 be
       -0.14078805 0.041626334 -0.008182568 -0.22742566
000240 a0 9d 0c 3e d7 1b 77 3d 2a 34 96 3e c0 f9 81 be
       0.13732004 0.060329285 0.29336673 -0.25385857
000250 94 82 19 be ae d1 48 3e c5 e9 ef 3d f5 10 d8 3c
       -0.14991218 0.19611236 0.1171451 0.026375273
000260 25 cb d4 bb f8 5b 31 3d db 46 3b bd 3e a0 36 3e
       -0.0064939433 0.0433006 -0.04572187 0.17834565
000270 bf cd 51 3d 90 c9 27 3d ec 1c e6 3d 6b d3 86 bd
       0.051221605 0.04096371 0.11235985 -0.065832935
000280 3a cc 17 be c8 3f 9b be 4e 34 bb 3d 0a 2b aa 3c
       -0.14824 -0.303221 0.09140836 0.020772476
000290 ae 3c dc be 29 bb f3 bc de 6a b8 bd 10 bf 21 be
       -0.43015045 -0.02975233 -0.09004758 -0.15795541
0002a0 a1 f3 31 be a6 ca 61 be 0a cd bd be 98 38 8d be
       -0.17378093 -0.2204996 -0.37070495 -0.2758224
0002b0 a1 b1 29 be 1b e1 88 be 7a 33 25 3b d7 96 3f 3e
       -0.16571666 -0.26734242 0.0025207684 0.18709885
0002c0 b2 6a 39 3e cd 06 fd 3c 9e 45 93 bc c6 2e 40 bd
       0.18107107 0.030887032 -0.017977532 -0.046919607
0002d0 1d ca 00 bd 69 46 95 bd dc bb c5 bc 3f 5b 0b be
       -0.03144275 -0.0728882 -0.02413743 -0.13609026
0002e0 10 26 1f 3e 63 66 32 be 04 35 be be 14 11 b0 3d
       0.15541863 -0.1742187 -0.37149823 0.085970074
0002f0 41 0f e3 bd 21 33 a7 bd ed 07 b3 3c 74 70 d6 be
       -0.11086894 -0.08164049 0.021854365 -0.4188267
000300 f2 62 c3 bd e4 f9 74 bd f0 81 ac 3d ec f5 39 3b
       -0.09540357 -0.059808627 0.08423221 0.002837534
000310 c9 c7 79 bc c0 59 76 bd c3 d6 ac be 09 76 fc bd
       -0.015245386 -0.060144186 -0.337576 -0.12327201
000320 d3 eb fd 3d b6 79 b1 bd 17 8a af 3c 82 25 e3 3d
       0.123984955 -0.08665793 0.021428151 0.110911384
000330 df 5c a3 bd 4e cc 48 3d 32 ee 61 3d 4c 24 fe 3d
       -0.07976698 0.049022965 0.0551588 0.12409267
000340 a1 fc 2f 3e 73 63 ae bd 55 cc 54 bd 2b 6e d7 bc
       0.17186214 -0.08515062 -0.05195268 -0.02629765
000350 3b 1f 05 3d 6d 1e d6 bd 15 b3 de bd 7b 42 1e be
       0.032500487 -0.10455022 -0.10874001 -0.15455048
000360 4d 72 08 bc ff be 19 be 8b 05 09 3e e1 4c 80 be
       -0.008328033 -0.15014265 0.1338102 -0.25058654
000370 ca 4e 57 bd 5e 1f 25 bd 04 28 d4 bd e1 19 68 bd
       -0.052565373 -0.040313117 -0.10359195 -0.056665305
000380 a8 f9 96 bc bf 46 19 be b6 18 94 bd 39 7f 22 be
       -0.018429592 -0.14968394 -0.07231276 -0.15868844
000390 4e bc a3 3d 23 b2 ec be 6b 6b f2 3d 53 45 d1 3d
       0.07994901 -0.46229658 0.118368946 0.10218301
0003a0 65 d8 bc be da 5b da bd df d1 84 be 69 83 0f be
       -0.36883846 -0.106620505 -0.2594137 -0.14014973
0003b0 e9 84 02 be 18 50 e1 bc 50 47 2b bd 85 0d 3e bc
       -0.12746014 -0.027504012 -0.041816056 -0.011599903
0003c0 98 22 d3 39 65 1e 2d be dd 28 83 3d e3 54 00 bd
       0.0004027083 -0.16906126 0.064042784 -0.031330954
0003d0 77 f5 a8 bc 14 09 9d be 3a 54 11 3e a9 fd 0a bd
       -0.02062486 -0.3067099 0.14192286 -0.033933315
0003e0 ca 45 21 bd c0 5d bf bb c8 d8 6d bc 8b 46 30 bd
       -0.039373197 -0.0058400333 -0.014517017 -0.043036025
0003f0 e9 66 a6 3d bd ba 65 be 1b ec 1f be e6 28 31 be
       0.08125097 -0.22434516 -0.15617411 -0.17300758

image_conv.5.bias f4 [64]
000000 02 15 65 bd ac 56 30 bc 23 a4 bd bd 0d bb 0a bd
       -0.055928238 -0.010762852 -0.09259822 -0.03386979
000010 f1 5f c6 3c 92 58 10 3d 76 c5 94 bb a0 73 3f bd
       0.02421567 0.035240717 -0.0045401407 -0.046741128
000020 36 e1 c3 3d 3c 28 02 bd 3d 2f ec bb 28 e6 d6 3d
       0.0956444 -0.03177665 -0.0072077797 0.104931176
000030 86 1d 90 bd 5e ff 92 bd ab 27 47 bd fd 89 18 bd
       -0.07036881 -0.07177614 -0.048621815 -0.03724097
000040 a0 81 99 bd ed 6a 45 3d 63 2b 2a 3d 5f 35 e5 3d
       -0.07495427 0.048197675 0.041545283 0.1119182
000050 87 da d2 bb 44 8b 57 3d f3 d7 05 be 4b 2b 1a bd
       -0.006434742 0.05262305 -0.1307066 -0.037638944
000060 da 8a b5 bc cf 91 57 3d c0 67 e4 3d 0b 6b 86 bc
       -0.022160936 0.05262929 0.11152601 -0.016408464
000070 19 7a 6c 3d 3c b6 01 be b3 5a 3a 3d 3b d1 24 bc
       0.05773363 -0.12667173 0.045496654 -0.01005965
000080 ba 67 98 bd 85 6d 02 bd 25 e9 b1 3d 98 f0 7f 3c
       -0.07441659 -0.031842727 0.08687047 0.015621327
000090 c9 ac 07 be 51 ef 09 be c5 ea 11 bd 51 07 29 bc
       -0.13249506 -0.13470198 -0.035624284 -0.010316686
0000a0 65 f6 7c 3c cd 55 b9 bc ac 3f 92 bc 41 0d 1e 3d
       0.015439604 -0.02262392 -0.017852627 0.03858686
0000b0 f4 77 cc bc 64 28 03 bd d7 3a c7 3d f5 21 c0 bd
       -0.024959542 -0.03202094 0.0972802 -0.09381477
0000c0 5e c5 29 3d 9f ce 3f 3d 1f 10 e0 bd 9f 43 f6 bd
       0.04144799 0.04682791 -0.10940575 -0.120246165
0000d0 b1 1c fc 3c 7f 53 7b 3d dd f3 fe bd ca 1a e1 3d
       0.0307754 0.061358925 -0.12448857 0.10991438
0000e0 ce 3a 01 be e2 32 d4 b9 8f b7 5b 3c 4c 42 80 bd
       -0.12620088 -0.00040473702 0.013410463 -0.06262645
0000f0 0e ce 9f 3d 5f 97 32 bd 7d ad 97 3d 34 6e 1a be
       0.07802974 -0.04360139 0.07406137 -0.15081102

memory_rnn.weight_ih f4 [256, 64]
000000 88 7f da be 86 ee 21 be da 52 71 bd 87 02 1b 3e
       -0.42675424 -0.15813646 -0.058916904 0.15137683
000010 f5 96 49 bd c8 a7 cd 3d f8 f9 ad 3c dc 11 36 be
       -0.04921623 0.10041767 0.021237358 -0.1778025
000020 7d 28 17 3e 77 eb 8b be 9c 55 1c be 4b bd 9e 3d
       0.14761539 -0.27328083 -0.15267032 0.077509485
000030 af 1c 4d be b5 1f 93 bd 61 a6 87 3d 6a 6e 88 3c
       -0.20030473 -0.07183782 0.06623531 0.016654212
000040 b8 b3 a5 bc 66 31 66 3d 04 1b 78 bd 47 57 d9 3d
       -0.020227298 0.056199454 -0.06057264 0.1061235
000050 ed 23 5e be 2d a4 3a be 3d fe 3a bd 00 70 42 3d
       -0.21693392 -0.1822669 -0.045652617 0.047470093
000060 78 da 6c be 90 20 89 be e3 c7 be bd a3 96 03 3e
       -0.23130214 -0.26782656 -0.09315469 0.12850432
000070 8d 49 b4 be 67 63 ba be 11 37 b2 bd 46 67 8c 3e
       -0.35212365 -0.36403963 -0.08701909 0.2742254
000080 6a d6 c9 bd de 75 3c 3d a4 74 47 bd 9e 00 c4 3d
       -0.09855349 0.046010844 -0.04869522 0.0957043
000090 6f f9 58 be 42 59 d3 bc 80 b1 35 3e 5f 52 a6 bd
       -0.21188901 -0.025799397 0.17743492 -0.0812118
0000a0 6b b5 b1 3d 22 da 2c 3e b3 b8 4d be 99 0c 2f 3e
       0.08677181 0.16880086 -0.20089988 0.1709465
0000b0 d7 70 9f 3d b9 2c 35 be f8 2c 1d bc d1 a2 96 be
       0.07785194 -0.17692842 -0.009593241 -0.29421094
0000c0 69 2e 44 3e 39 0c 5e bd 25 d1 2a 3e f7 b4 7f be
       0.19158329 -0.054210875 0.16681345 -0.24971376
0000d0 d0 ba 27 3e af bc ea bd 30 4a 58 3c 8f 90 bf be
       0.16379857 -0.1146177 0.013201281 -0.37414977
0000e0 fe 59 1c bb 0b b3 b7 bd bd a7 b1 3e 08 2d f0 3d
       -0.002385735 -0.089696966 0.34698287 0.11727339
0000f0 d9 f2 32 bd 08 52 ae 3d 80 3c a5 3d 67 96 0a bc
       -0.04368863 0.0851174 0.0806818 -0.00845871
000100 9b d2 60 3e a2 d5 f7 3d 90 82 98 bd 3c ec 11 be
       0.2195534 0.12101294 -0.07446778 -0.14250273
000110 a2 63 2c 3e 3e 25 d0 3e 9a 14 b3 bc c9 6a 01 be
       0.16834882 0.40653414 -0.02186041 -0.12638392
000120 b7 0f 39 3e 75 34 8c 3e 56 b9 8a be bf 51 96 3e
       0.18072401 0.27383772 -0.27094525 0.29359242
000130 45 89 85 3e 1c 1d f8 bd 18 dc b8 be c6 7e 8d 3d
       0.2608129 -0.12114927 -0.36105418 0.06908946
000140 ae 5f e1 3d 40 9f 8f bd 06 33 d8 3d f9 e1 09 3d
       0.110045776 -0.070127964 0.10556607 0.03366277
000150 5e 5e bc 3d 5c b5 e0 3d 58 f9 3f be 05 fa a6 bd
       0.091976866 0.109720916 -0.18747461 -0.08153156
000160 60 bb 39 bc 43 8f 53 be 08 31 02 3f 98 a8 8a bd
       -0.011336178 -0.20660119 0.50856066 -0.06770438
000170 af 2b 9e 3d 7a cf 6f bc a0 54 90 bd a3 45 98 bd
       0.07723176 -0.014636869 -0.07047391 -0.07435157
000180 af 3c 68 3d 1f e0 6d be 5f 5d 05 3e 2b d2 55 bd
       0.056698497 -0.23230027 0.130239 -0.052202385
000190 88 47 2b be 00 e2 56 bd 29 9b 21 3e 96 63 f7 3b
       -0.16726506 -0.052461624 0.15781845 0.0075497134
0001a0 fb 1a 6a 3d a7 a5 dd bd 95 3e 44 be c9 3a 5b 3d
       0.057154637 -0.10822611 -0.19164498 0.05352286
0001b0 8d 7f 8c 3e ac b9 42 3e c2 48 2b be 12 0e 17 3c
       0.27441064 0.1901614 -0.16726974 0.009219663
0001c0 07 fc 67 bd 96 09 0e be bb b2 99 3e 20 8b e5 bd
       -0.056636836 -0.13870844 0.30019173 -0.112081766
0001d0 63 41 5b be 7d da 84 bd 47 56 97 bc d2 8d 5c 3d
       -0.21411662 -0.06486986 -0.018473757 0.053846188
0001e0 53 82 58 3d 79 11 d1 3d c5 45 df bd 7c c5 eb be
       0.05285866 0.10208411 -0.10901979 -0.46049106
0001f0 eb 87 52 3e 47 fc ab bb 7d 7e 90 3d 09 40 48 be
       0.20559661 -0.0052485797 0.07055376 -0.19555677
000200 fa 3c f1 bd f9 cd 24 3e 7b 51 b5 bd 02 31 05 3e
       -0.117792085 0.16094197 -0.08853432 0.13006976
000210 c2 96 e0 3d 15 5d d5 3c 96 45 30 3c 1d 2d 09 3d
       0.10966255 0.026045362 0.010758778 0.03349029
000220 82 24 89 bd 6f db 51 be 00 08 f9 bd ae 61 51 3e
       -0.066964164 -0.20493864 -0.12159729 0.20447418
000230 1c 17 0f be e7 87 8a bd c6 af 1b 3d 32 cc 85 3d
       -0.1397366 -0.067642026 0.038009427 0.06533088
000240 e9 3b 82 bc 89 b8 fa bc 85 ba ca bd 3c 16 29 bd
       -0.015897708 -0.030605571 -0.09898857 -0.04128097
000250 46 7d 63 3e 02 54 4f bd ed b1 d4 3c 7b 86 3d 3d
       0.22215757 -0.050617225 0.025963748 0.04627083
000260 e3 9a 98 3e bd ea 17 3e 22 d6 44 be 19 30 21 3e
       0.2980567 0.1483564 -0.1922231 0.15741004
000270 82 bb 5b be 8b ab 2a 3e 73 05 88 be 34 82 89 3e
       -0.21458247 0.16667001 -0.26566657 0.2685715
000280 25 2c a6 3c fb 23 10 3b f8 f6 d9 3d c3 96 8e bd
       0.020284722 0.0021994102 0.10642809 -0.06962349
000290 bd 31 1b 3d 09 ae 67 bd 67 a6 5e bd f1 8a 00 bd
       0.03788923 -0.056562457 -0.054357912 -0.031382505
0002a0 0c cd 2c be e2 cc fb bd 65 3b 9d 3d a2 cf 15 3e
       -0.16875094 -0.12294938 0.07677344 0.14629987
0002b0 29 d4 0e bd 82 a9 ca bd 73 66 36 be 4c 28 a3 bd
       -0.0348703 -0.09895612 -0.17812519 -0.079666704
0002c0 42 df c0 3e c8 ad 35 bc 0a dc 84 3e a3 f7 4f be
       0.37670332 -0.011088796 0.25949126 -0.2030931
0002d0 d8 e5 fc 3d eb 07 d1 3d c4 4b c0 3c e0 bd 19 3e
       0.12348527 0.10206588 0.023473628 0.15013838
0002e0 14 ff 65 bc 6f 1b 85 3e 3b de cc bd 12 98 b1 be
       -0.014037866 0.25997493 -0.100033246 -0.34686333
0002f0 c8 2c f7 3d e3 4f b1 bd 7a a6 86 3d e0 44 bd 3d
       0.12069088 -0.08657815 0.06574722 0.092416525
000300 c0 b4 2d 3e 3a dc 51 3e 7d 69 aa bd 5c e5 1d 3e
       0.16963482 0.20494166 -0.083209015 0.15419525
000310 e2 e3 05 3e 4e fc 15 bd 84 09 4f bd 5b d9 c8 3d
       0.13075212 -0.03661757 -0.050546184 0.09807082
000320 05 c8 f1 3d ee 2f b8 bd 98 81 39 3c 64 5c 48 be
       0.11805729 -0.08993517 0.011322401 -0.19566494
000330 ff 6b 96 bd 11 f6 b3 bc dd fc e5 3d 0e 8a 1a bd
       -0.07344817 -0.02196792 0.112298705 -0.037729315
000340 9b f9 00 3e 5c 11 ee bd e2 96 e5 3d ec 96 83 be
       0.12595217 -0.11624405 0.11210419 -0.25701082
000350 6e 1f b4 3e 09 73 36 be 16 e3 62 3e 5f f8 2d 3e
       0.3518023 -0.1781732 0.22156939 0.16989277
000360 11 f2 6d bd dd 07 f3 bd bf f2 d4 3d 51 c6 f0 3d
       -0.05809218 -0.11866734 0.10397863 0.11756576
000370 3d ca 8c bc 6d 4c 92 bb 63 a5 2d be 33 a7 02 bd
       -0.017186278 -0.004464677 -0.16957621 -0.031897735
000380 41 ff 88 3d 0a 42 bc bd 5e 0e 0a 3e ba 4f 4b be
       0.06689311 -0.091922835 0.13482043 -0.19854632
000390 8d 4a 9e bd bc ec e1 3d 3b 6f 0a be a3 50 c7 3d
       -0.07729063 0.110314816 -0.13518994 0.09732177
0003a0 5d da 17 3e 98 f6 ba 3e 28 1a 2b 3d 86 64 8a 3d
       0.14829393 0.3651626 0.04177299 0.067574546
0003b0 3f 8e 14 bd 1f cb 36 bd 53 b8 9c bc b8 1b e3 be
       -0.03626847 -0.044627305 -0.019130861 -0.44357085
0003c0 7f 04 e1 bd d9 10 76 be e5 33 f5 3d 43 de 57 3d
       -0.10987186 -0.24029864 0.11972789 0.0527022
0003d0 f3 61 b1 be fd 8b 20 3c e6 34 a9 3d a0 5e c6 bd
       -0.34645042 0.009799001 0.08262043 -0.09686017
0003e0 ea c7 aa 3d 6c 6c ee 3d b8 c9 bc 3d 62 ce a2 bd
       0.08338912 0.116417736 0.09218162 -0.07949521
0003f0 0f 5c ae 3e e3 3a c4 3d ad 6b 98 3d f6 ef 9e be
       0.3405461 0.09581544 0.074424125 -0.3104245

memory_rnn.weight_hh f4 [256, 64]
000000 f1 ab a0 bd 33 cf f5 bd 69 28 3c 3e 99 8c 85 bd
       -0.07845295 -0.12002411 0.1837479 -0.065209575
000010 ab 81 1c 3e 95 fc 0e 3e f4 4d c1 be cd be 5d be
       0.1528384 0.1396354 -0.37754786 -0.21654816
000020 c2 c2 95 bc 86 ef 52 bd 64 b4 ef 3d 34 ee fe 3d
       -0.018281344 -0.05149796 0.11704329 0.124477774
000030 b3 04 ad be 41 b3 0b 3e 32 fe b6 bd 6b 59 02 3e
       -0.33792648 0.13642599 -0.08935203 0.12729423
000040 a4 23 15 bd 07 9b 3f 3d 6f 9f 8d 3e 64 fc 9c bd
       -0.036410943 0.046778705 0.276607 -0.07665327
000050 84 84 8a bb b9 b9 a9 bd cf 1e 96 3d bb 02 81 3e
       -0.004227223 -0.08287377 0.07330095 0.25197396
000060 0f f8 9a 3d 10 77 24 be 3b e7 9b be c1 83 28 be
       0.07566845 -0.16061044 -0.30449852 -0.1645651
000070 39 36 9f 3d b5 e6 4f 3e 29 bd 0f be 0a d8 da bd
       0.07774014 0.20302851 -0.14037003 -0.106857374
000080 53 04 cb 3d b5 4a a4 be 74 bb b1 3e a2 d0 44 be
       0.09912934 -0.32088247 0.34713328 -0.19220212
000090 39 35 be bd df 69 eb bd 4d 44 f2 bd 17 18 1e bd
       -0.09287495 -0.11494803 -0.118294336 -0.038597193
0000a0 bc 60 a2 bc fd 92 4e be 1e e3 8a 3e 97 cb 81 bd
       -0.019821517 -0.20173259 0.27126402 -0.0633766
0000b0 8a c2 82 3d 8c 50 05 3d 1e e6 8d 3e 95 1a 2b be
       0.06384762 0.03254752 0.27714628 -0.16709359
0000c0 5d 33 a1 3c af 29 49 bd 56 c9 8d 3e de 14 c3 3c
       0.019677812 -0.04911202 0.2769267 0.023813661
0000d0 91 bd 73 be 51 32 fb bd dd c0 b5 bd 08 01 5a 3e
       -0.23802783 -0.122654565 -0.088746764 0.21289456
0000e0 de 78 e6 3c 85 bc 10 bd b3 ab 40 3d 4b d7 b1 3c
       0.028133806 -0.035336036 0.047038745 0.021709105
0000f0 30 fe e8 bd 4f 84 84 3e 01 5e b8 3d 83 96 b8 bd
       -0.113766074 0.25882193 0.09002305 -0.09013083
000100 91 90 4f 3d 08 3f 1e be 13 14 0a 3e c0 b2 6e 3e
       0.05067498 -0.15453732 0.1348422 0.23310375
000110 4b f8 90 bd 37 44 99 bd d1 7d 33 3e 8c c9 bb bd
       -0.07078608 -0.07483714 0.17528464 -0.091693014
000120 2d bf d4 be 83 17 25 3e ac fe 30 be 5e 5d fc bc
       -0.41552106 0.1612225 -0.1728465 -0.03080624
000130 5e f3 65 bd be 9b 3e 3d f4 fa d6 3c 18 56 c5 be
       -0.056140296 0.046535246 0.02624271 -0.38542247
000140 57 4a 35 bd 82 fe b4 3c 78 01 49 3d bf 03 98 3e
       -0.04426035 0.022094015 0.049073666 0.29690358
000150 b3 54 3f bd db 77 dd 3d 35 c0 ad be ab 65 de 3d
       -0.046711635 0.10813876 -0.33935705 0.108592354
000160 0f b7 71 3d 88 d8 4f 3d 12 8f 4d 3e d0 e6 49 be
       0.05901247 0.05074361 0.20074108 -0.19716954
000170 ae 61 b6 3d cd d7 14 be 2c 8d f8 bd f4 ce bc be
       0.0890535 -0.14535446 -0.121363014 -0.36876643
000180 f7 f9 cb bd 83 76 c0 3d 23 31 fe bc 46 03 15 be
       -0.099597864 0.09397604 -0.03102929 -0.1455203
000190 27 b1 27 be 53 a2 3a 3e a5 19 a6 3e 7a 21 41 bd
       -0.16376172 0.18225984 0.3244144 -0.047151066
0001a0 3c 8f 85 be 9f fd b4 3d ea 81 91 be 69 f3 46 be
       -0.26085842 0.08837437 -0.2841943 -0.19428791
0001b0 79 29 e9 3c 15 c2 f3 3d 91 9f a6 bd 1e d1 5b 3e
       0.028462159 0.119022526 -0.081359036 0.2146649
0001c0 ca 20 3f bc 5e c0 fa 3c 0f a5 79 3e 3c df 5d 3c
       -0.011665532 0.030609306 0.24379371 0.013541993
0001d0 43 73 ab be 01 d5 43 3e 3e 90 4e 3e 7d a8 25 be
       -0.33486375 0.19124223 0.20172212 -0.16177554
0001e0 50 e1 64 3d 8b db 76 bc 5f be 0d be d0 10 30 3c
       0.055878937 -0.015066992 -0.13842152 0.010746196
0001f0 d4 96 1f 3e fd e4 a0 be ff dd 1f 3d 78 ac 91 3e
       0.1558488 -0.31424704 0.03903007 0.28451896
000200 77 6d 4a 3d 3b 08 cf be e6 b4 01 be 56 47 33 3e
       0.0494208 -0.40435967 -0.12666664 0.17507681
000210 a8 0f 1e be 02 f1 57 be ef f6 d6 3d 85 13 7b be
       -0.1543566 -0.21088031 0.104963176 -0.24519165
000220 90 d8 e8 bd 2a a1 b5 bd f0 85 db 3a 55 88 08 3c
       -0.11369431 -0.0886863 0.001674829 0.008333285
000230 96 a7 6c 3c a7 74 cd 3d fc f9 6d be fd 5f f4 bd
       0.0144442525 0.10032015 -0.23239893 -0.11932371
000240 bd 66 fe be 1d a6 c4 3d be 93 f5 bd 62 77 94 bd
       -0.49687758 0.09601996 -0.1199107 -0.07249333
000250 49 69 e6 3d df 5a 88 3c 42 e1 18 be 04 cb cd 3e
       0.1125055 0.016644893 -0.14929679 0.4019395
000260 25 30 7a bd 26 a9 bb be 58 e3 69 bc 98 f8 29 be
       -0.06108107 -0.36652488 -0.014275394 -0.16598737
000270 11 5e c7 3d 7a 69 70 3d bd 6f 62 3e 06 87 86 3d
       0.097347386 0.05869434 0.22112937 0.065687224
000280 bd 95 16 be 72 25 d6 3e 50 2e 2d bc 54 fc f5 3d
       -0.14705558 0.41825444 -0.010570124 0.120110184
000290 31 cc 70 bb b0 5e 61 be 50 7b ce 3d 07 e6 21 be
       -0.0036742801 -0.22008777 0.10082114 -0.15810405
0002a0 c9 68 09 be ea 7a 87 3e 5a d0 39 be 18 55 02 be
       -0.13418879 0.26460963 -0.18145886 -0.12727773
0002b0 56 59 61 3d c8 07 10 3e aa 60 90 bd 2c 41 7f 3d
       0.055016838 0.14065468 -0.07049687 0.062318012
0002c0 38 a0 85 3e b9 fe 5b be e0 2c 4e 3e 44 0c 7a 3e
       0.260988 -0.21483888 0.20134306 0.24418741
0002d0 9f 76 18 3e 09 a5 e7 bd 72 a0 0b 3e 59 e2 b0 be
       0.14889 -0.11310775 0.13635424 -0.3454769
0002e0 be af 12 3e ec 71 98 3d 78 a9 f0 3d ff e2 27 be
       0.14324853 0.07443604 0.117510736 -0.16395186
0002f0 cd 66 a6 bd 19 e6 86 3e d1 c5 10 bd c1 eb 22 3e
       -0.081250764 0.26347426 -0.035344902 0.15910245
000300 2f ef 58 bd 56 46 b7 be 04 ed ae bd 28 ef 0d 3e
       -0.05296248 -0.3579585 -0.08541301 0.13860762
000310 83 8c 5d be 95 e9 da 3d 14 f4 4e 3e 26 68 cb bd
       -0.21635632 0.106890835 0.20210296 -0.09931974
000320 f0 9e 57 be cf d3 5d 3e 89 07 25 be 02 dd 29 3e
       -0.21056724 0.2166283 -0.16116156 0.16588214
000330 d0 f9 c5 3e ad af e2 3c ad a0 9b bc 1e 9e 6d 3d
       0.38667154 0.02767166 -0.018997515 0.05801212
000340 13 52 e0 3d 3a 30 cb 3e f0 f8 95 3d cb 40 00 3f
       0.109531544 0.3968523 0.07322872 0.50098866
000350 dd d6 a8 3e 4b b0 34 3d 36 c1 a8 be 18 da d3 3d
       0.32976428 0.04411344 -0.32959908 0.103443325
000360 5d 9d d4 3d 74 a5 b4 be 2f 3b 93 3c 0c 38 15 bf
       0.10381577 -0.3528248 0.017972557 -0.58288646
000370 e9 5c 41 3e 12 10 33 bd 9e 1e d4 bd 8c 42 be 3d
       0.18883099 -0.043716498 -0.10357402 0.092900366
000380 4c d9 07 3e f6 5d 47 bd 9b 34 20 bd 8c 74 33 3e
       0.13266486 -0.048673593 -0.03911267 0.17524928
000390 45 25 ff bd 3f 09 dc bd f5 49 2e 3e 56 2d 48 3e
       -0.124582805 -0.10743951 0.170204 0.19548544
0003a0 b2 9a a1 be c5 08 70 3e 8b 1f 33 3e a4 4d 2e be
       -0.31563336 0.23440845 0.17492501 -0.17021805
0003b0 51 e4 82 bd ce 22 c6 bc f0 3d 4d be 6e 4f 56 3e
       -0.06391204 -0.024186518 -0.20043159 0.20928738
0003c0 6c 53 05 3e 97 01 82 be 23 82 34 3e 1c c8 76 3d
       0.13020104 -0.25391838 0.17627768 0.060249433
0003d0 74 36 f2 bd 62 b9 91 be 0a 83 91 3e f1 b4 9f bd
       -0.11826792 -0.28461748 0.28420287 -0.07798184
0003e0 d6 8c d6 3d f2 7a 1e 3d a1 bc 37 3e c4 9d 24 3d
       0.10476081 0.03869147 0.1794305 0.04018952
0003f0 d4 ae 20 be 81 86 25 be cc c1 b8 be 6c 81 64 3e
       -0.15691692 -0.1616459 -0.36085355 0.22314996

memory_rnn.bias_ih f4 [256]
000000 01 1f db 3c 2b 20 de 3d 14 d9 38 bc 28 f4 af 3c
       0.026748182 0.10845979 -0.011282224 0.021478727
000010 af 6c ca bd f9 fb c2 3b d2 7e e5 bd ec e9 5f 3e
       -0.09884011 0.0059504476 -0.1120583 0.21866578
000020 58 5e 40 3d 50 b7 96 3b 71 8b f0 3d 34 b4 81 be
       0.046964973 0.0045994893 0.11745346 -0.25332797
000030 06 ab a4 bd db 22 ba bc 0e 99 b8 bd d9 6c 29 bc
       -0.08040433 -0.022721699 -0.09013568 -0.010340893
000040 3b 92 05 3d 96 c8 c5 bd f5 45 85 bc ce 06 37 bd
       0.03261016 -0.09657399 -0.01626871 -0.044684224
000050 82 0c 5b 3e 94 8c 11 3d bf 59 60 bd ba ee 0b be
       0.2139149 0.035534456 -0.05477309 -0.13665286
000060 3f b5 89 be 30 b7 fc ba 11 37 a7 3d 8b a4 dc 3c
       -0.26896092 -0.0019280668 0.081648 0.026933929
000070 da 4a bb 3d 9e 98 8c bc 8f 55 ca bd 6c 75 a0 bd
       0.09145136 -0.017162617 -0.098796 -0.078348964
000080 14 41 99 3d 4b b8 0f 3e c5 c1 a6 3d 48 3d 5d 3d
       0.07483116 0.14035146 0.08142427 0.05401352
000090 e0 5b e4 3c e9 56 20 be 5e a5 8b 3d b3 a2 2c 3e
       0.02787584 -0.15658154 0.06818651 0.1685894
0000a0 b5 1c 83 3e 51 be 96 3e 69 53 89 3d 86 41 7e be
       0.2560784 0.29442075 0.06705362 -0.24829683
0000b0 00 4e 56 ba 85 6c 11 be a8 a4 ab bd df 76 be bd
       -0.0008175075 -0.14201553 -0.08381015 -0.093000166
0000c0 05 2f 76 3d bd 6a 65 3d 52 93 52 3e ae 46 6b 3e
       0.060103435 0.056009997 0.2056401 0.22976181
0000d0 85 53 9a 3d e4 86 58 be ac 51 74 3d 24 17 e8 3d
       0.07535461 -0.21145207 0.0596482 0.11332539
0000e0 b7 4e 59 3d 50 6d 1e 3e 48 2d 98 3d 28 2e 69 bd
       0.053053584 0.15471387 0.07430512 -0.056928784
0000f0 93 15 e5 3c 7d ac 63 3e 0e c6 3c 3e e9 3b c2 bb
       0.027964389 0.22233768 0.18434927 -0.005927552
000100 0d 14 12 3d b7 d8 97 3c e9 32 0b 3e 42 f3 7a 3d
       0.035663653 0.018535955 0.1359364 0.061267145
000110 d0 6c 66 3e bb f0 a2 bd ca 7f 23 3e f5 bd 9c 3c
       0.22502446 -0.07956072 0.15966716 0.019133547
000120 96 72 c4 bd c3 8b 9e bd 15 94 46 3e 52 d6 31 3e
       -0.09592168 -0.07741501 0.19392426 0.17366913
000130 e8 32 90 3b 1e a1 d1 bd c2 60 bf bd 03 f9 03 3e
       0.0044005997 -0.10235809 -0.09344627 0.12887959
000140 38 1d 8e 3d 64 14 9d 3d 8e 5e 21 3e f9 89 6d 3e
       0.06939167 0.07669905 0.15758726 0.23197164
000150 e1 dc 87 bd d9 b2 ad bc b5 ce 19 be 9e d7 00 3e
       -0.06633926 -0.021203445 -0.15020259 0.12582251
000160 04 7b 8f 3e 54 30 75 3b 01 f0 bd bb 06 fa eb 3c
       0.2802354 0.003741284 -0.005796433 0.028805744
000170 f5 c6 68 bd 18 73 28 be 79 2c b2 bd 14 6e 8a 3e
       -0.056830365 -0.16450155 -0.08699889 0.27037108
000180 83 dd 35 be 57 85 c4 3d b7 1c b0 3d 29 a9 8c bd
       -0.17760281 0.09595745 0.08599227 -0.06868202
000190 c5 9b 5f bd 05 54 8a 3d 12 53 fc 3b be ae a6 be
       -0.054591913 0.06754307 0.0077003324 -0.32555193
0001a0 13 fe 3a 3e 0e 46 82 3e 78 37 90 3e 22 28 8b 3e
       0.18260984 0.25444072 0.2816732 0.27179056
0001b0 55 ae c2 bd 5a 9f d6 3d a8 bb 91 3d 5d 54 a5 3e
       -0.095059074 0.10479613 0.07115871 0.32290927
0001c0 9c e9 1c be e2 c5 a5 bd ae 2f 04 be d5 98 8d bd
       -0.1532349 -0.08094384 -0.12908813 -0.06913916
0001d0 86 dd 79 be 30 ac 72 3e 79 89 cb bd f1 6f 0c 3e
       -0.2440091 0.23698497 -0.0993833 0.13714577
0001e0 29 29 d2 3c 19 7f 19 3e 42 a9 9d 3e 76 0e 54 3e
       0.025654392 0.1498989 0.30793196 0.20708641
0001f0 65 36 07 3d 00 18 2e 3c 07 3d 9e bc 28 ba 71 3e
       0.03301086 0.010625839 -0.01931621 0.23606169
000200 65 d0 0a 3e e6 b5 50 be 90 d0 62 bd c8 b8 cc 3d
       0.13556059 -0.20381889 -0.055374682 0.09996182
000210 f6 76 df bb 16 ca a4 bd b8 d3 fc 3d 24 38 04 be
       -0.006819601 -0.08046357 0.1234507 -0.12912041
000220 84 94 15 bd 3d 8f 44 3c 1d a4 51 3d 24 1a a8 bc
       -0.03651859 0.011997041 0.0511819 -0.020520277
000230 70 7b b1 3c 69 c9 37 3b 79 ad 65 bd 8b c6 14 be
       0.021665305 0.0028043634 -0.05607364 -0.14528863
000240 03 96 c5 3c 8c 49 7a 3d 84 7d b0 bd 32 94 bb 3d
       0.024119383 0.061105296 -0.0861769 0.091591254
000250 8c b7 ff bb e4 b5 f4 3d 36 77 94 3b 3f 06 ac 3c
       -0.007803863 0.119487554 0.0045308126 0.020999072
000260 e7 f5 80 3d 66 39 d8 bd a1 50 43 3e c4 85 dc 3c
       0.06296902 -0.10557823 0.19073726 0.026919253
000270 97 b5 c4 bb 78 13 fb bd 8a 54 e3 3b 39 b3 d7 3c
       -0.0060030925 -0.12259573 0.006937568 0.026330577
000280 58 ac 52 be d3 d4 d3 3c 20 0e 8f bd eb 6a 17 3d
       -0.20573556 0.025858318 -0.06985116 0.0369672
000290 82 a6 58 bd 1e 4a b4 3d d9 10 32 3d 99 91 0e 3d
       -0.05289317 0.08803199 0.0434731 0.03480682
0002a0 82 98 cc 3d 9e f9 c6 bd 77 17 b1 bd 2c a2 fb bc
       0.09990026 -0.097155795 -0.08647054 -0.030716978
0002b0 0b 79 14 bd 09 b3 47 bd f7 dd a5 3d e7 0e 48 bd
       -0.036248248 -0.048754726 0.08098977 -0.048842337
0002c0 72 48 be bd 07 97 c6 3c 9b c6 8d bd 9c 34 97 3d
       -0.092911616 0.024241937 -0.069226466 0.07383081
0002d0 4c 18 1f be ed a9 2f 3d af 25 36 3e 59 45 b2 bd
       -0.15536612 0.042886663 0.17787813 -0.08704633
0002e0 a6 8b ca 3d 51 b6 82 bd 4b 48 40 3e f2 26 04 3d
       0.09889917 -0.0638243 0.18777578 0.032263704
0002f0 b4 db 84 3d b1 3e c7 bd f9 c5 ec 3d 11 39 87 39
       0.064872175 -0.09728754 0.11561198 0.00025791724
000300 5e cb c4 bb 37 c5 df 3d f2 99 ed 3c ad be e4 3c
       -0.0060056886 0.109262876 0.02900407 0.027922953
000310 66 c1 3f 3e 12 ea 0a 3e 62 24 68 bd f2 59 6f 3e
       0.1872612 0.13565853 -0.056675322 0.23374155
000320 b5 50 13 3e fc ce a3 3d 99 4d 80 bd 1d 4f 92 3d
       0.14386256 0.079984635 -0.062648006 0.07143996
000330 e3 e5 7f 3d bf db 0b bd 0a e0 08 be a8 31 77 3e
       0.062475096 -0.034145113 -0.13366714 0.24140036
000340 ca f5 4a 3e 34 0b cc bd b6 06 61 3e cb 2f 04 3e
       0.19820324 -0.09963074 0.21975216 0.12908857
000350 ce 0c bc 3d 5e 6f b1 3d e6 8f 7a bd 3b 22 a4 bb
       0.0918213 0.0866382 -0.06117239 -0.0050089634
000360 4d 0c f6 3d 19 8b a2 bd e3 21 29 3e 91 ed ea bb
       0.12014065 -0.07936687 0.16516833 -0.0071694334
000370 9f 42 32 bd 49 a9 99 bd 29 c7 0e 3e 98 d8 f0 bd
       -0.043520566 -0.07502992 0.13943161 -0.11760062
000380 91 8b ea bd 73 85 91 3d b1 46 65 3d 29 aa 81 bd
       -0.114524014 0.071055315 0.05597562 -0.063312836
000390 76 e6 ca 3d 48 c7 fc bd 67 7d 3c 3e 71 5d 99 3e
       0.09907238 -0.123426974 0.18407212 0.29954103
0003a0 cf 71 e3 bd 31 c6 1c bd 36 5c 8a bb 83 75 15 3e
       -0.11105692 -0.038274948 -0.004222418 0.14595608
0003b0 6c e8 0e 3d aa cb 92 3d 89 e7 89 bb b4 96 f2 3d
       0.034889624 0.07167752 -0.0042085093 0.118451506
0003c0 7d 19 6d 3d 8d b3 d8 3d a3 66 0d 3e e3 36 8f 3e
       0.057885636 0.105811216 0.13808684 0.27971563
0003d0 0c 7d c0 3c 78 c6 a6 3d 93 6b 36 be e4 39 6e bc
       0.023497127 0.08143324 -0.17814474 -0.014540169
0003e0 73 f1 19 3e a3 e1 ed bd 58 fa 00 3e 8e 52 98 bd
       0.15033512 -0.116153024 0.12595499 -0.07437621
0003f0 c7 e8 7f bd b7 b6 90 3e 2d 81 57 3d 85 f3 f9 3c
       -0.062477853 0.282644 0.052613426 0.030511627
