policy-consolidation/_oldmodels/test_cascade_4_frames_512_clip_impsampling_2M/status.pt (torch, 595539 bytes, 95 tensors)

image_conv.0.weight f4 [16, 3, 2, 2]
000000 1c 9b c3 3e 40 59 5b be 14 de 22 bc 9d 01 74 3d
       0.38204277 -0.21420765 -0.009940643 0.05957185
000010 a0 07 8c be 8c 04 15 3e 74 1c dd be 39 10 ae 3d
       -0.27349567 0.14552516 -0.4318577 0.08499188
000020 20 60 24 3d 90 c7 10 bd 44 fa a3 3d 80 52 69 3c
       0.040130734 -0.035346568 0.08006719 0.014240861
000030 4a f7 80 bd fe 7e 0d be 0c c4 d2 bd b2 dd 5f be
       -0.06297167 -0.13817975 -0.10291299 -0.21861914
000040 b9 d4 6f 3d 24 bb 90 3d 57 7e 54 3e b0 db 0f be
       0.058552478 0.07066944 0.2075132 -0.14048648
000050 48 2b dc bd 72 88 32 be e4 30 46 bd f2 02 ff bd
       -0.10750443 -0.17434862 -0.04838647 -0.12451734
000060 fb e8 d4 bd 4e 14 01 be cb bd 25 3e ef 0f ee 3c
       -0.10396 -0.12605402 0.16185682 0.029060332
000070 18 f3 87 be 0e 74 bf 3d 5f f9 4b be f8 fe 50 3e
       -0.26552653 0.093483075 -0.19919346 0.20409763
000080 aa 1d 43 3e ec aa 86 be f4 87 8c be 38 94 0e be
       0.19054285 -0.26302278 -0.27447474 -0.13923728
000090 cd 23 57 3d 66 58 67 be 18 72 e2 3c 53 e9 c2 be
       0.052524377 -0.22592315 0.027642295 -0.38068637
0000a0 df 4c 39 3e 6b b5 c2 3d 08 d2 34 3e e0 5a 15 be
       0.1809573 0.09507259 0.17658246 -0.14585447
0000b0 9f ba 1b be ca f1 17 3e 86 e9 1c be 6c e0 ad 3d
       -0.15207909 0.14838329 -0.15323457 0.08490071
0000c0 5b 30 33 be 3c 81 68 3d 18 d9 d3 be 30 5a 74 be
       -0.17498915 0.056763873 -0.41376567 -0.23862529
0000d0 ad 1b 05 3e b3 02 84 be 37 89 29 3e 1d e5 ba 3e
       0.12998839 -0.2578331 0.1655625 0.36502925
0000e0 a0 75 5d bc 6b 4f 45 be e2 02 34 3e 34 7c b7 3d
       -0.0135168135 -0.19268577 0.17579225 0.08959237
0000f0 d2 b7 f8 bd a0 91 4e 3e 6b 64 1b 3e 56 6d d0 3e
       -0.12144436 0.20172739 0.15175025 0.40708417
000100 0c 6d b3 bd aa 4c 95 be 3d e3 21 be 20 60 dc 3b
       -0.087610334 -0.29160053 -0.15809341 0.006725326
000110 ba 56 60 be 49 c4 51 be 40 cf 20 3e 1a a2 8a bd
       -0.21908084 -0.20485033 0.1570406 -0.067692
000120 3e 3a be 3e 4c 34 08 be 4a c7 21 be 84 0c de bd
       0.3715381 -0.133012 -0.15798679 -0.10842231
000130 d5 da 86 3e 03 9c 12 3c 29 62 92 be be e6 49 3d
       0.2633883 0.008948329 -0.28590515 0.04929232
000140 77 d8 4f be 0e 09 5f be c0 d0 8f 3c e0 7d 49 bd
       -0.20297419 -0.21780798 0.017555594 -0.04919231
000150 72 58 7c 3e 4c 69 7c be 49 e1 96 be cc 3e 10 3f
       0.24643114 -0.24649543 -0.29468754 0.5634582
000160 55 89 17 be 5e 9e 0a 3e 12 19 54 3d d1 5b ad be
       -0.14798482 0.13536975 0.05178172 -0.33859113
000170 78 8b 6d 3d 7c 01 8e 3d 7c ec 45 be 6e 41 0c be
       0.057994336 0.06933877 -0.19328493 -0.13696834
000180 35 f9 8d bb 11 f2 61 be 38 79 5b be ec 8a 33 be
       -0.0043326863 -0.22064997 -0.2143296 -0.17533463
000190 f4 dd 95 3e e2 1d db be 81 f9 4f 3d 51 ad 2f 3e
       0.292709 -0.42796236 0.050775055 0.17155959
0001a0 82 14 3f be ca 63 7b be 86 df 8d 3e a0 f7 76 3c
       -0.18660167 -0.24549785 0.27709597 0.015073687
0001b0 53 d9 22 bc 49 82 5e 3e 7a 45 76 bd bf f0 1a 3e
       -0.009939509 0.21729387 -0.06012485 0.151309
0001c0 0c c7 2f 3e 9e e8 25 be 01 bb e1 bd 9c 0c ec 3d
       0.17165774 -0.16202018 -0.11021996 0.115258425
0001d0 3a 25 56 3e e2 a3 37 3e 08 ef 55 be 7e dd 54 be
       0.20912638 0.1793361 -0.20891964 -0.20787618
0001e0 4a 6a 63 be 21 9f 57 3e 78 a0 dd 3e 4f 2c b2 be
       -0.22208515 0.21056797 0.4328649 -0.3479943
0001f0 3b 58 11 3e 4a 79 0d bd 9a 38 81 be 9f 02 f8 be
       0.14193814 -0.0345395 -0.25238496 -0.484395
000200 6c 51 2a 3e 22 37 89 3e c6 94 37 be 68 4c 80 3d
       0.16632622 0.26799875 -0.17927846 0.06264573
000210 4c d2 a8 3d b6 1f da 3e 6d 9f 8a 3e b2 99 89 3e
       0.08243236 0.4260232 0.27074757 0.26875073
000220 fd 0b 01 3e 3e 29 86 3e eb d1 b9 be a1 3a fc be
       0.1260223 0.2620334 -0.36292967 -0.4926348
000230 98 73 07 be e8 af 09 bd d3 30 35 be 8c 4b d8 3d
       -0.1322769 -0.033615023 -0.17694406 0.105612844
000240 87 86 99 3d ac 28 90 be e4 50 bc 3c 4c 33 00 be
       0.07496362 -0.2815603 0.02298779 -0.12519568
000250 7a 9d d7 3d a2 6f 9e 3d 25 98 fe bc d3 fe 15 3e
       0.10528083 0.07736136 -0.031078408 0.14647989
000260 38 b2 08 bd 00 7e 22 bc ce 81 8b be 4e 41 3e be
       -0.033373088 -0.009917736 -0.2724747 -0.185796
000270 1b 6d 0e be 29 37 08 be b4 e9 2c 3e 65 13 e2 bc
       -0.13908808 -0.13302292 0.16886026 -0.027597139
000280 ab f8 f4 be a3 7e cd be ff 19 5d 3d d6 ba 9e 3e
       -0.4784597 -0.4013568 0.05397987 0.3100192
000290 6c f7 18 be b8 2e 80 3d aa 3a d7 bd 46 d4 84 bd
       -0.14938134 0.06258911 -0.10509236 -0.064858004
0002a0 65 61 b4 be 8b 44 7f be fe 25 09 be 32 fd 02 be
       -0.35230556 -0.24928491 -0.13393399 -0.12791899
0002b0 f6 91 1a 3c 34 07 05 3c be 9f 99 3e 82 e6 63 3e
       0.009434214 0.008119393 0.30004686 0.222559
0002c0 8c 9d 49 3e e0 9b 16 3c f0 7e 4c be 50 04 67 3e
       0.19689006 0.009192437 -0.19970298 0.22560239
0002d0 b6 80 be 3d f6 db e5 3d 72 28 01 bc 57 99 cd bd
       0.093018934 0.11223595 -0.007883178 -0.10039013
0002e0 a1 da 05 bf f6 d5 de 3e 33 0f 45 bf 9e 10 ee be
       -0.52286726 0.43522614 -0.7697632 -0.46497053
0002f0 00 9a 20 bc 59 d6 1f be 68 8a d3 3d 12 92 e3 bd
       -0.009802341 -0.15609111 0.10329133 -0.11111845

image_conv.0.bias f4 [16]
000000 40 5c 85 be 0f 66 d1 bd c3 c1 46 bc 11 6f f3 be
       -0.26046944 -0.10224544 -0.012131157 -0.47545674
000010 ac e7 42 be 11 29 96 bd f7 24 68 3d 7b c6 8a be
       -0.19033688 -0.073320515 0.056675877 -0.27104554
000020 c5 5b 5f bd 89 4a 15 bf f0 9e 5c 3d 87 9e aa be
       -0.054530878 -0.58316857 0.053862512 -0.33324072
000030 21 00 e8 bd bd c7 f0 ba ae 92 66 be 38 ca 82 bc
       -0.113281496 -0.0018370074 -0.22516891 -0.015965566

image_conv.3.weight f4 [32, 16, 2, 2]
000000 8e 42 ba 3c 13 5c f4 3d 70 5b 30 3d 6b 0d e7 3d
       0.022736814 0.11931624 0.04305595 0.11281856
000010 22 1b 5c be 55 9c 9c 3d 03 57 1d 3d 21 6e c1 3d
       -0.21494725 0.076470055 0.03841306 0.094448335
000020 38 d7 da 3d 6a 0b f0 bd 3a 8c f7 bc 6d 51 a2 3d
       0.10685581 -0.11720927 -0.030218232 0.07925687
000030 1a 7a 45 be 2e 93 1f 3e 12 9b f5 bd 2f 92 6a 3c
       -0.1928486 0.15583488 -0.11992468 0.014317079
000040 e2 26 b2 3d 93 46 63 be 54 7f 91 be a4 b3 5f bc
       0.086988226 -0.2219489 -0.28417456 -0.0136536695
000050 f1 2f 60 3e f4 59 ec 3d d7 9b bf bd c0 9e fb bd
       0.21893288 0.11540595 -0.09355896 -0.122861385
000060 20 bd 7d 3e 9c 8b dc 3b 16 16 03 bd ee 68 82 3c
       0.24779177 0.00673051 -0.032003485 0.015919175
000070 ce ee a7 3c 1c fb 2f 3e 18 fc 37 3d a5 10 d8 bd
       0.020499613 0.17185634 0.04491815 -0.1055005
000080 58 15 0b be 0e 67 4b bc 3a e5 35 3d 99 64 36 bd
       -0.1358236 -0.012414707 0.04440806 -0.04452953
000090 70 31 54 bd 42 08 ce bd 09 73 99 be cb f7 46 bd
       -0.05180496 -0.10060169 -0.29970577 -0.048576158
0000a0 37 0a 80 bc 2c 20 98 3e 8c 0c 6f 3e 88 c0 17 be
       -0.01562987 0.29712045 0.2334463 -0.14819539
0000b0 e0 ba 6a 3d 95 4f 38 3e 5a 47 ea 3d 06 7f 4d be
       0.057307124 0.17999108 0.114393905 -0.20067987
0000c0 7d da e8 3d 5a 85 c5 3a c6 82 0b 3d 9d b5 8d 3b
       0.11369798 0.0015069649 0.034060262 0.0043246285
0000d0 49 bb 5f 3e 36 32 5b 3d 9f 1b ce 3d 67 40 13 3e
       0.21848787 0.05351468 0.10063862 0.14380036
0000e0 a9 1e f6 3d 26 f3 04 be 97 35 6d 3d 9d f0 59 be
       0.12017567 -0.12983379 0.057912435 -0.21283193
0000f0 4d dd 53 bb cc db cb 3e 0f 18 c6 3d 13 11 e6 3d
       -0.003232795 0.3981613 0.096725576 0.112337254
000100 d4 79 ac be c7 4c 2e 3d ad ae f7 be 00 5e 8b bd
       -0.33686697 0.04255369 -0.48375455 -0.068050385
000110 08 24 0f be ad c9 d4 bd 72 be 3f be 70 e4 9f bc
       -0.13978589 -0.10390029 -0.18724993 -0.019518107
000120 c0 e2 ad be 51 b5 f1 3c 71 9f 60 be b8 1b 91 3c
       -0.3396206 0.029505404 -0.21935822 0.017713413
000130 ca 71 76 bd 2e 74 17 be 88 94 04 be a7 21 57 3d
       -0.06016711 -0.14790413 -0.12947285 0.052522328
000140 0a be f1 bd 96 51 9f 3b 1d 20 94 bd 59 86 f9 bc
       -0.11803825 0.0048620207 -0.072326876 -0.03045957
000150 89 af 87 bd aa 10 14 3e 33 34 e3 bd 15 c7 54 3e
       -0.066252775 0.14459482 -0.110939406 0.20779069
000160 b1 b6 0c be fe a9 97 be cb e8 28 be 79 a6 a2 be
       -0.13741566 -0.2962188 -0.16495053 -0.31767634
000170 08 ca 0a bd e9 79 b2 3d aa bf f5 3c c1 5c 9b 3e
       -0.03388408 0.08714659 0.02999862 0.30344203
000180 f7 df a2 bd 91 24 73 bd c2 74 2f be 56 a8 c0 3d
       -0.07952874 -0.059361044 -0.17134383 0.094071075
000190 f9 e1 1c bd 2c 44 68 3e 54 e7 bd bd f9 cb 99 3d
       -0.03830144 0.22682256 -0.09272638 0.07509608
0001a0 2d 18 3a be 32 2e 29 3e f6 4b 87 3c 9e b8 f0 be
       -0.18173285 0.16521528 0.016515713 -0.47015852
0001b0 dd c6 02 be 61 af 68 3e a3 3e ca 3d b3 3e 31 3e
       -0.12771173 0.22723152 0.09875228 0.17309074
0001c0 ab 41 b6 be 06 8a 3c bd 46 9e d5 be 23 9f 93 bd
       -0.35596976 -0.046030067 -0.41722316 -0.07208087
0001d0 da 8a e5 bd 63 bb 91 be 06 fc 7d be 92 20 72 3d
       -0.112081245 -0.28463277 -0.2480317 0.059113093
0001e0 b0 92 eb be 73 0f 8d bd 5d 8a c1 be e4 c6 80 3d
       -0.4601035 -0.06887712 -0.37800875 0.062879354
0001f0 09 ae 86 bd 98 6c 49 3b 24 44 44 3c 63 7f 6b be
       -0.06576163 0.0030734893 0.011979137 -0.22997813
000200 7c ea 72 3d 54 2c d1 be 02 46 81 3e b1 7a 3a be
       0.059305653 -0.40854132 0.25248724 -0.18210866
000210 95 65 2e be f6 d3 7e bd 9d 64 ff bc 46 40 ea 3d
       -0.17030938 -0.06221386 -0.031175906 0.114380404
000220 e8 11 00 3e 8d 92 42 be b1 50 d9 3d cc ad 10 be
       0.1250683 -0.19001217 0.10611094 -0.14128798
000230 45 45 63 be 85 17 fd bd 6c 53 95 3c e4 f3 22 bd
       -0.22194393 -0.123580016 0.018228255 -0.039783373
000240 ef 91 99 bd a9 65 52 3c 82 5b 80 3e b2 9c 94 3e
       -0.07498538 0.0128416205 0.25069815 0.290258
000250 04 03 49 3e 91 1a 20 3e 38 44 b3 3d 73 cd 2b 3c
       0.19630057 0.15635134 0.08753246 0.010485995
000260 c2 f7 e0 bd 8e 2e 97 be 68 a1 f7 bb b4 d5 d2 3d
       -0.10984756 -0.29527706 -0.007557083 0.10294667
000270 7c a8 45 3e 2e 02 f5 bd 5c c6 03 bd 72 46 d0 3c
       0.19302553 -0.11963306 -0.032171592 0.025424216
000280 50 bd 9c 3d f7 d1 83 bd 54 30 03 be eb 3a 03 3e
       0.07653296 -0.06436532 -0.12811404 0.12815444
000290 45 47 a1 3d 5e 6b 98 3c 66 d4 33 3e 30 e8 20 3e
       0.07874922 0.018605884 0.17561492 0.15713573
0002a0 9a 91 5b bd 9a 21 22 3e a0 e7 d4 bd 1a 93 76 bc
       -0.053605653 0.1583313 -0.103957415 -0.01504972
0002b0 7c 98 3b be 93 8c 7e be ee 43 14 3e bb 19 57 3d
       -0.18319887 -0.24858312 0.14479038 0.052514773
0002c0 09 dd cc 3b 58 01 37 bd dc 8d 0e 3e d6 b6 a5 3d
       0.0062519354 -0.044679016 0.13921303 0.08091514
0002d0 75 8d 34 3d 73 f3 89 3c ef 6f 63 3e e0 08 15 3e
       0.044080216 0.016839718 0.22210668 0.14554167
0002e0 01 c2 bc 3b a4 12 13 bd 00 a0 87 3e 64 9d 2e 3e
       0.0057604318 -0.03590645 0.26489258 0.17052227
0002f0 55 d8 38 3e bd d2 9c be 88 db 77 3e 41 09 bc 3c
       0.18051274 -0.3062953 0.24204838 0.022953631
000300 fb 85 d7 bd dc fb a4 3e 29 45 d5 bc d1 28 58 bc
       -0.105236016 0.32223403 -0.026033955 -0.013193325
000310 e0 f2 a0 bd 5d a2 91 be aa 84 31 be 09 fa 3d bd
       -0.07858825 -0.28444186 -0.17335764 -0.04638103
000320 ac 98 5a 3d d3 f0 97 bd c8 d8 83 bd 8a 86 92 bd
       0.053368255 -0.074189804 -0.06437832 -0.071545675
000330 c4 45 19 bd a7 c4 5f be 76 0c 73 bd fc d4 c1 3d
       -0.03742005 -0.2185236 -0.059338056 0.09464452
000340 dd f5 2b be 1d 5a cb 3d 64 b6 80 be 4d 1b 3a 3d
       -0.16793008 0.09929297 -0.25139153 0.045436192
000350 01 5b c5 bd 2a 4f 9f 3e 89 94 62 3d 57 45 5f 3e
       -0.09636498 0.31115085 0.055317435 0.21803795
000360 b3 4b 06 be 11 d6 a2 3d 12 2f 81 bd 22 6b 6e be
       -0.13114814 0.07950986 -0.06307806 -0.23283055
000370 cb 09 21 3e 96 31 ca 3e ed d6 60 3d c9 4d c8 3e
       0.15726392 0.39490956 0.05489247 0.39121845
000380 7c 7f c0 bd c6 66 69 bc ee e3 a6 bd ec 21 d7 bd
       -0.09399316 -0.0142456945 -0.08148943 -0.10504517
000390 e8 28 c3 3d a2 56 b2 3d 97 5e af bd b7 b3 87 3e
       0.095292866 0.0870793 -0.085629635 0.265043
0003a0 e2 3b 27 be 07 d3 6a 3e 4f 7d 89 be e5 c4 d9 3d
       -0.16331437 0.22932063 -0.26853415 0.10633258
0003b0 b9 ba 7e bc 95 da ab 3d b4 dd 4d be 63 b9 c7 3d
       -0.015547448 0.083913006 -0.20104104 0.097521566
0003c0 da 9a 75 bd 7a 90 7c be 42 89 29 3d a9 1e 2b bd
       -0.05996213 -0.24664488 0.041390665 -0.041777287
0003d0 40 47 c5 3d 4c ed 1f 3e 12 28 9d 3e 8e 6f ba 3d
       0.096327305 0.15617865 0.30694634 0.091033086
0003e0 5b 1b 82 bd 2a a6 82 be 47 2c b1 3c ad ad 76 bd
       -0.06352874 -0.25517398 0.021627558 -0.060224224
0003f0 26 96 c7 3d 11 5e 84 3c 5c 52 1f be a0 62 96 3e
       0.097454354 0.016158136 -0.15558761 0.2937212

image_conv.3.bias f4 [32]
000000 c7 0c 9c bd 45 ca e0 bd 86 f2 18 3c 4e ef a3 be
       -0.076196246 -0.1097608 0.009335166 -0.32018512
000010 a8 98 fc bd bc 5f e9 bd 70 1b 92 bd e3 3f e0 3a
       -0.12333804 -0.11395213 -0.071341395 0.0017108883
000020 7b 69 0d 3d 65 53 39 3d e8 c2 0b bd dc 30 b3 bd
       0.034524422 0.045245547 -0.034121424 -0.087495536
000030 4e 58 09 be a4 16 9f bd 67 ea b7 bd be 61 d8 bd
       -0.13412592 -0.0776799 -0.089802556 -0.10565518
000040 50 c8 9a 3d fd c0 b0 bd ca e9 fc 3c a1 3b 10 be
       0.07557738 -0.086305596 0.030873198 -0.14085247
000050 ac f0 71 bd fa 25 8f 3d 8e 23 2d bd 6c 38 08 be
       -0.059067413 0.06989665 -0.042270236 -0.13302773
000060 0d 76 83 bd 30 c2 07 be dc e9 bb bd f2 bb 14 bd
       -0.06419001 -0.1325767 -0.091754645 -0.03631205
000070 71 eb ea bd 96 87 0a 3d 69 43 f1 bd 93 45 4d bc
       -0.11470688 0.03382071 -0.117804356 -0.012528795

image_conv.5.weight f4 [64, 32, 2, 2]
000000 d3 7e 35 bd f4 ce 4f 3d ab a1 e3 3c c9 0b 88 3d
       -0.044310402 0.050734475 0.02778705 0.06642873
000010 30 96 57 3e 78 3b 43 3e c0 44 a2 3e cf f6 a8 bd
       0.21053386 0.19065654 0.31693077 -0.082502
000020 b2 b3 d6 3d 6c 6c d8 3d e2 08 ee bd c0 d9 90 be
       0.10483493 0.10567555 -0.11622788 -0.2829113
000030 db 48 0f 3e f1 5b 36 3e 54 c6 24 3d 16 b0 19 bd
       0.13992636 0.1780851 0.040228203 -0.037521444
000040 55 d6 37 be 4d 23 3e 3e 1c 52 33 bc 69 d5 01 be
       -0.17952855 0.18568154 -0.010944869 -0.12679066
000050 81 a0 c0 bb c6 06 66 be 7b 5f 3b be 1d 09 66 3e
       -0.0058785086 -0.22463521 -0.18298142 0.22464414
000060 f9 b3 b8 bd 40 b5 1c be a5 b9 30 be 4a 33 28 3e
       -0.09018702 -0.15303516 -0.17258318 0.16425815
000070 89 c5 bf b9 7d 9e d6 3d a3 95 12 be f8 bb 4b 3e
       -0.00036577534 0.10479448 -0.14314894 0.19895923
000080 94 88 9b bc c8 08 16 3e 66 44 ef 3d 30 3f de 3a
       -0.018986024 0.14651787 0.11682968 0.0016956087
000090 c6 d5 16 3c b7 06 2d bd b4 4a 6f 3c e9 1c 54 bd
       0.009206241 -0.042242732 0.014605213 -0.051785383
0000a0 d4 78 ed bd 8a 0d 41 3e 2c 3b d6 3e f0 f8 75 be
       -0.11595312 0.18852821 0.4184202 -0.24020743
0000b0 92 ca 5a 3d 57 11 f0 bc 93 92 0f 3e b2 17 33 bd
       0.053415842 -0.029305143 0.14020757 -0.04372377
0000c0 bf bb 8e 3e c3 66 35 bc 90 83 25 be 3f c2 6a 3d
       0.27877614 -0.011071864 -0.16163468 0.057314154
0000d0 29 12 85 bd c3 a8 ce 3c 0d 63 6d bd 6c f6 0f bb
       -0.064976044 0.025226956 -0.05795579 -0.0021966947
0000e0 78 71 4f 3e 19 5e 09 bd a2 db aa 3d 7c 76 06 3e
       0.20258129 -0.033537004 0.08342673 0.13131136
0000f0 e8 3a ef 3d ad c8 1b be 62 a6 0f 3d 5e 81 83 be
       0.11681157 -0.1521327 0.035070784 -0.25684637
000100 fd 55 c2 bd a9 17 c2 3d 67 c1 97 bd 26 34 a7 bd
       -0.09489057 0.09477169 -0.074099354 -0.081642434
000110 6b 41 a5 3d e2 b1 46 3e f2 b9 e3 3d f0 8d 33 be
       0.08069118 0.19403794 0.11119451 -0.17534614
000120 fb 8b c1 3c da c9 47 bb 8c 48 71 3e 70 70 8e 3d
       0.023626318 -0.0030485303 0.2356283 0.069550395
000130 7b da 8a bd 16 3e 8e be da 48 ef 3d 74 df 3c bd
       -0.06779953 -0.27781743 0.11683817 -0.04611154
000140 6f 5c 4d bd c0 13 aa bc 2f a2 7a be a9 e7 14 be
       -0.05013698 -0.02076137 -0.2447593 -0.14541496
000150 6e 2f 10 3c 97 73 6e 3e b8 dc 5d 3e 64 ab c7 3c
       0.008800371 0.23286282 0.21666229 0.024373718
000160 e1 f2 25 be 98 3b 80 bd e8 55 7b be ef a7 90 bc
       -0.16205932 -0.062613666 -0.2454449 -0.017658202
000170 72 8f 25 bd 95 57 9c bd f4 60 6e bc fa ef f1 bb
       -0.040420003 -0.076338924 -0.014549483 -0.0073833438
000180 e4 20 2a bd f6 17 97 3c 83 ee 1a 3d e4 63 24 be
       -0.041535273 0.018444043 0.03782512 -0.1605373
000190 8b ac 37 3e 87 a3 d4 3d cb 29 b0 3d b5 6b 9f be
       0.17936914 0.10382753 0.086017214 -0.3113686
0001a0 f2 da a1 bd 09 b6 62 3c c9 a5 fe bc 6a 04 f8 bc
       -0.07903089 0.013837346 -0.031084912 -0.030275542
0001b0 b1 d3 2e 3c ad e3 ec bc 07 1c 94 bd 25 9d 20 bb
       0.010670588 -0.028917158 -0.07231908 -0.0024507728
0001c0 aa 4c 9c bc 70 74 5b 3d c9 d3 51 3d 3b 4e 74 3d
       -0.019079525 0.05357784 0.051227365 0.05964492
0001d0 66 3a a9 3d 6d fb 9a bd 4b 88 54 3e bb 1a 0a 3e
       0.08263092 -0.07567487 0.20755117 0.1348676
0001e0 a3 b0 2c be f2 5a 55 be 26 82 29 bf da 3f 2d bd
       -0.16864257 -0.20835474 -0.66214216 -0.04229722
0001f0 ca 12 42 be 0f a2 c4 bd f5 2f a1 bd 56 e8 f7 bd
       -0.1895248 -0.09601223 -0.07870475 -0.121048614
000200 60 91 3d 3e b9 7b 25 3d 50 42 af 3e 76 19 34 bc
       0.18512487 0.040401194 0.3423028 -0.0109923985
000210 4c 24 63 3d 6e e3 73 bd bb 82 07 bd ef b0 b2 bd
       0.055454537 -0.059543066 -0.03308366 -0.08725154
000220 e6 93 bc be 3c 39 e5 bd 14 60 4d 3e c1 56 1f 3e
       -0.36831588 -0.11192557 0.20056182 0.15560438
000230 b7 bf 29 3e 2b 96 46 be 3e 0d ff 3d fb fa 37 be
       0.1657704 -0.19393222 0.124536976 -0.17966835
000240 13 7b 5d 3e 69 73 e7 be bd 41 d6 3d f2 cb 84 3c
       0.2162898 -0.45205238 0.10461757 0.01621053
000250 d6 f8 c9 bc 17 e2 c6 bd 73 cc 8b bd 4b b3 1b bd
       -0.024654787 -0.09711092 -0.06826105 -0.038012784
000260 f7 c9 fe bd 97 c8 e8 3d 9e bb b4 be e1 d4 d4 3d
       -0.124408655 0.113663845 -0.3529939 0.10392166
000270 d7 9d 0f 3e cb c2 04 3e ad 81 93 3d 02 22 19 3d
       0.14025055 0.12964933 0.07202468 0.037385948
000280 a0 e0 52 3d 7e 8b 0a be fa 14 00 3c 5b 2c 8d bd
       0.05148375 -0.13529775 0.007817501 -0.06893226
000290 ed 93 f7 bd 9a 7b fa 3c 39 d4 f3 bd 39 20 92 3d
       -0.120887615 0.030576516 -0.11905713 0.07135052
0002a0 17 26 66 3e 51 1f e4 3d b9 13 05 bd 38 0c 4f be
       0.22475468 0.11138786 -0.032489512 -0.20219505
0002b0 cf 3a 20 3d ac 39 c5 bc 5a 10 4a 3e fe a8 1b be
       0.039118584 -0.024075352 0.197328 -0.15201184
0002c0 9b c2 cc 3d f6 a2 30 3e 81 b2 a0 3e 7f 59 13 3c
       0.099980555 0.17249665 0.31386188 0.0089935055
0002d0 5d 5d 13 bd 62 77 d5 3c 00 24 bc bd e1 74 cf bd
       -0.03597771 0.026057903 -0.09186554 -0.10129715
0002e0 b5 44 30 3d 6e f7 61 bd 6f 11 1f 3e d2 20 5a bd
       0.043034274 -0.055167608 0.15533994 -0.053253956
0002f0 d8 c9 f2 bd 0e 90 12 be ae 9a fc 3e a7 b7 14 3d
       -0.11854905 -0.14312765 0.4933676 0.036307957
000300 1e a4 d8 3d b3 cf 8e 3e 10 eb 6e bd d8 c0 31 3e
       0.10578178 0.27892837 -0.05832964 0.1735872
000310 6b 91 4b bd 83 45 75 3d cf f6 14 3e 59 47 f9 bc
       -0.04969923 0.059880745 0.14547275 -0.030429529
000320 60 a0 41 be 61 2c 39 3d 67 79 5b be a7 c9 dc 3e
       -0.18908834 0.04520834 -0.2143303 0.431226
000330 98 29 27 bd 2b d9 15 bd a0 67 88 3e da f0 b3 be
       -0.04081115 -0.03658406 0.2664156 -0.35144693
000340 05 c1 78 3e 9a 8b 39 3e cf cb f1 3c 3f 18 14 3e
       0.24292381 0.1811966 0.029516129 0.14462374
000350 35 e6 4b 3e 38 9d 50 3e a5 be 9e 3c b6 79 03 bd
       0.19912036 0.20372474 0.019378016 -0.032098494
000360 16 7a 43 3f c7 70 b1 3d 73 fa 57 3b 9a dd b5 bd
       0.76358163 0.08664089 0.0032955676 -0.08880158
000370 c6 b9 83 bd 95 d4 ed bc 88 f4 14 3c 96 1c 1c 3d
       -0.06431918 -0.029032031 0.009091504 0.0381132
000380 5c d5 34 3e 82 2f 23 3d 54 05 40 3d 20 db 35 be
       0.17659515 0.03984023 0.04688008 -0.17759371
000390 ab fa 9a 3d 43 a2 b4 bd 80 e4 32 3e 52 f2 39 be
       0.07567342 -0.088200115 0.17469978 -0.18158844
0003a0 e0 97 80 bc 18 48 48 bc 50 52 42 bd 38 5d 65 bc
       -0.01569742 -0.01222422 -0.04744178 -0.013999276
0003b0 29 e6 46 3c 2f 6c a6 bc a4 60 9f bd 0b ad 98 bd
       0.012139835 -0.020315258 -0.077821046 -0.0745488
0003c0 2b 87 67 bd 68 7e 74 3c d8 7d 14 3c 72 78 1a bd
       -0.05652539 0.014922716 0.009063207 -0.03771252
0003d0 67 fb 36 bc 1d 51 98 3e 91 85 8d bd b8 39 79 be
       -0.011168337 0.29749385 -0.069102414 -0.24338424
0003e0 29 14 61 3f 36 4b b5 3e 2b d2 91 3d 34 ac 11 be
       0.87921387 0.35408944 0.071201645 -0.14225847
0003f0 18 36 60 3e 46 25 bf 3e a9 55 19 bd 72 53 d7 be
       0.21895635 0.37333125 -0.037435208 -0.4205585

image_conv.5.bias f4 [64]
000000 10 0e cf 3c 95 e7 e6 3d 7b ce 59 bc 9f 16 33 bd
       0.02527526 0.112746395 -0.013293858 -0.043722745
000010 97 9c cd 3d 1c 01 47 3d eb 85 e1 bb d9 5d 37 bd
       0.10039633 0.048585042 -0.0068824193 -0.044767234
000020 61 7a f8 3b fb 7d bb bd 9c fc 94 3c 0b 71 85 3d
       0.007582948 -0.09154888 0.01818686 0.06515702
000030 e0 a5 b6 bd a9 88 00 be 5b 2d 87 bb 9c 9e 85 bd
       -0.08918357 -0.12552132 -0.00412528 -0.06524393
000040 1b 25 20 be 8d bf a1 bc 6f f9 00 3e 94 19 37 3d
       -0.15639155 -0.019744659 0.12595151 0.044702128
000050 d8 91 71 be 1f b5 c8 3c d2 83 dd bd 0b 75 54 bd
       -0.23590791 0.024500428 -0.10816158 -0.051869433
000060 6f fe 4a 3c fc 66 c9 bd 76 eb 55 3a a8 d4 ff bc
       0.012389763 -0.09834096 0.00081603916 -0.031229332
000070 5f ae 27 bc e1 12 96 be b0 28 38 bd a1 c0 86 3c
       -0.010234444 -0.29311278 -0.044960678 0.016449274
000080 55 d4 9a bd ef 7f e9 bd 01 68 5b 3d e0 cf 8c 3c
       -0.0756003 -0.114013545 0.053565983 0.017188966
000090 2e d6 a7 be d2 b4 49 be 10 1e b1 3b 78 1e 32 3e
       -0.32780594 -0.19697884 0.005405195 0.17394435
0000a0 30 22 2b bc f0 b2 a8 bc c3 5a a7 bd 58 8a 93 bc
       -0.010445163 -0.020593137 -0.08171608 -0.018010303
0000b0 4c 65 fe 3b 20 8f 97 3d fd b4 0f 3e 61 26 e3 bb
       0.0077635404 0.07400346 0.14033885 -0.0069320654
0000c0 eb a0 14 be c8 b0 19 be 85 a3 4b bd e9 59 8e bd
       -0.1451451 -0.15008843 -0.04971649 -0.06950743
0000d0 9b 28 9b 3d 75 a1 56 3d d8 39 6d bd 00 d1 0c 3e
       0.07576104 0.05240007 -0.057916492 0.13751602
0000e0 ed c2 39 3d 75 97 2e 3c f6 98 3f bc d6 82 cf be
       0.04535191 0.010656227 -0.011694184 -0.40529507
0000f0 97 16 0e be 77 a6 7f bd 6c e7 d0 ba 90 5e 40 bd
       -0.13875805 -0.062414613 -0.001593811 -0.04696518

actor.0.weight f4 [64, 64]
000000 1a 4d 17 3e 65 21 45 be d8 b6 9a be 68 f5 d3 bd
       0.14775506 -0.1925102 -0.30217624 -0.10349542
000010 43 40 66 be d4 68 a3 bd ce 88 e7 3e 0a fb 05 3d
       -0.22485451 -0.07978979 0.4522156 0.032710113
000020 d0 e0 a7 bd 6d ff e8 3d 1d f4 f2 3e a3 fb 70 3d
       -0.081971765 0.113768436 0.4745187 0.05883373
000030 e9 61 32 3d b0 f3 fe bd c0 71 60 3e 1a f8 16 3d
       0.043550406 -0.124488235 0.21918392 0.0368577
000040 51 74 ce 3d c4 8d 05 bd f4 b5 d2 be da dc 88 bd
       0.10080779 -0.0326059 -0.41154444 -0.06682749
000050 ab 89 47 bf 95 97 27 3e e8 45 b2 3e 6e fd fe 3e
       -0.7794444 0.16366418 0.3481896 0.49802727
000060 fb 56 8c 3d ff f2 96 3e 06 03 62 3d 14 d8 5c 3e
       0.06852528 0.29482266 0.055178665 0.21566802
000070 b6 72 0c be 9e b8 94 be c0 c8 d1 bd bf 42 2c bc
       -0.13715634 -0.29047102 -0.10243368 -0.01051396
000080 80 79 ff 3b a0 1e 76 bd 17 55 fe be 7a f5 98 be
       0.0077964664 -0.0600878 -0.49674293 -0.29874784
000090 64 a4 49 be ca 26 a8 be 3d 32 92 be ab 08 c3 be
       -0.19691616 -0.32842094 -0.28553954 -0.3809255
0000a0 90 7d 0c bf 3b f6 88 be 2f ba d6 bc 88 34 e4 3d
       -0.54879093 -0.2675036 -0.026211826 0.11142832
0000b0 49 e2 ac bc 3c 2f 09 3e eb 55 62 be 38 32 a5 be
       -0.021103995 0.13396925 -0.22103088 -0.32264876
0000c0 45 18 45 3d 1e 1c 98 3e ac 6b 23 be 6b e6 4e be
       0.04811885 0.29708952 -0.15959042 -0.20205085
0000d0 fd 0a aa 3e 4f e9 a4 be 09 f6 3c 3c aa b9 17 be
       0.33211508 -0.3220925 0.011533269 -0.14816919
0000e0 d3 6f 37 bd ac d9 6c 3d b2 56 f5 be 92 03 e0 bf
       -0.04478438 0.057824776 -0.47917706 -1.750109
0000f0 27 8f d0 be d6 2b 51 be 05 2e 0c 3e c3 59 75 be
       -0.40734217 -0.20426878 0.1368943 -0.23960023
000100 2b 5d d6 3e 90 9c 26 be d8 2e 05 be 96 f5 d4 3d
       0.41867957 -0.16270661 -0.1300615 0.10398404
000110 40 20 68 be 0b 15 12 3d d8 73 25 3f 66 df 1a be
       -0.22668552 0.0356646 0.6462989 -0.15124282
000120 a6 4f 02 3e e0 dd 0f 3e 98 a3 03 3e 5e 0e 1d 3e
       0.12725696 0.14049482 0.12855375 0.15337512
000130 74 c4 18 3d fd 01 81 3d e5 2d bb 3d c7 c2 c6 bd
       0.037296727 0.06299207 0.09139613 -0.097051196
000140 fb c9 cf 3e f4 fd ee bd 8c 96 f7 3d c6 85 4a 3e
       0.40583786 -0.116695315 0.120892614 0.19777593
000150 6b 87 9f 3f 8d 61 79 3e 44 c9 28 be 34 b4 a2 3f
       1.2463201 0.24353619 -0.16483027 1.2711244
000160 5a cd 61 3e 32 6d 6d 3e f2 d8 26 bd da 3a 52 3e
       0.22050992 0.23186186 -0.04073424 0.20530263
000170 90 65 24 be fa 91 99 3f 19 af 00 be f2 f2 ee 3d
       -0.16054368 1.1997674 -0.12566794 0.11667432
000180 e1 02 51 be 01 e4 82 3e a0 b9 54 bd e5 de d8 bd
       -0.20411254 0.25564578 -0.05193484 -0.10589389
000190 56 bc 38 3f b4 1d 9f 3e f5 f0 17 3f 5a c7 47 bd
       0.7216238 0.3107735 0.59352046 -0.0487741
0001a0 21 aa 44 be 25 04 8d be bd 75 c4 3e e2 48 76 bc
       -0.19205524 -0.27542225 0.38371077 -0.015032025
0001b0 3c 34 6d 3d 37 51 c0 bb 02 99 45 be de 16 bc be
       0.057911143 -0.0058690566 -0.19296649 -0.36736196
0001c0 4b f7 7e 3f ff c7 64 bc 04 e8 cb be 09 f3 40 3e
       0.9959609 -0.013963698 -0.3982545 0.1884271
0001d0 25 93 54 3e 45 1c 85 be a1 c5 74 bd 69 4a 05 3e
       0.20759256 -0.2599813 -0.059758786 0.13016666
0001e0 39 81 d3 3d 05 ee 0b 3d cb 6f 92 be c4 c0 b5 3f
       0.10327382 0.03416254 -0.28600916 1.4199452
0001f0 37 42 ab 3d b7 61 2c 3e ca 50 8b 3d 9c 51 c9 bc
       0.08362239 0.1683415 0.06802519 -0.024575047
000200 33 b3 bb 3e 9a b3 38 be 47 37 c4 3d b6 2b 93 bc
       0.36660156 -0.18037263 0.09580856 -0.017965179
000210 0a ee a0 bd 2b b6 bc 3d ad fa f5 be 3e bb 0f be
       -0.07857902 0.09214433 -0.48042813 -0.14036271
000220 2f bd 84 bc 9e c9 d2 bd af 1d 23 bf 29 48 95 3d
       -0.016203491 -0.10292362 -0.6371717 0.07289154
000230 f4 d5 61 be e7 b6 6c 3d b0 4c 97 3e f2 39 80 bb
       -0.22054273 0.057791617 0.29550695 -0.0039131576
000240 8d d3 4f bc 55 f3 6e 3d 09 b1 7b 3d 2e 33 89 be
       -0.012684715 0.05833753 0.06144813 -0.2679686
000250 2c 58 85 bf 24 a2 0d bf 06 9e d2 bb db d5 e7 bf
       -1.0417533 -0.5532553 -0.0064275293 -1.8112139
000260 61 8f 13 be 58 dc f8 3c a8 eb 15 3b 7e 40 85 bd
       -0.14410163 0.030378506 0.0022876058 -0.065064415
000270 f0 f6 8b 3b 0f 19 d8 be df 2b bb 3d 34 11 05 3e
       0.0042713806 -0.42206618 0.09139227 0.12994844
000280 54 41 7d be 08 c4 e9 bd b5 07 9f 3d 71 cc 8a bd
       -0.24731952 -0.11414343 0.07765142 -0.06777275
000290 7c 82 82 bf 64 75 a9 be 1c 48 b9 3e 1c 3d ec 3e
       -1.0196071 -0.33097374 0.36187828 0.46140373
0002a0 99 73 a7 3d a4 fc e0 3e 5a 6d 35 be e1 98 69 3e
       0.081763454 0.4394275 -0.17717496 0.22812225
0002b0 c8 f4 88 bd 70 b4 a5 3e 22 d5 29 bb 8f c6 06 be
       -0.06687313 0.32364225 -0.002591439 -0.13161682
0002c0 00 d1 3b bf c8 5b 48 bd bc 29 49 be bd 41 02 be
       -0.73365784 -0.048915654 -0.19644827 -0.1272039
0002d0 fe 03 67 3e 52 31 8b 3d 92 42 e3 3e 1c 64 a9 be
       0.22560117 0.067965165 0.44386727 -0.3308419
0002e0 fb 25 32 bd 93 60 a4 3c 7f 49 8f bd f4 d4 c6 bf
       -0.043493252 0.020065581 -0.0699644 -1.5533738
0002f0 e4 38 54 3e 23 25 20 3d de a5 89 3d fc c2 e9 3c
       0.20724827 0.039097916 0.0672109 0.028535359
000300 e0 34 36 be 43 74 8a bd 25 78 11 bb 0d 28 47 3d
       -0.17793608 -0.067604564 -0.0022196856 0.04862218
000310 5c ca 86 be e9 33 67 be 3e ab 07 bf 61 23 90 bd
       -0.26326263 -0.22578396 -0.5299567 -0.07037998
000320 4e 14 14 bd 5c c1 34 3d f4 0f c5 be cd 27 a9 be
       -0.036152177 0.044129714 -0.38488734 -0.33038178
000330 38 23 32 be 50 ce ac bd 0b b4 aa be 00 6f db bd
       -0.17396247 -0.084377885 -0.33340487 -0.10714531
000340 75 ba c8 3e 4f 71 94 bd f2 a0 a0 3d ed 82 e3 3e
       0.39204755 -0.072481744 0.07843198 0.44435826
000350 2c b5 9d 3e 2b 5a fa bd 3d e0 7c be 8a 67 c3 be
       0.30802286 -0.122242294 -0.24694915 -0.38164932
000360 df 43 5d be 5b 14 c4 be 2f b8 d1 be 77 9b b7 be
       -0.21607922 -0.3829678 -0.40960833 -0.35860798
000370 76 b2 2a 3d 2a 18 0d bf 41 95 25 be ac f4 3d be
       0.0416741 -0.55114996 -0.16170217 -0.18550366
000380 fb 56 1a bd 34 5f 65 bb c5 1c 80 be f7 6e 7e bd
       -0.037680607 -0.0034999372 -0.2502195 -0.062117543
000390 1c 43 7b be 17 56 0d bd ce d3 b8 3e 8a e4 c0 3d
       -0.24537319 -0.03450593 0.36099094 0.0941859
0003a0 54 91 75 bb db 67 e1 bd 38 21 48 3e 6d e3 da 3d
       -0.0037470656 -0.11006137 0.19543922 0.10687909
0003b0 34 7a ad be 58 da 7a bb 71 a0 04 bf 49 05 89 be
       -0.33882296 -0.0038277116 -0.51807314 -0.26761845
0003c0 f1 72 bf bd 10 ca ed be 17 72 c2 be d4 a4 81 bd
       -0.09348095 -0.46443224 -0.3797767 -0.063302666
0003d0 48 d0 85 3d c4 9f 48 be d4 97 b3 bc 0b 3d 52 3d
       0.06533867 -0.19592196 -0.021922983 0.051327746
0003e0 ab 9c e4 bd 08 14 80 3e 42 92 5a be 15 6d ed 3e
       -0.111626945 0.25015283 -0.21344855 0.46372285
0003f0 d8 ff 9b 3e da ff 78 be b5 b2 1e be 82 cc a4 be
       0.3046863 -0.2431635 -0.15497859 -0.32187277

actor.0.bias f4 [64]
000000 46 ff af 3b 5f 94 53 ba 03 8e fe 3b 51 e6 e6 bd
       0.005371007 -0.000807112 0.007768394 -0.11274398
000010 60 38 2f bd 89 a2 c4 3b 6e 58 03 bb f9 16 b5 3d
       -0.042778373 0.006000821 -0.0020041722 0.08842272
000020 94 9f d1 bc 70 71 b6 3c 10 db 93 b9 e0 54 d9 3a
       -0.025588788 0.022270888 -0.0002820124 0.0016581081
000030 d0 84 37 bd 2d e6 60 3c d4 49 d7 3c 8b 49 1b bd
       -0.044804394 0.013726753 0.026280321 -0.037911933
000040 0f c4 45 3d e6 c4 56 3d 7a bc 98 bd ff fd 5d bc
       0.04828268 0.05243387 -0.07457824 -0.013549327
000050 bc b7 be bc fd ed ac bd 84 89 57 bc 75 0f 25 3d
       -0.02328097 -0.0844383 -0.013155345 0.040297944
000060 3d 9a f0 3c c5 3c 89 bc 99 c5 4d bd 4a 6e f1 3c
       0.029370422 -0.01675261 -0.050237272 0.029471535
000070 a3 eb 6b bc 63 30 2e 3d 5a 0e 5a bc db d2 7e 3d
       -0.014399442 0.042526614 -0.013309086 0.062212806
000080 5e 87 89 bc 96 59 af 3d 22 79 5f 3d f1 91 be bc
       -0.01678818 0.08562009 0.05455888 -0.02326295
000090 08 cc b1 3d 17 e5 1a bd 84 b1 62 bd 89 6f bc bb
       0.08681494 -0.037816133 -0.055345073 -0.0057506007
0000a0 db 7e 8c 3c ce a1 50 bd df 62 31 3d f8 9b c7 3c
       0.017150333 -0.05093556 0.04330718 0.024366364
0000b0 0f 9a 00 bd c5 19 b7 bd 44 c9 10 3d 44 6c 33 3d
       -0.03139692 -0.08940462 0.03534819 0.043804422
0000c0 9c 9f e9 3c 5c 8c 8d 3d 57 8e 95 bd eb 35 c3 3c
       0.02851849 0.06911537 -0.0730254 0.023829421
0000d0 cc cd 26 3d 0b 15 91 3d ab 28 1f bc 72 bd d6 bd
       0.040723607 0.07084092 -0.009714286 -0.104853526
0000e0 fb e6 2d 3d 18 0d 57 bd ef 07 1f 3d 70 d2 9e bc
       0.04245661 -0.05250272 0.038825925 -0.019387454
0000f0 ea d6 87 3d c0 ff 26 39 f5 57 a9 3d 85 bb 9c 3d
       0.066327885 0.00015926268 0.082687296 0.07652954

actor.2.weight f4 [7, 64]
000000 08 55 ae bd 61 a1 06 3d 8c da df be a6 58 fa bd
       -0.08512312 0.032868747 -0.43721426 -0.122239396
000010 53 3b 93 bd d1 a6 15 3c ba 73 ed bc 4a a4 55 3d
       -0.071890496 0.00913401 -0.028985847 0.05215863
000020 ae 2c d4 bd 73 9d 13 be 34 4c 5d be ad 3e 70 bd
       -0.103600845 -0.14415531 -0.216111 -0.058653522
000030 c7 2f c1 be c1 cb 36 bd 7d 67 46 3e 66 f8 c3 be
       -0.37731764 -0.04462791 0.19375415 -0.3827545
000040 f6 8e 4f 3e 68 18 e0 3e 0c d9 dc bd d5 f1 bb 3d
       0.20269379 0.4376862 -0.10783586 0.09176985
000050 e7 1f 83 be 63 fc 7c be 10 c2 7a bd 45 bf f2 3d
       -0.25610277 -0.24705653 -0.06122023 0.11852888
000060 52 47 12 3e b7 9c 32 3e 77 b0 24 3d 44 47 a6 3d
       0.14285019 0.17442594 0.040207352 0.081190616
000070 c4 76 1e be 28 6d 61 3d 37 b5 63 3b 71 3a 79 3e
       -0.15474993 0.05503574 0.0034745464 0.243387
000080 7b c1 8a 3d a7 bb 6d 3b dc 8e 7d bc 55 87 cd be
       0.06775185 0.003627518 -0.015475955 -0.40142313
000090 0c 8f fa 3d 4b c8 91 bc 0b f8 32 3e ed f6 0a 3e
       0.12234315 -0.017795702 0.17477433 0.13570757
0000a0 bd f4 8a 3e 93 cc 8c be a5 a7 9e bc 8e cb 08 3e
       0.27139845 -0.27499828 -0.019367049 0.133589
0000b0 69 da f2 bd fa ca 62 be 25 d0 46 3e af 33 5a 3e
       -0.11858065 -0.22147742 0.19415338 0.21308778
0000c0 78 fc d7 3d 30 c1 30 3d e6 bf 82 be 82 0c 70 bd
       0.105462015 0.043152988 -0.25537032 -0.05860568
0000d0 d2 62 4d be d8 61 46 3d 82 aa 14 be 3c 68 f9 bd
       -0.20057228 0.048433155 -0.14518169 -0.12178084
0000e0 96 0e 2d be 6d db 0f be 4f de 20 be 20 3d 8d be
       -0.16900095 -0.14048548 -0.15709804 -0.27585697
0000f0 7b e3 89 3e c9 1e 8a bc 9d a2 10 3e 9f d4 d8 bc
       0.26931366 -0.016860383 0.14124532 -0.026468573
000100 57 06 bb 3e 5d d6 30 3e ed d6 b3 be 1f ee 14 3c
       0.36528274 0.17269273 -0.35124913 0.009089976
000110 3a 4a 59 3c 5b ec c3 bd 52 85 9e 3e 82 32 2d 3e
       0.013262326 -0.095665656 0.3096109 0.16913798
000120 10 13 12 be 21 77 06 3e 65 6b 09 3e d1 72 ee 3e
       -0.14265084 0.13131382 0.13419874 0.46571973
000130 c1 a8 69 3e 66 a1 5a be 04 39 02 be 4a d0 0d 3e
       0.22818281 -0.21350631 -0.12717062 0.13848987
000140 b7 ef 0c be 12 da 71 3a 14 3f 51 3e 65 d4 a2 3b
       -0.13763319 0.00092259154 0.20434219 0.004969167
000150 1f 6d 9b bd 93 45 44 3d 64 a7 ca bd 3d c2 c9 be
       -0.075891726 0.047917914 -0.098952085 -0.39406005
000160 fe f1 40 3e bd 74 36 be 25 fc 92 bd 91 e9 a4 be
       0.18842313 -0.1781797 -0.07176999 -0.32209447
000170 e2 24 90 3d 5b da f9 3d d6 49 23 be eb 0f 5d be
       0.07038285 0.12199851 -0.15946135 -0.21588103
000180 95 c6 79 be d5 8a 59 be cb df 16 be 16 78 12 3d
       -0.2439216 -0.21244366 -0.14733808 0.035759054
000190 85 35 1f be 6a 80 f6 3e 74 9b 90 3e 55 3f a7 bd
       -0.1554776 0.48144847 0.282436 -0.081663765
0001a0 38 a5 c0 3d 74 d7 03 bd a6 f8 fa 3d de 69 98 3d
       0.09406513 -0.032187894 0.12254457 0.074420676
0001b0 e7 18 41 be b6 1b c2 bc 94 1e 94 3d 2c a6 6f be
       -0.18857156 -0.023694854 0.07232395 -0.23403233
0001c0 ee 8d 6e be 54 da a1 bb 63 fc 4d 3e 7b 02 f3 3c
       -0.2329633 -0.004939357 0.20115809 0.029664269
0001d0 e0 49 e2 3d 84 62 34 3e 1c cd 89 3e 25 aa c8 bd
       0.11049247 0.17615706 0.269143 -0.097980775
0001e0 d3 28 2d bd bf c6 5f be 01 d0 5f 3e df a1 a7 bd
       -0.04227526 -0.2185316 0.21856691 -0.08185171
0001f0 02 e3 82 bd aa e3 65 3e 28 7e 4e be fb 7c 48 3e
       -0.063909546 0.22450128 -0.20165312 0.19578926
000200 ef 07 2e be e4 d9 0f 3d 21 ff bd bc 97 0f 79 3d
       -0.16995214 0.035119906 -0.023192944 0.060805883
000210 bf 33 4c be c8 25 70 bd 29 33 34 bd 7e e1 33 3c
       -0.19941615 -0.05862978 -0.043994103 0.0109790545
000220 f8 c3 68 3d 4e cd 01 be 69 61 8a be 2c 57 f4 bd
       0.056827515 -0.12675974 -0.27027443 -0.11930689
000230 d2 3d a4 3e 27 ea 5d 3e 18 ca 8f 3e 25 f7 47 3e
       0.32078415 0.21671353 0.28083873 0.19527872
000240 c7 a0 71 be d0 0d a4 be c6 45 e9 bc 5b 14 ee 3b
       -0.23596488 -0.32041788 -0.028475653 0.00726561
000250 87 ef 5b 3e c1 2b dd 3d 03 6e a0 be 0a 0d 99 3d
       0.21478091 0.10799361 -0.31333932 0.0747319
000260 43 02 16 be 2b 0b 81 3e 9d fa 02 bd ad 2a 19 3e
       -0.146493 0.25203833 -0.031977285 0.14957686
000270 a5 86 c0 3e 4a 89 9a 3d 8d 73 1b be 61 b9 c9 be
       0.37602726 0.07545717 -0.15180798 -0.39399245
000280 6d 35 56 3c 99 32 25 3c 5b 3e 4b bd 05 fc 85 3e
       0.013074261 0.010082864 -0.049620014 0.26168838
000290 70 2d 19 3d b1 33 e7 bc c1 87 f4 3d 4f 61 18 bd
       0.03739685 -0.02822289 0.119399555 -0.037202176
0002a0 97 30 8c be 36 c2 3e bd 62 86 08 be 16 fa 87 be
       -0.2738082 -0.046571933 -0.13332513 -0.26557988
0002b0 d6 50 dd 3e 04 19 9a 3e 1f 3d ec bd 97 72 94 bd
       0.43225735 0.3009721 -0.115350954 -0.07248419
0002c0 74 4c dd 3d 4d 74 22 bd 50 8a e2 3e 7f d4 55 be
       0.10805598 -0.039661694 0.4424615 -0.20881842
0002d0 74 76 07 3d 3f 9a 6b be f6 d7 5e 3e 37 7c 86 3e
       0.03307195 -0.23008059 0.2176207 0.26266643
0002e0 97 36 b4 3d a1 34 4c 3e d3 eb 78 bd 0c b0 c0 3d
       0.08799475 0.19941951 -0.060771775 0.09408578
0002f0 60 9c 3b bd 3b 11 47 bd 5c b4 5a 3d 4b 5a d1 bb
       -0.045803428 -0.048600417 0.05339466 -0.0063889376
000300 f9 34 a6 be 4d 74 46 bf ab bd 08 bf c5 cc 5a 3f
       -0.3246229 -0.7752121 -0.5341441 0.85468704
000310 4a c3 7f 3f 3e 9c 94 be d4 79 9b 3e 63 65 e1 be
       0.9990736 -0.29025453 0.30366385 -0.44022664
000320 9c c9 27 3f e2 dd 93 bd 27 4c 7e be e6 21 2d 3f
       0.65542006 -0.07220055 -0.24833737 0.6762985
000330 d1 0a 12 be b5 8e 73 3b f8 22 11 bd d2 13 27 bf
       -0.14261939 0.0037163917 -0.03543374 -0.6526462
000340 d0 77 22 3e 41 91 84 be 07 0f 6b 3f e7 6e 9d be
       0.15866017 -0.2589207 0.91819805 -0.30748674
000350 23 56 e6 bc ee bf ad 3e 20 1d 31 3f d8 2b 12 be
       -0.028117245 0.33935493 0.69185066 -0.14274538
000360 02 bb b3 3e c9 e7 22 be d2 a5 01 3f 29 21 8f bf
       0.35103613 -0.15908732 0.50643647 -1.1181995
000370 b0 2b 9a 3e 6d 99 35 bf 7b fd 5c 3f 8a f6 8c 3c
       0.30111456 -0.70937234 0.8632428 0.017207403
000380 f3 ae 53 3e 47 11 d6 bf 3c bf 2c bf b5 b5 51 be
       0.20672207 -1.6724023 -0.674793 -0.20479472
000390 ba a2 76 bf 08 70 a3 3c 47 ea c3 3e 44 b6 3f 3e
       -0.9634205 0.019950882 0.38264677 0.18721873
0003a0 da 16 fe 3e e9 68 3a 3f 61 b8 05 bf 47 bf e3 be
       0.4962681 0.7281633 -0.52234465 -0.4448187
0003b0 89 95 4c 3e e2 a6 50 3f 07 94 4c 3d 6c 42 1b be
       0.19978918 0.8150464 0.049945857 -0.15162057
0003c0 d9 f0 6d bd b2 50 7a bf 3b 8b 92 3d 2e af a8 3e
       -0.05809102 -0.9777938 0.07155462 0.32946151
0003d0 66 00 ed bd 33 b3 86 be 92 6c b9 bd 96 59 4b 3f
       -0.115723416 -0.26308593 -0.09053911 0.7943357
0003e0 db b0 5c bf 20 ea 84 3e b2 48 f8 be 3f fa fe bd
       -0.8620736 0.25959873 -0.48492962 -0.124500744
0003f0 b1 b8 71 be ea e6 f4 3e b6 4c b0 bf 75 6b 85 bf
       -0.2360561 0.47832423 -1.377341 -1.0423418

actor.2.bias f4 [7]
000000 b0 f2 98 3d 89 94 25 bd 5f 57 80 3c 56 8a cf be
       0.07468164 -0.040424857 0.015666662 -0.4053523
000010 e6 45 0f bd 7a 93 97 3a 45 03 72 3d
       -0.03497877 0.0011564337 0.05908515

critic.0.weight f4 [64, 64]
000000 e0 d6 e9 3d 38 66 21 be 95 c9 a7 3b dc 51 5e 3d
       0.11417937 -0.1576165 0.005120466 0.054277286
000010 7c f9 18 3d bb 73 37 3d ae 93 ef 3d 81 c4 95 3d
       0.0373473 0.044788104 0.116980895 0.07312871
000020 a1 d9 18 bd fa d1 1c bd 3d cc 70 3c 18 7a 57 3d
       -0.037316922 -0.038286187 0.014697132 0.052606672
000030 d3 9e 82 bc 6a 5a 5c bd df 9c ca bd 73 80 5f bd
       -0.015944874 -0.053797163 -0.09893202 -0.054565858
000040 77 17 48 bd e1 04 f0 be ac 69 95 3d b2 58 79 bd
       -0.048850503 -0.46878722 0.07295546 -0.060875602
000050 eb 2e 3b 3d 7d fb bc bc c7 7e 04 3e ee 48 a1 3c
       0.04569904 -0.023069138 0.12938987 0.019688096
000060 19 6e d0 bc 7b f5 77 bd 75 46 2c 3d c1 31 0f be
       -0.025443124 -0.060536843 0.04205938 -0.13983823
000070 62 bf be bc 6b f4 78 3d 2f 65 8b be 6c 60 57 3d
       -0.023284618 0.06077997 -0.27225634 0.05258219
000080 8a 64 f9 bd 8f cf f6 3d bb 99 29 bd 68 bc 68 be
       -0.121773794 0.120513074 -0.041406374 -0.22728121
000090 b2 7c f3 bd 34 32 a2 3d 9d ca 7b bd 04 ea df 3d
       -0.11889018 0.07919732 -0.061472524 0.10933307
0000a0 91 4a d4 bd ac 77 fb bd dd f7 82 3e 13 61 d2 3d
       -0.10365785 -0.12278685 0.2557973 0.10272422
0000b0 ea 57 20 be 0f ee b0 bd d4 5c 03 3e 2d 3e b1 bd
       -0.15658537 -0.08639156 0.1282838 -0.08654437
0000c0 ee 2b 90 bd 90 4c 37 bd cf 1b 8e 3d 6e 57 20 3e
       -0.07039629 -0.04475075 0.06938898 0.15658352
0000d0 ac c8 2d 3e 2d 1d a0 3d d2 b4 8d 3d 49 9a bb bd
       0.16971081 0.07818065 0.06919254 -0.09160287
0000e0 59 a7 00 be 96 d9 44 bd 04 bc e9 bd fd b1 59 bd
       -0.12563838 -0.04805907 -0.11412814 -0.05314826
0000f0 72 0a d7 3e f3 6f 50 3e d3 cb e2 bc 68 60 88 3c
       0.42000157 0.20355205 -0.027685082 0.016647533
000100 bd 1e 2a 3d 4d c5 5b 3e 80 bf 9c be 0a a8 72 be
       0.04153322 0.21461983 -0.30614853 -0.23696914
000110 64 ff 36 be b9 9f 0f 3e 80 0c c9 be fe 23 83 3d
       -0.17870861 0.14025773 -0.3926735 0.06403349
000120 f2 4c 8a 3d 55 6a 13 bd ab 2e 1a 3e 56 c9 92 bd
       0.067529574 -0.035990078 0.15056865 -0.07167308
000130 45 8c 73 bb 7d 16 2a 3c d4 db 75 bd 20 cb c7 bd
       -0.0037162465 0.010381338 -0.060024098 -0.0975554
000140 e2 67 3b bc 07 df 5d 3d 25 2a 04 be 65 50 af 3d
       -0.011438342 0.054167774 -0.12906702 0.08560256
000150 ec 78 dc bd 75 00 21 3e 84 d9 18 bc b0 57 d9 be
       -0.107652515 0.1572283 -0.0093292035 -0.42449713
000160 0c 3e df bb 38 3a 97 bc 88 f4 21 be 7f f7 0b 3e
       -0.0068128165 -0.018460378 -0.15815938 0.13668631
000170 9f 2a 91 bd 76 fb 1d bd ab a7 8d 3d 43 07 b1 3e
       -0.070882075 -0.03856989 0.06916746 0.34575853
000180 76 5d 48 be 3a 16 4d bd 75 19 49 3d aa 92 0f bb
       -0.19566903 -0.050070025 0.049096543 -0.0021907487
000190 06 04 b8 3c 54 85 f4 3d 83 a7 b5 be e3 15 1e 3d
       0.022462856 0.11939493 -0.35479364 0.03859509
0001a0 fe 70 2a be fd 49 e1 3d b0 18 a4 bc 84 46 03 3c
       -0.16644666 0.1100044 -0.020031303 0.008012418
0001b0 7e ce 28 be 42 3a dd 3d f8 99 1f 3d e5 f8 66 3e
       -0.1648502 0.108021274 0.038965195 0.22555883
0001c0 24 29 43 be 81 8c fe 3d 23 66 97 bd 98 a9 b9 bd
       -0.19058663 0.12429143 -0.07392528 -0.090655506
0001d0 33 88 51 be 78 c2 1f be 52 20 4b bd b7 8a fe bd
       -0.20462112 -0.15601528 -0.04959137 -0.124288015
0001e0 e3 64 6c 3e 97 73 41 be b0 ef b1 3d 90 58 83 3e
       0.2308536 -0.1889175 0.08688295 0.25653505
0001f0 6f 80 75 3d fc 4c f6 3c da c9 c9 3d b5 f4 bd bc
       0.059936937 0.030066006 0.09852953 -0.023187974
000200 dd 97 04 be 72 74 76 be 5f 6c 44 3d 2f f4 a0 be
       -0.12948556 -0.24067858 0.047954913 -0.31436297
000210 e2 61 9b bd b4 a3 ed bd 13 f7 45 bd 68 89 17 3e
       -0.07587029 -0.116034895 -0.04833133 0.1479851
000220 a0 11 83 3d 1b 20 d2 bd 7d 65 66 bd cd 5d 99 bd
       0.06399846 -0.1026003 -0.05624913 -0.07488594
000230 df a2 58 3e bb 3e 1c be 4c d3 59 3d 2b 7b 57 3d
       0.2115588 -0.15258305 0.053180024 0.052607697
000240 f1 fe 5a be b1 5f 86 3d 40 2b 6b bc 7a 47 4e 3e
       -0.21386315 0.065612204 -0.014353573 0.20144454
000250 65 e4 a2 3c 15 54 b2 3d 5b f0 75 3c 65 b6 8f be
       0.019884298 0.087074436 0.0150109185 -0.28068843
000260 fa f3 fe bb 0f 70 f0 bd cb 9d 6b 3d bc 3a f3 3b
       -0.007780549 -0.117401235 0.05752353 0.007422773
000270 d6 b9 ef 3d 85 00 9f 3d bc fd 41 bd f0 33 eb 3d
       0.11705367 0.07763771 -0.04736112 0.11484516
000280 bb ab ea 3d 78 d4 6a 3e d8 5d 7c bc f4 24 88 be
       0.11458536 0.22932613 -0.0154032335 -0.26590693
000290 c0 8d 24 3d 50 4b c8 be a8 4b c2 be f2 f3 9d 3d
       0.040174246 -0.3911996 -0.37948346 0.077125445
0002a0 49 d9 a5 be ae 6a a0 3e d2 3e 04 be 9d 0f 0d 3e
       -0.32392338 0.3133139 -0.12914589 0.13775487
0002b0 b7 0d 1b be b9 7c 22 3e 83 47 92 3e ca 04 45 3e
       -0.1514195 0.1586789 0.28570184 0.19240108
0002c0 1c d1 8e 3d dd ca f2 bd a0 4e eb 3d 90 12 07 bd
       0.06973478 -0.11855099 0.11489606 -0.032976687
0002d0 c7 d2 c6 bc 24 07 23 3d d1 bf c6 bd d0 53 8d 3e
       -0.024270428 0.03980173 -0.09704555 0.27603006
0002e0 7b 9c 1a 3e c3 ed c1 3e f3 ba 90 3e 8e b8 2b bd
       0.15098755 0.3787671 0.2826763 -0.041924052
0002f0 17 80 a0 3c 96 d7 8d 3e 1b 75 12 3e 1f 94 d1 3e
       0.019592328 0.27703542 0.14302485 0.4093332
000300 ca e5 8c 3d 33 04 a0 3d e9 61 22 3e 34 53 46 be
       0.06879766 0.07813301 0.15857662 -0.19367677
000310 28 48 10 3d 9e 65 cc be 73 c4 74 3d 9e 8b 64 bb
       0.035225064 -0.39921278 0.05975766 -0.0034873257
000320 0e 2f 90 3d 4e df 45 bd 89 c4 c0 bc 72 53 06 3d
       0.07040225 -0.048308663 -0.023531215 0.032794423
000330 b6 8c 0d be b5 dd d8 bd dc 1f 16 be 27 43 67 bc
       -0.13823208 -0.10589162 -0.14660591 -0.014115131
000340 42 7e 1f be 90 9a 13 3e 57 1a f7 3c a0 27 4c bc
       -0.15575507 0.1441443 0.030163927 -0.012460619
000350 4a 0d 04 bd 72 f2 ea bd c1 d0 06 3e c9 6d 3f 3d
       -0.032239236 -0.11472024 0.13165571 0.04673556
000360 c7 21 e8 3c 31 fc a6 bd b6 c8 77 3d 4c 27 55 bc
       0.028336419 -0.081535704 0.060494147 -0.013009857
000370 e4 36 f8 bd b6 ff b4 3d 71 78 35 be ab fc 08 3d
       -0.121198446 0.088378355 -0.17721726 0.033444088
000380 24 9a ab 3b e5 94 57 be ad 2e e4 bd 9c 75 5b bd
       0.005236881 -0.21052893 -0.11141715 -0.053578958
000390 9b ea 44 3e 39 3e 12 be 86 9e 8c be 57 80 fa 3d
       0.1923012 -0.14281549 -0.27464694 0.1223151
0003a0 67 62 69 bd 22 f8 a8 3d d0 f8 9c 3e 5b e3 b9 ba
       -0.05697861 0.082504526 0.3065858 -0.0014182137
0003b0 0e c7 ef 3d 09 e1 1f 3e a2 1a 27 be b2 6f f1 3d
       0.117078885 0.15613188 -0.16318753 0.11788882
0003c0 66 52 fa 3d 4b ed c6 bd d2 5a 85 3d 82 16 68 be
       0.122227475 -0.09713229 0.06511463 -0.22664836
0003d0 da 33 e0 bd 7a d3 cc bd 30 72 8f bd c0 ab 66 3e
       -0.1094739 -0.100012735 -0.070042014 0.22526455
0003e0 0d a6 0c 3e a1 6a f6 be 58 86 d7 bd bb 98 84 bd
       0.13735218 -0.48128226 -0.10523671 -0.064744435
0003f0 5a 03 73 be 00 bb e6 bc 73 cf c9 3d 1d 06 69 3d
       -0.23731747 -0.02816534 0.09854021 0.056890596

critic.0.bias f4 [64]
000000 04 bd 7e bd de 00 e8 bc 82 f0 2a bd 5e a2 be 3d
       -0.062191978 -0.028320726 -0.041733272 0.09308313
000010 ca ab d9 3c 9e c2 51 3d 09 51 95 3d a6 22 7d bd
       0.026571173 0.051210992 0.07290847 -0.06180062
000020 ef f7 e3 bc 27 e8 01 be 7f 61 99 3c 10 4c 5a 3b
       -0.027828185 -0.12686215 0.018723248 0.0033309497
000030 f1 7c 9c 3d e7 db 2f be 3c 3f 31 3d 7d 57 7c bd
       0.07641018 -0.1717373 0.043273196 -0.061606873
000040 46 4d de bd b3 af 2e bd dd 33 20 3d 0c c8 7b 3d
       -0.108545825 -0.04264803 0.03911196 0.061470076
000050 ee 7a 53 bd 0b a8 e4 bd 4b 49 61 3c 35 e8 57 3d
       -0.051630907 -0.11164864 0.013750385 0.052711684
000060 cd e1 cc bd 01 23 54 bd 0d 1c 26 bd 9e 4e db 3c
       -0.100040056 -0.051791195 -0.040554095 0.026770886
000070 46 df 5e 3d e4 8a 9f bd 91 7b 40 3e ee 0f 96 3d
       0.05441215 -0.07790163 0.18797137 0.07327257
000080 78 a7 8b 3b cf fb 9c bc 25 15 bb 3d fb 8d 0c be
       0.004261907 -0.01916304 0.091348924 -0.13726036
000090 e6 bb 61 3d 50 6e fe bc 01 d2 cb 3d cc 32 50 bd
       0.055110835 -0.03105846 0.099521644 -0.050829694
0000a0 7f 28 e0 bc 9f e9 57 3d 9c 0e b6 3d e6 cc 89 bd
       -0.02736306 0.052713033 0.08889505 -0.067285344
0000b0 f8 ae a6 3d e6 e5 de bc 7d 3d ef bc 53 27 68 3d
       0.081388414 -0.027209233 -0.029204125 0.056678127
0000c0 5e 87 ff 3c d5 8e 9d bd 4c 07 72 bd aa df c7 3d
       0.031192478 -0.07693259 -0.05908899 0.097594574
0000d0 5c 4b 1d bd ae 68 f0 3d 8b cb 45 bd 52 cb 79 3b
       -0.038401946 0.11738716 -0.048289817 0.0038115573
0000e0 6e 2d 13 bc 5a e8 52 3d 06 67 d6 3b 83 d1 dd bc
       -0.008982999 0.05149112 0.006543043 -0.027077442
0000f0 24 0b c1 bc b4 98 67 3d 8e 03 c6 bd 84 24 2a bd
       -0.023564883 0.056542113 -0.09668647 -0.04153873

critic.2.weight f4 [1, 64]
000000 94 7f 70 bb 51 20 81 bb 2f e9 f4 bb fe b3 15 bc
       -0.0036697136 -0.00394062 -0.0074740867 -0.009137152
000010 af 00 cf 3d 95 cd de 39 ab 14 03 3e 7d bf ce bd
       0.10107552 0.0004249631 0.12800853 -0.10095117
000020 f6 6f 5c 3b ef a6 07 ba d2 4b 0b 3e c9 f5 69 3a
       0.003363607 -0.00051747164 0.13603142 0.00089248695
000030 42 bb 90 3d a2 ae 13 ba bc c1 e2 ba 0c a6 1b 3b
       0.070669666 -0.00056336273 -0.0017300169 0.0023750095
000040 91 51 90 3b 7e db 39 ba a5 ef 14 ba 78 32 09 3b
       0.0044042547 -0.0007089897 -0.0005681462 0.0020934623
000050 a2 2e 27 3b 14 10 d1 bd be db 48 3a 3b c1 fa 3c
       0.0025509973 -0.10208145 0.00076621387 0.030609718
000060 46 44 ff 3a bc c1 f2 39 10 96 10 bb 54 0a 34 b9
       0.0019475303 0.0004630218 -0.00220621 -0.00017169985
000070 e3 82 86 3b 3b d6 31 be 30 88 75 b8 67 6c 1d 3d
       0.0041049584 -0.17366879 -5.8539386e-05 0.03843346
000080 40 d4 58 3a d2 7f 05 bb 17 d0 bc bb 14 0f 41 3c
       0.0008271374 -0.0020370376 -0.005762111 0.01178338
000090 80 44 92 ba ac db de b9 86 bc 35 3a 7e bc b7 bd
       -0.0011159331 -0.00042506808 0.0006932694 -0.08971499
0000a0 b3 ff a6 ba c4 a4 1a 3c 99 2f b4 ba c9 33 37 bd
       -0.0012740999 0.009438697 -0.0013747095 -0.04472712
0000b0 b4 9a 90 3d 7a a9 82 39 3f f5 05 3b 64 c4 08 bc
       0.07060757 0.00024921802 0.0020440368 -0.008347604
0000c0 68 d9 01 3b c6 17 4b ba 26 b7 60 3a c0 c0 e2 b7
       0.0019813422 -0.0007747378 0.0008572213 -2.7031056e-05
0000d0 36 4c d5 bd 37 a9 0f 3e bf 23 88 bd 6b 9b 0b ba
       -0.10414927 0.14029394 -0.06647443 -0.0005325588
0000e0 9e c0 e6 3a a8 77 b4 3d 7a 52 f0 ba e7 e6 6a 3a
       0.0017605012 0.08811885 -0.0018335127 0.0008960799
0000f0 58 92 20 bc 3d 38 43 3e f4 17 0f 3b 07 9c 57 bd
       -0.009800516 0.19064422 0.0021834346 -0.052639034
