policy-consolidation/_oldmodels/test_cascade_8_frames_1024_clip_impsampling/status.pt (torch, 603291 bytes, 96 tensors)

image_conv.0.weight f4 [16, 3, 2, 2]
0	0x3ea563d9	0.3230274
1	0xbe5acb9c	-0.21366733
2	0xbd0c1c6c	-0.034206793
3	0xbbfd5691	-0.007731267
4	0xbe04a993	-0.12955312
5	0x3e0505cf	0.12990497
6	0xbd8fa212	-0.07013334
7	0x3d9829ec	0.07429871
8	0x3d246020	0.040130734
9	0xbd10c790	-0.035346568
10	0x3da3fa44	0.08006719
11	0x3c695280	0.014240861
12	0x3dc275fc	0.0949516
13	0xbe14f6d7	-0.14547287
14	0xbe2ad8ac	-0.16684216
15	0xbe32c10b	-0.17456453
16	0xbd119a98	-0.035547823
17	0x3de5d4f9	0.11222262
18	0x3e1d1a68	0.15342104
19	0x3cfb4ced	0.03067633
20	0xbddc2b48	-0.10750443
21	0xbe328872	-0.17434862
22	0xbd4630e4	-0.04838647
23	0xbdff02f2	-0.12451734
24	0xbe6016f7	-0.2188376
25	0xbe1f45be	-0.15553948
26	0x3d54d673	0.051962327
27	0x3c2e575f	0.010640948
28	0xbeddc8b1	-0.43317178
29	0x3d79b6bf	0.060965296
30	0xbcbafc9e	-0.022825535
31	0x3e5991e2	0.21247056
32	0x3e431daa	0.19054285
33	0xbe86aaec	-0.26302278
34	0xbe8c87f4	-0.27447474
35	0xbe0e9438	-0.13923728
36	0x3e894baf	0.26815554
37	0xbe5c26d3	-0.21499185
38	0xbd02c86d	-0.031929422
39	0xbeb157ca	-0.3463729
40	0x3e552822	0.2081609
41	0xbe8ac3e2	-0.27102572
42	0x3e611455	0.21980412
43	0xbe92f5fa	-0.2870329
44	0xbe1bba9f	-0.15207909
45	0x3e17f1ca	0.14838329
46	0xbe1ce986	-0.15323457
47	0x3dade06c	0.08490071
48	0xbe1b5e0f	-0.151726
49	0xbe06ef79	-0.13177289
50	0xbec93c1a	-0.39303666
51	0xbe6655f6	-0.22493729
52	0x3e28aed3	0.1647294
53	0xbc95c0d2	-0.01828042
54	0x3e700170	0.23438048
55	0x3e6f32be	0.233592
56	0xbc5d75a0	-0.0135168135
57	0xbe454f6b	-0.19268577
58	0x3e3402e2	0.17579225
59	0x3db77c34	0.08959237
60	0xbe2d571f	-0.16927765
61	0x3ec43812	0.38324028
62	0x3e2792e5	0.1636463
63	0x3e9d9978	0.3078115
64	0xbdac6404	-0.08417514
65	0xbe283871	-0.1642778
66	0xbdcf2335	-0.10114137
67	0xbe2e8dfe	-0.17046353
68	0xbe6056ba	-0.21908084
69	0xbe51c449	-0.20485033
70	0x3e20cf40	0.1570406
71	0xbd8aa21a	-0.067692
72	0x3d6061af	0.05478066
73	0xbe94cd8a	-0.29063064
74	0x3d6b6198	0.05746612
75	0x3a92af68	0.0011191191
76	0xbde14a58	-0.11000508
77	0xbdda10c0	-0.10647726
78	0xbee7a92b	-0.45246252
79	0x3e4ecd65	0.2019554
80	0xbe4fd877	-0.20297419
81	0xbe5f090e	-0.21780798
82	0x3c8fd0c0	0.017555594
83	0xbd497de0	-0.04919231
84	0x3e1ea52c	0.15492696
85	0xbe08ef7f	-0.1337261
86	0xbe8cd078	-0.275028
87	0x3ec61b96	0.3869292
88	0xbe1ccaa1	-0.15311672
89	0x3e41b7bc	0.18917745
90	0x3b13c75e	0.0022549252
91	0xbe916420	-0.28396702
92	0x3d6d8b78	0.057994336
93	0x3d8e017c	0.06933877
94	0xbe45ec7c	-0.19328493
95	0xbe0c416e	-0.13696834
96	0xbce77181	-0.028252365
97	0xbd947fa7	-0.0725091
98	0xbe5a2d9c	-0.21306461
99	0xbe946570	-0.2898364
100	0x3e251558	0.16121423
101	0x3b215fc0	0.0024623722
102	0x3e4e81e8	0.20166743
103	0xbce9c870	-0.028537959
104	0xbe3f1482	-0.18660167
105	0xbe7b63ca	-0.24549785
106	0x3e8ddf86	0.27709597
107	0x3c76f7a0	0.015073687
108	0x3e975b19	0.2956169
109	0xbcfc8f6c	-0.030830108
110	0xbdb2240b	-0.08698281
111	0x3e3df8e0	0.1855197
112	0x3d42d859	0.047569606
113	0xbe9fa61f	-0.31181428
114	0xbe649f5e	-0.22326419
115	0x3e0abae8	0.13547862
116	0x3e56253a	0.20912638
117	0x3e37a3e2	0.1793361
118	0xbe55ef08	-0.20891964
119	0xbe54dd7e	-0.20787618
120	0xbe2e98bd	-0.17050453
121	0x3dc55716	0.09635751
122	0x3ee53a5e	0.44771093
123	0xbe4a9ea2	-0.19787076
124	0x3e4a627b	0.1976413
125	0xbe85c3a3	-0.2612582
126	0xbeaae50c	-0.33377874
127	0xbd852aac	-0.0650228
128	0x3e2a516c	0.16632622
129	0x3e893722	0.26799875
130	0xbe3794c6	-0.17927846
131	0x3d804c68	0.06264573
132	0x3e4425fd	0.19155116
133	0x3e477d79	0.19481458
134	0x3e4425ae	0.19154999
135	0x3e2228c4	0.15835863
136	0x3e477e49	0.19481768
137	0x3e2605bc	0.16213125
138	0xbeaf4d04	-0.34238446
139	0xbed1c572	-0.4097095
140	0xbe077398	-0.1322769
141	0xbd09afe8	-0.033615023
142	0xbe3530d3	-0.17694406
143	0x3dd84b8c	0.105612844
144	0x3d706837	0.058693137
145	0xbebbc096	-0.3667037
146	0xbd70bdb8	-0.05877468
147	0xbd48fd50	-0.049069703
148	0x3da363d9	0.07978029
149	0x3d92afcd	0.071624376
150	0xbeccfb1a	-0.40035325
151	0x3e9f5326	0.31118125
152	0xbd08b238	-0.033373088
153	0xbc227e00	-0.009917736
154	0xbe8b81ce	-0.2724747
155	0xbe3e414e	-0.185796
156	0xbdf41c1f	-0.11919426
157	0xbe13d543	-0.14436822
158	0x3e26789d	0.16256948
159	0xbe4afabd	-0.19822212
160	0xbe656c28	-0.2240454
161	0xbe3f26fa	-0.18667212
162	0x3e475573	0.1946619
163	0x3d3b9ce6	0.045803927
164	0xbe18f76c	-0.14938134
165	0x3d802eb8	0.06258911
166	0xbdd73aaa	-0.10509236
167	0xbd84d446	-0.064858004
168	0xbeb70cef	-0.35752055
169	0xbe6f78fa	-0.23385993
170	0xbe140873	-0.14456348
171	0xbd9529e4	-0.07283381
172	0xbc647ca4	-0.013945732
173	0xbd702847	-0.05863216
174	0x3e9b0105	0.30274215
175	0x3e98f877	0.29877064
176	0x3e499d8c	0.19689006
177	0x3c169be0	0.009192437
178	0xbe4c7ef0	-0.19970298
179	0x3e670450	0.22560239
180	0x3d77b6ca	0.060477056
181	0x3dcffc28	0.10155517
182	0xbdf67fe1	-0.1203611
183	0x3d3a2d54	0.045453385
184	0xbe9b2365	-0.3030044
185	0x3ecd9d1a	0.4015892
186	0xbeac02e0	-0.33595943
187	0xbf012017	-0.5043959
188	0xbc209a00	-0.009802341
189	0xbe1fd659	-0.15609111
190	0x3dd38a68	0.10329133
191	0xbde39212	-0.11111845

image_conv.0.bias f4 [16]
0	0xbe812660	-0.2522459
1	0xbe652547	-0.22377501
2	0xbd3de67f	-0.046362396
3	0xbeb055cc	-0.34440458
4	0xbcf21c6c	-0.029554568
5	0xbc974b77	-0.018468602
6	0x3cf13dea	0.029448468
7	0xbe361d88	-0.17784703
8	0xbde5ccfc	-0.11220738
9	0xbeb89bd1	-0.36056378
10	0x3e1f868a	0.15578666
11	0xbeb75d41	-0.35813335
12	0xbddad4b2	-0.106851
13	0xbd83cf9f	-0.06436085
14	0xbe3ef845	-0.18649395
15	0x3d857b29	0.065176316

image_conv.3.weight f4 [32, 16, 2, 2]
0	0xbdaf5db7	-0.085627966
1	0x3e3e8592	0.1860564
2	0x3e0c58da	0.13705769
3	0xbd67b689	-0.056570563
4	0xbe499b2f	-0.19688104
5	0x3e3c22f7	0.18372713
6	0x3e932a2c	0.28743112
7	0xbc86f915	-0.016476193
8	0x3d85fbd8	0.06542176
9	0xbe7e1768	-0.24813616
10	0xbd82026d	-0.06348119
11	0x3e2e57f1	0.17025734
12	0xbe44f002	-0.1923218
13	0x3e48c9dc	0.19608253
14	0xbd04f491	-0.0324598
15	0xbd2bbc5a	-0.041927673
16	0x3db8de17	0.09026735
17	0xbe1158ed	-0.14194079
18	0xbcd0dd5b	-0.025496176
19	0x3d2ee531	0.042699043
20	0x3e48103c	0.19537443
21	0x3e9ff593	0.31242046
22	0xbd45dac0	-0.04830432
23	0xbdcd5af4	-0.100271136
24	0x3d9867cc	0.07441673
25	0xbe9e8492	-0.30960518
26	0xbcb3cb03	-0.02194739
27	0x3dc7da36	0.09758417
28	0xbd749826	-0.059715413
29	0x3e9e7a27	0.3095257
30	0x3de58cc4	0.112084895
31	0xbe89dc7c	-0.2692603
32	0xbdc645c2	-0.09681274
33	0xbc806cbd	-0.01567685
34	0x3dd61fcd	0.10455284
35	0x3ca29ed2	0.019851122
36	0xbdbb46ca	-0.09144361
37	0x3e3db4d8	0.18526018
38	0xba9224a1	-0.0011149832
39	0xbe0bd3cf	-0.13655017
40	0xbd80dfc5	-0.06292681
41	0x3e4fdb70	0.20298553
42	0x3e4c2e24	0.19939476
43	0xbd20d894	-0.039269045
44	0xbcb01964	-0.021496482
45	0x3e35cf5f	0.17754887
46	0x3d3d1bd2	0.04616911
47	0xbdffed40	-0.12496424
48	0x3cf80ae1	0.030278625
49	0xbe80aeea	-0.2513345
50	0xbce145e8	-0.027499154
51	0x3d41b8fc	0.047295555
52	0x3d81c1cf	0.06335794
53	0x3e25ed15	0.16203721
54	0x3a92ab9b	0.0011190058
55	0x3dae6898	0.085160434
56	0xbaf4e5ce	-0.001868421
57	0xbda88b03	-0.082296394
58	0xbcb3c74c	-0.021945618
59	0xbdb5bb06	-0.088735625
60	0x3e6dfb2e	0.23240349
61	0xbe6fe28a	-0.23426262
62	0xbd93a6c2	-0.07209541
63	0xbdf6f35d	-0.120581366
64	0xbd80169d	-0.06254313
65	0x3d334fce	0.04377728
66	0xbe8ed453	-0.27896366
67	0xbcfec47a	-0.031099547
68	0xbcd6c6b9	-0.026217805
69	0xbdb8a923	-0.09016635
70	0xbdfa24e0	-0.122140646
71	0xba8eb820	-0.0010888614
72	0xbe4827e6	-0.1954647
73	0x3d3617f9	0.044456456
74	0xbcb79aca	-0.022412676
75	0x3d851227	0.06497603
76	0xbb34e7a1	-0.0027603882
77	0xbd6b22f7	-0.057406392
78	0xbcc15f40	-0.023604989
79	0x3de2ba24	0.1107066
80	0xbdb94039	-0.090454526
81	0x3d58a25a	0.052889206
82	0xbbad8e51	-0.0052965065
83	0xbd256c5f	-0.040386554
84	0x3da3e9e9	0.08003599
85	0x3e4c59ef	0.19956182
86	0x3c9129d7	0.017720146
87	0xbe2b427e	-0.16724584
88	0xbe447a30	-0.19187236
89	0x3d4bb178	0.049729794
90	0xbc9ec2b4	-0.019379951
91	0xbe11877c	-0.1421184
92	0x3e0cdbca	0.13755718
93	0x3d927821	0.07151819
94	0x3cb12bac	0.02162727
95	0xbea5e4bb	-0.3240107
96	0xbc0e19cc	-0.008673143
97	0x3ae3ad5c	0.0017370391
98	0xbd143f6a	-0.03619329
99	0x3dd1e563	0.1024883
100	0xbe1721e9	-0.1475903
101	0x3d617292	0.055040903
102	0xbd17e86a	-0.03708688
103	0xbde26fb6	-0.110564634
104	0xbe1edadf	-0.1551318
105	0xbde0bd28	-0.10973579
106	0x3db3b5da	0.0877492
107	0xbda3a488	-0.07990366
108	0x3cc295c0	0.023753047
109	0x3e974ca7	0.2955067
110	0x3d4ac2b5	0.049502093
111	0xbde184c0	-0.11011648
112	0xbe0b0487	-0.13575946
113	0xbcee9788	-0.02912499
114	0xbda428e5	-0.080156125
115	0xbb09eba2	-0.002104499
116	0xbc8064bc	-0.015673034
117	0xbdad2064	-0.08453444
118	0xbdc800e0	-0.09765792
119	0xbd666ba7	-0.05625501
120	0xbea1aa22	-0.31575114
121	0xbc99fcc5	-0.018797288
122	0x3d72f70b	0.05931763
123	0x3d7430d8	0.059616894
124	0x3e32c628	0.17458403
125	0xbea6242a	-0.32449466
126	0x3dac6971	0.08418549
127	0xbe37f160	-0.17963171
128	0xbd50710e	-0.050889067
129	0xbe31f49d	-0.17378469
130	0x3d97d821	0.0741427
131	0x3ea813e1	0.32827666
132	0xbdb5d9f8	-0.08879465
133	0xbe653c91	-0.22386386
134	0xbdadfa77	-0.08495038
135	0x3e4ae7a8	0.19814932
136	0x3c43b9d0	0.011946157
137	0xbd7c7898	-0.061638445
138	0x3ce93f1c	0.028472476
139	0xbd5036b9	-0.050833438
140	0xbdf7a6a7	-0.12092333
141	0xbe2af49d	-0.16694875
142	0x3d10c352	0.035342522
143	0x3e7a3d3e	0.24437425
144	0xbcd7193a	-0.026257146
145	0xbeb742cc	-0.3579315
146	0x3d8570f5	0.065156855
147	0x3d6f2c35	0.05839177
148	0x3e1b7fa9	0.15185417
149	0x3de2dcbf	0.1107726
150	0x3d67afdf	0.056564208
151	0x3cae6905	0.021290312
152	0xbd7b537e	-0.06135892
153	0x3df01ef7	0.11724656
154	0x3e6e1e05	0.23253639
155	0x3cd1dc50	0.025617748
156	0x3e008aea	0.12552992
157	0x3e43687a	0.19082823
158	0xbe0c9aaa	-0.13730875
159	0x3c5e23e4	0.013558362
160	0xbca004c8	-0.01953353
161	0xbe6f673b	-0.23379223
162	0xbda2f703	-0.0795727
163	0x3e59d975	0.2127436
164	0x3d6a7240	0.057237864
165	0x3d5c58bd	0.053795565
166	0x3d61fb3f	0.055171248
167	0xbd58285b	-0.05277286
168	0x3bd80464	0.0065923203
169	0x3e5bed6a	0.21477285
170	0x3d8b3e96	0.06799047
171	0x3d6d6704	0.05795957
172	0x3b8ae917	0.0042392123
173	0xbd0a6697	-0.033789244
174	0x3dc8b7e8	0.09800702
175	0xbe4384bf	-0.19093607
176	0xbdfbdd37	-0.12298053
177	0x3d93cb53	0.072165154
178	0x3df9b6b0	0.12193048
179	0x3dfcbd2b	0.123407684
180	0x3d81fbd1	0.06346858
181	0xb9a0ac80	-0.000306461
182	0x3c9d3696	0.019191068
183	0x3d5458e5	0.05184259
184	0x3dde9ccf	0.108697526
185	0xbe132bc2	-0.14372161
186	0x3e259eb5	0.16173823
187	0xbda07395	-0.078345455
188	0xbcb8f0ad	-0.0225757
189	0x3ed193b6	0.40933007
190	0xbcbe7fa8	-0.02325423
191	0x3e9ec927	0.31012842
192	0xbded3e8d	-0.11584196
193	0x3dd69693	0.104779385
194	0x3c7833cc	0.015149068
195	0xbcf6dad5	-0.030133644
196	0x3cc6b456	0.024255913
197	0xbe06a102	-0.13147357
198	0xbd10106c	-0.03517191
199	0xbdf030ba	-0.11728044
200	0x3d8b0551	0.067881234
201	0x3c70f75b	0.014707412
202	0xbbbcff7d	-0.0057677613
203	0x3d8b1104	0.06790355
204	0x3d1bc029	0.038025055
205	0xbd2bdf6c	-0.04196112
206	0x3d7cc1ea	0.06170837
207	0x3e3acf72	0.18243197
208	0xbcc1bc94	-0.023649491
209	0xbd8bb433	-0.0682148
210	0xbcbee8ef	-0.02330443
211	0xbe02fadc	-0.12791008
212	0xbd91547f	-0.070961945
213	0x3e504497	0.20338665
214	0x3d8515fc	0.06498334
215	0x3ea93b5e	0.33053106
216	0xbd068e00	-0.032850266
217	0x3e28f9a0	0.16501474
218	0xbdc21b59	-0.094778724
219	0xbe2d4f3b	-0.16924755
220	0x3e00b82d	0.12570257
221	0xbdf2182c	-0.11821017
222	0x3c58c63b	0.013230856
223	0x3e31424c	0.17310447
224	0x3d239968	0.03994122
225	0xbbe327c5	-0.006932231
226	0x3d53f90c	0.05175118
227	0xbe115b25	-0.14194925
228	0xbce3404c	-0.02774062
229	0xbd6f31b2	-0.058397003
230	0x3d8e9e82	0.06963827
231	0x3e99bec2	0.3002835
232	0xbe9ed15f	-0.31019112
233	0x3d8c8aff	0.06862449
234	0xbe099f61	-0.13439704
235	0x3e5f0d41	0.217824
236	0x3d41edcf	0.047345933
237	0x3e12a133	0.14319305
238	0x3b97e179	0.0046350327
239	0x3d792b3c	0.060832247
240	0xbd306a55	-0.043070156
241	0xbd8962c9	-0.06708295
242	0x3daf26d6	0.08552329
243	0xbb915bb6	-0.0044359816
244	0xbd297f63	-0.04138125
245	0xbd2340a4	-0.039856568
246	0x3d2ea9e9	0.042642508
247	0x3dc0194a	0.093798235
248	0xbde2fecb	-0.11083754
249	0xbe43c1bc	-0.19116873
250	0x3e020484	0.12697035
251	0xbd2bdeba	-0.041960455
252	0x3d9cee6c	0.07662663
253	0xbe87e274	-0.26539958
254	0x3d816001	0.063171394
255	0x3da916a0	0.082562685

image_conv.3.bias f4 [32]
0	0xbd411f80	-0.04714918
1	0xbd9bf714	-0.07615486
2	0xbd50f909	-0.05101875
3	0xbe037856	-0.12838873
4	0xbe4bc6b5	-0.1990002
5	0xbd1e8696	-0.03870257
6	0xbd96d527	-0.07364874
7	0xbb634430	-0.0034678094
8	0x3d0d70c1	0.03453136
9	0x3db63418	0.08896655
10	0xbac08303	-0.0014687482
11	0xbd38cb54	-0.045115784
12	0xbde6d6da	-0.112714484
13	0xbdd244ed	-0.10267053
14	0xbd4e8923	-0.050423753
15	0xbdf29a23	-0.118458055
16	0xbd89c4cf	-0.067269914
17	0x3ca62173	0.020279622
18	0x3d0fef14	0.035140112
19	0xbd4ced27	-0.050030854
20	0xbda7cef6	-0.081937715
21	0x3df1579d	0.11784289
22	0xbd98b2f7	-0.0745601
23	0xbdff8c8d	-0.1247798
24	0xbcdb730b	-0.026788255
25	0xbd235cd8	-0.039883465
26	0xbdb230c3	-0.08700707
27	0xbd1106d2	-0.035406895
28	0xbe3ed13b	-0.18634503
29	0x3c84981e	0.016185816
30	0xbdcd4fcd	-0.100249864
31	0xbd069c92	-0.03286416

image_conv.5.weight f4 [64, 32, 2, 2]
0	0x3e6833bd	0.22675987
1	0xbd860ac9	-0.06545026
2	0x3d73a45d	0.05948292
3	0xbd24749f	-0.04015028
4	0x3e765cb8	0.24058807
5	0x3e2c9b42	0.16856101
6	0x3ce501d5	0.027954975
7	0x3d16b3a3	0.03679241
8	0x3dd483f9	0.10376734
9	0x3e272c80	0.16325569
10	0x3dd10397	0.10205763
11	0xbe6c352b	-0.23067157
12	0x3e30718b	0.17230813
13	0xbdb8d294	-0.090245396
14	0x3e02f047	0.12786971
15	0xbe31d48f	-0.17366241
16	0x3dcd3e23	0.10021617
17	0xbe88c493	-0.26712474
18	0x3e1485e1	0.14504196
19	0xbda00de9	-0.07815153
20	0xbde2e2cc	-0.11078414
21	0xbd0eab85	-0.034831543
22	0xbe86c10f	-0.26319167
23	0x3defb258	0.11703938
24	0xbe0a685a	-0.1351637
25	0xbd48695d	-0.048928607
26	0x3e11618a	0.14197364
27	0x3e0126e3	0.1261249
28	0xbeac1b16	-0.33614415
29	0x3c628319	0.013825201
30	0xbdacfa40	-0.08446169
31	0x3da48035	0.08032266
32	0xbd31628d	-0.043306876
33	0x3e82e404	0.25564587
34	0x3d5d44a4	0.05402054
35	0x3e0098cd	0.12558289
36	0xbd6b4a5f	-0.057443973
37	0xbdcb3e11	-0.099239476
38	0x3d23bb05	0.039973278
39	0xbe530138	-0.20605934
40	0x3d93f0fe	0.072237
41	0x3da9a19a	0.08282776
42	0xbcf69d22	-0.030104224
43	0xbd893956	-0.06700389
44	0xbdb543b0	-0.08850801
45	0x3dc3518a	0.09537037
46	0x3d4e1254	0.050310448
47	0xbcadfe90	-0.021239549
48	0x3c138576	0.009003988
49	0xbd11e50c	-0.035618827
50	0x3a236a89	0.00062338315
51	0xbbdf023f	-0.0068056877
52	0xbe2495c6	-0.16072759
53	0x3eb681ee	0.35646003
54	0xbd982533	-0.0742897
55	0xbe37f981	-0.17966272
56	0xbdde312d	-0.10849223
57	0xbd46ced7	-0.0485371
58	0xbe984cd6	-0.2974612
59	0x3e378d18	0.17924917
60	0x3de1c9e4	0.11024836
61	0xbecd8aab	-0.40144858
62	0xbc97afc7	-0.018516434
63	0xbd9192b4	-0.071080595
64	0xbd23f02c	-0.040023968
65	0xbc56dff0	-0.013114914
66	0x3e3faaa1	0.18717434
67	0x3c45a03c	0.012062129
68	0xbd41a64d	-0.047277737
69	0x3e68acce	0.2272217
70	0x3d1d7396	0.03844031
71	0x3d9dde82	0.077084556
72	0xbe137106	-0.14398584
73	0x3ccd2278	0.02504085
74	0x3e98ec4a	0.29867774
75	0xbe249cab	-0.16075389
76	0xbbd86717	-0.006604086
77	0xbe569ad2	-0.20957497
78	0xbd899166	-0.06717186
79	0xbe020b6c	-0.1269967
80	0x3d57e54c	0.05270891
81	0xbdcd26cb	-0.10017165
82	0xbdeff51b	-0.11716672
83	0xbc3edae8	-0.011648871
84	0x3db95428	0.09049255
85	0xbd99d3cd	-0.07511101
86	0x3d341065	0.043960948
87	0xbd9fa406	-0.07794957
88	0xbc1b09f4	-0.009462822
89	0x3d2723f7	0.040805783
90	0x3d9f7198	0.07785338
91	0xbda5681e	-0.080764994
92	0xbd58d0d2	-0.05293352
93	0xbd9a6ebc	-0.07540652
94	0xbcb017b0	-0.02149567
95	0xbb027e60	-0.001991175
96	0xbd8e6fb6	-0.06954901
97	0xbe20918f	-0.15680526
98	0x3e8832d2	0.26601273
99	0xbc207858	-0.009794317
100	0xbe3f21ef	-0.18665288
101	0x3e9b4b2b	0.30330786
102	0x3d822743	0.06355145
103	0xbe7d875b	-0.24758665
104	0x3c70babf	0.014692961
105	0x3d60b752	0.054862328
106	0x3d937b7d	0.07201288
107	0xbe2890b8	-0.16461456
108	0xbdb26451	-0.0871054
109	0x3d58db0c	0.052943274
110	0x3e2112b0	0.15729785
111	0x3d646612	0.055761404
112	0xbe83afc4	-0.25720036
113	0xbe9dd332	-0.30825192
114	0xbd7631b8	-0.06010601
115	0xbdc912b0	-0.098180175
116	0xbd5c6a30	-0.053812206
117	0xbdb8bf5f	-0.09020876
118	0xbe6d2e32	-0.23162153
119	0x3da800d0	0.0820328
120	0x3d1cc93a	0.038277842
121	0xbd79d38e	-0.06099277
122	0x3d4141c8	0.047181875
123	0xbc90f439	-0.01769458
124	0xbd80d8ab	-0.06291326
125	0x3d97a98e	0.07405387
126	0x3d87c8ca	0.06630094
127	0x3ca16582	0.019701723
128	0xbdad14d4	-0.08451238
129	0x3dea038a	0.11426456
130	0xbdaea519	-0.08527584
131	0x3c554c0a	0.013018617
132	0x3d697076	0.056992017
133	0x3ded8981	0.115984924
134	0xbd6644ab	-0.05621783
135	0x3b672dbf	0.003527507
136	0x3e62261e	0.22084853
137	0xbe8e72de	-0.27822012
138	0x3ddcab87	0.10774904
139	0xbe0f005f	-0.13964985
140	0x3c006864	0.007837389
141	0x3e0794f8	0.13240421
142	0xbdb78e40	-0.08962679
143	0x3dbab770	0.09117019
144	0x3e29e78e	0.16592237
145	0xbe8ec514	-0.27884734
146	0x3e0ef708	0.13961422
147	0x3d577b0c	0.05260758
148	0xbdce680a	-0.100784376
149	0x3d402074	0.04690595
150	0x3de0874e	0.10963307
151	0xbcab0694	-0.02087716
152	0xbbcc08b1	-0.006226622
153	0x3dc1c203	0.09460833
154	0xbd1e88c6	-0.038704656
155	0xbe0ca363	-0.13734202
156	0x3e004797	0.1252731
157	0x3dcb7fd0	0.09936488
158	0x3e1ad73d	0.1512117
159	0xbdd0feda	-0.10204859
160	0xbe15ea4d	-0.1464016
161	0xbe46644d	-0.19374199
162	0x3d05ac60	0.032635093
163	0xbb86ce2f	-0.0041139345
164	0xbe6b0758	-0.2295202
165	0x3d67fe03	0.05663873
166	0xbe866005	-0.26245132
167	0x3e21fb77	0.15818582
168	0xbb9fd32a	-0.0048774676
169	0xbd336409	-0.043796573
170	0xbdb53c96	-0.088494465
171	0xbde1b5b1	-0.11020983
172	0xbdff1bc0	-0.12456465
173	0x3d07362f	0.033010658
174	0xbe13d375	-0.14436133
175	0x3dc73f67	0.0972889
176	0x3d805872	0.062668696
177	0xbb36abd2	-0.002787341
178	0xbccc4455	-0.024934927
179	0xbd3f4dab	-0.04670493
180	0x3d80ff55	0.06298701
181	0x3d937b4e	0.07201253
182	0xbe34129d	-0.17585225
183	0xbe0f029e	-0.13965842
184	0xbcba11a9	-0.0227135
185	0xbcb0bf2e	-0.021575537
186	0x3c35036d	0.01104818
187	0xbd94632b	-0.07245477
188	0xbde88d78	-0.11355108
189	0xbd8a822c	-0.067631096
190	0xbdedda68	-0.11613923
191	0x3c80fa3d	0.015744323
192	0xbe3f5f8e	-0.18688795
193	0xbd66d232	-0.0563528
194	0xbdc6fefa	-0.09716602
195	0x3dc120c2	0.09430076
196	0xbe661626	-0.22469386
197	0x3d8bcfe1	0.06826759
198	0x3c7bbbb4	0.015364576
199	0xbdf81d9c	-0.121150225
200	0xbdca53e9	-0.09879286
201	0xbdb65458	-0.08902806
202	0xbcae4dc6	-0.02127732
203	0x3d2d9a19	0.042383287
204	0x3d01d8c2	0.031700857
205	0xbca89a73	-0.02058146
206	0x3d8fe7b1	0.070266135
207	0x3cecefeb	0.028922996
208	0x3dda5b4d	0.106619455
209	0x3cf225c0	0.029559016
210	0xbdb78b26	-0.08962087
211	0xbca494d1	-0.020090492
212	0x3da4c301	0.080450065
213	0x3cbb0dfe	0.02283382
214	0x3d9cb9fd	0.07652662
215	0x3d1bc079	0.038025353
216	0xbdd23620	-0.1026423
217	0x3b804c1e	0.003915324
218	0xbd70888f	-0.058723982
219	0x3da119f6	0.0786628
220	0xbd83b9c6	-0.06431918
221	0xbc7af386	-0.01531685
222	0x3c14f488	0.009091504
223	0x3d7017fe	0.05861663
224	0xbe61d100	-0.22052383
225	0x3c1e181c	0.009649303
226	0x3d87429b	0.06604501
227	0xbe1ae596	-0.15126643
228	0x3dd0ed85	0.10201553
229	0xbd76a1c3	-0.06021286
230	0xbebd7818	-0.37005687
231	0xbd9ed900	-0.07756233
232	0x3daa330d	0.083105184
233	0xbe3e808b	-0.18603723
234	0xbbb43085	-0.005498948
235	0xbdf0f421	-0.11765314
236	0x3a99d906	0.0011737652
237	0x3d670830	0.056404293
238	0xbe040629	-0.12892975
239	0x3d1c2b6e	0.038127355
240	0xbc7e7947	-0.015531844
241	0x3ea06694	0.3132826
242	0x3de26885	0.11055092
243	0xbe2f0649	-0.17092241
244	0xbbac458b	-0.0052573136
245	0x3e3da914	0.1852153
246	0x3db1dc17	0.08684557
247	0xbda95f13	-0.08270087
248	0xbcd35e79	-0.025801884
249	0x3cb3a211	0.021927865
250	0xbc8d3c23	-0.01724059
251	0xbcc38489	-0.023866909
252	0x3ca314ea	0.019907434
253	0xbcbac213	-0.02279762
254	0xbc9f6aaa	-0.019460041
255	0xbdbd8df8	-0.09255594

image_conv.5.bias f4 [64]
0	0xbcaeeb66	-0.021352481
1	0x3cf90972	0.030400012
2	0xbdb1cdbf	-0.08681821
3	0xbc857eb7	-0.016295774
4	0xbd67f430	-0.05662936
5	0xbdbf9b6e	-0.09355818
6	0x3d4a2693	0.049353193
7	0xbd342d4e	-0.04398852
8	0x3cb61a6d	0.022229398
9	0xbe18e309	-0.14930357
10	0xbd235e50	-0.039884865
11	0x3d8d3d52	0.068964615
12	0x3c921f29	0.017837124
13	0xbe1449d0	-0.14481282
14	0xbd3c1988	-0.045922786
15	0xbc915612	-0.017741237
16	0xbdec5a03	-0.11540606
17	0x3cf94c80	0.030431986
18	0xbc47e337	-0.012200168
19	0xbd8920c7	-0.06695705
20	0xbd9b2e5a	-0.075772
21	0xbda42368	-0.08014566
22	0xbe3f32ba	-0.18671694
23	0xbb0f24ba	-0.002184196
24	0x3ad4a782	0.0016224238
25	0x3c0d6e67	0.008632279
26	0x3df51795	0.119673885
27	0xbd0c7d01	-0.0342989
28	0x3b83d439	0.0040231016
29	0xbe19a769	-0.15005268
30	0x3d1f530d	0.038897563
31	0xbc9a157c	-0.018809073
32	0xbcc51e48	-0.02406229
33	0xbd7e2b04	-0.06205274
34	0x3d4e490c	0.05036263
35	0xbd8ba422	-0.06818415
36	0xbe0eb1a4	-0.13934952
37	0xbdf1a043	-0.117981456
38	0x39c43d6a	0.0003742979
39	0xbd32cd7d	-0.043653
40	0x3d5b986b	0.053612154
41	0x3d630678	0.05542609
42	0xbce79be6	-0.02827258
43	0x3bdec8d0	0.006798841
44	0xbd60bf72	-0.054870076
45	0x3d5cc44c	0.05389814
46	0x3d35e603	0.04440881
47	0x3d37030c	0.04468064
48	0x3b9686a0	0.0045936853
49	0xbdf971c4	-0.12179902
50	0xbe211eab	-0.15734355
51	0xbd9eb2cc	-0.077489465
52	0xb9ce97db	-0.00039404523
53	0xbd49dcde	-0.0492829
54	0xbde842b2	-0.11340846
55	0x3d449be1	0.04800022
56	0xbdafba04	-0.085804015
57	0xbd902026	-0.07037382
58	0xbd5a9e20	-0.053373456
59	0xbd7a2c41	-0.06107736
60	0xbe3374f8	-0.17525089
61	0xbc5271b4	-0.012844492
62	0x3bf4a66d	0.0074661286
63	0xbe014358	-0.12623346

actor.0.weight f4 [64, 64]
0	0x3e3372ff	0.17524336
1	0x3dc780ca	0.097413614
2	0x3d309330	0.04310912
3	0xbd80eaa3	-0.062947534
4	0xbda0b960	-0.078478575
5	0xbcb141ee	-0.021637883
6	0x3ef367b5	0.4754006
7	0x3c39f8a7	0.011350787
8	0xbdf8c748	-0.12147385
9	0x3e019491	0.1265433
10	0x3df91822	0.12162806
11	0xbe878960	-0.26471996
12	0x3ec5b625	0.38615528
13	0xbe0b1bbc	-0.13584799
14	0xbd7f2069	-0.062286768
15	0x3e5c3c89	0.21507467
16	0x3d8ad8f4	0.06779662
17	0x3e404767	0.18777238
18	0xbe970147	-0.29493162
19	0x3cd99cb5	0.026563982
20	0xbd911f39	-0.070860334
21	0x3d794e8a	0.060865916
22	0x3e2da7f8	0.16958606
23	0xbdaed334	-0.085363775
24	0x3d4c7333	0.04991455
25	0x3db31517	0.08744257
26	0x3de50b5a	0.11183806
27	0xbe3942c2	-0.18091872
28	0xbde23de0	-0.11046958
29	0x3e21be0a	0.1579515
30	0xbd4cee43	-0.05003191
31	0xbd861804	-0.06547549
32	0x3da7a964	0.081866056
33	0x3de814fe	0.11332129
34	0xbf0051f7	-0.5012507
35	0xbeb679fe	-0.35639948
36	0x3d3fd91f	0.046837922
37	0xbd48d5ad	-0.049031902
38	0x3d4a670f	0.04941469
39	0x3ab4b4cb	0.0013786791
40	0xbe2d88be	-0.16946694
41	0xbd42a629	-0.047521744
42	0xbd6515a2	-0.055928834
43	0xbdefc4a4	-0.11707428
44	0xbe835206	-0.25648516
45	0x3eabacf1	0.3353038
46	0xbe7d5571	-0.24739625
47	0xbd993f64	-0.07482794
48	0x3e70cfcf	0.23516773
49	0x3cda8cd8	0.026678488
50	0x3e0ad7aa	0.13558832
51	0xbe536846	-0.20645246
52	0x3c96299a	0.018330384
53	0x3e10043c	0.14064115
54	0xbcf38187	-0.02972485
55	0xbe8f7c1f	-0.28024384
56	0x3e982825	0.29718128
57	0xbe8ff21d	-0.28114405
58	0x3d78eb7c	0.06077145
59	0xbe39e277	-0.18152796
60	0xbe91ec90	-0.28500795
61	0x3d290c99	0.04127178
62	0x3ea317ef	0.31854197
63	0xbed4e224	-0.41578782
64	0x3eec81b1	0.46192697
65	0x3ba129ca	0.0049183117
66	0x3c0726aa	0.008248964
67	0x3d53cf30	0.05171126
68	0xbe2e4b20	-0.17020845
69	0x3e0750b4	0.1321438
70	0x3ed7405f	0.420413
71	0xbea49f6a	-0.32152873
72	0xbcd9857d	-0.02655291
73	0x3e11334a	0.14179721
74	0xbcb8b7f4	-0.022548653
75	0xbc4eaebb	-0.012614901
76	0x3e7deb69	0.24796833
77	0xbcfdfea5	-0.031005213
78	0xbdfdbc12	-0.12389387
79	0x3de16708	0.1100598
80	0x3d5cd0d5	0.053910095
81	0x3d8fda61	0.07024074
82	0xbeb606cc	-0.3555206
83	0xbe8ba81b	-0.27276692
84	0x3e031292	0.12800053
85	0x3bbd7944	0.0057822783
86	0xbea5a3b5	-0.3235146
87	0xbddd1f04	-0.107969314
88	0x3e26e94f	0.16299938
89	0x3e1ce3b9	0.15321244
90	0xbc812c9c	-0.015768342
91	0xbdbf988c	-0.09355268
92	0xbe292a39	-0.16520013
93	0x3e2f6068	0.1712662
94	0xbe255569	-0.16145863
95	0x3d754f4e	0.059890084
96	0xbede2273	-0.43385658
97	0xbc7fe3d4	-0.015618283
98	0xbddd0be2	-0.10793282
99	0xbdc10019	-0.09423847
100	0x3e3c3189	0.18378271
101	0x3def4f9e	0.11685108
102	0xbdfc5ca8	-0.1232236
103	0x3e22a6d9	0.1588396
104	0xbdd5edfb	-0.10445782
105	0xbe4f8acf	-0.20267795
106	0xbdac27f1	-0.08406056
107	0xbe5d0ce6	-0.21586952
108	0xbe4b9ec8	-0.19884789
109	0x3e16939d	0.14704747
110	0xbed24770	-0.41070127
111	0xbe21f477	-0.15815912
112	0x3db71e84	0.08941367
113	0xbea6d6bd	-0.32585707
114	0xbd4cf886	-0.050041698
115	0x3d9f1f9a	0.077696994
116	0xbe1b6fe2	-0.15179399
117	0x3d326745	0.043555517
118	0x3cac569e	0.021037396
119	0xbd21f2dd	-0.039538253
120	0x3e327604	0.17427832
121	0xbead0e60	-0.3380003
122	0xbdb2e981	-0.087359436
123	0x3d2eda3b	0.04268859
124	0xbd420c8c	-0.047375247
125	0x3e968e7e	0.29405588
126	0x3e286b73	0.16447239
127	0xbdcabec0	-0.09899664
128	0x3e15030d	0.14551945
129	0xbe21cff5	-0.15801986
130	0x3cbf0390	0.023317128
131	0xbd8cdcca	-0.0687805
132	0xbbd5ee20	-0.006528631
133	0x3e17c7b1	0.1482227
134	0xbdecd7aa	-0.11564572
135	0x3df815d5	0.12113539
136	0x3e8d0dc3	0.27549562
137	0xbe2d02ef	-0.1689565
138	0xbe2cd93b	-0.16879742
139	0x3e3fff61	0.18749763
140	0x3cdacfb7	0.026710374
141	0x3e10057e	0.14064595
142	0x3e5f7107	0.2182046
143	0x3dfbd4c5	0.12296442
144	0xbe3619ba	-0.17783251
145	0xbe371f06	-0.17882928
146	0x3ec7cba8	0.39022565
147	0x3db589cb	0.088641725
148	0x3ab519bd	0.0013816875
149	0xbe920996	-0.28522938
150	0xbdbf37ac	-0.093367904
151	0xbe0599f4	-0.1304701
152	0xbe15a811	-0.14614893
153	0xbe57c05d	-0.21069475
154	0xbbedb8fc	-0.007254718
155	0x3e037679	0.12838162
156	0xbbd9fc30	-0.0066523775
157	0xbce749d8	-0.028233454
158	0x3e9ddd58	0.30832934
159	0xbe070448	-0.13185227
160	0x3d3248eb	0.04352657
161	0xbd123bc5	-0.035701532
162	0x3e833c27	0.2563183
163	0x3e1fb318	0.15595663
164	0xbdd0b765	-0.1019123
165	0xbded311b	-0.11581632
166	0x3ed2bcf9	0.411598
167	0x3e6c4cef	0.23076223
168	0x3d0df79e	0.034659974
169	0x3f00150b	0.5003211
170	0x3db6cc24	0.089256555
171	0x3e17cbd0	0.14823842
172	0x3e736906	0.23770532
173	0x3d0df42c	0.03465669
174	0x3e92eb6f	0.28695247
175	0x3de9637b	0.113959275
176	0xbd248f4c	-0.04017572
177	0x3d9462fe	0.07245444
178	0x3c459a00	0.012060642
179	0x3be7b8d6	0.0070715947
180	0x3e8f5ece	0.28002018
181	0xbe22a2b5	-0.1588238
182	0x3da4f09b	0.08053704
183	0xbe65ddd4	-0.22447902
184	0x3df5dbf3	0.120048426
185	0xbe1f9281	-0.1558323
186	0xbd549703	-0.05190183
187	0xbcebc2a0	-0.028779328
188	0x3de20a4c	0.1103712
189	0x3e73abf1	0.23796059
190	0x3daa0df1	0.0830344
191	0x3e6ffd56	0.23436484
192	0x3dd2c414	0.10291305
193	0x3e2d6c29	0.16935791
194	0x3dc1199c	0.09428713
195	0xbd9b9469	-0.07596666
196	0x3dc3882a	0.095474556
197	0xbd9da596	-0.07697599
198	0x3da1030a	0.07861908
199	0x3b4cda86	0.003125818
200	0xbd973af1	-0.07384289
201	0x3db239a5	0.08702401
202	0x3e476c22	0.19474843
203	0xbe181e07	-0.14855205
204	0x3e38339c	0.17988437
205	0xbe16e078	-0.14734066
206	0xbe0e4fdb	-0.1389765
207	0x3c6e1238	0.014530711
208	0x3e938f54	0.28820288
209	0xbe4413d3	-0.19148187
210	0x3e3b0c10	0.1826632
211	0x3e1d756c	0.15376824
212	0xbdc02f27	-0.093839936
213	0x3e228c5c	0.15873855
214	0xbe2b3432	-0.1671913
215	0xbe093590	-0.13399339
216	0xbd83fae1	-0.06444336
217	0xbe699696	-0.2281135
218	0xbc00380f	-0.007825865
219	0xbc070bcd	-0.00824256
220	0xbc5b88ec	-0.013399344
221	0x3cd05706	0.025432121
222	0xbdcadf1f	-0.09905838
223	0xbdc6be6d	-0.097042896
224	0xbe28c123	-0.16479926
225	0xbcdbe4dc	-0.026842527
226	0xbdfafdae	-0.12255417
227	0x3cfcc70d	0.030856634
228	0xbd8cc3d2	-0.06873287
229	0xbe42c98d	-0.19022198
230	0x3d3f3ac5	0.046686906
231	0xbbc340d3	-0.0059586554
232	0x3e462870	0.19351363
233	0xbd380374	-0.04492517
234	0x3d60cf52	0.054885216
235	0x3da4f1c8	0.080539286
236	0xbdbc1fe6	-0.09185772
237	0xbdc0a54c	-0.09406528
238	0xbd1b1d35	-0.03786965
239	0xbc8a1316	-0.016854804
240	0x3ce85312	0.028359924
241	0xbe31ac8e	-0.1735098
242	0x3d911dd5	0.07085768
243	0x3dcd6a7a	0.100300744
244	0x3ded29ee	0.11580263
245	0xbdf25ac7	-0.11833721
246	0x3e008025	0.12548883
247	0x3da733ce	0.08164178
248	0xbdd58cf5	-0.10427276
249	0x3e3ba273	0.18323688
250	0xbdf5e339	-0.1200623
251	0xbd5dcd94	-0.054151133
252	0x3d0d3fe7	0.03448477
253	0xbbb2a446	-0.005451712
254	0xbdad6aa0	-0.08467603
255	0xbecc127a	-0.39857846

actor.0.bias f4 [64]
0	0x3dc13782	0.094344154
1	0x3d95dc2b	0.07317384
2	0xbd1f3552	-0.03886921
3	0x3d41df84	0.0473323
4	0x3c9eb442	0.019373063
5	0xbcc34a30	-0.023839086
6	0x3d3655aa	0.04451529
7	0x3d75a4e8	0.05997172
8	0x3cb0b1cd	0.021569157
9	0xbd229431	-0.039692108
10	0xbca3ce34	-0.019995786
11	0x3d5f7236	0.05455228
12	0x3b747e36	0.0037306673
13	0xbd9d40d3	-0.0767838
14	0x3be73d39	0.007056859
15	0x3b6afe37	0.003585709
16	0x3c06a0b3	0.008217025
17	0x3d01cdbb	0.03169034
18	0xbd085417	-0.03328332
19	0x3c71171e	0.014714984
20	0xbd4b4c04	-0.04963304
21	0xbcce20b5	-0.02516208
22	0x3c1e33b0	0.009655878
23	0xbc59207d	-0.013252375
24	0x3d75519d	0.059892286
25	0xbcbc1ae8	-0.022962049
26	0x3d8b0695	0.06788365
27	0xbd17d739	-0.037070487
28	0xbc69849e	-0.01425281
29	0x3d903bcc	0.07042655
30	0x3d2f333c	0.04277347
31	0xbb9f85e1	-0.0048682545
32	0xba7e1e6a	-0.0009693863
33	0xbc71bde6	-0.014754748
34	0xbc92ee7f	-0.01793599
35	0xbca21997	-0.019787593
36	0x3d80e1cb	0.062930666
37	0x3cc8be7f	0.024504898
38	0xbc58786a	-0.013212303
39	0xbb58ef09	-0.003310146
40	0x3c4363e7	0.011925674
41	0xbc8f34c3	-0.017481213
42	0x3ca45cf4	0.020063855
43	0xbc05734e	-0.008145167
44	0x3cb5d698	0.022197053
45	0xbd7a5e34	-0.061124995
46	0x3d3e7b6c	0.046504423
47	0x3d782037	0.060577597
48	0xbd49dd00	-0.049283028
49	0x3d67e0c8	0.056610852
50	0xbd7d2234	-0.061800197
51	0x3cd0ece8	0.02550359
52	0x3d862c62	0.06551434
53	0xbc872fa3	-0.016502207
54	0x3d804bb0	0.06264436
55	0xbda75d2d	-0.08172069
56	0x3dadbbce	0.084830865
57	0xbcc4fc3e	-0.02404606
58	0x3d1f3b83	0.038875114
59	0x3d6d46d4	0.057928875
60	0x3cdee48d	0.02720859
61	0x3c8c65ce	0.017138388
62	0xbc49e155	-0.01232179
63	0x3c475976	0.012167325

actor.2.weight f4 [7, 64]
0	0x3e5646c4	0.20925432
1	0x3ebc220e	0.36744732
2	0xbf14cbbf	-0.5812339
3	0x3c7dcc12	0.015490549
4	0x3cab68d1	0.020924004
5	0x3e17e689	0.14834036
6	0x3e338d94	0.17534477
7	0x3e94e2f7	0.2907941
8	0xbc83a924	-0.016071863
9	0xbdc8fb27	-0.098135285
10	0xbe39c354	-0.18140918
11	0xbe1c3360	-0.15253973
12	0xbeb7f1bb	-0.35926613
13	0xb9635656	-0.0002168057
14	0xbdad14c4	-0.08451226
15	0xbf1ad279	-0.60477406
16	0x3e7d412a	0.2473189
17	0x3e8f9635	0.28044286
18	0x3df15646	0.117840335
19	0xbd6f3339	-0.05839846
20	0xbf26783b	-0.6502721
21	0xbe8ed2fa	-0.27895337
22	0x3e29a8a8	0.16568244
23	0x3d103dfe	0.03521537
24	0x3e9f0b0f	0.31063125
25	0x3e30fab9	0.17283143
26	0x3e3cc41c	0.18434185
27	0x3d178e52	0.03700096
28	0xbdf5a216	-0.11993806
29	0x3e595109	0.21222319
30	0xbe188d3b	-0.14897625
31	0xbdc9a5c3	-0.0984607
32	0xbd8210f5	-0.063508905
33	0xbe4582ca	-0.19288173
34	0xbd7da8fe	-0.06192874
35	0xbf1e16c6	-0.617535
36	0xbe0ef376	-0.1396006
37	0x3dceb1f2	0.10092534
38	0x3dc4ddc6	0.096126124
39	0x3db92a36	0.09041254
40	0x3e321f50	0.17394757
41	0xbe8223b3	-0.2541786
42	0x3dbd3b13	0.09239783
43	0x3e81d17a	0.2535513
44	0x3db138cb	0.086534105
45	0xbe3dc91d	-0.1853375
46	0x3e677e3f	0.22606753
47	0x3e981b66	0.29708403
48	0xbd32c7d2	-0.043647595
49	0xbd151058	-0.03639254
50	0xbedcd53a	-0.4313143
51	0xbe4069d2	-0.18790367
52	0xbe67f4cc	-0.22651976
53	0xbd8df6e9	-0.0693186
54	0xbe127916	-0.14304003
55	0xbe24bf52	-0.16088608
56	0x3c94e51b	0.018175652
57	0xbe1ebbf0	-0.1550138
58	0x3e489cf9	0.1959113
59	0xbe359f5c	-0.17736572
60	0x3d7e1498	0.06203136
61	0xbda3f0cb	-0.08004912
62	0x3d39e8d1	0.045388047
63	0xbec4e60f	-0.3845677
64	0x3e644309	0.22291197
65	0x3c90d2c5	0.017678628
66	0xbe6262f3	-0.22108059
67	0x3d59a6e3	0.05313767
68	0x3e3b7b84	0.18308836
69	0xbe12b2c0	-0.14326
70	0x3e959c3e	0.29220766
71	0x3e88645c	0.26639068
72	0xbd89dfa7	-0.067321114
73	0xbdba9d53	-0.091120385
74	0x3e8daf36	0.27672738
75	0x3ec5be45	0.38621727
76	0x3e11933f	0.14216326
77	0xbe4295d0	-0.19002461
78	0xbd504408	-0.05084613
79	0x3e688573	0.22707157
80	0xbc3db008	-0.011577614
81	0x3dc59079	0.096466966
82	0x3e5479a7	0.20749532
83	0xbd541284	-0.05177547
84	0x3dcc9d86	0.09990983
85	0x3da4f37e	0.08054255
86	0xbd8d853f	-0.0691018
87	0xbecb4e82	-0.39708334
88	0x3dd23152	0.10263313
89	0xbe85f7d7	-0.2616565
90	0x3dd96811	0.10615552
91	0xbe535716	-0.2063869
92	0xbda395c5	-0.07987551
93	0x3e97f056	0.2967555
94	0xbcfbb4ba	-0.030725826
95	0xbe3ee79f	-0.18643044
96	0x3d9b30f1	0.07577694
97	0xbe17b056	-0.1481336
98	0xbd9672ba	-0.07346101
99	0xbe1d9b41	-0.15391256
100	0xbe073664	-0.13204342
101	0x3efcb0ee	0.49353737
102	0x3ec58e88	0.38585305
103	0x3e26b9b0	0.16281772
104	0xbd11404c	-0.03546171
105	0x3e187804	0.14889532
106	0x3dad5804	0.08464053
107	0xbd1fe9c6	-0.039041303
108	0xbc3783f4	-0.011200894
109	0xbd0fed6b	-0.03513853
110	0x3cd15fe2	0.025558416
111	0xbe0533c9	-0.13008036
112	0xbd820349	-0.06348283
113	0x3de07a79	0.1096086
114	0x3e5694b3	0.20955162
115	0x3d2bd9a3	0.0419556
116	0xbccd64d4	-0.025072493
117	0x3d259b1c	0.040431127
118	0x3e863855	0.26214853
119	0xbd10baf6	-0.03533455
120	0xbcd2fdfa	-0.025755871
121	0x3c03c2ce	0.0080420505
122	0x3e2de9c3	0.16983704
123	0x3e34b392	0.17646626
124	0xbc931df7	-0.017958624
125	0x3e007567	0.12544785
126	0xbea572a1	-0.32314017
127	0x3eb5e092	0.35522896
128	0xbe58b332	-0.21162108
129	0xbdedf256	-0.116184875
130	0xbd88a6b8	-0.06672424
131	0x3c3eaf6c	0.0116385035
132	0xbe14a285	-0.14515121
133	0x3cf6df23	0.030135697
134	0xbc6af28e	-0.014340056
135	0xbe308aaa	-0.17240396
136	0xbc2e1a20	-0.010626346
137	0x3c167bc5	0.009184782
138	0xbe2d9ec9	-0.16955103
139	0xbda39d16	-0.07988946
140	0x3e2d06aa	0.16897073
141	0x3e6e55ce	0.2327492
142	0x3eaae3f7	0.33377048
143	0xbda9f58f	-0.0829879
144	0xbe45c49f	-0.19313286
145	0xbde9747d	-0.113991715
146	0xbdc27e3e	-0.09496735
147	0x3e3ca9b7	0.18424116
148	0x3e6d892a	0.23196855
149	0xbd1a2115	-0.037629206
150	0xbea32fe9	-0.3187249
151	0x3e16e052	0.14734009
152	0xbe103fe8	-0.14086878
153	0x3ea2e0e2	0.31812197
154	0xbe1d9f8d	-0.15392895
155	0x3dfd7c98	0.1237728
156	0x3e57a229	0.21057953
157	0xbd9b1aff	-0.075735085
158	0xbd29564f	-0.041342076
159	0xbd9aecbe	-0.07564686
160	0xbc9d521f	-0.019204197
161	0xbd190837	-0.03736135
162	0xbd62451c	-0.05524169
163	0x3e25be85	0.16185959
164	0x3d8d9c24	0.06914547
165	0xbd5300e0	-0.051514506
166	0x3e844bb7	0.25839016
167	0xbc8a8679	-0.016909825
168	0xbd3bae94	-0.045820788
169	0xbd30b946	-0.04314544
170	0xbe35ef2e	-0.17767021
171	0xbea6d778	-0.32586265
172	0x3eb9e7f1	0.3630977
173	0x3e2855d8	0.16438997
174	0xbdcafa77	-0.09911054
175	0xbc845f0f	-0.016158609
176	0x3dc2b384	0.09506896
177	0xbe1165a9	-0.14198937
178	0x3e8dee4c	0.2772087
179	0xbd98aa89	-0.07454402
180	0x3cd9faa5	0.026608774
181	0xbe3eeee8	-0.18645823
182	0xbda7dac7	-0.08196025
183	0x3e8145ee	0.25248665
184	0xbe2cf699	-0.16890945
185	0x3deefe04	0.116695434
186	0xbe128a1a	-0.14310494
187	0xbdf1de70	-0.11810005
188	0x3e102f63	0.14080577
189	0xbdc6dd40	-0.09710169
190	0x3d57b6eb	0.05266468
191	0xbd52cc11	-0.051464144
192	0xbe8c0178	-0.2734487
193	0xbe4e75cf	-0.20162128
194	0xbe078f56	-0.13238272
195	0x3d4c9700	0.049948692
196	0x3e1a3cb8	0.15062225
197	0xbe96d6a3	-0.2946063
198	0x3c03190e	0.008001579
199	0xbe1291f4	-0.14313489
200	0x3e6881fe	0.22705838
201	0xbe04c8d3	-0.12967233
202	0xbe81fa14	-0.25386107
203	0x3e3fe1a9	0.18738426
204	0xbe180adf	-0.14847897
205	0x3c9b87fd	0.018985743
206	0xbd297607	-0.041372325
207	0xbe135138	-0.14386451
208	0x3e067ec9	0.13134302
209	0x3e4efc0e	0.20213339
210	0x3e722689	0.23647512
211	0x3d4c86d7	0.04993328
212	0x3d036f70	0.032088697
213	0xbdb4b50f	-0.08823597
214	0x3c027ff0	0.007965073
215	0x3d73ab81	0.05948973
216	0x3e18f494	0.14937049
217	0xbd042060	-0.032257438
218	0x3c0add58	0.008475624
219	0xbe97d8f8	-0.29657722
220	0xbe5038e7	-0.20334207
221	0xbe98dde2	-0.29856783
222	0x3d948a9e	0.07253002
223	0xbe0dd776	-0.13851723
224	0x3d222372	0.039584585
225	0xbeced26e	-0.4039492
226	0xbc453aa1	-0.012037904
227	0xbe09f451	-0.13472106
228	0xbe069f5d	-0.1314673
229	0xbd9bff27	-0.07617026
230	0x3e13b413	0.14424162
231	0xbe1cb6ad	-0.1530406
232	0x3c889ae8	0.016675428
233	0x3dfbc189	0.12292773
234	0xbe6de532	-0.23231962
235	0xbd7fdc4c	-0.06246595
236	0xbe561261	-0.20905448
237	0x3e0e7dc2	0.1391516
238	0xbe45bd0b	-0.19310395
239	0xbd14014d	-0.036134053
240	0xbd9cab47	-0.07649856
241	0xbe91116e	-0.2833361
242	0x3cb67c05	0.022275934
243	0x3d5104e9	0.051030073
244	0xbe0916a1	-0.13387538
245	0x3ca895f2	0.020579312
246	0x3cad1b8e	0.021131303
247	0x3e93b052	0.2884546
248	0xbebb5d8f	-0.36594817
249	0x3d415568	0.04720059
250	0x3e3b47c1	0.1828909
251	0xbd825b6d	-0.06365094
252	0xbd9bc5cb	-0.076060854
253	0x3dd71a7f	0.105031006
254	0xbe777828	-0.2416693
255	0xbe8e38d9	-0.27777746

actor.2.bias f4 [7]
0	0x3b9cb00c	0.0047817286
1	0x3b4ee29a	0.003156817
2	0x3c3a3940	0.0113661885
3	0xbde71faa	-0.11285336
4	0xbd6dae94	-0.05802782
5	0x3d69bf3b	0.057067137
6	0x3d3e7da8	0.046506554

critic.0.weight f4 [64, 64]
0	0x3e68f179	0.22748365
1	0xbef13554	-0.47111
2	0xbde7c6b2	-0.11317195
3	0x3de2cb88	0.11073977
4	0x3d174810	0.03693396
5	0xbc65e188	-0.014030822
6	0xbe0c505e	-0.13702533
7	0x3da46519	0.08027095
8	0x3e1a8a90	0.1509192
9	0xbda476d3	-0.080304764
10	0x3cb21e63	0.021743005
11	0x3df0c9c2	0.11757232
12	0xbda73f01	-0.08166314
13	0x3cba8d49	0.022772448
14	0x3d13c74b	0.036078732
15	0xbcb1ce9d	-0.021704966
16	0x3e57cca2	0.21074155
17	0x3e1759e7	0.14780389
18	0xbce42557	-0.027849836
19	0x3d14d4f8	0.036335915
20	0x3cce02c7	0.025147809
21	0x3ce7c4bf	0.028292058
22	0x3d3f8059	0.04675326
23	0x3d6f3c51	0.05840713
24	0x3e141c36	0.14463887
25	0xbe0f2b32	-0.13981321
26	0x3e0575c6	0.13033208
27	0x3d76d707	0.06026366
28	0xbd47ac12	-0.048748083
29	0xbe6dc239	-0.23218621
30	0xbe67b9e5	-0.22629507
31	0x3eba96cc	0.36443174
32	0xbd656686	-0.056005977
33	0x3d8f430f	0.06995212
34	0x3d05b281	0.032640938
35	0xbe379b5f	-0.17930363
36	0xbe9e8470	-0.30960417
37	0x3cbe36a9	0.023219423
38	0x3da3eb84	0.080039054
39	0x3e96d9a2	0.29462916
40	0xbdf0def4	-0.11761275
41	0xbd8c2612	-0.06843199
42	0x3d1544ff	0.036442753
43	0xbd32a6a4	-0.043615952
44	0x3d067835	0.032829482
45	0xbda5f447	-0.08103233
46	0x3df0f39d	0.117652155
47	0xbc8190c6	-0.015816104
48	0x3df7173a	0.12064977
49	0x3c8e1e2d	0.017348373
50	0x3e627b52	0.22117355
51	0x3e01ef5e	0.12688968
52	0x3e5577f3	0.20846538
53	0xbd9d5946	-0.07683043
54	0x3d259505	0.04042532
55	0xbcebeee0	-0.028800428
56	0xbe1ecb88	-0.15507329
57	0xbea64c48	-0.32480073
58	0xbe0d22b7	-0.13782774
59	0xbe341280	-0.17585182
60	0x3f1f187c	0.62146735
61	0xbc98fd49	-0.018675463
62	0xbd08faa0	-0.03344214
63	0xbcc783be	-0.024354812
64	0xbd026926	-0.03183856
65	0xbdc9551f	-0.09830689
66	0xbeb9c1d6	-0.36280698
67	0xbd58566d	-0.052816797
68	0xbdd60acf	-0.1045128
69	0x3cd3a12d	0.02583369
70	0xbe43d325	-0.19123514
71	0x3e1f1b62	0.1553779
72	0x3e01134f	0.12605022
73	0x3db8f576	0.09031193
74	0xbe18bdd8	-0.1491617
75	0xbd199084	-0.037491336
76	0x3e5a8d68	0.21343005
77	0x3de3ed23	0.111292146
78	0x3e24e568	0.16103137
79	0xbdbdfa56	-0.092762634
80	0x3cb1d3db	0.021707466
81	0x3dd41a0f	0.10356533
82	0xbd7c8d34	-0.0616581
83	0x3e58c6b7	0.21169554
84	0xbc95547e	-0.018228766
85	0x3e01f186	0.1268979
86	0x3c8198ea	0.015819985
87	0x3e0f7454	0.1400922
88	0x3dcfeff3	0.101531886
89	0x3c40c203	0.011765006
90	0xbe653e2d	-0.22387
91	0x3db8d17e	0.090243325
92	0xbd8c7766	-0.06858711
93	0xbe70a58e	-0.23500654
94	0x3e29d4c7	0.16585074
95	0x3deee045	0.1166387
96	0x3c4e00de	0.012573449
97	0xbd254b2c	-0.040354893
98	0xbd3eafaf	-0.046554264
99	0x3d465b59	0.04842696
100	0x3dad0438	0.0844807
101	0x3e130dbc	0.14360708
102	0xbde1e3fc	-0.11029813
103	0x3e450842	0.19241431
104	0xbe0319ce	-0.12802812
105	0x3d0dd1eb	0.03462402
106	0x3d72323d	0.059129942
107	0xbccaaf3b	-0.02474176
108	0x3d7a61ab	0.0611283
109	0x3e046afc	0.12931436
110	0xbdbbd9d6	-0.09172408
111	0xbe1815e0	-0.14852095
112	0xbe30954b	-0.17244451
113	0x3e91fed9	0.28514746
114	0xbdb22a02	-0.086994186
115	0xbda91872	-0.08256616
116	0x3cb60cf1	0.022222968
117	0xbdd01314	-0.10159889
118	0x3d8e2264	0.06940153
119	0xbd9e79ba	-0.07738061
120	0x3bcc938f	0.0062431763
121	0xbc6b51eb	-0.0143627925
122	0xbdf6e507	-0.12055402
123	0x3da6556d	0.081217624
124	0x3ef06cf9	0.4695814
125	0xbd930458	-0.07178563
126	0x3e4cc414	0.19996673
127	0xbe1584bf	-0.1460142
128	0xbd808367	-0.06275063
129	0xbe8fd4a2	-0.28091913
130	0xbd36e272	-0.04464955
131	0xbd94b5f2	-0.07261266
132	0xbdebcb0a	-0.11513336
133	0xbe17133b	-0.1475343
134	0xbd01461f	-0.031561013
135	0x3dfa6f8b	0.122283064
136	0x3daa3116	0.08310144
137	0x3e0a5812	0.13510159
138	0xbdedd552	-0.11612953
139	0xbc5251a5	-0.012836848
140	0x3d5aa982	0.05338431
141	0x3c271e26	0.010200059
142	0xbd9bb68a	-0.07603176
143	0x3c832467	0.016008569
144	0x3ab792b7	0.0014005516
145	0x3e5be3d1	0.21473624
146	0x3d540304	0.05176069
147	0x3e1bc18b	0.1521055
148	0x3d5fa684	0.05460216
149	0x3e3b115f	0.18268345
150	0x3dae9f16	0.08526437
151	0xbe1570af	-0.14593767
152	0x3d06ba8c	0.03289275
153	0x3ce9fede	0.028563913
154	0xbc18535b	-0.009297217
155	0x3d9a7a0d	0.075428106
156	0x3de41899	0.11137504
157	0x3e21e91f	0.15811585
158	0xbdf1bc32	-0.118034735
159	0x3d3e9074	0.04652448
160	0x3d7b0644	0.061285272
161	0x3e0e0e7a	0.1387271
162	0x3c0a1e25	0.008430039
163	0xbd2c739d	-0.042102445
164	0xbe00f25e	-0.12592456
165	0xbb8ba9d7	-0.00426219
166	0xbde73551	-0.11289466
167	0x3de31bc9	0.11089284
168	0xbe162c49	-0.14665331
169	0xbdd0feca	-0.10204847
170	0xbd66f55b	-0.056386333
171	0x3ca95263	0.020669168
172	0xbe20fb50	-0.15720868
173	0x3e44a0dd	0.1920199
174	0x3e510804	0.20413214
175	0x3d2f344f	0.042774495
176	0x3e258482	0.16163829
177	0xbe120614	-0.14260131
178	0x3ca2f04c	0.019889973
179	0x3bfed3a7	0.007776696
180	0xbe7ecd36	-0.2488297
181	0xbba505e0	-0.0050361007
182	0xbe545419	-0.20735206
183	0xbdf5559a	-0.11979218
184	0x3e61d36b	0.22053306
185	0x3b88253e	0.0041548302
186	0x3e121986	0.14267549
187	0xbe241bbc	-0.16026205
188	0xbe7e2b3d	-0.24821182
189	0x3de9c8e3	0.11415269
190	0x3df7e5c4	0.12104371
191	0x3d2b0657	0.041754093
192	0x3d949dc1	0.07256652
193	0xbe3c62bd	-0.1839704
194	0x3efe37e7	0.49652025
195	0xbe499fac	-0.19689816
196	0xbe2e01dd	-0.16992898
197	0xbe0ff2be	-0.14057443
198	0xbd877eb2	-0.06615962
199	0xbd868c11	-0.06569684
200	0x3e60c5d6	0.21950468
201	0x3d54f079	0.051987145
202	0xbd404670	-0.046942174
203	0xbd527c7b	-0.051388245
204	0xbe1a3862	-0.15060571
205	0xbeb75821	-0.35809425
206	0x3e3321ef	0.17493413
207	0xbd3b9d38	-0.045804232
208	0x3d946714	0.07246223
209	0x3d7084ea	0.058720507
210	0x3e1fa920	0.1559186
211	0x3e233a8a	0.159403
212	0x3c8ecaed	0.017430747
213	0xbdcaf048	-0.09909111
214	0xbdd87d7c	-0.10570809
215	0xbb2c9942	-0.0026336466
216	0x3d40c0aa	0.04705874
217	0xbe6c084a	-0.23050037
218	0xbdc49fac	-0.096007675
219	0xbe28f8e1	-0.1650119
220	0xbdf0dfb6	-0.117614195
221	0x3d78476e	0.060614996
222	0xbe0b7455	-0.13618596
223	0x3daaca6a	0.08339389
224	0x3c541863	0.012945267
225	0x3d3d3d7d	0.046201218
226	0xbd677833	-0.056511115
227	0xbe5004c5	-0.2031432
228	0x3eb7f07f	0.3592567
229	0xbdf0577a	-0.11735435
230	0xbdd71436	-0.10501902
231	0x3dd1614e	0.102236375
232	0x3cc12f66	0.023582172
233	0x3d9d602b	0.07684358
234	0x3e7acc16	0.24491915
235	0xbd1ce76b	-0.038306635
236	0xbd8584a4	-0.0651944
237	0x3e8dcde0	0.27696133
238	0xbeb5d26d	-0.35512105
239	0x3c88d7b6	0.016704421
240	0x3db06183	0.08612349
241	0x3e0b2654	0.1358884
242	0x3ca8a8fe	0.020588394
243	0xbe74bb0a	-0.23899475
244	0x3e223a3c	0.15842527
245	0x3cfb7c23	0.030698841
246	0x3d8b3a93	0.067982815
247	0xbd82e9fc	-0.06392285
248	0xbcfc03b7	-0.03076349
249	0xbeb9ed3d	-0.3631381
250	0xbe7e1715	-0.24813493
251	0xbdda773a	-0.10667272
252	0x3e956f82	0.29186636
253	0xbe25a117	-0.16174732
254	0x3cdaa821	0.026691498
255	0xbe0f9b53	-0.14024095

critic.0.bias f4 [64]
0	0x3e41fd3a	0.18944255
1	0x3dc1190c	0.094286054
2	0x3c93d671	0.01804659
3	0xbe69df4a	-0.22839084
4	0x3db41ff8	0.0879516
5	0x3d04291e	0.032265775
6	0x3e423e74	0.18969136
7	0xbe4866ea	-0.19570509
8	0xbe57e7af	-0.21084474
9	0x3db73f71	0.08947647
10	0xbe4ac914	-0.19803268
11	0xbb407c0a	-0.0029370808
12	0x3e63f7dc	0.2226252
13	0xbd95c445	-0.07312826
14	0x3d9dcdaf	0.07705247
15	0x3e339a01	0.17539217
16	0xbe3ca136	-0.18420872
17	0xbe51fd87	-0.2050687
18	0xbd5f6af0	-0.054545343
19	0x3e66a86c	0.22525185
20	0xbe4ca331	-0.19984128
21	0x3d8d41ed	0.0689734
22	0xbdaa4d29	-0.083154984
23	0x3e687dd5	0.22704251
24	0x3ddd0f56	0.10793941
25	0x3c0f2ede	0.008739201
26	0xbe2d972c	-0.16952199
27	0x3d103762	0.035209067
28	0x3e8df11b	0.2772301
29	0xbe7a2590	-0.24428391
30	0xbca2a512	-0.019854102
31	0xbd5f48be	-0.05451273
32	0xbda9dc7c	-0.08294007
33	0xbe7532f1	-0.23945214
34	0xbd9c870e	-0.07642947
35	0xbd6681b6	-0.056276046
36	0x3e4198aa	0.18905893
37	0x3e80afd1	0.25134137
38	0x3e526f91	0.20550372
39	0xbe5a990c	-0.21347445
40	0x3d2ed724	0.042685643
41	0x3cbb4b45	0.02286304
42	0xbe0cf3e7	-0.13764916
43	0xbd4b5553	-0.04964192
44	0x3d270af2	0.040781923
45	0x3dc148bc	0.09437701
46	0xbe200dcb	-0.15630262
47	0x3e12bb7e	0.14329335
48	0xbe5f0c6a	-0.2178208
49	0xbe4342c5	-0.1906844
50	0xbe6c45f7	-0.23073564
51	0x3e5ae951	0.21378066
52	0xbe8793d9	-0.26479986
53	0x3e39252f	0.1808059
54	0x3ca4a983	0.02010036
55	0x3e510b91	0.20414568
56	0x3dd99afc	0.10625264
57	0x3e4fe1f7	0.20301042
58	0x3e1bc64b	0.15212362
59	0xbe38d377	-0.18049417
60	0x3e6f3c7e	0.2336292
61	0x3e16f822	0.14743093
62	0x3d0c9757	0.034324016
63	0xbda4d94e	-0.0804926

critic.2.weight f4 [1, 64]
0	0x3d4513eb	0.0481147
1	0xba59b9ae	-0.00083055615
2	0x3bb32c91	0.005467959
3	0xbd915947	-0.070971064
4	0x3bb195db	0.0054194755
5	0x3b5f1845	0.0034041565
6	0x3d7046fe	0.058661453
7	0xbbdd34c8	-0.006750677
8	0xbd69fb24	-0.057124272
9	0x3a4ba289	0.0007768055
10	0x3b150bd6	0.002274265
11	0xbcc0932b	-0.023507675
12	0x3d809279	0.062779374
13	0xbbe34310	-0.0069354847
14	0x3c3415ea	0.010991553
15	0x3b99091e	0.0046702763
16	0xbc0410e0	-0.008060664
17	0xbd43749d	-0.047718633
18	0xbc36da22	-0.011160405
19	0x3ddde40c	0.10834512
20	0xbc480c66	-0.012209987
21	0xbba014c8	-0.00488529
22	0xbc40b160	-0.0117610395
23	0x3dbd4204	0.09241107
24	0x3b9cec2c	0.004788896
25	0x3a7f4dc2	0.0009739065
26	0xbc3e19f5	-0.011602868
27	0xbac9bab7	-0.0015390728
28	0x3e2ea2a4	0.1705423
29	0xbe0c4cab	-0.13701122
30	0x3c48941a	0.012242341
31	0x3a9998bc	0.0011718492
32	0x3acf23c6	0.0015803508
33	0xbd7bf2c9	-0.061510835
34	0x3a5c17fe	0.0008395909
35	0xb9617b9a	-0.00021503717
36	0x3bc9e8fd	0.0061618076
37	0x3d8ec46d	0.06971059
38	0xbb8d427c	-0.004310904
39	0xbd93ba1a	-0.072132304
40	0xbb0ef566	-0.002181375
41	0xbac76c5e	-0.0015214791
42	0xbb004da2	-0.0019577523
43	0x3b766a0c	0.003759983
44	0x396e428a	0.00022722236
45	0x3b86f8ea	0.0041190283
46	0xbbfa79a8	-0.007643897
47	0x3c5fc307	0.013657338
48	0xbb9a9335	-0.0047172555
49	0xbd019d94	-0.03164442
50	0xbddab167	-0.10678368
51	0x3d6fd5d8	0.058553547
52	0xbe6d8843	-0.23196511
53	0x3b93bcac	0.0045085754
54	0xba865942	-0.001024999
55	0x3da1f958	0.07908887
56	0xbb52e620	-0.0032180622
57	0x3d196c7f	0.037456986
58	0x3c9ae0df	0.018906055
59	0xbc982b47	-0.018575324
60	0x3d86bc8a	0.0657893
61	0x3cb77bc5	0.022397885
62	0x3bd842bc	0.006599752
63	0xb941c8fa	-0.00018480784
