policy-consolidation/_oldmodels/test_cascade_4_frames_1024_clip_impsampling_2M/status.pt (torch, 595539 bytes, 95 tensors)

image_conv.0.weight f4 [16, 3, 2, 2]
000000 b3 86 d6 3e 27 f8 2c be b7 7b 90 bd e4 0a 2c 3d
       0.41899642 -0.16891538 -0.07054847 0.042002574
000010 f9 44 94 be 36 9c 66 3e 05 56 67 be af ce 92 3d
       -0.28958872 0.22520527 -0.22591408 0.07168328
000020 20 60 24 3d 90 c7 10 bd 44 fa a3 3d 80 52 69 3c
       0.040130734 -0.035346568 0.08006719 0.014240861
000030 c2 7a 6e 3d 9d a5 52 be eb 3c 07 be 93 af 82 be
       0.05822254 -0.20570989 -0.13206832 -0.25524577
000040 97 76 96 3b 7d 9d 15 3e b3 b8 31 3e 4e ca 13 3d
       0.0045917737 0.14610858 0.17355613 0.036081605
000050 48 2b dc bd 72 88 32 be e4 30 46 bd f2 02 ff bd
       -0.10750443 -0.17434862 -0.04838647 -0.12451734
000060 20 fc 5b be ee 8f 38 be dd d2 89 3e da cf cf bd
       -0.21482897 -0.18023655 0.26918688 -0.101470664
000070 2c c8 c4 be c3 d4 92 3d 13 07 30 bd a0 76 87 3d
       -0.3843397 0.07169487 -0.042975497 0.06614423
000080 aa 1d 43 3e ec aa 86 be f4 87 8c be 38 94 0e be
       0.19054285 -0.26302278 -0.27447474 -0.13923728
000090 be 4d a5 ba c8 92 92 be 6f ef 9f 3d 80 b1 91 be
       -0.001261167 -0.2862761 0.0780934 -0.28455734
0000a0 fd bb a7 3e 2b dc 90 be df 4a 00 3e 20 28 c8 bc
       0.3276061 -0.28292975 0.12528561 -0.024433196
0000b0 9f ba 1b be ca f1 17 3e 86 e9 1c be 6c e0 ad 3d
       -0.15207909 0.14838329 -0.15323457 0.08490071
0000c0 81 f1 0d be e2 e6 54 bb 31 02 be be ef f6 72 be
       -0.13861658 -0.003248625 -0.37111047 -0.2372701
0000d0 e9 cc cf 3d b8 bf 2e be 01 72 89 3e 84 6c 8b 3e
       0.101465054 -0.17065322 0.2684479 0.27231228
0000e0 a0 75 5d bc 6b 4f 45 be e2 02 34 3e 34 7c b7 3d
       -0.0135168135 -0.19268577 0.17579225 0.08959237
0000f0 00 5d 6f be b4 06 9c 3e 4e e2 3e 3e 56 5d 06 3e
       -0.2337532 0.30473864 0.18641016 0.13121542
000100 8e c7 e9 bd e6 2d ef bd f6 6c 23 3d 40 82 54 be
       -0.11415015 -0.11678676 0.039898835 -0.20752811
000110 ba 56 60 be 49 c4 51 be 40 cf 20 3e 1a a2 8a bd
       -0.21908084 -0.20485033 0.1570406 -0.067692
000120 a3 25 77 3d 8e 06 8f be 9f 13 58 3d 08 81 ce bc
       0.060338628 -0.27934688 0.052753087 -0.025208011
000130 ed 34 76 3e 71 3c 3e be 95 8d b6 be 03 aa 8b 3d
       0.24043627 -0.18577744 -0.35654894 0.068195365
000140 77 d8 4f be 0e 09 5f be c0 d0 8f 3c e0 7d 49 bd
       -0.20297419 -0.21780798 0.017555594 -0.04919231
000150 f4 36 54 3e ef a5 3d be fe 83 90 be 6b 22 e9 3e
       0.20724088 -0.1852033 -0.28225702 0.4553407
000160 df ec 2c bd ec 1c ee 3d 47 4b da bc b0 28 7d be
       -0.042218085 0.1162661 -0.026647223 -0.24722552
000170 78 8b 6d 3d 7c 01 8e 3d 7c ec 45 be 6e 41 0c be
       0.057994336 0.06933877 -0.19328493 -0.13696834
000180 76 66 7b bd f4 e7 32 be b1 1b 82 be 4a c6 4f be
       -0.06137701 -0.17471296 -0.25411752 -0.20290485
000190 a6 9a 54 3e 01 55 3b bc a0 82 9c 3d 42 91 3e 3e
       0.20762119 -0.011433841 0.07642102 0.18610099
0001a0 82 14 3f be ca 63 7b be 86 df 8d 3e a0 f7 76 3c
       -0.18660167 -0.24549785 0.27709597 0.015073687
0001b0 b2 f8 1b 3e 40 76 77 3c 13 f5 ae bd 5e 6d 07 3e
       0.15231588 0.015103877 -0.08542838 0.13225314
0001c0 76 67 3a 3e 6f 6b 81 be f0 32 51 be 9a 49 b6 3d
       0.1820353 -0.25277278 -0.20429587 0.08900757
0001d0 3a 25 56 3e e2 a3 37 3e 08 ef 55 be 7e dd 54 be
       0.20912638 0.1793361 -0.20891964 -0.20787618
0001e0 48 10 5b be 75 5e 37 3e e5 d9 d1 3e 3e 04 6e be
       -0.2139293 0.17907126 0.40986553 -0.23243806
0001f0 77 99 40 3e 84 05 7e be 10 df 8c be 05 85 07 be
       0.18808542 -0.24806792 -0.27513933 -0.13234337
000200 6c 51 2a 3e 22 37 89 3e c6 94 37 be 68 4c 80 3d
       0.16632622 0.26799875 -0.17927846 0.06264573
000210 96 78 06 3e 85 50 b2 3e ab d9 38 3e a4 91 84 3e
       0.13131937 0.34827057 0.18051784 0.25892365
000220 11 a7 21 3e b1 41 e5 3d b4 9a a8 be 2b c3 02 bf
       0.15786387 0.1119417 -0.3293053 -0.5107905
000230 98 73 07 be e8 af 09 bd d3 30 35 be 8c 4b d8 3d
       -0.1322769 -0.033615023 -0.17694406 0.105612844
000240 50 a2 38 bd 00 6b 4a be 49 16 04 bd d4 d9 b3 bd
       -0.04507667 -0.1976738 -0.032247815 -0.08781782
000250 d5 d3 78 bc b6 f6 54 3e e1 be 9a be 66 24 4a 3e
       -0.015187223 0.20797238 -0.30223754 0.19740447
000260 38 b2 08 bd 00 7e 22 bc ce 81 8b be 4e 41 3e be
       -0.033373088 -0.009917736 -0.2724747 -0.185796
000270 c9 1e 13 be 2b 6b 68 be 18 75 3f 3e 62 f2 49 be
       -0.14367212 -0.22697131 0.18697011 -0.19721368
000280 a2 9c 11 be ae 91 63 3d a0 28 c9 3d 90 3b d9 3d
       -0.14219907 0.055558853 0.09822202 0.10607064
000290 6c f7 18 be b8 2e 80 3d aa 3a d7 bd 46 d4 84 bd
       -0.14938134 0.06258911 -0.10509236 -0.064858004
0002a0 a8 a1 ad be 00 c7 96 be 05 5c b5 bd 03 cd b6 bc
       -0.33912396 -0.294487 -0.08855442 -0.022314554
0002b0 f0 14 ac bd 99 b2 cd bd f1 f4 a7 3e 24 ce 5a 3e
       -0.08402431 -0.100438304 0.32804063 0.21367699
0002c0 8c 9d 49 3e e0 9b 16 3c f0 7e 4c be 50 04 67 3e
       0.19689006 0.009192437 -0.19970298 0.22560239
0002d0 13 b5 85 bc a3 71 e0 3d 44 aa 42 bd 76 da b0 bd
       -0.016321694 0.109591745 -0.04752566 -0.08635418
0002e0 0a 94 b8 be a8 4c dd 3e 12 b4 a9 be 04 72 ea be
       -0.36050445 0.43222547 -0.33145195 -0.45790112
0002f0 00 9a 20 bc 59 d6 1f be 68 8a d3 3d 12 92 e3 bd
       -0.009802341 -0.15609111 0.10329133 -0.11111845

image_conv.0.bias f4 [16]
000000 79 ac 55 be e3 6f 18 be 00 89 72 bc b7 1f a5 be
       -0.20866574 -0.14886431 -0.014803171 -0.3225076
000010 24 61 d2 bd 62 bb 62 3c d8 6f d4 3c 76 f3 2a be
       -0.10272434 0.013838621 0.025932238 -0.16694435
000020 67 ac 21 be 3d 20 d2 be e3 22 b7 3d e6 fe 96 be
       -0.15788423 -0.4104022 0.08942201 -0.29491347
000030 e3 16 63 bd 5d ee a5 bd f6 b4 15 be e1 0b 98 3c
       -0.05544175 -0.08102105 -0.14619812 0.018560352

image_conv.3.weight f4 [32, 16, 2, 2]
000000 01 31 ba 3c 87 6c 51 3e a0 67 53 3c 70 e4 0d 3e
       0.022728445 0.20451556 0.012903124 0.13856673
000010 20 31 1e bf 9c a7 27 3d b8 40 40 bc 87 5e 45 bc
       -0.6179371 0.04093133 -0.01173418 -0.012046463
000020 9f 2a 96 3d 30 3a c6 bd c0 81 7a bd 35 98 10 3d
       0.07332348 -0.09679067 -0.061158895 0.035301406
000030 dd 6c c5 be fb de 61 3e c8 1b 08 be 58 a4 d0 bd
       -0.3855962 0.22057717 -0.13291848 -0.10187596
000040 02 08 8f bd 08 0b 5b be 88 46 57 be 91 e9 1a bb
       -0.06983949 -0.21390927 -0.21023 -0.0023637752
000050 8c f3 0d 3d 0a 3b 3f 3e a6 fb 4e be ba fd 2f be
       0.034656093 0.18674865 -0.20213184 -0.17186633
000060 e6 1f f1 3d e8 43 39 3e 05 71 fc bd b1 56 ac bd
       0.11773662 0.1809231 -0.12326244 -0.084149726
000070 ea d1 06 bd 75 51 0b 3e 42 b3 f3 bd 1b f8 c4 bd
       -0.032915033 0.13605292 -0.11899425 -0.09617635
000080 85 83 20 be d8 48 21 bb 23 86 b9 bd 46 52 42 3c
       -0.1567517 -0.0024610069 -0.09058788 0.011860436
000090 a9 5f 33 be 12 3d bd 3c cf 72 7a be 33 3b 5a be
       -0.1751696 0.02310041 -0.24457859 -0.21311645
0000a0 e0 d2 f3 bd 61 a5 87 3e 8e c6 a9 3c 48 01 5c be
       -0.119054556 0.26493362 0.020724561 -0.21484864
0000b0 b1 1c 1d bd 18 76 08 3e f6 1e ce bd 07 a5 4b be
       -0.03835744 0.13326299 -0.10064499 -0.19887172
0000c0 61 cf a7 3d 39 05 9c 3d 86 f7 45 bc 33 e1 b7 bc
       0.08193851 0.07618184 -0.01208294 -0.02244625
0000d0 64 9b 95 3d b7 f7 df 3d 36 17 31 be 02 cf 4b 3d
       0.07305029 0.1093592 -0.1729401 0.049757965
0000e0 2f a9 7f 3d 4b 6e cd bd fd 66 9a bd e4 3e 30 be
       0.062417205 -0.10030802 -0.07539175 -0.17211491
0000f0 38 90 dd 3c d8 18 85 3e 61 25 14 bd 4f d2 6b 3d
       0.027046308 0.25995517 -0.03616846 0.057573613
000100 5c d9 2d be 74 17 91 3d 67 6e 60 be 47 78 24 3c
       -0.16977447 0.070845515 -0.21917115 0.010038442
000110 65 84 ac bd 65 7d d0 bd 15 cb da bd bd e3 5d 3d
       -0.0842369 -0.10180167 -0.10683266 0.054172266
000120 70 98 1b be 5b 12 92 3d 72 4b 80 3c 8d 7a bc 3d
       -0.15194869 0.07132407 0.015660975 0.09203062
000130 9c b2 64 bd 05 1b 3f be 5a 77 d9 bd cb d3 38 3e
       -0.055834398 -0.18662651 -0.10618468 0.18049543
000140 c2 46 88 bd 71 6d f6 ba 88 c0 3f bd f2 f3 db bd
       -0.06654121 -0.0018800927 -0.04681447 -0.10739888
000150 54 b1 97 bb c2 e2 9a 3d 1b 49 9e bd a7 31 9c be
       -0.0046292935 0.07562782 -0.077287875 -0.30506632
000160 73 13 bd bd 90 44 5e be 79 98 c3 bd 98 10 3a be
       -0.09232225 -0.21705842 -0.09550566 -0.18170393
000170 20 50 5b bd 9b d8 ea 3d fb a1 10 bd d8 38 91 be
       -0.05354321 0.114670955 -0.035310727 -0.2836368
000180 e2 56 a8 bd 2a b7 01 be af ba 23 be 87 b8 84 3d
       -0.082196966 -0.12667528 -0.15989183 0.06480508
000190 20 f6 15 bc cd 5d 1d 3d 75 9e 39 bd 62 fe 95 bd
       -0.009152919 0.038419534 -0.045317132 -0.0732391
0001a0 b3 7f e7 bd 89 0b 00 be 7f d0 6e 3d cd 6b 8a be
       -0.113036536 -0.125044 0.058304306 -0.2703537
0001b0 63 20 91 bd 69 8c f1 3d 15 51 05 bd 88 ec be bc
       -0.070862554 0.11794359 -0.03254803 -0.023306146
0001c0 c0 36 2a be 83 cd 88 3b 43 4b 3f be 18 c0 b5 3b
       -0.16622448 0.0041748895 -0.18681054 0.005546581
0001d0 37 93 72 3c 8f ee ec bd 16 1a 02 be 5a 75 56 bd
       0.014805607 -0.11568939 -0.12705263 -0.05235801
0001e0 62 23 27 be 30 d7 e2 bd 0e 61 bf 3c e5 1f 10 be
       -0.16322091 -0.110762 0.023361709 -0.14074667
0001f0 19 e4 f3 3d 33 70 4a be 73 f6 b1 bd 29 90 09 be
       0.119087406 -0.19769363 -0.086895846 -0.13433899
000200 76 9b 4f be 14 82 72 be 98 b1 29 b8 82 40 12 3d
       -0.20274147 -0.23682433 -4.0458137e-05 0.03570605
000210 5a 11 d2 3c a1 1c 99 be 43 e7 41 bd 50 80 52 3e
       0.02564304 -0.29904655 -0.04733969 0.2055676
000220 d1 cd 3c bd 5c cd f8 bc e9 42 ef 3b 00 a5 03 3b
       -0.04609472 -0.03037136 0.0073016775 0.0020087361
000230 01 df da bd 8a a8 79 bd 22 2a 0a 3e 38 4c bf 3d
       -0.10687066 -0.060951747 0.13492635 0.093407094
000240 2a 01 0a 3d 2e f9 0d be 43 f6 4a 3e d8 7b 8b 3e
       0.033692516 -0.13864586 0.19820504 0.27242923
000250 d9 ba c8 3d 8f c3 d0 3d d4 b5 8d 3d 25 57 ed bc
       0.09801263 0.1019355 0.069194466 -0.028972218
000260 e7 98 37 be 72 49 81 bd 4a 11 9e 3d 31 d7 ea bd
       -0.17929421 -0.06312837 0.077181414 -0.11466826
000270 61 44 70 bd 48 24 87 3d cc bf 01 be af 56 a2 bd
       -0.05865896 0.06598717 -0.12670821 -0.0792669
000280 3e 89 84 bc 10 3b 44 be 2c bd 3b bc 21 60 61 3e
       -0.016178723 -0.19163156 -0.011458676 0.22009327
000290 8e 85 6b 3d 91 34 eb bc 26 de 00 3e 0c 88 49 3d
       0.057500415 -0.028711589 0.12584743 0.04920201
0002a0 3e b9 42 be 38 30 83 3e 9b 80 c5 3d 01 e6 72 be
       -0.19015977 0.25622725 0.0964367 -0.23720552
0002b0 7d 62 6a 3b 04 ed 30 be 40 2a 0e 3e e5 3e 11 be
       0.003576427 -0.17277914 0.13883305 -0.14184149
0002c0 45 ef 00 be bc 77 b9 bd b6 c0 8c 3b 4b 71 b1 3d
       -0.12591274 -0.09056041 0.004295434 0.08664187
0002d0 03 2a 02 bd a0 4e 25 bc 72 44 e6 3d c3 db 16 3e
       -0.031778347 -0.010089546 0.11243524 0.1473227
0002e0 96 ea f1 bc 3d a3 8f bd 51 52 56 3e b4 28 19 3e
       -0.029530805 -0.07013557 0.20929839 0.14956933
0002f0 04 a0 71 3e a0 55 98 3e bc 61 6f 3e c1 20 18 be
       0.23596197 0.29752827 0.23377126 -0.14856245
000300 90 b5 cf bd 87 81 48 3d 64 9b 20 bd 73 05 ec bd
       -0.10142052 0.048951652 -0.039210692 -0.11524477
000310 0a 00 4e bd 07 05 21 be 04 df c3 bd 8f 71 b8 bd
       -0.050293006 -0.15724574 -0.09564021 -0.090060346
000320 58 f1 3f 3d ec 1d 56 bd af f6 85 bd a2 67 46 3c
       0.046861023 -0.05227463 -0.06541192 0.012109669
000330 e8 ac 01 3d 7e 1e 1e be 44 a5 67 3c 2c 90 f5 3c
       0.031659037 -0.1544132 0.0141385235 0.029975973
000340 a2 9d 08 be d4 8b 76 3d 2c a4 c4 bd c6 fc 97 bd
       -0.13341382 0.060191944 -0.09601626 -0.074212596
000350 43 3a 10 be 48 23 92 3d 96 81 6b bc 89 aa 68 3d
       -0.14084725 0.071356356 -0.014374157 0.05680326
000360 af 3c 10 bd 8b 06 ab 3c 0f 7e a4 bd 36 2e 1a be
       -0.035214122 0.020877143 -0.08031856 -0.1505669
000370 92 14 a1 3c 94 c6 86 bd 62 7a 28 bd bb 3c 75 bd
       0.019663129 -0.065808445 -0.04113234 -0.05987237
000380 e4 d9 a7 bc b5 14 29 bc 46 85 db 3c 68 96 16 be
       -0.02048964 -0.010319878 0.026796948 -0.14705813
000390 e8 96 51 3d 52 89 10 bd 94 c5 7a 3d 09 8b 98 3d
       0.051169306 -0.03528721 0.06122358 0.07448394
0003a0 c5 12 15 be 4e da a8 3d 2c 07 2e be b7 4d 08 3d
       -0.14557941 0.08244763 -0.16994923 0.03327724
0003b0 96 8c 9b bc 9c 51 0d 3c 9d 10 c0 bd a2 c6 f9 3c
       -0.018987935 0.008625414 -0.09378169 0.030490223
0003c0 56 24 d5 bd eb 30 23 be c0 7c 94 3a 24 19 a2 3c
       -0.10407321 -0.1593663 0.0011328682 0.019787379
0003d0 c0 f5 cb 3d 4d 83 9f bc 3d 74 b9 3d 2a 3c 14 3d
       0.099589825 -0.019471789 0.09055374 0.03619019
0003e0 ac 67 bb bd e2 4b 02 be ce 21 44 3d da 21 df bd
       -0.09150633 -0.1272426 0.0478838 -0.108951285
0003f0 58 67 c1 3b c1 ed eb bd ef 85 89 3d 9f b7 b8 3c
       0.005902212 -0.11519957 0.06714999 0.022548495

image_conv.3.bias f4 [32]
000000 a5 25 9b bd b9 db 3f bd 14 60 8f 3d b0 ce ee bd
       -0.075755395 -0.046840403 0.07000747 -0.11660516
000010 47 cb d5 bd e1 79 40 bd 52 09 96 bd ce fb 5d bd
       -0.10439163 -0.046991233 -0.073259965 -0.054195218
000020 b6 c1 d8 bc b1 b9 22 3e 73 bb f9 bc 29 78 ba bd
       -0.026459556 0.15891148 -0.03048489 -0.0910495
000030 8e 15 cc bd 1d b4 42 bd 29 c4 5e bd 5f a2 db bd
       -0.09965049 -0.04753505 -0.05438629 -0.10724329
000040 7e 51 71 3c 6e a2 09 3c 3b af cf 3c 01 4e db bd
       0.014728902 0.008400543 0.025352111 -0.107082374
000050 f1 8e a3 bd 4e 01 d1 3c 61 69 54 bd 30 c6 10 be
       -0.07986248 0.025513317 -0.05185831 -0.14138103
000060 4a 71 0e bd cc 88 6e bd 2c 8c 8e bd d9 0c 86 bd
       -0.03477601 -0.05823593 -0.069603294 -0.06545419
000070 7e 50 0f be 70 f2 2b bc 45 80 e3 bc 39 52 15 3d
       -0.13995549 -0.010494813 -0.027771125 0.036455367

image_conv.5.weight f4 [64, 32, 2, 2]
000000 70 53 f0 3d c7 6c 1c be 27 91 4c 3d 8e 98 63 be
       0.117346644 -0.1527587 0.049943116 -0.22226164
000010 6a b6 cf 3d ce ef c8 bc 74 f2 00 ba 89 d0 07 bd
       0.101422146 -0.02452841 -0.0004918941 -0.03315786
000020 3a 0c 13 be b5 30 44 be b9 d1 3d 3e 92 9e d7 bc
       -0.14360133 -0.19159205 0.18537034 -0.02632073
000030 88 7f 5e 3d ab 52 50 bd 07 3b ae 3d 64 26 d4 bd
       0.054320842 -0.05086009 0.08507352 -0.10358885
000040 2a 04 1b be be f3 b6 bd ab ca ce bd 35 72 bf 3c
       -0.15138307 -0.08933209 -0.100972496 0.023369888
000050 31 94 46 bd 63 ed 8b bd 12 ad 8b bd c8 03 84 3d
       -0.04848117 -0.06832387 -0.0682012 0.06446034
000060 dc 21 df bd 3a f2 a4 be 1f d9 ee 3d 92 a0 cf bd
       -0.1089513 -0.32216054 0.11662506 -0.10138048
000070 1e 27 90 bd c8 37 c5 3c e4 df 9a 3c db 23 a6 3d
       -0.07038711 0.02407445 0.018905587 0.08112308
000080 85 83 a3 3b b5 73 74 bc 78 6b f9 bc ed d7 0d 3d
       0.0049900436 -0.014920165 -0.030446753 0.03462975
000090 df 6e 6a 3d 54 1c 99 be b1 93 c0 bd 00 50 00 3e
       0.05723464 -0.29904425 -0.0940317 0.12530518
0000a0 ac a9 bf bd 2c b3 28 3e 44 fb 23 3c a5 f9 75 be
       -0.09358534 0.16474599 0.010008637 -0.24021013
0000b0 36 a7 77 3b 85 ea 40 3d 0c 8f b4 3d 77 bf 2e 3d
       0.0037788874 0.047098655 0.088163465 0.042663064
0000c0 2a 5b bc bd 89 9a 1b bd 38 db 6e 3d a9 4a 39 3d
       -0.09197076 -0.037989173 0.058314532 0.045237217
0000d0 87 dc bb be ae 6e ff 3d 66 6b 18 3e 8f 5c 18 be
       -0.36691687 0.12472282 0.14884719 -0.14879058
0000e0 bb b9 69 3d 52 01 99 bd e2 34 63 3c 6b eb b4 3d
       0.057061892 -0.07470955 0.013867589 0.08833965
0000f0 33 76 21 3e 6e dc 5e bd c2 ba 76 bd 49 8b 38 be
       0.15767746 -0.054409437 -0.0602367 -0.18021883
000100 61 99 58 be a9 c4 50 3d 22 c5 8b 3b b0 b7 5b 3d
       -0.2115226 0.0509688 0.0042654434 0.053641975
000110 ed 4c c2 3d 35 79 2c bc 1e 06 12 be 01 d1 aa be
       0.09487329 -0.010526945 -0.14260146 -0.33362582
000120 58 05 d6 3d 33 41 bf be 5a 39 4b 3e 1b 2e df bc
       0.10450238 -0.3735443 0.19846097 -0.027243664
000130 f9 4a 2d bd f7 c1 00 be bf af 17 3d eb 1b 13 3e
       -0.042307828 -0.12573992 0.03703284 0.14366119
000140 3b bb b9 3d 4b eb a2 bd df 78 70 bd fa da c5 bb
       0.090689145 -0.07955035 -0.05870902 -0.006038067
000150 ad cb aa 3d 7a ae 61 3c da 07 22 3d fe 85 98 3c
       0.08339629 0.013774509 0.03955827 0.01861858
000160 a3 7c 86 bc 1d b7 de 3d dc 24 67 3d ba ae b4 bd
       -0.016416853 0.1087477 0.056431636 -0.08822389
000170 77 23 89 be 0d 70 07 bd e2 c5 1f 3d 6f 08 9b 3c
       -0.2678487 -0.033065844 0.039007075 0.01892492
000180 54 b3 f7 3c 69 42 ed be d2 10 ce b9 12 1f cf bc
       0.030236878 -0.4633973 -0.00039303914 -0.02528337
000190 7c fd 6c bc c7 43 84 3a 9b c1 3f 3d 1e dc aa bd
       -0.014464732 0.0010091 0.046815496 -0.08342765
0001a0 85 48 64 bd 40 da 04 3b 47 69 f2 3c 80 2d 2e bd
       -0.055733223 0.0020271689 0.029591216 -0.04252386
0001b0 40 e7 bc 3d 58 5d b3 bd b4 91 51 bd 2e 85 9e 3b
       0.09223795 -0.08758038 -0.051164344 0.0048376536
0001c0 16 2f a6 bc d1 fa 3c 3d 3f a8 2a 3d 70 d5 2a 3d
       -0.020286124 0.046137635 0.04166436 0.041707456
0001d0 45 6c 5e 3d d0 0f 9f bd a9 c9 97 bd fb 28 df 3b
       0.054302473 -0.07766688 -0.074115105 0.006810305
0001e0 73 a3 c3 3d 7a 67 d6 bd 0f 76 03 3e ee 0b 08 be
       0.0955266 -0.10468955 0.12838005 -0.13285801
0001f0 42 0a 46 be 95 0f 06 3e 6e af 5b bd ad 9b 20 3d
       -0.1933985 0.13091882 -0.0536341 0.039210964
000200 b4 ab 8e 3d 4d fc f5 bd d2 1b ca 3b fb 6d d6 3d
       0.069663435 -0.12011013 0.006167867 0.10470196
000210 33 62 94 3d b0 94 48 bd a0 33 9c 3d 11 21 54 bc
       0.072452925 -0.048969924 0.07627034 -0.012947337
000220 cd 8c 48 be 04 d0 d3 3c 5e 20 16 3e dd 7f 6b be
       -0.19584961 0.025856026 0.14660785 -0.22997995
000230 52 5e 24 3c 96 da 93 3d 94 c7 94 bc c8 f8 f0 bb
       0.010032253 0.07219426 -0.018161573 -0.007353876
000240 44 6b 78 3e bf fe 03 3e e1 4e 8c bc 5c 08 5b bd
       0.24259669 0.12890147 -0.017127456 -0.05347477
000250 fa ca a7 bd b0 b2 a7 3c c7 82 27 bd ad 3d 3b bd
       -0.081930116 0.020470947 -0.040896203 -0.045713115
000260 6b cb b2 bd 33 2a 0d 3e 9c 25 c8 3b 86 21 53 3c
       -0.08730205 0.13785629 0.006107999 0.012886411
000270 c6 31 36 bc 9e 0d 7a 3d 87 e7 5c 3d 02 78 7d bd
       -0.011120265 0.061048143 0.05393174 -0.061882026
000280 62 14 27 3d f3 ff 20 bd d1 d5 73 3c eb a1 82 bc
       0.040790923 -0.039306592 0.014882521 -0.01594635
000290 49 86 3e bd 4e 8d 88 3d f0 1e 9b be a2 d4 c8 bd
       -0.046514783 0.06667577 -0.3029704 -0.098061815
0002a0 24 f1 9c bc 77 61 a2 be 7c 9e 91 3d 3f 0b fa bc
       -0.019157954 -0.31714985 0.071103066 -0.03052294
0002b0 8e a9 10 bd 6d 4a 8e be 9f 86 99 3d 13 d4 2a 3e
       -0.03531795 -0.27791157 0.0749638 0.16682462
0002c0 c1 0d 92 3d 5d 7b 25 bc e1 e0 98 3e b6 6d 94 bd
       0.071315296 -0.010100213 0.2985907 -0.07247488
0002d0 e6 de 2c 3e 57 05 12 be e8 5e 0a 3e 12 a6 be bd
       0.16881904 -0.1425985 0.13512766 -0.09309019
0002e0 fb cd 0e 3d c1 86 00 bd ca 7e 00 bd 55 3a 72 bd
       0.034864407 -0.03137851 -0.031370915 -0.05913766
0002f0 5e 24 c0 bd 3a fa de 3d 7f b5 36 bd b5 74 fa be
       -0.093819365 0.10887571 -0.044606682 -0.48917165
000300 eb 06 b9 bd fe d0 03 3d 63 7d b4 bd fc 42 85 bd
       -0.090345226 0.032181732 -0.08812978 -0.06506917
000310 52 90 2c bd e0 20 7c bd a3 48 16 3e 64 5e 31 3e
       -0.042129822 -0.06155479 0.14676146 0.17321163
000320 ef 9b 0b 3d 62 11 ab 3d a2 e0 ca 3c 0b 1a d1 3c
       0.034084257 0.08352925 0.024765316 0.025525114
000330 bb b7 2c 3d b6 d3 04 3e 15 7b ab 3c 03 98 c7 3c
       0.042167407 0.12971386 0.020932714 0.024364477
000340 dc 7b 95 3d 7b b2 4b 3d bf a3 bf bd 48 44 b6 bc
       0.07299015 0.04973076 -0.09357404 -0.022249356
000350 ff 17 39 bd dd 7e 18 bd d3 8f 08 bd ea 37 54 bc
       -0.0451889 -0.03723036 -0.033340286 -0.012952784
000360 95 fe 87 bd 5c 03 9f bd 59 6e 4c bd 64 10 b7 3c
       -0.066403545 -0.077643126 -0.049909923 0.022346683
000370 57 dc 5c 3c a9 b4 ee 3d 1e 49 5e 3e 76 49 a2 3c
       0.0134802675 0.11655552 0.2170758 0.01981042
000380 19 15 4b bc 9e 00 8f 3d 6e 2c 4a 3d ee 9f 1f be
       -0.012395167 0.069825396 0.049358778 -0.15588352
000390 0d 6d ae 3c ad 22 91 bd 70 ec c8 3d c8 d1 1b 3d
       0.021292234 -0.07086692 0.09810722 0.03804186
0003a0 c4 15 4c bd 26 37 9f bc aa 02 26 bd 98 15 83 bc
       -0.049825445 -0.019435477 -0.040529884 -0.016001508
0003b0 4e 48 c1 bd 28 d7 c8 bc 6d 1e 1f bc ff ec be 3d
       -0.09437619 -0.024516657 -0.009711844 0.09322547
0003c0 36 4e 6a bd b6 d1 01 3c 8c 74 36 3c 1b ea 52 bd
       -0.057203494 0.007923534 0.011136185 -0.05149279
0003d0 24 ab 70 bc f2 71 dd 3c e1 07 a5 3d e6 57 a1 bd
       -0.014689241 0.027031872 0.080581434 -0.078780934
0003e0 05 ab 8a 3d af 61 2d be 23 e5 10 3e 1d bc 3c be
       0.06770901 -0.16931795 0.14149909 -0.18431135
0003f0 0c 13 d6 3c ce f0 8a 3c 5c d0 cc bd 75 76 a5 bd
       0.02613213 0.016960528 -0.10000679 -0.080792345

image_conv.5.bias f4 [64]
000000 4e 54 47 3d 54 7b 7b bd 5e d2 c0 bd 7f b8 b7 bc
       0.048664384 -0.06139691 -0.09415124 -0.022426842
000010 6e ae 7c b8 41 51 82 bd 94 a9 b3 bd 5b 21 9c 3c
       -6.0243932e-05 -0.06363154 -0.08772579 0.019058874
000020 36 eb 40 bd f1 54 e7 bd 82 99 6a bd 7a 2e b6 3d
       -0.047099315 -0.11295498 -0.057275303 0.088955835
000030 28 89 54 bd d3 86 94 bd 35 b3 60 bc dc ff 64 bd
       -0.051888615 -0.07252278 -0.013714601 -0.05590807
000040 c6 50 ca bd 44 7d d7 3a 30 79 d5 3b 33 e8 f3 3b
       -0.098786876 0.001644053 0.006514691 0.007443452
000050 24 55 3e bc 01 93 24 bd dc 4a c1 bd 7b ec 58 bc
       -0.011616979 -0.040179256 -0.094381064 -0.013239975
000060 6b c5 9f bd 7f c3 ee bc c0 ed a9 3d c4 ec 8c bc
       -0.07801326 -0.029145954 0.082973 -0.017202742
000070 86 76 c7 ba 37 91 20 bd 4f 43 95 3d d8 3c b2 3c
       -0.0015217818 -0.039200988 0.07288229 0.021757528
000080 b0 4d f2 3b 8a 9e 0b be c0 78 84 3b dc 0b 09 bd
       0.007394515 -0.13634697 0.004042715 -0.033458576
000090 c2 85 02 be 5e 75 a8 bd 5a a0 1b 3d 74 40 8d 3d
       -0.12746337 -0.08225511 0.03799472 0.06897059
0000a0 6a 5b 55 bb f3 3d 01 bd 04 2d 6a bd ff 81 a0 bd
       -0.0032555708 -0.03155322 -0.057171836 -0.07837295
0000b0 db 99 b5 bb 40 9a 20 3e 3b ad 18 bd 80 f4 7f bc
       -0.0055420226 0.15683842 -0.03727458 -0.015622258
0000c0 27 c7 4a 3d e8 5c 0f be 9b b1 b5 bc 08 eb 8b bd
       0.049506333 -0.14000285 -0.022179415 -0.06831938
0000d0 ce 0d 0a 3e 56 21 a3 bc f4 07 86 bd 3f e7 54 3c
       0.13481829 -0.019913357 -0.06544486 0.0129945865
0000e0 c2 88 99 bd 56 63 15 3e cb fc 03 bd 20 b6 ac bc
       -0.074967876 0.14588675 -0.032223504 -0.021082938
0000f0 7d 99 90 bd 36 45 db 3c c1 c4 09 3e 4b e6 e5 bd
       -0.070605256 0.0267664 0.13453962 -0.112255655

actor.0.weight f4 [64, 64]
000000 c3 b1 5c 3b 23 33 41 be 9c 75 b1 bd f3 32 85 be
       0.003367529 -0.18867163 -0.0866501 -0.26015434
000010 31 29 7f bc 54 f3 0b be 18 c7 66 3d 06 ab a0 bd
       -0.015573786 -0.13667041 0.056342214 -0.0784512
000020 1e 47 79 be 74 24 08 be a1 4d c1 3d 41 ce ab bc
       -0.24343535 -0.13295156 0.09438635 -0.020972373
000030 61 f0 92 3d fc 2b 0d be 9a 3b 88 3d 2e fd de bb
       0.07174755 -0.1378631 0.06651993 -0.0068050837
000040 0f 23 16 3e cc ba cd bd e0 8a c5 be ce de 00 3d
       0.14661811 -0.10045394 -0.38582516 0.031462483
000050 de 7e 32 bc db c8 ce 3d 54 85 5b 3e ba d9 02 be
       -0.010894505 0.10096904 0.2143758 -0.12778369
000060 4d 84 04 3e 45 61 b0 bd 4e 81 3b be 59 f7 fc bd
       0.12941094 -0.08612303 -0.18311045 -0.12351865
000070 80 3f 54 be 6a 1e 18 bd 0a 6e af be 99 ae 8a 3d
       -0.20727348 -0.03713838 -0.3426364 0.06771583
000080 41 b3 9a 3d 5f fe 8f bd d0 34 8c be 43 9e 02 bf
       0.07553721 -0.07030939 -0.27384043 -0.5102274
000090 d9 dc 1e bc 10 1d 9d be bb 44 14 be b6 bc f2 bd
       -0.009696209 -0.30686235 -0.14479344 -0.118524
0000a0 40 97 4b be e9 68 e1 be 05 4d 8f be 93 08 bd 3d
       -0.19881916 -0.44025353 -0.2798845 0.09230151
0000b0 48 dc 2e bd 49 b3 a4 3e b7 6e 8c be d4 ab 21 3d
       -0.042690545 0.32168034 -0.2742822 0.03947051
0000c0 a2 6e a1 3e 5f 3d a3 bd 1b 76 d4 3d 44 70 e7 be
       0.3152972 -0.0797069 0.10374089 -0.4520284
0000d0 b3 02 b7 3e 57 32 90 3c d0 43 af 3d e9 5d 75 be
       0.35744247 0.017602129 0.08557856 -0.23961605
0000e0 fb 85 88 3e 5a 80 67 be 5a b6 5b bd 47 b6 51 3e
       0.2666472 -0.22607556 -0.0536407 0.2047969
0000f0 23 4a 78 be 65 9b 86 be 53 e2 40 3e 8f 94 9e bd
       -0.24247031 -0.26290432 0.18836336 -0.07743179
000100 48 2a 9e 3e d7 8a c2 bd 64 f1 26 bd a8 b9 6e bd
       0.30891633 -0.09499138 -0.04075755 -0.058282524
000110 40 00 cf bd 37 23 ea 3d f4 65 11 bd a6 21 75 be
       -0.101074696 0.11432498 -0.03549762 -0.23938617
000120 b9 94 23 3d b7 5f 8c 3c e0 9d 8f 3c c6 90 0c 3e
       0.039936755 0.017135484 0.017531335 0.13727102
000130 19 04 a0 3d 3e dd 42 bd 0e 03 44 bd 7f 08 30 be
       0.078132816 -0.047574274 -0.047854476 -0.17190741
000140 65 58 01 3e a9 f2 5d be a5 e5 e1 be e9 2a ad bd
       0.12631376 -0.21674599 -0.44120517 -0.0845545
000150 7f 05 82 3d 34 3e 19 3d 25 71 69 be 9c a1 68 be
       0.063487045 0.037412837 -0.22797067 -0.22717899
000160 4c 72 64 3e 5d cc 3b be b6 0f 40 be ab d8 f2 bc
       0.22309226 -0.18339677 -0.18755993 -0.029644331
000170 5b fd 87 be 0f 84 f0 bb 0a 97 c1 be 40 2f 55 3e
       -0.26560482 -0.0073399614 -0.37810546 0.20818806
000180 01 00 95 be ec 3d 17 be 92 cc 93 3d 59 7f 5d be
       -0.29101565 -0.14769715 0.07216753 -0.2163061
000190 20 88 0b 3e 04 46 4e 3d bf 90 34 be 79 84 b5 3d
       0.13626146 0.05035974 -0.17633341 0.08863158
0001a0 95 e2 25 be 0a 7b cf be 4d 02 86 be 2a 06 80 3d
       -0.16199715 -0.4052356 -0.2617363 0.06251176
0001b0 eb ef 2d be a5 71 57 3e 0e b6 3d be eb 48 a8 3d
       -0.16986053 0.21039446 -0.1852648 0.08217033
0001c0 18 46 2d 3e b2 32 8e be 94 4e 8c be f8 c7 1e be
       0.1692127 -0.27773052 -0.274037 -0.1550597
0001d0 2a 54 7e 3e 3b 8b 06 be 04 25 74 3d d7 19 c4 3d
       0.24836794 -0.1313905 0.059605613 0.09575241
0001e0 08 30 7f 3e 23 56 4b be 95 43 1b be 5b 3e da 3e
       0.24920666 -0.19857077 -0.15162499 0.42625698
0001f0 e6 c8 80 3b 2d b1 b1 bc 9d fd be 3d 74 bd 49 3d
       0.003930199 -0.02169093 0.09325717 0.049252942
000200 be 2c dd 3e 8b e4 8c 3e d4 1c 1b 3e e4 0a 7b 3c
       0.43198198 0.27518114 0.15147716 0.015322421
000210 19 48 66 be 41 27 14 3e 7c d9 f7 3a 3d d8 87 3d
       -0.2248844 0.14468099 0.001890942 0.06633041
000220 70 92 e1 3c f6 5d 89 3d 35 98 a4 be 37 27 80 3d
       0.027535647 0.06707375 -0.32147375 0.0625748
000230 da 07 eb 3d 70 0f 90 39 09 39 fb 3d 46 80 7a bb
       0.11476107 0.00027477322 0.12266738 -0.003822343
000240 00 d3 6c be 41 22 43 bd 6d 80 5e 3d e0 71 00 3e
       -0.23127365 -0.04764009 0.054321695 0.1254344
000250 53 4d 7e bd 8e 9d 93 be a2 0c 81 be 36 0d c1 bd
       -0.06208546 -0.28831142 -0.2520495 -0.09426348
000260 70 79 86 be 16 9b c8 be ac 13 ba 3c 5c de 16 bd
       -0.26264524 -0.3918082 0.022714458 -0.036833152
000270 91 98 82 bd 0b ed 3e bd f3 8d 2f 3e db 70 83 be
       -0.06376756 -0.04661278 0.17143993 -0.2567204
000280 53 ee 48 be db f0 1a 3d 39 90 81 3d c6 66 00 3e
       -0.19622163 0.037827354 0.063263364 0.12539205
000290 2f 60 4b be 08 1d 88 3e 81 e5 cc 3d c4 a6 b8 3e
       -0.1986091 0.2658465 0.10004712 0.36064732
0002a0 79 46 04 be ff b7 1d 3f 59 2d 62 3e b8 2c 57 3e
       -0.12917508 0.6160888 0.22087611 0.21013153
0002b0 23 35 af 3e 60 f5 9c 3e 8e 86 09 3f 17 c2 de 3d
       0.34220228 0.30655956 0.5372094 0.108768634
0002c0 3a df 83 39 58 ed 27 3e 7a d5 85 bd 3f 06 81 3d
       0.00025152584 0.16399133 -0.06534858 0.063000195
0002d0 8f d2 83 3e 32 cc 25 3e a7 01 38 3d 25 56 83 be
       0.2574658 0.16191176 0.04492345 -0.2565166
0002e0 d6 ca 2f 3e 80 72 98 3e f9 31 12 bd ec f7 16 3e
       0.1716722 0.29774857 -0.03569219 0.14743012
0002f0 75 0f a5 3e 83 a8 ce 3e 5b 4f 38 3e c3 59 8d 3d
       0.32238355 0.4036294 0.17999022 0.06901886
000300 1c 03 1b 3e de a7 d3 3e b3 6d 75 3e d8 9d 71 3d
       0.15137905 0.4133901 0.23967628 0.058988422
000310 c2 04 b3 bd a5 40 dc 3c 01 e3 a2 3b 69 4a 05 3e
       -0.08741142 0.026886294 0.0049709086 0.13016666
000320 eb a6 c9 bc 1b 08 46 3e e3 0f 01 3e 0b 10 81 be
       -0.024615726 0.1933903 0.12603717 -0.25207552
000330 61 44 6d 3c 4d 3c 41 be 4c 49 41 be 05 ae 99 bd
       0.014481635 -0.18870659 -0.18875617 -0.07503895
000340 b3 e6 38 3e 1c 76 2f 3a 32 61 a1 bd b0 f8 79 3e
       0.18056755 0.000669332 -0.07879867 0.24411273
000350 b1 7b 93 3c 84 05 16 3e b4 4f bd bc e6 9f 92 be
       0.018003317 0.14650542 -0.023109294 -0.28637618
000360 c5 62 38 be ef f7 de be 39 dd 1e be 88 57 42 be
       -0.18006428 -0.43548533 -0.15514077 -0.18978703
000370 4e ee 1c be 18 b4 8c bb f0 c2 2f bc e4 3b 4d be
       -0.15325281 -0.00429393 -0.010727629 -0.20042378
000380 4b 39 8a bd a1 50 e4 bb d1 a7 c9 bd d6 ad 63 3e
       -0.06749209 -0.0069676195 -0.098464616 0.22234282
000390 86 42 cd 3c c6 91 a0 3e 48 4d d0 3d 12 ce 09 3e
       0.025056135 0.31361216 0.1017099 0.13457516
0003a0 8a 26 01 be 71 f6 5b 3d c3 8c 87 3e 81 91 b6 3d
       -0.12612358 0.05370182 0.2647458 0.089144714
0003b0 62 fb 93 bc 8c 07 85 3e 34 c4 f0 3d 32 9d 08 3e
       -0.018064205 0.2598232 0.11756173 0.13341215
0003c0 61 21 dd 3c 3c 2b 64 ba 5f 21 4b be b4 82 de 3d
       0.026993455 -0.0008703952 -0.19836949 0.108647734
0003d0 1f 0f c1 3d 67 82 33 be 30 70 69 3d 04 3f 83 3d
       0.09426712 -0.17530213 0.056991756 0.06408504
0003e0 fe 48 b3 3d 73 c0 0a 3f 8f 89 f9 bd 38 9c 5e bd
       0.087541565 0.54199904 -0.1218444 -0.0543482
0003f0 2a 96 43 3e 07 d4 e4 3d a2 82 f8 3c 33 a2 82 be
       0.19100252 0.111732535 0.030335728 -0.25514373

actor.0.bias f4 [64]
000000 56 b2 94 3d 0f 6f 2c 3d d8 b8 ca bc 33 6f 4a bc
       0.072605774 0.0420981 -0.024746343 -0.0123556135
000010 a8 86 ab bb 97 ab 24 bd 79 74 71 3d fe dc 74 3b
       -0.005234558 -0.040202703 0.058948968 0.0037363167
000020 47 85 ce 3c af b9 a4 bc c3 25 cb 3c 3b 89 74 3d
       0.025210036 -0.020108072 0.02479828 0.059701186
000030 64 e8 d0 bb 76 ed d6 bd 90 fc 29 3c da 7d b6 3d
       -0.0063753594 -0.10494511 0.010375157 0.08910723
000040 91 1d 87 bd d6 b9 63 3b 20 67 e0 38 91 fb ab 3d
       -0.06597436 0.0034748218 0.00010700361 0.08397592
000050 f7 db be bc 1e 4b 85 3d 61 7d 26 bc 9e 25 c6 bc
       -0.023298247 0.06508468 -0.010161729 -0.02418786
000060 e2 fc 36 bc d9 c9 c5 bc 3c 76 29 3d b1 d6 65 bd
       -0.01116869 -0.0241441 0.041372523 -0.05611295
000070 00 fc c2 3c b2 17 85 3d ae af fe 3b 18 36 25 bd
       0.023801804 0.0649866 0.0077724075 -0.04033479
000080 7a d8 36 bc d8 9b 5b bd 2c dc c9 bc 99 38 14 3d
       -0.0111600105 -0.05361542 -0.024641119 0.03618679
000090 d1 43 55 bc 8c 83 55 3d b5 35 f1 3c 84 06 50 3c
       -0.013016657 0.052127406 0.029444555 0.012696866
0000a0 68 00 67 bc a7 6d a8 3c 92 47 d0 3c 3c e5 87 bd
       -0.014099218 0.020560099 0.025424752 -0.0663552
0000b0 c0 8e 25 3d d2 bc e2 3c 85 b6 41 3d e5 d3 e0 bc
       0.04041934 0.027677927 0.047293205 -0.02744479
0000c0 aa f9 ed bc 40 80 58 3b 61 68 fa 3c a4 25 0f 3d
       -0.029049713 0.0033035427 0.03056735 0.034948006
0000d0 75 f4 21 3d a1 4e a4 bd 76 d0 88 3d 64 40 71 bc
       0.039539773 -0.0802281 0.06680386 -0.014724825
0000e0 93 38 12 bd 19 aa 04 bc 2e 39 c1 3c 2c 02 5a 3d
       -0.035698485 -0.008097195 0.023586836 0.053224728
0000f0 58 1c 28 3d c4 89 a9 b9 b2 ba 8e bc 4a 48 77 3d
       0.041042656 -0.00032336835 -0.017423008 0.060371675

actor.2.weight f4 [7, 64]
000000 dd 34 be bd 18 4b 03 bd cb a1 13 bf 20 ec 64 be
       -0.092874266 -0.032054037 -0.5766875 -0.223557
000010 e1 0c 45 bd e2 a4 0d 3d 11 a9 1b 3e e2 09 33 3e
       -0.048107985 0.034581073 0.15201212 0.17484239
000020 f3 02 91 bc 98 a8 68 bc 05 4a 4b be 74 d7 1a be
       -0.017701602 -0.014200352 -0.19852455 -0.15121251
000030 4b 0a ab be c8 ec 1d 3e 7b 2b 81 3d 78 0d de be
       -0.3340629 0.15422356 0.06307121 -0.4336965
000040 7a 37 85 3e 39 10 c9 3e e8 ea 48 bd a1 90 a7 3d
       0.26018888 0.3927019 -0.04905215 0.08181883
000050 6a e9 c8 be ee 8c 18 be 13 83 a8 bd 30 cd df 3d
       -0.3924058 -0.1489751 -0.082281254 0.10927808
000060 d0 78 9b 3e a1 7b 42 3e cd 00 9c 3d c9 c0 ea 3c
       0.3036561 0.18992473 0.0761734 0.02865638
000070 21 26 6f bd 73 29 50 3d 0f a4 9f 3c dc 61 46 3d
       -0.058385972 0.05082078 0.019487409 0.04843317
000080 40 b1 a8 3d 5d 43 3a bd 47 06 1a 3d 74 a1 d4 be
       0.08236933 -0.0454744 0.037603643 -0.4152943
000090 0f 5d 40 bd 3d e0 32 39 cc 7c df 3d 08 00 ae 3d
       -0.046963748 0.00017058938 0.10912475 0.084961
0000a0 46 1f a3 3d 43 2b 26 be fa e4 0b bd ca d8 12 3e
       0.07964949 -0.1622744 -0.034153916 0.14340511
0000b0 eb fe c9 bd ba ca 3b be 64 9e 18 bd 50 ef 89 3e
       -0.09863075 -0.18339053 -0.037260428 0.26940393
0000c0 30 50 c9 bd 9e cb f6 bd 5d 79 aa be a5 91 3c bd
       -0.09829748 -0.12050556 -0.33295718 -0.046037335
0000d0 06 3c 38 be c1 ec 14 3e 4a fb d1 bd 3a 78 65 be
       -0.17991647 0.1454344 -0.10253008 -0.22409144
0000e0 0d f2 8d bd 76 a7 0f be 8a c9 21 3e b9 5d 9a bd
       -0.06930933 -0.14028725 0.15799537 -0.075374074
0000f0 08 d0 4d be fb 78 02 3b 62 25 d8 3d cd 6e 94 be
       -0.20098889 0.0019908536 0.10554005 -0.28990784
000100 ef d2 b5 3e ad e3 a1 3e 57 b7 a4 be fb 02 d3 bd
       0.35512492 0.31619015 -0.32171127 -0.10303303
000110 fb 4d e7 bc f7 19 4f be fa 68 d3 3e c0 42 fe 3d
       -0.028235426 -0.20224749 0.41291028 0.12415075
000120 17 6d 02 bd cd 0c 01 3e ad 7b 09 3e 40 44 03 3f
       -0.031842317 0.1260254 0.13426085 0.51276016
000130 74 9b 7c 3d 75 17 91 be e4 8d ce bd 69 d5 c6 3d
       0.06167169 -0.2833821 -0.10085657 0.097086735
000140 2f ad 01 be a0 aa c4 3d 7e 1a 5b 3e 3c 85 8e 3e
       -0.1266372 0.09602857 0.21396825 0.27836025
000150 bb 81 8d bd d8 0a 2f 3e 42 9f 61 be 93 fa cf be
       -0.0690951 0.1709398 -0.22033408 -0.4062086
000160 10 dc 6b 3e 8e ce 15 be ed 64 99 3e 5b 53 2b be
       0.23033166 -0.14629576 0.29959813 -0.16731016
000170 65 39 ef 3d 54 f4 c7 3e 45 5e 18 be 63 a0 ef be
       0.11680869 0.39053595 -0.14879711 -0.46802053
000180 fe 21 48 be c7 e9 98 be b0 a7 80 be 0e 43 94 bd
       -0.19544217 -0.29865858 -0.25127935 -0.07239352
000190 a9 f5 39 be 28 8c da 3e 54 f4 aa 3e 3e be 6d 3b
       -0.18160118 0.42685056 0.33389533 0.0036276723
0001a0 36 1f 6e 3e 20 b1 ce bd c8 02 66 3d 86 fb 2b bd
       0.23254094 -0.10092378 0.056154996 -0.04198792
0001b0 b5 e7 07 3d 2a 33 25 bd 46 f0 ab 3c e2 5a 2b be
       0.033179957 -0.040331997 0.020988595 -0.16733888
0001c0 2c c4 bc bd 1d 1b 04 3e 8e a7 22 3e 39 8f fb 3d
       -0.09217104 0.12900968 0.1588423 0.12283177
0001d0 b4 d7 0e 3e e5 75 38 be 29 28 06 3f ec b8 11 be
       0.13949472 -0.18013723 0.5240503 -0.14230698
0001e0 c4 27 ce bd fa 57 42 bd 06 3c 94 3e c7 f3 69 bd
       -0.100661784 -0.047447182 0.28952044 -0.05711725
0001f0 15 12 bf bd a6 30 b6 3c c7 ba a5 be 95 b3 6d 3e
       -0.09329621 0.022239994 -0.32369062 0.23213036
000200 ca 16 0d be 35 f3 d9 bd f7 c3 73 bc 6c c4 52 3e
       -0.13778225 -0.10642091 -0.014878265 0.20582741
000210 76 09 12 be f3 38 ad bc 5c 2a d3 bc e6 52 ad bd
       -0.14261422 -0.02114532 -0.025777034 -0.08463077
000220 94 f6 24 3c b4 03 93 bd d8 9f a3 be 59 5f 0e be
       0.010068554 -0.07178441 -0.3195789 -0.1390356
000230 1b 8d 5e 3e 94 f8 24 3e b0 dd 94 3e 3d 49 5a bb
       0.21733515 0.1611045 0.29075384 -0.0033307814
000240 19 cc 26 be 21 0c 33 be ab 79 7c 3c 3d 3a 59 3d
       -0.16288795 -0.17485096 0.015409867 0.053034056
000250 7a 98 77 3e b3 04 99 bd e7 8e 19 be 65 44 ba 3d
       0.24179259 -0.074715994 -0.14995919 0.090950765
000260 31 fe b4 bd a6 c5 82 3e 6a a6 80 bd 68 45 15 3e
       -0.08837546 0.2554142 -0.06281741 0.14577258
000270 ad 3c 84 3e 60 11 d6 bb c5 c8 b6 bc 4c 76 19 be
       0.25827542 -0.006532833 -0.022312531 -0.14986533
000280 da a5 b1 bd 9c 54 f1 3c 29 dd 57 bd 8e a2 a9 3d
       -0.08674212 0.02945929 -0.05270115 0.08282958
000290 35 38 1d 3e 15 8c 9c bd 98 47 c0 3d e5 0e ce bb
       0.15353473 -0.07643906 0.093886554 -0.0062883967
0002a0 96 c3 ad bd 3e ae be bd 2d 95 fe bd 94 5c 8f be
       -0.08484571 -0.09310578 -0.12430797 -0.2800032
0002b0 b0 d5 d9 3e 46 73 84 3e ca f7 f4 3d 1e ce 80 3c
       0.42545843 0.25869197 0.119613245 0.015723284
0002c0 d2 41 07 3e 53 44 c4 bd bf 31 47 3e 22 da 80 bd
       0.13208702 -0.09583344 0.1945257 -0.062916055
0002d0 52 c7 cb bd 47 be ba bd a2 ad 23 be 0c 05 a9 3e
       -0.09950127 -0.09118324 -0.15984204 0.33011663
0002e0 a9 ff fb bd 99 4a 43 3e eb ef cb bd 09 28 3c bd
       -0.12304623 0.19071425 -0.0995787 -0.045936618
0002f0 2e 58 a2 3e fe 39 a0 bd 1e 0b a5 3d 2e 2e 95 bd
       0.317079 -0.07823561 0.08058761 -0.07284199
000300 2c d6 0c be 4b 0e 6a be fa f1 73 be 18 24 c9 3d
       -0.13753575 -0.22857015 -0.23822775 0.098213375
000310 65 76 41 3e f7 cd 12 bd 00 77 04 3e b5 81 f5 bd
       0.1889282 -0.035840955 0.1293602 -0.1198763
000320 ca f0 e9 3d df cd cd bd 3f 95 a5 3c b6 f8 9c 3e
       0.1142288 -0.100490324 0.020212768 0.306585
000330 c0 13 91 bd b8 db e3 3d 6c b7 df bc a7 5e eb bd
       -0.07083845 0.111258924 -0.027309142 -0.11492663
000340 82 44 a9 3d 65 14 aa 3d f7 f6 a1 3e 92 fb 19 be
       0.0826502 0.08304671 0.31633732 -0.15037373
000350 ed 30 c5 bc 21 61 17 3e 15 c5 15 3e b8 82 8b bd
       -0.024071181 0.14783145 0.14625962 -0.06812042
000360 0d 21 53 3e 81 88 b1 bd 5b d6 a5 3c d8 f8 6d be
       0.20618077 -0.08668614 0.020243814 -0.23239458
000370 57 a3 8f bc 46 07 7b bd d5 a4 db bc 64 10 99 bd
       -0.017533941 -0.061286233 -0.026811996 -0.074738294
000380 60 9d 6d 3e 1a 74 df be 39 20 56 be 06 66 00 be
       0.23204565 -0.43643266 -0.2091073 -0.12538919
000390 5e 1b a1 be a3 2d 3a 3e 4a 75 8d 3e 39 f8 0a 3e
       -0.31466192 0.18181472 0.27628547 0.13571252
0003a0 ff 9d 2d 3d 2e 1b 87 3e e6 8e 03 be 2e d1 b7 bd
       0.042387005 0.26387924 -0.1284748 -0.08975445
0003b0 07 15 f0 bd b8 4d 42 3e 56 c7 1a be 5c 91 15 be
       -0.11722761 0.1897496 -0.15115103 -0.14606231
0003c0 ca f8 0c 3d 85 e3 34 be bd 89 44 3e c5 b5 ee bd
       0.03441695 -0.17664917 0.19193168 -0.116557635
0003d0 72 10 7f bd 67 72 9b 3b aa ce 82 bd 90 d3 da 3d
       -0.062271543 0.0047438624 -0.06387074 0.106848836
0003e0 ab e4 82 be 50 71 6e bd d2 ed 2d 3d e7 eb f5 bd
       -0.25565085 -0.058213532 0.04246313 -0.120078854
0003f0 c4 d4 2f bd c7 6d 6f 3e ac 27 b7 be d2 eb 16 be
       -0.04292752 0.2338172 -0.35772455 -0.14738396

actor.2.bias f4 [7]
000000 15 7d 33 bd fa a7 8e 3c 7f f7 06 3d 2d 50 22 bd
       -0.04382046 0.017414082 0.032950874 -0.039627243
000010 70 91 b3 bc 55 80 3b bd 7f 5c 54 3d
       -0.021919936 -0.045776684 0.051846024

critic.0.weight f4 [64, 64]
000000 96 05 38 3e d6 88 6e be 89 a5 ce bb a8 b3 e8 3d
       0.17970881 -0.23294386 -0.0063063544 0.11362392
000010 9c 04 ce 3d 3f dc 96 bc 3b a1 d3 bd a0 b9 21 3e
       0.10059473 -0.018415568 -0.10333487 0.15793467
000020 e7 6b 96 bd 40 ae 1f 3e 65 c5 11 3c 7a 4d 28 3e
       -0.073447995 0.15593815 0.00889716 0.16435805
000030 e4 8c 33 3e 3a 83 33 bd fc d5 6c bc a4 24 2f bd
       0.17534214 -0.04382632 -0.014455315 -0.042759553
000040 f5 39 37 3e 5c 69 85 bd 9c 2f 71 3d 24 6f 95 bc
       0.17893203 -0.06514236 0.058883294 -0.018241473
000050 f3 ff bc 3d c4 a7 b5 3b 57 b5 4c 3e 1c 1c 76 3d
       0.09228506 0.005543681 0.1999105 0.0600854
000060 38 1d 8f be 88 8f 1e be b8 70 48 3e cc 72 1e be
       -0.2795198 -0.1548444 0.19574249 -0.15473479
000070 4b 31 07 be bb 78 92 bd dc 59 b1 be 56 6d 54 3e
       -0.13202398 -0.07151934 -0.3463887 0.20744833
000080 30 51 87 be d0 b8 4c 38 eb d1 34 3d 2a 06 86 be
       -0.2642913 4.880951e-05 0.044145506 -0.26176578
000090 1b d8 6c be 51 01 26 be 84 8b b9 3d 25 ff de 3e
       -0.23129313 -0.1621144 0.090598136 0.43554035
0000a0 b0 25 a5 be d1 61 3c be 14 dd 56 bc 77 9a a6 3e
       -0.32255316 -0.18396689 -0.013114233 0.32539722
0000b0 7d ff 6c 3d 6a b3 16 bd 8e 5c 3b 3e 86 41 42 be
       0.05786084 -0.036792196 0.18297026 -0.18970308
0000c0 92 bf 0a 3d e1 c7 2a be 6d 22 92 3e c6 5f 5c 3e
       0.033874102 -0.1667781 0.2854189 0.2152091
0000d0 a4 2e ad 3d 93 1f ac 3d 11 ec 20 bd fc 10 d9 bc
       0.084561616 0.0840446 -0.03928763 -0.026497357
0000e0 e4 0b a3 bd c2 35 c0 be d9 e9 9c bd 3d 4a 22 3e
       -0.07961252 -0.37541014 -0.076617904 0.15848632
0000f0 82 6f 39 3e 07 93 dc bb 1e a2 0b bb 71 c3 21 bc
       0.18108943 -0.006731394 -0.0021306346 -0.009873257
000100 59 cb ea 3c e4 df c6 3d b7 ff 72 be 3e d2 33 be
       0.028661417 0.097106725 -0.2373036 -0.1756067
000110 cc 79 65 bd b5 51 32 bd 2c 66 3e be cf 75 cb 3d
       -0.056024358 -0.043534953 -0.18593663 0.099345796
000120 c0 1f db 3d 01 31 88 3e 03 87 87 bd 96 af a2 3c
       0.10699415 0.26599887 -0.06617548 0.019859117
000130 73 69 ce 3e 4b 51 21 3e 88 62 1f 3e 1f e0 cd bd
       0.40314826 0.15753667 0.1556493 -0.10052513
000140 a1 77 b9 bd c9 bc 05 bc 04 93 89 bd 1b 9b 85 3d
       -0.090560205 -0.008162686 -0.06717494 0.06523725
000150 68 71 48 3d 51 3a dd 3d 55 f7 34 3d 17 d1 30 3e
       0.048936278 0.108021386 0.044181187 0.17267261
000160 1d 6f 11 be aa 4d 5c bd b3 7b 11 bd c2 7b 1b 3d
       -0.14202543 -0.053785004 -0.03551836 0.03795982
000170 bf ee 3a be c7 9a 44 bd 83 20 3f 3d eb 71 9c 3e
       -0.18255137 -0.04799917 0.046661865 0.30555663
000180 5c 9b a6 be e8 71 79 bd ba 44 a8 3d 14 84 2e bc
       -0.32540405 -0.060899645 0.082162336 -0.010651607
000190 e6 ae 02 3e d2 23 1e 3e d6 ab 57 be 6a 1f 77 3e
       0.12762031 0.15443352 -0.21061644 0.24133077
0001a0 e2 d1 53 be 11 49 ed bb 3a 00 63 3e 99 32 78 3e
       -0.20685533 -0.007241376 0.22168055 0.24238051
0001b0 fa bb ef 3b ca eb 9d 3d be bf 46 bd e4 28 ad bd
       0.0073161097 0.07710989 -0.048522703 -0.08455065
0001c0 14 4a 05 be bc 71 be 3d 21 a7 8b 3d eb 36 01 3d
       -0.1301654 0.09299037 0.06818987 0.031546514
0001d0 65 44 8a bd 1d 5a 38 bd f7 e1 a1 be 90 a4 28 bd
       -0.067513265 -0.045007814 -0.3161771 -0.041172564
0001e0 88 12 0e 3e b9 be be bd 2f 34 37 3e 21 ed a5 3e
       0.13874257 -0.09313721 0.17891 0.32407477
0001f0 e1 dc 97 bb a0 bb d9 3d 35 20 04 3e 7a f6 92 bd
       -0.004634485 0.1063149 0.12902911 -0.07175918
000200 cc f3 42 be 5b b8 9e be 01 2c f3 bd 5d f2 94 be
       -0.19038314 -0.31000027 -0.118736275 -0.29091159
000210 56 7e 08 be d6 a7 fc bd 56 a3 1e 3d fb 88 c9 3d
       -0.13329443 -0.123367 0.038729988 0.0984058
000220 51 cc fd bc 5b 71 42 3c d6 e6 35 bd f8 5a d0 bc
       -0.030981215 0.011867846 -0.044409595 -0.025434002
000230 d3 5f 89 bd c7 cb ad bb 8a 85 cf bd 72 e3 82 3d
       -0.0670773 -0.005303833 -0.101328924 0.06391038
000240 3a 90 d7 bd 21 f4 9e 3d 9b ff 83 bd ec 82 f0 3d
       -0.10525556 0.07761408 -0.06445237 0.11743721
000250 e6 cb cb bb c1 c6 20 3e a1 d8 36 3d d8 0e 7e bd
       -0.006219375 0.15700819 0.044640187 -0.062025875
000260 65 7f 11 3c 53 50 42 be a2 22 b9 3d ad 93 ae 3d
       0.008880471 -0.18975954 0.09039809 0.08524261
000270 54 49 e2 3d 62 f5 8a 3d 42 a3 81 bd 5d f2 8d 3c
       0.110491425 0.06785084 -0.06329967 0.017327482
000280 7b 4c 27 3e d8 f1 78 3d ed 82 11 be 85 d7 97 bd
       0.16337769 0.060777515 -0.142101 -0.07414154
000290 a7 0d 80 bc bd 23 6e be 4e 7c b0 bd c6 37 05 3e
       -0.01563151 -0.2325582 -0.08617459 0.13009557
0002a0 2d 2c e6 be 23 bf 4e 3e 69 bc 53 be 74 33 e5 3e
       -0.44955578 0.201901 -0.20677342 0.44765818
0002b0 d8 bc c1 be 16 b9 19 3e 0c 2e 44 3e b9 be a3 bd
       -0.3783939 0.15012011 0.1915819 -0.07995362
0002c0 f2 e3 b4 3d e1 89 20 be 3a a6 75 3e d0 72 e5 3d
       0.088325396 -0.15677597 0.23989192 0.11203539
0002d0 a8 c9 1d be bc fe 21 3e 05 67 3a be 6f 6f 3c be
       -0.15408957 0.1581983 -0.18203361 -0.18401884
0002e0 58 58 17 3e 46 6e 19 bd f9 5a 26 3e f8 f3 6f bc
       0.14779794 -0.03745868 0.16245641 -0.014645569
0002f0 83 8d 7b be 4c ef 8d 3e a2 94 92 3d ed 55 56 3d
       -0.24565701 0.27721632 0.07157256 0.05232804
000300 d5 f3 ea 3d 64 7c 6e 3d 06 ae a2 3d 48 01 d7 bd
       0.114722885 0.058224097 0.079433486 -0.10498291
000310 74 3d 6a bd c5 a6 66 be 96 dc 32 bd 56 7c 09 3d
       -0.057187513 -0.22524555 -0.0436674 0.03356584
000320 98 03 c4 3d 7a 1f b8 3c c9 c7 ae bc 01 f5 9c bb
       0.09570998 0.022475947 -0.0213355 -0.004789949
000330 57 8c c2 3c 8e 41 6f bd 47 25 0d 3c 83 41 18 bc
       0.02374856 -0.058412127 0.008614845 -0.009292963
000340 ec e4 00 bc 97 71 12 bc df ee 4e 3c 62 e9 ff 3d
       -0.007867079 -0.008938215 0.0126301935 0.12495686
000350 ae b7 11 3d ef 88 fd bd 68 20 2c 3e 05 7b b4 3c
       0.03557556 -0.12379634 0.16809237 0.022031317
000360 90 e1 a2 bd f1 93 f4 bd 63 2c b0 bd 39 92 3f be
       -0.07953179 -0.1194228 -0.08602216 -0.18708123
000370 7b e0 5b be 93 76 53 3e e9 6c 8d be a6 12 b4 3d
       -0.21472351 0.20650701 -0.27622154 0.087926194
000380 e4 a5 36 be 12 d5 87 3d 09 23 e6 bc 1c 85 8c be
       -0.1783672 0.06632437 -0.028092878 -0.27445304
000390 fe e5 79 3e 1c 71 c9 be 2a 27 f9 bd e1 76 43 3e
       0.24404141 -0.39344108 -0.12165673 0.19088317
0003a0 71 75 08 be 3a c1 f3 3d 10 c5 93 3e 1d 9e 00 3e
       -0.1332605 0.119020894 0.28861284 0.12560315
0003b0 0c 01 ff 3b f2 77 e4 3d e3 77 a4 be 46 f1 54 bd
       0.007782107 0.1115569 -0.32122716 -0.05198791
0003c0 2d a2 26 3d dc 87 dd bd 38 69 8c 3d 54 75 52 be
       0.040682007 -0.10816929 0.068560064 -0.2055257
0003d0 9b 98 8a 3d 9b 28 7c be 92 a5 9f bd 23 31 19 bd
       0.067673884 -0.24624865 -0.07795252 -0.037400376
0003e0 34 a1 f1 3d 53 4c d5 be 0c f8 d5 bd 65 63 e9 3d
       0.11798325 -0.41659793 -0.10447702 0.11395911
0003f0 c9 95 73 be 40 ee 95 bb 5a 13 9f 3d 24 0d 3a 3c
       -0.23787607 -0.0045755208 0.07767363 0.011355672

critic.0.bias f4 [64]
000000 4e 3f 6c 3d 3f 2b 89 bc 57 2e ba 3d a5 b6 32 be
       0.05767756 -0.016744254 0.0909087 -0.17452486
000010 54 c1 b9 3d bb 8a e5 3d 48 e2 51 3e 6f 45 27 be
       0.090700775 0.11208101 0.20496476 -0.1633508
000020 27 20 21 be c1 c8 f6 bc d3 a6 56 3d da 0e 02 3e
       -0.15734921 -0.030125024 0.05240519 0.12700978
000030 af 82 2e be 4d 7c 26 be 7c 12 ee bd 0a 23 4f 3e
       -0.1704204 -0.16258354 -0.11624619 0.2022821
000040 0b b7 84 3c 98 4b 3d be 3c a2 31 3d df f1 43 3e
       0.016200563 -0.18485868 0.04336761 0.19135235
000050 6c 1f 38 3e 54 06 16 3e a0 80 34 bc c1 f6 64 3e
       0.17980736 0.14650851 -0.011016995 0.22359754
000060 fe 32 02 3e af fc df bd b6 90 8c bd 16 db db bc
       0.12714764 -0.109368674 -0.06863539 -0.026837867
000070 cc d8 39 3e ed 9b 6b be ed 70 ae 3c 35 83 18 bc
       0.18149108 -0.230087 0.021294082 -0.009308626
000080 aa 26 07 3e cb 0e 08 3d 0f 6e 55 be 20 e0 5a 3d
       0.13198343 0.033217233 -0.20842765 0.0534364
000090 7a 73 4b 3e 78 8f 58 3e 3a 9f 5e 3e 1a 5c 52 be
       0.1986827 0.21148479 0.21740428 -0.20542946
0000a0 aa 81 aa bc f2 4c 3c be a3 6a 43 be 79 49 14 3e
       -0.020813782 -0.18388727 -0.19083647 0.14481153
0000b0 55 50 18 3e 58 a1 2e 3e be d6 86 3d 05 4f 39 3e
       0.14874394 0.17053735 0.065839276 0.1809655
0000c0 c5 1b d5 bd b3 dc 31 be 8d fd 44 be 98 0d ae 3c
       -0.10405687 -0.17369346 -0.19237347 0.021246716
0000d0 30 58 3c be 26 7f ac bc db 79 19 3e fb 98 36 be
       -0.18393016 -0.021056723 0.1498789 -0.17831795
0000e0 09 8a 3d 3e 6c 86 3e 3e f3 27 7d 3e f4 b9 3f be
       0.18509687 0.18605965 0.2472227 -0.18723279
0000f0 3b 4d 47 3e 39 b2 26 3e b5 05 40 3e 52 e8 1a 3e
       0.19463055 0.16278924 0.18752177 0.15127686

critic.2.weight f4 [1, 64]
000000 20 31 24 3d 12 a5 ae 39 dd 7e 8c 3c 4e 10 20 bd
       0.04008591 0.00033310853 0.017150337 -0.03907805
000010 d3 ce 96 3b 0f 27 29 3d b3 a4 00 3e 36 a9 fc bc
       0.004602292 0.041297015 0.12562828 -0.030842405
000020 90 5c fb bc 62 26 e2 ba d9 3b 25 3b 8b 98 1c 3b
       -0.030683786 -0.0017253871 0.0025212674 0.0023894634
000030 8e 93 01 bc d6 28 90 bc 4a 7b 45 bc d3 03 de 3d
       -0.007908715 -0.017597597 -0.01205332 0.10840573
000040 5e 4a 1f 3a ec 73 67 bd fc 51 8d 3b 86 a9 df 3d
       0.000607645 -0.056507036 0.004312752 0.10921006
000050 bf ab a9 3c f6 a1 5d bb 82 a5 aa bc 42 97 cf 3d
       0.020711778 -0.003381846 -0.020830873 0.10136272
000060 60 25 11 3c 7e 19 a1 bc 5e 08 3d bd 8e a9 7b 3c
       0.008859009 -0.019665476 -0.046150558 0.015360249
000070 88 19 f5 3d ae 2b 3a be 65 ea 9c 3b 13 c8 9a bb
       0.1196776 -0.18180725 0.004788684 -0.0047235577
000080 80 d1 97 3d 23 f2 ba 3c 7a be b9 bd 4c be 7c 3a
       0.07413006 0.022820538 -0.09069534 0.00096413936
000090 52 88 1f 3d e1 d3 40 3d 63 ee 2c 3d 28 22 c3 bd
       0.038948365 0.047077063 0.04221953 -0.09527999
0000a0 f5 b8 c6 3b 09 14 22 bd 3c 2b 60 bd a2 b5 64 3c
       0.006064529 -0.03956989 -0.05472873 0.01395932
0000b0 ca 4c de 3c 0a 9a ab 3d 95 f4 f7 ba 53 87 85 3b
       0.027136225 0.0837899 -0.0018917496 0.00407497
0000c0 ca f2 12 bd 5b 9d 90 bd a8 d9 6a bd 5d 96 93 3a
       -0.035876073 -0.07061263 -0.05733648 0.0011260022
0000d0 46 e7 12 be cc 35 99 bc 21 b0 e8 3b 97 ce a3 bc
       -0.14346036 -0.01870241 0.0071010743 -0.01999597
0000e0 4a cd 87 3c 59 a1 56 3d 59 ac de 3d f9 f1 84 bd
       0.016577382 0.052399967 0.108727165 -0.06491465
0000f0 44 0a 85 3d b4 b2 61 3c e9 ef 05 3c 90 d4 f6 3a
       0.06496099 0.013775516 0.008174875 0.0018831659
