Recurrent-Independent-Mechanisms/minigrid_experiments/storage/2023-11-21_wallgap-doorkey-redblue-crossing_ppo_123456_100000_metalearn_True_rims_6_k_4_reshape_False/2023-11-21_wallgap-doorkey-redblue-crossing_ppo_123456_100000_metalearn_True_rims_6_k_4_reshape_False_fullmodel_task_1.pth (torch, 294607 bytes, 24 tensors)

weight f4 [16, 3, 2, 2]
-0.096882634 0.25481647 0.019147871 0.41863772 0.074461415 -0.04007365 0.051247645 -0.121557616
-0.16619816 0.028273799 -0.26829657 0.09070282 0.018533593 -0.285206 -0.22787929 -0.1483103
-0.0036275256 -0.119722664 -0.28018335 -0.11261234 -0.005121112 0.10037589 0.108071685 0.23312545
-0.24274471 -0.18284318 -0.24728483 -0.18655765 -0.27746257 0.20930333 -0.21609876 0.1658715
0.054934233 -0.1458224 0.2059069 0.20169047 -0.07904753 -0.055056855 -0.13378246 -0.23613736
-0.13727286 -0.026097352 -0.17458104 0.26381227 -0.038006723 -0.020167936 -0.28497627 -0.07662073
0.19374853 -0.065434165 0.13859643 0.2301346 -0.35577655 -0.39359218 0.16383855 0.10694485
-0.2617756 0.27868336 -0.16474278 0.22752157 -0.15657502 0.14624637 0.022673076 0.39803857
-0.041940276 -0.105009206 0.16358681 -0.3413165 0.02100589 0.13285923 0.19118902 -0.19567001
0.20832215 0.44726634 -0.19441098 -0.2966268 -0.0699498 -0.2589647 0.0032451185 0.048621338
-0.026015105 -0.038028076 -0.1933861 -0.1079982 0.091799095 0.22849087 -0.10737453 0.34324247
-0.19082837 0.025446407 0.15480131 -0.16236359 0.2625461 0.02982197 0.05059868 0.09141447
0.23123646 -0.106133826 -0.07348609 -0.26242077 0.10353509 0.058752228 -0.1831711 0.14002196
-0.15829791 -0.07444592 -0.11716008 -0.008313894 -0.06787465 0.32581207 -0.16270767 -0.2714448
0.02111035 -0.14009772 0.1370937 0.2327402 0.06583926 0.16047713 -0.1733157 0.13933602
-0.043289874 0.102282055 0.09764988 -0.30739394 -0.14319894 0.13494678 -0.263884 -0.03406725
-0.008420312 -0.06015888 -0.08149606 -0.2788647 -0.044888888 -0.18071017 0.07860834 -0.35725233
0.32671672 0.08359252 0.28598017 0.084519975 0.1874276 -0.020206772 0.26615676 -0.12832348
0.3400789 0.1190086 0.3378734 -0.19141783 -0.18776563 -0.2664886 -0.16117756 -0.08624004
-0.11949985 -0.13337545 0.09828115 -0.20124356 -0.03448874 0.15419172 -0.02686067 0.1006585
-0.036214516 0.23263995 -0.3245439 -0.2619728 -0.06810002 -0.07691123 -0.12665778 0.12737224
-0.3505081 -0.35075486 -0.12662235 0.10520249 -0.035779357 0.1969349 -0.28216332 0.22758576
0.36303866 -0.28026214 -0.2233567 -0.205846 0.30436215 -0.060392182 0.37643978 -0.06136676
-0.23005904 0.2251802 -0.16229928 -0.49670553 0.28417897 0.012386029 0.0466406 -0.030733734
00000000: 676a c6bd 4e77 823e ffdb 9c3c af57 d63e
00000010: 3a7f 983d 4524 24bd 0de9 513d 33f3 f8bd
00000020: da2f 2abe 749e e73c 2b5e 89be 66c2 b93d
00000030: c3d3 973c 8506 92be 3059 69be a8de 17be
00000040: c8bb 6dbb 2831 f5bd 3174 8fbe 4ca1 e6bd
00000050: 00cf a7bb e091 cd3d b054 dd3d 70b8 6e3e
00000060: 1292 78be 3e3b 3bbe 3c38 7dbe f808 3fbe
00000070: 930f 8ebe 9d53 563e fe48 5dbe 38da 293e
00000080: b802 613d 7852 15be 42d9 523e f287 4e3e
00000090: ace3 a1bd 4c83 61bd 45fe 08be fecd 71be
000000a0: 4291 0cbe 1dca d5bc 5fc5 32be 6712 873e
000000b0: f0ac 1bbd 3a37 a5bc 69e8 91be 54eb 9cbd
000000c0: 0466 463e 5902 86bd 39ec 0d3e 68a8 6b3e
000000d0: 5828 b6be ea84 c9be 4bc5 273e e705 db3d
000000e0: 7407 86be 96af 8e3e 55b2 28be 6afb 683e
000000f0: 3455 20be 9cc1 153e e3bc b93c b6cb cb3e
00000100: 91c9 2bbd 110f d7bd 4d83 273e 09c1 aebe
00000110: 8b14 ac3c 400c 083e 0ec7 433e b85d 48be
00000120: 6752 553e 1800 e53e ac13 47be 78df 97be
00000130: d741 8fbd 0597 84be 0eac 543b 2b27 473d
00000140: a11d d5bc 54c3 1bbd 0107 46be 292e ddbd
00000150: 2a01 bc3d 83f9 693e 2de7 dbbd 7abd af3e
00000160: 8368 43be fc74 d03c 3c84 1e3e a442 26be
00000170: 716c 863e 344d f43c 9040 4f3d 8237 bb3d
00000180: 40c9 6c3e b15c d9bd e07f 96bd 045c 86be
00000190: 350a d43d 2da6 703d 3491 3bbe eb61 0f3e
000001a0: d918 22be 1a77 98bd a0f1 efbd 0037 08bc
000001b0: dd01 8bbd d7d0 a63e d79c 26be d0fa 8abe
000001c0: 9def ac3c c775 0fbe 4a62 0c3e 7253 6e3e
000001d0: bcd6 863d 1e54 243e ac79 31be 1aae 0e3e
000001e0: b950 31bd 4179 d13d a9fc c73d bd62 9dbe
000001f0: bea2 12be 7d2f 0a3e ce1b 87be 1a8a 0bbd
00000200: 59f5 09bc 2869 76bd 68e7 a6bd 5bc7 8ebe
00000210: 69dd 37bd 160c 39be 69fd a03d c7e9 b6be
00000220: 6a47 a73e 8e32 ab3d fe6b 923e cf18 ad3d
00000230: 05ed 3f3e ac88 a5bc b345 883e 3b67 03be
00000240: d21e ae3e c8ba f33d befd ac3e 0903 44be
00000250: a245 40be 3271 88be bb0b 25be 9e9e b0bd
00000260: 56bc f4bd 9393 08be a147 c93d cb12 4ebe
00000270: 1144 0dbd 6fe4 1d3e e80a dcbc 0b26 ce3d
00000280: ac55 14bd 2b39 6e3e 9e2a a6be 4d21 86be
00000290: 0678 8bbd a383 9dbd 94b2 01be de6d 023e
000002a0: cc75 b3be 2496 b3be 4aa9 01be 6774 d73d
000002b0: 608d 12bd 4da9 493e b677 90be 3e0c 693e
000002c0: 34e0 b93e 857e 8fbe 9eb7 64be 4bc9 52be
000002d0: 5bd5 9b3e cb5d 77bd b7bc c03e b65b 7bbd
000002e0: 9994 6bbe a395 663e c831 26be 3050 febe
000002f0: e87f 913e c5ee 4a3c 370a 3f3d 50c5 fbbc

bias f4 [16]
-0.28176948 -0.034150105 -0.07115603 0.09596516 -0.12847014 -0.21851178 0.14021994 -0.21946533
-0.10041174 0.17955744 0.13546045 -0.15730676 -0.11379593 0.029387537 -0.22190455 -0.13918184
00000000: 1744 90be fbe0 0bbd 41ba 91bd 6289 c43d
00000010: ad8d 03be 8dc1 5fbe d195 0f3e 85bb 60be
00000020: aca4 cdbd e8dd 373e 25b6 0a3e 0615 21be
00000030: d70d e9bd 22be f03c f23a 63be af85 0ebe

weight f4 [32, 16, 2, 2]
-0.08057393 -0.116456605 0.15860403 -0.00091040775 0.014556229 0.103951454 0.09126045 0.03206943
-0.05742358 -0.027165553 0.08702603 0.12847243 -0.074001394 0.1358484 0.0418569 0.050177377
0.053356986 0.044685543 0.05492268 -0.0406284 -0.098181136 0.031450573 0.097886465 -0.023860501
0.056570355 0.15401614 0.07278829 -0.031268205 0.04250325 0.10915788 -0.108464144 -0.069290124
0.0007007241 -0.06634992 0.078815885 0.035152573 -0.103267044 0.15619417 -0.08559759 -0.15815823
-0.16484176 0.07257593 -0.06112169 0.07585487 0.02181999 0.037830796 0.04856349 0.054752097
-0.17099395 -0.08352706 0.07738724 0.069315836 0.12486772 0.1351355 -0.014350119 0.13937162
-0.10120684 -0.09210099 0.00040442485 -0.06600106 -0.0010811442 0.15094095 -0.0058975504 0.11611027
-0.11923105 -0.04862055 0.083103456 0.19593291 0.110450014 0.039932504 -0.08969611 -0.017910067
0.0479338 0.040346257 -0.15539378 -0.008461061 -0.092372835 0.120012216 -0.20666648 -0.01804008
0.012311391 -0.01827788 0.014256328 0.08920802 -0.085704595 0.1221152 -0.008204672 0.21765734
-0.01322753 -0.14157826 -0.030136367 0.22896394 0.033984743 -0.045081843 0.073671885 0.18933666
-0.017418718 0.04980401 -0.1622018 -0.08628512 -0.11542887 -0.09977158 -0.09237307 -0.04224743
0.09701677 -0.066755585 0.05734154 0.0107884575 0.02086833 -0.092555955 0.09774946 -0.09302664
-0.13246185 -0.061381 0.04808825 0.19905269 -0.059369527 -0.050905105 -0.048160933 0.08908944
-0.06950611 0.09674666 0.00201097 0.06638537 -0.032824837 -0.19234613 0.113153994 0.18081364
0.03231366 -0.18122703 0.009465894 -0.13649179 0.0007813871 -0.027259976 0.036753774 0.095955715
-0.037109982 -0.21342698 0.020583406 0.0030512037 -0.049789928 -0.08874106 0.053609144 0.09659418
-0.025955446 0.092861526 -0.052434135 0.09366889 0.1683063 -0.114524 0.030949496 0.060892258
0.14523543 0.05675626 0.10112895 0.118519634 0.14686078 -0.15536356 0.0022359581 -0.011662467
0.13754918 0.082934014 -0.090363935 -0.031840708 0.12160127 -0.17585437 0.117169045 -0.07397443
-0.0032115795 -0.08979558 -0.06310629 0.034248617 0.0710912 -0.08642596 -0.020884816 -0.009820787
-0.059184417 -0.04409996 0.023123894 -0.0013399052 -0.08953522 0.025296064 -0.05241824 0.06024425
-0.13318887 -0.045434482 -0.14275083 -0.044017803 -0.07508972 0.12562586 -0.056259464 0.1721596
-0.021793537 -0.00306102 -0.0074383034 -0.10590182 0.081983715 0.057635933 0.09121515 -0.10261798
0.108618446 -0.13483419 -0.067116976 0.09385926 0.10686372 0.05109839 0.054997332 -0.14586435
-0.13961096 -0.060556613 -0.042194884 0.008541378 0.11403515 -0.083595306 -0.119215146 -0.035542626
0.06246601 -0.09443009 0.13389021 -0.088023186 0.073499106 -0.16133311 0.026063308 -0.08585193
-0.050696164 0.053754173 0.058880858 -0.025231646 -0.0677082 -0.01931956 0.10234774 0.083672896
0.121710815 0.03192889 -0.04078709 -0.009222611 -0.07199815 0.16610453 -0.07476016 0.15068199
-0.019861162 -0.10831475 0.06308803 -0.0018496077 0.08009959 -0.010596018 0.055655167 0.08582419
0.055771027 0.089943245 -0.029557563 0.034520444 0.059115954 -9.431786e-05 -0.055158883 -0.04332599
00000000: f203 a5bd cd80 eebd 1869 223e 6ea8 6eba
00000010: 407d 6e3c 80e4 d43d c2e6 ba3d 3c5b 033d
00000020: fd34 6bbd 4b8a debc b43a b23d 478e 033e
00000030: 0b8e 97bd d81b 0b3e 2472 2b3d cb86 4d3d
00000040: db8c 5a3d 3008 373d 9bf6 603d f769 26bd
00000050: 3113 c9bd 51d2 003d b378 c83d 1977 c3bc
00000060: 51b6 673d 68b6 1d3e 0712 953d 1713 00bd
00000070: e317 2e3d 2b8e df3d 7322 debd fbe7 8dbd
00000080: ccb0 373a 78e2 87bd 396a a13d 25fc 0f3d
00000090: ac7d d3bd 5df1 1f3e ca4d afbd 3bf4 21be
000000a0: 47cc 28be b0a2 943d bd5a 7abd cc59 9b3d
000000b0: d6bf b23c 77f4 1a3d 83ea 463d bc43 603d
000000c0: 0a19 2fbe 3c10 abbd 347d 9e3d 76f5 8d3d
000000d0: a6ba ff3d f660 0a3e c31c 6bbc 6fb7 0e3e
000000e0: 8845 cfbd 729f bcbd fc08 d439 902b 87bd
000000f0: 2eb5 8dba 4490 1a3e 3d40 c1bb 39cb ed3d
00000100: 692f f4bd 5826 47bd 2532 aa3d a3a2 483e
00000110: 9e33 e23d 4490 233d 98b2 b7bd 22b8 92bc
00000120: 3b56 443d 1e42 253d 8c1f 1fbe 43a0 0abc
00000130: f82d bdbd f7c8 f53d 61a0 53be cac8 93bc
00000140: b7b5 493c 7ebb 95bc 6093 693c b2b2 b63d
00000150: e485 afbd 8917 fa3d e36c 06bc 91e1 5e3e
00000160: 48b8 58bc e4f9 10be 8be0 f6bc 8675 6a3e
00000170: 9633 0b3d bda7 38bd 49e1 963d 78e1 413e
00000180: b3b1 8ebc 4aff 4b3d 3b18 26be 41b6 b0bd
00000190: f965 ecbd 0b55 ccbd 182e bdbd a40b 2dbd
000001a0: bab0 c63d 27b7 88bd f6de 6a3d 12c2 303c
000001b0: 0ff4 aa3c fa8d bdbd de30 c83d c084 bebd
000001c0: 14a4 07be a56a 7bbd 2ff8 443d 78d4 4b3e
000001d0: 762d 73bd df81 50bd 6644 45bd 8674 b63d
000001e0: 3859 8ebd 1d23 c63d 7aca 033b 0ef5 873d
000001f0: 5673 06bd 62f6 44be 48bd e73d 3627 393e
00000200: 545b 043d 9493 39be d616 1b3c 81c4 0bbe
00000210: 00d6 4c3a 5050 dfbc 208b 163d 6e84 c43d
00000220: a300 18bd 9a8c 5abe 889e a83c b4f6 473b
00000230: 86f0 4bbd dfbd b5bd 4395 5b3d 2bd3 c53d
00000240: 84a0 d4bc 2f2e be3d 2dc5 56bd 7ad5 bf3d
00000250: 7d58 2c3e 8f8b eabd cc89 fd3c 296a 793d
00000260: 99b8 143e 4179 683d b21c cf3d 6cba f23d
00000270: ac62 163e a017 1fbe 2789 123b ef13 3fbc
00000280: b1d9 0c3e 4fd9 a93d ba10 b9bd 676b 02bd
00000290: 160a f93d 2b13 34be 53f6 ef3d e87f 97bd
000002a0: 5d79 52bb bfe6 b7bd df3d 81bd 4748 0c3d
000002b0: 4398 913d 1800 b1bd a216 abbc 5ee7 20bc
000002c0: 5c6b 72bd 29a2 34bd 526e bd3c c29f afba
000002d0: 3e5e b7bd b139 cf3c 82b4 56bd adc2 763d
000002e0: aa62 08be 8219 3abd 462d 12be 034c 34bd
000002f0: a4c8 99bd 11a4 003e 5370 66bd 9b4a 303e
00000300: 5c88 b2bc 659b 48bb 03bd f3bb 0ee3 d8bd
00000310: 14e7 a73d a813 6c3d 02cf ba3d 6029 d2bd
00000320: 5973 de3d f911 0abe a074 89bd 4939 c03d
00000330: 5edb da3d 8c4c 513d e244 613d 775d 15be
00000340: 2df6 0ebe 360a 78bd 8bd4 2cbd 23f1 0b3c
00000350: 438b e93d 0434 abbd 1227 f4bd 2595 11bd
00000360: 5cdc 7f3d 9064 c1bd 841a 093e 8045 b4bd
00000370: b386 963d 8234 25be b882 d53c 23d3 afbd
00000380: c8a6 4fbd 562d 5c3d 0e2d 713d 99b2 cebc
00000390: 99aa 8abd 0e44 9ebc b19b d13d b25c ab3d
000003a0: 8543 f93d dec7 023d 5d10 27bd 6f1a 17bc
000003b0: c473 93bd 4e17 2a3e db1b 99bd 614c 1a3e
000003c0: e0b3 a2bc 20d4 ddbd 4c34 813d 896e f2ba
000003d0: 410b a43d ec9a 2dbc acf6 633d 98c4 af3d
000003e0: 2970 643d 2a34 b83d b422 f2bc 4f65 0d3d
000003f0: 9223 723d 84cc c5b8 48ee 61bd 9876 31bd

bias f4 [32]
0.093299866 0.07998693 -0.0016262886 0.030731672 -0.044052426 -0.019771965 -0.09827752 0.03483347
0.07887341 0.056572717 0.047082197 0.040731773 -0.12649612 0.081010744 -0.013976976 0.12192808
0.014654693 0.035149515 -0.089528196 -0.044235326 0.09299194 -0.10149606 -0.094612904 0.08768965
0.11648307 0.019600363 0.13500378 -0.03665643 -0.14569569 0.0110478485 0.060968164 0.10756661
00000000: 0014 bf3d 30d0 a33d 3129 d5ba fdc0 fb3c
00000010: 5170 34bd d1f8 a1bc b945 c9bd 8aad 0e3d
00000020: 6288 a13d cbb8 673d 43d9 403d 5cd6 263d
00000030: 3388 01be f6e8 a53d b0ff 64bc 6eb5 f93d
00000040: 3d1a 703c f0f8 0f3d 8f5a b7bd 1a30 35bd
00000050: 8f72 be3d 2bdd cfbd 69c4 c1bd a296 b33d
00000060: ad8e ee3d f190 a03c 6e3e 0a3e 0e25 16bd
00000070: 4031 15be 0902 353c c1b9 793d e24b dc3d

weight f4 [64, 32, 2, 2]
-0.05529412 0.09257672 0.028422397 -0.06593766 -0.07733389 0.10516658 -0.15775149 0.271155
0.056952547 -0.13379514 -0.046659827 0.056388233 0.11726144 -0.070807695 0.06339373 0.06422359
-0.07085722 -0.037419915 0.05955183 0.022146545 0.04915467 -0.17919022 0.028080195 -0.0542131
-0.022464 0.23170952 -0.05191012 0.13789766 -0.005639146 0.11841193 -0.12915331 -0.054190718
0.02899142 -0.18603468 0.10311086 0.06519355 0.06371079 0.023513714 -0.07394569 -0.06832694
-0.053158596 -0.035352882 -0.015862104 -0.082751155 -0.101639204 0.05638566 -0.08061164 -0.0035918923
-0.05730778 0.1493984 -0.03779675 -0.08177253 -0.029694494 -0.03741851 -0.17648433 -0.12391018
0.07421031 -0.063895844 0.06271381 0.05376362 0.1253583 -0.10985736 -0.0013914253 -0.13143824
-0.11247649 -0.041370146 0.03803148 0.074699245 0.021839444 0.004367223 0.091120936 -0.007230754
-0.16889074 0.0933889 0.01158401 0.1562516 0.079404585 -0.07422956 -0.018133812 -0.11685119
-0.022061829 0.02037229 0.06020214 0.15142868 -0.02731655 0.1939959 0.006088575 -0.0017789084
-0.01848121 0.09478695 -0.17998764 0.1282883 -0.046850048 0.10347443 -0.047978748 0.069162175
0.012718279 -0.13129444 0.07605469 -0.041414753 0.043918647 0.090862274 -0.054591008 -0.15237887
0.089599624 -0.17448732 0.2005805 -0.00051457924 0.02443235 0.0121593475 -0.13227561 -0.073280014
0.06933357 0.14298947 -0.10177498 0.0023250114 -0.093878105 0.1679408 -0.08502523 0.051869974
-0.05771063 0.034766264 -0.12573132 0.14116624 -0.091534026 -0.18596298 -0.10733425 0.037799
-0.023661532 0.003930132 0.044172253 0.013335893 0.03335888 0.016229615 -0.053151112 -0.0053325663
-0.08081942 0.01357593 -0.088348165 -0.042134132 -0.008225064 0.016060172 -0.12829357 0.0636218
0.03798433 0.06289509 -0.041594706 -0.10932223 0.006423247 -0.07645642 0.07144823 -0.038878128
-0.059897557 -0.04490393 0.06528745 -0.05497219 -0.028670182 0.011646838 0.035356257 -0.0113709755
0.01960947 0.06463359 0.008751362 0.0016886361 -0.041447192 -0.037948195 0.029630067 0.015333651
-0.03188004 0.0497009 0.03775039 -0.023606889 -0.057197202 0.056475177 0.0019720346 0.0059956843
-0.04583365 -0.092746705 -0.0033351865 -0.077769935 0.080209225 0.12851907 -0.080341026 -0.10487308
0.07787641 0.009467639 -0.021815144 0.07794649 -0.100436434 -0.07642699 -0.06770057 -0.024265092
0.08735238 -0.03892775 -0.021784449 -0.0739888 -0.07301345 0.07834812 0.06881335 0.034971595
0.04017985 -0.009345858 0.020808026 -0.08414941 0.06990166 -0.021824002 -0.0879661 0.08601724
0.050581466 -0.039260253 0.003449011 -0.016937956 -0.07342218 -0.034020185 0.110042825 0.032522805
-0.0017005154 0.05856933 -0.07399947 0.11518413 0.040877093 0.017739628 -0.05812027 -0.018172374
0.006006167 -0.042859197 -0.02298711 -0.09563509 0.053305905 0.11508942 -0.06647414 0.06641311
-0.069930434 -0.12733631 -0.098436855 -0.008456476 0.0430226 -0.08979085 -0.03570428 -0.02796761
0.07361729 0.105364576 -0.03517267 -0.024115622 0.012762149 -0.005183262 -0.016263591 -0.029428087
-0.09642912 -0.018933656 -0.04841689 -0.02096533 -0.00995544 0.107438244 0.06302891 0.073285
00000000: 167c 62bd dd98 bd3d 16d6 e83c 530a 87bd
00000010: 3b61 9ebd 9361 d73d 9b89 21be d4d4 8a3e
00000020: 1347 693d 9801 09be 601e 3fbd 59f7 663d
00000030: c426 f03d a003 91bd 92d4 813d a887 833d
00000040: 971d 91bd a045 19bd 9fec 733d ac6c b53c
00000050: 6856 493d a47d 37be 7008 e63c 8e0e 5ebd
00000060: 6c06 b8bc 4345 6d3e b59f 54bd 0b35 0d3e
00000070: 96c8 b8bb f481 f23d c440 04be 16f7 5dbd
00000080: 6a7f ed3c e07f 3ebe c92b d33d 3284 853d
00000090: cd7a 823d d59f c03c d770 97bd ffee 8bbd
000000a0: d4bc 59bd 2fce 10bd 3ef1 81bc 7079 a9bd
000000b0: 3728 d0bd a6f4 663d b717 a5bd f465 6bbb
000000c0: 90bb 6abd e5fb 183e c4d0 1abd 5b78 a7bd
000000d0: de41 f3bc 2744 19bd 4fb8 34be 9fc4 fdbd
000000e0: 93fb 973d d3db 82bd 1970 803d 3e37 5c3d
000000f0: ed5d 003e e5fc e0bd 7c60 b6ba bf97 06be
00000100: 135a e6bd be73 29bd e6c6 1b3d ebfb 983d
00000110: a2e8 b23c ec1a 8f3b 9d9d ba3d f6ef ecbb
00000120: b2f1 2cbe ae42 bf3d dcca 3d3c 6b00 203e
00000130: df9e a23d ab05 98bd 5c8d 94bc ad4f efbd
00000140: 02bb b4bc cae3 a63c 8596 763d 1f10 1b3e
00000150: f5c6 dfbc dca6 463e ab82 c73b 432a e9ba
00000160: e865 97bc a91f c23d ae4e 38be 025e 033e
00000170: d6e5 3fbd 67ea d33d 5d85 44bd e6a4 8d3d
00000180: 5460 503c 0d72 06be 90c2 9b3d 84a2 29bd
00000190: 0ae4 333d 0016 ba3d d29a 5fbd 3509 1cbe
000001a0: 0280 b73d ceac 32be f964 4d3e d4e4 06ba
000001b0: 5a26 c83c 0038 473c 4273 07be d513 96bd
000001c0: c2fe 8d3d d56b 123e 676f d0bd 385f 183b
000001d0: 2a43 c0bd acf8 2b3e b521 aebd 9c75 543d
000001e0: fb61 6cbd 1267 0e3d b6bf 00be e28d 103e
000001f0: 3176 bbbd 146d 3ebe 0fd2 dbbd 20d3 1a3d
00000200: d4d5 c1bc 56c8 803b f7ed 343d ca7e 5a3c
00000210: 52a3 083d f8f3 843c fbb4 59bd cfbc aebb
00000220: a784 a5bd 946d 5e3c e2ef b4bd d794 2cbd
00000230: 6bc2 06bc 9f90 833c 645f 03be 254c 823d
00000240: 7595 1b3d 24cf 803d 365f 2abd 55e4 dfbd
00000250: 1a7a d23b 2f95 9cbd 7353 923d ac3e 1fbd
00000260: 2457 75bd 2fed 37bd 6db5 853d 852a 61bd
00000270: bbdd eabc 61d2 3e3c b9d1 103d 544d 3abc
00000280: 0aa4 a03c 9e5e 843d df61 0f3c 3a55 dd3a
00000290: 88c4 29bd 916f 1bbd c1ba f23c fe39 7b3c
000002a0: a594 02bd 2c93 4b3d 27a0 1a3d 3c63 c1bc
000002b0: 9d47 6abd 8452 673d 403d 013b 7277 c43b
000002c0: 11bc 3bbd fcf1 bdbd 2593 5abb d845 9fbd
000002d0: bc44 a43d 819a 033e d689 a4bd b3c7 d6bd
000002e0: ab7d 9f3d 281e 1b3c acb5 b2bc 69a2 9f3d
000002f0: 9eb1 cdbd c185 9cbd 99a6 8abd 96c7 c6bc
00000300: cee5 b23d b472 1fbd 4d75 b2bc 7187 97bd
00000310: 1388 95bd fb74 a03d 03ee 8c3d 603e 0f3d
00000320: a093 243d 5f1f 19bc 9875 aa3c 8756 acbd
00000330: 9a28 8f3d 40c8 b2bc 9227 b4bd cf29 b03d
00000340: 832e 4f3d 5ccf 20bd cd08 623b 78c1 8abc
00000350: 5e5e 96bd c058 0bbd 225e e13d a236 053d
00000360: d4e3 deba 65e6 6f3d 098d 97bd a8e5 eb3d
00000370: bd6e 273d b252 913c 850f 6ebd 3bde 94bc
00000380: 61cf c43b 208d 2fbd 774f bcbc 54dc c3bd
00000390: 4b57 5a3d 00b4 eb3d 9823 88bd 9903 883d
000003a0: b037 8fbd 7364 02be 4399 c9bd 088d 0abc
000003b0: 7738 303d 44e4 b7bd a73e 12bd 541c e5bc
000003c0: a9c4 963d 62c9 d73d 3811 10bd 208e c5bc
000003d0: 5518 513c 5ad8 a9bb 393b 85bc 2c13 f1bc
000003e0: a17c c5bd c11a 9bbc ca50 46bd 7cbf abbc
000003f0: 241c 23bc 9508 dc3d 4d15 813d 7216 963d

bias f4 [64]
0.061607886 -0.08256661 0.073448725 -0.022062331 0.09186896 -0.052621074 -0.01804461 -0.010509745
-0.08383619 0.013729917 0.0020061717 -0.053803496 -0.046913803 -0.023317046 0.04277839 -0.10871522
0.06261821 -0.062408328 -0.08960278 0.00079421385 -0.02093359 -0.0097377775 0.019028837 0.08947353
0.10586834 -0.040199894 0.036125466 0.04018852 -0.058814827 0.025695957 0.055110235 0.070801295
-0.0043010097 -0.06253232 0.062873565 0.00334218 -0.016233487 -0.005155913 0.03769773 0.07513096
-0.0060538966 0.0034982346 0.09712292 -0.0447654 0.00089038553 -0.05707298 -0.03696442 0.035475075
-0.07781035 -0.038448375 -0.103764534 0.019653758 -0.052314166 -0.075830266 -0.029387351 0.046180274
-0.036944058 -0.018704554 -0.09403369 0.040934853 0.017846717 0.0686539 0.06927414 -0.027216855
00000000: 8d58 7c3d af18 a9bd 496c 963d 10bc b4bc
00000010: cb25 bc3d 3289 57bd 4ad2 93bc 1131 2cbc
00000020: 4fb2 abbd 72f3 603c fa79 033b 0e61 5cbd
00000030: b028 40bd 6403 bfbc 6538 2f3d 16a6 debd
00000040: fa3d 803d e09f 7fbd aa81 b7bd ca32 503a
00000050: ec7c abbc 338b 1fbc 5de2 9b3c e63d b73d
00000060: 80d1 d83d a5a8 24bd 4cf8 133d b89c 243d
00000070: d1e7 70bd 5480 d23c 45bb 613d 4500 913d
00000080: 7cef 8cbb f210 80bd dbc3 803d 7a08 5b3b
00000090: 17fc 84bc eff2 a8bb ef68 1a3d 43de 993d
000000a0: c45f c6bb a342 653b 62e8 c63d ed5b 37bd
000000b0: c368 693a 5bc5 69bd 0168 17bd 504e 113d
000000c0: 085b 9fbd 0b7c 1dbd 8082 d4bd eb00 a13c
000000d0: 6147 56bd e64c 9bbd bebd f0bc 8727 3d3d
000000e0: a752 17bd 4b3a 99bc bc94 c0bd 4eab 273d
000000f0: 4733 923c 6a9a 8c3d 9adf 8d3d e2f5 debc

weight f4 [64, 64]
0.131298 0.1672111 -0.120447785 -0.042796325 -0.3468466 -0.17965896 0.09792279 -0.044344485
-0.006958271 0.060440745 0.055087358 -0.16325866 -0.06425418 -0.2657112 0.22517423 0.2072596
-0.105426945 -0.18240798 -0.016531248 0.05439421 -0.09423971 -0.09324535 0.04939453 0.056586362
-0.17150842 0.09885745 -0.1042932 -0.057747692 -0.010195872 -0.18544741 -0.100532524 -0.09726121
0.00097119354 0.18176413 -0.11822641 -0.014461318 0.038735997 0.17267734 0.12108824 -0.08118731
-0.026427167 -0.0064560194 -0.35916567 -0.019436128 0.15354446 0.17728074 0.15546426 -0.14825667
0.3600109 -0.16838981 0.06483034 -0.2869713 0.03448222 0.15348084 -0.02664498 0.031688582
0.018438278 0.07995251 0.16407485 -0.18457676 0.10902642 -0.14013177 -0.10999953 -0.21092236
-0.11442975 -0.19087525 0.20265512 -0.006635942 0.15511443 0.27053884 -0.12554844 0.15107404
0.09449776 0.35554948 -0.09755705 -0.12741369 0.14780661 0.17155541 0.1699114 0.06551624
0.27271533 0.11321864 -0.05026267 0.06729469 0.14265934 -0.0766575 -0.119162224 0.09118399
-0.0048651807 -0.035889033 0.26763353 0.0141525455 0.1783154 0.21326128 -0.024069251 -0.07960233
0.087630235 -0.011263489 0.17110303 0.13428374 0.14585975 0.29166174 0.19334894 0.41186538
-0.13285759 0.19045313 0.28824556 -0.11099023 -0.09473422 0.1062455 -0.10462223 -0.15419681
0.1747213 -0.15008377 -0.075812966 0.22229588 -0.051823333 -0.1208295 0.15533327 0.009355374
-0.17325807 0.061737843 0.052995004 -0.082303375 0.2099402 -0.055129953 0.21791886 0.043032818
0.13095851 0.0010649578 0.07942581 -0.12364492 0.23226319 0.2714836 0.24281596 0.325236
0.32956037 0.15473586 -0.14221434 -0.051090427 0.11154806 0.24977827 -0.05441452 0.07236273
-0.15855601 0.26810443 -0.09412436 0.12221996 0.09870163 -0.0042036176 0.105383724 0.000107364875
0.08113996 -0.1254909 0.23016179 -0.00096663146 0.19099171 0.19335562 -0.17613359 0.0033161829
0.020623386 0.2395784 0.0684104 -0.080237396 -0.0190435 0.015928652 0.1511672 0.13107185
0.03324392 0.15932518 -0.0125625115 -0.08935997 0.17004967 -0.18730845 -0.04176463 0.072000265
-0.05897375 -0.029285064 0.017826146 0.24874866 -0.074856505 0.11269277 0.07032387 -0.04726259
0.24510054 -0.051143914 0.0768129 0.10224182 -0.040036105 0.21711577 -0.18186392 -0.11194968
-0.031798735 0.17515412 -0.15666802 -0.065962985 -0.043092255 -0.32533374 0.004921944 -0.10429155
-0.09846214 0.01676648 0.047098283 -0.038565423 -0.2028902 -0.10859458 -0.009863788 -0.115447275
-0.07659705 -0.2160063 0.01176529 -0.07952556 0.087080866 -0.13358499 0.14687492 -0.10260062
-0.31770962 -0.18864621 -0.13120566 -0.07505694 0.06964965 -0.37158328 -0.27297756 -0.0031835993
-0.08009722 0.059487514 -0.3797095 0.45937586 0.034392424 -0.09965458 -0.11991112 -0.40181148
-0.10928015 -0.22344434 -0.09861797 0.18225609 0.046844058 -0.04375517 0.20717429 -0.081971295
0.16174515 0.1242667 0.02223381 -0.34299564 -0.048601862 -0.037638627 -0.39260456 -0.109712705
-0.068239786 0.069666564 -0.1214672 -0.13538224 -0.030594083 -0.26086348 -0.044274338 -0.2281541
00000000: fc72 063e 6339 2b3e 54ad f6bd 334b 2fbd
00000010: e195 b1be 85f8 37be be8b c83d 90a2 35bd
00000020: 3502 e4bb b790 773d 48a3 613d 472d 27be
00000030: b297 83bd 4c0b 88be 1394 663e dc3b 543e
00000040: 15ea d7bd 28c9 3abe 8a6c 87bc 77cc 5e3d
00000050: c000 c1bd 6bf7 bebd eb51 4a3d 1ac7 673d
00000060: e79f 2fbe c675 ca3d ac97 d5bd d888 6cbd
00000070: 960c 27bc ede5 3dbe ffe3 cdbd e330 c7bd
00000080: b297 7e3a 6020 3a3e b020 f2bd 2aef 6cbc
00000090: a3a9 1e3d 54d2 303e 1cfd f73d 8845 a6bd
000000a0: c97d d8bc 048d d3bb 90e4 b7be 8438 9fbc
000000b0: c23a 1d3e 1589 353e 0632 1f3e 99d0 17be
000000c0: 5953 b83e 616e 2cbe c5c5 843d e7ed 92be
000000d0: 3a3d 0d3d 152a 1d3e 9346 dabc e3cb 013d
000000e0: df0b 973c 24be a33d 3d03 283e b101 3dbe
000000f0: 3e49 df3d b47e 0fbe 6f47 e1bd 08fc 57be
00000100: 255a eabd cd74 43be d384 4f3e 5172 d9bb
00000110: 51d6 1e3e 1184 8a3e c58f 00be 27b3 1a3e
00000120: 0b88 c13d 950a b63e fecb c7bd bc78 02be
00000130: 9e5a 173e 39ac 2f3e 41fd 2d3e 612d 863d
00000140: 58a1 8b3e 2ddf e73d 3be0 4dbd ccd1 893d
00000150: 4a15 123e 9bfe 9cbd 530b f4bd acbe ba3d
00000160: 186c 9fbb 6100 13bd 4307 893e 14e0 673c
00000170: 5098 363e 2a61 5a3e e12c c5bc 8c06 a3bd
00000180: 7b77 b33d 7f8a 38bc a235 2f3e ad81 093e
00000190: 425c 153e b054 953e 44fd 453e 05e0 d23e
000001a0: d20b 08be 2506 433e ec94 933e d94e e3bd
000001b0: 0404 c2bd 3e97 d93d 2e44 d6bd c5e5 1dbe
000001c0: 24ea 323e 8faf 19be d443 9bbd 88a1 633e
000001d0: b444 54bd 7575 f7bd af0f 1f3e 4847 193c
000001e0: 906a 31be d2e0 7c3d 4a11 593d ac8e a8bd
000001f0: 90fa 563e f2cf 61bd 1f26 5f3e 2e43 303d
00000200: fd19 063e 0e96 8b3a 00aa a23d 8c39 fdbd
00000210: 67d6 6d3e e6ff 8a3e bfa4 783e 5585 a63e
00000220: 23bc a83e 1473 1e3e a3a0 11be 3244 51bd
00000230: 4f73 e43d e0c5 7f3e c2e1 5ebd e932 943d
00000240: 825c 22be fc44 893e 46c4 c0bd 754e fa3d
00000250: 1524 ca3d 80be 89bb 6cd3 d73d 1429 e138
00000260: b52c a63d b080 00be 88af 6b3e 8a65 7dba
00000270: 5593 433e 04ff 453e 5d5c 34be 5154 593b
00000280: 60f2 a83c 0a54 753e c01a 8c3d 8153 a4bd
00000290: 1d01 9cbc ce7c 823c 93cb 1a3e b337 063e
000002a0: c72a 083d 2426 233e fed2 4dbc 5c02 b7bd
000002b0: 8021 2e3e c9cd 3fbe 6311 2bbd e074 933d
000002c0: 758e 71bd 3be7 efbc 2308 923c f8b7 7e3e
000002d0: 5e4e 99bd 78cb e63d f605 903d 6b96 41bd
000002e0: a3fb 7a3e 487c 51bd 1550 9d3d 2964 d13d
000002f0: e6fc 23bd 9953 5e3e 893a 3abe e045 e5bd
00000300: 643f 02bd 9a5b 333e 956d 20be 9a17 87bd
00000310: 8181 30bd 2592 a6be 4248 a13b cf96 d5bd
00000320: 85a6 c9bd db59 893c 21ea 403d c7f6 1dbd
00000330: 73c2 4fbe d666 debd ba9b 21bc 9f6f ecbd
00000340: eade 9cbd c130 5dbe 34c3 403c 4cde a2bd
00000350: 7457 b23d 81ca 08be 6166 163e 4620 d2bd
00000360: d6aa a2be 792c 41be c75a 06be 74b7 99bd
00000370: 7aa4 8e3d 2a40 bebe b7c3 8bbe efa3 50bb
00000380: 030a a4bd 2ea9 733d 4969 c2be 5033 eb3e
00000390: 12df 0c3d b317 ccbd f693 f5bd 3cba cdbe
000003a0: 45ce dfbd 98ce 64be 38f8 c9bd 57a1 3a3e
000003b0: 8edf 3f3d 9f38 33bd 7f25 543e 91e0 a7bd
000003c0: 85a0 253e 8a7f fe3d ae23 b63c 209d afbe
000003d0: bf12 47bd f62a 1abd 7703 c9be 0eb1 e0bd
000003e0: 4dc1 8bbd 58ad 8e3d ccc3 f8bd a4a1 0abe
000003f0: 71a0 fabc e68f 85be 0259 35bd 3aa1 69be

bias f4 [64]
2.2110316e-06 -1.5434233e-06 -2.0264613e-06 4.7955086e-06 4.9520513e-06 1.8350929e-06 1.5938205e-06 -5.0350327e-06
-4.2945393e-07 5.9748945e-06 3.3745032e-06 3.085858e-06 1.1867362e-06 -2.3999708e-06 -8.7596754e-07 -4.573023e-06
3.1064553e-06 7.7711593e-07 3.6806844e-06 -6.919346e-06 8.5620616e-07 3.1990005e-06 -5.2697264e-06 1.8459328e-06
-5.3249796e-06 1.5352884e-06 4.0649916e-06 4.917635e-07 2.6586276e-06 1.4585016e-06 -2.56665e-06 -3.2007822e-06
-5.111236e-07 5.1531024e-06 1.5565653e-06 4.250219e-06 -6.8515665e-06 -1.4828416e-06 -4.246124e-06 -6.4430747e-06
-3.6379788e-07 -3.37828e-06 -6.354918e-06 1.1977381e-06 4.0180685e-06 1.996038e-06 -1.2739696e-06 -7.630535e-07
5.492797e-06 -1.5778854e-06 1.2306128e-06 7.038339e-06 -2.7479985e-06 5.021198e-06 -7.059876e-06 3.9078623e-06
-3.8526096e-06 -4.8581182e-06 -5.4284133e-06 -7.02103e-07 -1.6444454e-06 4.28402e-06 5.3196377e-06 3.089668e-06
00000000: 3c61 1436 9f27 cfb5 57fe 07b6 1be9 a036
00000010: cc29 a636 504d f635 41eb d535 9af2 a8b6
00000020: b38f e6b4 f47b c836 8675 6236 a316 4f36
00000030: f247 9f35 2f0f 21b6 0824 6bb5 f871 99b6
00000040: 7f78 5036 009b 5035 ad01 7736 bb2c e8b6
00000050: 0ad6 6535 69ae 5636 9bd2 b0b6 c5c1 f735
00000060: 3aad b2b6 1c10 ce35 0366 8836 bb01 0435
00000070: e06a 3236 bcc1 c335 b63e 2cb6 05cd 56b6
00000080: 2534 09b5 d0e8 ac36 2deb d035 1a9d 8e36
00000090: 82e6 e5b6 0d06 c7b5 ed79 8eb6 9731 d8b6
000000a0: 0050 c3b4 69b6 62b6 543c d5b6 f8c1 a035
000000b0: f2d2 8636 acf3 0536 43fd aab5 a3d4 4cb5
000000c0: c44e b836 bbc7 d3b5 892b a535 df2a ec36
000000d0: 416a 38b6 c37b a836 e0e3 ecb6 4820 8336
000000e0: aa45 81b6 eb02 a3b6 b725 b6b6 2778 3cb5
000000f0: b7b6 dcb5 74bf 8f36 577f b236 1858 4f36

weight f4 [64, 64]
0.29749694 0.048442416 0.091479965 0.06723448 0.024437755 0.16420789 0.11949062 -0.0093217585
0.0963881 -0.13419048 -0.23167184 -0.051455773 0.00723203 0.0489561 -0.23800631 0.22898555
-0.09421202 -0.07015734 0.22745708 -0.14431824 -0.00887115 0.1286736 0.062355805 0.003972389
0.15302998 -0.04651095 0.03236137 0.013757396 -0.009364173 0.20361347 0.20434462 -0.031683143
-0.08689382 -0.084736906 -0.21796402 0.078467265 -0.2326479 -0.19594936 0.1820722 0.017127927
-0.03522534 0.21949449 0.09394695 -0.11069437 0.059110247 -0.14810802 0.24072264 0.10738675
0.18684751 -0.1575583 0.022384034 0.11755149 0.20283563 -0.07293097 -0.31380686 -0.023878595
-0.007403784 0.08822228 0.05357868 0.037349958 -0.13562965 0.11942164 -0.2094046 0.118699715
-0.27608916 0.020351 0.11470493 -0.11727247 -0.07763476 0.13783036 0.059302796 -0.08359766
-0.0031439057 -0.04397592 -0.16406535 0.29225168 0.018050242 -0.07901677 -0.17824018 0.016306171
-0.0073358086 0.102092914 -0.042328633 0.037944123 0.029183611 -0.016124373 -0.14535375 0.021153467
-0.066776305 0.083542265 0.08314116 -0.11597968 0.02385417 0.16729021 0.30051014 0.026093708
-0.2147087 -0.15644948 -0.16762821 -0.12723249 -0.3494687 -0.13524753 -0.2099557 0.0780341
-0.02284009 0.013342436 -0.022522043 -0.0564825 -0.14312309 0.044486787 -0.057534616 0.014849791
-0.11951168 0.16587618 0.23134208 0.022535948 0.16531989 0.11032366 0.017563837 0.04044731
0.22124927 -0.060812265 0.02854204 -0.22291633 -0.13059624 -0.18293662 -0.06920002 -0.25875545
-0.20547998 0.038908 0.04513907 -0.20371161 -0.06505379 0.09459488 -0.25331602 -0.11162961
0.07966901 -0.032108884 -0.041358463 -0.00043743895 -0.18529692 -0.081702456 -0.04762164 0.2552984
-0.12580056 0.04020061 0.0766275 0.2488156 -0.034091502 -0.18856223 0.0038647843 -0.08732204
0.15482827 0.06123179 -0.16799633 0.08687267 0.2395856 0.10089242 -0.19494215 -0.026049389
-0.18638441 -0.06927222 0.12315032 0.0991475 -0.09314031 -0.014015712 -0.09735393 -0.16374199
-0.20126359 -0.08305461 0.0255724 -0.09528533 -0.13363235 0.04210135 -0.14713128 0.06752147
0.05867381 0.24091655 -0.038583428 0.07589393 -0.16261815 0.142779 0.08954115 -0.18012224
-0.023156432 -0.013286499 0.1551081 0.055296957 -0.07423336 0.038582753 0.12276827 -0.16193633
0.03833871 -0.08310939 0.0004309367 -0.10083068 -0.0388984 -0.06447616 0.048288584 -0.020530246
0.10206077 0.11315144 0.20601922 -0.036719717 0.10610537 0.13473141 0.066279784 -0.12297576
-0.06365631 -0.15780705 -0.063885294 0.18140839 0.0061229346 0.018655574 0.14045577 -0.02361595
0.0018138934 0.04443343 0.06335525 0.06625553 0.028730683 -0.13827623 -0.2707056 0.379053
-0.110883445 0.30349788 0.08911871 0.061280023 -0.24374993 0.069036976 0.10520202 -0.063432105
-0.010222829 0.07506227 0.03612239 0.10570605 0.314302 0.023764554 -0.10587464 0.18160284
0.12144712 -0.16221339 -0.050995037 0.33256438 -0.080168605 0.047897965 -0.124946274 0.39262778
0.16910459 0.028942822 -0.017764913 -0.071873486 0.021348434 -0.012760606 0.081000835 0.028219769
00000000: 8551 983e 8e6b 463d d959 bb3d 3bb2 893d
00000010: b031 c83c 1d26 283e 80b7 f43d 4aba 18bc
00000020: 2067 c53d 3b69 09be 623b 6dbe 4ac3 52bd
00000030: aafa ec3b 3186 483d edb7 73be 307b 6a3e
00000040: 3bf2 c0bd a7ae 8fbd 82ea 683e 29c8 13be
00000050: 4d58 11bc 03c3 033e cd68 7f3d d02a 823b
00000060: e4b3 1c3e 4482 3ebd 5b8d 043d b366 613c
00000070: 306c 19bc 0d80 503e b73f 513e 2fc6 01bd
00000080: 63f5 b1bd 8b8a adbd f631 5fbe 72b3 a03d
00000090: 403b 6ebe f3a6 48be 2371 3a3e de4f 8c3c
000000a0: 7248 10bd 2ac3 603e 4267 c03d bbb3 e2bd
000000b0: 961d 723d a1a9 17be ff7f 763e 96ed db3d
000000c0: f454 3f3e f756 21be b95e b73c d6be f03d
000000d0: 25b4 4f3e d55c 95bd 4bab a0be 0b9d c3bc
000000e0: 719b f2bb e2ad b43d 5175 5b3d 45fc 183d
000000f0: 80e2 0abe 5593 f43d 296e 56be d618 f33d
00000100: 8f5b 8dbe 24b7 a63c 6bea ea3d 8c2c f0bd
00000110: f9fe 9ebd 6723 0d3e 7de7 723d 4035 abbd
00000120: fc09 4ebb 1820 34bd bf00 28be 03a2 953e
00000130: 1ade 933c 8bd3 a1bd 9884 36be 8594 853c
00000140: 3961 f0bb 1716 d13d ca60 2dbd 4c6b 1b3d
00000150: 7812 ef3c 4317 84bc 9dd7 14be 094a ad3c
00000160: 04c2 88bd 3518 ab3d ea45 aa3d c186 edbd
00000170: d269 c33c 204e 2b3e 77dc 993e 79c2 d53c
00000180: 99dc 5bbe 4b34 20be bba6 2bbe 3c49 02be
00000190: 90ed b2be 547e 0abe a1fe 56be 58d0 9f3d
000001a0: 241b bbbc 3c9a 5a3c 2680 b8bc 325a 67bd
000001b0: dc8e 12be c737 363d 6ba9 6bbd 8a4c 733c
000001c0: 8ac2 f4bd 72db 293e f0e4 6c3e 4f9d b83c
000001d0: 9e49 293e 5ff1 e13d 09e2 8f3c 14ac 253d
000001e0: 2b8f 623e 4816 79bd ffd0 e93c 2e44 64be
000001f0: 05bb 05be bd53 3bbe bdb8 8dbd 987b 84be
00000200: 5869 52be ff5d 1f3d bfe3 383d c799 50be
00000210: ec3a 85bd f6ba c13d a3b2 81be 119e e4bd
00000220: 8229 a33d 9b84 03bd 7e67 29bd 1058 e5b9
00000230: 7abe 3dbe 9e53 a7bd e90e 43bd 79b6 823e
00000240: ddd1 00be 65a9 243d e1ee 9c3d 84c9 7e3e
00000250: 88a3 0bbd 7516 41be 5248 7d3b e6d5 b2bd
00000260: 4d8b 1e3e 2fce 7a3d 3b07 2cbe 4cea b13d
00000270: ed55 753e afa0 ce3d ea9e 47be 8765 d5bc
00000280: 8edb 3ebe 98de 8dbd 3c36 fc3d d80d cb3d
00000290: 59c0 bebd 28a2 65bc 7f61 c7bd fbab 27be
000002a0: 0b18 4ebe 8918 aabd 367d d13c f524 c3bd
000002b0: ebd6 08be 7772 2c3d 95a9 16be b248 8a3d
000002c0: f353 703d d4b2 763e a809 1ebd 476e 9b3d
000002d0: 5f85 26be a834 123e 5a61 b73d f771 38be
000002e0: 8fb2 bdbc 9eaf 59bc a8d4 1e3e 107f 623d
000002f0: a907 98bd f308 1e3d ee6d fb3d a3d2 25be
00000300: 0d09 1d3d 4235 aabd 58ef e139 5180 cebd
00000310: ee53 1fbd 140c 84bd 40ca 453d 0c2f a8bc
00000320: 3d05 d13d f1bb e73d b4f6 523e 6a67 16bd
00000330: c64d d93d 08f7 093e b2bd 873d b7da fbbd
00000340: 3d5e 82bd 2c98 21be 4bd6 82bd 1fc3 393e
00000350: e6a2 c83b 93d3 983c a3d3 0f3e 3d76 c1bc
00000360: 2ac0 ed3a d4ff 353d 66c0 813d fbb0 873d
00000370: 9c5c eb3c 4998 0dbe ed99 8abe 3c13 c23e
00000380: dc16 e3bd 1364 9b3e df83 b63d c300 7b3d
00000390: 9599 79be 4263 8d3d 2874 d73d b1e8 81bd
000003a0: a77d 27bc 3fba 993d 12f5 133d 6a7c d83d
000003b0: 31ec a03e e2ad c23c ced4 d8bd 18f6 393e
000003c0: 45b9 f83d 441b 26be 2ce0 50bd e145 aa3e
000003d0: 702f a4bd a830 443d d5e3 ffbd 8206 c93e
000003e0: c129 2d3e 7f19 ed3c b987 91bc 6832 93bd
000003f0: e9e2 ae3c dc11 51bc c4e3 a53d 252d e73c

bias f4 [64]
0.056519985 0.028514352 -0.0684363 0.022801485 -0.0068896767 -0.031581376 -0.031113807 -0.025910785
0.03700452 0.0035585128 0.018412974 -0.062017012 -0.0017454941 0.0038702558 -0.0067892345 0.014461846
0.013662912 0.036317974 -0.06391336 0.00059910666 -0.0053538317 -0.021728957 0.024516096 -0.033185013
0.05326381 -0.04575703 -0.025951503 -0.011042863 -0.0036708864 -0.025649337 -0.021124953 0.030774113
-0.020910706 -0.013347648 0.035429567 0.04819313 0.041908972 0.0087730745 -0.017314913 0.058940884
-0.026420016 -0.04475077 0.017090699 -0.006092985 -0.046933535 -0.08228622 0.014467039 0.021869468
0.037734553 0.02777502 -0.02026328 0.026400886 -0.039927315 -0.0149867 0.023756262 0.038998183
-0.0029825058 -0.007214922 -0.008668203 0.043041453 -0.02515631 -0.027921803 -0.007612676 0.013283286
00000000: 8081 673d ee96 e93c 5528 8cbd 2eca ba3c
00000010: ccc2 e1bb 795b 01bd 62e2 febc db42 d4bc
00000020: 0d92 173d f035 693b ced6 963c 8d05 7ebd
00000030: 10c9 e4ba 1ea4 7d3b 3a78 debb 61f1 6c3c
00000040: 68da 5f3c 28c2 143d 02e5 82bd 5e0d 1d3a
00000050: 326f afbb ed00 b2bc fbd5 c83c 02ed 07bd
00000060: 272b 5a3d b96b 3bbd 3f98 d4bc 20ed 34bc
00000070: 4193 70bb 8f1e d2bc 3d0e adbc fe19 fc3c
00000080: ee4c abbc 18b0 5abc 981e 113d 2966 453d
00000090: bea8 2b3d f1bc 0f3c 01d8 8dbc ff6b 713d
000000a0: ca6e d8bc 954c 37bd cb01 8c3c aaa7 c7bb
000000b0: 613d 40bd ad85 a8bd 2907 6d3c 9927 b33c
000000c0: 8c8f 1a3d 7088 e33c 2eff a5bc ac46 d83c
000000d0: d38a 23bd c78a 75bc 7e9c c23c 8fbc 1f3d
000000e0: 2576 43bb 276b ecbb 1405 0ebc 3c4c 303d
000000f0: 9b14 cebc 44bc e4bc c173 f9bb 24a2 593c

w f4 [6, 64, 40]
-0.21532276 0.31232902 0.060639605 -0.34327695 -0.03887056 -0.14807291 0.21972246 -0.18831195
0.008950919 0.19293892 -0.12547792 0.18437932 0.046029765 -0.21259625 -0.31169477 -0.15614602
0.107860304 -0.2513323 -0.045513812 0.012881197 -0.044109676 -0.14300351 0.13511206 -0.2099293
-0.22632056 0.17139935 0.14907657 -0.3976486 -0.1341046 -0.18132426 0.013761619 -0.08999037
0.1604658 -0.091122046 0.18649867 0.27504343 -0.31953982 0.010558428 0.12463316 0.1688872
-0.13371518 -0.29895216 -0.15083721 0.15069054 0.059922498 -0.27196485 -0.33974788 -0.23710664
0.1148544 0.1916265 -0.23671807 0.16246533 -0.2175812 0.34251145 -0.18445933 0.03422146
-0.46497118 0.013412962 0.215288 -0.39796662 0.21005487 0.29651165 -0.035677698 0.026823193
-0.012323372 0.13700485 0.022261951 -0.2773479 -0.3433054 0.14829864 -0.09844388 -0.039882015
0.042892896 -0.26438323 -0.040838648 0.022324514 0.2087843 0.051080637 -0.10168438 0.18781267
-0.12841038 -0.21839935 -0.30548173 -0.42563063 -0.18850887 0.04234826 0.15379381 -0.26245102
-0.14410952 -0.1573243 0.2573161 0.027629774 0.012527711 -0.34726363 -0.090814404 0.19611971
-0.005423457 -0.03062402 0.24228002 -0.0050750487 -0.3179582 -0.1281682 -0.2648834 -0.10240595
0.21215029 0.18379699 -0.26081064 -0.00087908393 -0.28277475 -0.03908984 0.08521811 0.27987403
-0.14047456 0.26766402 -0.27288407 -0.12995495 -0.004245515 -0.3639703 0.10436549 -0.27812466
-0.1518668 -0.018109603 -0.12140244 -0.18896723 0.28639778 -0.16141446 0.24295428 0.24200664
0.10329592 0.14632182 0.2150342 -0.21673 0.2746921 0.18458219 0.104243815 0.15955684
0.049203888 0.12555243 0.3393413 -0.12990178 0.20616405 -0.06407495 0.18191744 0.267833
0.08133339 -0.016758418 -0.093603514 0.3090774 -0.25980377 0.20325828 0.14072268 0.3388369
-0.16877806 0.104375474 0.1685586 0.1424478 0.056915063 -0.22988795 0.071427375 0.24389054
0.22891009 -0.070146605 -0.2553289 0.060451843 0.06661649 0.08688336 0.24510773 0.22213054
-0.27966127 -0.023646481 0.08698667 0.11230248 -0.11410599 0.269233 -0.19848898 -0.20090443
0.2449674 -0.1903164 0.11637178 -0.093645535 0.15578632 -0.21564065 -0.26327512 -0.19949605
0.35757995 0.30649295 0.24630399 0.14883325 -0.22449955 -0.04097613 -0.22256373 0.15096703
-0.17755686 -0.36486572 0.14337902 0.24431995 0.22316848 -0.09605704 -0.049764685 -0.115808696
-0.22134882 -0.33451417 0.08375021 -0.20171931 0.42545265 0.20345055 0.12358576 -0.23086643
-0.33728328 0.21390547 0.20782006 0.11558924 0.13944408 0.19878983 0.36958882 0.10164136
0.120160535 -0.20083565 0.3206374 0.11878679 -0.27851745 0.107636236 -0.11987876 0.060323413
0.36749667 -0.10500553 0.029557059 0.019167947 -0.1881556 -0.061757438 0.2999651 -0.3326238
-0.22870709 0.19993657 -0.12608889 -0.26504922 -0.33117035 -0.2556466 0.1585965 0.31094193
-0.19574694 0.2176273 -0.13684274 0.11973808 -0.1287633 -0.2279196 -0.26122662 -0.103541076
0.008661606 -0.026417606 0.31618834 0.18177778 0.028050054 0.26344836 0.054668754 -0.05447175
00000000: 927d 5cbe 97e9 9f3e 3c61 783d ffc1 afbe
00000010: bc36 1fbd 6da0 17be edfe 603e d9d4 40be
00000020: e0a6 123c c891 453e 497d 00be efcd 3c3e
00000030: b589 3c3d d5b2 59be 7596 9fbe bee4 1fbe
00000040: dde5 dc3d a1ae 80be b16c 3abd a80b 533c
00000050: 59ac 34bd 836f 12be d15a 0a3e b5f7 56be
00000060: 94c0 67be 5083 2f3e 87a7 183e 9998 cbbe
00000070: b752 09be 11ad 39be 6a78 613c df4c b8bd
00000080: 2651 243e 329e babd 82f9 3e3e 7ed2 8c3e
00000090: b99a a3be 42fd 2c3c ac3f ff3d c4f0 2c3e
000000a0: a2ec 08be 4210 99be 1275 1abe 9f4e 1a3e
000000b0: 4b71 753d fa3e 8bbe 6ff3 adbe 15cc 72be
000000c0: c938 eb3d bd39 443e 3966 72be 505d 263e
000000d0: 9bcd 5ebe a95d af3e e8e2 3cbe cd2b 0c3d
000000e0: b410 eebe 0ac2 5b3c 7574 5c3e 48c2 cbbe
000000f0: a018 573e 60d0 973e c722 12bd 50bc db3c
00000100: f8e7 49bc 004b 0c3e b25e b63c 8b00 8ebe
00000110: bac5 afbe 99db 173e f29c c9bd 535b 23bd
00000120: 76b0 2f3d 3d5d 87be 6d46 27bd e6e1 b63c
00000130: 8dcb 553e ee39 513d e63f d0bd f751 403e
00000140: 037e 03be 14a4 5fbe 1a68 9cbe 42ec d9be
00000150: 7808 41be 5e75 2d3d 207c 1d3e fb5f 86be
00000160: 7291 13be 9f19 21be f0be 833e d657 e23c
00000170: 0741 4d3c 8acc b1be e7fc b9bd 9bd3 483e
00000180: 41b7 b1bb 3adf fabc 4118 783e 984c a6bb
00000190: 6bcb a2be 863e 03be cc9e 87be 36ba d1bd
000001a0: ed3d 593e 4735 3c3e f988 85be 5372 66ba
000001b0: dac7 90be ab1c 20bd d586 ae3d a64b 8f3e
000001c0: 90d8 0fbe 420b 893e 76b7 8bbe e912 05be
000001d0: f61d 8bbb 515a babe 93bd d53d 5b66 8ebe
000001e0: f882 1bbe 975a 94bc d8a1 f8bd a080 41be
000001f0: bba2 923e d549 25be 02c9 783e 97d0 773e
00000200: d08c d33d 63d5 153e ed31 5c3e 78ee 5dbe
00000210: 71a4 8c3e 1d03 3d3e c87d d53d de62 233e
00000220: 048a 493d d190 003e 25be ad3e f904 05be
00000230: ab1c 533e ba39 83bd 9148 3a3e 6821 893e
00000240: 1f92 a63d f348 89bc 33b3 bfbd 653f 9e3e
00000250: 0005 85be f022 503e 9b19 103e 087c ad3e
00000260: 28d4 2cbe cfc2 d53d a09a 2c3e d6dd 113e
00000270: c51f 693d bf67 6bbe 8448 923d 71be 793e
00000280: 6867 6a3e 06a9 8fbd 78ba 82be 5a9c 773d
00000290: 3a6e 883d e7ef b13d 85fd 7a3e 3076 633e
000002a0: c32f 8fbe 44b6 c1bc 1126 b23d d8fe e53d
000002b0: 67b0 e9bd e8d8 893e b240 4bbe e4b9 4dbe
000002c0: bcd8 7a3e 4de2 42be 5454 ee3d 3bc9 bfbd
000002d0: 7386 1f3e e7d0 5cbe ffcb 86be b148 4cbe
000002e0: b814 b73e a5ec 9c3e 1d37 7c3e be67 183e
000002f0: 36e3 65be 96d6 27bd bfe7 63be 1a97 1a3e
00000300: 77d1 35be aecf babe f3d1 123e 022f 7a3e
00000310: 4786 643e 8eb9 c4bd 0ed6 4bbd 1c2d edbd
00000320: 44a9 62be 7145 abbe 3b85 ab3d 828f 4ebe
00000330: eed4 d93e 5755 503e 881a fd3d 4068 6cbe
00000340: 65b0 acbe 090a 5b3e c8ce 543e 0dba ec3d
00000350: 6eca 0e3e 908f 4b3e bf3a bd3e 5829 d03d
00000360: ba16 f63d dca7 4dbe 962a a43e 7d46 f33d
00000370: d799 8ebe 6370 dc3d ff82 f5bd af15 773d
00000380: 8628 bc3e 240d d7bd a521 f23c 1906 9d3c
00000390: ddab 40be 5ef5 7cbd 0795 993e ab4d aabe
000003a0: 3132 6abe 2cbc 4c3e 721d 01be 88b4 87be
000003b0: 298f a9be 1ce4 82be 1f67 223e c833 9f3e
000003c0: e371 48be b1d9 5e3e 8120 0cbe 3d39 f53d
000003d0: 87da 03be c163 69be 7fbf 85be 580d d4bd
000003e0: 69e9 0d3c bc69 d8bc 70e3 a13e f423 3a3e
000003f0: 3ac9 e53c b4e2 863e 58ec 5f3d c51d 5fbd

w f4 [6, 10, 40]
-0.013892553 -0.10997399 0.12160765 0.21352032 0.09766886 0.0040024053 0.27618796 -0.39227387
-0.17466755 0.2465555 0.0138322 0.00518649 0.054753147 0.061980326 0.25638065 0.36698028
0.47547707 0.14321777 0.0007755675 0.27712023 -0.012493879 -0.14116736 -0.34665555 -0.2977932
-0.18378843 0.33076423 -0.09877321 -0.14073388 0.26957273 0.27059895 -0.025176514 0.09865828
-0.18105535 0.1651997 -0.24282429 0.1257333 0.47289607 -0.016088746 -0.29154775 0.0944478
-0.14409018 -0.19115295 0.12619825 -0.08675541 -0.09413751 0.19472227 -0.08304093 -0.053943716
0.26457548 -0.02449481 -0.1923014 0.32032922 0.092588864 -0.1635749 0.022617698 -0.4536005
0.08045549 0.01010753 -0.09860613 -0.14294831 0.19727476 0.22319795 0.25386697 -0.007306492
-0.08146099 -0.16455536 0.3045649 -0.14667118 0.12808616 0.19032948 0.12504059 0.39171794
0.06719266 -0.23519154 0.17853855 -0.03575494 -0.2777765 -0.10130316 0.41518888 0.15142673
-0.25051597 0.19035064 0.04658027 0.08795291 0.016388057 -0.29627648 0.20428908 0.2474506
-0.27940404 -0.14612839 0.045455877 -0.055484865 -0.11359206 0.21005918 0.15398893 0.3432509
-0.07174811 0.2123781 -0.29891047 -0.012048912 -0.16866882 -0.19486172 0.1517783 -0.088247575
-0.039999686 0.26057208 0.4833906 0.03377111 0.04010696 0.20478176 0.18661198 -0.34284797
-0.16295685 -0.20135863 -0.1848695 0.16870026 0.29594964 0.2560381 0.050003443 0.26385283
-0.21800745 0.02651995 -0.43619543 -0.040526073 -0.2938189 -0.16592821 -0.32261142 -0.2810708
0.21022706 0.289549 -0.18000591 -0.15190643 -0.068897694 -0.33813414 0.24259895 0.1790808
0.06964387 0.23664258 0.29101312 0.013449776 -0.017093886 0.22012599 -0.06649975 -0.25162515
-0.015550024 0.3690977 0.05886923 0.22825122 -0.19613107 0.2740252 0.080869995 -0.042850472
-0.25236857 0.3371024 -0.28669393 0.22160554 0.28829792 0.20697466 -0.32616952 -0.04960657
0.31178325 0.07921942 0.36661276 -0.20758662 -0.3597412 0.21803324 0.36800086 -0.35792536
0.24119489 0.2266256 -0.09239927 -0.31083515 -0.04650983 -0.29550573 0.04273458 -0.012846803
0.23999125 -0.2840556 0.15299694 -0.18387412 0.19300178 0.19162393 0.31882387 -0.06973931
0.16535978 0.05350437 0.2096343 0.1671494 0.074880555 0.05247377 0.0048629367 -0.053620428
-0.21387969 -0.16209128 0.0033231415 -0.15941286 -0.26173526 -0.15121523 0.11144184 -0.19613436
0.022134585 -0.21526647 -0.16369663 0.026352407 0.1652583 0.30430055 -0.14033264 -0.11918976
0.08914903 0.068361804 0.24226063 0.23010403 -0.23130578 0.082056694 0.13219847 -0.0017791269
-0.1432698 -0.024921454 -0.014272235 -0.22927916 0.10900104 -0.22120106 0.07672217 0.27163997
-0.13455293 -0.10779137 0.13160244 0.2079867 0.16621378 -0.22569369 -0.007069622 -0.31440073
0.015335192 0.10845702 -0.0041759782 0.17959358 0.21390864 0.3369847 -0.00803135 -0.19782427
-0.17277873 -0.23873512 -0.14339317 0.06966356 -0.1442384 0.06794438 0.1616149 -0.3148886
0.003032765 0.079763256 -0.024818271 0.33094633 -0.13697684 -0.29582357 -0.31418473 0.35622048
00000000: 979d 63bc 0b3a e1bd 6e0d f93d 12a5 5a3e
00000010: 9c06 c83d 9c26 833b 8268 8d3e 1fd8 c8be
00000020: 0ddc 32be 0c79 7c3e 74a0 623c 6ef3 a93b
00000030: d644 603d 15df 7d3d 5344 833e d7e4 bb3e
00000040: bb71 f33e aea7 123e 744f 4b3a b4e2 8d3e
00000050: 20b3 4cbc 2d8e 10be d67c b1be 5a78 98be
00000060: 0933 3cbe ee59 a93e 9c49 cabd 8b1c 10be
00000070: 7005 8a3e f28b 8a3e fa3e cebc 5a0d ca3d
00000080: 9366 39be 1c2a 293e eea6 78be 3bc0 003e
00000090: 6f1f f23e 8ccc 83bc bf45 95be d96d c13d
000000a0: 608c 13be 99bd 43be 1d3a 013e d2ac b1bd
000000b0: 2bcb c0bd 4665 473e 5d11 aabd 16f4 5cbd
000000c0: 7076 873e 57a9 c8bc a8ea 44be 3102 a43e
000000d0: 3b9f bd3d 2e80 27be c048 b93c 533e e8be
000000e0: d9c5 a43d 0e9a 253c 03f2 c9bd 0b61 12be
000000f0: 6502 4a3e 018e 643e dafa 813e 4c6b efbb
00000100: 05d5 a6bd 3381 28be eeef 9b3e f830 16be
00000110: 0529 033e bbe5 423e a40a 003e 418f c83e
00000120: 4e9c 893d 0dd6 70be cfd2 363e c673 12bd
00000130: b938 8ebe 0878 cfbd a393 d43e 9c0f 1b3e
00000140: a143 80be 47eb 423e f4ca 3e3d a820 b43d
00000150: 3f40 863c 8db1 97be 2831 513e b163 7d3e
00000160: 0c0e 8fbe aea2 15be f12f 3a3d 1944 63bd
00000170: f4a2 e8bd c119 573e 46af 1d3e 95be af3e
00000180: acf0 92bd a579 593e cb0a 99be cd68 45bc
00000190: 85b7 2cbe d589 47be c56b 1b3e 25bb b4bd
000001a0: b6d6 23bd b469 853e f97e f73e 9353 0a3d
000001b0: 3247 243d 4fb2 513e 3617 3f3e c589 afbe
000001c0: 29de 26be f530 4ebe 6e4e 3dbe c3bf 2c3e
000001d0: b686 973e 6d17 833e 69d0 4c3d b817 873e
000001e0: 583d 5fbe 5e40 d93c 0255 dfbe abfe 25bd
000001f0: 6e6f 96be 16e9 29be 532d a5be 83e8 8fbe
00000200: c345 573e c43f 943e 7853 38be 5c8d 1bbe
00000210: 3c1a 8dbd eb1f adbe dc6b 783e f560 373e
00000220: 72a1 8e3d 6f52 723e acff 943e 735c 5c3c
00000230: 7a08 8cbc b568 613e 0531 88bd 03d5 80be
00000240: 87c5 7ebc 60fa bc3e dd20 713d b0ba 693e
00000250: 95d6 48be 084d 8c3e 2b9f a53d fa83 2fbd
00000260: 7436 81be b098 ac3e 8cc9 92be 90ec 623e
00000270: c99b 933e 2af1 533e b1ff a6be 4230 4bbd
00000280: 0ea2 9f3e cb3d a23d abb4 bb3e 9691 54be
00000290: 0030 b8be 1b44 5f3e 9c6a bc3e fe41 b7be
000002a0: cbfb 763e 8b10 683e d43b bdbd c925 9fbe
000002b0: 1781 3ebd 874c 97be 740a 2f3d 667b 52bc
000002c0: 44c0 753e bc6f 91be 3bab 1c3e 7f49 3cbe
000002d0: 42a2 453e 1039 443e e23c a33e 7cd3 8ebd
000002e0: 1354 293e 6627 5b3d 60aa 563e 3629 2b3e
000002f0: fa5a 993d bcee 563d 4559 9f3b 18a1 5bbd
00000300: 4703 5bbe 42fb 25be 10c9 593b 203d 23be
00000310: 2a02 86be 2ad8 1abe 9f3b e43d 72d7 48be
00000320: 9753 b53c d06e 5cbe 17a0 27be 01e1 d73c
00000330: 7939 293e 48cd 9b3e 5cb3 0fbe c319 f4bd
00000340: c493 b63d 4601 8c3d 2c13 783e 64a0 6b3e
00000350: 6cdb 6cbe 570d a83d 095f 073e 9831 e9ba
00000360: 52b5 12be 1428 ccbc 18d6 69bc 28c8 6abe
00000370: f03b df3d 8882 62be 8320 9d3d 6514 8b3e
00000380: 3ec8 09be b9c1 dcbd cac2 063e 77fa 543e
00000390: f233 2a3e 3f1c 67be 4aa8 e7bb 22f9 a0be
000003a0: 7540 7b3c b71e de3d a5d6 88bb 61e7 373e
000003b0: de0a 5b3e 4289 ac3e ec95 03bc 7292 4abe
000003c0: e8ec 30be fb76 74be a9d5 12be c5ab 8e3d
000003d0: 3bb3 13be 6c26 8b3d 607e 253e 1439 a1be
000003e0: 5ac1 463b eb5a a33d b04f cbbc cc71 a93e
000003f0: a843 0cbe 3076 97be d2dc a0be 8862 b63e
