Recurrent-Independent-Mechanisms/minigrid_experiments/storage/2023-11-21_wallgap-doorkey-redblue-crossing_ppo_123456_100000_metalearn_True_rims_6_k_4_reshape_False/2023-11-21_wallgap-doorkey-redblue-crossing_ppo_123456_100000_metalearn_True_rims_6_k_4_reshape_False_fullmodel_task_3.pth (torch, 294607 bytes, 24 tensors)

weight f4 [16, 3, 2, 2]
-0.14624052 0.28660315 0.054044653 0.43672642 0.028906263 -0.07234083 -0.012323335 -0.113892205
-0.11925527 0.0775331 -0.28512457 0.1873258 0.018533593 -0.285206 -0.22787929 -0.1483103
-0.0036275256 -0.119722664 -0.28018335 -0.11261234 -0.005121112 0.10037589 0.108071685 0.23312545
-0.26802474 -0.16167659 -0.2725649 -0.191595 -0.27746257 0.24183114 -0.21609876 0.22751205
0.054934233 -0.1458224 0.2059069 0.15862939 -0.09543826 -0.10447761 -0.028549628 -0.22345188
-0.05278206 -0.048744813 -0.2122109 0.27649793 -0.038006723 0.03343154 -0.1538831 -0.07662073
0.19164014 0.054771036 0.09988138 0.23395608 -0.350816 -0.5155279 0.14555657 0.11965872
-0.16151044 0.34438637 -0.16098168 0.11763561 -0.16072123 0.04405642 0.07376892 0.3812377
0.011887001 -0.2914967 0.1731825 -0.32364407 0.098629996 0.28376395 0.30241632 -0.21815848
0.2632611 0.4973481 -0.23076184 -0.25841546 -0.05512646 -0.2691258 0.0025846907 0.11855025
0.19166921 0.20421445 -0.18531992 -0.096466765 0.10733217 0.15692708 -0.12429595 0.3418038
-0.15570523 -0.124981314 0.21083891 -0.23161127 0.43656108 0.06181391 0.059126396 0.26145795
0.25958636 -0.12889422 0.05080393 -0.1914456 0.09281521 0.107096456 -0.31180328 0.18842943
-0.17655805 -0.21576586 -0.12518123 -0.008313894 -0.0030066478 0.33373687 -0.24253267 -0.3183014
0.01418162 -0.18824281 0.07036339 0.20954408 0.16899793 0.37083635 -0.22805823 0.24683765
0.109208405 0.102810614 0.06290225 -0.37013716 -0.21416187 0.16952659 -0.3184776 -0.020319004
0.21487786 -0.060867023 -0.0016813867 -0.2788647 -0.07665266 -0.22533667 -0.0076177926 -0.35812694
0.31185806 0.06975229 0.31700677 0.12174927 0.14816856 -0.26777148 0.053743623 -0.12709546
0.31672385 0.03942515 0.3385026 -0.21480851 -0.23198228 -0.46422598 -0.20318632 0.06411487
-0.119780645 -0.26599768 0.24778223 -0.20124356 -0.009901388 0.16463186 -0.039750922 0.15291762
-0.05216341 0.21342796 -0.3449355 -0.37437642 -0.02572039 -0.102565944 -0.069407195 0.28991577
-0.25326857 -0.37874123 0.07842261 0.08184287 0.099154994 0.18714784 -0.30891153 0.27104506
0.32735258 -0.28026214 -0.21751061 -0.22154017 0.31603444 -0.081821874 0.3538947 -0.13426735
-0.30247214 0.21626455 -0.14285176 -0.5955216 0.4691823 -0.092355125 0.069324985 -0.11239995
00000000: 13c0 15be a6bd 923e ed5d 5d3d 9b9a df3e
00000010: d4cc ec3c 6e27 94bd d0e7 49bc 5140 e9bd
00000020: 1b3c f4bd adc9 9e3d d9fb 91be 56d2 3f3e
00000030: c3d3 973c 8506 92be 3059 69be a8de 17be
00000040: c8bb 6dbb 2831 f5bd 3174 8fbe 4ca1 e6bd
00000050: 00cf a7bb e091 cd3d b054 dd3d 70b8 6e3e
00000060: 8a3a 89be 8c8e 25be a08d 8bbe 7b31 44be
00000070: 930f 8ebe 95a2 773e fe48 5dbe ebf8 683e
00000080: b802 613d 7852 15be 42d9 523e be6f 223e
00000090: 2275 c3bd 5bf8 d5bd e9e0 e9bc 92d0 64be
000000a0: 0032 58bd a4a8 47bd d04d 59be 2391 8d3e
000000b0: f0ac 1bbd 83ef 083d 8893 1dbe 54eb 9cbd
000000c0: 503d 443e 9857 603d 9c8e cc3d 2f92 6f3e
000000d0: 289e b3be a3f9 03bf c80c 153e a20f f53d
000000e0: fe62 25be 6953 b03e 62d8 24be f0ea f03d
000000f0: 1b94 24be 8174 343d 2914 973d 9631 c33e
00000100: b2c1 423c 0e3f 95be c156 313e adb4 a5be
00000110: 86fe c93d 8249 913e 50d6 9a3e f064 5fbe
00000120: 29ca 863e 69a4 fe3e d54c 6cbe 084f 84be
00000130: 48cc 61bd dbca 89be ea63 293b 79ca f23d
00000140: ef44 443e 981d 513e 81c4 3dbe 5e90 c5bd
00000150: f8d0 db3d 7eb1 203e e08e febd e800 af3e
00000160: 3171 1fbe 34f6 ffbd 28e6 573e 812b 6dbe
00000170: ef84 df3e 9530 7d3d 852e 723d d1dd 853e
00000180: 81e8 843e d9fc 03be c817 503d 510a 44be
00000190: e715 be3d 6355 db3d aea4 9fbe a5f3 403e
000001a0: a2cb 34be baf1 5cbe 822f 00be 0037 08bc
000001b0: 2e0b 45bb 8fdf aa3e 7c5a 78be 67f8 a2be
000001c0: 075a 683c b9c2 40be ae1a 903d b992 563e
000001d0: cb0d 2d3e 43de bd3e 1988 69be 02c3 7c3e
000001e0: a8a8 df3d 5f8e d23d e5d2 803d 9e82 bdbe
000001f0: 404d 5bbe 6198 2d3e 7f0f a3be 0a74 a6bc
00000200: f108 5c3e b34f 79bd fa61 dcba 5bc7 8ebe
00000210: 12fc 9cbd a8be 66be ad9e f9bb 6a5c b7be
00000220: dcab 9f3e 4ada 8e3d b64e a23e ae57 f93d
00000230: 80b9 173e 5819 89be 4622 5c3d 5025 02be
00000240: a129 a23e 447c 213d 3650 ad3e c3f6 5bbe
00000250: c38c 6dbe 07af edbe 1310 50be a84e 833d
00000260: 8e4f f5bd d930 88be a0ba 7d3e cb12 4ebe
00000270: 6e39 22bc 4195 283e ddd1 22bd 7096 1c3e
00000280: 4da9 55bd dc8c 5a3e 639b b0be 44ae bfbe
00000290: 91b3 d2bc 180e d2bd 5c25 8ebd d76f 943e
000002a0: 6bac 81be 5fea c1be 099c a03d 3c9d a73d
000002b0: c611 cb3d afa3 3f3e a729 9ebe 6bc6 8a3e
000002c0: c29a a73e 857e 8fbe 1abb 5ebe 6ddb 62be
000002d0: 44cf a13e 3a92 a7bd b031 b53e 617d 09be
000002e0: a1dd 9abe 7474 5d3e bb47 12be 1b74 18bf
000002f0: aa38 f03e af24 bdbd 42fa 8d3d f231 e6bd

bias f4 [16]
-0.31607926 -0.034150105 -0.055713333 0.100322336 -0.15516359 -0.25825092 0.09440343 -0.26911205
-0.08317707 0.101209275 0.11350509 -0.18924299 -0.13446091 0.0028793188 -0.24364583 -0.15591982
00000000: 24d5 a1be fbe0 0bbd aa33 64bd cc75 cd3d
00000010: 34e3 1ebe 7739 84be 9656 c13d 0ec9 89be
00000020: bd58 aabd cf46 cf3d 5b75 e83d eac8 41be
00000030: 1fb0 09be f4b2 3c3b 4b7e 79be 72a9 1fbe

weight f4 [32, 16, 2, 2]
-0.07788754 -0.17562918 0.14960347 0.012386735 0.014556229 0.103951454 0.09126045 0.03206943
-0.008007587 -0.17091559 0.18201198 0.11268805 -0.03970155 0.15742648 0.07461817 -0.07553405
-0.052876372 0.014555523 0.033976436 -0.08294532 -0.17176968 -0.0005685971 0.15285438 -0.021890301
0.07645078 0.12482024 -0.0071551227 -0.09172212 0.06269143 0.06684003 -0.15188362 -0.13750367
0.09030603 0.04280629 0.016991429 -0.07739865 -0.16890094 0.061403748 -0.12881473 -0.21230558
-0.16844788 0.14318585 -0.05257146 0.14021857 0.0004996413 0.012428972 0.0039156647 0.01410675
-0.15075716 -0.017512508 0.050084617 0.12750243 0.31728053 0.24992763 -0.104466274 0.061152123
-0.055475254 -0.13682953 0.060425457 -0.12240302 0.009845834 0.19238846 0.012219924 0.17303003
-0.15841016 -0.052856173 0.054524105 0.27785227 0.110450014 0.039932504 -0.08969611 -0.017910067
0.015625011 0.06417203 -0.1662003 -0.016435718 -0.06540486 0.14343122 -0.18775433 0.015537951
-0.02203117 0.0033465265 -0.10870703 0.022471331 -0.16039532 0.102053404 -0.040284004 0.27588755
-0.028839637 -0.1815612 -0.04741752 0.27814567 -0.0035286744 -0.062331486 -0.011507422 0.24699385
-0.0010044444 0.079703145 -0.2095617 -0.14097911 -0.13766323 -0.12559421 -0.19372106 -0.022883559
0.08398745 -0.062122904 0.028962784 -0.047091626 -0.030371785 -0.06439436 -0.051914506 -0.08036155
-0.20815885 -0.10860021 -0.020910662 0.219475 -0.04344716 -0.04082325 -0.124203466 0.020724777
-0.07159645 0.12569831 -0.003314641 0.07572031 -0.085227564 -0.17507398 0.040270235 0.14743353
0.018189378 -0.19319643 -0.09377815 -0.15460952 0.0007813871 -0.027259976 0.036753774 0.095955715
-0.050358582 -0.21232785 -0.030537888 -0.09167284 -0.09371597 -0.18124588 0.036084224 0.10434979
-0.024491772 0.039653927 0.015134469 0.09626741 0.14500464 -0.23116666 -0.0086585665 0.039529335
0.25367975 0.09184909 -0.019589322 0.017198795 0.15392293 -0.1901629 -0.063709095 -0.08667945
0.1545341 0.10823919 -0.208161 -0.17963499 0.10359768 -0.29839998 0.08598818 -0.09572578
-0.085071094 -0.07735021 -0.084257744 -0.037162717 0.07256821 -0.17677014 -0.04996476 -0.11596706
0.06730213 -0.029568275 0.02819191 -0.04584433 -0.0053109815 0.054988075 -0.0985913 -0.047771923
-0.18376653 -0.20372313 -0.19536994 -0.09459832 0.034701332 0.15517719 -0.036624722 0.07668165
0.033184487 -0.038989685 -0.06260183 -0.15442108 0.081983715 0.057635933 0.09121515 -0.10261798
0.09186774 -0.14167015 -0.10253986 -0.033570327 0.11582713 0.09736909 0.029056527 -0.21595326
-0.0415766 -0.07504609 0.011649964 -0.014114945 0.19593892 -0.09198035 -0.1316458 -0.11205744
0.10333682 -0.22524601 0.1001927 -0.11500372 0.16570793 -0.1902755 -0.027533464 -0.14046083
0.07804777 0.051501106 0.17233859 -0.013933529 -0.1384976 -0.028778095 0.051237218 0.041645024
0.18640119 0.038698994 0.07901204 0.03498746 -0.032672428 0.14792743 -0.0046702735 0.09488449
0.22990353 -0.049261138 0.13749634 -0.030614426 0.17052113 -0.047947947 0.09704743 0.1251838
0.0638398 0.08523015 -0.061634257 -0.065280706 0.26025355 -0.009997586 0.076349966 -0.027423533
00000000: 8183 9fbd 23d8 33be a731 193e bbf1 4a3c
00000010: 407d 6e3c 80e4 d43d c2e6 ba3d 3c5b 033d
00000020: 4132 03bc 7f04 2fbe 5961 3a3e fec8 e63d
00000030: 189e 22bd 6834 213e 69d1 983d 99b1 9abd
00000040: e594 58bd 4a7a 6e3c e02a 0b3d 3cdf a9bd
00000050: 64e4 2fbe e80d 15ba dc85 1c3e 4a53 b3bc
00000060: 3a92 9c3d c1a1 ff3d 8575 eabb cfd8 bbbd
00000070: 5d64 803d 6de3 883d 6187 1bbe c3cd 0cbe
00000080: 5ef2 b83d a655 2f3d 9c31 8b3c 2f83 9ebd
00000090: 5ef4 2cbe 7f82 7b3d 02e8 03be a266 59be
000000a0: 9a7d 2cbe 509f 123e 2c55 57bd 7595 0f3e
000000b0: 5cfa 023a e3a2 4b3c fa4e 803b ff1f 673c
000000c0: 1660 1abe 6476 8fbc 8725 4d3d ff8f 023e
000000d0: 9872 a23e 07ed 7f3e 6af2 d5bd a67a 7a3d
000000e0: 053a 63bd 0a1d 0cbe af80 773d 6fae fabd
000000f0: 6c50 213c 7b01 453e 1336 483c c92e 313e
00000100: 4636 22be b77f 58bd ab54 5f3d a742 8e3e
00000110: 9e33 e23d 4490 233d 98b2 b7bd 22b8 92bc
00000120: 0600 803c a06c 833d 6930 2abe 33a4 86bc
00000130: fcf2 85bd a2df 123e ac42 40be e492 7e3c
00000140: b67a b4bc 6651 5b3b cba1 debd cc15 b83c
00000150: ac3e 24be 6001 d13d d700 25bd 2241 8d3e
00000160: 1a41 ecbc 2eeb 39be e038 42bd 1c69 8e3e
00000170: 5541 67bb 4d4f 7fbd a089 3cbc f5eb 7c3e
00000180: 90a7 83ba 673b a33d 5897 56be d45c 10be
00000190: 97f7 0cbe c59b 00be d05e 46be 4d76 bbbc
000001a0: 9d01 ac3d 9674 7ebd 5c43 ed3c 26e3 40bd
000001b0: 40ce f8bc 31e1 83bd 4ea4 54bd 9994 a4bd
000001c0: 9827 55be c969 debd d64c abbc 0ebe 603e
000001d0: a6f5 31bd 4836 27bd 635e febd 02c7 a93c
000001e0: 29a1 92bd 0fb7 003e 733a 59bb 4013 9b3d
000001f0: ca8b aebd 9846 33be 67f2 243d d1f8 163e
00000200: e401 953c 49d5 45be c20e c0bd f551 1ebe
00000210: 00d6 4c3a 5050 dfbc 208b 163d 6e84 c43d
00000220: cd44 4ebd 796c 59be 982a fabc f8be bbbd
00000230: 29ee bfbd 8598 39be 0dcd 133d 58b5 d53d
00000240: f8a2 c8bc 286c 223d 90f6 773c d927 c53d
00000250: 197c 143e f4b6 6cbe a9dc 0dbc 83e9 213d
00000260: 50e2 813e 601b bc3d c979 a0bc 7de4 8c3c
00000270: f99d 1d3e 10ba 42be ea79 82bd ff84 b1bd
00000280: 303e 1e3e 82ac dd3d 2828 55be 3cf2 37be
00000290: 052b d43d e2c7 98be 921a b03d e10b c4bd
000002a0: c139 aebd c969 9ebd 538f acbd ef37 18bd
000002b0: a49e 943d 3b03 35be d9a7 4cbd 2380 edbd
000002c0: b3d5 893d 2b39 f2bc b8f2 e63c 44c7 3bbd
000002d0: be07 aebb 2d3b 613d 3cea c9bd 7eac 43bd
000002e0: 4b2d 3cbe cc9c 50be 0f0f 48be c4bc c1bd
000002f0: fc22 0e3d c5e6 1e3e ce03 16bd 450b 9d3d
00000300: 75ec 073d a6b3 1fbd 6335 80bd 8f20 1ebe
00000310: 14e7 a73d a813 6c3d 02cf ba3d 6029 d2bd
00000320: 2725 bc3d fb11 11be 6b00 d2bd 0a81 09bd
00000330: c636 ed3d 7269 c73d f407 ee3c da22 5dbe
00000340: 3a4c 2abd c4b1 99bd 7edf 3e3c 5f42 67bc
00000350: 36a4 483e 3260 bcbd 28ce 06be 5f7e e5bd
00000360: 41a2 d33d e4a6 66be d531 cd3d 1287 ebbd
00000370: 57af 293e 95d7 42be dc8d e1bc f7d4 0fbe
00000380: 82d7 9f3d d3f2 523d 8779 303e 7549 64bc
00000390: 51d2 0dbe 0ac0 ebbc 1ede 513d f993 2a3d
000003a0: f4df 3e3e d682 1e3d 10d1 a13d 034f 0f3d
000003b0: 86d3 05bd 4a7a 173e 1809 99bb cd52 c23d
000003c0: d56b 6b3e 0cc6 49bd d7cb 0c3e 1bcb fabc
000003d0: 179d 2e3e 1165 44bd cec0 c63d 2f30 003e
000003e0: 71be 823d 258d ae3d 3474 7cbd e4b1 85bd
000003f0: f43f 853e eacc 23bc 5f5d 9c3d 51a7 e0bc

bias f4 [32]
0.05301743 0.061164215 -0.020284036 -0.018140404 -0.055381987 0.041267537 -0.049732316 -0.04854302
0.00023867824 0.029444436 0.04900754 0.012875022 -0.122366264 0.017144047 0.0037375689 0.0539025
0.012134732 -0.041976538 -0.11838738 -0.063467145 0.08089682 -0.09643536 -0.10059214 0.061625235
0.06306239 0.03510097 0.10425558 -0.05588426 -0.12115453 -0.030563522 0.06871979 0.042059056
00000000: ce28 593d 5487 7a3d b52a a6bc 2f9b 94bc
00000010: 39d8 62bd 2608 293d 1db4 4bbd 0cd5 46bd
00000020: b445 7a39 7535 f13c 21bc 483d c2f1 523c
00000030: 2a9b fabd ac71 8c3c 00f2 743b dec8 5c3d
00000040: c1d0 463c 97ef 2bbd 1575 f2bd 10fb 81bd
00000050: 3bad a53d e77f c5bd 4003 cebd be6a 7c3d
00000060: db26 813d 09c6 0f3d f383 d53d e5e6 64bd
00000070: de1f f8bd 5a60 fabc f6bc 8c3d 1e46 2c3d

weight f4 [64, 32, 2, 2]
-0.03928307 0.053149626 -0.030178228 -0.17828447 -0.092229046 0.15455312 -0.20156951 0.341319
0.090113975 -0.14954288 -0.16035648 0.029941682 0.20334029 -0.07997845 0.0034279604 0.029354028
-0.15315394 -0.04543867 -0.11006698 0.0069640633 0.032789346 -0.10553579 -0.016805736 -0.018582676
-0.13661498 0.22419707 -0.24259627 0.27764127 0.09528557 0.07738981 -0.10343674 -0.11682936
0.052590605 -0.09796382 0.045506142 0.07537308 0.060550146 0.081271276 -0.19328909 -0.07962239
-0.098962255 -0.057011172 -0.090519615 -0.020145195 -0.06990454 0.043878853 -0.06867989 0.09959962
-0.0117946295 0.26022658 -0.060842287 0.0023081223 -0.040069047 -0.038102478 -0.2548939 -0.091913685
0.08616998 -0.15507269 0.04505237 0.00119457 0.22528096 -0.16516271 0.01911924 -0.17109987
-0.19079615 -0.068542354 0.025955526 0.041843757 -0.117696054 -0.034066163 0.001482907 -0.09377262
-0.16494846 0.07487609 0.0071383407 0.17995767 0.13146661 -0.20892763 -0.05937987 -0.18181595
-0.048659697 0.13232967 0.034731295 0.17480831 -0.016129533 0.24512689 0.035424177 0.0061224243
-0.07270145 0.03567198 -0.17402892 0.12996604 -0.0020313594 0.015095206 -0.10513157 -0.00091108127
0.11749138 -0.15726632 0.09585724 -0.12508501 0.15181518 0.017195685 -0.08308277 -0.15499632
0.009720333 -0.06724285 0.10030439 0.03454029 -0.08224704 0.062207654 -0.15877189 -0.016950797
-0.106203154 0.1403846 -0.0850286 0.02143884 -0.20730893 0.15133138 -0.110422686 0.03619377
-0.08715174 0.025921583 -0.03358613 0.12330342 -0.01734246 -0.21728027 -0.12566912 -0.023535406
0.0036384952 -0.038964964 -0.016084984 -0.028765075 -0.03479681 -0.021288108 -0.10097309 -0.014985644
-0.06394394 -0.04497726 -0.068940066 -0.0988641 -0.023203142 0.03712787 -0.10848962 0.057431232
-0.018979758 0.0070012296 -0.009741735 -0.11254528 -0.016318068 -0.08939862 0.07592228 -0.05344846
-0.09481878 -0.03832134 0.029466473 -0.05698135 -0.04033114 -0.0409738 0.043612313 -0.08052445
-0.014653033 0.023035675 0.024259346 0.0034513948 -0.05155167 -0.062389966 -0.013421785 0.04326503
-0.06366889 0.061905794 0.053662475 -0.06708344 -0.09320772 0.0131924 -0.047589812 0.0040672906
-0.009468151 -0.086006775 -0.07717991 -0.09189576 0.03469407 0.08043402 -0.0899549 -0.118573874
0.07787641 0.0039381725 -0.021815144 0.07320083 -0.10608108 -0.10336367 -0.10034567 -0.07608957
0.033947196 -0.043396246 -0.03937725 -0.088832535 -0.088404216 0.035534512 0.0020389277 -0.008434556
-0.024503373 -0.008582231 -0.04707677 -0.069244966 0.054367084 -0.049010687 -0.09946293 0.0482056
0.021718184 -0.04260663 -0.009143335 -0.0073182313 -0.09053059 -0.037702538 0.04012404 0.0011531077
-0.06191251 0.0056917495 -0.14457625 0.072119825 0.023846397 -0.01592431 -0.07027208 -0.022867516
0.0016306243 -0.026794754 -0.043718934 -0.109046325 0.02392248 0.08155208 -0.10608159 0.014284131
-0.08094277 -0.11625084 -0.06545152 0.045495 0.024671346 -0.03591119 -0.05810543 -0.04453565
0.01895588 0.06948195 -0.06736856 -0.05684367 -0.024354624 -0.06148858 -0.09809832 -0.058032487
-0.07595806 -0.038362544 -0.045512334 -0.054939356 -0.053305082 0.03521342 0.031464763 0.03166517
00000000: 49e7 20bd 6cb3 593d 5538 f7bc 3490 36be
00000010: 95e2 bcbd 2c43 1e3e 3d68 4ebe 5dc1 ae3e
00000020: ad8d b83d c521 19be 7d34 24be 4248 f53c
00000030: 7038 503e becb a3bd a2a7 603b dc77 f03c
00000040: 63d4 1cbe e61d 3abd cc6a e1bd cc32 e43b
00000050: 1f4e 063d 2623 d8bd 2fac 89bc b23a 98bc
00000060: cce4 0bbe eb93 653e 286b 78be ff26 8e3e
00000070: 1525 c33d 8c7e 9e3d a4d6 d3bd 3b44 efbd
00000080: 3f69 573d 41a1 c8bd a664 3a3d 345d 9a3d
00000090: 6e03 783d 8e71 a63d 93ed 45be 1011 a3bd
000000a0: b9ac cabd 8c84 69bd 5962 b9bd 8907 a5bc
000000b0: 1d2a 8fbd 50ba 333d 0ba8 8cbd e3fa cb3d
000000c0: 433e 41bc 6b3c 853e c335 79bd de43 173b
000000d0: 711f 24bd 5811 1cbd 7481 82be 3e3d bcbd
000000e0: e379 b03d 60cb 1ebe d588 383d 1e93 9c3a
000000f0: 0db0 663e 6a20 29be f49f 9c3c ce34 2fbe
00000100: 1160 43be ef5f 8cbd afa0 d43c 5c64 2b3d
00000110: a10a f1bd f688 0bbd 1a5e c23a dc0b c0bd
00000120: 40e8 28be a358 993d bee8 e93b d346 383e
00000130: 2f9f 063e 20f1 55be 4e38 73bd f62d 3abe
00000140: 644f 47bd 6e81 073e 6742 0e3d f300 333e
00000150: 1522 84bc 8b02 7b3e f118 113d 9e9e c83b
00000160: 7fe4 94bd c81c 123d a334 32be d115 053e
00000170: 8e20 05bb e251 773c 384f d7bd a1d5 6eba
00000180: 529f f03d 6c0a 21be cd50 c43d 4916 00be
00000190: 7075 1b3e f7dd 8c3c 4d27 aabd 5bb7 1ebe
000001a0: 0842 1f3c 9fb6 89bd 636c cd3d 1e7a 0d3d
000001b0: 2371 a8bd 74cd 7e3d 1995 22be 66dc 8abc
000001c0: 0a81 d9bd fbc0 0f3e 7a23 aebd 82a0 af3c
000001d0: cb48 54be 9df6 1a3e 4a25 e2bd eb3f 143d
000001e0: 9d7c b2bd 8059 d43c 9c91 09bd 8186 fc3d
000001f0: c611 8ebc b87e 5ebe 68af 00be 53cd c0bc
00000200: d273 6e3b ba99 1fbd a8c4 83bc bca4 ebbc
00000210: 1a87 0ebd 6664 aebc fbca cebd 5986 75bc
00000220: 0af5 82bd 133a 38bd 7330 8dbd 4379 cabd
00000230: 8414 bebc 6513 183d ce2f debd 033d 6b3d
00000240: 707b 9bbc 926a e53b cc9b 1fbc 247e e6bd
00000250: 78ad 85bc a016 b7bd 247d 9b3d c6ec 5abd
00000260: 5930 c2bd d6f6 1cbd ac63 f13c 4765 69bd
00000270: 4432 25bd 25d4 27bd d3a2 323d 01ea a4bd
00000280: 4613 70bc 50b5 bc3c 89bb c63c cc30 623b
00000290: d827 53bd 9f8c 7fbd 0ce7 5bbc ac36 313d
000002a0: d664 82bd ee90 7d3d 2fcd 5b3d 0b63 89bd
000002b0: b0e3 bebd f024 583c 89ed 42bd e846 853b
000002c0: 4e20 1bbc 5224 b0bd 8010 9ebd d833 bcbd
000002d0: 5f1b 0e3d 97ba a43d 463a b8bd dcd6 f2bd
000002e0: ab7d 9f3d c90b 813b acb5 b2bc 51ea 953d
000002f0: 0a41 d9bd 55b0 d3bd 0882 cdbd d9d4 9bbd
00000300: 370c 0b3d 43c0 31bd 0a4a 21bd d5ed b5bd
00000310: 450d b5bd a38c 113d 889f 053b 1831 0abc
00000320: 4cbb c8bc 7c9c 0cbc 92d3 40bd 4ed0 8dbd
00000330: 05b0 5e3d 6ebf 48bd 38b3 cbbd 3c73 453d
00000340: 55ea b13c 4a84 2ebd edcd 15bc c6cd efbb
00000350: 1a68 b9bd fa6d 1abd 1b59 243d e023 973a
00000360: f997 7dbd db81 ba3b cc0b 14be 8fb3 933d
00000370: 8559 c33c b373 82bc cfea 8fbd a854 bbbc
00000380: acba d53a ac80 dbbc a012 33bd ae53 dfbd
00000390: 14f9 c33c c704 a73d 4e41 d9bd fd07 6a3c
000003a0: 53c5 a5bd ec14 eebd 720b 86bd f758 3a3d
000003b0: 901b ca3c 9d17 13bd f6ff 6dbd 046b 36bd
000003c0: 5d49 9b3c 8d4c 8e3d 87f8 89bd e8d4 68bd
000003d0: 5983 c7bc 73db 7bbd c6e7 c8bd 79b3 6dbd
000003e0: e68f 9bbd 0b22 1dbd 246b 3abd 1708 61bd
000003f0: 6e56 5abd f23b 103d 32e1 003d 56b3 013d

bias f4 [64]
0.06979728 -0.1123774 0.07294413 -0.04335042 0.003504857 -0.040152814 -0.026066197 -0.07062349
-0.06660627 -0.0138315605 -0.002568445 -0.019320277 -0.092690066 -0.061221074 0.08801849 -0.10871522
-0.020394215 -0.022824738 -0.0017336579 -0.032752093 -0.03148576 -0.03398025 0.024634302 0.070380464
0.10547674 -0.034323197 0.079759665 0.029798884 -0.07611091 -0.032365404 -0.0067134714 0.08116495
0.009265551 -0.0443377 0.09610375 -0.021333126 0.0037429286 -0.04393177 0.06366838 0.050611913
-0.07218506 0.06688247 0.04849076 -0.076306194 -0.014806786 -0.15129091 -0.00074794085 0.016777854
-0.06110065 -0.05401026 -0.11186358 0.02209267 -0.030263487 -0.11077962 0.011261411 0.10238216
-0.023241613 0.0021826597 -0.1364199 0.11048011 0.020276831 -0.009819755 0.022053028 -0.066569425
00000000: e0f1 8e3d 1f26 e6bd bb63 953d 3690 31bd
00000010: beb1 653b 4777 24bd c788 d5bc 0ca3 90bd
00000020: de68 88bd c59d 62bc 5b53 28bb 8f45 9ebc
00000030: 4ad4 bdbd f3c2 7abd 0a43 b43d 16a6 debd
00000040: c511 a7bc f2fa babc e83b e3ba 0f27 06bd
00000050: 36f7 00bd e02e 0bbd e0cd c93c a223 903d
00000060: 3004 d83d 7b96 0cbd 0959 a33d ca1c f43c
00000070: 09e0 9bbd 9691 04bd aefc dbbb cf39 a63d
00000080: 8ace 173c 739b 35bd 0bd2 c43d cfc2 aebc
00000090: ec4b 753b cdf1 33bd 9164 823d 704e 4f3d
000000a0: c3d5 93bd adf9 883d 3f9e 463d 6c46 9cbd
000000b0: 2998 72bc 01ec 1abe 7611 44ba b671 893c
000000c0: ad44 7abd dd39 5dbd bc18 e5bd b0fb b43c
000000d0: 22eb f7bc 6de0 e2bd c881 383c bdad d13d
000000e0: 3265 bebc f40a 0f3b a9b1 0bbe 6543 e23d
000000f0: 991b a63c 0ae3 20bc 8da8 b43c 8d55 88bd

weight f4 [64, 64]
0.11276168 0.15913512 -0.29626215 -0.0713582 -0.41548526 -0.42760232 0.0042968635 -0.14151154
0.035168003 0.0029877059 -0.03372439 -0.30981225 -0.08442645 -0.31549475 0.1891372 0.2072596
-0.25929803 -0.36861962 -0.08817716 0.0083125 -0.07137166 -0.07620027 -0.00462583 0.09985496
-0.29770628 0.091918975 -0.32003716 -0.15810925 0.0038481734 -0.19711915 -0.10088909 -0.09113828
-0.07840255 0.18872613 -0.27369818 -0.097418174 -0.10454037 0.1471867 0.05987388 -0.24286956
-0.17706144 -0.15001176 -0.45320654 -0.012680673 0.17124572 0.07612807 0.16628514 -0.14889531
0.30426502 -0.2330762 0.008243546 -0.3487168 0.029498037 0.065060794 -0.09211543 0.056838322
-0.045267604 0.024410505 0.10090369 -0.22712755 0.020023078 -0.20885576 -0.20738743 -0.2993417
-0.03917963 -0.1768281 0.46803033 -0.026642794 0.18521722 0.5432064 -0.22800896 0.2745809
0.14361364 0.36224285 -0.11645024 0.015272182 0.12448632 0.19975573 0.20038249 0.06551624
0.32098305 0.32543182 -0.014383787 0.020830095 0.072669595 -0.10346948 -0.11439658 0.10685683
0.03629813 -0.0787544 0.4521213 0.15696754 0.10130416 0.28682065 0.02694008 -0.1680652
0.06546984 -0.0025957655 0.26494446 0.16809648 0.21052223 0.3158104 0.2928626 0.6682944
-0.00043861318 0.32594517 0.5141869 -0.1127288 -0.15486622 0.18883157 -0.13143373 -0.1528982
0.16349714 -0.15488406 0.06734203 0.27919057 -0.048361395 -0.014485912 0.1639298 -0.024060503
-0.09970658 0.1632989 0.06576645 -0.02067321 0.22471224 -0.007887058 0.27470657 0.14183089
0.1367158 0.019840812 0.22702093 -0.14576247 0.29645747 0.42903802 0.2953738 0.37543488
0.30746773 0.2172941 -0.07076182 0.021734558 0.17085813 0.34055334 -0.035498377 0.07236273
-0.030178122 0.38328317 -0.10105217 0.14589009 0.07906076 0.045075756 0.12947123 -0.03748376
0.13931952 -0.117699094 0.36716896 0.068614915 0.17424984 0.18464619 -0.15234311 -0.024042288
0.09984287 0.24543647 0.21845031 0.06775804 0.08989109 0.050202467 0.23524436 0.33581957
0.2044222 0.27625996 0.061901793 -0.090370335 0.16506927 -0.11644393 -0.0151613755 0.07395856
0.0053415573 -0.00263343 0.12331669 0.34622777 -0.080357306 0.21996205 0.10272666 -0.031522896
0.2797731 -0.046529762 0.12852818 0.14063194 0.019887151 0.2953982 -0.10087926 -0.030733522
0.029380947 0.16396922 -0.33717752 0.012296802 -0.10711532 -0.532 -0.03500823 -0.17937689
-0.08307649 0.011399438 0.031393733 -0.08260615 -0.25352797 -0.14813687 0.0014663779 -0.115447275
-0.16529353 -0.35659593 0.007424564 -0.099148296 0.1307592 -0.1554449 0.14190291 -0.038969934
-0.3729574 -0.1867847 -0.295917 -0.13374685 0.122861944 -0.37912914 -0.28719145 0.05673784
-0.10995071 0.08188471 -0.4692926 0.35336247 -0.029711168 -0.12431726 -0.20695521 -0.58788687
-0.3190556 -0.35784855 -0.16097751 0.18819602 0.06280182 -0.13288331 0.20629096 -0.08357003
0.14211 0.11006774 -0.09211122 -0.42010313 -0.06334442 -0.10171136 -0.48724365 -0.103948146
-0.12027828 0.030257914 -0.16794236 -0.16700566 -0.08414531 -0.31923053 -0.13958086 -0.3046066
00000000: 98ef e63d 51f4 223e acaf 97be 3f24 92bd
00000010: 7cba d4be b1ee dabe b4cc 8c3b 67e8 10be
00000020: 530c 103d 63cd 433b 9622 0abd b69f 9ebe
00000030: c6e7 acbd 8788 a1be 2fad 413e dc3b 543e
00000040: b6c2 84be b6bb bcbe 3a96 b4bd 2731 083c
00000050: 4e2b 92bd e30e 9cbd 4694 97bb c280 cc3d
00000060: f56c 98be 0440 bc3d e9db a3be 64e7 21be
00000070: a331 7c3b 9ad9 49be f09e cebd b5a6 babd
00000080: 8491 a0bd 6c41 413e 2b22 8cbe 2e83 c7bd
00000090: 4319 d6bd 1cb8 163e 503e 753d ccb2 78be
000000a0: 984f 35be af9c 19be b00a e8be 99c2 4fbc
000000b0: 0a5b 2f3e 09e9 9b3d a746 2a3e 0378 18be
000000c0: a0c8 9b3e 87ab 6ebe f00f 073c 028b b2be
000000d0: dea5 f13c 983e 853d 04a7 bcbd 4dcf 683d
000000e0: 866a 39bd 8af8 c73c 98a6 ce3d 2094 68be
000000f0: 7007 a43c 49de 55be 5f5d 54be 5143 99be
00000100: d27a 20bd 6d12 35be aca1 ef3e fd41 dabc
00000110: 95a9 3d3e 930f 0b3f 2e7b 69be de95 8c3e
00000120: 740f 133e e577 b93e 777d eebd 2d38 7a3c
00000130: aff2 fe3d c48c 4c3e 1131 4d3e 612d 863d
00000140: e457 a43e 009f a63e faa9 6bbc e0a3 aa3c
00000150: ccd3 943d cfe7 d3bd c148 eabd c1d7 da3d
00000160: 59ad 143d fd49 a1bd 717c e73e 19bc 203e
00000170: 8e78 cf3d 28da 923e 71b1 dc3c 4919 2cbe
00000180: 0d15 863d b81d 2abb cda6 873e 7c21 2c3e
00000190: 2493 573e e7b1 a13e 16f2 953e 5815 2b3f
000001a0: aaf5 e5b9 49e2 a63e c1a1 033f 5bde e6bd
000001b0: 4095 1ebe 105d 413e 9096 06be 5991 1cbe
000001c0: cb6b 273e ed99 1ebe 9eea 893d 11f2 8e3e
000001d0: 9916 46bd 5256 6dbc 37dd 273e 881a c5bc
000001e0: f732 ccbd d437 273e 8fb0 863d dd5a a9bc
000001f0: f71a 663e b838 01bc 57a6 8c3e 1e3c 113e
00000200: 3aff 0b3e 3389 a23c 2d78 683e c242 15be
00000210: 46c9 973e dfaa db3e 3c3b 973e 0039 c03e
00000220: 696c 9d3e 5882 5e3e 93eb 90bd ac0c b23c
00000230: 6ff5 2e3e 025d ae3e bf66 11bd e932 943d
00000240: 1c38 f7bc b13d c43e 71f4 cebd 3664 153e
00000250: 9cea a13d 5ba1 383d 1b94 043e 9288 19bd
00000260: c7a9 0e3e 390c f1bd 92fd bb3e fa85 8c3d
00000270: 8d6e 323e e413 3d3e d5ff 1bbe 55f4 c4bc
00000280: 6b7a cc3d b353 7b3e 70b1 5f3e bac4 8a3d
00000290: d218 b83d 1aa1 4d3d e6e3 703e 8bf0 ab3e
000002a0: 0e54 513e f271 8d3e bc8c 7d3d 1514 b9bd
000002b0: eb07 293e 287a eebd 6b67 78bc 9677 973d
000002c0: 3b08 af3b a095 2cbb 768d fc3d c444 b13e
000002d0: 5f92 a4bd bb3d 613e 5b62 d23d 271e 01bd
000002e0: 6b3e 8f3e fe95 3ebd e49c 033e d201 103e
000002f0: 61ea a23c 6f3e 973e c999 cebd dec4 fbbc
00000300: 50b0 f03c 8ce7 273e 88a2 acbe 8778 493c
00000310: 475f dbbd 2731 08bf ca64 0fbd 93ae 37be
00000320: 0224 aabd b5c4 3a3c b796 003d 6a2d a9bd
00000330: 6bce 81be 31b1 17be 7a33 c03a 9f6f ecbd
00000340: b542 29be be93 b6be c249 f33b 430e cbbd
00000350: bde5 053e f32c 1fbe ff4e 113e f09e 1fbd
00000360: 46f4 bebe 7d44 3fbe 6f82 97be eff4 08be
00000370: 0b9f fb3d 371d c2be c20a 93be f065 683d
00000380: d62d e1bd 2cb3 a73d 1f47 f0be edeb b43e
00000390: d664 f3bc 0c9a febd 11ec 53be c17f 16bf
000003a0: 415b a3be ed37 b7be 4ad7 24be 75b6 403e
000003b0: 3e9e 803d 9012 08be f03d 533e c426 abbd
000003c0: 4985 113e 326b e13d cfa4 bcbd c217 d7be
000003d0: b8ba 81bd 0c4e d0bd 0078 f9be c4e2 d4bd
000003e0: 7554 f6bd 72df f73c 15f9 2bbe 8803 2bbe
000003f0: 6054 acbd 2f72 a3be 49ee 0ebe 65f5 9bbe

bias f4 [64]
-1.993862e-06 -5.170895e-07 1.5404586e-06 2.393206e-06 3.710042e-07 -5.2219644e-07 -5.3409616e-07 -8.694953e-07
-1.103352e-06 4.2584975e-06 -2.3880648e-07 3.0783378e-06 -2.24196e-07 -1.6912213e-06 -2.9890288e-07 -1.3650512e-06
-2.042845e-07 6.9967626e-07 9.791494e-07 -2.5796858e-06 1.3342486e-06 1.1708563e-06 -1.0569444e-06 -1.3422815e-06
-1.3529823e-06 4.0199197e-07 1.0956978e-06 -7.640109e-07 7.398415e-07 4.3661902e-07 2.0212674e-06 -1.4335099e-06
3.353929e-07 2.1994696e-08 -4.1648494e-08 2.3201642e-06 -2.5774245e-06 1.4830824e-06 -1.5182422e-06 -4.0986383e-06
5.8283365e-07 7.3381455e-07 -3.5138653e-06 4.2643197e-07 -2.7942338e-07 -1.062165e-06 -1.558476e-08 3.2254036e-08
2.2308864e-06 3.3168078e-07 9.39509e-07 2.1720407e-06 1.1385928e-06 2.5681632e-06 -2.3247878e-06 1.8568394e-06
-1.349362e-06 -1.1430328e-06 -1.1301964e-06 2.2950886e-07 -3.5303822e-07 1.2167463e-06 1.7962509e-06 -4.794893e-07
00000000: 4ace 05b6 1fce 0ab5 c1c1 ce35 f79a 2036
00000010: 6e2e c734 112d 0cb5 cf5e 0fb5 4367 69b5
00000020: e316 94b5 37e4 8e36 5035 80b4 7195 4e36
00000030: 87ba 70b4 ecfd e2b5 e678 a0b4 cd36 b7b5
00000040: 4c59 5bb4 63d1 3b35 516b 8335 aa1e 2db6
00000050: 6f14 b335 5126 9d35 55dc 8db5 7128 b4b5
00000060: 1e98 b5b5 5bd1 d734 e40f 9335 6e16 4db5
00000070: 8599 4635 7668 ea34 1ca5 0736 0667 c0b5
00000080: 0d10 b434 d9ee bc32 01e1 32b3 1eb4 1b36
00000090: d1f7 2cb6 530e c735 68c6 cbb5 0987 89b6
000000a0: 0674 1c35 5afb 4435 bfcf 6bb6 5df0 e434
000000b0: a803 96b4 b68f 8eb5 40df 85b2 b087 0a33
000000c0: 56b6 1536 dc11 b234 9132 7c35 60c3 1136
000000d0: c0d1 9835 b558 2c36 8d03 1cb6 8438 f935
000000e0: ba1b b5b5 4f6a 99b5 41b1 97b5 ea6e 7634
000000f0: 3489 bdb4 164f a335 b616 f135 41b6 00b5

weight f4 [64, 64]
0.31156287 0.04077945 0.105335034 0.0015030495 0.006715473 0.22862159 0.22915936 -0.013926297
0.14964376 -0.091457844 -0.21003543 -0.0500472 0.055712484 0.032248024 -0.096252985 0.22898555
-0.09917289 0.022051731 0.19713998 -0.06709437 0.009127635 0.10605424 0.11657471 -0.010013345
0.18531221 0.03433094 0.05800483 0.0082761375 -0.10961235 0.25291723 0.19871168 -0.02998735
0.028757123 -0.12938574 -0.24496835 0.14770503 -0.21602017 -0.15390171 0.24489363 0.036866557
-0.02996713 0.230006 0.16098633 -0.10785775 0.05623908 -0.14922579 0.23943825 0.1432381
0.26793438 -0.16791472 0.07150146 0.17749977 0.11731402 -0.12934463 -0.33575925 -0.03301491
0.01635677 0.0060710874 0.04231585 0.07906622 -0.055266365 0.11961425 -0.14849769 0.15760344
-0.22690237 0.013960048 0.21329266 -0.028724387 -0.02252088 0.27869138 0.112197585 -0.030836763
0.036352288 -0.033613887 -0.068511814 0.36748043 0.07608711 -0.0076422463 -0.16838403 0.016306171
0.08142124 0.16310517 0.1260292 0.13375923 0.043288488 0.025197685 -0.081839986 0.06458617
-0.0043639713 0.101562895 0.17264901 0.006856271 0.022695024 0.17612863 0.3231081 0.07567071
-0.15135497 -0.12284548 -0.044926308 -0.12846516 -0.26925716 -0.12060948 -0.21404731 0.12682612
-0.049082845 0.10197439 -0.012498748 -0.06286367 -0.068769455 0.039467826 0.015021716 0.014845161
-0.04635875 0.27357948 0.25762424 0.07826785 0.17813522 0.13522717 0.007345229 0.12259701
0.21526082 0.015881373 0.08151387 -0.18098284 -0.045968276 -0.15628709 -0.067705095 -0.21300313
-0.21948722 0.045540027 0.038396318 -0.1808325 0.016813016 0.1301195 -0.12249683 -0.10675509
0.062427357 -0.07051678 0.045714416 0.016424764 -0.137582 -0.07519108 0.039414667 0.2552984
-0.15596512 0.022154335 0.09844646 0.3145522 -0.004713284 -0.19407754 0.102763474 -0.11673693
0.2227585 0.03587998 -0.07167894 0.14796011 0.20329723 0.07845967 -0.19213943 -0.040042352
-0.18357348 -0.093199365 0.18217021 0.12064357 -0.03643064 -0.011419672 -0.091148764 -0.17563966
-0.23619378 -0.041552335 0.033833317 -0.09619834 -0.13317318 0.055090025 -0.08204798 0.07431955
0.15368347 0.21427679 0.07853147 0.074934974 -0.111300364 0.09440666 0.11218888 -0.1357079
0.0793103 0.034122203 0.21114941 0.09388083 0.023122203 0.05379463 0.12414113 -0.14594924
0.04741366 -0.07591257 -0.07938615 -0.051340047 -0.038464565 -0.11393535 0.120576784 -0.05380683
0.06384037 0.07413079 0.2756949 -0.13648985 0.06205134 0.0840602 0.013456053 -0.12297576
-0.054158326 -0.15595554 -0.04478712 0.1922501 0.025266562 0.047320813 0.17864408 -0.025851512
-0.070294715 0.0020671177 0.07692871 -0.005638753 0.042109348 -0.16053168 -0.3159511 0.42555055
0.06387899 0.32026556 0.17165431 0.047110066 -0.18649264 0.078829505 0.03565462 -0.1327807
-0.061200112 0.021688959 -0.0475631 0.13851973 0.315636 0.027458576 -0.1020238 0.18106593
0.09593017 -0.13727951 -0.07859964 0.2700365 -0.21020907 -0.041445456 -0.15972029 0.3304297
0.10374366 -0.15989038 -0.06172511 -0.102672234 -0.06415149 -0.03636787 -0.029806059 -0.023626909
00000000: 2b85 9f3e 5a08 273d e5b9 d73d f901 c53a
00000010: 780d dc3b c71b 6a3e c0a8 6a3e 202b 64bc
00000020: 373c 193e 404e bbbd 8713 57be 4bfe 4cbd
00000030: c632 643d 8116 043d 4920 c5bd 307b 6a3e
00000040: 281b cbbd d5a5 b43c 10df 493e c668 89bd
00000050: 138c 153c f732 d93d b9be ee3d 030f 24bc
00000060: 7cc2 3d3e 9a9e 0c3d 7996 6d3d a398 073c
00000070: 717c e0bd 5e7e 813e 137b 4b3e 08a8 f5bc
00000080: 0f94 eb3c b27d 04be fcd8 7abe fd3f 173e
00000090: 6434 5dbe 6998 1dbe 65c5 7a3e 6301 173d
000000a0: a07d f5bc b186 6b3e 9ad9 243e 86e4 dcbd
000000b0: f35a 663d a5ce 18be 4d2f 753e 02ad 123e
000000c0: b22e 893e d6f1 2bbe 5c6f 923d 80c2 353e
000000d0: 5542 f03d eb72 04be a3e8 abbe a43a 07bd
000000e0: a2fe 853c f9ef c63b 6253 2d3d 78ed a13d
000000f0: fc5e 62bd 51f8 f43d c70f 18be cc62 213e
00000100: 1859 68be afb8 643c 6469 5a3e 684f ebbc
00000110: b57d b8bc a3b0 8e3e d9c7 e53d 619d fcbc
00000120: 23e6 143d b7ae 09bd ec4f 8cbd 6526 bc3e
00000130: 8fd3 9b3d cf6b fabb dd6c 2cbe 8594 853c
00000140: 2ec0 a63d 0b05 273e cc0d 013e 2ef8 083e
00000150: 454f 313d 606b ce3c b99b a7bd c145 843d
00000160: a5ff 8ebb 3500 d03d e7ca 303e 92aa e03b
00000170: eaea b93c 105b 343e 6d6e a53e 3ff9 9a3d
00000180: ccfc 1abe 6996 fbbd a604 38bd 5f8c 03be
00000190: 13dc 89be 1a02 f7bd 382f 5bbe b5de 013e
000001a0: 180b 49bd f3d7 d03d 8cc7 4cbc abbe 80bd
000001b0: 00d7 8cbd 04a9 213d a51d 763c 1e39 733c
000001c0: ace2 3dbd 9c12 8c3e 53e7 833e e54a a03d
000001d0: 1469 363e fe78 0a3e 3fb0 f03b 2414 fb3d
000001e0: 556d 5c3e a719 823c bef0 a63d 9153 39be
000001f0: 3b49 3cbd b909 20be f8a8 8abd 7e1d 5abe
00000200: 42c1 60be 2e88 3a3d 7545 1d3d 282c 39be
00000210: 73bb 893c 0c3e 053e 9edf fabd 6aa2 dabd
00000220: d4b3 7f3d 1a6b 90bd 0a3f 3b3d 3a8d 863c
00000230: 4ce2 0cbe c8fd 99bd 4671 213d 79b6 823e
00000240: 52b5 1fbe 027d b53c 4c9e c93d fc0c a13e
00000250: e471 9abb 43bc 46be a875 d23d c613 efbd
00000260: ce1a 643e e3f6 123d 68cc 92bd db82 173e
00000270: 262d 503e 77af a03d 33c0 44be 7303 24bd
00000280: b0fa 3bbe 4fdf bebd d48a 3a3e fa13 f73d
00000290: 4b38 15bd 9319 3bbc 34ac babd e2da 33be
000002a0: c8dc 71be c832 2abd ce94 0a3d a303 c5bd
000002b0: 8d5e 08be 14a6 613d c508 a8bd d934 983d
000002c0: 335f 1d3e 606b 5b3e 1bd5 a03d 8277 993d
000002d0: 72f1 e3bd 4758 c13d 49c3 e53d 03f7 0abe
000002e0: 706d a23d b9c3 0b3d 8d37 583e 9844 c03d
000002f0: c66a bd3c c257 5c3d b43d fe3d b873 15be
00000300: d334 423d 0d78 9bbd 3595 a2bd f149 52bd
00000310: 058d 1dbd f056 e9bd f6f0 f63d 8d64 5cbd
00000320: bdbe 823d e2d1 973d e227 8d3e ffc3 0bbe
00000330: 8c29 7e3d c127 ac3d c776 5c3c b7da fbbd
00000340: 1fd5 5dbd cfb2 1fbe b372 37bd 36dd 443e
00000350: d2fb ce3c 78d3 413d 79ee 363e 8dc6 d3bc
00000360: adf6 8fbd 7b78 073b cd8c 9d3d 4ac5 b8bb
00000370: da7a 2c3d 6b62 24be 58c4 a1be c3e1 d93e
00000380: fdd2 823d d9f9 a33e 26c6 2f3e 7cf6 403d
00000390: edf7 3ebe 5d71 a13d 940a 123d aaf7 07be
000003a0: f8ac 7abd 0bad b13c 86d1 42bd 1ed8 0d3e
000003b0: 0b9b a13e cff0 e03c dbf1 d0bd 5969 393e
000003c0: 0977 c43d 0093 0cbe d9f8 a0bd 3942 8a3e
000003d0: 0c41 57be b6c2 29bd b78d 23be 152e a93e
000003e0: 8e77 d43d 4eba 23be 78d3 7cbd d245 d2bd
000003f0: db61 83bd 7af6 14bd d62b f4bc 388d c1bc

bias f4 [64]
0.051821887 0.1127065 -0.060757432 -0.033753723 -0.014096326 -0.112916574 -0.019233491 -0.034708336
0.062680386 -0.020807479 0.010949409 0.016130785 -0.03980844 0.052834876 0.03658408 -0.034011964
-0.015954433 0.059953008 -0.08826956 0.03390151 -0.103353046 -0.11404413 -0.01583183 -0.0069771754
0.071342796 -0.045217548 0.063382454 -0.044432275 -0.04413223 -0.022691788 -0.07297468 0.00046545116
0.025976269 -0.03560416 0.11886237 -0.05719522 0.042659648 0.005793056 0.0021454694 -0.010880871
-0.019922554 -0.05048313 0.005680659 0.015255557 -0.06332712 -0.023814071 0.06343526 0.0679714
0.02370395 -0.041915007 -0.14193003 -0.032937814 -0.0061584343 0.044797566 -0.0056547066 0.01533221
0.058189705 0.026501324 0.051192448 0.027653953 0.03299253 -0.014999574 -0.01544578 0.0045971535
00000000: 3043 543d aad2 e63d c9dc 78bd 5841 0abd
00000010: 47f4 66bc ce40 e7bd 8e8f 9dbc 542a 0ebd
00000020: 935e 803d 7274 aabc 2665 333c b524 843c
00000030: 2d0e 23bd 6269 583d 30d9 153d 2150 0bbd
00000040: dfb2 82bc 4991 753d acc6 b4bd 4fdc 0a3d
00000050: c3aa d3bd f88f e9bd c1b1 81bc caa0 e4bb
00000060: 2c1c 923d 0936 39bd a9ce 813d 9efe 35bd
00000070: ffc3 34bd 21e4 b9bc c073 95bd cc07 f439
00000080: 2fcc d43c abd5 11bd 1d6e f33d 8945 6abd
00000090: e2bb 2e3d add3 bd3b 019b 0c3b ae45 32bc
000000a0: a034 a3bc 66c7 4ebd d224 ba3b 72f2 793c
000000b0: a6b1 81bd ba15 c3bc 58ea 813d 9734 8b3d
000000c0: c92e c23c 12af 2bbd 1b56 11be cde9 06bd
000000d0: b1cc c9bb a77d 373d 1e4b b9bb f333 7b3c
000000e0: 5458 6e3d 4e19 d93c 2caf 513d 8b8a e23c
000000f0: 2d23 073d c6c0 75bc 4c10 7dbc b8a3 963b

w f4 [6, 64, 40]
-0.141839 0.28199407 0.11957394 -0.35149118 -0.040844504 -0.11328448 0.3030789 -0.14948589
-0.08718398 0.15481539 0.011110395 0.3230053 0.07043397 -0.28711182 -0.31536987 -0.06168907
0.09315265 -0.15427572 0.055643428 -0.11290162 0.044899523 -0.13555183 0.1731414 -0.24065636
-0.20574076 0.16552112 0.21403855 -0.37089607 -0.1318041 -0.24904603 -0.098317824 -0.081617996
0.21837908 0.07698778 0.15159291 0.30408084 -0.42225802 -0.17697702 0.08197348 0.074137114
-0.11230065 -0.24194108 -0.14948861 0.19311364 0.09168046 -0.22911088 -0.3653195 -0.3494471
0.11504382 0.14755729 -0.20848608 0.25172883 -0.30376765 0.40677142 -0.116391234 0.16144793
-0.4490145 -0.01207266 0.32699987 -0.37642068 0.24802248 0.3671294 -0.06947246 0.1026208
0.030246865 0.17212367 0.0018368677 -0.39024386 -0.35310417 0.140567 -0.14506653 -0.10117243
-0.008784008 -0.277384 -0.047091033 0.0008105613 0.17518757 0.05044691 -0.021267328 0.15007888
-0.1257687 -0.29887328 -0.32141128 -0.4168046 -0.120930746 -0.0073519913 0.032330118 -0.4872132
-0.19652154 -0.051636633 0.12999938 -0.28940746 0.022633541 -0.3067907 0.036498424 0.22468524
-0.073811814 -0.22869499 0.04231964 0.16266243 -0.33567765 -0.2686464 -0.2441865 -0.08382644
0.25807118 0.14667791 -0.37558335 -0.24720544 -0.37497872 0.100699276 0.22910632 0.34961233
-0.15742625 0.15270253 -0.20202385 -0.24976479 -0.08680147 -0.04426239 0.22256216 -0.22957122
-0.20570694 -0.06405004 -0.18031187 -0.12721148 0.29922724 -0.19971366 0.23509826 0.2805807
0.07953454 0.20669337 0.11017372 -0.23236975 0.3502155 0.21180558 0.05381924 -0.03835285
-0.005510534 0.17050374 0.29085135 -0.15512557 0.13103923 -0.06566002 0.16701005 0.32613927
0.06783136 -0.060008783 -0.11423193 0.39700913 -0.24245076 0.22357608 0.18745421 0.4271905
-0.15755546 0.06909544 0.21823901 0.061413564 0.048204146 -0.21575952 0.0038722958 0.29363874
0.22184509 -0.05720457 -0.33424976 0.04185175 -0.00794406 0.023466516 0.26495722 0.25412983
-0.21374662 0.08451219 0.026223844 -0.011284589 -0.13248284 0.24393263 -0.31531084 -0.32393178
0.26253933 -0.09881336 0.026991252 -0.008172547 0.115699954 -0.23175296 -0.29935417 -0.2619932
0.26980507 0.2649576 0.28243157 0.24008399 -0.17139822 0.047179054 -0.17307313 0.24956627
-0.22466692 -0.3873332 0.18873169 0.2535626 0.26383418 -0.13587067 -0.1770709 -0.060777355
-0.19659315 -0.3299872 0.08020548 -0.21809934 0.38965303 0.19703995 0.015598844 -0.3523768
-0.45342243 0.23759161 0.12666385 -0.038197648 0.106538884 0.2207992 0.32706508 0.044061355
0.031561963 -0.30067855 0.11437496 0.19768158 -0.27929604 0.058578707 -0.13984932 0.040508818
0.3199774 -0.11602162 -0.07991354 -0.10400906 -0.390112 -0.025421457 0.4212431 -0.35000828
-0.23554718 0.097476155 -0.09723099 -0.2665678 -0.2935179 -0.12134914 0.2092413 0.3828615
-0.17468959 0.11644392 -0.16570853 0.14215523 -0.16984284 -0.11804335 -0.23740211 -0.070194036
-0.21944204 -0.032329544 0.26684928 0.13841048 0.04014491 0.22060075 -0.025780266 0.020806493
00000000: 3e3e 11be 8761 903e 2fe3 f43d a7f6 b3be
00000010: 914c 27bd b201 e8bd 282d 9b3e d412 19be
00000020: 848d b2bd ed87 1e3e 6008 363c f360 a53e
00000030: af3f 903d 5200 93be 2978 a1be aead 7cbd
00000040: d1c6 be3d 74fa 1dbe 5dea 633d f738 e7bd
00000050: 90e8 373d 19ce 0abe fb4b 313e 9f6e 76be
00000060: b5ad 52be 5e7e 293e ec2c 5b3e 17e6 bdbe
00000070: a7f7 06be ec05 7fbe db5a c9bd 5627 a7bd
00000080: c49e 5f3e c5ab 9d3d 2c3b 1b3e 7cb0 9b3e
00000090: 3432 d8be 7739 35be b6e1 a73d 33d5 973d
000000a0: e2fd e5bd 67bf 77be 8b13 19be 95bf 453e
000000b0: f7c2 bb3d 0b9c 6abe 280b bbbe bbea b2be
000000c0: 189c eb3d 4219 173e 607d 55be 9ae2 803e
000000d0: 6f87 9bbe 5844 d03e 875e eebd 9b52 253e
000000e0: 3be5 e5be 68cc 45bc 876c a73e 36ba c0be
000000f0: 9bf9 7d3e 62f8 bb3e 9447 8ebd db2a d23d
00000100: 46c8 f73c 3041 303e 0dc3 f03a 0bce c7be
00000110: 12ca b4be ccf0 0f3e 528c 14be 7e33 cfbd
00000120: cdea 0fbc 4705 8ebe 87e2 40bd d97b 543a
00000130: 5f64 333e 6ba1 4e3d d238 aebc 47ae 193e
00000140: 83c9 00be eb05 99be 0590 a4be 6a67 d5be
00000150: 8aaa f7bd f9e8 f0bb 966c 043d 0274 f9be
00000160: f13c 49be ef80 53bd 8f1e 053e 372d 94be
00000170: fa69 b93c ac13 9dbe 5f7f 153d e313 663e
00000180: a62a 97bd 052f 6abe 5c57 2d3d fb90 263e
00000190: f1dd abbe 058c 89be 070c 7abe 32ad abbd
000001a0: e821 843e bc32 163e 764c c0be 6c23 7dbe
000001b0: 36fd bfbe 6c3b ce3d d99a 6a3e 6300 b33e
000001c0: 5934 21be 0d5e 1c3e 57df 4ebe 57c2 7fbe
000001d0: f8c4 b1bd 7b4c 35bd 56e7 633e b814 6bbe
000001e0: d7a4 52be ab2c 83bd ada3 38be ba43 02be
000001f0: 5034 993e bd81 4cbe 99bd 703e 46a8 8f3e
00000200: 01e3 a23d 6da7 533e c2a2 e13d 56f2 6dbe
00000210: 724f b33e 90e3 583e 9071 5c3d e117 1dbd
00000220: b691 b4bb 8898 2e3e 78ea 943e 3dd9 1ebe
00000230: 262f 063e c378 86bd af04 2b3e bafb a63e
00000240: 2beb 8a3d c5cb 75bd 6ef2 e9bd c844 cb3e
00000250: 0345 78be 21f1 643e fff3 3f3e b7b8 da3e
00000260: 3856 21be e981 8d3d 0c7a 5f3e ca8c 7b3d
00000270: b671 453d 10f0 5cbe 58c6 7d3b d157 963e
00000280: 5c2b 633e 574f 6abd c922 abbe be6c 2b3d
00000290: cd27 02bc da3c c03c 79a8 873e 4e1d 823e
000002a0: 65e0 5abe ba14 ad3d 63d3 d63c ffe2 38bc
000002b0: 95a9 07be 7ac9 793e 6c70 a1be 63da a5be
000002c0: 8e6b 863e a95e cabd c21c dd3c 26e6 05bc
000002d0: 19f4 ec3d a650 6dbe f344 99be f923 86be
000002e0: e423 8a3e 86a8 873e df9a 903e 94d8 753e
000002f0: 0483 2fbe d33e 413d 153a 31be 4d8e 7f3e
00000300: 160f 66be 8a50 c6be e142 413e f5d2 813e
00000310: 4615 873e ae21 0bbe 1352 35be adf1 78bd
00000320: b74f 49be 15f4 a8be c542 a43d 6f55 5fbe
00000330: 9a80 c73e d7c4 493e 4b92 7f3c bb6a b4be
00000340: fc26 e8be 374b 733e 2bb4 013e 2375 1cbd
00000350: 0f31 da3d 2f19 623e 1375 a73e ae79 343d
00000360: 1e47 013d 8af2 99be 6b3d ea3d 0a6d 4a3e
00000370: e4ff 8ebe 3af0 6f3d a934 0fbe 93ec 253d
00000380: 14d4 a33e be9c edbd b6a9 a3bd b402 d5bd
00000390: c3bc c7be a940 d0bc 2dad d73e 4934 b3be
000003a0: 4833 71be 94a1 c73d 0b21 c7bd 937b 88be
000003b0: fa47 96be e685 f8bd 5a43 563e 6c06 c43e
000003c0: d4e1 32be 267a ee3d 7faf 29be 2491 113e
000003d0: 48eb 2dbe b6c0 f1bd 8a19 73be e4c1 8fbd
000003e0: 6ab5 60be fc6b 04bd 78a0 883e 7abb 0d3e
000003f0: fd6e 243d 2ae5 613e 2331 d3bc 6172 aa3c

w f4 [6, 10, 40]
-0.017911986 -0.2537773 0.17594497 0.21904193 0.18008605 -0.033656802 0.20281881 -0.39984044
-0.15280274 0.22409669 -0.028912049 -0.09636936 0.109436676 0.15602185 0.32788226 0.28633246
0.34317768 0.063843966 -0.1314806 0.37454492 -0.027766632 -0.29300836 -0.29116923 -0.25691122
-0.091320135 0.31686312 -0.1908829 -0.20958574 0.1984355 0.29170474 0.16611569 0.1158238
-0.17337532 0.08013393 -0.12817812 0.18126653 0.47141048 0.12934957 -0.3659905 0.15314573
-0.11162181 -0.2720532 0.22190034 -0.102379434 -0.1256241 0.11874257 -0.08920966 0.031053813
0.11887956 0.0016554757 -0.3625367 0.22939037 0.2028366 -0.26571614 -0.061633334 -0.57838815
-0.023749147 0.064705625 -0.17516105 -0.219121 0.17816085 0.15629926 0.35961092 -0.05613881
-0.14343263 -0.24911463 0.26790068 -0.040973462 0.03949531 0.16522542 0.24998216 0.57960093
0.20762585 -0.27331078 0.18412009 0.048023976 -0.3063534 -0.008703003 0.42541894 0.19934718
-0.16785187 0.3431744 0.09273178 0.06378191 -0.0767485 -0.29894745 0.25714016 0.2180766
-0.15871511 -0.19503503 0.16638367 0.19447106 -0.101695426 0.09130963 0.10269662 0.34525234
-0.07291402 0.23909962 -0.1418252 -0.0982453 -0.08652159 -0.02220963 0.188843 -0.14849691
-0.09284118 0.24838586 0.52476823 0.031043865 0.16519989 0.1463338 0.07331114 -0.3458946
-0.122554876 -0.10857724 -0.20296967 0.09490669 0.2537564 0.20637995 0.1274838 0.19885343
-0.39139697 -0.17290351 -0.43220204 0.011794267 -0.22625938 -0.15192845 -0.31734553 -0.2726437
0.14184117 0.26467708 -0.41004938 -0.30843145 -0.11375957 -0.27606103 0.29637864 0.19194715
0.08154416 0.19819948 0.06734055 0.058355324 -0.21462479 0.053726204 -0.09508004 -0.20493834
0.05592432 0.3568344 0.053771663 0.20984419 -0.35176593 0.27480745 0.17439574 -0.056346226
-0.31508797 0.26563197 -0.27074903 0.22792885 0.25948817 0.27138203 -0.38997412 0.019298045
0.2721459 -0.004209015 0.33206144 -0.24987666 -0.41540366 0.10088062 0.2580293 -0.35135323
0.24688292 0.20900981 -0.12365389 -0.35905823 -0.08709727 -0.2902058 -0.03306121 -0.08076433
0.16353717 -0.3428313 0.08516897 -0.14586598 0.15665682 0.08710273 0.27751425 -0.06998603
0.110439576 -0.030832943 0.1080144 0.13812613 0.067700826 0.08387996 0.045670975 -0.18449856
-0.2438974 -0.17976898 0.07940938 -0.07710772 -0.25704578 -0.23766595 0.2613864 -0.2531229
0.0073536113 -0.1711009 -0.10173461 0.090006575 0.2902572 0.23981209 -0.044393707 -0.12643209
0.17766888 -0.019360723 0.18151438 0.32955965 -0.24126725 0.1447912 0.23613138 -0.03309929
-0.08672579 0.006933232 -0.026838724 -0.33225802 0.08474732 -0.13311969 0.105761 0.32768586
-0.001051313 -0.1804399 0.23911595 0.20593451 0.18600549 -0.3174844 -0.064115 -0.3459659
-0.009754266 0.0836166 0.08030269 0.21591474 0.1687647 0.24965784 0.093780905 -0.27952826
-0.16593432 -0.28342363 -0.028745623 0.04662788 -0.08024881 0.032273237 0.31071594 -0.10570473
-0.0011500511 0.13731962 -0.11195655 0.27579024 -0.1603068 -0.31919423 -0.3651214 0.3417485
00000000: 28bc 92bc 19ef 81be eb2a 343e 874c 603e
00000010: 7a68 383e b7db 09bd bcaf 4f3e e3b7 ccbe
00000020: 5278 1cbe 9a79 653e f6d8 ecbc 4d5d c5bd
00000030: 5620 e03d 31c4 1f3e 2fe0 a73e 2b9a 923e
00000040: fcb4 af3e a0c0 823d daa2 06be 5ac4 bf3e
00000050: d976 e3bc 3105 96be 2214 95be de89 83be
00000060: 0d06 bbbd e23b a23e cf76 43be a59d 56be
00000070: ad32 4b3e 535a 953e 3b1a 2a3e 0735 ed3d
00000080: 4d89 31be 421d a43d 2041 03be ef9d 393e
00000090: b75c f13e 3774 043e 1b63 bbbe 3cd2 1c3e
000000a0: fa99 e4bd 8f4a 8bbe d839 633e 4fac d1bd
000000b0: 9ba3 00be 4e2f f33d 8eb3 b6bd 9164 fe3c
000000c0: 2077 f33d 8cfc d83a 699e b9be 4fe5 6a3e
000000d0: 66b4 4f3e f20b 88be 3c73 7cbd 3f11 14bf
000000e0: 928d c2bc 6284 843d 6b5d 33be 4161 60be
000000f0: cc6f 363e ea0c 203e ec1e b83e cff1 65bd
00000100: 01e0 12be e817 7fbe 472a 893e cad3 27bd
00000110: d6c5 213d da30 293e 53fb 7f3e ba60 143f
00000120: df9b 543e 64ef 8bbe fa89 3c3e cab4 443d
00000130: 5ada 9cbe 0a97 0ebc 83d0 d93e ab21 4c3e
00000140: 5ce1 2bbe 8eb4 af3e 29ea bd3d 17a0 823d
00000150: 512e 9dbd a40f 99be e0a7 833e 794f 5f3e
00000160: 3786 22be 43b7 47be 7b60 2a3e 6c23 473e
00000170: b145 d0bd 8b00 bb3d 9b52 d23d eac4 b03e
00000180: f253 95bd 88d6 743e a03a 11be d534 c9bd
00000190: 3b32 b1bd f8f0 b5bc 0f60 413e 930f 18be
000001a0: 8423 bebd dd58 7e3e 3657 063f b44f fe3c
000001b0: 292a 293e 87d8 153e 2724 963d 1919 b1be
000001c0: 0dfe fabd be5d debd 48d7 4fbe 705e c23d
000001d0: 5cec 813e 4455 533e 1d8b 023e 3ca0 4b3e
000001e0: 2f65 c8be 9e0d 31be 9649 ddbe be3c 413c
000001f0: 8ab0 67be 2293 1bbe 1d7b a2be f497 8bbe
00000200: d03e 113e c183 873e fef1 d1be baea 9dbe
00000210: c7fa e8bd df57 8dbe f1be 973e cb8d 443e
00000220: a000 a73d cef4 4a3e d8e9 893d fe05 6f3d
00000230: 9ac6 5bbe 0210 5c3d 53b9 c2bd 5bdb 51be
00000240: e610 653d 00b3 b63e ad3f 5c3d 65e1 563e
00000250: aa1a b4be 90b3 8c3e cc94 323e 4dcb 66bd
00000260: 3653 a1be ea00 883e 9e9f 8abe 2e66 693e
00000270: a2db 843e 96f2 8a3e b0aa c7be ef16 9e3c
00000280: b556 8b3e c7eb 89bb f503 aa3e abdf 7fbe
00000290: caaf d4be 809a ce3d 6b1c 843e 92e4 b3be
000002a0: e0ce 7c3e ab06 563e 403e fdbd 7bd6 b7be
000002b0: 0e60 b2bd db95 94be 316b 07bd c567 a5bd
000002c0: 4a76 273e 9687 afbe 126d ae3d e45d 15be
000002d0: a56a 203e eb62 b23d 5916 8e3e d654 8fbd
000002e0: 252e e23d 5e95 fcbc a736 dd3d f070 0d3e
000002f0: bba6 8a3d 42c9 ab3d 7d11 3b3d 31ed 3cbe
00000300: 3dc0 79be 5c15 38be 63a1 a23d a7ea 9dbd
00000310: 819b 83be b45e 73be 70d4 853e 5399 81be
00000320: 90f6 f03b 1335 2fbe 3c5a d0bd 5e55 b83d
00000330: 979c 943e 4d91 753e 2dd6 35bd 6a77 01be
00000340: d5ee 353e 619a 9ebc e8de 393e 0bbc a83e
00000350: c30e 77be 2544 143e 6dcc 713e 1f93 07bd
00000360: 4a9d b1bd 2a30 e33b e2dc dbbc b91d aabe
00000370: 0190 ad3d 8750 08be 3999 d83d 71c6 a73e
00000380: 36cc 89ba 3dc5 38be d0da 743e 7fe0 523e
00000390: 3978 3e3e 518d a2be ba4e 83bd 7122 b1be
000003a0: 5bd0 1fbc 2e3f ab3d bd75 a43d c118 5d3e
000003b0: a7d0 2c3e 4ea6 7f3e 3410 c03d 541e 8fbe
000003c0: b0ea 29be e71c 91be f17b ebbc e0fc 3e3d
000003d0: 7d59 a4bd f130 043d 2916 9f3e b97b d8bd
000003e0: 50bd 96ba 849d 0c3e 7a49 e5bd 6134 8d3e
000003f0: 7727 24be 6d6d a3be 31f1 babe a9f9 ae3e
