policy-consolidation/storage/2023-11-11_wallgap-doorkey-redblue-crossing_ppopc_123456_500000_frames_1048_cascade_4_reshape_False/status.pt (torch, 600377 bytes, 95 tensors)

image_conv.0.weight f4 [16, 3, 2, 2]
-0.15284269 0.25055468 -0.045278218 0.26973698 -0.039347157 0.026122237 0.11745511 -0.27231064
-0.058269788 -0.004642104 -0.22533976 0.38943467 0.29542312 -0.26911068 -0.13840292 -0.13527267
-0.012950194 -0.09894629 -0.33438236 -0.17285877 0.027144253 0.06328214 0.063093595 0.22477895
-0.07405522 -0.25882402 0.032476183 -0.22660622 -0.26588243 0.127962 -0.1949849 -0.047891475
-0.008585937 -0.1458224 0.20590691 0.24728088 0.14020549 -0.21446416 -0.104710475 -0.19765489
-0.045242954 -0.21618278 -0.27888057 0.30274862 -0.047691904 -0.07990883 -0.24489464 -0.07662073
0.16377066 -0.31454507 0.11189315 0.1867149 -0.15507549 -0.49061075 0.09194019 0.17635791
-0.059947696 0.19948916 -0.23946328 -0.15119852 -0.19791475 -0.07965967 0.07851866 0.33092758
-0.16187102 -0.0763287 0.15528288 -0.31427747 -0.053164303 0.10239792 0.31743294 -0.11400055
0.11954451 0.4545933 -0.22133674 -0.33015072 0.10931039 -0.36550462 -0.12543862 0.05799242
-0.044626202 0.16208318 -0.20837249 -0.07902905 0.12636796 0.17306069 -0.16409534 0.20268267
-0.21022625 0.118731804 0.06688577 -0.24122345 0.40240756 0.110727556 -0.06542118 0.2204265
0.017773194 -0.08282119 -0.19691637 -0.20552841 0.0056351204 0.05333027 -0.25597858 0.08969243
-0.15276965 -0.14223585 -0.15332638 -0.008313881 -0.03161197 0.17012279 -0.28558743 -0.31205022
0.15983967 -0.27040064 -0.0463851 0.18297407 -0.14269204 0.3121568 -0.17765038 0.2144657
-0.01831507 0.013538644 0.092564635 -0.18776529 0.051619053 0.114957444 -0.21043701 -0.15209386
-0.3424933 -0.3133461 -0.24543038 -0.28643614 -0.08963052 -0.32717538 0.049441863 -0.28803223
0.32523912 -0.20157278 0.10127543 0.14202276 0.12922207 -0.047692683 0.24778326 -0.04003711
0.2889995 -0.06688618 0.35832718 -0.27159214 -0.090216376 -0.318574 -0.07353051 -0.024789143
-0.2585249 -0.13910674 0.32311356 -0.24439938 -0.059087537 0.050718073 0.029890044 -0.0075185588
0.09764895 0.16514172 -0.12547617 -0.19580965 -0.27859885 -0.1924877 -0.07440966 -0.06846918
-0.098280184 -0.36166114 0.009982149 0.20249152 -0.28918463 0.16218324 -0.39435163 0.17930333
0.1930744 -0.285512 -0.3094103 -0.14145784 0.378125 -0.15564963 0.38336483 -0.112688184
-0.3532598 0.23428449 -0.12274667 -0.26831934 0.40475175 -0.050671358 -0.020608837 -0.061601892
00000000: cb82 1cbe b448 803e a775 39bd f71a 8a3e
00000010: 7c2a 21bd 4dfe d53c 4e8c f03d 4d6c 8bbe
00000020: 4dac 6ebd ca1c 98bb 77bf 66be fb63 c73e
00000030: b341 973e e0c8 89be 7fb9 0dbe eb84 0abe
00000040: 0d2d 54bc 5aa4 cabd 2a34 abbe e401 31be
00000050: a05d de3c 119a 813d 3737 813d 742c 663e
00000060: 43aa 97bd 9584 84be bf05 053d 760b 68be
00000070: be21 88be 7808 033e 1faa 47be da29 44bd
00000080: 08ac 0cbc 7852 15be 43d9 523e 3337 7d3e
00000090: 0792 0f3e 7e9c 5bbe 7272 d6bd 0b66 4abe
000000a0: ad50 39bd 055f 5dbe 6fc9 8ebe de01 9b3e
000000b0: 9658 43bd 3ea7 a3bd a9c5 7abe 54eb 9cbd
000000c0: 7fb3 273e 0d0c a1be 3c28 e53d 3132 3f3e
000000d0: 1ccc 1ebe 5531 fbbe 234b bc3d 2b97 343e
000000e0: b78b 75bd e346 4c3e dd35 75be c9d3 1abe
000000f0: 2aaa 4abe 9c24 a3bd 64ce a03d 576f a93e
00000100: 84c1 25be 3952 9cbd 7a02 1f3e fae8 a0be
00000110: d0c2 59bd 00b6 d13d 9286 a23e 1f79 e9bd
00000120: c1d3 f43d 74c0 e83e 19a6 62be 8409 a9be
00000130: 20de df3d 6c23 bbbe fb72 00be 7689 6d3d
00000140: f7c9 36bd 22f9 253e 995f 55be fcd9 a1bd
00000150: 9a66 013e d236 313e 9c08 28be 0c8c 4f3e
00000160: 8d45 57be a929 f33d 68fb 883d 4803 77be
00000170: 5d08 ce3e 21c5 e23d 8afb 85bd 7cb7 613e
00000180: 1799 913c 289e a9bd 72a4 49be 0a76 52be
00000190: d1a6 b83b d770 5a3d a00f 83be aab0 b73d
000001a0: a66f 1cbe 46a6 11be 9701 1dbe f236 08bc
000001b0: 8e7b 01bd ab34 2e3e 8438 92be 0cc5 9fbe
000001c0: 03ad 233e f471 8abe 4dfe 3dbd 8e5d 3b3e
000001d0: dd1d 12be 04d3 9f3e fbe9 35be e59c 5b3e
000001e0: 7c09 96bc 30d1 5d3c 8792 bd3d 8b45 40be
000001f0: 806e 533d cf6e eb3d cd7c 57be 7ebe 1bbe
00000200: 485b afbe e66e a0be 1a52 7bbe c2a7 92be
00000210: 3590 b7bd 8883 a7be 8d83 4a3d f678 93be
00000220: be85 a63e 1869 4ebe 7e69 cf3d 6a6e 113e
00000230: ca52 043e 6759 43bd e5ba 7d3e f4fd 23bd
00000240: bef7 933e 9ffb 88bd a976 b73e 200e 8bbe
00000250: 5dc3 b8bd 221c a3be 2a97 96bd 9a12 cbbc
00000260: 605d 84be ff71 0ebe 246f a53e d543 7abe
00000270: c605 72bd c1bd 4f3d f7db f43c 3e5e f6bb
00000280: 2cfc c73d e91a 293e d37c 00be 5382 48be
00000290: 82a4 8ebe 7f1b 45be 1864 98bd 9239 8cbd
000002a0: 1f47 c9bd a62b b9be 2b8c 233c f059 4f3e
000002b0: 0210 94be 5d13 263e 75e8 c9be 4b9b 373e
000002c0: 4cb5 453e a12e 92be 076b 9ebe 53da 10be
000002d0: 9a99 c13e 9e62 1fbe 6548 c43e 10c9 e6bd
000002e0: 78de b4be 46e8 6f3e 9b62 fbbd 2761 89be
000002f0: 9f3b cf3e c58c 4fbd ddd3 a8bc 4452 7cbd

image_conv.0.bias f4 [16]
-0.28270587 0.013306438 -0.123657204 0.21079692 -0.25170094 -0.22028321 0.087699965 -0.30434808
-0.1670159 0.08485657 -0.041025054 -0.21272433 -0.17118897 -0.07053277 -0.23735213 -0.15168479
00000000: d3be 90be 3f03 5a3c fd3f fdbd 26db 573e
00000010: f2de 80be ec91 61be 0a9c b33d 83d3 9bbe
00000020: 3706 2bbe 48c9 ad3d e309 28bd 68d4 59be
00000030: 294c 2fbe 7c73 90bd 700c 73be 4253 1bbe

image_conv.3.weight f4 [32, 16, 2, 2]
-0.044479597 -0.04700716 0.3006838 -0.23929936 0.10044491 -0.16995828 0.19771573 -0.0035333636
-0.0093064485 -0.08352705 0.25459015 0.08817024 -0.1454328 0.06431053 0.040036406 0.092271276
-0.41555893 -0.17509854 0.12456563 -0.058376353 -0.19386408 -0.16469549 0.39428982 0.07584526
-0.08648396 0.1461703 0.17299233 -0.1097431 0.027177183 -0.04509248 0.09003239 -0.09794691
0.06686489 0.08296029 0.090002164 -0.019652296 -0.31079957 0.16466527 0.019129284 -0.1964955
-0.15254338 0.09231864 -0.07849523 0.047613904 -0.097941995 0.006776531 -0.00933999 -0.23652485
-0.093623154 -0.1209263 0.2040804 0.1906395 0.078062825 0.2085323 0.03430167 0.037941694
0.006962085 -0.14878286 -0.038386475 -0.039805863 -0.114532724 -0.047686823 0.055047456 0.13946117
-0.35449466 -0.03549853 0.19888404 0.13382956 0.30358818 -0.05694861 -0.11151376 -0.062714174
-0.078866005 -0.05731501 -0.06547543 0.05325453 0.076654755 -0.12711796 -0.27973506 -0.1923804
0.0830955 0.023145122 -0.07740645 -0.102546185 -0.28614646 0.19906783 0.03597041 0.12656581
-0.13990273 -0.19221215 0.018671416 0.14421937 -0.09963449 0.021274928 0.13863902 0.14448535
0.030704759 0.02354055 -0.014749862 0.02504791 -0.020141691 -0.107941866 -0.07342488 -0.09755772
0.10173383 -0.1928859 -0.017795859 0.03298661 0.07370481 -0.025046151 0.12019064 -0.26981622
-0.35113993 -0.22988099 0.003480907 0.17438573 -0.02791912 -0.022287033 -0.12517568 0.174279
0.020322101 0.043534048 0.11352648 -0.17846549 -0.21271528 -0.35070807 0.10515026 0.17386924
-0.004441555 -0.3676264 0.07710186 -0.117019854 -0.15349056 0.17833143 -0.2784197 0.29449746
-0.07780354 -0.044552296 0.05587454 0.16504365 -0.17483221 0.122331835 0.09806829 0.005884258
0.015682874 -0.031641852 -0.055495724 0.09925213 0.3266021 -0.2649772 0.2630798 0.055055205
-0.04579902 -0.06725007 0.21058024 -0.021841608 0.037239816 -0.18721403 -0.02107877 0.10150296
0.0658442 0.013222129 -0.094136275 -0.036708362 -0.11188869 -0.2754881 0.08738111 -0.33224392
0.030178046 -0.09855345 -0.09716365 0.12129761 -0.03978689 -0.28757438 -0.14717124 -0.31366718
-0.12790044 -0.16839483 0.17092615 0.20927323 0.094066426 -0.12802257 -0.110393375 0.12843516
-0.26497373 0.11417139 -0.13619938 -0.082888074 -0.22012742 0.029694155 0.006745854 0.3200304
0.015716825 0.020428501 0.0358093 -0.045352925 -0.14844242 0.13084841 -0.04834516 -0.14581189
0.035096273 -0.17218639 -0.04148662 0.03716565 -0.06604772 0.15536065 0.054916106 -0.18473458
-0.352795 -0.1305066 0.1378211 0.23241237 -0.013525639 -0.17315842 0.06629835 0.035309892
0.13593422 0.12429237 0.0025639841 -0.25464025 0.25438464 0.0060252836 -0.0014067846 -0.07085316
0.037025765 -0.007504029 0.00363022 -0.10740707 -0.18548086 0.056960795 0.05068351 0.21239685
0.16091092 -0.17310941 -0.02323783 -0.07020053 0.01191842 0.18128654 0.10467349 0.24638258
-0.09734346 0.11864257 0.28938097 0.028364658 -0.008384917 -0.26556605 0.031341963 0.084989056
0.018922832 0.043299627 -0.2159676 0.013027089 0.10149613 0.26248303 0.22610378 -0.11144026
00000000: 3d30 36bd 948a 40bd 3af3 993e e40a 75be
00000010: 10b6 cd3d 8b09 2ebe fe75 4a3e 0190 67bb
00000020: 137a 18bc 3b10 abbd a459 823e 9992 b43d
00000030: 56ec 14be 3db5 833d 37fd 233d b9f8 bc3d
00000040: 24c4 d4be 084d 33be 441c ff3d 0b1c 6fbd
00000050: 4e84 46be efa5 28be 5be0 c93e c254 9b3d
00000060: 811e b1bd abad 153e e724 313e fec0 e0bd
00000070: afa2 de3c e4b2 38bd e762 b83d 6498 c8bd
00000080: 76f0 883d 16e7 a93d 0e53 b83d dafd a0bc
00000090: 1f21 9fbe 039e 283e 04b5 9c3c 1e36 49be
000000a0: 5534 1cbe 8e11 bd3d 1bc2 a0bd cc06 433d
000000b0: d095 c8bd aa0d de3b c206 19bc 9233 72be
000000c0: 7fbd bfbd 35a8 f7bd 74fa 503e 0037 433e
000000d0: 67df 9f3d 7e89 553e e87f 0c3d c068 1b3d
000000e0: 3422 e43b 895a 18be 233b 1dbd 790b 23bd
000000f0: 2290 eabd 4253 43bd 7179 613d e9ce 0e3e
00000100: 5380 b5be e866 11bd 42a8 4b3e 9e0a 093e
00000110: e96f 9b3e f242 69bd 5461 e4bd 4a70 80bd
00000120: 8084 a1bd 25c3 6abd fb17 86bd 6c21 5a3d
00000130: 2bfd 9c3d 362b 02be 6f39 8fbe 5eff 44be
00000140: f92d aa3d d79a bd3c 4687 9ebd bc03 d2bd
00000150: ca81 92be 70d8 4b3e b555 133d 789a 013e
00000160: a942 0fbe 43d3 44be ccf4 983c 3eae 133e
00000170: 2b0d ccbd c248 ae3c 63f7 0d3e f8f3 133e
00000180: 8c88 fb3c 1dd8 c03c 68a9 71bc 4631 cd3c
00000190: 3000 a5bc a010 ddbd c95f 96bd 58cc c7bd
000001a0: d459 d03d e283 45be 9fc8 91bc f81c 073d
000001b0: 8cf2 963d 962d cdbc 8326 f63d 5a25 8abe
000001c0: 9dc8 b3be ec65 6bbe ee1f 643b 2c92 323e
000001d0: a3b6 e4bc 4c93 b6bc 0e2e 00be 3276 323e
000001e0: 897a a63c c250 323d 9280 e83d a8bf 36be
000001f0: 09d2 59be 0290 b3be 0559 d73d c70a 323e
00000200: 778a 91bb 8739 bcbe 94e7 9d3d 1ba8 efbd
00000210: a12c 1dbe 849c 363e 078d 8ebe 5fc8 963e
00000220: 7657 9fbd 787c 36bd b4dc 643d 3401 293e
00000230: 3707 33be 1d89 fa3d 07d8 c83d bcd0 c03b
00000240: 5f79 803c e39a 01bd 7c4f 63bd b344 cb3d
00000250: 6438 a73e 17ab 87be 65b2 863e 9181 613d
00000260: c197 3bbd 68ba 89bd 59a2 573e 2ced b2bc
00000270: c788 183d 09b5 3fbe 62ad acbc c9e0 cf3d
00000280: 53d9 863d a1a1 583c 85ca c0bd 825b 16bd
00000290: e625 e5bd c70c 8dbe def4 b23d e01b aabe
000002a0: f337 f73c 64d6 c9bd bcfd c6bd e26a f83d
000002b0: 94f7 22bd f33c 93be 0fb4 16be fc98 a0be
000002c0: 55f8 02be b26f 2cbe 4407 2f3e b94b 563e
000002d0: e6a5 c03d 5918 03be ec15 e2bd 8284 033e
000002e0: a3aa 87be b1d2 e93d da77 0bbe 39c1 a9bd
000002f0: 1569 61be 2841 f33c 530c dd3b 06db a33e
00000300: 92c0 803c ac59 a73c c6ac 123d fdc3 39bd
00000310: 4a01 18be 20fd 053e 9305 46bd b64f 15be
00000320: 1cc1 0f3d a151 30be e0ed 29bd 023b 183d
00000330: 0744 87bd dd16 1f3e b6ef 603d 102b 3dbe
00000340: 8ca1 b4be 86a3 05be f920 0d3e 82fd 6d3e
00000350: a49a 5dbc 7150 31be 6ec7 873d 1ba1 103d
00000360: 5732 0b3e 008d fe3d 8408 283b 3560 82be
00000370: b43e 823e be6f c53b dc63 b8ba 761b 91bd
00000380: 54a8 173d 5ce4 f5bb fce8 6d3b 3df8 dbbd
00000390: b2ee 3dbe b94f 693d 8399 4f3d 8f7e 593e
000003a0: d5c5 243e 9843 31be 435d bebc 4cc5 8fbd
000003b0: 7a45 433c 2ea3 393e 0e5f d63d b74b 7c3e
000003c0: 025c c7bd e0fa f23d be29 943e 005d e83c
000003d0: e460 09bc 46f8 87be 6e60 003d be0e ae3d
000003e0: 0e04 9b3c f35a 313d 9c26 5dbe 926f 553c
000003f0: 34dd cf3d 2d64 863e c087 673e cb3a e4bd

image_conv.3.bias f4 [32]
-0.0050966097 0.028599456 -0.08756097 -0.07072577 -0.19408311 -0.049132187 -0.12905835 -0.09472778
0.04587927 0.08079612 -0.032041546 -0.004145825 -0.12808517 -0.050173596 0.02125587 0.009248387
-0.1312289 -0.051348362 -0.03359701 -0.05934686 0.045249313 -0.11903448 -0.11354086 -0.020219486
0.023001332 -0.05985672 0.043480046 -0.11108354 -0.22902246 -0.05675865 0.015787506 0.038018756
00000000: 7601 a7bb 6849 ea3c 2a53 b3bd acd8 90bd
00000010: b9bd 46be d53e 49bd df27 04be a300 c2bd
00000020: e7eb 3b3d 7078 a53d ff3d 03bd b3d9 87bb
00000030: c228 03be d482 4dbd ca20 ae3c 8c86 173c
00000040: de60 06be a952 52bd 059d 09bd b115 73bd
00000050: 5857 393d 59c8 f3bd 1c88 e8bd 56a3 a5bc
00000060: 4a6d bc3c 522c 75bd 2218 323d c47f e3bd
00000070: dd84 6abe c27b 68bd cd54 813c 8eb9 1b3d

image_conv.5.weight f4 [64, 32, 2, 2]
-0.1359063 0.13077098 0.041739494 -0.079739355 0.08783638 0.021844525 -0.049342554 0.2197832
-0.2132752 -0.13593231 0.033446606 0.10270501 0.1489965 -0.2798266 0.21513118 0.0962179
-0.12752931 -0.04438976 0.24775775 0.21798564 -0.29424772 0.102862425 0.33469757 0.1388879
0.049515814 0.088445775 0.069640025 0.050212182 0.08359379 0.3163222 -0.19491144 -0.055923924
0.03237783 -0.0869311 0.16819827 0.06429296 0.07818915 0.18198577 -0.14495166 -0.14873718
-0.06360993 0.029209064 -0.14236414 -0.16396894 -0.034610946 0.011346329 0.17300536 -0.12060156
0.1529204 0.25303045 0.20517862 0.36374393 -0.004749364 0.05882733 -0.22910486 0.0062165
0.41219226 -0.0102375075 -0.046213336 0.0052217813 -0.22536992 0.06266653 -0.14302486 -0.023979435
0.25627232 -0.19179183 0.10997818 0.052449707 -0.12963848 0.098709576 0.17973608 0.046436477
0.021596825 0.030271927 0.14382654 0.2922063 0.24741516 0.02702578 0.063362345 -0.16646184
-0.04706558 -0.0040140213 0.008292885 0.113921344 0.25627652 0.14534213 0.19312029 0.11140777
0.08380942 -0.016141571 -0.098049775 -0.01688058 0.2027732 0.1119209 0.027631976 0.3098237
0.013182312 -0.0501827 0.030370858 0.011626253 -0.0020581803 0.036448274 -0.06341649 -0.08283259
-0.09736857 -0.014623509 0.0018974217 0.07942743 0.11143868 0.010141164 0.024355095 0.02383629
0.28244653 0.10264304 -0.098676495 -0.06199176 0.2213114 -0.04451776 0.123640515 0.0396749
-0.061127294 0.04457115 -0.080404766 0.051629007 0.24721369 0.050826915 -0.10406289 0.14635785
0.031598788 -0.10284664 0.011828118 -0.25292414 -0.39910504 -0.18848486 -0.37359208 -0.045022976
0.07683751 -0.2102303 0.03481776 0.011503222 0.045152362 0.028743768 0.09998935 0.18377315
0.13637288 -0.04775623 -0.16669019 -0.24921677 -0.14338276 -0.34966025 0.17784393 -0.346228
-0.05724913 -0.012322906 0.078640394 -0.076345496 0.016268391 -0.10468365 -0.042537272 -0.19333269
-0.09065252 -0.15248442 0.12514707 -0.007446687 0.05183931 -0.43809426 -0.02860155 -0.035360917
-0.009303028 -0.14530012 -0.047299627 -0.18172432 0.069020525 -0.2568208 0.14760126 -0.273652
-0.062164508 0.09481469 -0.20090267 -0.009408534 -0.013190634 0.28026232 -0.017518984 0.00041370397
0.050550018 -0.031078193 -0.07247171 0.06721182 -0.16400853 -0.33390844 -0.03315208 -0.43573347
-0.13691111 -0.05762357 -0.20245624 -0.15933637 -0.17892799 0.06551248 0.08249468 -0.11676518
-0.066450045 -0.27645764 0.0034758006 -0.15227968 0.05905966 -0.26077595 -0.23894015 0.022997689
0.04453488 -0.047109943 -0.029288905 -0.002239248 -0.18188281 0.163341 -0.11167787 0.28272334
-0.09167393 0.04998135 -0.11943958 0.024631174 -0.19409381 -0.08925434 -0.25441742 -0.020486034
-0.014181875 -0.017292006 -0.07566601 -0.069492094 0.04818401 0.0881921 -0.046953302 0.009276261
0.027720029 -0.260918 -0.30509135 0.0052112998 0.0013348601 -0.060923584 -0.04101473 0.0064039803
-0.22939803 -0.014335191 -0.11734798 0.06436367 -0.01381177 0.015809558 -0.23783381 0.06659785
-0.069357306 -0.03456303 -0.038682103 -0.035783578 -0.090637624 0.32926723 0.0002956661 0.21336661
00000000: 052b 0bbe d4e8 053e 08f7 2a3d 634e a3bd
00000010: 8fe3 b33d 4af3 b23c 6b1b 4abd d90e 613e
00000020: d064 5abe d731 0bbe 4fff 083d 0157 d23d
00000030: 8a92 183e 6f45 8fbe 594b 5c3e e40d c53d
00000040: 0b97 02be 09d2 35bd 35b4 7d3e a137 5f3e
00000050: a3a7 96be 89a9 d23d 7b5d ab3e a138 0e3e
00000060: 18d1 4a3d 0f23 b53d 6e9f 8e3d 4aab 4d3d
00000070: 3933 ab3d fcf4 a13e dd96 47be 7c10 65bd
00000080: 9e9e 043d ef08 b2bd 2b3c 2c3e 07ac 833d
00000090: a221 a03d 7a5a 3a3e 356e 14be 8f4e 18be
000000a0: ec45 82bd d947 ef3c e8c7 11be 79e7 27be
000000b0: 35c4 0dbd f4e5 393c 5128 313e f3fd f6bd
000000c0: 2a97 1c3e 358d 813e 581a 523e a53c ba3e
000000d0: 8ea0 9bbb edf4 703d 779a 6abe c8b3 cb3b
000000e0: dd0a d33e 38bb 27bc 324a 3dbd 7a1b ab3b
000000f0: 5fc7 66be 4f57 803d 1c75 12be 8570 c4bc
00000100: 2036 833e 1465 44be 3d3c e13d 81d5 563d
00000110: f3bf 04be 3f28 ca3d bc0c 383e 2d34 3e3d
00000120: d3eb b03c d5fc f73c 4447 133e 109c 953e
00000130: 665a 7d3e 2b65 dd3c 1ec4 813d f974 2abe
00000140: d6c7 40bd 0d88 83bb e1de 073c 984f e93d
00000150: ad36 833e 91d4 143e 53c1 453e c229 e43d
00000160: 46a4 ab3d 543b 84bc 52ce c8bd 2449 8abc
00000170: c7a3 4f3e c936 e53d 745c e23c 36a1 9e3e
00000180: a0fa 573c 608c 4dbd 4ecc f83c 0a7c 3e3c
00000190: 89e2 06bb c94a 153d 81e0 81bd 22a4 a9bd
000001a0: 2c69 c7bd 7197 6fbc e8b2 f83a d9aa a23d
000001b0: f639 e43d 2027 263c 5684 c73c 5344 c33c
000001c0: d59c 903e 8436 d23d e716 cabd 12eb 7dbd
000001d0: 759f 623e 4158 36bd 3d37 fd3d 2682 223d
000001e0: 9d60 7abd 3d90 363d 41ab a4bd f078 533d
000001f0: 9625 7d3e e22f 503d ed1e d5bd d5de 153e
00000200: bb6d 013d 42a1 d2bd b9ca 413c 467f 81be
00000210: 7f57 ccbe 2d02 41be 7647 bfbe 036a 38bd
00000220: fc5c 9d3d 9d46 57be 119d 0e3d 0378 3c3c
00000230: aff1 383d 0d78 eb3c 37c7 cc3d 072f 3c3e
00000240: 55a5 0b3e 099c 43bd d5b0 2abe ae32 7fbe
00000250: eed2 12be ab06 b3be b81c 363e cc44 b1be
00000260: 107e 6abd 04e6 49bc 370e a13d 075b 9cbd
00000270: 4a45 853c 6264 d6bd 903b 2ebd 01f9 45be
00000280: 07a8 b9bd e024 1cbe 8e26 003e 5703 f4bb
00000290: 7555 543d e44d e0be cc4d eabc 9cd6 10bd
000002a0: ba6b 18bc 8ec9 14be 41bd 41bd f115 3abe
000002b0: a25a 8d3d 047e 83be c924 173e 1d1c 8cbe
000002c0: 36a0 7ebd 342e c23d 6eb9 4dbe 4026 1abc
000002d0: 871d 58bc 8b7e 8f3e f983 8fbc 68e6 d839
000002e0: 890d 4f3d b297 febc 0c6c 94bd 5aa6 893d
000002f0: daf1 27be 0cf6 aabe 7aca 07bd 7518 dfbe
00000300: 6d32 0cbe b106 6cbd b050 4fbe 1329 23be
00000310: e638 37be 682b 863d f9f2 a83d 9522 efbd
00000320: f616 88bd db8b 8dbe 42ca 633b 34ef 1bbe
00000330: 8be8 713d 6d84 85be baac 74be a665 bc3c
00000340: 356a 363d 5bf6 40bd 49ef efbc 59c0 12bb
00000350: 7d3f 3abe dd42 273e 5eb7 e4bd 1dc1 903e
00000360: 8bbf bbbd 3eb9 4c3d bd9c f4bd 51c7 c93c
00000370: 87c0 46be fbca b6bd 0043 82be 54d2 a7bc
00000380: 185b 68bc f7a7 8dbc c8f6 9abd df51 8ebd
00000390: 995c 453d 0f9e b43d 1b52 40bd 75fb 173c
000003a0: 1d15 e33c 0b97 85be ef34 9cbe 8dc3 aa3b
000003b0: 79f6 ae3a 028b 79bd 10ff 27bd 7bd8 d13b
000003c0: 51e7 6abe 26de 6abc 2354 f0bd 1ad1 833d
000003d0: c34a 62bc 0c83 813c b58a 73be 7464 883d
000003e0: 340b 8ebd f791 0dbd 2071 1ebd cd91 12bd
000003f0: 38a0 b9bd b795 a83e a203 9b39 c77c 5a3e

image_conv.5.bias f4 [64]
0.021698726 -0.021175252 -0.13791569 -0.11298642 -0.047826365 0.017316082 0.018394245 -0.19318432
-0.122618444 -0.08880965 -0.07425418 0.013438219 -0.12667394 -0.13058446 0.04001325 0.025596175
-0.08131674 0.028048554 -0.02994868 -0.05635258 -0.04052948 -0.048872154 0.08115834 0.03804742
0.0799333 0.010067109 -0.05318977 -0.038122185 -0.0007917423 -0.046706125 0.02809303 -0.04136583
-0.03409135 -0.04275993 -0.04883613 -0.13919093 -0.049271937 -0.09722945 -0.06770584 0.0110968305
-0.101457514 -0.049666073 0.0031404716 -0.17542236 -0.04863796 -0.12979917 0.046234235 -0.021716116
-0.12481773 -0.10067411 -0.11853489 0.04351379 0.10425143 -0.18519618 -0.008871479 0.0748253
-0.027273994 -0.21295448 -0.2691368 -0.033376835 -0.040119622 -0.14923511 -0.006783189 -0.15360355
00000000: 87c1 b13c b977 adbc c539 0dbe 6d65 e7bd
00000010: 94e5 43bd 75da 8d3c 87af 963c 1cd2 45be
00000020: 611f fbbd d5e1 b5bd 9312 98bd fa2b 5c3c
00000030: d0b6 01be efb7 05be efe4 233d 12af d13c
00000040: 6489 a6bd 15c6 e53c ef56 f5bc f7d1 66bd
00000050: 3d02 26bd 2b2e 48bd 5836 a63d 9dd7 1b3d
00000060: 12b4 a33d 84f0 243c 84dd 59bd 0226 1cbd
00000070: ed8c 4fba ec4e 3fbd 5b23 e63c 376f 29bd
00000080: 5fa3 0bbd 0925 2fbd 6508 48bd 1188 0ebe
00000090: 5fd1 49bd 3c20 c7bd 5ca9 8abd 7bcf 353c
000000a0: f5c8 cfbd a76e 4bbd 5fd0 4d3b eba1 33be
000000b0: 9938 47bd 13ea 04be 1c60 3d3d ffe5 b1bc
000000c0: 70a0 ffbd 3a2e cebd 6cc2 f2bd 843b 323d
000000d0: c681 d53d 11a4 3dbe ae59 11bc 023e 993d
000000e0: b66d dfbc bd10 5abe 4ccc 89be 26b6 08bd
000000f0: 7954 24bd 17d1 18be 8345 debb 404a 1dbe

actor.0.weight f4 [64, 64]
-0.11608571 0.1021042 -0.2882591 -0.283879 0.3879253 0.18215063 0.1040193 -0.014927636
-0.11022349 0.02915566 -0.1630871 0.10797237 0.08815312 0.13440926 -0.22852461 -0.09473049
-0.24220535 0.09474812 -0.0973332 -0.3462665 -0.19158582 -0.43559837 -0.20226008 0.06941363
-0.2181443 -0.3367884 -0.21140958 -0.19282205 -0.019761197 0.084665015 -0.19146612 -0.45090643
-0.072133906 0.042140707 0.1793609 0.04934369 0.3843544 0.12382388 0.33381748 -0.23317806
-0.17925224 0.3523767 -0.19047189 -0.28190866 -0.18793212 0.19604124 -0.0024551451 -0.18045716
-0.004985408 -0.08378388 -0.060410276 -0.025187386 -0.06301233 -0.15415443 -0.12181788 -0.20411961
0.078015074 0.075366795 -0.019856935 -0.0567263 -0.12615639 -0.14955996 -0.01956145 -0.07612597
-0.13599278 -0.39988723 -0.031253807 -0.4363369 -0.30367365 0.00872342 0.13362618 0.18116511
0.20986259 0.19327873 0.29091522 0.15876193 -0.15965858 -0.07806737 -0.173436 -0.63524795
0.074375816 -0.19642986 -0.23131438 -0.18125203 0.07377262 -0.24886201 -0.056470335 -0.1351378
0.12967737 -0.022007436 0.036480296 -0.12734129 -0.22308412 -0.11961088 -0.2908431 -0.2024102
0.16225487 -0.2935117 -0.04192214 0.32610372 -0.16781884 -0.07229726 -0.06135132 -0.335791
0.08996029 -0.31936404 0.0021884097 0.13745393 0.4133391 -0.16739357 -0.07440987 -0.041521054
0.07227308 0.17133704 0.0056943404 0.26483268 -0.20680773 -0.037347578 -0.039059322 -0.26805317
-0.15404156 -0.20173477 0.19023944 -0.018446151 0.13832942 0.2741459 -0.21702303 0.20333935
0.43225992 -0.14213596 -0.20762643 -0.06505411 0.15856823 0.40356392 0.05703811 0.23149733
0.21057756 0.024147427 0.41461557 -0.21424982 0.0032449455 -0.09419454 0.1514211 0.13505949
0.4299855 0.2841865 -0.33453113 -0.017134912 0.08853523 0.1426291 0.15994008 -0.032681983
0.09123546 0.082131416 -0.028459245 0.10784987 0.01029102 0.06825319 0.017247243 0.14470263
0.006224124 0.12921785 0.19625457 0.118976735 -0.06788977 -0.14196458 0.09921812 -0.15028717
-0.11794438 0.17424317 -0.16987292 0.2022652 0.23376957 -0.07905633 0.107882485 -0.14215179
0.082114466 -0.022157539 -0.12069134 0.02928366 -0.012961014 -0.051926423 0.2617131 0.12881881
-0.0066626826 0.03540673 0.1107138 0.1505468 -0.032649815 0.17859773 0.06825136 0.088915855
0.2772271 -0.08293398 0.10088357 -0.003341707 -0.050626706 0.06829266 -0.20152484 -0.03421889
0.03284548 0.17964773 0.27960807 -0.3720534 -0.14320028 -0.016744671 0.48161668 0.17785819
0.45899662 0.61160874 -0.13402326 0.31392685 -0.029317355 0.14961255 0.1555294 -0.107188135
-0.039450943 0.08296202 0.07464101 0.30936852 0.23010425 0.030802336 0.15405704 0.14017265
0.28885618 0.14991692 -0.025266001 0.1662857 0.16488788 -0.25923106 0.35250846 0.037629694
-0.02749331 0.11534913 0.080306984 0.07482563 0.38775876 0.19027211 0.04148404 -0.015441169
-0.009166035 -0.10511859 -0.028307471 0.08141892 -0.19908264 0.023905227 -0.13859971 0.21741973
-0.018534334 0.07590742 0.16391431 0.009763633 -0.07724739 -0.020601215 -0.07761678 -0.005285747
00000000: 58be edbd 021c d13d b296 93be 9758 91be
00000010: 259e c63e b285 3a3e 1208 d53d 0b93 74bc
00000020: dabc e1bd dad7 ee3c 4e00 27be 9e20 dd3d
00000030: 9f89 b43d 95a2 093e 5b02 6abe 0f02 c2bd
00000040: ae04 78be 4d0b c23d a156 c7bd d849 b1be
00000050: 132f 44be c006 dfbe 441d 4fbe bc28 8e3d
00000060: 3861 5fbe 876f acbe c17b 58be 2573 45be
00000070: 3ce2 a1bc da64 ad3d b20f 44be 35dd e6be
00000080: f1ba 93bd bc9b 2c3d 62aa 373e 9c1c 4a3d
00000090: 1aca c43e 6097 fd3d 20ea aa3e 3bc6 6ebe
000000a0: e68d 37be b86a b43e 100b 43be 5556 90be
000000b0: 4771 40be 09bf 483e 80e6 20bb c3c9 38be
000000c0: a25c a3bb e296 abbd c470 77bd c755 cebc
000000d0: 9c0c 81bd a9da 1dbe a77b f9bd bb04 51be
000000e0: 5ec6 9f3d e859 9a3d 03ab a2bc d659 68bd
000000f0: 242f 01be 3f26 19be 563f a0bc efe7 9bbd
00000100: b141 0bbe 05be ccbe fe03 00bd 8d67 dfbe
00000110: 1d7b 9bbe adec 0e3c 4dd5 083e 5983 393e
00000120: 38e6 563e dcea 453e d7f2 943e 7d92 223e
00000130: 8a7d 23be c9e1 9fbd 3599 31be 9c9f 22bf
00000140: 5952 983d e924 49be addd 6cbe 229a 39be
00000150: 1916 973d afd5 7ebe 704d 67bd 9061 0abe
00000160: 25ca 043e f048 b4bc 5d6c 153d c165 02be
00000170: 2a70 64be 8df6 f4bd 63e9 94be 9f44 4fbe
00000180: 2426 263e 2a47 96be 8db6 2bbd 11f7 a63e
00000190: b4d8 2bbe 9610 94bd 864b 7bbd ccec abbe
000001a0: 1a3d b83d af83 a3be 6c6b 0f3b b9c0 0c3e
000001b0: 2fa1 d33e 3869 2bbe 3464 98bd fb11 2abd
000001c0: e903 943d fa72 2f3e 9797 ba3b 2698 873e
000001d0: 68c5 53be c6f9 18bd abfc 1fbd 443e 89be
000001e0: 12bd 1dbe 8f93 4ebe 21ce 423e 621c 97bc
000001f0: 3aa6 0d3e da5c 8c3e 493b 5ebe 3138 503e
00000200: 2c51 dd3e 178c 11be 069c 54be 173b 85bd
00000210: b65f 223e ee9f ce3e cba0 693d a30d 6d3e
00000220: a5a1 573e d3d0 c53c 7e48 d43e 4e64 5bbe
00000230: 27a9 543b 11e9 c0bd 220e 1b3e 094d 0a3e
00000240: 0f27 dc3e e580 913e aa47 abbe 845e 8cbc
00000250: f551 b53d 5d0d 123e 55c7 233e 8bdd 05bd
00000260: a8d9 ba3d 8434 a83d 5d23 e9bc 65e0 dc3d
00000270: ab9b 283c 54c8 8b3d 174a 8d3c ed2c 143e
00000280: bdf3 cb3b af51 043e f5f6 483e 13aa f33d
00000290: cb09 8bbd 2a5f 11be df32 cb3d e1e4 19be
000002a0: d38c f1bd cd6c 323e 2bf3 2dbe 9c1e 4f3e
000002b0: 4a61 6f3e 49e8 a1bd 7ef1 dc3d 3d90 11be
000002c0: a12b a83d ba83 b5bc 052d f7bd 49e4 ef3c
000002d0: 6f5a 54bc cdb0 54bd 42ff 853e 14e9 033e
000002e0: a252 dabb a606 113d ebbd e23d f128 1a3e
000002f0: d0bb 05bd 53e2 363e 5ec7 8b3d 8419 b63d
00000300: b6f0 8d3e 4ad9 a9bd 0c9c ce3d 8a00 5bbb
00000310: f35d 4fbd 06dd 8b3d 875c 4ebe 1b29 0cbd
00000320: fb88 063d 93f5 373e ca28 8f3e c97d bebe
00000330: 18a3 12be 1f2c 89bc 7696 f63e 7520 363e
00000340: 9b01 eb3e 6492 1c3f 653d 09be 05bb a03e
00000350: f32a f0bc 0834 193e 1943 1f3e 7485 dbbd
00000360: 5097 21bd fee7 a93d 63dd 983d 8d65 9e3e
00000370: 73a0 6b3e 2e55 fc3c 21c1 1d3e 6b89 0f3e
00000380: f5e4 933e d283 193e a5fa cebc cc46 2a3e
00000390: 5ed8 283e efb9 84be fd7b b43e 9821 1a3d
000003a0: a639 e1bc 2a3c ec3d fd77 a43d 2e3e 993d
000003b0: 5188 c63e b1d6 423e 2beb 293d f5fc 7cbc
000003c0: 232d 16bc 6a48 d7bd 12e5 e7bc f6be a63d
000003d0: 52dc 4bbe e5d4 c33c 15ed 0dbe 47a3 5e3e
000003e0: 51d5 97bc 5975 9b3d 27d9 273e a5f7 1f3c
000003f0: e133 9ebd e1c3 a8bc 8cf5 9ebd 0f34 adbb

actor.0.bias f4 [64]
-0.03689039 0.01435482 -0.017461654 0.037692126 -0.025257954 0.048593313 0.026317753 -0.02613586
0.0414755 0.03605986 0.010848983 0.018713824 0.031053035 -0.023513475 0.0010518508 -0.04134491
0.02294525 -0.01584323 -0.0075089703 0.039887913 0.009013023 0.012210162 0.0036765889 0.04001164
-0.02644629 0.028514503 0.037611865 -0.003907164 0.03867103 0.017716626 -0.006274935 0.01896824
-0.052469924 -0.0042806496 0.013151421 -0.084799476 -0.017298622 0.05349526 0.030987412 0.011031696
-0.022522885 -0.040157948 -0.024952646 0.029602181 0.05169362 0.03181584 -0.039260805 0.0007246653
0.060781065 0.010694657 0.004551179 -0.023923395 0.020497046 0.020113647 -0.043961983 -0.02471931
0.02377845 -0.03104277 0.02518533 -0.0052051013 -0.011545106 0.008549007 0.06193954 0.02259192
00000000: 611a 17bd 7b30 6b3c be0b 8fbc 0f63 1a3d
00000010: c5e9 cebc c809 473d 5498 d73c df1a d6bc
00000020: 37e2 293d 81b3 133d efbf 313c bc4d 993c
00000030: ef62 fe3c 559f c0bc 42de 893a 4859 29bd
00000040: adf7 bb3c a9c9 81bc cf0d f6bb 8261 233d
00000050: 5cab 133c 220d 483c edf2 703b 3fe3 233d
00000060: e4a5 d8bc 3f97 e93c e60e 1a3d ab07 80bb
00000070: 8465 1e3d 7522 913c f89d cdbb 4863 9b3c
00000080: b4ea 56bd b144 8cbb 0f79 573c 59ab adbd
00000090: d7b5 8dbc d91d 5b3d 50d9 fd3c 49be 343c
000000a0: ea81 b8bc a97c 24bd 7e69 ccbc 4680 f23c
000000b0: b0bc 533d 5451 023d f0cf 20bd 77f7 3d3a
000000c0: 91f5 783d a538 2f3c 0e22 953b fffa c3bc
000000d0: 6ce9 a73c 60c5 a43c 7b11 34bd 2780 cabc
000000e0: 06cb c23c 684d febc 7751 ce3c 8e8f aabb
000000f0: af27 3dbc 2211 0c3c 51b4 7d3d b112 b93c

actor.2.weight f4 [7, 64]
0.27701738 -0.20020077 0.023062143 0.08542358 -0.12051788 0.13330537 -0.019447472 0.0180967
-0.24129122 -0.17052078 -0.024740204 0.15425062 0.09949698 -0.010039818 0.027174313 -0.20497651
0.051019233 -0.04187778 0.1268418 0.07666533 0.0029103186 -0.1591057 0.024633767 0.03166068
-0.13951333 0.04654008 0.24207021 -0.048735864 0.1926931 0.115316615 -0.080609374 0.031747445
-0.32887375 0.15437026 -0.17639701 -0.044154294 0.0024632048 0.03501946 0.034039855 -0.04844064
-0.020162206 -0.0013097466 -0.025783436 0.22616686 0.37167358 -0.115770005 -0.12959763 -0.040283117
0.12825544 0.1391684 0.04815262 -0.19216232 -0.03745173 -0.034460012 -0.12931131 -0.078422956
0.059240583 -0.096177004 0.11023201 -0.13527295 -0.005828497 0.027366424 -0.102366194 -0.0774285
-0.09194548 0.01639432 0.07170232 0.2925374 0.031306367 0.22236128 -0.08034782 -0.012234792
-0.035606872 0.2851649 0.020518843 0.11680794 0.030052347 -0.022881279 -0.054123703 -0.14404614
-0.056690894 0.10507143 0.091666624 0.17643069 0.049836863 -0.06826137 0.10605638 0.44893107
-0.080250844 0.014036463 0.04318896 0.055777926 0.063087 0.13827856 -0.063331194 -0.06872586
0.17564157 0.03660852 -0.03725917 -0.3120252 0.005229647 0.03472157 -0.034142062 -0.038533557
-0.24615689 -0.10290313 -0.13168891 -0.044381637 -0.055352528 0.0114583215 -0.1322607 -0.041710127
0.19146565 -0.0027892878 0.06341605 -0.25879163 -0.059220824 -0.055912618 -0.21967095 0.05476928
-0.020655634 -0.002929504 0.118874304 0.0038175485 0.0024459967 -0.15313664 0.049640883 0.144571
0.17574255 0.15359992 -0.18476786 -0.14409408 0.25941166 -0.15700439 0.12261829 0.037785053
0.09926328 -0.36745772 -0.12663014 -0.18981285 -0.42536843 -0.20622353 0.080920376 0.086224504
0.22615042 -0.16859265 0.07138455 0.06947556 0.015065791 0.0860328 -0.14177996 -0.11099296
0.012655571 -0.0065327734 -0.22917975 -0.23441796 0.017588831 -0.43988615 -0.21157515 0.14935513
0.0080731725 -0.00058707525 0.19243836 0.3143151 0.03870774 0.0075125685 0.18229486 -0.0718318
-0.1929833 0.32012248 0.12802768 -0.17072363 -0.18157908 -0.10422121 0.27628726 -0.027964674
-0.2855817 0.082066916 0.08960365 0.05301492 0.08125004 -0.069188364 0.13936493 0.17675927
0.06630995 0.124077365 -0.071391925 0.21113135 -0.24411198 0.088273585 -0.34271175 -0.28230575
0.12124682 -0.016893923 -0.011434456 0.0005791625 -0.059580777 0.13984124 -0.1612211 0.015386333
-0.14545244 -0.132516 0.0050998037 0.06720551 -0.030247765 -0.02412428 -0.0045442805 -0.074023895
-0.084155135 -0.015776388 0.05336815 -0.049823806 0.056481916 -0.13081715 0.14579763 0.24948353
-0.14117469 0.033475682 0.03209168 -0.098390445 0.050812926 0.07892036 0.007878185 -0.12658459
0.0240066 0.013254069 -0.36134756 -0.12612152 0.039985508 0.027990278 0.04660358 -0.03187757
0.107939556 -0.25861037 0.12617394 0.02298117 -0.15540516 0.15691563 -0.10285203 -0.06391187
0.069383614 -0.07695172 0.041065156 -0.21099155 -0.20708041 -0.06738021 -0.03079525 0.027067225
0.045040425 0.026557181 0.08030288 -0.08010472 -0.057853222 -0.14792234 0.036331374 0.28849813
00000000: 39d5 8d3e 6e01 4dbe d2ec bc3c 8ff2 ae3d
00000010: 14d2 f6bd 3481 083e 4e50 9fbc 883f 943c
00000020: 0c15 77be 009d 2ebe f8ab cabc e0f3 1d3e
00000030: 13c5 cb3d 0c7e 24bc aa9c de3c 5de5 51be
00000040: 8bf9 503d 0988 2bbd d1e2 013e b602 9d3d
00000050: 0bbb 3e3b 9bec 22be c1cc c93c a1ae 013d
00000060: 95dc 0ebe d0a0 3e3d 41e1 773e 429f 47bd
00000070: 5751 453e 1e2b ec3d 8716 a5bd 9c09 023d
00000080: 2462 a8be 3d13 1e3e 6ba1 34be 22db 34bd
00000090: b86d 213b 9170 0f3d 606d 0b3d b169 46bd
000000a0: 362b a5bc ceab abba c937 d3bc 4998 673e
000000b0: 004c be3e d318 edbd 3eb5 04be e9ff 24bd
000000c0: 6555 033e 2982 0e3e af3b 453d 33c6 44be
000000d0: fc66 19bd f125 0dbd 2f6a 04be 379c a0bd
000000e0: 41a6 723d 73f8 c4bd 52c1 e13d fe84 0abe
000000f0: fafc bebb 8d2f e03c 5ea5 d1bd d592 9ebd
00000100: e94d bcbd 624d 863c aad8 923d 76c7 953e
00000110: 1b3b 003d adb2 633e 668d a4bd 7074 48bc
00000120: 83d8 11bd 2201 923e 2217 a83c 0039 ef3d
00000130: 5730 f63c 8571 bbbc d1b0 5dbd d580 13be
00000140: b634 68bd b12f d73d b6bb bb3d 3faa 343e
00000150: bd21 4c3d 9ecc 8bbd 1634 d93d 4bda e53e
00000160: 8e5a a4bd 31f9 653c e8e6 303d 6577 643d
00000170: c233 813d e598 0d3e c9b3 81bd 25c0 8cbd
00000180: 62db 333e d1f2 153d 129d 18bd c4c1 9fbe
00000190: 755d ab3b 3438 0e3d 8cd8 0bbd 5dd5 1dbd
000001a0: 8d10 7cbe e0be d2bd 75d9 06be 85c9 35bd
000001b0: 55b9 62bd afbb 3b3c 596f 07be 3dd8 2abd
000001c0: 920f 443e 7ccc 36bb 46e0 813d 5680 84be
000001d0: 8991 72bd a104 65bd 6cf1 60be c155 603d
000001e0: 0136 a9bc ecfc 3fbb 5f74 f33d d62f 7a3b
000001f0: 044d 203b dacf 1cbe 3d54 4b3d 6c0a 143e
00000200: dbf5 333e 4c49 1d3e c933 3dbe 668d 13be
00000210: 9bd1 843e c2c5 20be 4c1f fb3d 80c4 1a3d
00000220: 8c4a cb3d 6b23 bcbe 55ab 01be 4d5e 42be
00000230: e4c9 d9be 432c 53be 95b9 a53d 7996 b03d
00000240: fa93 673e 8da3 2cbe 1032 923d 3449 8e3d
00000250: 82d6 763c f731 b03d c42e 11be 4750 e3bd
00000260: 5059 4f3c e010 d6bb 19ae 6abe 430b 70be
00000270: 7416 903c c238 e1be 28a7 58be 8df0 183e
00000280: 5745 043c f4e5 19ba 900e 453e e9ed a03e
00000290: 028c 1e3d fe2b f63b 81ab 3a3e 8d1c 93bd
000002a0: 6a9d 45be 18e7 a33e b019 033e 2dd2 2ebe
000002b0: deef 39be ee71 d5bd 8675 8d3e 2c16 e5bc
000002c0: c437 92be b312 a83d 1e82 b73d 2c26 593d
000002d0: 6c66 a63d a1b2 8dbd aeb5 0e3e 6200 353e
000002e0: 83cd 873d 461c fe3d ee35 92bd d132 583e
000002f0: 7ef8 79be c8c8 b43d ea77 afbe 618a 90be
00000300: 4150 f83d 2065 8abc 9657 3bbc f0d2 173a
00000310: f90a 74bd 8b32 0f3e 2517 25be f516 7c3c
00000320: 7cf1 14be 46b2 07be 411c a73b 0ba3 893d
00000330: 29ca f7bc 48a0 c5bc 30e8 94bb d799 97bd
00000340: 8759 acbd 7c3d 81bc 9098 5a3d 0c14 4cbd
00000350: 9559 673d eef4 05be f94b 153e 9c78 7f3e
00000360: 1990 10be cc1d 093d 9172 033d ee80 c9bd
00000370: 3721 503d ffa0 a13d 8113 013c 649f 01be
00000380: 7da9 c43c 9827 593c 8c02 b9be 0026 01be
00000390: d8c7 233d de4b e53c 65e3 3e3d 0e92 02bd
000003a0: 6a0f dd3d 9468 84be be33 013e 0243 bc3c
000003b0: 8822 1fbe 7eae 203e 16a4 d2bd 3ae4 82bd
000003c0: ff18 8e3d dd98 9dbd f033 283d 2b0e 58be
000003d0: e30c 54be a3fe 89bd 5246 fcbc 16bc dd3c
000003e0: 4f7c 383d 728e d93c d675 a43d f20d a4bd
000003f0: 80f7 6cbd f478 17be 35d0 143d 07b6 933e

actor.2.bias f4 [7]
0.009402843 0.08091186 -0.08748491 -0.0070099398 -0.10961784 -0.009108931 0.030965842
00000000: 620e 1a3c 1eb5 a53d 4a2b b3bd a3b3 e5bb
00000010: 517f e0bd a03d 15bc 14ac fd3c

critic.0.weight f4 [64, 64]
-0.08135278 0.036763858 0.0887897 0.027841559 -0.12244436 -0.015109649 -0.16661467 -0.1741273
0.084184386 0.030617945 0.19668116 0.095833786 0.09316679 -0.02303169 0.18743268 -0.01899158
0.19823763 -0.0014163755 0.16546838 0.097891554 -0.22682542 -0.014783535 -0.07417191 0.0016349115
0.18733993 -0.018159365 -0.06781443 0.025363363 -0.04722249 0.091930546 0.026366832 0.030146763
0.06482927 -0.15472618 -0.05740473 -0.25741526 0.027462415 -0.05629162 -0.0410832 0.12797914
0.21020526 -0.08106662 0.073393196 -0.004183002 -0.10472396 -0.08589792 0.018588364 0.041030496
-0.031125618 0.07011117 -0.65122306 -0.1466299 0.02614538 -0.0056462414 0.07935712 -0.13454859
0.13458021 0.38941208 0.12044202 0.18419422 0.010225552 -0.10248236 -0.018041842 0.27382055
-0.21703276 -0.11487481 0.2634656 0.052992895 0.08908332 -0.0017600356 -0.071037725 -0.11758546
0.24742946 0.14812456 -0.1485672 0.06007189 0.16821058 -0.005230898 0.008460069 -0.01579547
-0.12320558 -0.03430233 0.08327713 -0.049933277 -0.10073016 0.06066326 -0.014846065 0.11202556
0.14078975 -0.017925581 -0.013502781 0.020458572 0.23990442 -0.11228699 0.028442364 0.083692186
0.3261889 0.07392043 -0.00039025064 -0.045852687 -0.06402187 0.18214439 -0.035920937 -0.080904275
0.00928915 0.1085936 0.034972835 -0.193255 0.07335116 -0.55243886 0.15061961 0.026794415
-0.09075199 0.19989021 0.26148924 -0.2814258 0.20646049 0.101909086 0.12083752 0.03833363
-0.12543285 -0.049249675 0.18456255 0.029753748 0.06350494 0.0005134012 0.036828194 -0.075233705
-0.029937075 0.13678373 -0.09981969 -0.25676188 -0.18826498 -0.033902064 -0.11710605 0.1764051
0.070517376 -0.08016436 0.1517537 -0.15918133 0.081027396 -0.09554113 0.009829256 -0.07697924
-0.09541369 -0.0075136414 -0.032147087 0.12614243 0.06143823 0.027702015 0.10575234 0.016566645
0.027691038 -0.08476199 0.14260255 0.07343175 -0.15285738 -0.024467317 -0.025562817 0.13569283
0.20417713 0.022222325 0.10652794 -0.047402024 0.10950489 -0.03289565 0.108702436 0.2004179
-0.100397244 -0.17591482 -0.035525497 -0.027500236 -0.23655875 0.25644764 -0.031049604 0.15589003
-0.0014584841 -0.10263891 0.33069637 -0.22728264 -0.051685832 0.08113798 -0.17685649 -0.0148279285
0.10556478 0.127467 -0.08006792 0.0070267576 -0.011857268 -0.15122181 0.071711265 0.03169015
0.11449484 -0.061790615 0.038307328 -0.021520456 0.0657076 -0.008758187 -0.12308998 -0.2640839
-0.035153553 0.21813962 -0.021154389 0.010408437 0.1587686 0.014126282 0.11820099 -0.012449541
-0.18722521 -0.16323136 0.15989056 0.1160897 0.27798074 -0.006177987 -0.019581176 0.0024314295
-0.013883138 -0.077443115 -0.08727994 -0.01745603 -0.09177285 0.035646237 0.04145114 0.045588892
-0.08943104 0.030441666 -0.318045 -0.02007592 -0.16873999 0.2403271 -0.0744391 -0.008824202
-0.10067483 0.29007202 -0.10916645 -0.15503955 -0.010346058 -0.21952103 0.07964986 0.042984113
0.071436845 -0.14624886 0.13507569 0.30509463 0.052019197 0.16070366 0.070804164 -0.034554534
0.09309171 -0.10572916 0.020548806 0.0727015 -0.0130910715 -0.04196944 0.1221547 -0.07382575
00000000: 499c a6bd b395 163d 60d7 b53d fb13 e43c
00000010: 1cc4 fabd 768e 77bc 099d 2abe 6d4e 32be
00000020: dd68 ac3d 7cd2 fa3c c966 493e 8144 c43d
00000030: 3bce be3d f4ac bcbc 5aee 3f3e 3b94 9bbc
00000040: cefe 4a3e ada5 b9ba 8b70 293e 5e7b c83d
00000050: ec44 68be a436 72bc 71e7 97bd 874a d63a
00000060: 0ad6 3f3e f3c2 94bc 4be2 8abd d4c6 cf3c
00000070: 5f6c 41bd 1546 bc3d 41ff d73c 58f6 f63c
00000080: 35c5 843d 8a70 1ebe 3921 6bbd efcb 83be
00000090: dcf8 e03c 0b92 66bd dc46 28bd f70c 033e
000000a0: 0c40 573e 4206 a6bd 2c4f 963d 9011 89bb
000000b0: 8479 d6bd 40eb afbd a046 983c 980f 283d
000000c0: 27fb febc 7296 8f3d 8eb6 26bf 2626 16be
000000d0: d62e d63c 1b04 b9bb fc85 a23d 1bc7 09be
000000e0: 65cf 093e 0561 c73e 4eaa f63d 699d 3c3e
000000f0: 1389 273c 46e2 d1bd 7ccc 93bc 3532 8c3e
00000100: d63d 5ebe 7c43 ebbd f7e4 863e 140f 593d
00000110: 5171 b63d ffb0 e6ba 3a7c 91bd a5d0 f0bd
00000120: 265e 7d3e f7ad 173e 0022 18be f10d 763d
00000130: 653f 2c3e f467 abbb 1a9c 0a3c 8065 81bc
00000140: 3553 fcbd 9a80 0cbd 338d aa3d d686 4cbd
00000150: 9d4b cebd 0a7a 783d e93c 73bc a86d e53d
00000160: 302b 103e abd8 92bc c53a 5dbc bc98 a73c
00000170: 81a9 753e b9f6 e5bd f6ff e83c cf66 ab3d
00000180: 3b02 a73e 9863 973d 8e9a ccb9 07d0 3bbd
00000190: e61d 83bd 0f84 3a3e d521 13bd 24b1 a5bd
000001a0: 8531 183c 5266 de3d ad3f 0f3d a4e4 45be
000001b0: 2239 963d a26c 0dbf 073c 1a3e f67f db3c
000001c0: 2edc b9bd 05b0 4c3e ebe1 853e 0b17 90be
000001d0: 616a 533e b6b5 d03d a979 f73d b903 1d3d
000001e0: 7871 00be 07ba 49bd f7fd 3c3e 22be f33c
000001f0: e10e 823d c595 063a 29d9 163d 2114 9abd
00000200: 993e f5bc 0911 0c3e 446e ccbd 4b76 83be
00000210: 89c8 40be e4dc 0abd 4cd5 efbd 8aa3 343e
00000220: 6a6b 903d 362d a4bd 5265 1b3e 6e00 23be
00000230: b1f1 a53d 11ab c3bd e30a 213c 4ba7 9dbd
00000240: 4168 c3bd fe34 f6bb aaac 03bd 7b2b 013e
00000250: a7a6 7b3d 56ef e23c af94 d83d c6b6 873c
00000260: 51d8 e23c b297 adbd 6706 123e 6363 963d
00000270: a586 1cbe af6f c8bc 1d69 d1bc 10f3 0a3e
00000280: cf13 513e 980b b63c 522b da3d a028 42bd
00000290: 1a44 e03d 97bd 06bd 629f de3d 5a3a 4d3e
000002a0: 129d cdbd 0423 34be 2f83 11bd 2d48 e1bc
000002b0: 753c 72be 1b4d 833e bd5b febc a3a1 1f3e
000002c0: 9b2a bfba 5934 d2bd 0951 a93e c8bc 68be
000002d0: 86b4 53bd ab2b a63d de19 35be d7f0 72bc
000002e0: 5932 d83d b686 023e a6fa a3bd b740 e63b
000002f0: fd44 42bc e4d9 1abe 5bdd 923d 88cd 013d
00000300: 457c ea3d 2818 7dbd 25e8 1c3d ab4b b0bc
00000310: b591 863d 807e 0fbc 9916 fcbd 0136 87be
00000320: 2cfd 0fbd fe5f 5f3e f84b adbc 2688 2a3c
00000330: 3c94 223e ec71 673c 5c13 f23d 29f9 4bbc
00000340: f7b7 3fbe 1f26 27be 5aba 233e 70c0 ed3d
00000350: 7e53 8e3e b670 cabb b468 a0bc 9e58 1f3b
00000360: 1a76 63bc 7f9a 9ebd d3bf b2bd f3ff 8ebc
00000370: 67f3 bbbd ca01 123d acc8 293d 6bbb 3a3d
00000380: 9f27 b7bd cd60 f93c cbd6 a2be 4176 a4bc
00000390: 2dca 2cbe 4f18 763e 8773 98bd 6393 10bc
000003a0: 9b2e cebd 5284 943e a992 dfbd b0c2 1ebe
000003b0: 8382 29bc 1fca 60be 771f a33d 1c10 303d
000003c0: 7b4d 923d 43c2 15be 4851 0a3e 5d35 9c3e
000003d0: 1512 553d 808f 243e c601 913d 0e89 0dbd
000003e0: dea6 be3d 8888 d8bd f855 a83c 86e4 943d
000003f0: ef7b 56bc 26e8 2bbd 3e2c fa3d f431 97bd

critic.0.bias f4 [64]
-0.030326376 -0.03184137 0.021671887 -0.02419987 -0.014564109 -0.011468494 -0.015624643 0.012202322
0.032199845 0.0063123982 0.009685456 0.039934985 -0.0009060502 -0.022703225 -0.012810127 0.012548451
-0.014670333 -0.028318997 -0.041416466 -0.027674917 0.008313742 0.0140285585 -0.008420156 0.011647417
0.010874888 0.020651732 -0.0411466 0.013026332 0.020216223 0.010158675 0.0061495644 -0.007818459
0.053282533 -0.055836152 0.015065996 -0.032834057 -0.0010878429 -0.01600332 0.015386536 0.03835977
-0.025921667 0.00028318525 -0.024919797 -0.039638314 0.015872618 -0.0039130016 0.025358364 0.035060715
0.004472204 -0.052134603 -0.04214131 0.011686157 0.0008294661 -0.01382411 0.033819012 -0.009103862
-0.0008724324 0.029241607 -0.020159055 -0.049215913 -0.009877328 0.007833757 0.016747179 -0.00014516759
00000000: 056f f8bc 196c 02bd 3e89 b13c ce3e c6bc
00000010: 4d9e 6ebc 5ae6 3bbc 81fe 7fbc 3fec 473c
00000020: fce3 033d 3cd8 ce3b bfaf 1e3c de92 233d
00000030: 0084 6dba 1dfc b9bc 91e1 51bc 0598 4d3c
00000040: d65b 70bc 3efd e7bc 50a4 29bd 82b6 e2bc
00000050: 5c36 083c 0ad8 653c b2f4 09bc cfd4 3e3c
00000060: 962c 323c d22d a93c 5689 28bd 656c 553c
00000070: 7e9c a53c 9270 263c 4982 c93b fe18 00bc
00000080: c93e 5a3d 73b4 64bd 5ed7 763c 017d 06bd
00000090: f395 8eba 6519 83bc cf17 7c3c 221f 1d3d
000000a0: ad59 d4bc 7b78 9439 9a24 ccbc c95b 22bd
000000b0: 4b07 823c a338 80bb 58bc cf3c d39b 0f3d
000000c0: 918b 923b 188b 55bd 5e9c 2cbd 4c77 3f3c
000000d0: 8770 593a 857e 62bc ce85 0a3d 5d28 15bc
000000e0: f3b3 64ba 188c ef3c 9a24 a5bc a096 49bd
000000f0: 84d4 21bc 2959 003c 6131 893c 2138 18b9

critic.2.weight f4 [1, 64]
-0.0017897736 0.0019604631 -0.00023983461 0.00029488487 -0.00022852317 -4.8458198e-05 0.0010739829 0.003481183
-0.0030806002 0.0001321569 0.00039537885 0.0007178261 -0.0031772035 0.0018601349 -0.0010603835 -0.0018772891
0.00029510024 0.0012432825 -0.002943725 -0.0006765752 0.0006472107 0.0021352659 -0.000482885 0.00045871903
0.003967469 0.0013028422 -0.00080166856 -0.0012469154 -1.2345696e-05 0.0026135358 -0.00017530062 0.0006624104
0.00207122 0.00086936564 -0.00017747913 -0.0019127928 -0.0007486804 -0.00019163944 0.00052303536 0.0008480096
0.00045428626 0.0011884473 -0.0010317146 -0.0014561568 0.0011370198 -0.00029089692 -0.0006954349 -0.0020199644
0.0013151667 -0.00076259946 -0.00069485407 -0.00027165926 -0.0002856731 -0.00088118005 0.0015871485 -0.0023476505
-0.00013026447 -0.0024578606 0.000880057 8.809058e-05 0.0017157589 0.0016446167 -0.0012048862 -0.0025813463
00000000: d696 eaba 1d7b 003b 1d7c 7bb9 c79a 9a39
00000010: b99f 6fb9 983f 4bb8 e3c4 8c3a 8f24 643b
00000020: e5e3 49bb 9993 0a39 da4a cf39 7e2c 3c3a
00000030: a138 50bb c5cf f33a 91fc 8aba 5f0f f6ba
00000040: afb7 9a39 a3f5 a23a 83eb 40bb 315c 31ba
00000050: 93a9 293a d1ef 0b3b ba2b fdb9 3a80 f039
00000060: 8b01 823b 21c4 aa3a 1127 52ba 8a6f a3ba
00000070: 5c20 4fb7 db47 2b3b e7d0 37b9 9ca5 2d3a
00000080: 4ebd 073b 24e6 633a b119 3ab9 adb6 faba
00000090: 1743 44ba d2f2 48b9 4f1c 093a f64c 5e3a
000000a0: 452d ee39 adc5 9b3a 993a 87ba 84dc beba
000000b0: 0e08 953a 8683 98b9 d94d 36ba 6161 04bb
000000c0: ac61 ac3a 2fe9 47ba de26 36ba 7d6d 8eb9
000000d0: 65c6 95b9 fefe 66ba de07 d03a 0adb 19bb
000000e0: 9a97 08b9 0f14 21bb a0b3 663a 45bd b838
000000f0: 51e3 e03a 2e90 d73a 46ed 9dba ce2b 29bb

square_avg f4 [16, 3, 2, 2]
8.45989e-05 7.8989615e-05 6.3718704e-05 3.337636e-05 0.0006726982 0.00063940586 0.0005367238 2.0244375e-14
0.0 0.0 0.0 0.0 6.247744e-06 8.336256e-07 3.778974e-06 8.336256e-07
2.084065e-05 0.0 5.875947e-32 0.0 0.0 0.0 0.0 0.0
2.9937743e-22 1.1061608e-20 2.993777e-22 3.2957783e-25 0.0 6.913488e-20 2.578971e-30 0.0
0.0 0.0 0.0 0.0 9.64239e-06 8.43876e-06 8.978671e-06 4.9184855e-05
7.315362e-09 7.631785e-09 1.74301e-07 0.00030740554 0.0 0.0 0.0 0.0
0.00016142239 0.0001234022 0.00047030405 0.00047887847 0.00027157782 0.0 0.0029929895 0.0029789095
0.0 0.0 0.0 0.0 2.0145682e-05 1.9824967e-05 9.297116e-05 1.9824973e-05
1.3202869e-11 7.8896617e-22 0.00049582333 5.3999643e-12 0.0 0.0 0.0 0.0
0.00012444211 8.1866594e-05 8.196691e-05 9.937063e-05 0.00033538762 1.6188792e-11 3.8434726e-07 0.0002398431
0.0 0.0 0.0 0.0 6.590714e-05 0.00011563389 9.159294e-05 5.4435146e-05
0.00011561599 0.00056484545 0.0004187621 2.1185131e-05 0.0 0.0 0.0 0.0
0.0 0.0 0.0 0.0 0.0 0.0 0.0 0.0
0.0 0.0 0.0 0.0 4.367041e-05 1.3543743e-05 2.894964e-05 4.3903554e-05
0.00026079922 1.2047057e-16 0.00014964954 0.00028536053 0.0 0.0 0.0 0.0
7.776411e-05 8.322937e-05 2.4360057e-05 2.1477043e-05 0.00048845005 0.0005256472 3.9171322e-08 7.007267e-08
0.0 0.0 0.0 0.0 0.00015951581 7.255207e-05 0.000324824 0.00027457825
0.0008185324 0.0 0.0021169882 0.0017582977 0.0 0.0 0.0 0.0
6.322918e-05 6.1131876e-05 7.774972e-05 6.0826675e-05 2.003132e-07 1.2160323e-06 0.00021914854 2.5250208e-06
0.0 0.0 0.0 0.0 0.00015930887 0.00017233478 6.699431e-05 3.798774e-05
0.0009740276 0.0010760878 0.00021114814 1.2104037e-26 0.0 0.0 0.0 0.0
1.889623e-05 0.0001368365 2.2000533e-05 0.00016565839 0.0 0.0008186927 6.607882e-08 0.0010349903
0.0 0.0 0.0 0.0 0.00016472558 0.00023695166 0.00017801288 0.00015435679
5.085415e-05 0.0006108904 0.0003511339 2.4260842e-07 0.0 0.0 0.0 0.0
00000000: b06a b138 3aa7 a538 b8a0 8538 98fd 0b38
00000010: 0358 303a cd9d 273a edb2 0c3a 5a58 b628
00000020: 0000 0000 0000 0000 0000 0000 0000 0000
00000030: b6a3 d136 51c6 5f35 479a 7d36 51c6 5f35
00000040: f5d2 ae37 0000 0000 5e8c 980b 0000 0000
00000050: 0000 0000 0000 0000 0000 0000 0000 0000
00000060: 6af6 b41b a7f2 501e 75f6 b41b b1ff cb16
00000070: 0000 0000 793d a31f 223b 510e 0000 0000
00000080: 0000 0000 0000 0000 0000 0000 0000 0000
00000090: c0c5 2137 3394 0d37 19a3 1637 d64b 4e38
000000a0: 9b5a fb31 f21c 0332 7e27 3b34 462b a139
000000b0: 0000 0000 0000 0000 0000 0000 0000 0000
000000c0: 7e43 2939 8765 0139 2493 f639 fb11 fb39
000000d0: 8f62 8e39 0000 0000 0826 443b cf39 433b
000000e0: 0000 0000 0000 0000 0000 0000 0000 0000
000000f0: 86fe a837 cb4d a637 83f9 c238 ce4d a637
00000100: 7044 682d 4d73 6e1c 24fa 013a 8efe bd2c
00000110: 0000 0000 0000 0000 0000 0000 0000 0000
00000120: ad7c 0239 cbaf ab38 a6e5 ab38 3365 d038
00000130: f7d6 af39 eb65 8e2d 4958 ce34 647e 7b39
00000140: 0000 0000 0000 0000 0000 0000 0000 0000
00000150: a037 8a38 7980 f238 9615 c038 4b51 6438
00000160: dd76 f238 2312 143a 4c8d db39 b9b6 b137
00000170: 0000 0000 0000 0000 0000 0000 0000 0000
00000180: 0000 0000 0000 0000 0000 0000 0000 0000
00000190: 0000 0000 0000 0000 0000 0000 0000 0000
000001a0: 0000 0000 0000 0000 0000 0000 0000 0000
000001b0: bf2a 3738 ef39 6337 e1d8 f237 1525 3838
000001c0: e1bb 8839 a3e4 0a25 3eeb 1c39 719c 9539
000001d0: 0000 0000 0000 0000 0000 0000 0000 0000
000001e0: 4a15 a338 6e8b ae38 d358 cc37 9929 b437
000001f0: 540b 003a 96cb 093a 533d 2833 dc7a 9633
00000200: 0000 0000 0000 0000 0000 0000 0000 0000
00000210: b343 2739 1927 9838 244d aa39 45f5 8f39
00000220: c892 563a 0000 0000 2bbd 0a3b ae76 e63a
00000230: 0000 0000 0000 0000 0000 0000 0000 0000
00000240: e899 8438 ed33 8038 900d a338 2520 7f38
00000250: ac15 5734 8d36 a335 3dcb 6539 8773 2936
00000260: 0000 0000 0000 0000 0000 0000 0000 0000
00000270: 260c 2739 c4b4 3439 4c7f 8c38 0655 1f38
00000280: e355 7f3a 840b 8d3a a667 5d39 c2be 6f14
00000290: 0000 0000 0000 0000 0000 0000 0000 0000
000002a0: 5883 9e37 c57b 0f39 c98d b837 96b4 2d39
000002b0: 0000 0000 899d 563a 37e7 8d33 83a8 873a
000002c0: 0000 0000 0000 0000 0000 0000 0000 0000
000002d0: 30ba 2c39 3a76 7839 f8a8 3a39 d6da 2139
000002e0: 3a4c 5538 2924 203a 6518 b839 d93f 8234
000002f0: 0000 0000 0000 0000 0000 0000 0000 0000

square_avg f4 [16]
2.9925359e-05 1.973775e-05 2.765402e-21 4.059914e-05 0.00011721146 2.0145682e-05 7.496445e-05 5.9109425e-05
0.0 3.6370606e-05 2.1773685e-05 8.251415e-05 6.1330924e-05 4.3353477e-05 4.1433934e-05 0.0001623166
00000000: 3808 fb37 7f92 a537 a7f2 501d ff48 2a38
00000010: 6ccf f538 86fe a837 3c36 9d38 43ec 7738
00000020: 0000 0000 a48c 1838 a2a6 b637 720b ad38
00000030: ca9e 8038 71d6 3538 59c9 2d38 8833 2a39
