BLIP/RL/trained_models/ppo/2023-01-19_minigrid_5e5_doorkey-wallgap-lavagap-redbluedoor_ewc_1_lamb_5000.0_task_0.pth (torch, 732457 bytes, 16 tensors)

features.actor.0.weight f4 [64, 2739]
0	0x3b95ec57	0.004575293
1	0xbd0f4a51	-0.034982983
2	0x3c0b5a68	0.008505441
3	0x3ccb402d	0.024810875
4	0xbba3d29b	-0.0049994714
5	0xbcf0d3a9	-0.029397802
6	0x3dcfda35	0.101490416
7	0x3df3910b	0.11892899
8	0xbc8d2061	-0.017227354
9	0x3de70894	0.11280933
10	0x3c7f9668	0.0155998245
11	0xbab9aa9a	-0.0014165223
12	0x3d78c695	0.060736258
13	0xbcbf9100	-0.023384571
14	0x3d5fcbc6	0.054637693
15	0x3e314b96	0.1731399
16	0x3d8ff444	0.07029012
17	0x3dba2f9f	0.09091114
18	0x3e55b829	0.20871033
19	0x3d1f3995	0.038873274
20	0xba6d0af0	-0.00090424623
21	0x3d825aea	0.06364997
22	0x3c34fdc6	0.011046832
23	0x3ce5ed11	0.028067144
24	0x3c49d91f	0.012319832
25	0x3ce12c68	0.027486995
26	0xbd0bb381	-0.034106735
27	0xbd9460e8	-0.07245046
28	0xbd8faf39	-0.07015843
29	0xbd3e3294	-0.046434954
30	0x3ca3c957	0.019993467
31	0xbd996f61	-0.07491947
32	0x3bbb1741	0.005709559
33	0xbcb5ce79	-0.02219318
34	0xbcbcfbde	-0.023069318
35	0x3ce543ce	0.027986433
36	0x3e1e45d1	0.1545632
37	0x3dbee60f	0.09321224
38	0x3d607de7	0.05480757
39	0x3db96958	0.09053296
40	0x3bc2ba57	0.0059426236
41	0x3c7a5888	0.015279897
42	0xb9fff272	-0.00048818026
43	0x3bc3853d	0.005966811
44	0x3bd7d49b	0.006586624
45	0xbcb248aa	-0.021763165
46	0x3abc9816	0.0014388587
47	0x3a177a15	0.00057783845
48	0xbcc9a6bc	-0.024615638
49	0xbc8fe2a6	-0.01756413
50	0x3c5b83d2	0.013398128
51	0x3dcb36b7	0.099225454
52	0x3d847a02	0.06468584
53	0x3cfe72ac	0.03106054
54	0xbcc3da04	-0.023907669
55	0x3d125ffc	0.03573607
56	0x3e05baaf	0.13059495
57	0x3e4394e0	0.1909976
58	0x3db5f98e	0.088854894
59	0xbc11148e	-0.008854998
60	0x3ea9a8f0	0.33136702
61	0xbc6b3c4b	-0.014357637
62	0xbdfb8934	-0.12282029
63	0x3cedbd19	0.029020833
64	0xbc1eeb76	-0.009699693
65	0xbcce7ad8	-0.02520506
66	0xbcc09ad9	-0.023511337
67	0x3c838b9b	0.01605778
68	0x3cf080e8	0.029358342
69	0xbc60c8d7	-0.013719759
70	0x3d4cf9b0	0.050042808
71	0xbd1318f5	-0.035912473
72	0x3c1db2dd	0.009625164
73	0x3d2888f3	0.04114623
74	0xbd8b3dca	-0.06798895
75	0x3e2a7c88	0.16649067
76	0x3d565916	0.052331053
77	0x39b2aa75	0.00034077806
78	0xbf09dcc9	-0.53852516
79	0xbed4d3ad	-0.41567746
80	0x3da0b6c4	0.0784736
81	0x3be830dc	0.0070859026
82	0x3d1d5fe0	0.03842151
83	0xbcbc5298	-0.022988603
84	0xbc7cb07a	-0.015422935
85	0x3b70b7da	0.0036730678
86	0x3bf00bb6	0.007325615
87	0x3c82c66a	0.015963752
88	0xbadeb09b	-0.0016989888
89	0x3b2d7860	0.0026469454
90	0xbca07c70	-0.019590586
91	0xbba9c693	-0.0051811426
92	0x3be96be0	0.0071234554
93	0x3daddfb9	0.08489937
94	0xbd2f4eec	-0.042799875
95	0x3e030a0d	0.12796803
96	0x3c88cf25	0.016700337
97	0x3d3d7a48	0.046259195
98	0x3db58bfc	0.088645905
99	0xbdf157ab	-0.117842995
100	0x3dca5db5	0.098811544
101	0xbbe6e294	-0.007046053
102	0xbf1753c5	-0.591122
103	0xbd09ab74	-0.033610776
104	0xbc1dcd98	-0.009631537
105	0xbc1e794c	-0.009672474
106	0x3c9f1710	0.019420177
107	0xbcede718	-0.029040858
108	0x3c80ea4f	0.015736727
109	0x3d4fdf11	0.050749842
110	0x3d1847b2	0.03717775
111	0x3d845924	0.06462315
112	0x3d8ec4dc	0.06971142
113	0xbc63442c	-0.013871234
114	0xbd809c6a	-0.062798336
115	0xbcf29a18	-0.029614493
116	0x3d58a91e	0.052895658
117	0xbdc806b9	-0.09766907
118	0xbe0aaf66	-0.13543472
119	0xbd24db5f	-0.04024827
120	0xbd57851d	-0.05261718
121	0xbdfdedaf	-0.1239885
122	0xbe3098cc	-0.17245787
123	0xbeedf8f0	-0.46478987
124	0xbe3a8eaf	-0.18218492
125	0xbd99dcea	-0.07512839
126	0xbc3f07e7	-0.011659599
127	0xbc051436	-0.008122494
128	0x3cd77a4e	0.026303437
129	0x3cfac6c2	0.030612353
130	0xbbe369d7	-0.0069401073
131	0xbd0ad527	-0.033894684
132	0xbc96711e	-0.018364485
133	0xbd503a8e	-0.050837092
134	0x3c0eb396	0.008709809
135	0x3aed390f	0.001809867
136	0xbe1c055d	-0.15236421
137	0x3ca7bf40	0.020476937
138	0xbc6a9e63	-0.014319989
139	0xbdc50968	-0.09620935
140	0xbc52ffa7	-0.012878335
141	0x3caaef97	0.020866198
142	0xbd2e1840	-0.042503595
143	0x3cafc607	0.021456731
144	0xbe592b5d	-0.21207948
145	0xbcd2b0b2	-0.02571902
146	0x3cd26ecb	0.025687596
147	0x3d0a26fa	0.033728577
148	0x3d039035	0.03211995
149	0x3cfea6ae	0.031085338
150	0x3ca002c3	0.019532567
151	0xbce046f3	-0.027377581
152	0x3d4e4ad9	0.05036435
153	0xbca70935	-0.020390132
154	0x3cc3e9f3	0.023915267
155	0x3d4409ee	0.047861032
156	0x3c9a6cbc	0.018850677
157	0xbb904d6d	-0.004403761
158	0xbce96998	-0.028492734
159	0x3d0c5874	0.034264043
160	0xbc6c7151	-0.014431314
161	0xbb7aa42f	-0.0038244834
162	0xbc689127	-0.014194763
163	0xbd15531b	-0.03645621
164	0xbcb15ba8	-0.02165015
165	0xbc217302	-0.00985408
166	0x3d0817d3	0.033225846
167	0xbd99ada4	-0.075038224
168	0x3d19f1ba	0.037584044
169	0xbcac81d5	-0.021058002
170	0x3c834d1e	0.016027983
171	0xbd577f29	-0.052611504
172	0x3b85e359	0.00408594
173	0xbcb9a1d0	-0.022660166
174	0xbccf50d5	-0.025307098
175	0x3cac5d57	0.021040602
176	0xbbb57b16	-0.0055383546
177	0x3c0d3cd1	0.008620457
178	0xbcbf2549	-0.023333209
179	0x3b721397	0.0036937946
180	0x3c986eb6	0.018607479
181	0xbcc4dcf1	-0.024031134
182	0x3c40f957	0.011778197
183	0x3cd7936b	0.026315412
184	0x3ca42f54	0.020042099
185	0xbbd4e07e	-0.006496488
186	0x3cb457e0	0.022014558
187	0x3bf2cef2	0.0074099237
188	0xbcf95fad	-0.03044113
189	0x3c45efad	0.012081069
190	0x3ac85ff3	0.0015287384
191	0xbc8a5666	-0.016886901
192	0x3c897cca	0.016783137
193	0xbcb0a05a	-0.021560837
194	0xbb2bfb7d	-0.0026242428
195	0x3c08ca36	0.008348992
196	0x3bc8f901	0.006133199
197	0xbad42db9	-0.0016187943
198	0x3cc5c192	0.024140153
199	0x3c761fad	0.0150222005
200	0xbc808fb4	-0.015693523
201	0x3cfd8211	0.03094581
202	0xbcd113cd	-0.025522137
203	0x3c010976	0.007875791
204	0x3c8e71cb	0.017388245
205	0xbdac11af	-0.084018104
206	0x3c4bdf8d	0.012443435
207	0x3c7652fb	0.0150344325
208	0xbd6a62d9	-0.057223175
209	0xbd8ee29f	-0.06976818
210	0x3c0b1a2e	0.008490128
211	0x3cf479e2	0.029843275
212	0xbcfedb1f	-0.031110344
213	0xbd42b352	-0.047534294
214	0xbd1bc62e	-0.038030796
215	0xbc13ab09	-0.009012946
216	0x3bb2b5cd	0.0054538012
217	0x3bd006a7	0.0063484493
218	0xbc49db72	-0.012320386
219	0x3c78ea6e	0.015192611
220	0xbc1f5642	-0.009725155
221	0x3b97f45e	0.004637285
222	0x3d689deb	0.056791227
223	0x3cbfda82	0.023419622
224	0xbcbdc297	-0.023164077
225	0x3d1234ed	0.035695005
226	0xbcc0f504	-0.023554333
227	0x3d4b87b0	0.04968995
228	0xbd0aace4	-0.033856288
229	0x3cce3f7e	0.02517676
230	0xbaeec99b	-0.0018218042
231	0xbd260108	-0.040528327
232	0xbd654bfd	-0.05598067
233	0x3c50f76c	0.0127543025
234	0x3d16876b	0.03675024
235	0x3bd3af7e	0.0064601293
236	0x3cb3944c	0.0219213
237	0x3d4c489b	0.04987393
238	0xbc316f8c	-0.0108298175
239	0x3c419d2b	0.011817257
240	0x3bca50a5	0.0061741644
241	0xbb202eb4	-0.00244419
242	0xbc0ca279	-0.008583658
243	0xba3eaeef	-0.0007273992
244	0xbcc513b5	-0.024057249
245	0xbd8962b6	-0.06708281
246	0xbc1920ba	-0.0093461815
247	0xbc0698b4	-0.008215118
248	0xbafa62e0	-0.0019102953
249	0x3bf75961	0.0075484966
250	0x3be03982	0.006842793
251	0xbacdabd5	-0.0015691469
252	0x3cb513f0	0.022104234
253	0xbcb2a3e5	-0.021806667
254	0xbd13e1d0	-0.036104023
255	0xbae73be3	-0.0017641749

features.actor.0.bias f4 [64]
0	0xbca139ca	-0.019680876
1	0xbe44b280	-0.19208717
2	0xbe323109	-0.17401518
3	0x3ad91cbc	0.001656435
4	0x3e13bc72	0.14427355
5	0xbf0f8a03	-0.56069964
6	0x3e54f0fb	0.20795052
7	0x3e510205	0.20410927
8	0x3ec0a71d	0.37627497
9	0x3d9bf86f	0.07615744
10	0x3f2fe2ae	0.6870526
11	0x3e891e15	0.26780763
12	0xbf302d54	-0.68819165
13	0x3ce159d1	0.027508648
14	0xbb3d6ed7	-0.0028905177
15	0xbd8bd978	-0.06828588
16	0x3e154395	0.14576562
17	0xbe187aee	-0.14890644
18	0xbef783b6	-0.48342675
19	0x3d21907a	0.039444424
20	0xbd3e58fc	-0.04647158
21	0x3ee94503	0.45560464
22	0xbf1164ec	-0.5679462
23	0x3edb4587	0.42826483
24	0xbbbdf4bd	-0.0057969973
25	0x3de8c8df	0.11366438
26	0xbedea381	-0.4348412
27	0xbcf175c4	-0.0294751
28	0xbf005c78	-0.50141096
29	0x3e437e23	0.19091086
30	0x3e45b58b	0.19307534
31	0x3d5ff3c6	0.05467584
32	0xbddd4126	-0.10803442
33	0xbe08da23	-0.13364463
34	0x3f28c73f	0.65929025
35	0x3f421ec5	0.758282
36	0xbdacaab4	-0.084309965
37	0x3e199a21	0.15000202
38	0x3d81b171	0.063326724
39	0xbefa2d57	-0.48862717
40	0x3eab5de7	0.3347008
41	0xbe80fbf2	-0.2519222
42	0x3eb73bc3	0.35787782
43	0x3ee233ec	0.44180238
44	0x3eb962f5	0.3620831
45	0x3e03015b	0.12793486
46	0x3d7ac0cc	0.06121902
47	0xbdf5d472	-0.12003411
48	0xbdfe5ca0	-0.124200106
49	0xbeb5d9dc	-0.35517776
50	0xbe78ce0b	-0.24297349
51	0xbee1a8a6	-0.4407398
52	0xbef766b3	-0.4832054
53	0x3ed4c089	0.41553143
54	0xbc9a3679	-0.018824803
55	0xbf50735d	-0.8142603
56	0x3efd6a16	0.49495
57	0xbdd93090	-0.10604966
58	0x3d8e9220	0.06961465
59	0xbe2a3752	-0.16622666
60	0x3e8f8b13	0.28035793
61	0x3ee4d397	0.4469268
62	0x3e54dcc1	0.20787336
63	0x3e949ddb	0.29026684

features.actor.2.weight f4 [64, 64]
0	0x3d953c95	0.07286946
1	0xbf37c2f2	-0.7178184
2	0xbe771b42	-0.24131492
3	0x3e75023c	0.23926634
4	0xbcb814bb	-0.022470823
5	0x3db5037b	0.088385545
6	0x3ea824ef	0.32840678
7	0x3e645065	0.22296293
8	0x3e6346af	0.22194932
9	0x3daf1855	0.08549563
10	0x3ee4ffe1	0.4472647
11	0xbdc512e1	-0.096227415
12	0xbec37a04	-0.38179028
13	0x3d041771	0.032248918
14	0xbd374262	-0.044741042
15	0x3d159bf7	0.036525693
16	0x3db6c1a3	0.08923652
17	0xbe2c06ba	-0.16799441
18	0xbe303b4b	-0.17210118
19	0x3e257309	0.16157164
20	0xbd86fa9e	-0.0659077
21	0x3e7f392c	0.24924153
22	0xbe3bbd3a	-0.18333903
23	0x3ee86bef	0.45394847
24	0xbe2b09f4	-0.16703016
25	0x3db8eaad	0.09029136
26	0xbeab1e1b	-0.33421406
27	0xbe1eb270	-0.15497756
28	0x3c537248	0.012905665
29	0x3dca3972	0.09874238
30	0xbe206fac	-0.156676
31	0xbe8e1c20	-0.27755833
32	0xbe0aca99	-0.13553847
33	0xbdbc69cb	-0.09199866
34	0x3e491988	0.19638646
35	0x3ecceb3c	0.4002322
36	0x3d4c19b2	0.049829192
37	0x3e201aa2	0.1563516
38	0xbc53eb5d	-0.012934533
39	0xbe29727c	-0.16547579
40	0x3d8481c0	0.0647006
41	0xbdf70b1a	-0.12062664
42	0x3e979403	0.2960511
43	0x3ed8451f	0.42240235
44	0xbc1a3528	-0.0094120875
45	0xbebee2ed	-0.37282506
46	0xbd57c3a2	-0.052676804
47	0xbbf3f695	-0.0074451664
48	0x3e435c2b	0.19078128
49	0xbe24065b	-0.1601805
50	0xbebd63f1	-0.36990312
51	0x3ead9ae2	0.3390723
52	0xbdca9f08	-0.09893614
53	0xbe1236a1	-0.14278652
54	0x3c8863d1	0.016649159
55	0xbee85b26	-0.4538204
56	0x3e20cc79	0.15703
57	0xbcf704b8	-0.030153617
58	0xbe143817	-0.14474522
59	0xbdb1ee7e	-0.08688067
60	0x3e167ba3	0.14695601
61	0xbe3f7d88	-0.1870023
62	0x3ea2f559	0.3182781
63	0xbdca110e	-0.09866534
64	0xbeb0b014	-0.34509337
65	0xbe979606	-0.29606646
66	0xbe91a1c0	-0.28443718
67	0x3ca87a13	0.020566022
68	0xbe43bb3e	-0.19114396
69	0x3eda2197	0.42603752
70	0x3e14dac0	0.14536572
71	0x3c9c474b	0.019076964
72	0x3de6761d	0.11252997
73	0xbf12d8a3	-0.5736181
74	0xbed51d28	-0.41623807
75	0xbeaf412c	-0.3422941
76	0x3e96e384	0.29470456
77	0xbf060d70	-0.52364254
78	0x3e00ba1b	0.12570994
79	0x3eb00ae3	0.34383306
80	0x3e9d36f9	0.30706003
81	0x3ea99375	0.33120313
82	0x3e971515	0.29508272
83	0xbed358a2	-0.4127856
84	0xbe7c09f1	-0.24613167
85	0x3d982c3e	0.074303135
86	0x3e0eea80	0.13956642
87	0xbe86cea2	-0.26329523
88	0xbe8e749d	-0.27823344
89	0xbde9f59d	-0.114238
90	0xbe66e6b7	-0.22548948
91	0x3e4ef230	0.20209575
92	0x3e6b6305	0.22986992
93	0xbd8eda36	-0.06975214
94	0x3e4032ac	0.1876933
95	0xbdbe38c4	-0.09288171
96	0xbd04056e	-0.03223174
97	0x3e63a5f4	0.22231275
98	0x3d00d360	0.031451583
99	0xbe84ebe1	-0.2596121
100	0xbea43928	-0.32074857
101	0xbeafc30d	-0.343285
102	0xbd81efad	-0.06344543
103	0x3e571ecb	0.2100784
104	0x3e2afcb2	0.16697958
105	0x3b9490e9	0.004533876
106	0xbedeeee4	-0.43541634
107	0x3e5a9c9f	0.21348809
108	0x3ee2e990	0.4431882
109	0xbd714bcd	-0.05891018
110	0x3e0f2742	0.1397982
111	0x3c80b4bf	0.015711186
112	0xbcdec665	-0.027194211
113	0xbf103675	-0.56333095
114	0x3e86a436	0.26297158
115	0xbcee396f	-0.02908012
116	0x3cd7a1e4	0.026322313
117	0xbecfeb4b	-0.40609202
118	0xbef65a3c	-0.48115718
119	0xbe9427ac	-0.28936517
120	0x3dc8c64d	0.09803448
121	0xbe523118	-0.2052654
122	0x3e501c61	0.20323326
123	0xbead29d4	-0.33820975
124	0xbe630d78	-0.22173107
125	0x3e8ea7a9	0.2786229
126	0xbd16e797	-0.036841955
127	0xbe271317	-0.16315876
128	0xbe158ec8	-0.14605248
129	0x3ccf9ed7	0.025344295
130	0xbe1c37f7	-0.15255724
131	0xbe0f2c9d	-0.13981862
132	0xbeaee5ad	-0.34159604
133	0xbe8d6a3d	-0.27620116
134	0x3d1f84d4	0.038945034
135	0x3eaa6961	0.33283523
136	0x3d226a2d	0.03965204
137	0xbcdbfaa7	-0.026852919
138	0x3eea9e20	0.45823765
139	0xbe907c42	-0.282198
140	0xbf0ee145	-0.55812484
141	0xbd2ff6db	-0.04296003
142	0xbde78258	-0.11304158
143	0x3f5d03f7	0.86334175
144	0x3e8dde4b	0.2770866
145	0xbeb69451	-0.3566003
146	0xbd261525	-0.04054751
147	0x3ede43d3	0.4341112
148	0xbd33fc5f	-0.04394185
149	0x3ebdb2ed	0.37050572
150	0xbd83cf3f	-0.064360134
151	0x3f1377b2	0.57604516
152	0x3d0ffd9e	0.035153978
153	0x3d8fa769	0.07014353
154	0xbe382417	-0.17982517
155	0x3ee2168b	0.44157824
156	0x3eec9f39	0.46215227
157	0xbee472de	-0.44618887
158	0x3e845c56	0.25851697
159	0x3c0815e4	0.008306
160	0xbe73984d	-0.23788567
161	0x3cc3cab2	0.023900364
162	0xbd962c53	-0.07332673
163	0x3dbf5729	0.09342796
164	0xbebc19af	-0.36738345
165	0xbe8e5ae6	-0.27803725
166	0x3c804bf6	0.015661221
167	0x3e8409b8	0.25788665
168	0x3d7dec72	0.06199307
169	0x3d9e8511	0.07740224
170	0xbe99e79a	-0.3005951
171	0xbe97e9dc	-0.29670608
172	0x3d9abe8f	0.075558774
173	0xbceadf34	-0.028670885
174	0x3e5bf1b4	0.21478921
175	0x3e39ceb6	0.1814526
176	0x3ee57955	0.44819131
177	0xbeaf6028	-0.3425305
178	0xbd7d1c82	-0.061794765
179	0x3e923626	0.28556937
180	0xbe053d89	-0.13011755
181	0x3cee7386	0.02910782
182	0x3eb8aa6c	0.36067522
183	0xbc90a733	-0.017657852
184	0x3e826156	0.25464886
185	0x3ec986a8	0.39360547
186	0x3e418c77	0.1890124
187	0x3ec28134	0.379892
188	0xbcd9e590	-0.026598722
189	0x3d0b8540	0.034062624
190	0xbebe37f9	-0.3715208
191	0xbcebd3a8	-0.028787449
192	0xbf19203b	-0.59814805
193	0x3e8dcfc7	0.27697584
194	0x3eb791b6	0.35853356
195	0xbd079d7d	-0.033109177
196	0x3d08be79	0.033384774
197	0xbe3e00b8	-0.18554962
198	0xbd9f7576	-0.07786076
199	0x3dd342fc	0.10315511
200	0xbea160d1	-0.31519178
201	0x3e2f272e	0.1710479
202	0x3e16054c	0.14650458
203	0xbe9a5f66	-0.30150908
204	0xbdfbe646	-0.122997805
205	0xbdc0ce26	-0.0941432
206	0xbe1ad32e	-0.15119621
207	0xbd7f90aa	-0.06239382
208	0xbe62761c	-0.22115368
209	0xbeac04ec	-0.33597505
210	0x3d1f6b61	0.038920764
211	0xbdabb24f	-0.08383619
212	0x3e760a67	0.24027406
213	0x3dd121ec	0.10211548
214	0x3e170ad8	0.1475023
215	0xbd924b45	-0.07143263
216	0x3e046332	0.12928465
217	0x3eb311b6	0.3497445
218	0x3e85db10	0.26143694
219	0x3e5708b0	0.20999408
220	0x3e457253	0.19281892
221	0xbe002257	-0.125131
222	0xbf38dd51	-0.722127
223	0xbeb54dfb	-0.35411057
224	0xbef30f99	-0.47472838
225	0xbdfb4aa7	-0.12270098
226	0xbdf15e0a	-0.11785515
227	0x3e26a3cf	0.16273426
228	0x3e1bedb1	0.15227391
229	0x3e85fe23	0.26170453
230	0xbe7b2f13	-0.24529676
231	0x3df070d4	0.1174027
232	0x3db28eca	0.08718641
233	0xbed94098	-0.42432094
234	0xbe4558f5	-0.19272216
235	0xbda8bc6a	-0.08239062
236	0xbe903087	-0.28162023
237	0x3e2e9677	0.17049585
238	0x3b72cff9	0.003705023
239	0x3e8a34b0	0.26993322
240	0xbe69b72b	-0.2282378
241	0x3d90429d	0.070439555
242	0xbe72f22e	-0.23725197
243	0x3dea396f	0.11436736
244	0xbe0aca2c	-0.13553685
245	0xbec533b9	-0.38516024
246	0xbed20f92	-0.41027504
247	0xbcb94607	-0.0226164
248	0x3dac6ee0	0.08419585
249	0x3e215680	0.15755653
250	0xbecb1cbf	-0.3967037
251	0x3d86efbb	0.06588694
252	0xbd7b836a	-0.061404623
253	0x3e008940	0.12552357
254	0xbdcc329c	-0.099705905
255	0xbcb28bc6	-0.021795165

features.actor.2.bias f4 [64]
0	0x3f30b264	0.690222
1	0xbde43fc8	-0.11144978
2	0xbb6328c5	-0.0034661752
3	0xbe7e614f	-0.24841808
4	0xbe961e2c	-0.29319894
5	0xbf3000b5	-0.6875108
6	0xbf83a201	-1.0283815
7	0xbed40cde	-0.41416067
8	0x3f1739e8	0.5907273
9	0x3ef25b21	0.4733515
10	0x3e5a16d1	0.21297766
11	0x3e292c49	0.165208
12	0x3ee9fa4e	0.4569878
13	0x3cc82333	0.024430847
14	0x3ebc4cae	0.36777252
15	0xbfa73907	-1.3064278
16	0x3f0aac82	0.54169476
17	0x3bfd0417	0.007721435
18	0x3f1dd8a3	0.61658686
19	0x3de89011	0.113556035
20	0x3f1285ea	0.57235587
21	0xbe819b9b	-0.2531403
22	0xbdbabecd	-0.091184236
23	0x3d8a38e6	0.06749134
24	0xbecd69ea	-0.4011987
25	0xbea55a6b	-0.32295546
26	0x3e0ca042	0.13733009
27	0xbdabdd16	-0.08391778
28	0x3e3fbcdc	0.18724388
29	0xbe873173	-0.26404914
30	0x3fa5dfe2	1.2958949
31	0xbe3b5c89	-0.18297018
32	0xbe9de74c	-0.30840528
33	0x3f3e9889	0.744515
34	0x3dbc1c8a	0.09185131
35	0xbd0e0855	-0.034675915
36	0x3e093ec4	0.1340285
37	0x3ef421b9	0.47681978
38	0x3e8297d5	0.25506464
39	0xbed0ab3d	-0.40755644
40	0xbe12c7c1	-0.14334013
41	0x3f67837a	0.9043499
42	0x3ecadab4	0.39619982
43	0xbe91e558	-0.28495288
44	0x3d25058d	0.040288497
45	0xbe1e29b2	-0.15445593
46	0xbe2ec0f7	-0.17065798
47	0x3d94f9eb	0.072742306
48	0xbe717e5f	-0.23583363
49	0x3de15b6b	0.11003765
50	0xbf04079c	-0.5157411
51	0x3d762a3d	0.060098875
52	0x3e1c1e3b	0.15245907
53	0xbe3e1ca8	-0.18565619
54	0xbed33d82	-0.41257864
55	0x3fcaf06e	1.5854623
56	0xbed05e3b	-0.40696892
57	0xbec74eee	-0.38927406
58	0xbe5ce530	-0.21571803
59	0x3e448896	0.19192728
60	0xbea23deb	-0.31687865
61	0xbde75788	-0.11295992
62	0xbe881090	-0.26575136
63	0x3e87aadd	0.26497546

critic.0.weight f4 [1, 64]
0	0x3d66876b	0.05628149
1	0x3b206f95	0.002448057
2	0x3ce7d72d	0.028300846
3	0x3cfc06bc	0.03076493
4	0xbc5eae3b	-0.0135913445
5	0xbe13373d	-0.1437654
6	0xbf1f77e3	-0.6229231
7	0xbd0c66c0	-0.034277678
8	0x3c46f848	0.012144156
9	0x3de751ca	0.11294897
10	0x3cb3278a	0.02186944
11	0x3cc9ac00	0.024618149
12	0x3c4972ef	0.012295469
13	0x3c801cb9	0.015638696
14	0x3ac112d5	0.0014730344
15	0xbf1a49b0	-0.6026869
16	0x3d19b40d	0.037525225
17	0xbd82975b	-0.06376525
18	0x3db4bfd9	0.088256545
19	0x3cb93783	0.022609478
20	0x3cfa0cf6	0.030523758
21	0xbd20a0cf	-0.03921586
22	0xbd9b67e9	-0.07588179
23	0x3d8252b6	0.06363432
24	0xbcc9912d	-0.024605358
25	0x3cf3cc54	0.029760517
26	0xbbb21078	-0.005434092
27	0xbc60f264	-0.013729665
28	0x3cff8c9a	0.031194974
29	0x3d838437	0.06421702
30	0x3f2291a6	0.6350349
31	0x3a04aeb6	0.00050614343
32	0x3af27ac9	0.0018499728
33	0x3e10d831	0.1414497
34	0x3b7c6766	0.0038513779
35	0x3c1e694d	0.00966866
36	0x3ca6a44d	0.020342017
37	0x3cea4c56	0.028600853
38	0x3b481737	0.0030531415
39	0xbd9e0478	-0.07715696
40	0xbc9b85cb	-0.018984696
41	0x3e190fa4	0.14947373
42	0x3d557897	0.052116957
43	0xbaf40ae1	-0.0018618965
44	0x3cb27ee6	0.021789026
45	0xbc965385	-0.018350372
46	0x3c807ba6	0.01568396
47	0xbbcfd65b	-0.006342692
48	0xbca1f8a2	-0.019771878
49	0x3d2f299c	0.04276429
50	0xbd7f417a	-0.062318303
51	0x3d28a288	0.041170627
52	0x3cffa458	0.031206295
53	0xbd4467bf	-0.047950502
54	0xbd7c00e4	-0.061524287
55	0x3f211298	0.62918997
56	0x39d8fdf7	0.0004138795
57	0xbba9ab5a	-0.0051778974
58	0x3bd7ec78	0.0065894686
59	0x3cfef6bd	0.031123513
60	0x3cbb51fe	0.022866245
61	0xbcdcf56b	-0.026972493
62	0xbc9e14a6	-0.019296955
63	0x3d5b1a75	0.05349203

critic.1.weight f4 [1, 64]
0	0x3b956700	0.0045593977
1	0x3d05e2f6	0.03268715
2	0x3d4dd1af	0.050248798
3	0xbb3015e9	-0.0026868528
4	0x3e3d45ee	0.18483707
5	0x3cc8e648	0.02452387
6	0xbbf770e8	-0.0075513013
7	0xbc3b2c6c	-0.011424165
8	0x3e5ccdeb	0.21562926
9	0xbd424ee6	-0.047438525
10	0xbd29965e	-0.041403167
11	0xbd06dcc6	-0.03292539
12	0x3bbe14d8	0.0058008246
13	0xbcfc7dcc	-0.030821703
14	0xbe71dc69	-0.23619236
15	0xbcdc3758	-0.026881859
16	0x3c1d67ea	0.009607295
17	0xbe2e2ca4	-0.17009217
18	0xbcfe58b2	-0.031048153
19	0x3dda9e64	0.10674742
20	0x3d6d5dcd	0.057950784
21	0xbd87e14c	-0.06634769
22	0x3d1f55f2	0.038900323
23	0xbc81d920	-0.015850604
24	0x3dd18594	0.10230556
25	0xbdd6f1c4	-0.10495332
26	0xbdba2b09	-0.090902396
27	0x3d2be7ce	0.041969113
28	0x3e27c716	0.16384539
29	0xbc675e0d	-0.014121545
30	0x3b882a9e	0.004155471
31	0xbd0a5488	-0.03377202
32	0xbd744456	-0.059635483
33	0x3d12ba3f	0.03582215
34	0xbd3ff28e	-0.046862178
35	0x3da295da	0.07938738
36	0xbe076344	-0.1322146
37	0xbd8b476e	-0.068007335
38	0xbddae5be	-0.10688351
39	0x3ce0d3e0	0.02744478
40	0xbe5bf1ba	-0.2147893
41	0x3eadba4f	0.33931205
42	0x3e2d66b4	0.1693371
43	0x3e1efe06	0.1552659
44	0xbcf273d1	-0.029596241
45	0x3d1d3715	0.03838261
46	0x3dd77df8	0.105220735
47	0xbdf08222	-0.11743571
48	0x3d0c3b44	0.034236208
49	0xbb38ac31	-0.0028178806
50	0xbd196179	-0.037446473
51	0xbdc1de24	-0.09466198
52	0xbe2adbc4	-0.16685396
53	0xbde88a9f	-0.11354565
54	0xbd82439d	-0.063605525
55	0x3e1e737d	0.15473743
56	0xbd2f1f3b	-0.042754393
57	0x3e85aea6	0.2610981
58	0xbd76f5be	-0.06029295
59	0xbc464a2c	-0.012102645
60	0xbe7cdbb2	-0.24693182
61	0xbe16be3b	-0.14721005
62	0x3dd84684	0.10560325
63	0xbee7d7a1	-0.452817

critic.2.weight f4 [1, 64]
0	0xbd9ebe40	-0.07751131
1	0xbdb209a6	-0.086932465
2	0xbe2bed87	-0.16789828
3	0xbd42463b	-0.04743026
4	0xbd8f8e8a	-0.07009609
5	0xbd6cfb54	-0.057856873
6	0xbdcdaced	-0.100427486
7	0xbdb9bdc3	-0.09069397
8	0xbde16b46	-0.11006789
9	0xbe46bdef	-0.19408391
10	0xbdec8b93	-0.11550059
11	0xbda2e6b2	-0.07954158
12	0xbde1dc99	-0.11028404
13	0xbdb448e1	-0.08802963
14	0x3ea5a9a7	0.32355997
15	0xbe0f47b1	-0.13992192
16	0xbe1e6c86	-0.15471086
17	0xbd6a3859	-0.057182644
18	0x3e413aac	0.18870038
19	0x3d7061a5	0.05868687
20	0xbc3e75e9	-0.011624792
21	0x3c80a4d6	0.0157036
22	0x3e844b86	0.2583887
23	0x3d385d1b	0.045010667
24	0xbdd0bf36	-0.101927206
25	0x3de85e56	0.11346118
26	0xbbde2895	-0.00677974
27	0x3de05129	0.1095298
28	0xbd158498	-0.036503404
29	0x3e10348e	0.14082548
30	0x3deb5273	0.11490335
31	0x3e853607	0.26017782
32	0x3dfd1bf8	0.1235885
33	0xbe758f2b	-0.23980395
34	0xbdcb9864	-0.099411756
35	0x3c9beb84	0.019033201
36	0x3dbfba98	0.09361762
37	0xbd2aaec4	-0.041670576
38	0xbe1b353f	-0.1515703
39	0xbcd69adc	-0.02619689
40	0x3e68cfbc	0.22735494
41	0x3dd53973	0.10411348
42	0x3e3feec1	0.18743421
43	0x3d57ad48	0.05265549
44	0xbca63665	-0.02028961
45	0xbdcb308b	-0.09921368
46	0xbdb08396	-0.08618848
47	0x3e21044a	0.15724292
48	0xbde9fea8	-0.11425525
49	0xbd663a1c	-0.05620776
50	0xbe49c8f8	-0.1970557
51	0xb991cd9c	-0.00027809746
52	0xbd8f2908	-0.06990248
53	0xbdd681a6	-0.10473947
54	0x3d134ead	0.035963703
55	0xbc325a76	-0.010885825
56	0x3de35e48	0.11101967
57	0xbca3b8e1	-0.019985618
58	0xbe21d3c1	-0.15803434
59	0xbd9a2576	-0.07526676
60	0xbde8a270	-0.113591075
61	0x3e2d5384	0.1692639
62	0xbd0e756f	-0.034779962
63	0x3e205f3a	0.15661326

critic.3.weight f4 [1, 64]
0	0xbdcfd0c0	-0.10147238
1	0xbe3e60a5	-0.18591554
2	0x3e7cdbb2	0.24693182
3	0xbe135f71	-0.14391877
4	0xbcaeca71	-0.021336766
5	0xbe014fb4	-0.1262806
6	0xbd942964	-0.07234457
7	0xbd92ffc6	-0.07177691
8	0x3e4f5e73	0.20250873
9	0xbbfca630	-0.007710241
10	0xbe27eeb0	-0.16399646
11	0x3e579f5d	0.21056886
12	0x3e92e7d0	0.28692484
13	0xbc19cd61	-0.009387345
14	0xbd4edea0	-0.05050528
15	0xbbe48487	-0.0069738063
16	0x3d03b0ac	0.03215091
17	0xbdceb17c	-0.10092446
18	0xbe343fd4	-0.17602473
19	0x3ddf8a21	0.10915018
20	0xbd1fef94	-0.03904684
21	0xbdd5737c	-0.104224175
22	0x3cd2e35c	0.025743179
23	0xbce5a4e9	-0.028032737
24	0xbd2b7569	-0.041860018
25	0xbc233272	-0.009960758
26	0xbd26eae1	-0.04075134
27	0xbe16bf3d	-0.14721389
28	0x3d7193ad	0.058978725
29	0xbe06d300	-0.13166428
30	0xbe296371	-0.1654184
31	0xbe33a82d	-0.17544623
32	0x3e2377a3	0.15963607
33	0x3c0859d5	0.008322199
34	0xbd1b9b12	-0.037989683
35	0xbcc73d0f	-0.024321107
36	0xbdf8566c	-0.12125859
37	0x3cbda34f	0.02314916
38	0x3e2fbd3e	0.17162034
39	0xbe05755b	-0.13033049
40	0xbc03e77a	-0.008050794
41	0xbdcf0259	-0.1010787
42	0xbe5e2364	-0.21693188
43	0xbe390186	-0.18066987
44	0x3e136e80	0.14397621
45	0x3de7a646	0.11311011
46	0xbd171ce2	-0.03689278
47	0xbd6d0ca4	-0.057873383
48	0x3e586c19	0.21134986
49	0x3d5e697d	0.05429982
50	0xbcbdc44d	-0.023164893
51	0xbe477974	-0.19479924
52	0xbbdce084	-0.0067406315
53	0xbd8d67ba	-0.0690455
54	0x3df08e0b	0.117458425
55	0x3dc89938	0.09794849
56	0xbd4257d2	-0.047447033
57	0x37cf7710	2.4731766e-05
58	0xbe0254d7	-0.12727676
59	0xbe44780b	-0.19186418
60	0xbcb0c92d	-0.021580303
61	0x3e33b4e2	0.1754947
62	0x3be2eb81	0.006925047
63	0xbe787e68	-0.2426697

dist.0.linear.weight f4 [7, 64]
0	0x3de97ceb	0.11400779
1	0xbefd917e	-0.49525064
2	0xbf238a7b	-0.6388318
3	0x3c41aa14	0.011820335
4	0xbe13e5e7	-0.1444317
5	0xbdd6e22d	-0.10492358
6	0xbe4fbd2d	-0.20287009
7	0x3cf50b60	0.02991265
8	0x3d95a878	0.073075235
9	0x3d389e2a	0.045072712
10	0x3ef19a77	0.4718816
11	0x3c986e23	0.018607205
12	0x3e2f68ea	0.17129865
13	0x3eaa5aa8	0.3327229
14	0x3f162a9b	0.5865876
15	0xbc049ab8	-0.008093528
16	0x3e89507f	0.26819226
17	0x3e415cae	0.1888301
18	0x3e832c56	0.25619763
19	0xbe636a8e	-0.22208616
20	0xbe922d2f	-0.28550097
21	0xbe5778d6	-0.21042189
22	0xbd9ac284	-0.07556632
23	0x3e9a7f88	0.30175424
24	0x3eb64e62	0.35606676
25	0xbe5786f2	-0.21047571
26	0x3d9f99b0	0.077929854
27	0x3e69bb82	0.22825435
28	0xbd8e008c	-0.06933698
29	0xbe78a837	-0.24282919
30	0x3dbd90de	0.09256147
31	0x3db760a5	0.0895398
32	0x3ee17c44	0.4404012
33	0xbe224935	-0.15848239
34	0x3e6b6505	0.22987755
35	0xbede1002	-0.43371588
36	0x3e04e2eb	0.12977187
37	0x3e2ee394	0.17079002
38	0x3ea7f8f3	0.3280712
39	0xbe4fb6cf	-0.2028458
40	0xbe941820	-0.28924656
41	0x3db0d430	0.086342216
42	0xbec871c8	-0.39149308
43	0x3e797446	0.24360761
44	0x3e3e7ff7	0.18603502
45	0x3eb5fdb6	0.3554513
46	0xbe5154fa	-0.20442572
47	0xbe8534ac	-0.26016748
48	0xbd1ae5a8	-0.037816674
49	0xbdf9a164	-0.12188986
50	0x3ecd7bb2	0.40133435
51	0xbed1148a	-0.40835983
52	0x3e36cf97	0.17852627
53	0x3e82cf38	0.2554872
54	0xbcd5e442	-0.026109818
55	0x3dd2facb	0.10301741
56	0x3eb82e6c	0.35972917
57	0x3eae6506	0.3406145
58	0xbeb2ba3a	-0.34907705
59	0x3e485c29	0.19566406
60	0x3f17459d	0.59090596
61	0x3b4fb178	0.0031691473
62	0xbebfa81d	-0.37432948
63	0xbef2d976	-0.47431535
64	0x3df91f60	0.121641874
65	0x3e70d753	0.2351964
66	0x3ec6be6a	0.3881715
67	0x3e9d4bb0	0.30721807
68	0x3e91da4b	0.28486857
69	0xbd2ac0ed	-0.041687895
70	0xbd1e4cb7	-0.03864738
71	0xbdbb6ad0	-0.09151232
72	0x3e287c5e	0.16453692
73	0xbe14ac81	-0.1451893
74	0xbeabfb20	-0.3359003
75	0xbdb16bf0	-0.086631656
76	0x3ba10f54	0.0049151573
77	0x3e8eb70c	0.2787403
78	0x3d97a2d5	0.074041046
79	0xbdfd7fe1	-0.123779066
80	0xbe96da88	-0.294636
81	0x3eaf1b29	0.3420041
82	0x3e1a464e	0.15065882
83	0xbea03296	-0.31288594
84	0xbe88bc2a	-0.26706058
85	0xbe761506	-0.24031457
86	0xbe335598	-0.1751312
87	0xbddf09d2	-0.10890545
88	0xbcbb2597	-0.022845073
89	0xbeb22c3f	-0.34799382
90	0x3e900145	0.2812597
91	0xbeb83f63	-0.3598586
92	0x3eaaf424	0.3338939
93	0xbeb23743	-0.34807786
94	0x3cabfd76	0.020994883
95	0x3ec1d38b	0.37856707
96	0x3e14725f	0.14496754
97	0x3e1f1ebf	0.15539072
98	0xbddc9f53	-0.10772576
99	0xbdffc801	-0.124893196
100	0x3e8e8c4d	0.27841416
101	0x3dc3e7c1	0.09565688
102	0x3e93e26b	0.2888368
103	0xbea14e3c	-0.31505
104	0xbe7dde40	-0.24791813
105	0x3dfa1c0b	0.1221238
106	0x3d3e9486	0.04652836
107	0xbd93c5f5	-0.07215492
108	0x3e8d4aab	0.2759603
109	0xbe6922c3	-0.22767167
110	0x3ec39eb3	0.38207015
111	0x3d64c1a4	0.055848733
112	0x3e4ae4bd	0.19813819
113	0xbeaf4f8c	-0.34240377
114	0xbe017333	-0.12641601
115	0x3e8b1ff2	0.2717281
116	0x3e456169	0.1927544
117	0xbdceea1e	-0.10103248
118	0xbe821db7	-0.25413296
119	0x3de66654	0.11249986
120	0xbea762aa	-0.32692462
121	0xbe1484c7	-0.14503776
122	0x3ee91e21	0.455308
123	0xbe6cbdd3	-0.23119287
124	0xbefa95a7	-0.489423
125	0x3ea08199	0.31348875
126	0x3e775ac3	0.24155717
127	0xbce780c5	-0.028259644
128	0x3e8f4905	0.27985397
129	0x3e8aea0f	0.27131698
130	0x3e20d290	0.15705323
131	0xbf0ae96b	-0.5426242
132	0xbe913816	-0.28363103
133	0xbecc5f02	-0.39916235
134	0xbd013de8	-0.03155318
135	0xbea68c95	-0.3252913
136	0x3e6cb344	0.2311526
137	0x3dc36f81	0.09542752
138	0x3e4bb3a4	0.19892746
139	0xbeef2e57	-0.46715042
140	0x3e96e6c6	0.2947294
141	0xbeb3dc41	-0.35128978
142	0xbe977f0c	-0.29589117
143	0xbe8dbbef	-0.27682444
144	0x3e5f0d19	0.2178234
145	0xbdbdc511	-0.09266103
146	0x3e32b3f5	0.1745146
147	0x3e8ac393	0.27102336
148	0x3ef4e39b	0.478299
149	0x3e1a168e	0.15047666
150	0x3e430be5	0.19047506
151	0xbe7ac131	-0.24487759
152	0xbe3165e1	-0.1732402
153	0x3e93d2b9	0.28871706
154	0xbdbba12d	-0.09161601
155	0xbc9bc355	-0.01901404
156	0xbc5edaad	-0.013601941
157	0xbd245313	-0.04011829
158	0x3e0b131b	0.13581507
159	0xbec16071	-0.3776889
160	0xbec04a4f	-0.37556693
161	0x3e0aea7c	0.13566011
162	0x3e9e5edd	0.3093175
163	0x3eb784bc	0.35843456
164	0xbea6d409	-0.32583645
165	0x3e5185b3	0.20461158
166	0xbeea3cab	-0.4574941
167	0x3d515893	0.05110986
168	0x3eed1c80	0.46310806
169	0x3e77fa4d	0.24216576
170	0x3ebe0faa	0.37121326
171	0xbcaea86b	-0.021320542
172	0xbea95c1c	-0.33078086
173	0x3e9d2f57	0.3070018
174	0xbe86faec	-0.26363313
175	0xbea7133b	-0.3263186
176	0xbe3f4784	-0.18679625
177	0x3db5c8ea	0.08876212
178	0xbe299cdb	-0.16563742
179	0x3e71cf00	0.2361412
180	0xbe4f678a	-0.20254341
181	0xbe80fe9a	-0.25194246
182	0x3e245e22	0.16051534
183	0x3e82dd18	0.25559306
184	0xbe959c11	-0.29220632
185	0xbeac2405	-0.3362123
186	0xbd1a4455	-0.037662823
187	0xbdbabbff	-0.09117889
188	0xbe97c1ec	-0.29640138
189	0xbf095ea4	-0.53660035
190	0x3e7fc65f	0.24978016
191	0x3c97d4e1	0.018534126
192	0xbeed2c89	-0.4632304
193	0x3d3dccab	0.046337765
194	0xbdc3dffb	-0.09564205
195	0x3d1b2010	0.037872374
196	0xbe64a6b8	-0.22329223
197	0x3cd96e8e	0.026541974
198	0xbc9fb46f	-0.019495217
199	0x3ea4c319	0.32180098
200	0xbeeb6e02	-0.45982367
201	0x3c0096f2	0.007848488
202	0x3df78b88	0.1208716
203	0x3e25644e	0.16151544
204	0xbde00148	-0.109377444
205	0xbe93aaf5	-0.28841367
206	0xbde39307	-0.111120276
207	0x3d581fd8	0.052764744
208	0x3d1fb974	0.03899522
209	0xbea1abc5	-0.31576362
210	0x3dfef838	0.12449688
211	0x3e5e6fc3	0.21722321
212	0x3dec3f3f	0.11535501
213	0xbbea3144	-0.007146986
214	0x3a9cabb3	0.0011953026
215	0x3d56d33a	0.052447535
216	0xbe061e7b	-0.13097565
217	0xbdef9e71	-0.11700142
218	0xbe655c6f	-0.22398542
219	0xbc88c2ee	-0.016694512
220	0xbe7fbcb8	-0.24974334
221	0x3eb34ff3	0.35021934
222	0x3d3e4778	0.046454877
223	0x3d8bd928	0.06828529
224	0xbb1b47f8	-0.002369402
225	0x3d7a1f91	0.06106526
226	0xbe237980	-0.15964317
227	0x3e62b746	0.22140226
228	0xbe0bd8a2	-0.13656858
229	0xbef1de64	-0.47239983
230	0xbdbce885	-0.09224037
231	0xbdbec7bc	-0.0931544
232	0x3dbbf9f9	0.09178538
233	0xbe1476ff	-0.14498518
234	0xbdc3b588	-0.09556109
235	0xbe08530c	-0.1331293
236	0xbe8d380b	-0.2758182
237	0xbe20ee6d	-0.15715952
238	0xbda4cb34	-0.080465704
239	0x3e9653bd	0.29360762
240	0xbd4048d9	-0.046944473
241	0x3e68262e	0.22670814
242	0xbab78860	-0.0014002435
243	0xbe74f11f	-0.23920105
244	0xbe966d95	-0.2938048
245	0x3ebd97f9	0.37030008
246	0x3e1a3e9b	0.15062945
247	0xbc9e0416	-0.019289058
248	0x3d9a3bf0	0.075309634
249	0x3e9475e2	0.28996187
250	0x3e838a4f	0.2569146
251	0x3e3710da	0.17877522
252	0xbe122ba9	-0.14274468
253	0x3e04ade6	0.12956962
254	0xbe86f233	-0.26356658
255	0x3eb5ec06	0.35531634

dist.0.linear.bias f4 [7]
0	0x3d917ffe	0.07104491
1	0x3e0c4c71	0.13701035
2	0x3e7c0b07	0.24613582
3	0xbc0e0aec	-0.008669596
4	0xbb8d5182	-0.004312695
5	0xbd1c7dff	-0.038206097
6	0xbdd93d81	-0.10607434

dist.1.linear.weight f4 [7, 64]
0	0x3b0f21ae	0.0021840143
1	0xbad31994	-0.0016105645
2	0xba0623c9	-0.0005117027
3	0xb94d2a7c	-0.0001956615
4	0xbac1f28e	-0.0014797018
5	0x39cc6de0	0.00038991775
6	0x3b12cc4b	0.00223996
7	0xb92e1adc	-0.00016603939
8	0xb9a56d70	-0.0003155279
9	0xbacb3d9d	-0.0015506033
10	0x397fb701	0.0002438687
11	0x3a0de447	0.0005412739
12	0x3a46322d	0.00075605774
13	0xb9696f05	-0.0002226197
14	0xbaa8c5d9	-0.0012876346
15	0x3acf8050	0.0015831087
16	0x3ac544c6	0.0015050403
17	0x3a93e37b	0.0011283004
18	0xba3a040f	-0.00070959417
19	0xba1d7260	-0.0006006118
20	0xba82a21c	-0.0009966525
21	0xb84660fc	-4.7297202e-05
22	0x3b36d182	0.0027895872
23	0xbb1154e0	-0.0022175834
24	0x3a1efb41	0.00060646614
25	0xbaba2c7b	-0.001420393
26	0xba023f2d	-0.00049685204
27	0xba02a722	-0.0004984011
28	0xbaf84889	-0.0018942516
29	0x3a1e319e	0.0006034615
30	0xba8343be	-0.0010014696
31	0xbad56082	-0.0016279372
32	0x3ae7ce6f	0.0017685423
33	0xba16ff64	-0.0005760102
34	0xbadd8a82	-0.001690224
35	0x39888456	0.0002603854
36	0xba59bc97	-0.0008305995
37	0x398a4bdb	0.00026377928
38	0xbac23a14	-0.0014818334
39	0xb9427abb	-0.00018547002
40	0x3a8c6bc3	0.0010713268
41	0x3ad1da13	0.0016010426
42	0xbb11a287	-0.0022222118
43	0x396d4365	0.00022627188
44	0xba064585	-0.00051220536
45	0xba262d2d	-0.0006339129
46	0x3a7a0b2f	0.00095384096
47	0x3a0055de	0.00048956077
48	0x3b2dd6e6	0.0026525795
49	0xb940736d	-0.00018353546
50	0xba4f8007	-0.0007915501
51	0x3a5d2dcc	0.0008437305
52	0x3a11c219	0.0005560234
53	0xbabdecc0	-0.0014490113
54	0x3ad81a34	0.0016487301
55	0x3b44f87c	0.0030055335
56	0x39e8c10e	0.00044394325
57	0xb9b4397c	-0.00034375105
58	0x37051fbb	7.934806e-06
59	0x398bd1b8	0.000266684
60	0xb8f45d4e	-0.00011652206
61	0xbb0080a9	-0.0019607937
62	0xba66e75c	-0.0008808279
63	0xba925bda	-0.001116629
64	0x3931eaa4	0.00016967446
65	0xba0078b8	-0.0004900801
66	0xbaeb7439	-0.0017963714
67	0xb9106010	-0.00013768696
68	0xba7c87c7	-0.00096332695
69	0x3a2f686a	0.0006691279
70	0xba8507eb	-0.0010149454
71	0x399db47d	0.00030079848
72	0x3999eca9	0.0002935876
73	0x3a2a167c	0.0006488336
74	0x3a56352e	0.00081713765
75	0xba98fcac	-0.0011671982
76	0xb989358d	-0.00026170575
77	0xbb131ee8	-0.0022448841
78	0x3a8cc994	0.0010741227
79	0xba0dfc7f	-0.0005416348
80	0xba0d8992	-0.0005399223
81	0xbac01b90	-0.0014656652
82	0x3a8d91eb	0.0010800933
83	0xbaeca993	-0.0018055908
84	0xb8afa280	-8.374918e-05
85	0xb9d8e692	-0.0004137052
86	0x398cc45d	0.00026849183
87	0x3a9c72d0	0.0011936072
88	0x3a4e003b	0.0007858311
89	0xbafd076f	-0.0019304584
90	0x3a9a53cb	0.001177424
91	0x3afa0333	0.001907444
92	0xba7955b0	-0.00095113646
93	0xb9f302a0	-0.00046350528
94	0xbb155cc1	-0.0022790881
95	0xbb138db2	-0.0022514877
96	0xb95a772e	-0.00020834498
97	0x3a24100e	0.0006258496
98	0xb998a369	-0.0002911345
99	0xbb5cae3e	-0.0033673192
100	0x3a1d8fd2	0.00060105056
101	0x3b7c96cf	0.0038542037
102	0x3a74da19	0.00093403604
103	0xba8f0044	-0.0010910113
104	0x39f29baf	0.0004627383
105	0xb9ad8345	-0.00033094935
106	0x3aa570dc	0.0012622136
107	0x3a653f42	0.0008745083
108	0xba1ad2c5	-0.0005906041
109	0xb9a7a767	-0.00031977447
110	0x3a4ba16d	0.000776789
111	0xbaeffc8b	-0.0018309517
112	0x396863db	0.00022162443
113	0xba2cf9a6	-0.000659848
114	0xba632979	-0.00086655427
115	0x3b3feb30	0.002928447
116	0xbaa6f025	-0.0012736364
117	0xba50216b	-0.000793955
118	0xb8212556	-3.8420163e-05
119	0xbad05c14	-0.0015896582
120	0x3ae47640	0.0017430261
121	0xb9b3161b	-0.0003415801
122	0x3a108316	0.00055126974
123	0xb960bcfe	-0.0002143271
124	0xba54ad0e	-0.00081129454
125	0xb9050553	-0.00012685852
126	0xba357a7d	-0.0006922854
127	0x39baac7e	0.000356052
128	0x3a3b7005	0.0007150176
129	0xba4052fb	-0.0007336584
130	0x3ab8eda4	0.0014108908
131	0x39614942	0.00021484963
132	0x3ab8a890	0.0014088321
133	0xba346b57	-0.000688245
134	0xba4d0b42	-0.0007821807
135	0x38430df0	4.6504603e-05
136	0x3a1935c2	0.00058444974
137	0xb93e77e5	-0.00018164476
138	0x3b760379	0.003753869
139	0xbb13f526	-0.002257654
140	0x3ae3a66b	0.0017368322
141	0xba2e9a16	-0.0006660534
142	0xba00cb89	-0.00049131416
143	0x3a893359	0.0010467573
144	0x3b002634	0.001955402
145	0x3a7f2158	0.00097324466
146	0x3a652878	0.0008741687
147	0x39cc37e0	0.00038951542
148	0xba6d6b73	-0.00090568437
149	0x3afb07db	0.0019152121
150	0x382ee529	4.1698255e-05
151	0xba95a9ec	-0.0011418439
152	0x3a809d1f	0.0009812451
153	0x3a4c0140	0.00077821687
154	0x3a10f050	0.00055289734
155	0xbb3cd4c9	-0.0028813353
156	0xb97a6872	-0.00023880767
157	0x38aeca1d	8.334613e-05
158	0x3ae55ad2	0.001749838
159	0x3a0deedb	0.00054143154
160	0xbb0a763b	-0.00211276
161	0x3ac078f0	0.001468448
162	0xb63948f5	-2.7609615e-06
163	0x3a232ecd	0.00062249304
164	0xb8f07582	-0.00011465979
165	0x3ac3c9b7	0.0014937435
166	0x3b0bb761	0.002131902
167	0xba7bce78	-0.00096056564
168	0x3a906404	0.0011016135
169	0xb983d86b	-0.0002514751
170	0x3a168423	0.0005741736
171	0x3b0590c4	0.0020380476
172	0xba9104aa	-0.0011064012
173	0x3b01de99	0.0019816516
174	0x3adc2da6	0.0016798272
175	0xba4940b3	-0.00076771824
176	0x3a7a4f63	0.00095485727
177	0xba512a69	-0.0007979037
178	0x3a82c992	0.0009978286
179	0xba49a81e	-0.0007692593
180	0xb8bcf04d	-9.009298e-05
181	0xba577f20	-0.0008220542
182	0xbaa78f89	-0.0012783866
183	0xba7ca4dd	-0.00096376037
184	0xba8e194a	-0.0010841277
185	0x3a4a6826	0.0007721208
186	0xbaa49b7e	-0.0012558547
187	0xbab04d66	-0.0013450801
188	0xb98dabe3	-0.0002702168
189	0xbae71666	-0.0017630577
190	0xba2da97c	-0.00066246814
191	0x39eb952c	0.00044933835
192	0x3a105dc7	0.0005507138
193	0xb9451a10	-0.00018797093
194	0xbacaf278	-0.0015483638
195	0xba827729	-0.0009953725
196	0xb8b24747	-8.500978e-05
197	0xba9ac72f	-0.0011808629
198	0x39db24db	0.00041798395
199	0xba8e9fdb	-0.0010881381
200	0xba0b5f63	-0.0005316643
201	0xb952bc53	-0.00020097317
202	0x3a7b8d89	0.00095959805
203	0x3ac5a327	0.001507853
204	0x3a8239a7	0.0009935395
205	0x3ade37c0	0.0016953871
206	0xb904bce6	-0.00012658871
207	0x3ac08f46	0.0014691136
208	0x3a3199ad	0.00067749136
209	0x3a0caf63	0.0005366711
210	0x3a86348d	0.001023905
211	0x3a3339e5	0.0006836935
212	0x3a4d11d2	0.0007822785
213	0xbaacdfeb	-0.0013189291
214	0x3b13e3c4	0.0022566179
215	0x3a35ae87	0.00069306087
216	0xba761d72	-0.0009388543
217	0xba0afcdd	-0.0005301962
218	0xbafc4041	-0.0019245223
219	0x3a31b4bd	0.0006778946
220	0xba839b62	-0.0010040815
221	0xb9157b47	-0.00014255672
222	0x395fd3a0	0.00021345774
223	0x39e2f3e9	0.00043287806
224	0xbb15b14b	-0.002284127
225	0xb60f7a76	-2.1379942e-06
226	0x3a4812fc	0.00076322234
227	0x3b1a7da8	0.0023573432
228	0xbac9a0c7	-0.0015382998
229	0x3ae6eab8	0.0017617559
230	0xb98f2a37	-0.00027306538
231	0xbaca9400	-0.0015455484
232	0xbb08f38b	-0.0020897116
233	0xba03ebf5	-0.0005032414
234	0x3a844229	0.0010090518
235	0xba9576e6	-0.0011403232
236	0x3b16185b	0.00229027
237	0xba8c151d	-0.0010687445
238	0x3a93892c	0.001125609
239	0xbb2b60a2	-0.0026150127
240	0x3acdfcc1	0.0015715585
241	0x3a8ac187	0.001058624
242	0x3b013154	0.001971324
243	0xb7e8728f	-2.77099e-05
244	0xb97f9b62	-0.0002437658
245	0xba9bae0e	-0.0011877434
246	0xbab4e487	-0.0013801017
247	0xba90fee5	-0.0011062293
248	0x3974d7be	0.00023350024
249	0x3aae1d81	0.0013283939
250	0x3b047d9a	0.0020216466
251	0x3a8c7def	0.0010718683
252	0xb971e1b2	-0.00023067629
253	0x3b249252	0.0025111628
254	0xb905da84	-0.00012765272
255	0xba803654	-0.0009781816

dist.1.linear.bias f4 [7]
0	0x00000000	0.0
1	0x00000000	0.0
2	0x00000000	0.0
3	0x00000000	0.0
4	0x00000000	0.0
5	0x00000000	0.0
6	0x00000000	0.0

dist.2.linear.weight f4 [7, 64]
0	0x3b2c2ed2	0.0026273024
1	0x3b2e1b06	0.00265664
2	0x3b4ab2ee	0.0030929404
3	0x3b02670d	0.0019897849
4	0xba958c95	-0.0011409695
5	0xbb063542	-0.0020478521
6	0xb8ca78b4	-9.654593e-05
7	0x38c4f1af	9.3910254e-05
8	0xb8f2b97d	-0.00011574009
9	0xb9dd387d	-0.00042194492
10	0xbac8e4c6	-0.0015326969
11	0x39b153eb	0.00033822595
12	0xba5f9467	-0.00085288886
13	0xba281e49	-0.0006413204
14	0x3a30fe4f	0.0006751762
15	0x3ad056a1	0.0015894958
16	0xbaafafc2	-0.001340382
17	0xba837ec6	-0.0010032288
18	0xbace6a93	-0.0015748314
19	0xb9069f3c	-0.00012838555
20	0xb9404c42	-0.00018338955
21	0xbb06c1d7	-0.0020562315
22	0xb924afc6	-0.0001570574
23	0x3a90d689	0.0011050265
24	0xbaa250e9	-0.0012383732
25	0x39a2c8f5	0.00031048773
26	0x3b2ec8d3	0.0026669994
27	0x3a622466	0.00086266396
28	0x3a57832e	0.00082211464
29	0xba6e762a	-0.00090965873
30	0xbac7b1b9	-0.0015235461
31	0xba127821	-0.00055873586
32	0xbad1d852	-0.0016009903
33	0x3a9f548c	0.0012155934
34	0x3af82a4e	0.0018933506
35	0xb9c04478	-0.00036672107
36	0x3ae1a0ef	0.00172141
37	0xba5bd0f5	-0.0008385324
38	0xb8add5f8	-8.2891376e-05
39	0x3a05cdf0	0.00051042344
40	0xb94e4dfc	-0.00019674742
41	0xba607d92	-0.00085636333
42	0xba117c72	-0.0005549855
43	0x3ac1840f	0.0014764088
44	0xb9d2030c	-0.0004005659
45	0x3ac9764a	0.0015370336
46	0x3a13023d	0.00056079385
47	0xba9141e7	-0.0011082262
48	0xb85e95e9	-5.306854e-05
49	0xb9ac627e	-0.0003287978
50	0x3aa9424d	0.0012913436
51	0x3ab4456a	0.0013753597
52	0xb8640e65	-5.4372842e-05
53	0xba8d9ecd	-0.0010804773
54	0x3ae824ef	0.0017711202
55	0x3a0fd93b	0.0005487387
56	0x3a748cfc	0.00093288696
57	0x3a584ab7	0.00082508795
58	0xba71019b	-0.00091936596
59	0x3a212eb9	0.0006148625
60	0xbb149d05	-0.0022676599
61	0xba2e6b6d	-0.0006653581
62	0x3895c2e9	7.1411785e-05
63	0xb9bde509	-0.00036219534
64	0xba0ced99	-0.0005375981
65	0xb9cf97d7	-0.00039595246
66	0xb993383a	-0.00028079917
67	0xba4088c5	-0.0007344599
68	0x3a86818a	0.0010261994
69	0xba817f55	-0.0009879867
70	0x3ac95526	0.0015360459
71	0xba0238de	-0.00049675803
72	0x3a9d7396	0.0012012597
73	0x39ec3ecf	0.00045060224
74	0x3a9d8586	0.0012017942
75	0x392b276a	0.00016322514
76	0xba0ebeb9	-0.000544529
77	0xb9eddf07	-0.0004537033
78	0xba823f10	-0.0009937007
79	0xbb011a44	-0.0019699493
80	0x3b59712f	0.0033179035
81	0xbaa4c45e	-0.0012570729
82	0x3a5968c2	0.0008293503
83	0x39f8e270	0.00047470955
84	0xb98632df	-0.00025596374
85	0x3a335147	0.00068404194
86	0x3ad644be	0.0016347391
87	0x3a602229	0.0008550012
88	0xba9484d1	-0.0011331086
89	0xbb002c71	-0.001955774
90	0x3a6fb0a9	0.0009143451
91	0x3964a0cc	0.00021803676
92	0xbab64bfc	-0.0013908143
93	0x3a804f50	0.0009789262
94	0xbab4bb8f	-0.0013788807
95	0x3a7a41a6	0.00095465255
96	0xbaecc7e2	-0.0018064941
97	0xb98cd36c	-0.00026860402
98	0x3b053770	0.0020327233
99	0xbaa8df3e	-0.0012883914
100	0x39f509f9	0.00046737472
101	0x393533a1	0.00017280738
102	0xbab25e67	-0.0013608456
103	0x3a979f7f	0.0011567919
104	0x3b14b085	0.0022688222
105	0x389fae8b	7.614222e-05
106	0x38a47a72	7.8429366e-05
107	0x3b5300a1	0.003219642
108	0xba9b2c1f	-0.0011838711
109	0xbaa6b4bd	-0.0012718659
110	0x3a89f863	0.0010526296
111	0xbb3315bc	-0.0027326187
112	0x3a155654	0.0005696763
113	0xba1ba7f6	-0.0005937809
114	0x3a8b8134	0.0010643364
115	0x38ab01a0	8.154218e-05
116	0x39c81bd9	0.0003816772
117	0xbabecb5c	-0.0014556455
118	0xb9eb4102	-0.00044871127
119	0xbae223d3	-0.0017253108
120	0x37fc6d61	3.0091674e-05
121	0xba9423fd	-0.0011302229
122	0x3aef0815	0.0018236662
123	0xb9073e54	-0.00012897822
124	0x3a9178d9	0.0011098637
125	0xba6dbf77	-0.0009069363
126	0xbad801d2	-0.0016480035
127	0xba18f0c7	-0.00058342185
128	0xbac42052	-0.0014963245
129	0x3a69b1d9	0.0008914746
130	0xbad64e52	-0.0016350246
131	0x38bd2370	9.018823e-05
132	0x3a3c451c	0.0007181929
133	0xba88690b	-0.0010407282
134	0x3ab5425d	0.0013828982
135	0xba296d76	-0.00064631493
136	0xba912ba4	-0.0011075628
137	0x3ad05604	0.0015894775
138	0x39a93b2b	0.00032278275
139	0xba9f52b5	-0.0012155386
140	0xb9afe2e6	-0.00033547654
141	0x3a89a92b	0.0010502686
142	0xbb08e4f7	-0.0020888427
143	0x3a5adc3b	0.0008348857
144	0xb9a1ac0c	-0.00030836498
145	0xbb132c33	-0.0022456765
146	0xbaa5ea17	-0.0012658265
147	0x3a17b212	0.00057867274
148	0x3b079947	0.0020690726
149	0x3919fe99	0.00014686062
150	0x3ab37ffb	0.0013694757
151	0x3a7a2469	0.00095421687
152	0xbac19c82	-0.0014771374
153	0xb9e73a4e	-0.00044103194
154	0xba43c733	-0.00074683427
155	0x3a82da33	0.0009983241
156	0xba15290f	-0.0005690017
157	0x3b05b629	0.0020402765
158	0x3a44da07	0.0007509295
159	0x3ae978a3	0.0017812442
160	0xbac69980	-0.0015151948
161	0x3ad23953	0.0016038812
162	0x3a4bc9ee	0.00077739253
163	0x3a8099b8	0.0009811437
164	0x3aa397a7	0.0012481109
165	0xb95646ab	-0.00020434956
166	0x39299267	0.00016171635
167	0xbb1ca987	-0.0023904757
168	0xba84f10f	-0.0010142642
169	0x3a85a470	0.0010196101
170	0xbb26ade1	-0.002543323
171	0xbaaec7d9	-0.0013334706
172	0x39471c55	0.00018988673
173	0x3b173655	0.0023073156
174	0xbaa9567e	-0.0012919453
175	0x3a43f181	0.00074746466
176	0x3965be54	0.00021910045
177	0xb96c6d29	-0.00022547379
178	0xb798b97b	-1.8206183e-05
179	0x3acd82c6	0.0015679232
180	0xbb1089f2	-0.0022054878
181	0x3aafe9cd	0.0013421118
182	0xb952336e	-0.0002004632
183	0x3937363b	0.00017472442
184	0x3a821c4e	0.0009926648
185	0x3a12fd10	0.0005607167
186	0x3abf1322	0.0014577846
187	0xb9fec429	-0.00048592806
188	0x3a5e26c5	0.0008474405
189	0xbae9fe26	-0.0017852231
190	0x3a9cd2b4	0.001196465
191	0x3acd7b5d	0.0015677024
192	0x3a488c59	0.0007650308
193	0x39fcb789	0.0004820193
194	0x39f9d442	0.00047651125
195	0xba828599	-0.0009958028
196	0xba04bb3e	-0.00050633017
197	0xbae6a6bd	-0.0017597299
198	0x39bb9178	0.00035775802
199	0xba19ec5d	-0.00058717077
200	0xba4d5df7	-0.0007834131
201	0x3aa6b52d	0.001271879
202	0x39006902	0.0001224615
203	0x3a9f89f5	0.0012171852
204	0xbaaf53b7	-0.0013376389
205	0xbab44e41	-0.0013756232
206	0xb9709a8c	-0.00022945757
207	0xba6a3bbb	-0.0008935292
208	0x3a6c7454	0.000902002
209	0x388719b9	6.442093e-05
210	0xba85a9eb	-0.0010197734
211	0x3a3dcedb	0.00072406017
212	0x3a8b4e44	0.0010628183
213	0xba755ffe	-0.0009360312
214	0xb99b09f6	-0.00029571325
215	0xbaaca6ad	-0.0013172232
216	0x39df7a94	0.00042625202
217	0xba89aa19	-0.0010502964
218	0xbaf9009c	-0.0018997374
219	0xbb00c331	-0.0019647593
220	0x3aeb0c6b	0.0017932778
221	0xbaa427bb	-0.0012524048
222	0xbaa3de24	-0.0012502116
223	0x37f1b80f	2.8815148e-05
224	0xb93be419	-0.00017918683
225	0xbb0479bc	-0.002021416
226	0xba7e00a5	-0.0009689427
227	0x3a1be9f6	0.00059476437
228	0xbb40c5e5	-0.002941483
229	0xba855975	-0.0010173755
230	0x3b107c9e	0.0022046934
231	0x3a663282	0.000878133
232	0xba393f5e	-0.00070666324
233	0xbac24de6	-0.0014824241
234	0xbab1460f	-0.0013524907
235	0xba696c1d	-0.0008904355
236	0xbabb17d5	-0.001427407
237	0x3b036ce9	0.002005393
238	0x3aa1355b	0.0012299226
239	0x3b031676	0.0020002401
240	0x39d4c295	0.00040580766
241	0xbb0c9556	-0.0021451316
242	0xb985eb80	-0.00025543198
243	0x3afc91e2	0.0019269551
244	0x39c73366	0.00037994533
245	0xba1af103	-0.00059105473
246	0xbac4f302	-0.0015026035
247	0xbb23848a	-0.0024950826
248	0x3985f99e	0.00025553716
249	0xba953ea6	-0.0011386469
250	0xba053909	-0.0005082046
251	0x38806897	6.122997e-05
252	0x3988a489	0.0002606253
253	0xbb20cc14	-0.0024535703
254	0xba8877f2	-0.0010411723
255	0xba4f5445	-0.00079089805

dist.2.linear.bias f4 [7]
0	0x00000000	0.0
1	0x00000000	0.0
2	0x00000000	0.0
3	0x00000000	0.0
4	0x00000000	0.0
5	0x00000000	0.0
6	0x00000000	0.0
