BLIP/RL/trained_models/ppo/2023-01-17_minigrid-tb-ft-5e5-doorkey-wallgap-lavagap-redbluedoor_fine-tuning_1_task_0.pth (torch, 735859 bytes, 16 tensors)

features.actor.0.weight f4 [64, 2739]
000000 a2 84 40 3c 95 7e 21 3d 55 2c 49 3c 83 53 2f 3d
       0.011750372 0.03942736 0.012278636 0.042804252
000010 ed d8 47 bc d9 b5 9b 3c 16 85 9c bc 79 f8 d3 bc
       -0.012197715 0.01900761 -0.01910643 -0.025875317
000020 60 ea d2 bb b0 45 00 be 69 9a 75 be 0f a2 16 bd
       -0.006436631 -0.12526584 -0.23984684 -0.036775645
000030 77 cf c1 3d 7e 0a 33 3a ff e5 02 3d 8b 0d db 3d
       0.09463399 0.00068298716 0.031957623 0.106959425
000040 c8 64 ca bd 5f 22 a6 3d af 24 01 be eb 90 b6 bd
       -0.09882504 0.081120245 -0.1261165 -0.0891436
000050 7e 3d 75 3c 35 2e 00 bc f5 6d 8f bc fd a7 37 3d
       0.014968274 -0.007823517 -0.017508486 0.04483794
000060 3e 9e 98 bc 07 20 83 3c db e1 03 3c 4d 0a 21 bb
       -0.018630143 0.016006483 0.008049454 -0.002457279
000070 6d f7 36 bb c3 ee 01 bd 13 5e bd bb 69 1c 35 3d
       -0.0027918473 -0.03172184 -0.005779037 0.044216547
000080 31 4e 26 bd dc dc e2 bc 33 47 f3 3b cb bd 90 bd
       -0.040601913 -0.027693205 0.007424259 -0.0706745
000090 0a 78 ec 3c 14 99 0d 3e 8e d0 22 be b1 3b bc bc
       0.028865833 0.13827926 -0.1589987 -0.022977682
0000a0 37 79 73 bd bb 25 41 bd 05 39 71 3d ad da fd 3a
       -0.05944177 -0.047155123 0.05889227 0.0019367539
0000b0 b6 9f 01 bd f2 03 a3 3b c3 75 a6 3b de 2a 80 3d
       -0.031646453 0.0049748356 0.0050799563 0.06258176
0000c0 1f d7 9e 3d cf 45 c1 3d 6b fa 2e bb 29 1d eb 3d
       0.07755875 0.09437143 -0.0026699554 0.11480171
0000d0 ae 40 f7 3d 93 33 f0 3c 42 dc b4 3d 22 c0 0f 3c
       0.120728835 0.029321468 0.08831073 0.008773835
0000e0 c0 f7 83 3e c8 c4 87 3e 42 1f 9f bd 0c a4 c1 3e
       0.25774956 0.2651732 -0.07769634 0.3782047
0000f0 f7 c7 2a be dc 02 df 3c 69 36 64 be 58 2d 02 bc
       -0.16677843 0.027223043 -0.22286381 -0.007945381
000100 7f 86 15 3d 11 7f 80 3c 3a 0f 4b 3c d1 8b ba bc
       0.03650522 0.01568559 0.012393767 -0.022771748
000110 b5 5d f1 bb 34 e5 e1 3c 5a 51 2e 3d 0d 2a 11 bd
       -0.007365907 0.027575113 0.04255805 -0.035440493
000120 65 4d 50 3e d3 82 c2 3d 2f 36 8f bb 9f 83 e1 3e
       0.20342024 0.09497609 -0.004370473 0.4404573
000130 10 0a 17 bd 6f 7f cf 3e 90 fe f4 3d 74 5b a1 3c
       -0.03687483 0.40526912 0.119626164 0.019696929
000140 87 6a 26 3d e0 40 9f be f0 ba 94 be 30 93 96 bb
       0.040628936 -0.31104183 -0.29048872 -0.004595183
000150 a7 03 e7 3c f7 e7 82 ba 82 71 3e bd a6 9b 77 bc
       0.028199984 -0.0009987344 -0.04649497 -0.015112793
000160 22 ae 86 3a b6 d3 83 bc 27 29 de 3d cb 62 82 3d
       0.0010275284 -0.016092163 0.10847693 0.063664995
000170 ae 69 14 3d 18 96 4f 3e 60 46 01 3e e7 7f ac bc
       0.036233597 0.202721 0.12624502 -0.021057082
000180 52 71 d3 3e e2 cd cf 3d 17 3a ca 3e e1 a1 7a 3e
       0.41297394 0.10146691 0.39497444 0.24475814
000190 06 47 de 3b 7b bc ba 3e b1 09 9a 3c ec 74 5f 3e
       0.006783369 0.36471924 0.01880345 0.21821946
0001a0 23 0d df 3d e3 84 23 ba f5 65 e6 3c 26 c6 70 bc
       0.108911775 -0.0006237758 0.028124789 -0.01469568
0001b0 4a b8 a6 3c 31 9b 80 3c cf 1d 18 bb 6f ec 85 3d
       0.020351548 0.015699001 -0.0023211127 0.06539237
0001c0 a4 d5 e8 3c 60 84 c1 3b 9e c6 cc 3d ac e2 34 3d
       0.028422184 0.005905673 0.09998821 0.044161484
0001d0 39 aa 19 3e 8a 72 99 3d c0 03 51 3d d4 0c e6 bd
       0.15006341 0.0749255 0.051028967 -0.112329155
0001e0 57 14 30 3e 00 e9 dd bd ba c4 8d 3e a2 39 8f be
       0.17195259 -0.10835457 0.27689153 -0.27973658
0001f0 d2 c3 24 bd bf d8 dc bc 0c 8b a5 3d af 8c 3e bd
       -0.04022581 -0.026958821 0.08083162 -0.046520885
000200 4d ad 8e bc 7b 7a 3c 3b 1e 54 47 bc 05 8c 4c 3a
       -0.01741662 0.0028759527 -0.012166051 0.0007802847
000210 06 f6 b8 bd 1c b9 5b bd 3d 81 03 3d 66 ff 47 bd
       -0.090313 -0.05364333 0.032105673 -0.04882755
000220 6b 5b 19 be 65 ea 2f bd 12 57 4c 3d f4 c0 cd 3d
       -0.1497628 -0.042948145 0.049887724 0.100465685
000230 33 35 f6 bc 39 1a 28 3e 39 4b 92 bc 09 50 87 3c
       -0.030054664 0.16416253 -0.017858135 0.016517656
000240 64 45 21 be 2b bc e4 bc 38 1a 68 bd 57 82 9d bc
       -0.15749127 -0.027921757 -0.05666563 -0.01922719
000250 dd 33 88 bc 89 49 84 3c 70 4b c5 bc 65 17 b2 3c
       -0.016626293 0.016148346 -0.024083823 0.021739671
000260 f2 ae bd bc 19 5c 66 3d 90 a5 de bc 99 32 74 bc
       -0.02315471 0.056240175 -0.027178556 -0.014904642
000270 a4 7a 09 3d af 84 09 bd 17 4c 36 bd 20 c2 7b bb
       0.033564225 -0.033573803 -0.04450616 -0.0038415268
000280 3d b7 25 ba 2c 29 5e 3b 55 65 34 bd e2 c0 3c 3c
       -0.0006321555 0.0033899052 -0.04404195 0.011520596
000290 63 00 49 bd 6e 43 b8 3c 6d 26 34 3c 3c a2 fc bd
       -0.049072634 0.02249309 0.01099549 -0.12335631
0002a0 01 70 ba bc 2b 9f bf bc 64 51 3c bc 03 90 28 bb
       -0.022758486 -0.023391327 -0.011494014 -0.0025720603
0002b0 04 44 bc 3b d5 c6 9d 3c cd ff e4 bb d3 36 cb 3b
       0.005745413 0.01925985 -0.0069885016 0.006201604
0002c0 26 23 8d bc 51 a4 e6 3c d7 ba 9c 3c 11 09 7a 3c
       -0.017228674 0.028154524 0.01913206 0.015260951
0002d0 76 22 14 3d f6 4b 25 bd 67 e2 ba 3a 4d b6 15 3c
       0.036165677 -0.040355645 0.0014258147 0.009137702
0002e0 4e 66 48 3b f0 ba e5 bb 58 1e b2 3c fd fd 72 3c
       0.0030578556 -0.00701081 0.021742985 0.014831063
0002f0 8d 78 99 3d 4c 2e a2 3c 67 21 2f b8 05 53 95 bc
       0.07493696 0.019797467 -4.175436e-05 -0.018228063
000300 2d 88 07 be 08 a2 83 3c 20 0e 78 3c 39 e7 03 bd
       -0.1323554 0.016068473 0.015140086 -0.032202933
000310 9a 4b 1b 3d dd 2a f6 bb 74 29 6d 3c cb 13 0e 3d
       0.037913896 -0.007512434 0.014475215 0.034686845
000320 69 ef a7 bc 94 18 18 3d 17 a6 89 3c cb 62 4e 3b
       -0.020499902 0.037132815 0.01680283 0.003149199
000330 b7 1b 99 3c a2 0a ca bd 1e 1c 98 3b f9 ef 7b 3c
       0.018689973 -0.09865309 0.0046420237 0.015377038
000340 ed dd 19 3c 8c f3 6c 3c cd 68 3b bc 40 b1 c1 3c
       0.00939129 0.014462363 -0.011438561 0.02364409
000350 c5 07 fd 3a 59 34 db 3b 2a f6 2d 3c 65 bb ca ba
       0.0019304684 0.00668959 0.010617772 -0.0015467225
000360 64 43 cf 3c 0b 16 1e 3d e9 74 28 bc 27 ea 3a 3c
       0.025300689 0.03859524 -0.01028178 0.011408365
000370 f7 7b f2 3c 9b 20 0d 3d 9a ce 36 bd 09 83 dd 3c
       0.029600127 0.034454923 -0.044630624 0.027040021
000380 81 1c a1 3c dc b2 8b bc 67 bc 3e bc d3 41 62 bc
       0.019666912 -0.01705306 -0.011641598 -0.013809639
000390 89 45 20 3c 97 dd 19 3d 08 df bd bc 2b e1 58 bd
       0.0097822035 0.03756484 -0.023177639 -0.052949112
0003a0 b8 df f6 3b e8 7c fd ba 2a 6a b6 bb aa 61 86 3d
       0.0075339936 -0.0019339593 -0.005566855 0.06561597
0003b0 ea d5 0a 3c a1 ed 1d bd e4 21 c8 3b e1 9b 49 bc
       0.008473853 -0.0385567 0.0061075557 -0.012305231
0003c0 70 b1 72 3b 84 b3 38 3c c5 8f 5a 3d 6f 94 4f 3c
       0.003703203 0.011273269 0.053359766 0.012669667
0003d0 7f ed 0b bc 48 35 c9 bc f3 b4 80 bd 25 14 29 bd
       -0.00854051 -0.02456154 -0.06284513 -0.041278977
0003e0 8a 83 20 bd 78 a2 91 3c f1 fb ad ba c1 34 d8 bc
       -0.039187945 0.017777666 -0.0013273937 -0.026392343
0003f0 b2 97 f1 bc 54 1a 1d bd 71 97 2d be d1 d3 f0 bc
       -0.02949128 -0.038355187 -0.16952302 -0.029397877

features.actor.0.bias f4 [64]
000000 da 38 6c be 7b e2 38 3f 02 ad a3 be 7f ce 8b 3e
       -0.23068562 0.7222058 -0.31967932 0.27305982
000010 59 09 c9 3e ff d9 40 3e cc 9c 11 3e b1 fa c1 3d
       0.39264944 0.18833159 0.1421997 0.09471644
000020 d9 9a 02 3f 61 40 a8 bd 50 d3 5b 3d b4 ef 86 3c
       0.5101753 -0.08215404 0.05366832 0.016471721
000030 e2 fe 7a 3e 34 71 da be 2e 1f dd 3d 25 14 e6 3d
       0.24511293 -0.42664492 0.10796963 0.11234311
000040 5e 8c 77 3c 0c 98 c5 be b5 5e 2b bf 3f 68 13 3d
       0.01510915 -0.38592565 -0.66941386 0.03598809
000050 c2 fd 86 3c 3b e2 fa bd e3 e9 9a 3e 69 b1 e1 be
       0.016478423 -0.12250181 0.30256566 -0.44080666
000060 9f 25 85 be fd 65 a3 3e 47 db 20 be fa 0a d0 be
       -0.26005265 0.31913748 -0.15708648 -0.40633374
000070 4a 99 59 be d5 16 2d be f6 d0 f4 be bb 31 4d 3d
       -0.21249881 -0.16903241 -0.47815675 0.050096255
000080 de ca d2 3e 51 9c ed 3d 0b 7b 0b bf fd f5 42 3e
       0.411704 0.116020806 -0.54484624 0.1903915
000090 2b 24 fe 3d 04 5e 27 bf be 3b 9d be 48 51 5c bc
       0.12409242 -0.6537783 -0.30709642 -0.013447113
0000a0 e4 31 17 bf 13 89 99 be df dc c4 3e 76 d9 46 3e
       -0.590605 -0.29987392 0.3844976 0.19418892
0000b0 75 8e 13 bf 96 ec 0f 3e 78 49 d0 3e 6a c5 d0 be
       -0.5763925 0.14055094 0.40681052 -0.40775615
0000c0 65 4a 30 3e 25 7b 2c 3e 5b 91 00 bf 77 62 cd bd
       0.1721588 0.16843851 -0.50221795 -0.10028546
0000d0 67 1c 68 3d 61 30 3d bd 2b b6 d0 3e dc 67 9b 3d
       0.05666771 -0.046188716 0.40763983 0.07588169
0000e0 a8 92 f1 3e ea 83 c4 be 28 b7 c0 be 4e ea 95 be
       0.47182202 -0.38381892 -0.37639737 -0.29280323
0000f0 d3 00 27 3c 91 f5 1a bf 36 a7 b6 bd a4 6d 02 3e
       0.010193068 -0.60530955 -0.08918612 0.12737137

features.actor.2.weight f4 [64, 64]
000000 6a e1 83 3d 11 8f 5c 3e fa 50 55 be 8d 75 14 be
       0.06439479 0.2153895 -0.20831671 -0.14497967
000010 95 e3 1a 3e 6e b3 bd be 95 c3 c0 3e 2a 04 6a be
       0.15125878 -0.37050956 0.37649217 -0.22853151
000020 73 64 66 bd 96 1a 8e bc cf 02 34 be d9 0d 25 bd
       -0.05624814 -0.017346662 -0.17579196 -0.04029641
000030 37 13 0b be 0c f7 04 be ce 4d b7 be 07 8c d1 be
       -0.13581549 -0.12984866 -0.35801548 -0.40927145
000040 36 8d 0e bd a8 e3 8d 3d 8e 75 df bc ea 09 2e 3e
       -0.034802638 0.069281876 -0.027277734 0.1699597
000050 ac bc 33 3f 44 0e 8b bd 6d d8 c9 3d 9b 46 94 be
       0.70209765 -0.0678983 0.09855733 -0.28960118
000060 8f c9 33 3e eb 31 ec bd 1c a6 96 be 92 cc 22 be
       0.17557357 -0.115329586 -0.29423606 -0.1589835
000070 1c a3 04 bc 3b e2 f8 bd ec b9 d9 3e 43 e8 c0 3b
       -0.008095529 -0.12152525 0.4252466 0.0058870628
000080 2a 3b 93 3b 09 eb c0 be f3 fd 09 3e c5 4e 94 3e
       0.004493137 -0.37679318 0.1347578 0.28966346
000090 09 86 36 3e 05 34 8e 3d aa 6d d0 bc d1 19 ee 3e
       0.17824568 0.06943516 -0.025442917 0.4650407
0000a0 13 0e e5 3e 99 4b 9b 3e 3d 0f 0d 3e 18 7f bd 3e
       0.447373 0.30331114 0.13775344 0.37011027
0000b0 6f f6 49 3d ba 5c d5 bd 0c 89 5d 3d e9 50 84 be
       0.049307283 -0.10418077 0.054085776 -0.2584298
0000c0 71 5e af be da b4 3b be 25 f2 eb 3d 11 c4 18 3e
       -0.3425174 -0.18330708 0.11520795 0.14918543
0000d0 2e fc 9d 3d 89 a3 13 be c2 55 60 be 9a 0a a6 3e
       0.07714115 -0.14417852 -0.21907714 0.32429963
0000e0 08 34 96 3d 2b 92 8c 3d 6d 4f a7 3e 97 ae 21 bd
       0.07334143 0.06863817 0.32677785 -0.039473142
0000f0 ca 19 10 be b8 3f 9c 3d 6a 09 88 bd 33 30 0e bf
       -0.14072338 0.07629341 -0.066424206 -0.55542296
000100 19 48 01 bf 50 00 04 be fc ea 2a 3e 30 a5 88 bd
       -0.5050064 -0.12890744 0.16691202 -0.06672132
000110 36 a6 a6 3d 16 65 ac 3b 92 b2 4d 3e 01 d9 da 3e
       0.08137171 0.005261074 0.2008765 0.42743686
000120 1c ba 58 be 31 b8 01 3e d9 a0 c8 3e 8a 76 67 3f
       -0.21164745 0.1266792 0.39185217 0.9041525
000130 1a 79 37 3d 4c e1 95 3e d1 30 5a be 00 d6 82 be
       0.044793226 0.2927345 -0.21307684 -0.25553894
000140 db b0 80 be 1c 41 99 be 2b 4e fd 3e ac 90 02 be
       -0.2513493 -0.29932487 0.494737 -0.127505
000150 70 24 fe bd 13 1a b7 be 09 b7 91 be dd 31 91 3d
       -0.12409294 -0.3576208 -0.28459957 0.07089589
000160 a5 92 01 be d4 2d 4a 3e 99 b4 7a be af 5d 8e be
       -0.12653597 0.19744045 -0.24482955 -0.2780585
000170 c3 d8 79 3e fe da ad bc d9 2c 05 be b0 1e d3 3e
       0.24399094 -0.021222588 -0.1300539 0.4123435
000180 96 96 9a 3e ca 60 95 3e 06 bc 1c 3e f2 4a 91 3e
       0.30193013 0.29175407 0.153061 0.2837749
000190 1d 31 08 3f cf d2 f7 3d c7 4e 56 3e 8e 42 5c be
       0.5319994 0.121007554 0.20928489 -0.21509764
0001a0 5e 45 dd 3d a7 22 28 3f 53 c2 94 bd b4 cb c8 be
       0.10804246 0.65677875 -0.07263627 -0.39217913
0001b0 7c 46 ce be c2 dc ff 3b 25 cf 13 3d bd 1c fa bd
       -0.4028815 0.007808299 0.03608622 -0.12212513
0001c0 b7 dd 0f be ec 1a 05 bf 23 2e 88 be 81 fb 73 be
       -0.14049421 -0.51994205 -0.265977 -0.2382641
0001d0 d3 50 c7 be ad df 84 bc 68 a1 a1 bd fd f0 d8 be
       -0.3892885 -0.016219938 -0.07892114 -0.4237136
0001e0 66 a6 80 bc 70 cc 9d 3c 3f 7b be 3e 7d f3 c7 bd
       -0.015704345 0.019262522 0.37203404 -0.097632386
0001f0 f8 c1 c0 3d d5 ab c9 bd d7 d0 b1 be b4 60 3c be
       0.094119966 -0.098472275 -0.34729645 -0.18396264
000200 29 8e 50 be b5 e4 11 be 0d d8 54 be 73 2a 6c bd
       -0.2036673 -0.14247401 -0.20785542 -0.05765767
000210 d9 3e cd 3b df e5 a3 3e 91 6d 52 bd 8f c6 54 be
       0.0062635955 0.32011315 -0.051374022 -0.20778869
000220 6c f2 f9 bd 07 24 16 be c8 2e 13 3c 9c 22 9f be
       -0.122044414 -0.14662181 0.0089833215 -0.31081092
000230 8a 6a 6f 3e f5 2b a6 be c7 16 63 be 27 2f a9 3e
       0.23380485 -0.32455412 -0.22176658 0.33043787
000240 82 ce a9 3d 54 a0 ee bd f0 41 5a be cf 86 31 3e
       0.08291341 -0.11651674 -0.21314216 0.17336582
000250 ac 6c 04 3e 57 ed a2 be f4 84 34 be 5a 73 2f 3f
       0.1293208 -0.318217 -0.17628843 0.6853539
000260 8b 46 dc bd 3f 90 a1 3d dc 81 25 3e 45 99 2a bd
       -0.107556425 0.07888841 0.16162819 -0.041650075
000270 2d 35 fc be a9 63 b1 be 00 b1 94 3e f0 37 2e 3c
       -0.4925932 -0.34646347 0.2904129 0.010633454
000280 3b 22 a4 be 13 40 24 be 91 d0 06 be d8 66 2f be
       -0.32057366 -0.16040067 -0.131655 -0.17129076
000290 e3 ff 0c be b1 40 a0 3d 1b d7 1f 3d 57 63 c7 3e
       -0.13769488 0.07824839 0.0390235 0.38942978
0002a0 b7 c3 fd be a3 82 32 be 94 47 c6 3d ba 09 9a be
       -0.4956338 -0.17432646 0.09681621 -0.30085546
0002b0 38 a7 5e 3d 95 19 93 bd e6 88 41 3e e0 19 c9 bd
       0.05435869 -0.07182614 0.18899879 -0.098193884
0002c0 e5 de de bd 1d 9a 4a be a4 48 d9 be 0b 2f 37 3d
       -0.108823575 -0.19785352 -0.42438233 0.044722598
0002d0 1e 1f f7 3d 89 d2 45 3e 17 d6 f7 3d df 8e 1f bd
       0.12066482 0.19318594 0.12101381 -0.038954612
0002e0 b2 67 82 3e a1 65 b8 3e f5 01 20 bd 83 7c 8d bd
       0.25469738 0.36015037 -0.039064366 -0.06908514
0002f0 f9 b0 1b 3e 9e 22 79 be c2 f7 34 3e 19 01 d5 be
       0.15204228 -0.24329612 0.17672637 -0.416024
000300 48 8c b4 be 26 e9 80 3e e0 cb 8a ba 68 b8 4a 3e
       -0.35263276 0.25177878 -0.0010589324 0.19796908
000310 d1 f1 3e be 0b 05 7e 3e 65 c4 bc bd 42 e5 04 be
       -0.18646933 0.24806611 -0.09217147 -0.1297808
000320 66 b2 a0 3e 71 07 aa be 34 8f 09 be 24 1e eb bb
       0.31386107 -0.33208802 -0.13433534 -0.007175224
000330 ab eb 63 3e 56 71 a4 3d ae 3d 8f 3d c7 64 94 be
       0.22257869 0.080294296 0.06994186 -0.28983137
000340 11 32 e8 bd 06 b4 43 be 68 e6 67 bd 85 0e 65 3e
       -0.113376744 -0.19111642 -0.056616217 0.2236882
000350 f9 70 0e be b0 b6 b1 be 05 90 2f 3e 63 f7 ae be
       -0.13910283 -0.34709692 0.17144783 -0.34173116
000360 7a 9b 77 bc 6f 88 6e be 28 b1 81 be 71 8a e6 be
       -0.015112752 -0.23294233 -0.25330472 -0.45027497
000370 c8 69 bc bd 0f 00 fb bc 59 17 88 be 39 95 27 be
       -0.09199864 -0.030639676 -0.26580313 -0.16365518
000380 34 8c 3d 3e 4f e0 38 be 9a 75 2f be f8 d1 5f bd
       0.18510514 -0.18054317 -0.17134705 -0.0546436
000390 ce 87 ad 3e 22 02 27 be 6a 42 2d be eb 13 2a be
       0.33892673 -0.16309407 -0.16919866 -0.1660916
0003a0 e5 3d d9 be 7e 10 91 be 6a a3 2b be b6 2a b0 bd
       -0.42430034 -0.28332895 -0.16761556 -0.086018965
0003b0 c1 f1 61 3d ab 34 63 3e 8f 48 90 3d 4c c3 07 be
       0.055162195 0.2218806 0.070450895 -0.13258094
0003c0 c0 33 8f 3d c6 28 0e 3e ef 81 08 bf 39 b3 73 3e
       0.069922924 0.13882741 -0.5332326 0.23798837
0003d0 6f 00 00 3d 31 d6 80 3e 0a fd c8 3e 55 15 28 3e
       0.031250414 0.25163415 0.39255553 0.16414388
0003e0 2a 56 15 3f 5e 25 95 3e 7b 4b 03 be a8 86 5a be
       0.583346 0.2913007 -0.12821762 -0.2134043
0003f0 1f 82 aa 3c 78 03 ba 3d f6 c8 19 be 1f 2e c0 bc
       0.020814 0.09082693 -0.15018067 -0.023459492

features.actor.2.bias f4 [64]
000000 7f b4 a3 be d1 51 75 be ba c3 86 3e 14 0e 3d 3f
       -0.31973645 -0.23956992 0.26321203 0.73849607
000010 ab f1 27 3e cf 43 89 be 1b 0f 84 be 61 94 e4 bc
       0.16400783 -0.26809546 -0.25792775 -0.027902784
000020 29 d6 98 bf 77 00 e6 bc 7c 69 b3 bc 87 34 ab 3f
       -1.1940356 -0.028076394 -0.021900885 1.3375405
000030 44 f1 ee bc 7d 6b c9 3d 80 56 1a 3f fd b1 d1 3d
       -0.029167779 0.09834955 0.6028824 0.10239027
000040 94 ae 77 bf f4 1c 81 3e 89 4a d5 3e d2 93 82 be
       -0.9675076 0.25217402 0.41658428 -0.25503403
000050 15 0b 9d be 36 89 91 bd 59 5d 67 3e 91 95 4a bd
       -0.30672517 -0.07106249 0.22594203 -0.049459044
000060 3a 5b 57 bd bc dc 3d 3d 21 ef e6 3e bd 83 77 be
       -0.052577235 0.046353087 0.45104316 -0.24171348
000070 16 07 cf be 5f 80 20 bd ca 7e d6 3d aa 88 2d 3e
       -0.40435094 -0.039184924 0.10473402 0.16946664
000080 21 9c 2d 3e f1 09 8a be 13 e3 e9 be a7 80 05 bf
       0.1695409 -0.2696071 -0.45681056 -0.5214943
000090 23 fa 09 3f 20 bc b8 bf 2c 8d 87 bf 01 34 d4 3d
       0.53897303 -1.4432411 -1.0589957 0.103614815
0000a0 19 9a 8e 3b 80 be 99 3e 66 a1 ab be a0 d9 d1 be
       0.004351866 0.30028152 -0.33521575 -0.40986347
0000b0 a9 09 51 3e 39 92 1b 3d 2b d9 fb 3d 29 8c 29 be
       0.20413841 0.037981246 0.12297281 -0.16557373
0000c0 79 ad 36 3e a2 5b 23 3e 30 5f 64 bf d2 74 9b 3f
       0.17839612 0.15952924 -0.89207745 1.2145026
0000d0 b4 4d f8 3c 1b b7 b0 bd 31 4d 2c be 39 ed 01 3e
       0.03031049 -0.086286746 -0.16826321 0.1268815
0000e0 d1 b0 a7 bd 04 4f 82 be 2e 8c bd be 09 ee 81 be
       -0.08188022 -0.2545091 -0.3702101 -0.2537692
0000f0 26 06 73 3f a1 19 a0 3e a7 f0 98 3e 88 d9 d5 be
       0.94931257 0.31269553 0.29871103 -0.41767526

critic.0.weight f4 [1, 64]
000000 4a 1a a4 bc f6 ea 61 bc 00 6a 58 3d 25 0d 9a bc
       -0.020032067 -0.013788929 0.052835464 -0.018805096
000010 ab 3f 36 bc 47 11 51 bd ca 94 8b 3b 73 d7 a5 bb
       -0.011123578 -0.051041868 0.0042596804 -0.005061084
000020 ab 8d bd be b7 52 11 3d 57 da 00 3d 9c 0f 00 3f
       -0.37022147 0.035479274 0.031458225 0.5002382
000030 cf 11 12 bd 4b db ac ba aa 15 2a bc a2 92 1f 3d
       -0.035661515 -0.0013187913 -0.010381142 0.0389582
000040 d5 6f 92 be 2f ea b8 3d 26 27 27 3d 57 5b 32 bd
       -0.28600946 0.09029042 0.04080882 -0.04354414
000050 b6 cc 78 bd eb 05 83 3c 3a a9 41 3d 06 6a 03 3d
       -0.060742103 0.015994033 0.047280528 0.032083534
000060 0b 97 b5 3c 65 25 0b bd 96 2d 72 3d 2c d6 53 3c
       0.02216675 -0.03397121 0.059125505 0.0129294805
000070 8a 6a 81 bc 3a d9 9b bb 56 69 91 bb 64 8e a2 3c
       -0.015797872 -0.00475612 -0.004437606 0.019843288
000080 55 87 88 bb 8c e1 c8 3c 90 b6 9b bd 59 d9 53 bd
       -0.0041665235 0.024521612 -0.076031804 -0.05172095
000090 18 ed b1 3d 85 bb d2 be 04 17 06 bf b1 a5 15 3c
       0.086878 -0.4115869 -0.5237887 0.009133742
0000a0 32 a4 04 3d ef ed 05 38 4c 95 c4 bc 9c 1e dd bc
       0.03238315 3.1931264e-05 -0.023996972 -0.026992135
0000b0 e4 95 04 bd b8 40 c7 3c 59 5b 59 3d 39 93 d8 bb
       -0.03236951 0.024322852 0.05306563 -0.006609347
0000c0 a5 95 0f bc ae 82 2f 3c 5b c6 9d be bb 85 d3 3e
       -0.008763705 0.010712309 -0.30815396 0.41312966
0000d0 42 49 c8 3b 97 3a 1b 3d e6 6a 3c 3c 07 14 00 bd
       0.0061122486 0.037897673 0.011500096 -0.0312691
0000e0 e2 c3 4d 3c 6c 13 15 bd 4d 32 20 bc 17 7f 6c bd
       0.012558909 -0.036395475 -0.009777618 -0.05773839
0000f0 67 9f cb 3e 6f 2e 43 3c 07 e1 24 3d 1c e3 0f bd
       0.39770052 0.011912926 0.040253665 -0.035128698

critic.1.weight f4 [1, 64]
000000 70 02 f1 bd ad 4f 5a 3e 40 09 9d ba b0 90 8e 3c
       -0.11768043 0.21319456 -0.0011980906 0.017402977
000010 4e e7 9c bd 17 d9 19 be 35 81 8c bd 9e 44 b4 3d
       -0.07661305 -0.1502422 -0.06860582 0.0880215
000020 81 51 28 3e 70 fe 5f 3c aa a6 d5 3c 87 7c 97 be
       0.16437341 0.0136715025 0.026080448 -0.29587194
000030 f9 66 a2 bb 92 da 3d 3d 4b 2e 8e bb c0 6f 29 3e
       -0.004956123 0.046351023 -0.0043390146 0.16546535
000040 25 78 48 be 04 48 2f bd 7e 7c 5e 3e 97 6f ec 3c
       -0.19577082 -0.04279329 0.21727178 0.028861804
000050 dc a8 b7 3d db 2f 14 be b6 4d ab 3c c2 7d d1 3d
       0.08967754 -0.1447138 0.020911079 0.102290645
000060 a2 2a 31 3e 01 fc 52 3d ae 5f 8a 3d a0 87 a4 3d
       0.1730142 0.05150986 0.06756531 0.08033681
000070 cf 0a 7f 3e c9 6f b8 3d b7 db cd bc 1f b7 b7 3b
       0.24906467 0.09005696 -0.025129182 0.0056065465
000080 bb f2 39 bc 8b e8 d0 bd fe 2b 11 be 54 8d 52 bc
       -0.011349375 -0.10200604 -0.14176938 -0.012851078
000090 d7 44 e3 bd 92 23 27 3c ef 42 76 bd 65 29 18 be
       -0.110971145 0.010201352 -0.060122427 -0.14859541
0000a0 45 72 81 bc 5d 56 d1 3d f6 75 c9 3c a0 23 b0 3d
       -0.015801558 0.102215506 0.024592381 0.08600545
0000b0 68 67 fb bd b3 bd 69 3c 1b 5b 35 be 88 4e a8 3e
       -0.122755826 0.014266419 -0.17710535 0.32872415
0000c0 61 b6 39 bd 28 2d 7d 3d f3 c6 07 3e aa 5e 8d bc
       -0.045339946 0.061810642 0.13259487 -0.017257053
0000d0 67 53 32 3d b5 d3 1a 3e 29 5c 78 3e ac dc 9c bc
       0.04353657 0.15119822 0.24253906 -0.019148193
0000e0 ca 24 80 bd 0f c6 0a 3e 29 c9 cc bd dc 69 94 3d
       -0.06257017 0.13552116 -0.09999306 0.072467536
0000f0 72 2e d1 3d f6 9d 09 bd d6 70 6e 3e 52 0e 78 3e
       0.10213937 -0.03359791 0.23285231 0.24224213

critic.2.weight f4 [1, 64]
000000 48 a6 85 3e 91 46 ef bd 72 1a c2 bc b8 ee 10 3e
       0.26103425 -0.11683381 -0.02369425 0.14153564
000010 65 1a 06 be 5f 1b 09 3e c1 3e 03 bd e5 e8 0c 3e
       -0.13096006 0.13389347 -0.03204227 0.13760717
000020 39 fe 3e 3b 7c 24 b2 3c 60 e8 46 3e 8d f3 e3 ba
       0.0029143228 0.021745913 0.19424582 -0.0017391309
000030 36 34 85 3e fa bc cc bd 93 69 f9 bc a0 9e 30 be
       0.26016396 -0.09996982 -0.03044585 -0.1724801
000040 d9 9b 6b 3e 91 b3 a1 3d 9c a8 d9 bc 32 35 38 bd
       0.2300867 0.07895578 -0.026569657 -0.044972606
000050 80 83 57 be 39 ee 91 be d9 c9 eb 3d 9b 0a 92 3d
       -0.21046257 -0.28502062 0.11513109 0.07130929
000060 b1 c1 22 3e 2a fc 02 be 26 c9 c1 bc 45 5e 93 bc
       0.158942 -0.12791505 -0.023655485 -0.017989287
000070 5b 3e 3e 3d cf ec dd bd c4 c2 b2 3d a0 f9 02 3c
       0.046446186 -0.10836183 0.08728555 0.007994086
000080 8e 36 64 3e 50 4e 00 3e 52 7a 99 bd 68 32 30 bd
       0.22286436 0.12529874 -0.07494034 -0.04301682
000090 ea 02 22 3b 02 d1 76 be ec cb 56 3d 51 fd 9f bd
       0.0024720975 -0.24103168 0.05244057 -0.07811988
0000a0 f0 ca 29 bc 80 73 b9 3d e1 67 1a 3d 1d ab ed bd
       -0.0103633255 0.09055233 0.037696723 -0.11604903
0000b0 6c 7e 8d 3d ec 7e 97 3d a4 7a 34 bd b2 d1 56 bd
       0.06908879 0.07397255 -0.04406227 -0.052446075
0000c0 49 8c c6 bd 9b 7c 1a 3d e0 4f 4a 3e fd 7d 31 be
       -0.09694726 0.03771649 0.19757032 -0.17333217
0000d0 b6 69 5c be ca aa 9e bd c0 95 20 3e 74 ef b7 3d
       -0.215247 -0.07747419 0.15682125 0.08981219
0000e0 08 64 10 be 89 aa cc bd a2 16 d6 3b e4 cf 23 3c
       -0.14100659 -0.099934645 0.0065334598 0.009998295
0000f0 96 9a 18 3d 08 6b 03 3e 04 00 7d 3d 11 25 36 3e
       0.0372568 0.12833798 0.061767593 0.17787577

critic.3.weight f4 [1, 64]
000000 80 63 63 bd 03 df 3c 3d 60 e7 cd 3d db fd 9b b9
       -0.055514812 0.046111118 0.10053897 -0.0002975304
000010 d5 74 4d 3d ec 40 5a be 49 07 02 3e 9b 9b 64 3b
       0.050160248 -0.21313828 0.12698092 0.0034882787
000020 f4 07 64 3e 68 33 7c 3d 91 6b 3f 3d 9a 46 f5 bd
       0.22268659 0.061572462 0.046733443 -0.11976357
000030 63 65 8c be 82 67 b6 bc 4d 03 9b bd c2 48 15 be
       -0.27421102 -0.022266153 -0.07568989 -0.14578536
000040 6f 9d 50 bd 29 01 0a be 11 ab 98 bd bb 20 f1 3c
       -0.05093139 -0.13477005 -0.07454503 0.029434552
000050 9f b6 e0 bc db a5 2b bd 90 c6 2b bd 89 57 5e bd
       -0.02743083 -0.04190622 -0.04193741 -0.0542827
000060 19 db 66 3e a4 09 57 bd 0c c0 25 be 5c c2 50 be
       0.22544517 -0.05249943 -0.16186541 -0.20386642
000070 4e 20 06 be c4 95 6f be 90 ad 4c 3e 9b 59 32 bd
       -0.13098261 -0.23396975 0.19988084 -0.043542486
000080 58 b8 e4 3b 96 09 9b bc 9c 40 06 3d e5 55 69 3d
       0.0069799833 -0.01892547 0.03277646 0.05696668
000090 05 97 25 bd 84 2e 20 3e 08 dd 06 be 3f 81 be bd
       -0.040427227 0.15642744 -0.13170254 -0.093019955
0000a0 a1 f8 33 be ce 12 dc 3d 1b 1b e2 3c 52 2a 31 3e
       -0.17575313 0.10745774 0.027600816 0.173013
0000b0 eb 28 c0 bd 55 35 9e bd 5c 79 62 3e e8 72 9c bd
       -0.093828045 -0.07725016 0.22116607 -0.07639104
0000c0 c3 15 9b bd df 4a dd 3a b1 32 95 3d 17 65 d6 bd
       -0.0757251 0.0016883275 0.07285059 -0.104685
0000d0 32 43 d5 3d fc cc 02 3e 97 43 97 3e 0c c0 25 3e
       0.10413207 0.12773508 0.29543754 0.16186541
0000e0 3f 48 4b bd 70 a6 7d bb 3b a5 41 3e c0 7f a4 3d
       -0.049629446 -0.003870394 0.18910687 0.08032179
0000f0 36 e7 60 3e fa fc 9e 3d 98 d2 f3 3d 01 b4 6a bd
       0.219632 0.07763095 0.11905402 -0.05730057

dist.0.linear.weight f4 [7, 64]
000000 28 d7 37 3e e4 83 8b 3e 57 b8 d9 be ea de b8 3d
       0.1795317 0.27249062 -0.42523453 0.090268925
000010 85 7d c0 be 94 10 d3 3e 31 e3 a8 bc 17 b0 6c bd
       -0.37595764 0.41223586 -0.020616146 -0.05778512
000020 2f 12 c3 bd fb 52 53 3c 1b f3 4d 3e 4a 27 a5 3d
       -0.095249526 0.012898202 0.20112269 0.080641344
000030 e2 5f d0 3e f6 9b 75 3e 80 fe 86 bd 47 45 8f bd
       0.40698153 0.23985276 -0.06591511 -0.069956355
000040 04 c8 06 be 92 25 93 bd b3 d6 16 be 7a 1a 8f bc
       -0.13162237 -0.071849 -0.14730339 -0.01746868
000050 2f f2 9f be f1 eb ef bc 76 7b cc 3d be 23 41 bd
       -0.3123946 -0.02928731 0.09984486 -0.047153227
000060 48 24 ef 3e 74 5a 6d 3e a0 bd a2 be 0e 1f 4c 3e
       0.46707368 0.23179036 -0.31785297 0.19933721
000070 8f b6 be 3e c7 61 1c be a4 42 ee 3d 99 df 63 3e
       0.37248656 -0.15271674 0.116338044 0.22253264
000080 fb 3f 85 be 30 ab 89 3e aa 8e 49 be ee d6 09 be
       -0.26025376 0.26888418 -0.19683328 -0.13460895
000090 dd ce 8b 3d 43 56 36 3d 67 d5 84 bd bb 06 9b 3e
       0.068265654 0.04451586 -0.06486016 0.30278572
0000a0 1e 2d 9f be f0 58 86 3e eb 2e ba be d1 b1 2a be
       -0.3108911 0.2623973 -0.3636392 -0.16669394
0000b0 fc 1b d3 be d7 1f 53 3e 71 da cc 3e 05 b9 39 be
       -0.41232288 0.20617615 0.40010408 -0.18136986
0000c0 9d f0 f2 be 99 43 7b bd 0f 9e 74 3d 24 1c 2c bb
       -0.47449198 -0.061343763 0.05972105 -0.002626189
0000d0 f1 e9 fd be 03 15 93 bd 36 2e 88 be 9e 1c a2 3d
       -0.49592546 -0.07181742 -0.26597756 0.079156145
0000e0 38 6c ba 3e 07 2f bd be 8a 8a 0b be 39 d3 4b 3e
       0.3641069 -0.36949942 -0.13627067 0.19904794
0000f0 24 6c 35 be c0 73 9a 3e be c6 9c 3e 20 de ed 3e
       -0.17717034 0.30166435 0.30620378 0.4645853
000100 f1 75 87 be 26 dd 9a 3e 43 ad 35 3d 02 92 9c 3e
       -0.2645717 0.30246848 0.04435469 0.30580145
000110 bb ed 9d 3e 2a db 1f be 78 8e f7 3e 2a 12 9e bd
       0.30845436 -0.15610948 0.48350883 -0.07718308
000120 ce 35 d3 bd 68 74 cd 3e 9a cb 8a be a9 7c a8 3d
       -0.10312997 0.40127873 -0.2710846 0.08226902
000130 25 54 82 be dc 05 f5 be 40 29 c3 bd 46 5e bf be
       -0.25454822 -0.47856033 -0.09529352 -0.37376612
000140 f0 8d d1 bc 6b 48 70 3d c2 5a 8f 3e 0f 7c e6 bd
       -0.025580376 0.058662813 0.2799893 -0.11254131
000150 a9 cc 58 be d8 6b 11 bf 38 90 3f 3e a8 9d 03 bf
       -0.21171822 -0.5680518 0.18707359 -0.5141244
000160 6c f3 d1 3e 5a 67 e7 3e 50 c3 03 3e 34 63 3c 3e
       0.4100603 0.45196038 0.12867475 0.18397218
000170 b0 09 85 3d c4 60 17 bd 41 5b 68 3e 85 14 0b bf
       0.06495988 -0.036957517 0.2269106 -0.54328185
000180 f2 56 3e 3d 0c ed e2 be c3 75 91 bd d9 6d b5 3d
       0.046469636 -0.44321477 -0.071025394 0.088588424
000190 1a e1 5d be bb 92 22 be 31 9b 9c bd f2 8d db 3e
       -0.216679 -0.15876286 -0.07646788 0.42881733
0001a0 69 d6 d0 bd 83 e9 ea 3d 18 3a 50 be 71 26 3b 3e
       -0.101971455 0.1147032 -0.20334661 0.18276383
0001b0 e0 d1 35 3e d3 58 af be fb 8e 93 3e d0 9e 99 bd
       0.17755842 -0.34247455 0.28820023 -0.07500994
0001c0 2c 74 27 be ed 0c a9 bc 3f be e5 bd eb 06 3f 3e
       -0.1635291 -0.020636046 -0.11217927 0.18654983
0001d0 5d 6a a0 3e e6 2a b0 be 07 13 9c bd be 22 a8 3e
       0.3133115 -0.3440773 -0.07620817 0.32839006
0001e0 35 76 a6 3b ba a7 1e be 5c b9 92 bc 3a 9f 43 3e
       0.0050800093 -0.1549367 -0.017910652 0.19103709
0001f0 ce a9 43 3e a6 d6 91 be 18 74 70 be 64 07 7b bd
       0.19107744 -0.28484076 -0.23481786 -0.061286345
000200 c0 8b 24 bc 56 0d 20 bf ef b1 9b 3e 33 67 a7 3e
       -0.010043085 -0.6252035 0.3040919 0.32695922
000210 3a c1 13 bb c5 fb 23 3e 66 11 2b be 27 03 2c 3f
       -0.0022545592 0.16014011 -0.16705856 0.6719231
000220 0e c4 10 be 4f ef 2a be 07 89 02 bd 5b ea 7f 3e
       -0.14137289 -0.16692851 -0.03186896 0.24991743
000230 54 64 80 3d 92 56 cc 3e d0 80 db 3e 2f 5e d2 3d
       0.06269136 0.39909798 0.42871714 0.1027187
000240 5c 26 be bd 57 0f 42 3d 89 45 12 3e 8d 71 e0 bd
       -0.0928466 0.04737791 0.14284338 -0.10959158
000250 9e 8b f3 3d e9 d0 1a 3f d7 a2 bc 3e db 9a d6 3c
       0.11891864 0.6047502 0.36842987 0.026196888
000260 e0 77 5e be a6 69 dc be 7a 18 3f 3e dd 51 c6 3d
       -0.21725416 -0.43049353 0.18661681 0.09683583
000270 e1 54 63 be 76 55 77 3e 99 b0 01 be 2d 87 cc 3e
       -0.22200347 0.24153695 -0.12665023 0.3994688
000280 e9 95 c6 3e 21 ad 5d bc 12 bd cd 3e 7d 3f 3e be
       0.38786247 -0.013530047 0.40183312 -0.18578906
000290 ad 55 81 3e e9 d5 8a be a4 a7 5d be 82 9f eb be
       0.25260678 -0.27116325 -0.21645981 -0.46020132
0002a0 3b 56 51 3e b3 40 9a 3d 0a b9 17 be 53 79 57 bd
       0.2044305 0.07531872 -0.1481668 -0.05260594
0002b0 5f 63 3e 3d a2 b9 4a 3e 5d dd ce be 00 45 ba 3e
       0.046481486 0.19797376 -0.40403262 0.36380768
0002c0 eb 35 1c 3f 83 32 09 bc 43 8b 29 be 8f 90 8b 3e
       0.6101977 -0.008373859 -0.1655703 0.27258727
0002d0 a0 73 b9 3e 7a 0e c2 3e 3b 41 7d 3d 34 8e 85 3e
       0.36221027 0.3790167 0.061829787 0.26085055
0002e0 ad 94 5b be 40 e7 cb 3d f4 60 d7 bd cc 41 4f 3d
       -0.21443434 0.09956217 -0.10516539 0.05059986
0002f0 58 02 86 3e a4 ac 5d 3e 8b 70 67 3e 2e 50 e6 be
       0.26173663 0.21647888 0.22601525 -0.44983047
000300 eb f0 8f bc 5c 96 d3 bd f1 27 a4 bd 5b 2d 03 bf
       -0.017570933 -0.10331413 -0.08015431 -0.5124108
000310 57 21 e4 be b6 ba c8 bd e8 17 ff bd c9 f9 6e be
       -0.44556686 -0.09801237 -0.12455732 -0.23337473
000320 3d 97 0b 3d ee 9b 61 bd 72 b7 72 bd 98 de d4 3c
       0.03407978 -0.055080347 -0.05925698 0.025985047
000330 2c 80 ab bd f8 fe e2 3c 84 1d a4 be 0c a9 a2 bc
       -0.08374056 0.02770947 -0.3205377 -0.019855998
000340 9a c9 fc bc 76 2d b6 be dd ea 36 3d d8 53 31 3d
       -0.03085785 -0.3558156 0.044657577 0.04329285
000350 9b 5f e8 3d 1a 26 18 be 61 df 10 be a8 32 9a 3e
       0.1134636 -0.14858285 -0.14147712 0.30116773
000360 fd a6 89 be 02 9a 3b be 45 3b 80 bd 8b d8 ca be
       -0.26885214 -0.18320468 -0.06261305 -0.39618334
000370 90 10 bf bb 65 b4 8d be 75 d7 50 be 19 fc 10 3e
       -0.005830832 -0.27676693 -0.2039469 0.14158668
000380 a7 b2 b7 be 9c 3b 1a 3d 98 49 de be 7e 75 83 bd
       -0.35878488 0.037654504 -0.43415523 -0.06418894
000390 e5 c3 18 3e 06 c8 8f bd 46 30 b6 3c 03 a8 92 be
       0.14918478 -0.07020573 0.022239815 -0.28643808
0003a0 b7 16 7c bd 6c 2f 9e be fb 28 fa 3e 2c af 36 be
       -0.0615451 -0.30895555 0.4885939 -0.1784026
0003b0 21 b2 2f 3d c9 38 5b be 52 b7 ad bd 7c 81 a7 3d
       0.042894486 -0.2140838 -0.08482231 0.08178994
0003c0 ee a4 3f be ea 00 3d be a2 e0 18 3e 09 9f 61 3a
       -0.1871526 -0.1845738 0.1492944 0.0008606767
0003d0 33 f5 cb be 24 5e 2f bc 70 bb 38 3e e2 50 ee be
       -0.3983551 -0.010703597 0.18040252 -0.46546084
0003e0 8c 79 ba bd 3c d0 82 bd d7 02 ec bd 11 1c 42 be
       -0.091052145 -0.06387374 -0.11523979 -0.18956019
0003f0 59 01 fd bd 03 d1 05 3e 1b 39 b2 be 87 b1 bf bd
       -0.12353773 0.13068013 -0.34809193 -0.093600325

dist.0.linear.bias f4 [7]
000000 42 ab dc 3d 19 be 50 3e 74 f5 86 3e 0f a6 64 bb
       0.10774852 0.20385017 0.2635914 -0.0034889018
000010 fd d2 f2 bd 45 c1 8d bd ea af b3 bd
       -0.11856649 -0.06921629 -0.08773787

dist.1.linear.weight f4 [7, 64]
000000 b8 1e b3 b7 49 94 99 b9 0a 3a a4 3a 81 6f a3 b9
       -2.1352767e-05 -0.00029292915 0.0012529504 -0.0003117286
000010 d3 9d 27 3a 7d 51 9c b8 52 18 75 3b 50 6f 0a bb
       0.0006394062 -7.453838e-05 0.003739853 -0.0021123476
000020 06 2a aa 39 04 e4 e3 ba ba 16 12 ba f3 3f 71 b7
       0.00032456237 -0.001738668 -0.00055728445 -1.4379609e-05
000030 a4 bb 2f b6 80 e2 10 bb e7 ba be 39 32 3c b0 39
       -2.6186253e-06 -0.002210766 0.00036378877 0.00033614185
000040 bb b4 cc 3a 72 03 1e 3b 0a 51 72 b9 80 da 70 3b
       0.0015617827 0.002411094 -0.00023109108 0.003675133
000050 21 91 aa 3a 6e 67 ae 3a 5a 16 9a 38 1b 55 b2 3a
       0.0013013222 0.0013305971 7.3474555e-05 0.0013605686
000060 c9 ab 31 3a f0 f8 27 3a 57 28 b7 b9 70 3d 4a ba
       0.0006777612 0.0006407639 -0.00034934536 -0.00077148434
000070 92 f9 01 3a bd 7a 73 b9 bb 9b 16 bb 58 b8 06 3a
       0.00049581483 -0.0002322001 -0.0022981006 0.00051391637
000080 e8 dc 9e b9 bb bb 6f ba a2 93 8d 39 90 21 01 3a
       -0.00030300696 -0.00091451005 0.0002700361 0.00049259607
000090 f3 dd d4 ba 24 5e 0b ba a9 25 9c b9 ae 22 5b ba
       -0.0016240462 -0.0005316457 -0.00029782698 -0.00083593547
0000a0 e3 52 8c ba 2a a5 e2 ba c2 09 38 b7 15 60 56 39
       -0.0010705855 -0.0017291654 -1.0969527e-05 0.00020444424
0000b0 e3 5f 6f 3a 15 17 9c b8 aa fd 76 3a b2 13 c1 3a
       0.00091314147 -7.442959e-05 0.0009421954 0.0014730601
0000c0 dc e4 8a 3a d2 41 78 39 64 75 45 3a 79 ff 21 39
       0.001059677 0.00023675643 0.0007532446 0.00015449327
0000d0 3b d7 28 3a 1b c9 9d ba b6 95 98 ba 77 be 17 3b
       0.0006440763 -0.0012038084 -0.0011641297 0.0023154297
0000e0 09 f9 24 3a d0 3e 7d b8 4a 45 d6 3a eb a9 40 39
       0.00062932126 -6.03784e-05 0.0016347554 0.00018373846
0000f0 70 3b e8 3a 18 e1 08 bb 93 90 a4 ba d8 11 59 ba
       0.0017717909 -0.002088612 -0.0012555294 -0.0008280552
000100 3b d8 b6 3a 7e 2e 2b 3b 47 5e 8d 3a e5 d5 e0 3a
       0.001394994 0.002612024 0.0010785543 0.0017153589
000110 00 35 b5 ba 8b dd 93 39 d6 ea 12 bb 78 a6 be 3a
       -0.0013824999 0.00028203087 -0.0022417805 0.0014545461
000120 70 38 cd 39 f4 75 2b ba 20 f5 11 bb 5c 84 72 3a
       0.00039142696 -0.0006540709 -0.002227135 0.00092512905
000130 47 0a cb b8 d0 84 0b bb 05 4f f5 3a 99 6a b9 39
       -9.6817086e-05 -0.002128888 0.0018715566 0.0003536537
000140 3c a5 5a 3a 7e 71 ac ba 2d a3 36 ba 1d bf 6d 3a
       0.0008340662 -0.0013156382 -0.0006967064 0.00090693106
000150 69 f5 74 ba d2 0c e7 b9 db 99 f3 b9 7c 6f c2 ba
       -0.00093444303 -0.00044069305 -0.00046463203 -0.001483425
000160 4e b7 1e ba 72 5d ff b9 54 42 ee ba bc 0c e5 3a
       -0.0006054536 -0.00048707012 -0.0018177726 0.0017475109
000170 3b eb 81 ba db 0c 5b bb c1 3a c8 38 06 d1 10 3b
       -0.0009912023 -0.003342441 9.547687e-05 0.0022097244
000180 26 0a b3 3a 45 d7 2c 3a ff 9b 84 ba dd 50 3f 3a
       0.0013659641 0.0006593357 -0.0010117291 0.00072981213
000190 bb 85 82 ba 87 40 0c ba 34 14 bb 3a 78 30 be 39
       -0.0009958068 -0.00053501915 0.0014272989 0.00036275736
0001a0 af 79 9e 3a 62 00 8e 39 f4 de 0d 3b 73 18 36 ba
       0.0012090708 0.00027084636 0.0021647783 -0.0006946392
0001b0 02 23 ad 39 c7 7b 8c b8 26 e7 8e 39 48 cf a1 ba
       0.00033023214 -6.6987755e-05 0.0002725657 -0.00123451
0001c0 ed 3a ae 3a 05 e4 eb 39 2e 57 5e 39 45 7b c1 3a
       0.0013292708 0.0004499258 0.00021204047 0.0014761469
0001d0 c9 d0 3a b7 59 08 52 b9 c7 bd 43 3a 87 10 f7 3a
       -1.11350755e-05 -0.0002003027 0.00074669387 0.001884953
0001e0 f9 3e 30 3a 12 a1 62 38 28 d0 8f ba 29 ea bd ba
       0.0006723251 5.4032607e-05 -0.001097207 -0.0014489341
0001f0 b2 40 cf 3a f7 53 16 ba 22 ef 9e ba 65 b3 93 b9
       0.0015812127 -0.00057345576 -0.001212571 -0.00028171684
000200 77 cc c1 39 5b 05 58 bb d6 d9 07 3b 08 8c 17 ba
       0.00036964167 -0.0032962176 0.0020729206 -0.0005781059
000210 82 64 2e 3b b4 c2 6f ba ce 43 65 b9 69 bd 0c 39
       0.00266102 -0.00091461395 -0.00021864401 0.00013422001
000220 86 53 ee b9 49 a5 84 b8 98 d0 af 3a 2f 21 0a b9
       -0.00045457127 -6.325037e-05 0.0013413606 -0.00013173067
000230 50 ee 45 ba 6b ff 8d ba b0 fc 14 ba d4 6f 08 3a
       -0.0007550465 -0.0010833567 -0.00056834053 0.0005204652
000240 f2 82 86 3a 38 a4 2f ba f0 b8 94 39 99 c4 dd ba
       0.0010262413 -0.0006700191 0.0002836655 -0.0016919553
000250 4b 1f 33 b9 07 68 24 3a 10 69 93 ba 72 b0 68 ba
       -0.00017082428 0.0006271605 -0.0011246521 -0.000887639
000260 e1 ee 29 37 5e cd 32 3b e4 17 a9 ba e3 38 6c ba
       1.0128803e-05 0.0027283053 -0.0012900797 -0.00090111623
000270 35 d0 3f ba f7 dd 44 bb 52 f8 ab 3a 25 c9 f4 ba
       -0.0007317097 -0.0030039528 0.001312027 -0.0018675668
000280 e2 7a 96 ba 41 48 07 3b 64 6c 99 ba eb 54 f6 39
       -0.0011480714 0.0020642432 -0.0011705277 0.00046984045
000290 0c 2e 6a b9 cb 40 fb 38 e4 28 98 3a 73 f5 d2 ba
       -0.00022333133 0.00011980681 0.0011608866 -0.0016094878
0002a0 c9 0f a1 3a ce 22 17 ba 26 8e a6 3a 90 32 cb ba
       0.001228803 -0.0005765379 0.0012707158 -0.001550274
0002b0 48 d1 9e 39 79 d7 4c ba e2 5e 11 ba d6 14 81 b8
       0.00030292035 -0.00078140903 -0.00055454497 -6.15508e-05
0002c0 3d 35 68 39 95 d6 47 3a 6c 90 4e 3b 19 17 05 bb
       0.00022145077 0.0007623223 0.0031519188 -0.0020307957
0002d0 c0 fc 1b 3a f5 13 97 37 d8 ad ee ba 82 06 7d 38
       0.00059504434 1.8009896e-05 -0.0018209768 6.032596e-05
0002e0 bc 83 54 39 84 2f 0e ba f3 d7 75 ba 47 37 16 3a
       0.0002026697 -0.00054239505 -0.0009378187 0.0005730283
0002f0 4e b1 29 ba f8 dd 47 ba 86 89 83 39 8a c2 9a 3a
       -0.0006473259 -0.00076243235 0.0002508873 0.0011807245
000300 e0 3c ec 3a db 64 c9 39 05 66 7a 39 82 a1 6b ba
       0.0018023513 0.0003841285 0.00023879863 -0.0008988605
000310 4e 87 a4 39 37 9c 2f b7 93 cd 37 39 de 0a ce 39
       0.00031381327 -1.0467184e-05 0.00017528822 0.00039299479
000320 0e 17 71 3a c0 7c 07 3b e4 ae 1e bb 08 14 98 3a
       0.0009196856 0.0020673722 -0.002421313 0.001160265
000330 02 b2 ed ba 68 dd 0f b9 14 4f bd b9 0d b7 17 3b
       -0.0018134716 -0.00013720023 -0.00036107807 0.0023149878
000340 5d 7e 7c ba 1b c2 fc 39 96 cb 21 3a 5e 1e b6 ba
       -0.00096318667 0.00048209805 0.0006171999 -0.0013894548
000350 1d 5e e7 b9 e3 1e 6b 3a 9a da 01 ba 0c c8 f7 3a
       -0.00044129873 0.0008969141 -0.00049535336 0.0018904223
000360 ff f6 81 ba f9 3d 01 bb 8c c7 68 3b 78 92 c9 ba
       -0.000991553 -0.0019720776 0.003551933 -0.0015378734
000370 b4 9a 7b 3a 07 e9 ee ba fc 01 b8 b9 68 40 19 3a
       0.00095979427 -0.0018227407 -0.00035096693 0.0005846084
000380 95 fd c1 ba 74 df ff 3a 96 c3 96 ba 59 88 fa ba
       -0.0014800305 0.001952155 -0.0011502381 -0.0019114121
000390 7e a1 99 3a 05 71 a8 39 6a 26 b6 39 b7 7f c9 ba
       0.0011721102 0.00032127663 0.00034742366 -0.0015373145
0003a0 58 8b 81 3a 4b fc 00 ba 85 a3 29 ba 6d 40 b9 3a
       0.0009883447 -0.0004920407 -0.00064712047 0.001413358
0003b0 9d ef b7 ba 10 3d 07 ba 77 7f cd ba 6f 95 1c 39
       -0.0014033202 -0.00051589403 -0.0015678246 0.00014932988
0003c0 c2 dc fe 39 01 0b a0 ba db af 40 39 c7 9a 67 ba
       0.00048611133 -0.0012210311 0.00018376058 -0.00088350143
0003d0 be 5b 20 ba 03 9d 7a b9 5c 67 6f 3a 62 0e 06 3a
       -0.0006117186 -0.0002390035 0.0009132528 0.00051138375
0003e0 4f 4c ec ba b3 9d 25 ba d0 46 e7 3a cf 4b 31 ba
       -0.0018028113 -0.00063177495 0.0017645005 -0.00067633105
0003f0 8c 21 1b 3b 9b cd 50 ba 58 28 53 ba 54 9f e6 b8
       0.0023671119 -0.0007965208 -0.0008055023 -0.00010996932

dist.1.linear.bias f4 [7]
000000 00 00 00 00 00 00 00 00 00 00 00 00 00 00 00 00
       0.0 0.0 0.0 0.0
000010 00 00 00 00 00 00 00 00 00 00 00 00
       0.0 0.0 0.0

dist.2.linear.weight f4 [7, 64]
000000 5c ff 65 b9 0d 27 3b b8 0f 5f 51 ba 0e 4c 67 39
       -0.0002193427 -4.4620643e-05 -0.0007986882 0.0002205821
000010 62 57 8e 39 8b 75 de 3a 12 1b bf 39 b0 ee 59 ba
       0.00027149456 0.0016972286 0.00036450528 -0.000831346
000020 80 33 8e 3a 7d fb 9a ba a1 14 e0 ba 84 ec b1 b9
       0.0010849088 -0.0011824217 -0.0017095992 -0.0003393629
000030 be 1f ec b9 4f 88 c0 ba e2 d8 d8 ba e2 56 18 ba
       -0.00045037078 -0.0014689061 -0.0016544128 -0.00058112864
000040 26 94 4a bb 35 cb 12 3b c5 15 df 3a 46 1e e1 ba
       -0.0030911057 0.0022398953 0.0017020038 -0.001717516
000050 a0 40 ee b9 57 6f 4e 3a 4a 36 a5 ba 77 9b cb ba
       -0.00045443047 0.00078748673 -0.001260468 -0.0015534003
000060 e5 8d 4d ba 20 7f 07 39 59 bd 58 ba 0a 62 87 ba
       -0.00078412733 0.00012921961 -0.0008267961 -0.00103289
000070 45 63 03 3a 44 36 ab 39 34 65 f7 b9 54 fa 15 3b
       0.0005012046 0.00032656093 -0.00047186913 0.0022884803
000080 b8 b0 bb ba 00 97 95 b9 bd 34 60 38 c2 b0 af 3a
       -0.0014319634 -0.00028531998 5.3454878e-05 0.0013404118
000090 2d 14 bd 3a 1d a2 e4 ba 69 99 0c 3b ea 8b 67 bb
       0.0014425569 -0.0017443333 0.0021453744 -0.0035331198
0000a0 30 9a be 3a 29 1c 07 3b 9d da 1e ba cd 93 b2 b7
       0.0014541801 0.002061615 -0.00060597976 -2.1288079e-05
0000b0 ab 9f 15 ba 12 ca 25 ba 8c 9e 64 3a 69 bc 13 3b
       -0.00057076913 -0.00063243613 0.0008721135 0.002254272
0000c0 cb cb 1e 3a 59 ef 5c 39 8e c9 05 3a 2a 2e 81 b9
       0.0006057589 0.00021069999 0.00051035814 -0.00024639192
0000d0 0f 07 a0 ba e4 3f a6 b9 9e 7f 25 b9 1c c3 3b 3a
       -0.0012209135 -0.0003170959 -0.00015783167 0.00071625574
0000e0 52 d1 a0 b9 36 34 96 b9 1d e6 2a b9 80 ca 60 3a
       -0.00030673534 -0.0002864913 -0.00016298187 0.0008575097
0000f0 22 5a e3 ba e5 32 76 b9 49 d8 0d bb bb 3a a8 37
       -0.0017345587 -0.00023479348 -0.0021643809 2.005451e-05
000100 dd cd bd b9 70 df 7a ba 44 74 df ba e3 e3 f3 39
       -0.0003620227 -0.0009570038 -0.00170482 0.0004651836
000110 77 53 83 3a 08 2c 89 3a f6 b1 81 ba a9 95 75 3a
       0.0010019381 0.0010465393 -0.0009894955 0.00093683094
000120 22 ed 9d ba 2b e6 0b ba 9c b6 a7 39 cd ab b3 b9
       -0.001204882 -0.0005336727 0.00031988777 -0.00034269542
000130 8e 4d bf ba ac 7b 11 ba 38 9f a6 3a 1b 44 86 3a
       -0.0014595257 -0.00055497396 0.0012712246 0.0010243686
000140 b3 41 f7 b9 b2 b3 d6 b9 40 a6 ee 39 a0 ce b8 b9
       -0.0004716046 -0.00040951144 0.00045518763 -0.00035249162
000150 dd ee 22 3b 3b 5a 05 b9 5e 69 9a b8 54 d8 63 3a
       0.0024861612 -0.00012717482 -7.3629184e-05 0.0008691598
000160 62 06 a2 b9 da bd 03 b9 33 e9 d5 ba c3 ef 1b ba
       -0.00030903803 -0.00012563859 -0.0016320109 -0.0005948508
000170 61 93 79 38 84 ac 27 bb c4 e8 61 ba 95 5e e5 b9
       5.9503483e-05 -0.0025585005 -0.00086177536 -0.00043748753
000180 f0 7b eb 3a 2a 4f e8 3a fd 34 2b 3b 84 30 45 3a
       0.0017966013 0.0017723788 0.0026124113 0.0007522183
000190 2b b0 01 bb 18 8d 36 ba 6c 54 7e 3a 75 49 52 3a
       -0.0019788842 -0.00069637736 0.0009701911 0.000802181
0001a0 47 88 ac 39 90 42 0a 3b 6c 6d 62 ba 74 52 35 3b
       0.0003290793 0.0021096803 -0.0008637521 0.0027667554
0001b0 03 48 9c 3a b5 13 5d b9 41 9c 5d b9 a3 8d 18 3a
       0.0011923317 -0.00021083544 -0.00021134412 0.00058194454
0001c0 ac a3 03 3a c3 ce 01 bb 69 19 20 3b 33 79 e8 3a
       0.00050216424 -0.0019807077 0.0024429208 0.0017736315
0001d0 c0 8e 5a 38 68 05 20 3b 4b bd cc 38 66 bf be 3a
       5.2108197e-05 0.0024417285 9.7627366e-05 0.0014552891
0001e0 fd 5c ab 3a 60 47 4d ba 07 1e b0 3a 05 b7 e7 ba
       0.0013073977 -0.0007830765 0.0013436683 -0.0017678445
0001f0 d0 84 70 39 27 f9 ec 3a 36 15 2c 38 30 06 d8 38
       0.0002293766 0.0018079624 4.102775e-05 0.00010300835
000200 3c fa fc 3a 84 de 3d ba c6 1b 9e 39 4a 4b 36 39
       0.001930065 -0.0007242935 0.000301568 0.0001738492
000210 c9 d5 87 3a 20 d9 94 39 73 53 5c b7 4a ff 06 b9
       0.0010363396 0.0002839053 -1.3132451e-05 -0.00012874338
000220 d3 67 b5 ba fb 24 0f bb 20 b6 ed 3a 00 56 36 ba
       -0.0013840146 -0.002184211 0.0018135943 -0.0006955564
000230 77 ff 70 ba 3b 5c f2 b9 0a af 69 3a 00 fa a3 39
       -0.00091933407 -0.00046226554 0.00089143275 0.00031276047
000240 ed 10 05 bb ef 03 fc ba 49 50 37 b9 9d 73 ab 3a
       -0.0020304278 -0.0019227247 -0.00017482149 0.001308072
000250 45 8f 2b bb 57 ec 3d 3a 95 21 4e ba a4 a9 94 bb
       -0.0026177925 0.0007244995 -0.00078632805 -0.0045368243
000260 24 76 09 3a c0 da 0f 3b 8e 27 68 3a 65 1a bb ba
       0.00052437396 0.0021950454 0.0008855992 -0.0014274834
000270 99 e0 95 3a 7a 0f 1d 3a 8f 9c 3b 36 85 89 50 ba
       0.0011434733 0.0005991381 2.79563e-06 -0.00079550623
000280 ab 9c 18 39 0f 12 d0 3a 72 77 0b 3b 39 e3 2f 3a
       0.00014554213 0.0015874523 0.0021280912 0.0006709579
000290 64 c9 ca 39 22 58 b1 ba eb 63 ce b9 50 40 70 3a
       0.0003867849 -0.0013530294 -0.00039365827 0.0009164857
0002a0 5b 28 13 bb db 85 3d ba bc 3a 83 b9 3c f2 c3 39
       -0.0022454474 -0.0007229724 -0.00025030028 0.00037373777
0002b0 e9 fb 39 3a 6a 42 16 ba 6b 43 f7 ba 7a 97 9e b9
       0.00070947275 -0.00057319424 -0.0018864697 -0.00030248967
0002c0 90 bb fe 3a aa 21 ce 3a 69 11 3c 39 90 aa 13 ba
       0.001943456 0.0015726585 0.00017935563 -0.0005633021
0002d0 7d 11 20 39 3d 33 ab ba d5 65 da 39 a5 21 70 b9
       0.00015265304 -0.0013061535 0.0004165607 -0.00022900717
0002e0 1c f2 2d 3a 52 90 fe 39 b7 c0 87 39 7f 3f 00 3a
       0.00066355034 0.00048554182 0.0002589279 0.0004892274
0002f0 a7 7d 7d 3a 20 f3 07 b8 9e 68 e6 b9 5d f9 c5 3a
       0.0009669908 -3.2412936e-05 -0.00043946964 0.0015104223
000300 8d cb 87 3a 83 8f 78 ba bf 9b 8f b9 ef 13 32 39
       0.0010360345 -0.0009481834 -0.00027391125 0.00016982829
000310 10 9b c5 ba 0e a7 b9 ba 93 88 b1 ba c4 c7 93 ba
       -0.001507612 -0.0014164166 -0.0013544731 -0.0011274745
000320 f2 83 c0 3a 21 b8 a7 b8 6b d3 65 ba b4 19 ad ba
       0.001468776 -7.997477e-05 -0.00087671605 -0.0013206513
000330 2f 4a fd 39 cb 0e 6c 3a aa 57 18 ba 82 ef 51 bb
       0.00048311191 0.000900489 -0.0005811403 -0.0032033627
000340 98 84 5f ba 27 50 af ba 80 4f 04 39 cc 7e 71 b9
       -0.0008526533 -0.0013375328 0.00012618117 -0.00023030787
000350 ce 89 d7 b8 82 2c eb ba 47 5f 55 ba c2 5c 86 b9
       -0.00010277667 -0.0017942342 -0.00081395026 -0.00025627582
000360 04 78 3d 3a cd fe 1c ba 8c 73 12 3a ef 39 37 38
       0.00072276616 -0.0005988896 0.0005586676 4.3684555e-05
000370 96 ec 0f 3b c7 aa c4 39 0a 10 26 3b be 9d 22 ba
       0.0021961085 0.00037511272 0.002533915 -0.0006203315
000380 4c 00 6d 38 ab 7a 7f 3a be 6e 1f 37 72 97 a0 b9
       5.650548e-05 0.0009745757 9.502923e-06 -0.00030630414
000390 35 dc cb b9 27 55 b7 39 50 d3 03 ba e5 22 ca ba
       -0.00038883244 0.00034967923 -0.00050287414 -0.0015421776
0003a0 aa f0 df 39 10 35 a5 b9 79 9d 3b 3b fe 3e 18 b8
       0.00042713183 -0.00031510787 0.0028627797 -3.629829e-05
0003b0 e7 87 93 ba b7 a2 e5 3a 0c cf d6 ba ac aa 5d 39
       -0.0011255712 0.0017519806 -0.0016388609 0.00021139783
0003c0 07 d3 1a 3b 00 b1 3f ba 24 2f 2b 3a ec 9d 99 3a
       0.0023624317 -0.0007312447 0.0006530157 0.0011720038
0003d0 49 6b 64 38 fb 3a 27 3b 01 e8 c0 3a 3f df 01 ba
       5.4459353e-05 0.0025517333 0.001471758 -0.0004954226
0003e0 c1 b9 dc ba 6a 88 15 bb 92 ea 5a ba e2 84 c1 ba
       -0.0016840027 -0.0022816905 -0.0008350994 -0.0014764334
0003f0 e6 5f d5 ba 79 0a ae 3a 82 1b 7b 3a 01 f9 be 3a
       -0.001627919 0.0013278268 0.0009578989 0.0014570059

dist.2.linear.bias f4 [7]
000000 00 00 00 00 00 00 00 00 00 00 00 00 00 00 00 00
       0.0 0.0 0.0 0.0
000010 00 00 00 00 00 00 00 00 00 00 00 00
       0.0 0.0 0.0
