BLIP/RL/trained_models/ppo/2023-01-21_minigrid-tb-ewc-5e5-redbluedoor-lavagap-doorkey-wallgap_ewc_2_lamb_5000.0_task_0.pth (torch, 732265 bytes, 16 tensors)

features.actor.0.weight f4 [64, 2739]
0	0x3ddadcac	0.10686621
1	0x3dd36891	0.10322679
2	0xbe6f123e	-0.23346803
3	0x3ddbf134	0.10739365
4	0xbd1b5244	-0.03792025
5	0xbe1f97a5	-0.15585192
6	0xbdd7f440	-0.10544634
7	0xbdaab0d7	-0.08334511
8	0x3d2746f5	0.040839154
9	0xbb078d2c	-0.002068351
10	0xbcab8dda	-0.020941664
11	0xbd704782	-0.058661945
12	0xbd781ebc	-0.060576186
13	0x3d3e7199	0.046495054
14	0x3d98b112	0.074556485
15	0xbc0dafe2	-0.008647891
16	0x3c9d26b4	0.019183494
17	0x3da4b05b	0.0804145
18	0x3c86fecc	0.016478918
19	0xbbfa4c83	-0.0076385154
20	0xbd228efe	-0.03968715
21	0x3d6fca78	0.0585427
22	0xbd9e8843	-0.077408336
23	0xbde898fa	-0.11357303
24	0x3d95fd0c	0.073236555
25	0x3d8bfabf	0.068349354
26	0xbe359881	-0.17733957
27	0xbcab7203	-0.020928388
28	0xbdd62727	-0.104566865
29	0x3d4acde4	0.04951276
30	0x3daaf510	0.08347523
31	0x3dfc77d8	0.12327546
32	0x3d4157fc	0.04720305
33	0x3d9753d9	0.073890395
34	0x3d48e5c2	0.04904724
35	0x3e15c891	0.14627291
36	0xbd7ffff4	-0.062499955
37	0x3e076796	0.13223109
38	0xbc91127a	-0.017709006
39	0xbc1b318b	-0.009472261
40	0x3ce9b4a0	0.028528512
41	0x3c8c6482	0.01713777
42	0x3dc238a5	0.0948346
43	0x3d774724	0.06037058
44	0xbdc44fa7	-0.09585505
45	0x3de420d4	0.11139074
46	0x3dab5f45	0.083677806
47	0xbe016e38	-0.12639701
48	0x3e080697	0.13283764
49	0x3d873b11	0.06603063
50	0x3dc6a17b	0.09698769
51	0x3ccb2843	0.024799472
52	0x3dd5062c	0.10401568
53	0xbddebdbf	-0.10876035
54	0xbd80be51	-0.062863
55	0x3d824be5	0.06362132
56	0xbe08a0bd	-0.13342567
57	0x3c669464	0.014073465
58	0x3ea2febe	0.31834978
59	0x3d67a91a	0.056557752
60	0xbd8265c8	-0.063670695
61	0x3c6777bd	0.014127669
62	0x3de62200	0.11236954
63	0x3dd00250	0.10156691
64	0x3b67640c	0.0035307435
65	0xbd9a59b9	-0.075366445
66	0x3df0ca91	0.117573865
67	0xbc260bf6	-0.010134688
68	0xbe40abc4	-0.18815523
69	0x3dddb57e	0.108256325
70	0x3e1d5068	0.15362704
71	0xbdd1af03	-0.10238459
72	0xbd4a538c	-0.049396083
73	0x3ecd8534	0.40140688
74	0xbe780bed	-0.242233
75	0xbd26e9e1	-0.040750388
76	0x3e4c6ce7	0.19963418
77	0xbded7df9	-0.11596293
78	0x3e6c5978	0.23081005
79	0xbc4669cb	-0.012110184
80	0x3d631e70	0.05544895
81	0x3e1ae81f	0.1512761
82	0x3b9e9f8c	0.004840797
83	0x3cbd3bb2	0.023099754
84	0x3d930aea	0.07179816
85	0x3d4b9be7	0.049709227
86	0xbe050ecc	-0.12993926
87	0x3de5e323	0.112249635
88	0x3e11a25d	0.14222093
89	0xbe878a45	-0.2647268
90	0x3dc0eb88	0.09419924
91	0x3ea24121	0.31690314
92	0x3c9b5bc2	0.018964652
93	0xbc5605fd	-0.013062951
94	0x3d6c4ce0	0.0576905
95	0xbe94a83c	-0.29034603
96	0xbc4ff13f	-0.012691795
97	0xbd107e1a	-0.03527651
98	0x3e9735ab	0.29533133
99	0x3cd2aa49	0.025715964
100	0xbd486612	-0.048925467
101	0x3d7e74e5	0.062123198
102	0x3d35865a	0.04431758
103	0xbf75430b	-0.95805424
104	0x3e159d22	0.14610723
105	0x3d6af8c0	0.057366133
106	0x3ceb1223	0.028695172
107	0xbe56c251	-0.20972563
108	0x3d06735a	0.03282485
109	0x3c0db92f	0.008650108
110	0xbe24566a	-0.1604859
111	0x3d444904	0.047921196
112	0x3db6689f	0.08906674
113	0xbd5b8ec4	-0.05360295
114	0x3ddabd7e	0.10680674
115	0x3de3bb01	0.111196525
116	0x3cef06cc	0.029178046
117	0x3c1aecc9	0.009455868
118	0x3db49dbf	0.0881915
119	0x3e08dc56	0.13365301
120	0x3cc81ca4	0.02442772
121	0x3e98c55d	0.29838076
122	0xbde49b47	-0.11162429
123	0x3d95694e	0.07295476
124	0x3bb1f6d7	0.005431037
125	0x3e2596a9	0.16170754
126	0x3d8fb588	0.07017046
127	0xbd366bb5	-0.04453631
128	0xbdea33dd	-0.114356734
129	0xbd3e9d91	-0.046536986
130	0xbd961d54	-0.07329813
131	0xbe600487	-0.21876727
132	0x3d8a9ae1	0.06767822
133	0x3dada79e	0.08479236
134	0x3d910fd8	0.070831
135	0x3d01a460	0.0316509
136	0x3e17d318	0.1482662
137	0xbe1c6b1e	-0.15275237
138	0x3c97a892	0.018512998
139	0x3cdc4dd6	0.026892584
140	0xbdd5b68e	-0.1043521
141	0xbd0e7509	-0.034779582
142	0x3e968dd1	0.29405072
143	0xbdd21c61	-0.10259319
144	0x3d939906	0.07206921
145	0x3d54d037	0.05195638
146	0x3e4fc7e6	0.20291099
147	0x3c8c9e6d	0.017165387
148	0xbd73d6e3	-0.059531104
149	0x3c04e9c2	0.008112373
150	0x3d8bebfa	0.06832118
151	0x3d1faf8e	0.03898578
152	0xbc266967	-0.010156966
153	0x3c2a2143	0.010383907
154	0xba4d19e7	-0.0007823989
155	0x3d4ee537	0.050511565
156	0xbb8ffa2b	-0.004393836
157	0xbbfe82ec	-0.007767072
158	0x3c32fb3d	0.010924158
159	0xbcfafb25	-0.030637333
160	0x3c9924c5	0.01869429
161	0x3d7a8a3a	0.06116698
162	0x3a8008c4	0.0009768237
163	0x3a5ccf3f	0.0008423216
164	0xbc101400	-0.008793831
165	0x3d003c30	0.0313074
166	0xbc99dbd2	-0.018781576
167	0xbb5f8f8c	-0.003411266
168	0xbc9ffbd0	-0.019529253
169	0x3cffd26c	0.031228267
170	0x3c98fc73	0.018675065
171	0x3b30b945	0.0026965898
172	0xbc12adbd	-0.008952555
173	0x3bbc7d3e	0.0057522347
174	0x3c793fa4	0.015212927
175	0x3d318225	0.043337006
176	0xbbedfcf3	-0.00726282
177	0x3c11243c	0.008858737
178	0x3c8cddfd	0.017195696
179	0xbc4e21fc	-0.012581345
180	0x3d168bda	0.036754467
181	0x3a3ac470	0.00071246084
182	0xbcde60e0	-0.027145803
183	0x3ce53b00	0.027982235
184	0x3d546898	0.05185756
185	0x3b3de217	0.0028973871
186	0xbc54df87	-0.012992746
187	0xbbb37cca	-0.0054775225
188	0x3cbf70f4	0.02336929
189	0x3de38214	0.11108795
190	0x3ccbf1b1	0.02489552
191	0xbd05ad04	-0.032635704
192	0x3d01bace	0.03167229
193	0xbc8e65ad	-0.017382467
194	0x3d4db706	0.050223373
195	0xbb42272c	-0.00296254
196	0xbc32880c	-0.010896694
197	0x3b874f30	0.004129313
198	0x3c51fc64	0.012816522
199	0xbb82e3cb	-0.00399444
200	0xbc94efc2	-0.018180732
201	0x3c09ecd7	0.008418283
202	0x3d3010be	0.042984717
203	0x3ceac907	0.02866031
204	0xbaca9cd0	-0.0015458111
205	0x3e23b05b	0.15985243
206	0xbc78dc34	-0.015189219
207	0xbcc0d409	-0.023538606
208	0x3b75fc58	0.0037534442
209	0xbd884fd3	-0.0665585
210	0x3c8a0103	0.016846186
211	0xbb67e1fa	-0.0035382495
212	0xbc467620	-0.012113124
213	0xbbc2eb9a	-0.005948496
214	0x3cdeb036	0.027183633
215	0xbc517ee5	-0.012786602
216	0x3d3ab682	0.04558421
217	0x3d727eb1	0.059202854
218	0xbd0a4e33	-0.033765983
219	0xbc9b4593	-0.018954074
220	0xbd013f5d	-0.03155457
221	0xbc399359	-0.011326634
222	0x3c9819f1	0.018567057
223	0xbbe4b78c	-0.0069798883
224	0x3d0ee2ac	0.03488414
225	0xbceebb1b	-0.029141953
226	0xbcb3f44f	-0.021967081
227	0xbcadf962	-0.021237079
228	0xbd3802ee	-0.04492467
229	0xbd2461ab	-0.040132206
230	0x3c7ba59f	0.015359311
231	0x3cce09a4	0.025151081
232	0x3cb109ec	0.021611176
233	0xba370a34	-0.00069824164
234	0x3d26bba7	0.040706303
235	0xbd2a35a2	-0.041555054
236	0xbccf081e	-0.025272425
237	0xbc32cd7b	-0.010913248
238	0xbd1472ff	-0.03624248
239	0x3d704c32	0.058666416
240	0xbc052d4d	-0.008128476
241	0x3e00705a	0.12542859
242	0xbc16dcc3	-0.009207907
243	0xbad9b132	-0.0016608594
244	0xbce5a56c	-0.02803298
245	0xbbe33463	-0.006933735
246	0xbd22a6b1	-0.03970975
247	0xbc4f6cda	-0.01266023
248	0x3c6e43e3	0.014542553
249	0x3d51a441	0.051182035
250	0x3cc3edfc	0.02391719
251	0x3c03d1d7	0.008045635
252	0x3cdf431f	0.027253686
253	0xbd541c5f	-0.05178487
254	0xbd1e27b6	-0.03861209
255	0xbbd796fa	-0.006579277

features.actor.0.bias f4 [64]
0	0x3e0fe2f9	0.14051427
1	0x3f1b68fa	0.60707057
2	0x3ddee25e	0.1088302
3	0x3dbffbef	0.093742244
4	0x3e4fdef8	0.202999
5	0x3e8a04d9	0.26956823
6	0x3dd7637b	0.10517021
7	0x3e4fe8ca	0.20303646
8	0x3df3532b	0.118810974
9	0xbe3e28ab	-0.18570201
10	0x3ea3a8d4	0.31964743
11	0xbe0182a3	-0.1264749
12	0x3ebbe2d3	0.3669649
13	0x3dd50ec1	0.10403205
14	0x3eb53829	0.3539441
15	0x3e078f92	0.13238361
16	0xbe8e9767	-0.27849886
17	0x3e32000e	0.17382833
18	0xbdcd2297	-0.10016363
19	0x3ea3070c	0.31841314
20	0x3d98d304	0.07462123
21	0x3e3daa61	0.18522026
22	0x3e85c748	0.26128602
23	0xbf1459ef	-0.5794973
24	0xbeedb674	-0.46428263
25	0x3dcf651b	0.10126706
26	0xbe3cd829	-0.18441834
27	0xbe9866d6	-0.29765958
28	0x3ecf4551	0.40482572
29	0x3e714d7c	0.23564714
30	0xbe6c9065	-0.23101957
31	0x3ea4a0a4	0.3215381
32	0xbe29425a	-0.16529217
33	0x3eab31e3	0.33436498
34	0x3e6a7509	0.22896208
35	0x3eb98511	0.36234334
36	0x3f22956c	0.6350925
37	0xbd7670b4	-0.060166076
38	0x3d5b78d0	0.053582013
39	0x3ec392b5	0.38197866
40	0x3ec858b7	0.39130184
41	0xbe0ed1ec	-0.13947266
42	0xbeb32325	-0.3498775
43	0xbe9500e7	-0.2910225
44	0xbe023ddd	-0.12718911
45	0xbe839f0a	-0.25707275
46	0xbe80fa17	-0.25190803
47	0x3dd66afc	0.104696244
48	0x3e9a3472	0.30118138
49	0xbd80dd6a	-0.062922314
50	0x3e234a54	0.15946323
51	0xbe8cd7ff	-0.27508542
52	0x3ed7b373	0.42129096
53	0x3ec8547b	0.39126953
54	0x3e9251fe	0.2857818
55	0xbd07a98c	-0.033120677
56	0x3f17df1c	0.5932481
57	0xbe0caf76	-0.13738808
58	0xbe1ec5d9	-0.1550516
59	0xbd9ab872	-0.075547114
60	0xbebc49e8	-0.36775136
61	0x3ecd6661	0.4011717
62	0xbda75d43	-0.08172085
63	0xbe460a54	-0.19339877

features.actor.2.weight f4 [64, 64]
0	0x3d294fbb	0.041335803
1	0xbe49996c	-0.19687432
2	0x3dd8b7cd	0.10581932
3	0xbe7baf66	-0.24578628
4	0x3e96b284	0.29433072
5	0xbe798221	-0.24366046
6	0xbd18f8e9	-0.037346754
7	0x3e8ce80c	0.27520788
8	0xbd8e3947	-0.069445185
9	0xbe21798b	-0.15769021
10	0xbdbd4264	-0.09241179
11	0x3eb1c94d	0.34723893
12	0x3c0c343f	0.008557378
13	0xbe923e2f	-0.28563067
14	0xbc841d5b	-0.016127279
15	0xbec5551c	-0.38541496
16	0xbeaa86e2	-0.33306032
17	0xbe2acf79	-0.16680707
18	0xbe10f7b6	-0.14156994
19	0xbee40ccf	-0.44541022
20	0x3defa3d6	0.11701171
21	0xbe6a9feb	-0.22912566
22	0xbbebc89c	-0.0071955454
23	0x3d9c6b4f	0.07637655
24	0xbd951fb2	-0.07281436
25	0xbe91d1f1	-0.28480485
26	0xbd8c9ae9	-0.06865484
27	0x3db49e5e	0.08819269
28	0x3eb03822	0.34417826
29	0xbea47a25	-0.3212444
30	0xbe235599	-0.15950622
31	0xbe2b0c87	-0.16703998
32	0xbe54f677	-0.20797144
33	0xbede4391	-0.43410924
34	0xbdcafd96	-0.09911649
35	0xbdafda0e	-0.085865125
36	0x3eb01b40	0.3439579
37	0x3ca12093	0.019668853
38	0xbe6cbcf7	-0.2311896
39	0xbea5ca9f	-0.3238115
40	0xbe0463cd	-0.12928696
41	0x3e871b63	0.26388082
42	0x3e37ca19	0.17948188
43	0x3dd48482	0.10376836
44	0x3e468e49	0.19390215
45	0x3d3f506e	0.046707563
46	0xbd4f2c10	-0.05057913
47	0xbe9db2e9	-0.3080056
48	0x3d85ee21	0.0653956
49	0xbde0f134	-0.10983506
50	0xbe3248c5	-0.17410572
51	0xbf0fac23	-0.56122035
52	0x3e450a7b	0.19242279
53	0xbd98e224	-0.07465008
54	0xbe1673a4	-0.14692551
55	0xbe2c3dc1	-0.16820432
56	0x3d060231	0.032716934
57	0xbe36888c	-0.17825526
58	0xbe888986	-0.26667422
59	0x3ccde0ba	0.025131572
60	0x3d9174f7	0.071023874
61	0xbd945b50	-0.07243979
62	0x3e076128	0.13220656
63	0x3db5f28d	0.088841535
64	0xbdac0fd8	-0.084014595
65	0x3d61ca2c	0.055124447
66	0xbe62afb9	-0.22137345
67	0xbdab9516	-0.08378045
68	0xbeb61a81	-0.35567096
69	0xbe14dd66	-0.14537582
70	0xbd801601	-0.06254197
71	0xbd046bc7	-0.032329347
72	0xbe9c57d9	-0.30535772
73	0xbdaa56a6	-0.08317308
74	0xbe425be1	-0.18980362
75	0xbda9f1d8	-0.08298081
76	0xbe8645de	-0.2622518
77	0xbe6e9e3b	-0.23302548
78	0x3ced9128	0.02899988
79	0xbe94bab2	-0.29048687
80	0xbd9618bd	-0.07328937
81	0x3dce0e76	0.10061352
82	0xbed5876b	-0.41704878
83	0x3eb39db2	0.3508125
84	0x3d6024bf	0.054722544
85	0x3ba36452	0.0049863243
86	0xbe54ba7e	-0.20774266
87	0xbde18a8c	-0.11012754
88	0x3e93b523	0.28849134
89	0xbd4435b4	-0.047902778
90	0xbe8839b3	-0.2660652
91	0x3f1bd84a	0.60876906
92	0xbf04be06	-0.5185245
93	0xbe285ba6	-0.16441211
94	0x3d7f0c82	0.062267788
95	0xbe6e9858	-0.23300302
96	0x3d83b4ea	0.06430991
97	0x3e16ad3d	0.14714523
98	0xbeb84d9e	-0.35996717
99	0xbe3c59a5	-0.18393572
100	0x3e0bc654	0.13649875
101	0xbe8341b5	-0.25636068
102	0xbd8e261c	-0.069408625
103	0xbeaf3243	-0.34218034
104	0x3cd14978	0.025547728
105	0xbcf3c669	-0.029757695
106	0xbe341169	-0.17584766
107	0xbe1bfa99	-0.15232314
108	0x3ea6f719	0.32610396
109	0x3d6e7810	0.05821997
110	0xbdaeef4c	-0.08541736
111	0x3cfd384c	0.030910634
112	0x3e672eca	0.22576442
113	0xbe781c16	-0.24229464
114	0x3df09d24	0.11748722
115	0x3d697f87	0.057006385
116	0xbdeedb6e	-0.11662947
117	0xbdf7dca4	-0.12102631
118	0x3e03ac26	0.12858638
119	0x3ec28e4b	0.37999186
120	0x3e432ef3	0.19060878
121	0x3c96b3ec	0.01839634
122	0xbb95585b	-0.004557652
123	0x3e615045	0.22003277
124	0x3ce73faf	0.028228609
125	0xbece53e6	-0.40298384
126	0x3e1ccdd7	0.15312897
127	0xbe7cf8e9	-0.24704327
128	0xbe7493de	-0.23884532
129	0x3e6e0832	0.23245314
130	0xbee9f424	-0.45694077
131	0xbcb8b9ff	-0.022549627
132	0x3e54a812	0.20767239
133	0xbd7264c4	-0.05917813
134	0xbeed1b27	-0.46309778
135	0x3e055561	0.1302085
136	0x3efc4dc2	0.49278075
137	0x3c1f700a	0.009731302
138	0xbdd1c366	-0.102423474
139	0x3df2ca7c	0.11855027
140	0x3b904d26	0.004403728
141	0xbea7b352	-0.32753998
142	0x3d3348be	0.043770544
143	0x3e3d8454	0.1850751
144	0x3cbfdc19	0.02342038
145	0x3d750e71	0.059828226
146	0x3d52bccc	0.051449582
147	0xbe75cd1c	-0.24004024
148	0x3dd0b96a	0.10191615
149	0x3dd01b41	0.10161448
150	0x3e30e081	0.17273141
151	0x3da5da9c	0.08098337
152	0x3e09ab13	0.13444166
153	0xbecbc256	-0.39796704
154	0x3db74c79	0.08950133
155	0xbe8ace5a	-0.2711056
156	0xbe0cdee4	-0.13756901
157	0x3e8b16c7	0.27165815
158	0xbd93d242	-0.07217838
159	0x3dce1286	0.10062127
160	0xbe631e0c	-0.2217943
161	0x3df4d5ea	0.11954863
162	0x3e9380dd	0.28809252
163	0xbd9bbcad	-0.076043464
164	0xbe0bf0bb	-0.1366605
165	0x3d899b93	0.067191266
166	0x3d6fff9b	0.058593374
167	0xbe2b083a	-0.16702357
168	0xbdf02680	-0.11726093
169	0xbd7dd2c8	-0.061968595
170	0x3dbba6af	0.09162652
171	0x3ec758a4	0.38934815
172	0xbe7e410c	-0.24829501
173	0xbee87fd4	-0.45410025
174	0xbf001bda	-0.500425
175	0xbe824c1d	-0.25448695
176	0x3d88b546	0.066752
177	0x3e3c6eff	0.18401717
178	0x3e14a8bc	0.14517492
179	0xbee8d486	-0.45474643
180	0x3e17b457	0.14814888
181	0x3e99dcf9	0.300514
182	0x3cf61510	0.03003934
183	0xbe581fae	-0.21105835
184	0xbea4e5a7	-0.3220646
185	0xbeac2016	-0.3361823
186	0x3e488ad1	0.19584204
187	0xbe331132	-0.17487028
188	0x3cc3e98d	0.023915077
189	0x3ea1fb2b	0.31636938
190	0xbec95ea4	-0.39330018
191	0x3e052fe7	0.13006555
192	0xbd719295	-0.058977682
193	0x3da27b93	0.07933726
194	0xbe997d34	-0.29978335
195	0x3d7e3f40	0.06207204
196	0x3eb7aa08	0.3587191
197	0x3ddb71ad	0.10715041
198	0xbf031dac	-0.5121715
199	0xbea1da64	-0.3161193
200	0xbe102821	-0.14077808
201	0x3e7cb72f	0.24679254
202	0x3e5d6d22	0.21623662
203	0xbc8b3124	-0.016991206
204	0x3ebb0b6b	0.3653215
205	0xbe172c01	-0.1476288
206	0x3dfe8177	0.12427037
207	0x3c29ebde	0.0103711765
208	0xbe735ff6	-0.23767075
209	0xbe3e0aa1	-0.18558742
210	0xbe0b11ca	-0.13581005
211	0xbd12daa5	-0.035853047
212	0xbdfecb0b	-0.12441071
213	0x3dea98ae	0.114549026
214	0x3e54c472	0.20778063
215	0x3f3473d6	0.7048925
216	0xbebfa651	-0.37431577
217	0xbe7c135d	-0.24616762
218	0xbed286da	-0.4111851
219	0x3d6aa917	0.057290163
220	0x3e504d66	0.20342025
221	0xbe2a7915	-0.16647752
222	0xbe0aebe1	-0.13566543
223	0xbe72bcc0	-0.23704815
224	0xbeb4d3ca	-0.35317832
225	0x3e13a0af	0.14416765
226	0x3e17ec72	0.1483629
227	0x3e4d014a	0.20020023
228	0xbea4c145	-0.32178703
229	0x3db291ab	0.0871919
230	0xbd438bda	-0.047740795
231	0x3d2068e4	0.03916253
232	0xbe53742b	-0.20649783
233	0x3e87505a	0.2642849
234	0xbd99009c	-0.07470819
235	0x3d9c9c3d	0.076469876
236	0xbe0cd663	-0.13753657
237	0x3df5663a	0.11982389
238	0xbd5785be	-0.05261778
239	0xbe821d85	-0.25413147
240	0x3eca5390	0.39516878
241	0xbe58ce2d	-0.211724
242	0xbe7febca	-0.2499229
243	0xbf03262f	-0.5123014
244	0x3d346c6d	0.044048715
245	0x3ed1a511	0.40946248
246	0x3c339ccc	0.010962676
247	0x3c9a6480	0.01884675
248	0x3e96c58c	0.2944759
249	0x3e5b5ecb	0.2142288
250	0xbecad7fb	-0.39617905
251	0x3e2a5097	0.16632305
252	0xbb493d47	-0.003070669
253	0x3e47b39f	0.19502114
254	0x3cd2f695	0.025752345
255	0x3da73805	0.08164982

features.actor.2.bias f4 [64]
0	0xbc9c6222	-0.019089762
1	0x3e7db189	0.24774756
2	0xbe9106ea	-0.28325588
3	0x3ea044a1	0.3130236
4	0x3f91c198	1.1387205
5	0x3ebc82d1	0.36818555
6	0xbf81cf90	-1.0141468
7	0xbe1e3e73	-0.1545351
8	0x3ed3f99f	0.41401383
9	0xbe33d556	-0.1756185
10	0xbe0142fc	-0.12623209
11	0x3f0d8be9	0.5529161
12	0xbeb0873d	-0.3447818
13	0x3f11769f	0.56821626
14	0xbe5783a6	-0.21046314
15	0x3e9c2de1	0.30503753
16	0x3f806743	1.0031513
17	0xbebf3ca8	-0.37350965
18	0x3f36ad46	0.71358144
19	0x3dd84d5d	0.10561631
20	0xbed2f723	-0.41204175
21	0x3f00a069	0.50244766
22	0x3e48bf06	0.1960412
23	0xbe983deb	-0.2973474
24	0xbea7d541	-0.32779887
25	0x3f065941	0.5247994
26	0x3df88286	0.1213427
27	0xbea741bb	-0.32667336
28	0x3e013143	0.12616448
29	0xbe1a3ebc	-0.15062994
30	0xbe787a3c	-0.24265379
31	0x3d482aba	0.048868872
32	0xbdb6f133	-0.08932724
33	0x3c98a585	0.018633613
34	0x3ebcce23	0.3687602
35	0xbecfd77b	-0.40594086
36	0x3e1862b7	0.14881407
37	0x3e062088	0.13098347
38	0x3df14e39	0.11782498
39	0x3efe95c0	0.49723625
40	0xbf04dcd8	-0.5189948
41	0x3c4c4e5b	0.012469853
42	0x3df4464e	0.11927472
43	0x3ec2a0f9	0.38013437
44	0x3f83c0f3	1.0293258
45	0x3ec86c58	0.3914516
46	0x3d12ed6a	0.035870947
47	0x3e832a8e	0.25618404
48	0x3dd1c088	0.102418005
49	0xbe1f29ed	-0.15543337
50	0x3f065a5a	0.52481616
51	0x3dc43b82	0.09581663
52	0xbedafbab	-0.42770132
53	0xbe23a5bb	-0.1598119
54	0xbd851cc8	-0.0649963
55	0x3f0b7c9c	0.54487014
56	0x3ea03088	0.31287026
57	0x3ef4b9e2	0.47798067
58	0x3e2e0584	0.16994292
59	0x3f375e4d	0.71628267
60	0x3f5d1c61	0.8637143
61	0xbe1a9f1b	-0.15099756
62	0x3e2271bf	0.15863703
63	0x3f3bd206	0.73367345

critic.0.weight f4 [1, 64]
0	0xbbbc5a8f	-0.0057481
1	0x3d477d1c	0.048703298
2	0xbd3d1084	-0.04615833
3	0x3dc4fd06	0.09618573
4	0x3ea3ebd0	0.32015848
5	0x3e890c9d	0.26767436
6	0xbe8d9ee3	-0.27660283
7	0xbc1a7cf6	-0.009429207
8	0x3daed504	0.08536723
9	0xbd566364	-0.05234088
10	0x3c4b8694	0.012422223
11	0x3e82c2fe	0.25539392
12	0xbe4474b2	-0.1918514
13	0x3e0e440c	0.13893145
14	0xbceae7db	-0.02867501
15	0x3d0a4309	0.033755336
16	0x3e8709b4	0.2637459
17	0xbdbcbaf7	-0.09215348
18	0x3eaf558f	0.34244964
19	0xbab39936	-0.0013702277
20	0xbe118ca9	-0.14213814
21	0x3e2c7e5e	0.1684508
22	0x3d6d72c5	0.05797078
23	0xbdd27cba	-0.10277696
24	0xbc94720c	-0.018120788
25	0x3e0d4c78	0.13798702
26	0x3c6e50ba	0.014545614
27	0xbdc283b4	-0.09497777
28	0x3d96e723	0.073683046
29	0xbb0135d5	-0.0019715924
30	0xbcacef90	-0.021110326
31	0xbc7db04c	-0.015483927
32	0xbbc22b9c	-0.005925609
33	0x3d4d7f48	0.050170213
34	0xba938487	-0.0011254706
35	0xbe572e19	-0.21013679
36	0x3c71ad3e	0.014750777
37	0x3da1efd3	0.07907071
38	0xbc09afd1	-0.008403734
39	0x3e324b78	0.17411602
40	0xbe1b0597	-0.15138851
41	0xbb03410a	-0.002002778
42	0x3d0205ac	0.03174369
43	0x3de2e418	0.11078662
44	0x3e585d3d	0.21129318
45	0x3dabc401	0.08386994
46	0x3aca2e6b	0.0015425211
47	0x3de29de6	0.11065273
48	0xbb891cef	-0.0041843574
49	0xb8d414cf	-0.00010112824
50	0x3dec4672	0.11536874
51	0x3c435379	0.011921757
52	0xbe152dde	-0.14568278
53	0xbd6696d9	-0.056296203
54	0xbc6e482f	-0.014543577
55	0x3e1696c6	0.14705953
56	0x3e015e3d	0.12633605
57	0x3e841b86	0.2580225
58	0x3d0c7448	0.034290582
59	0x3ecac9a2	0.3960696
60	0x3e985563	0.29752645
61	0xbda14568	-0.07874566
62	0x3d850ddf	0.06496786
63	0x3ec6bc0b	0.3881534

critic.1.weight f4 [1, 64]
0	0xbe2f7668	-0.17135012
1	0xbe01ffee	-0.12695286
2	0x3e65a4e7	0.22426187
3	0x3d8695b9	0.06571526
4	0x3d3813ab	0.04494063
5	0x3e06bc86	0.13157853
6	0x3e32e534	0.17470247
7	0xbcb03086	-0.021507513
8	0x3cec04ca	0.028810877
9	0x3de81cbb	0.11333605
10	0x3d855fab	0.06512388
11	0xbe0a203c	-0.13488859
12	0xbd2acd47	-0.041699674
13	0xbcbd9a92	-0.023144994
14	0xbd764467	-0.060123827
15	0xbe3810bf	-0.17975138
16	0xbdc7394a	-0.09727724
17	0xbc94922b	-0.018136105
18	0x3e0c2a8c	0.13688105
19	0x3e46597c	0.19370073
20	0xbc378996	-0.011202237
21	0x3e20b3b4	0.15693551
22	0x3de8749b	0.11350366
23	0x3dc34ac3	0.09535744
24	0xbdc7da2f	-0.09758412
25	0x3de1ed08	0.11031538
26	0xbd1c1f1e	-0.038115613
27	0xbe312956	-0.17300925
28	0x3be6852d	0.0070349188
29	0xbd627d9b	-0.055295568
30	0xbd2449fd	-0.040109623
31	0xbd82a4ee	-0.06379114
32	0x3cd5d7df	0.026103912
33	0x3e7c3d44	0.24632746
34	0xbc770fdb	-0.015079464
35	0xbd2376c4	-0.039908186
36	0xbdb26276	-0.08710186
37	0xbda7f596	-0.08201139
38	0x3e412e48	0.18865311
39	0x3e96c5d2	0.294478
40	0xbbe999e1	-0.0071289395
41	0x3ca82c65	0.020528981
42	0x3d98988d	0.07450972
43	0x3cc03866	0.023464393
44	0x3e11b910	0.14230752
45	0x3de0a6b1	0.10969294
46	0x3e75df81	0.24011041
47	0x3df484d0	0.119393945
48	0xbd420890	-0.047371447
49	0x3e49bb6a	0.19700399
50	0x3ca11a3b	0.019665828
51	0x3d76b1ba	0.060228087
52	0x3daa9635	0.08329431
53	0x3cbae710	0.022815257
54	0xbdbc2676	-0.09187023
55	0xbd84fab8	-0.06493133
56	0x3dacbdf2	0.08434667
57	0xbe0cca0e	-0.13748953
58	0xbe4907a1	-0.19631816
59	0x3eb17674	0.34660685
60	0xbdd4a512	-0.10383047
61	0xbdc48cec	-0.09597191
62	0x3d47536f	0.048663553
63	0xbe08c524	-0.13356453

critic.2.weight f4 [1, 64]
0	0x3d85e5c0	0.06537962
1	0x3e2aaeb5	0.16668208
2	0xbdc40430	-0.09571111
3	0xbe6371f2	-0.22211435
4	0x3df72455	0.12067477
5	0x3dc8ec08	0.098106444
6	0x3e945ba4	0.28976166
7	0xbe6dfeb4	-0.23241693
8	0xbd86d697	-0.065838985
9	0xbe1a93ff	-0.15095519
10	0x3d7ba605	0.061437625
11	0x3c9b11fb	0.018929472
12	0xbd7300f8	-0.059327096
13	0x3e712088	0.23547566
14	0xbd6a027e	-0.057131283
15	0xbd8e97e8	-0.069625676
16	0x3dbe093e	0.092791066
17	0x3ddfb249	0.10922677
18	0x3df3727d	0.11887071
19	0xbd262836	-0.040565692
20	0x3d5b466b	0.053533953
21	0x3d682ea5	0.05668511
22	0x3e2bf11b	0.16791193
23	0xbe094058	-0.13403451
24	0xbddfe918	-0.10933131
25	0xbbec9722	-0.007220165
26	0x3e6b470e	0.22976324
27	0x3e0da9f8	0.13834369
28	0x3e6bb2ef	0.23017476
29	0x3e61e2fa	0.22059241
30	0xbda7b4b1	-0.08188761
31	0xbdbe064e	-0.09278546
32	0xbd2a7047	-0.041610982
33	0x3e4f06e0	0.20217466
34	0x3e5ec671	0.21755387
35	0xbd3c28d0	-0.04593736
36	0x3d5b685e	0.05356633
37	0xbd8c1d69	-0.06841547
38	0xbc9f4a65	-0.019444654
39	0xbe07cdf3	-0.13262157
40	0xbd7e9d64	-0.06216182
41	0xbcd0b458	-0.02547662
42	0xbe3873ca	-0.1801292
43	0xbd6ee857	-0.058327045
44	0xbd6fd8e6	-0.05855646
45	0x3e08d242	0.13361457
46	0x3acb858a	0.0015527469
47	0xbb3eaa1b	-0.002909309
48	0xbda2ab79	-0.07942862
49	0x3d9ae812	0.07563795
50	0x3ca676dc	0.020320348
51	0xbd5d3f59	-0.05401549
52	0xbbf57351	-0.0074905534
53	0x3c1319ea	0.008978346
54	0xbd86456d	-0.06556211
55	0x3d1e1ac2	0.038599737
56	0x3e8077a3	0.25091276
57	0x3d4c118f	0.049821433
58	0x3e910435	0.28323522
59	0xbd4d2efb	-0.050093632
60	0xbcaa9f95	-0.020828048
61	0x3d020443	0.031742346
62	0xbd9f9291	-0.07791627
63	0x3d6bbdf9	0.05755422

critic.3.weight f4 [1, 64]
0	0xbd97ccd0	-0.07412112
1	0x3d5add9a	0.053433992
2	0xbde83151	-0.11337531
3	0x3df8e343	0.12152722
4	0xbe00360d	-0.12520619
5	0xbd344801	-0.04401398
6	0xbded726d	-0.115940906
7	0xbea10067	-0.3144562
8	0xbd707be5	-0.058711905
9	0x3d32e2e3	0.043673407
10	0xbe13c860	-0.14431906
11	0xbe2a3bd6	-0.16624388
12	0xbe19b3f0	-0.15010047
13	0x3e078f4d	0.13238259
14	0xbe7bafd4	-0.24578792
15	0x3d8492ab	0.06473287
16	0xbe1f173b	-0.15536205
17	0x3e0146e3	0.12624697
18	0x3d9eae36	0.07748072
19	0x3cca10a1	0.024666132
20	0x3e4b9f5c	0.1988501
21	0x3db560e1	0.08856369
22	0x3ccba3ab	0.024858316
23	0xbd352139	-0.044221137
24	0x3cb6d71d	0.02231937
25	0x3dd7dcaa	0.10540135
26	0xbdf53bd3	-0.11974301
27	0x3c400777	0.01172053
28	0x3e6ab793	0.2292159
29	0xbceb87a1	-0.028751196
30	0xbd8ec332	-0.06970824
31	0x3e376d74	0.17912847
32	0x3a2739a1	0.0006379132
33	0xbd265ff5	-0.040618856
34	0x3ba8fbdd	0.0051569776
35	0x3e05928a	0.13044181
36	0x3dc7250a	0.097238615
37	0xbe032534	-0.1280716
38	0x3e1571ff	0.14594267
39	0xbcdb4526	-0.026766371
40	0xbd4ee86e	-0.05051463
41	0x3d92e319	0.07172222
42	0x3e082b35	0.13297732
43	0x3d2e6529	0.042576943
44	0x3c805598	0.015665814
45	0xbd3d9878	-0.046287984
46	0x3d831936	0.06401293
47	0x3df764b8	0.120797575
48	0x3e59b050	0.21258664
49	0x3daf5965	0.085619725
50	0x3e68dbfe	0.2274017
51	0x3eacfc49	0.33786228
52	0xbe29c856	-0.16580328
53	0xbd2dc0f7	-0.042420354
54	0x3d0deaff	0.034647938
55	0xbde7da83	-0.11320975
56	0xbd3364b3	-0.043797206
57	0xbe4d303f	-0.20037936
58	0xbdd32bc4	-0.10311082
59	0x3d343b90	0.044002116
60	0xbddc799d	-0.107653834
61	0x3df82432	0.12116279
62	0xbcfc88c4	-0.030826934
63	0x3d8479c4	0.064685374

dist.0.linear.weight f4 [7, 64]
0	0xbd827d66	-0.06371574
1	0x3e74e833	0.23916702
2	0xbe04262a	-0.12905183
3	0x3e818541	0.25296977
4	0x3d90aa13	0.07063689
5	0xbe34a094	-0.1763938
6	0xbdbff286	-0.093724295
7	0x3ed2d48c	0.41177785
8	0xbe041a8c	-0.12900752
9	0xbd065481	-0.032795433
10	0xbeb4e776	-0.3533284
11	0x3c672076	0.01410686
12	0xbe303bee	-0.17210361
13	0xbe2202a4	-0.1582132
14	0xbd5b771e	-0.053580396
15	0x3e3c146d	0.18367167
16	0x3dc19b72	0.09453477
17	0xbdafe367	-0.085882954
18	0x3d4326dd	0.047644485
19	0x3e14d79c	0.14535373
20	0x3eb40812	0.35162407
21	0x3e4b2c5d	0.19841142
22	0xbf517015	-0.8181165
23	0x3ec24136	0.37940377
24	0x3ceb34e7	0.02871175
25	0x3e820b30	0.2539916
26	0xbe230501	-0.15919878
27	0xbed702f5	-0.41994444
28	0xbebb7ec2	-0.36620146
29	0x3cb6adcf	0.022299675
30	0xbe482acb	-0.19547574
31	0x3f138d4d	0.5763748
32	0x3ebcd345	0.36879936
33	0x3f16b7d0	0.58874226
34	0x3e53acdc	0.2067141
35	0xbe14c354	-0.14527637
36	0x3e3d689c	0.18496937
37	0x3f82944d	1.0201508
38	0xbd2b6da6	-0.041852616
39	0x3d99fe30	0.075191855
40	0x3eb7aab1	0.35872415
41	0xbeb99aa5	-0.36250797
42	0xbd2691ea	-0.0406665
43	0x3e6ce43a	0.23133937
44	0x3e0dbe1a	0.13842049
45	0xbc6b2ae3	-0.014353487
46	0x3f3b31f0	0.73123074
47	0x3ed29dab	0.41135916
48	0x3e7c647d	0.24647708
49	0xbc6039cf	-0.013685658
50	0x3e5c7e98	0.21532667
51	0x3e865147	0.26233885
52	0x3d89f702	0.06736566
53	0x3f512708	0.8170018
54	0x3f6995eb	0.9124438
55	0x3e87dda9	0.265363
56	0x3c60d0e2	0.013721677
57	0xbe7c17af	-0.2461841
58	0xbf943f57	-1.158183
59	0x3ddc8d78	0.107691705
60	0x3dfdadc0	0.12386656
61	0xbedb1d75	-0.4279591
62	0x3f176999	0.59145504
63	0x3dcb4e18	0.099270046
64	0xbe98d302	-0.29848486
65	0x3d853665	0.065045156
66	0xbe9450e3	-0.28967962
67	0xbf32e0f7	-0.6987452
68	0xbde49cc3	-0.111627124
69	0xbd81722d	-0.063206054
70	0xbe00b882	-0.12570384
71	0x3d970a8d	0.07375059
72	0xba32055f	-0.00067909615
73	0xbea3584a	-0.31903297
74	0x3f1ac248	0.604527
75	0xbd4f444a	-0.050602235
76	0xbdbc0bae	-0.09181915
77	0x3d8f3306	0.06992154
78	0x3eb64c50	0.35605097
79	0xbf19a452	-0.6001636
80	0xbd299119	-0.04139814
81	0x3d4a1069	0.049332056
82	0xbe0872ec	-0.13325089
83	0xbe8fb8eb	-0.2807077
84	0xbe145ab5	-0.14487727
85	0x3b39e70f	0.0028366481
86	0x3d22917c	0.039689526
87	0xbdea3e83	-0.114377044
88	0xbe5fbb14	-0.21848708
89	0xbceec78d	-0.029147888
90	0xbed1a5e6	-0.40946883
91	0x3efb98a6	0.491399
92	0xbe9e48a6	-0.309148
93	0x3ecc3e5d	0.3989133
94	0xbe395376	-0.18098244
95	0xbf063214	-0.52420163
96	0xbe54d73f	-0.20785235
97	0xbdc69e90	-0.09698212
98	0x3e2081d0	0.1567452
99	0xbb42bc4d	-0.0029714287
100	0x3e250f15	0.16119035
101	0xbf07a5de	-0.5298747
102	0x3e6ae429	0.22938599
103	0xbd97ea6c	-0.07417759
104	0xbcafe759	-0.02147262
105	0x3e9095bb	0.28239235
106	0xbeb40dc7	-0.3516676
107	0x3e0acda1	0.13555004
108	0xbcb0403e	-0.021515008
109	0xbdd7df4b	-0.10540637
110	0xbf12ec65	-0.5739196
111	0xbe9f3768	-0.3109696
112	0xbea2e01c	-0.31811607
113	0x3f14c1dc	0.58108306
114	0x3cd50564	0.026003547
115	0x3edcb3db	0.4310597
116	0xbd676107	-0.056489017
117	0xbe2d16e9	-0.16903271
118	0xbe885379	-0.26626185
119	0xbd13985c	-0.036033973
120	0xbec131c1	-0.37733272
121	0xbd02fdcc	-0.03198032
122	0x3ee9f830	0.45697165
123	0x3c85c2bb	0.016328206
124	0xbc99d6b0	-0.018779129
125	0x3e2fef4b	0.17181127
126	0x3e1d0aeb	0.15336196
127	0xbc9f6dcf	-0.01946154
128	0x3dfe64ff	0.12421607
129	0xbc0f438f	-0.008744135
130	0x3e8279d5	0.25483575
131	0x3eaf7c05	0.34274307
132	0x3cab688e	0.020923879
133	0x3d452846	0.04813411
134	0xbcde83ec	-0.027162515
135	0xbe8d5f85	-0.27611938
136	0x3d568905	0.052376766
137	0x3f1ececa	0.62034285
138	0xbf10b3f2	-0.56524575
139	0x3d76652a	0.06015507
140	0xbd8e57c5	-0.069503345
141	0x3e73ca7f	0.23807715
142	0xbf1a7ed7	-0.6034979
143	0x3e3ddd1f	0.18541382
144	0x3d3da9dc	0.04630457
145	0x3e677d7e	0.22606465
146	0x3d1f32cc	0.038866803
147	0x3e3ae032	0.18249586
148	0x3d6c6309	0.057711635
149	0x3e8787a4	0.26470673
150	0x3f0711ef	0.5276174
151	0xbf0317b7	-0.5120806
152	0xbe68029f	-0.2265725
153	0x3eca8c08	0.3955996
154	0x3eb35e9e	0.35033125
155	0xbe14d536	-0.14534459
156	0x3f17f263	0.5935423
157	0xbf42664b	-0.75937337
158	0x3dc4cfdc	0.096099585
159	0x3e4dbbb5	0.20091136
160	0x3e88ba7d	0.2670478
161	0xbf0daf1c	-0.5534532
162	0xbc577b3a	-0.013151938
163	0x3edebea0	0.4350481
164	0x3a5bc721	0.00083838595
165	0xbe910028	-0.28320432
166	0x3eeac935	0.45856634
167	0x3dcf9282	0.10135366
168	0xbde798d9	-0.1130845
169	0x3e4c34a4	0.19941956
170	0x3e2ae97d	0.16690631
171	0xbda17de0	-0.07885337
172	0x3dec1b79	0.115286775
173	0xbe817a94	-0.25288832
174	0xbc9a57d8	-0.018840715
175	0xbeb72f67	-0.35778353
176	0x3ee2e766	0.44317168
177	0xbf162fe5	-0.5866683
178	0xbe3ff67a	-0.18746367
179	0xbec78a19	-0.38972548
180	0x3e36d038	0.17852867
181	0xbe3f9cbe	-0.18712136
182	0xbe109f4e	-0.1412327
183	0xbe63cc68	-0.22245944
184	0x3e97cf66	0.2965042
185	0x3ea3cd6f	0.3199267
186	0x3e741418	0.2383579
187	0xbd40f52b	-0.04710881
188	0x3cc977f9	0.02459334
189	0x3f00677a	0.5015789
190	0xbf1bcc06	-0.6085819
191	0xbdb6226a	-0.08893283
192	0x3d59da58	0.053186744
193	0xbdadc451	-0.0848471
194	0xbc9ee435	-0.019395927
195	0xbe1e542b	-0.15461795
196	0xbe8628b3	-0.26202926
197	0xbe2c7801	-0.16842653
198	0x3e2d45fb	0.16921227
199	0x3ca3443e	0.019930001
200	0xbdce64fc	-0.10077855
201	0x3c277922	0.010221751
202	0x3e200eaf	0.15630601
203	0xbe847f1c	-0.25878227
204	0x3d007b39	0.031367514
205	0xbe5aef73	-0.21380405
206	0xbde0aa7e	-0.10970019
207	0xbe96d7c4	-0.2946149
208	0xbe20a93d	-0.1568956
209	0x3e08835f	0.13331364
210	0xbe35060d	-0.1767809
211	0xbd647755	-0.055777866
212	0x3e3b238b	0.18275277
213	0xbdcaff9c	-0.09912035
214	0xbd81e48f	-0.06342422
215	0xbd310787	-0.04322007
216	0x3d86062c	0.06544146
217	0xbbe9c175	-0.0071336576
218	0xbd0b99da	-0.03408227
219	0xbd919794	-0.07108989
220	0xbd93248c	-0.07184705
221	0x3d97938c	0.07401189
222	0xbd8b8866	-0.06813125
223	0xbdb6eedb	-0.08932277
224	0x3cfe45d9	0.031039165
225	0xbe2ee023	-0.17077689
226	0xbe0271b0	-0.12738681
227	0x3dfba457	0.12287205
228	0xbd241af9	-0.040064786
229	0x3a716dc5	0.00092097773
230	0x3d1b2cb3	0.037884425
231	0xbe14afe0	-0.14520216
232	0x3e1cd249	0.15314592
233	0x3d74151e	0.05959045
234	0xbd01ac56	-0.031658493
235	0xbeb16719	-0.3464897
236	0xbe8ab130	-0.27088308
237	0xbcbe4b33	-0.023229217
238	0xbd63b229	-0.05558983
239	0xbdc0840b	-0.09400185
240	0xbe238717	-0.15969501
241	0x3e003f46	0.12524137
242	0xbe863f19	-0.26220015
243	0xbdc475b9	-0.09592766
244	0x3d847de4	0.06469324
245	0x3d2204b5	0.03955527
246	0x3b35b9c8	0.0027729142
247	0xbe3cffdc	-0.18456978
248	0xbde0b6a4	-0.10972336
249	0xbe2717d2	-0.1631768
250	0xbe2dcbc9	-0.16972269
251	0xbe2b35ae	-0.16719696
252	0xbe987f34	-0.29784548
253	0x3e91fb60	0.28512096
254	0xbde094d3	-0.10965886
255	0xbe4962fb	-0.19666664

dist.0.linear.bias f4 [7]
0	0x3e3e0e9c	0.1856026
1	0xbd6e1641	-0.05812669
2	0x3e50be9b	0.2038521
3	0xbe62095f	-0.22073887
4	0xbe77a401	-0.24183656
5	0xbd9ca9a3	-0.07649543
6	0xbe8fcd2c	-0.2808622

dist.1.linear.weight f4 [7, 64]
0	0x39d55b85	0.00040694713
1	0x3b2f2199	0.0026722907
2	0x398bb4b2	0.00026646774
3	0x3a1872b3	0.00058154314
4	0xbad946c4	-0.0016576876
5	0x376a04ce	1.3948606e-05
6	0xbb6e86ea	-0.0036396333
7	0x39fa66f0	0.0004776041
8	0x3a802c62	0.0009778852
9	0xbac8b0bb	-0.0015311459
10	0x3aa8e730	0.0012886282
11	0x3aa3ae29	0.0012487817
12	0xb9260f26	-0.00015836637
13	0xbabfec3e	-0.0014642549
14	0x3ae8ffa9	0.0017776388
15	0x3adf1f86	0.0017022945
16	0xb98307e7	-0.00024992155
17	0x3ab19109	0.0013547252
18	0x3a495f1d	0.00076817145
19	0x39c1f2b7	0.00036992665
20	0x3a61b173	0.0008609511
21	0x3aa68acd	0.0012706161
22	0xb90be630	-0.00013341825
23	0xba802109	-0.000977547
24	0xb9b19b7d	-0.0003387592
25	0x39df6e5e	0.00042616104
26	0xba04c854	-0.00050652516
27	0xb9d3fe0e	-0.00040434342
28	0x3a2da600	0.0006624162
29	0xba9801bc	-0.0011597197
30	0x39a5a076	0.00031590805
31	0xba5dd2cc	-0.0008461892
32	0x3a5b6e39	0.00083706115
33	0xbabee7bb	-0.0014564911
34	0x3a1561be	0.00056984636
35	0x39b173db	0.0003384639
36	0x3a69d39d	0.00089197775
37	0xbabe9347	-0.0014539742
38	0x3af3b1ee	0.0018592456
39	0x3ab38c8b	0.0013698501
40	0x3a8d622a	0.0010786701
41	0xba2d85d8	-0.00066193705
42	0xb9cc0293	-0.0003891183
43	0xba144133	-0.00056554674
44	0x3a803fef	0.0009784679
45	0xb9ad5f5d	-0.00033068183
46	0x3a08e606	0.00052222644
47	0xbb17fde6	-0.0023192107
48	0x39ac2d61	0.00032840206
49	0xbb207f3e	-0.0024489905
50	0x3a9055f8	0.0011011949
51	0xbadeb189	-0.0016990165
52	0x37be1b9e	2.2662625e-05
53	0xba970001	-0.0011520387
54	0xb9d07ef7	-0.00039767448
55	0xba9df4f8	-0.0012051156
56	0x3a0daa35	0.0005404086
57	0xba36f440	-0.0006979145
58	0x3b708682	0.0036701267
59	0x3afec66f	0.00194378
60	0xb9599b94	-0.0002075269
61	0x3a35f25c	0.00069407164
62	0xb93266d9	-0.00017013717
63	0xb9233dfb	-0.00015567981
64	0xb8af4a17	-8.3584506e-05
65	0xba9155c6	-0.0011088185
66	0xbb4bc821	-0.0031094628
67	0x3a8c7061	0.0010714644
68	0x3ab1ee8f	0.0013575124
69	0xba46905d	-0.00075746124
70	0x3a19cc9d	0.00058669766
71	0x3a45aeb4	0.00075409864
72	0x3a06f3c2	0.0005148017
73	0xbb552626	-0.003252396
74	0x3ae247d5	0.0017263839
75	0x3948435d	0.00019098581
76	0x39028bf3	0.00012449901
77	0x3a1f1314	0.00060682115
78	0xba660f1b	-0.00087760546
79	0xb874d55d	-5.8372843e-05
80	0xbabe73e7	-0.0014530391
81	0xb9c2b3b5	-0.00037136456
82	0xb9c77da7	-0.00038049856
83	0xbac9b5e2	-0.0015389288
84	0x39305316	0.0001681562
85	0x3825ef4f	3.956194e-05
86	0x3a613d93	0.0008592244
87	0x395aae07	0.0002085493
88	0xbaa2f799	-0.0012433409
89	0xbb2c44f3	-0.0026286214
90	0xba8c1d4f	-0.0010689887
91	0x3a65b1d8	0.00087621575
92	0x3ae82647	0.0017711603
93	0xbac22524	-0.0014812094
94	0x397bf96e	0.00024030145
95	0x3b10dd6b	0.0022104632
96	0x3a99d2a2	0.0011735747
97	0x3a64e2e1	0.00087313174
98	0x396cf06a	0.00022596275
99	0xbaecdcc5	-0.0018071166
100	0x3acff65e	0.001586627
101	0xb86127f8	-5.3681404e-05
102	0x3afa774b	0.0019109038
103	0xba2403fb	-0.00062566967
104	0xbb07a3de	-0.0020697038
105	0x3a98f367	0.0011669219
106	0xb92b3682	-0.00016328137
107	0xbac062de	-0.0014677902
108	0x3b0d4d40	0.0021560937
109	0x3a9e0dd4	0.0012058564
110	0xb9675109	-0.00022060065
111	0xba823ed7	-0.0009936941
112	0xba334fed	-0.0006840218
113	0x3aa12c52	0.0012296534
114	0x3aab4d5b	0.0013069318
115	0xb9a09aed	-0.00030633007
116	0x395646aa	0.00020434955
117	0x3a6e32ea	0.0009086566
118	0x398724e7	0.000257767
119	0xba14adf1	-0.0005671671
120	0xbaff8f75	-0.001949771
121	0x3a083da4	0.00051971735
122	0x3a30880f	0.00067341415
123	0xbac2721b	-0.0014835031
124	0x39697045	0.00022262435
125	0x3aaafd93	0.0013045542
126	0xba50132a	-0.0007937426
127	0x3ac4d6e0	0.0015017651
128	0xbac04bef	-0.0014671067
129	0x3ac26001	0.0014829637
130	0x3ad22869	0.0016033772
131	0x3ab1d86a	0.0013568525
132	0xba958cfa	-0.0011409812
133	0xba233cc0	-0.0006227009
134	0xb9a259fe	-0.00030966097
135	0xbae97d20	-0.0017813779
136	0x38a7ef24	8.007724e-05
137	0xbaa8c485	-0.001287595
138	0xbac0d7d7	-0.0014712763
139	0x3af9045e	0.0018998494
140	0x3a2b9ed0	0.0006546797
141	0x3a4028d0	0.00073303
142	0x39d3b3e6	0.0004037909
143	0xbb136636	-0.0022491342
144	0xba38581b	-0.00070321717
145	0x3b1d939b	0.0024044279
146	0x37f02347	2.8626657e-05
147	0x3aa4e6cd	0.0012580991
148	0xbaf6bbfb	-0.0018824333
149	0x3a9089cd	0.0011027396
150	0x3a8429e0	0.001008328
151	0x3a3bc5f3	0.00071629806
152	0xbb01f6d2	-0.0019830954
153	0xba31366e	-0.0006760125
154	0xbaab63ae	-0.0013075972
155	0x3984dff7	0.0002534387
156	0xb7205429	-9.556338e-06
157	0xba544e4c	-0.00080988253
158	0x3a48b4b9	0.00076563243
159	0x3afbbaf0	0.0019205492
160	0xbb47bd19	-0.0030477701
161	0xbadee36e	-0.0017005035
162	0xb9a0a041	-0.00030636977
163	0x39e84013	0.00044298227
164	0xba06e4a4	-0.00051457644
165	0x39c615cd	0.00037781746
166	0x396138aa	0.00021478781
167	0x3af336a1	0.0018555709
168	0xb8e03b2e	-0.000106921754
169	0x3ac91b89	0.0015343289
170	0xba28c133	-0.00064374803
171	0x3b37bc65	0.0028035876
172	0x3940db45	0.00018392231
173	0xbb114eda	-0.0022172243
174	0xb943e56b	-0.00018682114
175	0xba068fc0	-0.0005133115
176	0xba2114a9	-0.0006144741
177	0x3af00110	0.0018310864
178	0x3a14b574	0.00056727906
179	0x3ae9b35c	0.0017829943
180	0x3a2ec8c1	0.0006667488
181	0x39127cc7	0.00013970128
182	0x3aa589de	0.0012629589
183	0xba0dbf93	-0.000540727
184	0xbaa232b0	-0.0012374725
185	0x3ad39bcc	0.0016144454
186	0xb9a6a75e	-0.00031786686
187	0x38f104bd	0.00011492658
188	0xb88be3ef	-6.6704924e-05
189	0x39cb6b9e	0.00038799358
190	0x3a8cec51	0.001075158
191	0xb8acb53e	-8.235358e-05
192	0xb96df02c	-0.00022691552
193	0xbaf8593c	-0.0018947492
194	0xba46af8a	-0.0007579258
195	0xb9ea83c1	-0.00044730122
196	0xba98ebff	-0.0011667012
197	0x375a9e74	1.3030705e-05
198	0xba272b7d	-0.00063770247
199	0xb9894326	-0.00026180706
200	0xb8a1b2a9	-7.710356e-05
201	0x3a85c812	0.001020672
202	0x39c51880	0.00037593022
203	0x3a270d76	0.000637255
204	0x3a127199	0.00055863854
205	0xb925cf92	-0.00015812952
206	0xba5433c4	-0.0008094872
207	0x3ab0b6dc	0.0013482231
208	0x3a4eaed8	0.000788433
209	0xbad1cb5e	-0.0016006043
210	0x3aa4a373	0.0012560919
211	0x3977d6af	0.00023635731
212	0x39510b37	0.00019935971
213	0xba127de1	-0.00055882154
214	0x3acc86a9	0.0015604097
215	0xba8ff774	-0.0010983781
216	0x3acfe0be	0.0015859825
217	0xba810491	-0.000984328
218	0xbaf3455c	-0.0018560099
219	0x3a4d7a05	0.0007838312
220	0xba4bdad5	-0.0007776444
221	0xb96f78d5	-0.0002283783
222	0x3adb1a69	0.0016716245
223	0x3a9d0f7d	0.0011982765
224	0xb9df16fb	-0.00042550996
225	0xbade1784	-0.0016944264
226	0x3a6935eb	0.0008896279
227	0x3aa00b92	0.001221048
228	0x3aa4d5d4	0.0012575933
229	0x398581ec	0.00025464536
230	0x3a3a70a7	0.00071121234
231	0x39ca0aad	0.00038536396
232	0x3a9702f8	0.001152127
233	0xba87fe7f	-0.0010375528
234	0xb9abd402	-0.0003277362
235	0xbac4998a	-0.0014999371
236	0x3a9cd206	0.0011964447
237	0xb8251422	-3.9357816e-05
238	0x3ab3e699	0.001372534
239	0xbadb6c14	-0.0016740584
240	0x3a192acf	0.0005842866
241	0xbae6de97	-0.0017613944
242	0x38a5b1dd	7.900943e-05
243	0xba39cf57	-0.0007088086
244	0x3ae3511c	0.0017342898
245	0xba3d185e	-0.0007213409
246	0x3b27968a	0.0025571906
247	0x3a92755c	0.0011173892
248	0xba6b6fb4	-0.00089811836
249	0x3aec2ba5	0.0018018378
250	0xbb6fa1a3	-0.003656485
251	0xba5cfe26	-0.0008430205
252	0xbaa11323	-0.0012289028
253	0x3a602bc4	0.00085514435
254	0x3ade5be5	0.0016964643
255	0xbb59fc9b	-0.0033262137

dist.1.linear.bias f4 [7]
0	0x00000000	0.0
1	0x00000000	0.0
2	0x00000000	0.0
3	0x00000000	0.0
4	0x00000000	0.0
5	0x00000000	0.0
6	0x00000000	0.0

dist.2.linear.weight f4 [7, 64]
0	0xbaad831e	-0.0013237929
1	0xb9e880c3	-0.00044346423
2	0x3b3749fc	0.0027967682
3	0xbafb8926	-0.0019190654
4	0x3a704fc3	0.0009167159
5	0x3a130838	0.00056088297
6	0x3ab92fb4	0.0014128597
7	0xba7dd17b	-0.0009682399
8	0xb93385db	-0.00017120635
9	0xba86c32b	-0.0010281553
10	0x3b2c3a24	0.0026279772
11	0xb9940ce2	-0.00028238358
12	0xb99cea90	-0.000299294
13	0xb9f3ed23	-0.00046525252
14	0xbad189ab	-0.0015986463
15	0xb9336419	-0.0001710806
16	0x3a797473	0.00095159485
17	0xbae2715e	-0.0017276218
18	0xb9b182f3	-0.00033857636
19	0xb9850e42	-0.0002537836
20	0x3aa878fd	0.001285344
21	0x38c46db5	9.366443e-05
22	0xb8b607fc	-8.6799235e-05
23	0xbaa192f6	-0.0012327123
24	0xba919fe0	-0.0011110269
25	0xba5fdc24	-0.00085395784
26	0xba3c6d9d	-0.00071879645
27	0x39dc5bf5	0.00042030183
28	0xb9b8e690	-0.00035266997
29	0x3a20a5b0	0.0006128205
30	0xbb7b1738	-0.00383134
31	0x3b00c8ea	0.0019651004
32	0x3ac0851b	0.0014688106
33	0x393d5779	0.0001805703
34	0xba1ce167	-0.00059845153
35	0x394f8a2e	0.00019792534
36	0x39a65619	0.00031726135
37	0x3a5b3cd7	0.0008363253
38	0x3b05483b	0.0020337242
39	0xba59386c	-0.00082863006
40	0xb99cd3f4	-0.00029912556
41	0xba6a66d5	-0.0008941715
42	0xba24293e	-0.0006262249
43	0xba7d670f	-0.0009666541
44	0xb99f4b10	-0.0003038277
45	0x37275b6d	9.975262e-06
46	0xbafd7a8a	-0.0019338888
47	0xbb34da7d	-0.002759605
48	0x3adc6824	0.0016815704
49	0x38f4da4e	0.00011675489
50	0xba2a3e4f	-0.000649427
51	0xb91dea9c	-0.00015060086
52	0xbabeda8d	-0.0014560983
53	0x3abb51d5	0.0014291356
54	0x3a8d02fa	0.0010758333
55	0xb9e712fd	-0.000440739
56	0x3ad0b4cf	0.0015923026
57	0x393a3898	0.00017759425
58	0x3b150158	0.0022736397
59	0xba18856b	-0.00058182207
60	0xba8b38dd	-0.0010621805
61	0x3a02f68e	0.0004995846
62	0xbacb8d33	-0.0015529752
63	0x3816c464	3.594569e-05
64	0x3b13c016	0.0022544912
65	0xba531606	-0.0008052293
66	0xbad95ab8	-0.0016582822
67	0xba9eee4a	-0.0012125459
68	0x398e54de	0.00027147582
69	0x384ebb78	4.928882e-05
70	0xbaaba5c7	-0.001309567
71	0x3ac37c3d	0.0014914345
72	0xbaa73254	-0.0012756088
73	0xbad31ac1	-0.0016105996
74	0x3acdbd4c	0.0015696674
75	0x3a2f7c0b	0.0006694204
76	0x3a7dd469	0.00096828357
77	0x3a54680c	0.00081026624
78	0x3a3d1639	0.0007213089
79	0x39b9ed12	0.0003546258
80	0x39c3c1f5	0.00037337808
81	0xbadcc246	-0.0016842566
82	0x3acea1b7	0.0015764748
83	0xb8adce42	-8.287701e-05
84	0x3ab47655	0.0013768176
85	0xba77f7a5	-0.0009459204
86	0xb9c34344	-0.00037243415
87	0xb9cc695b	-0.00038988408
88	0x3a144796	0.0005656419
89	0x3a351ca4	0.000690887
90	0x3a4e5c93	0.0007872071
91	0xb9f62e63	-0.00046955337
92	0xbae888c3	-0.0017740953
93	0x3a9b2707	0.0011837193
94	0xba352ac0	-0.00069109723
95	0x39c08cb0	0.00036725914
96	0x3b48d286	0.003064306
97	0xba91ff66	-0.0011138737
98	0x3ae66069	0.001757634
99	0xba225e38	-0.0006193849
100	0xba482fbb	-0.0007636507
101	0xb924d516	-0.0001571964
102	0xbab75cdc	-0.0013989466
103	0xb9f433a3	-0.0004657778
104	0xb9f7966f	-0.00047223593
105	0xba44fddc	-0.00075146346
106	0xb88ac418	-6.616878e-05
107	0x3a868d8b	0.0010265572
108	0x3b313637	0.0027040371
109	0x3a232df4	0.0006224804
110	0xbb2364b6	-0.0024931855
111	0x3adf701b	0.001704696
112	0x3ab718cd	0.0013969183
113	0xb926601e	-0.000158668
114	0x3ac225f8	0.0014812341
115	0x39b38429	0.00034240008
116	0xbacee174	-0.0015783743
117	0xbb0f1939	-0.0021835102
118	0xba0fbcd0	-0.00054831523
119	0xba6608af	-0.00087750977
120	0x3a5075a4	0.00079521
121	0x3a9a112b	0.0011754384
122	0xba7f2399	-0.00097327825
123	0x3a818194	0.0009880536
124	0xb93e5fae	-0.00018155455
125	0x3ab31361	0.0013662392
126	0x3b002924	0.0019555772
127	0x3af4870e	0.0018655972
128	0xbacd0b2e	-0.0015643591
129	0x39cef7ae	0.00039475918
130	0x3870a552	5.7374426e-05
131	0xbab87f21	-0.0014075973
132	0xba60abf9	-0.0008570548
133	0x3891ec45	6.9581474e-05
134	0xb8be4f2b	-9.074652e-05
135	0x3ae59cf4	0.0017518089
136	0xb95edd44	-0.00021253998
137	0x3b0de97f	0.0021654067
138	0xbaf4d64a	-0.0018679586
139	0xbb034399	-0.0020029305
140	0x3a3e17c6	0.00072514673
141	0xb9f73890	-0.00047153654
142	0x3a58a407	0.0008264188
143	0xb96b5023	-0.000224412
144	0x34a8b47b	3.1423755e-07
145	0xbb0a6a40	-0.002112046
146	0xbb0f3e3a	-0.0021857158
147	0xba6a7387	-0.00089436065
148	0x3a971606	0.0011526949
149	0xba297d1d	-0.0006465482
150	0x39867a4b	0.00025649587
151	0xbad8f4e2	-0.0016552473
152	0xba00ec37	-0.0004918011
153	0xb9a3419e	-0.0003113867
154	0x398db479	0.00027028078
155	0x38e54c94	0.00010933835
156	0xbb57ff6c	-0.003295864
157	0x3b002fd1	0.001955975
158	0x3a49e612	0.00077018247
159	0xba9b34b0	-0.0011841264
160	0x3a850979	0.0010149918
161	0x3ac725b2	0.0015193729
162	0x3aefa687	0.0018283882
163	0xb9a0bbb6	-0.00030657434
164	0x3a08d44a	0.0005219622
165	0x399a0b3b	0.00029381536
166	0xbb051620	-0.0020307377
167	0x3aef5c85	0.0018261826
168	0xbb02898b	-0.0019918408
169	0xb9a03ed2	-0.00030564383
170	0xb9ca95b0	-0.00038639968
171	0x3b0d2570	0.0021537207
172	0xba65caca	-0.00087658747
173	0xb8be2894	-9.067464e-05
174	0xb75128e1	-1.2466889e-05
175	0xb9df9009	-0.0004264119
176	0xb94f94db	-0.00019796511
177	0xbb085ea2	-0.0020808359
178	0xb943cac6	-0.00018672188
179	0x3b139929	0.002252171
180	0x3ad02b5b	0.0015882062
181	0x3a9027d3	0.0010998197
182	0x39b2405c	0.00033998757
183	0xbac0125c	-0.0014653909
184	0x39e75d70	0.0004412937
185	0x39a294ae	0.00031009823
186	0x3a6117dc	0.0008586624
187	0xbab4978e	-0.0013778077
188	0xb972d094	-0.0002315662
189	0xba90463e	-0.0011007262
190	0xba5ce3c6	-0.0008426275
191	0xba9b8132	-0.0011864065
192	0x3aaa238b	0.0012980563
193	0x3ab97c00	0.0014151335
194	0x3ad096ee	0.0015914121
195	0x3a3e313d	0.0007255262
196	0xb9de5487	-0.00042406117
197	0xb92fe4e9	-0.00016774576
198	0x391fbde7	0.00015234166
199	0xb978f7ec	-0.00023743481
200	0x398c1ee3	0.00026725893
201	0xbaebfe10	-0.0018004794
202	0x39ed5dab	0.0004527395
203	0xba0859d8	-0.0005201376
204	0x398b0e36	0.00026522734
205	0xba196e9d	-0.00058529695
206	0x3a332b80	0.000683479
207	0xb728a8d4	-1.0052889e-05
208	0x3ac11877	0.0014732023
209	0x395590ec	0.0002036725
210	0x3b3d06d5	0.0028843184
211	0xba9f69b9	-0.0012162245
212	0xba8a7b3c	-0.0010565291
213	0x3a471254	0.00075939787
214	0x3a9c6a09	0.0011933456
215	0xba28c229	-0.00064376235
216	0x3a6ded53	0.00090761966
217	0x3ab7dd70	0.0014027786
218	0xbaa90b89	-0.0012897115
219	0xbad93070	-0.0016570222
220	0xb9694ad9	-0.00022248494
221	0x3b36ec7e	0.0027911956
222	0x3a54ec21	0.0008122344
223	0xb9e16d19	-0.00042996628
224	0xb918db00	-0.00014577433
225	0x3927cb29	0.00016002044
226	0x39c334fd	0.00037232778
227	0xb88cb7d4	-6.709961e-05
228	0x3ac0c4d2	0.0014707095
229	0x3b0ef15c	0.0021811342
230	0x3aa8f9ee	0.0012891868
231	0x3a88a0e1	0.0010423922
232	0x3aee16ee	0.0018164793
233	0xba5fa32e	-0.00085310906
234	0xbb134e65	-0.0022477147
235	0x39f4516f	0.0004659998
236	0xbb288dc5	-0.0025719267
237	0x3abb619e	0.001429606
238	0x3b390ec2	0.0028237556
239	0xb9e7be46	-0.00044201518
240	0x35166ccd	5.603768e-07
241	0x3a3f2acd	0.00072924496
242	0x3a050ec6	0.0005075749
243	0x3b40a36d	0.0029394284
244	0xba9fa4ad	-0.0012179815
245	0xba676a57	-0.00088277966
246	0xba59ba7b	-0.0008305681
247	0xbaad8c30	-0.0013240632
248	0xba53bc94	-0.00080771116
249	0x3a8fbe09	0.0010966669
250	0x3aaa8097	0.0013008293
251	0x395c2e29	0.00020998031
252	0x392c8529	0.00016452804
253	0xba2bebb4	-0.0006558255
254	0x39f78db5	0.0004721709
255	0x3ace667d	0.0015747097

dist.2.linear.bias f4 [7]
0	0x00000000	0.0
1	0x00000000	0.0
2	0x00000000	0.0
3	0x00000000	0.0
4	0x00000000	0.0
5	0x00000000	0.0
6	0x00000000	0.0
