BLIP/RL/trained_models/ppo/2023-01-29_minigrid_5e5_doorkeylava-doorkey-wallgap-lavagap-redbluedoor_fine-tuning_2_task_4.pth (torch, 735517 bytes, 19 tensors)

features.actor.0.weight f4 [64, 2739]
0.15988891 0.05145456 0.059790976 0.1169268 0.024288751 0.08975003 -0.07434856 -0.107406504
0.14833526 -0.18645446 -0.022691881 -0.21683387 -0.18668309 -0.35448423 0.14734887 -0.1490327
0.19697279 -0.20647807 0.60867536 0.43738356 0.035550047 0.16835362 0.03328902 0.052796
0.13947682 0.1482856 0.0351691 0.18193495 0.13737103 0.15624538 0.1452719 0.09555017
-0.023865424 -0.37197444 -0.33449554 -0.18907712 -0.32390505 -0.080324404 -0.28927034 0.5507045
-0.23359954 -0.022766517 0.13120803 0.11529924 -0.0018102354 0.1630463 0.13500838 0.0026888894
0.022915909 0.011648849 -0.1427859 -0.305668 -0.059067022 0.15626192 -0.28950602 0.12376725
-0.11699403 -0.3289128 0.26925373 -0.28093305 0.4160478 -0.25117233 0.23210512 0.16749717
0.12081035 0.07929242 0.19815986 0.07845268 0.034302596 0.014809183 0.08359454 -0.07115474
-0.10608011 0.03490491 0.17816696 -0.04734048 0.32609734 -0.4963723 -1.0301507 -0.16095315
0.10489463 0.8151331 0.6994551 0.023099754 0.1571742 0.16770728 0.13124698 0.175407
0.17826346 0.042100348 0.058396045 0.014325156 0.5105345 0.1774049 0.043709833 -0.18191269
0.8644786 0.4504462 0.63677776 0.5389709 -0.14790127 0.19437484 -0.4540617 -0.48568386
-0.5474607 0.19295748 0.15620987 0.0741074 0.20315953 0.15332219 0.06268834 0.061359722
-0.14043759 0.38842613 -0.013312197 0.12417358 -0.13359325 -0.08150471 0.16958313 -0.077833496
0.08426409 -0.4715909 -0.20456077 0.29115218 -0.35105532 0.29444808 0.17909314 0.1013476
0.05134349 0.11521792 0.13755134 0.09852437 -0.030565431 -0.13406788 0.3242315 -0.2648738
0.16735244 0.17593303 -0.1880421 0.22790232 0.027322618 -0.475444 -0.5222566 0.07280613
0.22671248 -0.12412229 -0.016681217 0.08137788 -0.059531104 0.008112373 0.06832118 0.03898578
0.07132948 0.010383907 -0.0007823989 0.050511565 -0.004393836 -0.007767072 0.010924158 -0.030637333
0.01869429 -0.115286164 0.0009768237 0.0008423216 -0.008793831 0.0313074 -0.018781576 0.06847182
-0.019529253 0.031228267 0.018675065 0.0026965898 -0.008952555 0.0057522347 0.015212927 0.043337006
-0.00726282 0.008858737 0.017195696 -0.012581345 0.036754467 0.00071246084 0.054340128 0.027982235
0.05185756 0.0028973871 -0.012992746 -0.0054775225 0.02336929 -0.06536571 0.02489552 -0.032635704
0.1035574 -0.017382467 0.050223373 0.061250377 -0.010896694 0.004129313 0.012816522 -0.00399444
-0.018180732 0.008418283 0.042984717 0.02866031 -0.0015458111 0.055281144 -0.015189219 -0.023538606
0.0037534442 -0.0665585 0.016846186 -0.0035382495 -0.012113124 -0.005948496 0.108669974 0.05142549
0.04558421 0.059202854 -0.033765983 -0.018954074 -0.03155457 -0.011326634 0.018567057 -0.0069798883
0.03488414 -0.029141953 -0.021967081 -0.021237079 -0.04492467 -0.040132206 0.015359311 0.106637426
0.021611176 -0.00069824164 0.040706303 -0.041555054 0.0389405 -0.010913248 -0.03624248 0.058666416
-0.008128476 -0.05102359 -0.009207907 -0.0016608594 -0.02803298 -0.006933735 -0.03970975 -0.01266023
0.014542553 0.051182035 0.02391719 0.008045635 0.027253686 -0.05178487 0.033272237 -0.006579277
00000000: ebb9 233e 04c2 523d 62e7 743d 5177 ef3d
00000010: 34f9 c63c ddce b73d 0f44 98bd f1f7 dbbd
00000020: 33e5 173e ebed 3ebe 53e4 b9bc b309 5ebe
00000030: da29 3fbe f57e b5be 9fe2 163e 079c 18be
00000040: 3cb3 493e fd6e 53be 26d2 1b3f bdf0 df3e
00000050: ed9c 113d e464 2c3e 115a 083d 9e40 583d
00000060: 03d3 0e3e 2ed8 173e 790d 103d 284d 3a3e
00000070: feaa 0c3e cafe 1f3e 28c2 143e cfaf c33d
00000080: 6c81 c3bc 6f73 bebe 0043 abbe 6f9d 41be
00000090: e2d6 a5be 1f81 a4bd 3e1b 94be f8fa 0c3f
000000a0: b834 6fbe d980 babc 665b 063e 0222 ec3d
000000b0: 6c45 edba 9cf5 263e a33f 0a3e 1438 303b
000000c0: 25ba bb3c d0da 3e3c 7836 12be 8480 9cbe
000000d0: 43f0 71bd 2003 203e 223a 94be af79 fd3d
000000e0: 919a efbd 4267 a8be a0db 893e 75d6 8fbe
000000f0: 3804 d53e a999 80be f7ac 6d3e 6184 2b3e
00000100: 6b6b f73d 1064 a23d 6bea 4a3e ccab a03d
00000110: e180 0c3d 37a2 723c 9d33 ab3d 94b9 91bd
00000120: 8740 d9bd 73f8 0e3d 6671 363e 17e8 41bd
00000130: 3bf6 a63e 8324 febe fadb 83bf e7d0 24be
00000140: ffd2 d63d 90ac 503f 7d0f 333f b23b bd3c
00000150: 46f2 203e 75bb 2b3e 9c65 063e e59d 333e
00000160: b28a 363e 6a71 2c3d b130 6f3d 0fb4 6a3c
00000170: 64b2 023f a1a9 353e 1509 333d 5247 3abe
00000180: 784e 5d3f e2a0 e63e de03 233f fff9 093f
00000190: 6e73 17be 330a 473e c67a e8be 8eab f8be
000001a0: 6226 0cbf a596 453e 7bf5 1f3e 9fc5 973d
000001b0: 0d09 503e 7e00 1d3e bf62 803d 5554 7b3d
000001c0: dfce 0fbe cadf c63e 671b 5abc b84e fe3d
000001d0: abcc 08be f1eb a6bd 33a7 2d3e 2b67 9fbd
000001e0: a792 ac3d 5d74 f1be 6178 51be e611 953e
000001f0: 86bd b3be e6c1 963e 3164 373e 558f cf3d
00000200: 8d4d 523d 5ff7 eb3d 42da 0c3e 25c7 c93d
00000210: 5b64 fabc 1749 09be ac01 a63e 8a9d 87be
00000220: 705e 2b3e ca27 343e 1c8e 40be 3a5f 693e
00000230: afd3 df3c 656d f3be 9cb2 05bf 611b 953d
00000240: 5127 683e d433 febd 0ca7 88bc 72a9 a63d
00000250: e3d6 73bd c2e9 043c faeb 8b3d 8eaf 1f3d
00000260: 3115 923d 4321 2a3c e719 4dba 37e5 4e3d
00000270: 2bfa 8fbb ec82 febb 3dfb 323c 25fb fabc
00000280: c524 993c 271b ecbd c408 803a 3fcf 5c3a
00000290: 0014 10bc 303c 003d d2db 99bc f43a 8c3d
000002a0: d0fb 9fbc 6cd2 ff3c 73fc 983c 45b9 303b
000002b0: bdad 12bc 3e7d bc3b a43f 793c 2582 313d
000002c0: f3fc edbb 3c24 113c fddd 8c3c fc21 4ebc
000002d0: da8b 163d 70c4 3a3a c193 5e3d 003b e53c
000002e0: 9868 543d 17e2 3d3b 87df 54bc ca7c b3bb
000002f0: f470 bf3c 75de 85bd b1f1 cb3c 04ad 05bd
00000300: e715 d43d ad65 8ebc 06b7 4d3d ade1 7a3d
00000310: 0c88 32bc 304f 873b 64fc 513c cbe3 82bb
00000320: c2ef 94bc d7ec 093c be10 303d 07c9 ea3c
00000330: d09c caba 7b6e 623d 34dc 78bc 09d4 c0bc
00000340: 58fc 753b d34f 88bd 0301 8a3c fae1 67bb
00000350: 2076 46bc 9aeb c2bb 5d8e de3d 89a3 523d
00000360: 82b6 3a3d b17e 723d 334e 0abd 9345 9bbc
00000370: 5d3f 01bd 5993 39bc f119 983c 8cb7 e4bb
00000380: ace2 0e3d 1bbb eebc 4ff4 b3bc 62f9 adbc
00000390: ee02 38bd ab61 24bd 9fa5 7b3c b964 da3d
000003a0: ec09 b13c 340a 37ba a7bb 263d a235 2abd
000003b0: 1380 1f3d 7bcd 32bc ff72 14bd 324c 703d
000003c0: 4d2d 05bc 1dfe 50bd c3dc 16bc 32b1 d9ba
000003d0: 6ca5 e5bc 6334 e3bb b1a6 22bd da6c 4fbc
000003e0: e343 6e3c 41a4 513d fced c33c d7d1 033c
000003f0: 1f43 df3c 5f1c 54bd 7848 083d fa96 d7bb

features.actor.0.bias f4 [64]
0.26772076 -0.9177332 0.042053763 0.761876 0.20221479 0.6831563 -0.6141032 -0.893325
1.1463788 0.22417857 0.27827823 -0.30296916 -1.0282058 -0.11206102 -0.5804055 0.45975605
-0.13864295 0.4007227 0.25063658 0.38857704 0.58830446 0.138883 -0.6663129 -0.1830362
-0.40979677 0.48382926 0.8829412 0.8875786 0.7525366 0.5408539 0.3669843 0.18414968
0.10610435 0.2806075 0.63100964 0.24353078 -0.31936997 -0.62180316 -0.11373839 0.91070163
-0.35602978 0.039282102 0.16329712 0.41724142 -0.15651235 -0.65483296 0.20275174 0.25589004
0.47241342 -0.41686073 -0.14050661 0.05841697 -0.22776477 0.04321468 0.32160643 -0.13732599
-0.9405613 -0.24836335 0.5190275 1.0272541 -0.44835305 -0.48079515 -1.106003 -0.7765901
00000000: b212 893e 90f0 6abf 9140 2c3d 4e0a 433f
00000010: 6511 4f3e 55e3 2e3f de35 1dbf f2b0 64bf
00000020: 8abc 923f 118f 653e 7c7a 8e3e c61e 9bbe
00000030: 3f9c 83bf 4080 e5bd 7495 14bf 2565 eb3e
00000040: 6bf8 0dbe 872b cd3e 7053 803e 92f3 c63e
00000050: 1f9b 163f 5837 0e3e 7b93 2abf d76d 3bbe
00000060: e2d0 d1be 78b8 f73e 6f08 623f 5a38 633f
00000070: 3da6 403f 6775 0a3f 5ee5 bb3e bc91 3c3e
00000080: 3d4d d93d c9ab 8f3e d989 213f 2260 793e
00000090: 7684 a3be 7e2e 1fbf acef e8bd be23 693f
000000a0: 8949 b6be 45e6 203d 5c37 273e aba0 d53e
000000b0: c644 20be 22a3 27bf 279e 4f3e 0504 833e
000000c0: 2ce0 f13e c56e d5be f7e0 0fbe a246 6f3d
000000d0: 2b3b 69be e001 313d 99a9 a43e 2f9f 0cbe
000000e0: a0c8 70bf f652 7ebe fcde 043f 107d 833f
000000f0: 888e e5be c82a f6be 8291 8dbf 9cce 46bf

features.actor.2.weight f4 [64, 64]
0.10130801 0.7926749 0.0002700695 -0.24555077 0.29754424 -0.084728256 0.3430832 1.0819049
0.07881082 -0.28246376 0.041637205 -0.18224081 0.52225316 0.06875764 0.051492304 -0.5026727
-0.51261806 -0.19470382 -0.3362037 -0.3011658 -0.17729647 -0.4721583 0.055134818 0.045100857
0.26186153 -1.1265517 -0.27757704 0.022486629 -0.14123493 -0.3850791 0.091814294 -0.08670344
-0.15896058 -0.14662167 -0.18930602 -0.19255152 -0.077743426 -0.47510558 0.30269355 -0.77286536
0.38545713 0.33074003 0.021422498 -0.22116306 -0.08805889 0.19553895 0.51940364 -0.63177705
-0.20879833 0.49178377 0.33914533 -0.093804896 0.3574483 -0.13442901 -0.39635798 -0.08520247
-0.26114893 0.10753952 -0.21818393 -0.9569818 -0.10963946 0.24325536 0.28851524 -0.29396325
-0.570442 0.18446654 -0.84948975 -0.40919676 -0.9476315 0.36566746 -0.4961926 -0.39977345
-0.2000692 0.16576968 0.13923442 0.3201328 0.3427256 -0.029306956 0.05067568 0.0330233
0.20808859 0.15287746 -0.7524696 0.92041487 0.33857983 0.19985442 -0.5752215 -0.05862268
0.027241664 -0.50190145 0.07891587 0.3895284 -0.35603362 0.42227578 -0.70199966 -0.13757044
-0.046658184 0.018200407 -0.39994884 0.23338197 0.26269248 0.13407885 0.26560658 0.15142535
0.41940036 -0.057207566 -0.16299912 -0.30883622 0.6769309 0.26958534 -0.30551225 0.018130424
0.74284005 0.17042896 -0.037450112 -0.61771053 0.8072699 -0.41337615 0.8931959 0.78356385
-0.23481627 -0.2853214 -0.020362195 0.29935133 -0.13565843 -0.3594102 0.28962314 -0.40639365
-0.85030675 0.3669743 -0.431254 -0.03411416 -0.19928165 0.22236882 -0.07602214 -0.5636084
0.5609812 -0.02641404 0.2865219 0.11028795 0.50000787 -0.11222277 -0.49221566 0.13051301
0.15426846 0.4301092 0.67403686 0.07035134 -0.09357218 0.12648772 0.0065137786 0.1343605
0.20017216 0.0719885 0.017033514 0.10934196 -0.14329973 0.2740643 -0.46386254 0.0034271954
-0.17358297 0.19840138 0.22985314 0.4664321 -0.4691406 0.55739504 0.5242003 0.009813696
0.015065014 0.16656919 -0.4421968 -0.04241188 -0.3937191 -0.41430172 -0.70561504 -0.68856233
0.0014031952 -0.38364312 0.2163093 -0.2826423 -0.10213044 0.013444293 0.58255184 -0.15308739
-0.31459385 -0.41127893 -0.25200337 -0.12759048 -0.22617775 0.2640461 -1.08169 0.18301241
-0.26930895 -0.21773712 -0.4421535 0.32729194 -0.25435963 0.3404612 -0.43914822 -0.36905238
-0.28512385 1.0900948 0.59122163 0.11488959 0.8413199 -0.5045714 0.38896054 0.07864447
0.28056657 0.25088245 0.03172468 0.27107546 -0.29990688 -0.032893393 0.8694642 0.41528925
-0.059032086 -0.15465853 -0.6196116 -0.35940364 -0.25826046 0.11095603 -1.0814401 0.1214432
-0.9038797 -0.010810747 -0.37982213 0.57815206 -0.4039229 0.38132128 -0.064448036 -0.36349124
0.04591423 0.18186292 -0.1322426 -0.029694203 -0.09430094 -0.2959505 -0.42654467 0.28439054
0.09722761 -0.044894338 -0.17176196 -0.8159809 0.20864008 0.057951707 -0.12183424 -0.20075162
0.30218196 0.14134157 -0.6871944 0.70286846 0.007108369 0.5279605 0.23117259 -0.035588846
00000000: 937a cf3d beec 4a3f 1d98 8d39 a971 7bbe
00000010: b857 983e 0286 adbd 9aa8 af3e dc7b 8a3f
00000020: 9167 a13d 179f 90be c68b 2a3d 569d 3abe
00000030: 62b2 053f ced0 8c3d 98e9 523d 28af 00bf
00000040: f03a 03bf 7060 47be e422 acbe 6732 9abe
00000050: 358d 35be bcbe f1be 0cd5 613d adbb 383d
00000060: b712 863e d932 90bf 941e 8ebe e135 b83c
00000070: e49f 10be 1629 c5be 2209 bc3d 9391 b1bd
00000080: 90c6 22be fe23 16be 70d9 41be 3a2c 45be
00000090: f237 9fbd 0a41 f3be a6fa 9a3e 81da 45bf
000000a0: a35a c53e c256 a93e 3c7e af3c 9278 62be
000000b0: 3858 b4bd 5d3b 483e a3f7 043f 24bc 21bf
000000c0: 3bcf 55be 15cb fb3e 75a4 ad3e c81c c0bd
000000d0: 7703 b73e c2a7 09be 6fef cabe a27e aebd
000000e0: 50b5 85be ae3d dc3d 9c6b 5fbe c2fc 74bf
000000f0: a78a e0bd ef17 793e 45b8 933e 5a82 96be
00000100: 7d08 12bf cce4 3c3e 2978 59bf 3d82 d1be
00000110: fa97 72bf c438 bb3e f50c febe 1baf ccbe
00000120: f1de 4cbe 87bf 293e 7893 0e3e 72e8 a33e
00000130: bb79 af3e 2415 f0bc 4d91 4f3d 7143 073d
00000140: 2d15 553e e98b 1c3e d9a1 40bf 4fa0 6b3f
00000150: 565a ad3e a3a6 4c3e b741 13bf 561e 70bd
00000160: e929 df3c 9d7c 00bf a59e a13d 4470 c73e
00000170: 0a4a b6be 8834 d83e 40b6 33bf 44df 0cbe
00000180: a71c 3fbd 0519 953c 18c6 ccbe affb 6e3e
00000190: a17f 863e f74b 093e 96fd 873e 3f0f 1b3e
000001a0: a5bb d63e 7b52 6abd 3ee9 26be c81f 9ebe
000001b0: 584b 2d3f 1707 8a3e 1a6c 9cbe 4186 943c
000001c0: c42a 3e3f ee84 2e3e 4a65 19bd 4722 1ebf
000001d0: 3da9 4e3f 0aa6 d3be 7da8 643f a497 483f
000001e0: ad73 70be a615 92be 9ece a6bc 9444 993e
000001f0: 0bea 0abe 9d04 b8be 7c49 943e d412 d0be
00000200: b4ad 59bf 0ee4 bb3e 53cd dcbe 4abb 0bbd
00000210: 7d10 4cbe a7b4 633e 7fb1 9bbd a448 10bf
00000220: 779c 0f3f 4262 d8bc 00b3 923e a6de e13d
00000230: 8400 003f 0dd5 e5bd b103 fcbe 34a5 053e
00000240: 8df8 1d3e 4637 dc3e ae8d 2c3f 5d14 903d
00000250: c5a2 bfbd ff85 013e 8971 d53b cd95 093e
00000260: eef9 4c3e b56e 933d de89 8b3c adee df3d
00000270: 2abd 12be 2852 8c3e 647f edbe cc9a 603b
00000280: bcbf 31be bb29 4b3e 9f5e 6b3e 30d0 ee3e
00000290: 3233 f0be 71b1 0e3f fe31 063f a0c9 203c
000002a0: 40d3 763c 1d91 2a3e 9e67 e2be 14b8 2dbd
000002b0: 8d95 c9be 5b1f d4be 30a3 34bf 9f45 30bf
000002c0: 6beb b73a df6c c4be 2f80 5d3e 7eb6 90be
000002d0: c429 d1bd 7445 5c3c 1e22 153f f1c2 1cbe
000002e0: 7212 a1be 2793 d2be 9606 81be 14a7 02be
000002f0: 249b 67be 0d31 873e d174 8abf 9b67 3b3e
00000300: dde2 89be 7bf6 5ebe f261 e2be cf92 a73e
00000310: 6d3b 82be ee50 ae3e 09d8 e0be 6ff4 bcbe
00000320: c1fb 91be 3a88 8b3f 4d5a 173f 3c4b eb3d
00000330: be60 573f 972b 01bf d625 c73e 5a10 a13d
00000340: 6ca6 8f3e aa73 803e bdf1 013d 67ca 8a3e
00000350: 658d 99be 39bb 06bd 3595 5e3f cba0 d43e
00000360: a1cb 71bd ce5e 1ebe de9e 1ebf c103 b8be
00000370: b73a 84be ea3c e33d a16c 8abf 36b7 f83d
00000380: a964 67bf 8f1f 31bc 0c78 c2be c601 143f
00000390: fbce cebe 8b3c c33e 55fd 83bd 861b babe
000003a0: 8f10 3c3d 463a 3a3e 9b6a 07be 4241 f3bc
000003b0: da20 c1bd d386 97be 1064 dabe a39b 913e
000003c0: 451f c73d 20e3 37bd 5ee2 2fbe 20e4 50bf
000003d0: bfa5 553e c55e 6d3d 3b84 f9bd d591 4dbe
000003e0: 98b7 9a3e d8bb 103e f9eb 2fbf 30ef 333f
000003f0: 52ed e83b 6b28 073f 82b8 6c3e 9cc5 11bd

features.actor.2.bias f4 [64]
-1.8822799 -0.42303026 1.0840375 0.1360211 -0.4253002 -0.33178785 1.2537749 -0.6348852
0.16036777 -0.38764587 -1.6795541 0.97575533 0.049170382 0.5805207 -0.44125625 0.3799395
1.0213537 -0.016404781 -0.6697503 -2.1591172 -0.15171956 0.2236628 -0.5373281 1.306728
-0.019977234 -0.34798992 0.6061154 0.25351247 1.1476574 0.13371961 -0.26791033 0.38952786
-1.1640604 -0.111091726 -0.04199988 -0.20695725 1.2829856 -1.5684439 -0.26999316 0.36305678
-0.7457859 -0.6137003 0.27044064 -0.32559374 0.6823999 0.4307737 -0.2917189 2.4534936
0.060018454 -0.27404204 -0.5098658 1.8265524 -0.3384749 0.4739457 -0.21539055 0.3064275
-0.42750236 -0.058256846 -0.74410814 -2.3756785 1.1580127 -0.45038 0.29611513 -0.018014617
00000000: 8cee f0bf 6c97 d8be bec1 8a3f 1e49 0b3e
00000010: f3c0 d9be 19e0 a9be b27b a03f d687 22bf
00000020: 7337 243e 8579 c6be a1fb d6bf 1acb 793f
00000030: e266 493d 019d 143f 57ec e1be 6e87 c23e
00000040: b8bb 823f 5263 86bc c174 2bbf fa2e 0ac0
00000050: 5f5c 1bbe dc07 653e 568e 09bf dd42 a73f
00000060: 4ca7 a3bc bc2b b2be 612a 1b3f 63cc 813e
00000070: 70e6 923f cbed 083e 8b2b 89be 3270 c73e
00000080: eeff 94bf 0f84 e3bd 1108 2cbd 9aec 53be
00000090: df38 a43f c5c2 c8bf 8b3c 8abe 94e2 b93e
000000a0: d3eb 3ebf 761b 1dbf 3277 8a3e 39b4 a6be
000000b0: c3b1 2e3f 5f8e dc3e 2e5c 95be 0a06 1d40
000000c0: e9d5 753d 3d4f 8cbe 9186 02bf 78cc e93f
000000d0: 954c adbe 03a9 f23e 578f 5cbe 11e4 9c3e
000000e0: 97e1 dabe bb9e 6ebd df7d 3ebf 1e0b 18c0
000000f0: c339 943f 3598 e6be 679c 973e 6493 93bc

critic.0.weight f4 [1, 64]
-0.52437323 -0.069450736 0.29335418 0.070790134 -0.26465636 0.0019225086 0.22044425 -0.12701434
0.06998067 -0.25144562 -0.4944844 0.20471646 0.2568448 0.058126632 -0.21178469 0.06845414
0.15318416 -0.040303536 -0.16467132 -0.3889334 -0.09887823 -0.024590526 -0.12158426 0.074904956
0.1158121 0.027589565 0.115071535 0.01739496 0.1953013 0.05494572 -0.050885286 0.044204805
-0.4430557 -0.081914194 0.067190856 0.10772631 0.12283539 -0.117138796 -0.016600505 0.09227069
-0.1688613 -0.09482027 0.14262874 -0.01183188 0.2749824 -0.08216055 -0.033069927 0.29686645
-0.05962699 -0.545864 -0.04344633 0.16400254 0.078500435 0.058651574 0.07163077 -0.0026714746
0.03675167 -0.032833867 -0.27870795 -0.46031338 0.27382383 0.05913087 0.04369429 -0.03662793
00000000: 533d 06bf 303c 8ebd 8532 963e 6bfa 903d
00000010: 0a81 87be affc fb3a 23bc 613e 0c10 02be
00000020: 0752 8f3d 7bbd 80be 0f2d fdbe 31a1 513e
00000030: 2981 833e 3116 6e3d 16de 58be af31 8c3d
00000040: 4fdc 1c3e 5215 25bd 999f 28be 4722 c7be
00000050: ab80 cabd 1272 c9bc 2b01 f9bd c567 993d
00000060: e52e ed3d 8303 e23c a0aa eb3d e07f 8e3c
00000070: 10fd 473e c30e 613d 176d 50bd 1910 353d
00000080: 32d8 e2be a1c2 a7bd 5c9b 893d 9d9f dc3d
00000090: 1f91 fb3d 77e6 efbd c8fd 87bc 6af8 bc3d
000000a0: fae9 2cbe 2131 c2bd 450d 123e 80da 41bc
000000b0: 7eca 8c3e ca43 a8bd 5574 07bd e1fe 973e
000000c0: 6e3b 74bd bebd 0bbf c7f4 31bd 48f0 273e
000000d0: d6c4 a03d a23c 703d 27b3 923d e813 2fbb
000000e0: eb88 163d ce7c 06bd cfb2 8ebe 32ae ebbe
000000f0: a332 8c3e 3633 723d c9f8 323d 2b07 16bd

critic.1.weight f4 [1, 64]
-0.41518614 -0.025673267 0.07031619 0.010502577 -0.026535032 -0.04650675 0.047444135 0.014266766
-0.03384706 -0.004623589 -0.15523086 0.06613913 -0.040626805 0.042649124 0.01582361 -0.0034798316
0.025963139 0.025586214 -0.011568841 -0.46694985 -0.017238967 0.05462085 -0.04525601 0.43358588
-0.045688476 0.008707865 0.015921738 0.0029343453 0.040769916 0.012806621 -0.0014891959 0.0023153163
-0.11422286 -0.047243197 0.010822051 -0.03005749 -0.004837025 -0.06957711 0.028245032 0.014491466
-0.03699912 0.0030023146 -0.017786745 -0.009711141 0.12272435 0.0037413153 -0.012923265 0.6044589
-0.011478163 0.05104666 -0.062142428 0.23156124 -0.028606556 0.033153396 -0.020397939 0.016522687
-0.028422907 0.02018688 -0.011667239 -0.46709594 0.04987462 -0.01304784 0.050371464 -0.0018828168
00000000: 4793 d4be be50 d2bc ef01 903d 0013 2c3c
00000010: ff5f d9bc dd7d 3ebd c854 423d 27bf 693c
00000020: 37a3 0abd 7a81 97bb d7f4 1ebe f473 873d
00000030: 4b68 26bd d9b0 2e3d 84a0 813c e30d 64bb
00000040: a6b0 d43c 2e9a d13c 3c8b 3dbc 0d14 efbe
00000050: bc38 8dbc 1dba 5f3d 5e5e 39bd f8fe dd3e
00000060: d723 3bbd 6fab 0e3c 4e6e 823c 254e 403b
00000070: 5bfe 263d ddd2 513c 1f31 c3ba 90bc 173b
00000080: aded e9bd 1582 41bd f94e 313c 203b f6bc
00000090: e87f 9ebb 727e 8ebd 2062 e73c 9d6d 6d3c
000000a0: 648c 17bd 7bc2 443b 82b5 91bc 7a1b 1fbc
000000b0: e756 fb3d db30 753b 1abc 53bc d2bd 1a3f
000000c0: e80e 3cbc 4d16 513d 0f89 7ebd 641e 6d3e
000000d0: 4c58 eabc dbcb 073d 9419 a7bc 965a 873c
000000e0: 28d7 e8bc f55e a53c f227 3fbc 3327 efbe
000000f0: 5449 4c3d 9cc6 55bc 4f52 4e3d d9c8 f6ba

critic.2.weight f4 [1, 64]
-0.30995104 0.010729311 -0.013518413 -0.0217702 0.025953721 0.0063002044 0.16262293 -0.006859769
-0.016916327 -0.04461891 -0.28539765 0.027944798 0.01029447 0.040353328 -0.0039986805 0.017848901
0.05328877 0.041104186 0.030184068 -0.42692357 -0.030591056 0.013141695 0.035643555 -0.0018578286
-0.03982922 -0.008272851 0.029569227 0.025078412 0.08548183 0.02452141 0.02386428 -0.03967353
-0.37858286 0.01740891 -0.021482809 0.0006284856 0.051476255 -0.1034165 0.04818596 -0.054252647
-0.009001017 -0.055847604 -0.002086891 -0.0047035734 0.038907614 0.01645245 0.0007721359 0.366754
-0.08634081 0.058068804 0.012533932 0.13745946 -0.0025479784 0.012816747 0.022120409 0.0131104095
-0.0050355373 0.009804335 0.030748488 -0.46075764 0.019974245 -0.026065033 0.023558032 0.034307007
00000000: e7b1 9ebe fec9 2f3c 557c 5dbc 6b57 b2bc
00000010: e69c d43c f271 ce3b a086 263e eac7 e0bb
00000020: 1c94 8abc 51c2 36bd a41f 92be 7dec e43c
00000030: 23aa 283c 8849 253d 5d07 83bb dc37 923c
00000040: 5345 5a3d dd5c 283d 9444 f73c ba95 dabe
00000050: 189a fabc 4450 573c fafe 113d 6282 f3ba
00000060: f723 23bd da8a 07bc 2a3b f23c 3e71 cd3c
00000070: 1911 af3d 20e1 c83c 067f c33c b680 22bd
00000080: 9dd5 c1be 219d 8e3c b7fc afbc f4c0 243a
00000090: c4d8 523d 08cc d3bd a45e 453d 0638 5ebd
000000a0: 0079 13bc 75c0 64bd 39c4 08bb 6f20 9abb
000000b0: 975d 1f3d 4ac7 863c 2a69 4a3a 2ec7 bb3e
000000c0: 73d3 b0bd 8ed9 6d3d 1f5b 4d3c 2cc2 0c3e
000000d0: fcfb 26bb 55fd 513c dc35 b53c 0bcd 563c
000000e0: 2601 a5bb 5da2 203c 41e4 fb3c 6de8 ebbe
000000f0: 07a1 a33c 5686 d5bc c6fc c03c 8185 0c3d

critic.3.weight f4 [1, 64]
-0.5613882 0.0752313 0.002830056 0.23257485 -0.12122207 -0.29140684 0.13957912 -0.43157694
-0.1135699 -0.04769219 -0.4575636 -0.16302958 -0.25131124 0.14176492 -0.39385617 0.16179961
-0.09943529 0.16879359 0.21272199 -0.2696841 0.21410844 0.07918209 -0.0570395 0.009697403
-0.05839057 0.13742599 -0.15584883 0.14631982 0.5406233 -0.08739489 -0.24980527 0.26960826
-0.10612212 0.10408362 0.043661162 0.112262554 0.58065045 -0.3175343 0.23677817 -0.20239864
-0.19603504 0.105631806 0.30373406 0.13179532 -0.032174546 -0.08179262 -0.016275594 0.5147959
0.3162649 0.20850016 0.13904153 0.71038824 -0.3007431 -0.042728458 -0.02586948 -0.0928423
-0.11911024 -0.30481544 -0.27284345 -0.007195739 -0.022108527 -0.046828624 -0.13028513 0.09330611
00000000: 23b7 0fbf de12 9a3d 7678 393b 1a28 6e3e
00000010: 4743 f8bd 4733 95be d4ed 0e3e a7f7 dcbe
00000020: 5697 e8bd e358 43bd c745 eabe 3af1 26be
00000030: deab 80be d32a 113e 84a7 c9be ccae 253e
00000040: bba4 cbbd 3ad8 2c3e cbd3 593e 0914 8abe
00000050: 3e3f 5b3e 382a a23d 40a2 69bd dbe1 1e3c
00000060: f32a 6fbd 66b9 0c3e d696 1fbe ddd4 153e
00000070: 4a66 0a3f 18fc b2bd f4cc 7fbe 180a 8a3e
00000080: 8e56 d9bd cb29 d53d 0cd6 323d e9e9 e53d
00000090: 82a5 143f db93 a2be fa75 723e 9741 4fbe
000000a0: 69bd 48be 7d55 d83d 0883 9b3e 5af5 063e
000000b0: 75c9 03bd e482 a7bd 6554 85bc aac9 033f
000000c0: 79ed a13e 1181 553e e760 0e3e 01dc 353f
000000d0: 00fb 99be 0904 2fbd 3bec d3bc 1b24 bebd
000000e0: 12f0 f3bd c510 9cbe 23b2 8bbe 3cca ebbb
000000f0: f11c b5bc 5fcf 3fbd 7769 05be 4617 bf3d

critic.4.weight f4 [1, 64]
0.0032280455 0.007350715 0.025647625 0.01685678 -0.014863546 0.018708616 -0.011906585 -0.011167442
-0.009247207 -0.008874704 0.0061205346 -0.010491467 -0.004644375 0.007765512 0.011493228 -0.002702022
0.00919203 0.0050860033 0.015197137 -0.0013640926 -0.013491718 0.006349725 0.0018177867 -0.026176281
0.0055539017 -0.0011630737 -0.0005967767 -0.014945592 -0.01205106 0.005704678 -0.0084430175 0.01898614
0.004937059 -0.015465283 -0.008510356 0.0014933671 0.005437523 -0.0027372076 -0.018418375 0.011286654
-0.019089645 0.020796537 -0.010563508 0.021225538 0.008069711 -0.006917637 -0.0053466363 -0.00041817073
0.003677319 -0.0072526233 -0.0036317725 0.0032255598 0.027984599 0.018981243 0.0031061114 -0.008533551
0.0009995622 -0.029180499 -0.018591136 -0.0070244055 0.029440746 -4.365902e-05 -0.001241472 0.016623398
00000000: 9e8d 533b 44de f03b f81a d23c 3b17 8a3c
00000010: 3b86 73bc d042 993c d613 43bc a6f7 36bc
00000020: 9981 17bc 3567 11bc c48e c83b 67e4 2bbc
00000030: d72f 98bb d675 fe3b 184e 3c3c 6814 31bb
00000040: 2b9a 163c 7da8 a63b 6afd 783c 5acb b2ba
00000050: 5e0c 5dbc 5b11 d03b cd42 ee3a a46f d6bc
00000060: 81fd b53b 4772 98ba 0271 1cba 5bde 74bc
00000070: cf71 45bc 4fee ba3b 9554 0abc d288 9b3c
00000080: 0dc7 a13b 1962 7dbc 056f 0bbc 16bd c33a
00000090: 402d b23b b962 33bb 22e2 96bc a8eb 383c
000000a0: e361 9cbc 805d aa3c 9012 2dbc 2ee1 ad3c
000000b0: d236 043c 58ad e2bb d632 afbb ed3d dbb9
000000c0: 2dff 703b 6aa7 edbb 0803 6ebb ea63 533b
000000d0: f53f e53c 8d7e 9b3c e78f 4b3b 4fd0 0bbc
000000e0: be03 833a f10b efbc 704c 98bc fc2c e6bb
000000f0: b82d f13c 841e 37b8 e3b8 a2ba cb2d 883c

dist.0.linear.weight f4 [7, 64]
0.2101161 -0.19881599 0.20071258 -0.14067234 -0.037079073 -0.7069443 0.023053119 0.41592762
0.24327005 -0.12874694 -0.054175045 -0.024794431 -0.22296664 0.24360542 -0.14028049 -0.14199556
0.24783951 -0.30086392 0.44478336 -0.0704718 -0.43775997 -0.27384108 0.2059704 0.16273285
0.26065108 -0.27311617 -0.45275885 -0.19979838 -0.09905231 -0.30480608 0.23477085 0.41772953
-0.101964094 -0.061833028 0.067275956 -0.15226199 0.17011754 -0.19333363 0.46504217 -0.4504507
0.1922681 0.49208912 0.056333445 -0.06971885 -0.19064997 0.28025818 0.2892184 0.054378044
0.19659863 -0.011365335 -0.029732548 0.13782822 0.16268367 0.09779362 0.26841742 -0.4196738
-0.4757232 0.2721544 0.1911124 0.008548919 0.020563437 -0.5396062 0.5655355 -0.09946328
0.007314994 -0.39763016 0.44023013 0.24551558 0.10223419 0.044310678 -0.30138656 0.12696078
-0.25945842 0.058568925 -0.13013512 0.2315384 -0.27413356 -0.4985146 0.36619836 0.10804
-0.04336945 -0.56617635 -0.12957601 -0.17127188 -0.31093267 0.36519033 -0.29095998 0.28280678
0.22042699 -0.40718764 -0.12718903 0.2827792 -0.1306704 -0.026368516 -0.54892516 0.40298992
-0.23828761 0.6024026 -0.46015224 -0.12286506 -0.04137501 -0.0961888 -0.12235449 0.09927988
0.121063516 -0.04189601 -0.40128955 -0.4692871 0.027760593 -0.3605531 -0.5113251 -0.13600688
-0.48759547 -0.29080078 0.30988362 -0.05284596 0.23737401 -0.01831289 0.10583708 -0.2975627
-0.113006055 -0.014162102 0.093327634 -0.06530401 0.058677495 0.022252012 -0.38222134 -0.67351013
-0.3086579 0.21189998 -0.03618926 -0.054748446 0.061818644 0.40548962 0.35262936 -0.3981568
-0.14484869 0.20772654 -0.12661803 -0.0678881 0.35796607 0.069094025 0.027533358 0.02804274
-0.17950277 0.37907863 -0.2317658 -0.015712071 0.6076126 -0.3080978 -0.009884635 0.055503882
-0.123745665 0.4302016 0.3691607 -0.40842515 0.3723393 -0.112782925 0.56125265 -0.41200456
0.19544053 -0.11554898 0.24115613 0.06782325 0.33824277 -0.21581623 -0.102926515 0.51885366
-0.110888354 -0.3194876 0.27167177 0.5097423 0.1532991 -0.028234553 0.11838096 0.1856633
0.27610382 -0.12148239 0.12120352 0.20432734 0.2238512 -0.05206783 -0.27775538 -0.051454786
-0.5159018 -0.26312616 0.12199548 -0.14266127 0.26107973 0.4674409 -0.23366494 0.29628092
-0.070529826 0.19678062 -0.37795717 0.16933495 -0.0722256 0.27988172 -0.15507033 0.021401668
0.09330768 -0.030763853 0.041373447 0.08823338 0.0747828 0.22872889 -0.2691313 -0.033012144
0.06797488 0.42620778 -0.042422574 -0.07855364 -0.17126134 0.26678845 0.086091265 -0.074069984
-0.024555145 0.24472466 0.15435445 0.41142103 -0.06998483 0.45086604 0.22060864 -0.17691877
-0.13079807 -0.21650875 0.21256211 0.28366217 -0.5464533 -0.09139964 0.065307766 -0.40856382
-0.2639793 -0.07561477 0.09288765 -0.26903027 -0.09181459 0.103785805 0.3100017 0.06496945
-0.19333194 0.1684933 -0.08771571 -0.17864661 -0.43082407 -0.22900113 -0.18523754 0.31927505
0.3485859 0.192754 -0.33708903 -0.1537012 0.00035314972 0.10608121 0.039048657 0.12815139
00000000: ad28 573e 6b96 4bbe 9987 4d3e 690c 10be
00000010: 3ae0 17bd 4dfa 34bf e5d9 bc3c 77f4 d43e
00000020: c91b 793e 3dd6 03be a7e6 5dbd b11d cbbc
00000030: 5e51 64be b373 793e b0a5 0fbe 4967 11be
00000040: a4c9 7d3e d60a 9abe a5ba e33e 8553 90bd
00000050: 1322 e0be e634 8cbe e8e9 523e 71a3 263e
00000060: 0f74 853e e2d5 8bbe 02d0 e7be f297 4cbe
00000070: f0db cabd 8b0f 9cbe c567 703e a5e0 d53e
00000080: 8dd2 d0bd a144 7dbd fac7 893d 91ea 1bbe
00000090: 4b33 2e3e 40f9 45be 021a ee3e 79a1 e6be
000000a0: eee1 443e 1bf3 fb3e e6bd 663d c2c8 8ebd
000000b0: bf39 43be 007e 8f3e 6f14 943e 83bb 5e3d
000000c0: 2751 493e ac35 3abc ac91 f3bc d722 0d3e
000000d0: 8c96 263e 0548 c83d 026e 893e 7cdf d6be
000000e0: fe91 f3be d257 8b3e f8b2 433e c410 0c3c
000000f0: a774 a83c a223 0abf efc6 103f 67b3 cbbd
00000100: 9eb2 ef3b 2e96 cbbe d865 e13e 7068 7b3e
00000110: 2960 d13d 1d7f 353d 574f 9abe 0202 023e
00000120: bcd7 84be f8e5 6f3d 2442 05be 6718 6d3e
00000130: 3c5b 8cbe 4e3d ffbe 5a7e bb3e 1344 dd3d
00000140: 2aa4 31bd eff0 10bf 93af 04be e561 2fbe
00000150: 9132 9fbe 3afa ba3e b5f8 94be 0dcc 903e
00000160: 9db7 613e e67a d0be d73d 02be 6fc8 903e
00000170: 76ce 05be c902 d8bc 5c86 0cbf b254 ce3e
00000180: ab01 74be 0f37 1a3f 1399 ebbe ada0 fbbd
00000190: d878 29bd a2fe c4bd fe94 fabd 4053 cb3d
000001a0: 26f0 f73d 279b 2bbd d375 cdbe 6646 f0be
000001b0: 2f6a e33c 6a9a b8be 34e6 02bf 6345 0bbe
000001c0: 1da6 f9be d7e3 94be 11a9 9e3e 0175 58bd
000001d0: 2c12 733e ea04 96bc 1cc1 d83d 235a 98be
000001e0: b86f e7bd 2908 68bc 8f22 bf3d 1cbe 85bd
000001f0: d057 703d da49 b63c 84b2 c3be 296b 2cbf
00000200: 6908 9ebe 4ffc 583e 313b 14bd e83f 60bd
00000210: 8c35 7d3d 569c cf3e d68b b43e 35db cbbe
00000220: 3753 14be 44b6 543e 28a8 01be eb08 8bbd
00000230: 5447 b73e 2b81 8d3d a38d e13c e3b9 e53c
00000240: 93cf 37be 9816 c23e 0454 6dbe 9ab6 80bc
00000250: 808c 1b3f ffbe 9dbe 2af3 21bc 0a58 633d
00000260: 5e6e fdbd 6243 dc3e a202 bd3e 1a1d d1be
00000270: 42a3 be3e bcfa e6bd 41ae 0f3f 43f2 d2be
00000280: 9021 483e f2a4 ecbd a2f1 763e ebe6 8a3d
00000290: 282e ad3e eefe 5cbe 23cb d2bd 98d3 043f
000002a0: 6f19 e3bd e193 a3be 9018 8b3e 797e 023f
000002b0: 70fa 1c3e 264c e7bc b771 f23d 851e 3e3e
000002c0: 7b5d 8d3e c2cb f8bd 8d39 f83d 303b 513e
000002d0: 4039 653e 1445 55bd f435 8ebe 41c2 52bd
000002e0: 2412 04bf 79b8 86be c4d8 f93d cc15 12be
000002f0: 3eac 853e 6a54 ef3e dd45 6fbe 22b2 973e
00000300: f171 90bd dc80 493e 9a83 c1be 2466 2d3e
00000310: 04eb 93bd a84c 8f3e c2ca 1ebe 8d52 af3c
00000320: 1918 bf3d 7a04 fcbc 3477 293d b4b3 b43d
00000330: ba27 993d e837 6a3e 94cb 89be be37 07bd
00000340: 6a36 8b3d e837 da3e 4bc3 2dbd bbe0 a0bd
00000350: 225f 2fbe 7f98 883e 9e50 b03d 01b2 97bd
00000360: df27 c9bc 1a99 7a3e 180f 1e3e c7a5 d23e
00000370: 3554 8fbd ead7 e63e 3be7 613e 322a 35be
00000380: eeef 05be 78b4 5dbe e2a9 593e 2b3c 913e
00000390: 5de4 0bbf bc2f bbbd 14c0 853d 472f d1be
000003a0: 4b28 87be ebdb 9abd e13b be3d 56be 89be
000003b0: 4a09 bcbd a78d d43d 8bb8 9e3e b40e 853d
000003c0: cff8 45be 8289 2c3e 4ba4 b3bd 23ef 36be
000003d0: f994 dcbe 467f 6abe e9ae 3dbe 0578 a33e
000003e0: da79 b23e 4e61 453e ef96 acbe d963 1dbe
000003f0: f426 b939 1b41 d93d 7cf1 1f3d 1e3a 033e

dist.0.linear.bias f4 [7]
0.19111542 0.25103647 0.059404332 0.015744153 -0.1926543 -0.050866935 -0.17854317
00000000: c3b3 433e da87 803e f551 733d e2f9 803c
00000010: 2b47 45be d959 50bd 05d4 36be

dist.1.linear.weight f4 [7, 64]
0.010348915 -0.40101308 0.3131485 0.49061197 0.42511588 -0.25661176 -0.5648669 0.1130804
0.31478623 -0.31587976 -0.13803735 0.3153413 0.2885568 0.4348513 -0.33579478 0.29533428
0.39042473 -0.24047764 0.21671909 0.05724615 -0.3076139 -0.36246297 -0.013972259 0.047816142
0.21035664 -0.06125716 -0.26078248 -0.21413077 -0.03092067 0.3901192 0.18455225 0.28074065
-0.10553355 -0.25336283 -0.114006035 0.1980998 -0.016801909 -0.046752486 -0.1011032 -0.5278556
0.11751144 0.4339016 0.48580492 0.2889019 -0.17073281 -0.19329208 0.2177576 -0.13243212
0.3742034 0.07468064 -0.13577558 0.006857483 -0.09174256 0.4746222 0.33676752 -0.10547059
-0.076552376 0.03121335 -0.107189156 -0.09900222 0.02234293 0.05681857 0.18569973 -0.13919933
-0.03167603 -0.55263335 0.085243315 -0.2770285 -0.15161075 0.04129027 0.23206644 0.15656656
-0.41956848 -0.031421687 -0.2537154 0.24368672 -0.081559174 -0.16584265 0.21998726 -0.21326284
-0.21223553 -0.31336796 -0.017640201 -0.2324178 -0.050292525 -0.046994317 0.2887164 0.15628663
0.41466647 -0.15713625 0.33992103 0.006595981 -0.032900535 -0.4184537 -0.30534557 0.2595518
-0.059156727 0.5294008 -0.24121544 -0.13421693 0.28018606 -0.03682077 0.04972921 0.13873625
0.020573279 -0.5645936 -0.24416706 -0.20486449 -0.21556388 -0.46370232 -0.23952046 0.17159595
-0.092987135 0.0004898207 -0.2703996 0.0670345 0.09752807 0.51357657 0.22397402 -0.43574885
-0.18881126 -0.4657294 0.4570512 -0.17388065 0.30808347 0.17900719 -0.17079811 -0.3058042
-0.17664638 0.3701636 0.09619881 0.08837809 -0.2432689 -0.07735192 0.20582421 -0.43331254
-0.23756829 0.54720485 -0.12306143 -0.28702614 -0.3295508 -0.33342746 0.0768877 0.4679223
0.023448298 0.06317156 -0.40441296 -0.14123714 0.3576592 0.12971182 -0.22041593 0.1386382
-0.42887554 -0.15998988 -0.11251423 0.0039457157 -0.09298923 -0.25333288 0.42368916 -0.2391461
-0.21118218 -0.28117585 0.28944126 -0.45024636 0.28137383 0.082421966 -0.10755278 0.18280403
-0.19234037 -0.058037054 -0.045156784 -0.3768698 0.08577433 0.32674286 0.009504152 0.21114112
0.3893064 -0.33930248 0.21894957 0.23393516 0.22725177 -0.6890769 -0.16972692 0.3311429
-0.3066121 0.3927644 -0.36461645 -0.18958288 0.060296655 -0.23181868 0.13090429 0.42930904
-0.09423601 0.2124726 -0.10145314 0.05717179 -0.1471719 0.28851816 0.19800833 -0.1682529
0.44217563 -0.29728684 -0.08096403 0.1913689 0.19359837 0.2558385 -0.2984051 -0.5450794
-0.14798802 0.45584512 0.39767274 -0.107095055 -0.050047856 0.23624647 -0.0731609 0.018679334
-0.09656243 0.3724336 0.34173176 -0.026508527 0.009215615 0.23328175 -0.12436949 -0.29381552
0.1792677 0.0052449764 0.16874638 0.5062071 -0.47205132 -0.113695964 -0.18735224 -0.10394203
-0.14642009 0.16940998 -0.11916704 -0.23635487 0.19116242 0.3251262 0.028907726 0.11232648
-0.41284454 -0.17794418 0.05886909 -0.21142557 -0.18413281 -0.19743492 -0.37891576 -0.05799062
0.44052985 0.2141514 -0.15661067 0.01137127 0.23997346 -0.019769883 0.053217668 -0.08770678
00000000: 7f8e 293c 9651 cdbe 0055 a03e 7e31 fb3e
00000010: caa8 d93e 9e62 83be 1e9b 10bf b296 e73d
00000020: a92b a13e feba a1be aa59 0dbe 6a74 a13e
00000030: b8bd 933e d4a4 de3e 4bed abbe 0e36 973e
00000040: c0e5 c73e c53f 76be 9ceb 5d3e f07a 6a3d
00000050: 927f 9dbe bf94 b9be e7eb 64bc dcda 433d
00000060: bb67 573e cae8 7abd 4885 85be 1945 5bbe
00000070: 584d fdbc b4bd c73e 44fb 3c3e 3dbd 8f3e
00000080: f921 d8bd c6b8 81be ff7b e9bd adda 4a3e
00000090: 28a4 89bc 897f 3fbd 320f cfbd 8b21 07bf
000000a0: d6a9 f03d 5a28 de3e 6cbb f83e f3ea 933e
000000b0: 95d4 2ebe 5cee 45be d9fb 5e3e 499c 07be
000000c0: 9797 bf3e 2af2 983d c108 0bbe bdb4 e03b
000000d0: 86e3 bbbd ae01 f33e cb6c ac3e f700 d8bd
000000e0: 7ec7 9cbd 24b3 ff3c fd85 dbbd adc1 cabd
000000f0: 8508 b73c 97ba 683d 1228 3e3e 458a 0ebe
00000100: babe 01bd 6179 0dbf 0c94 ae3d aed6 8dbe
00000110: d93f 1bbe fc1f 293d d3a2 6d3e fc52 203e
00000120: aed1 d6be 07b4 00bd fce6 81be 0389 793e
00000130: 7f08 a7bd a8d2 29be 5744 613e 9361 5abe
00000140: 4554 59be c471 a0be 2f82 90bc effe 6dbe
00000150: 89ff 4dbd 1d7d 40bd a3d2 933e 9a09 203e
00000160: 2a4f d43e 53e8 20be 210a ae3e 1923 d83b
00000170: b6c2 06bd 903f d6be 4156 9cbe f9e3 843e
00000180: 534e 72bd d086 073f 2e01 77be 2a70 09be
00000190: 8c74 8f3e 60d1 16bd dbb0 4b3d e010 0e3e
000001a0: 4b89 a83c 3589 10bf ee06 7abe ffc7 51be
000001b0: c7bc 5cbe 646a edbe da44 75be d9b6 2f3e
000001c0: 0a70 bebd 5067 003a d171 8abe 6249 893d
000001d0: ccbc c73d c179 033f 7259 653e 791a dfbe
000001e0: bd57 41be 1574 eebe 9d02 ea3e c50d 32be
000001f0: 1ebd 9d3e a94d 373e b3e5 2ebe 5e92 9cbe
00000200: cae2 34be 1586 bd3e e203 c53d 92ff b43d
00000210: 7c1b 79be af6a 9ebd 95c3 523e 24db ddbe
00000220: 1a45 73be 9e15 0c3f a207 fcbd 17f5 92be
00000230: e2ba a8be 01b7 aabe 4c77 9d3d 8393 ef3e
00000240: a516 c03c 1760 813d 370f cfbe 78a0 10be
00000250: 1b1f b73e 2dd3 043e b7b4 61be 2cf7 0d3e
00000260: 9395 dbbe 63d4 23be dc6d e6bd 104b 813b
00000270: 2371 bebd d9b4 81be c9ed d83e b7e2 74be
00000280: 2440 58be 48f6 8fbe a531 943e b186 e6be
00000290: 3b10 903e d9cc a83d a244 dcbd fb30 3b3e
000002a0: e0f4 44be 43b8 6dbd 52f6 38bd 14f5 c0be
000002b0: 74aa af3d d74a a73e 4eb7 1b3c 6135 583e
000002c0: 2b53 c73e 0eb9 adbe 5134 603e b38c 6f3e
000002d0: b0b4 683e 5867 30bf e5cc 2dbe 908b a93e
000002e0: 43fc 9cbe 6a18 c93e 02af babe 0422 42be
000002f0: a0f9 763d e061 6dbe c60b 063e 65ce db3e
00000300: cffe c0bd 6b92 593e aac6 cfbd f82c 6a3d
00000310: 3bb4 16be a7b8 933e b2c2 4a3e 7d4a 2cbe
00000320: d864 e23e fb35 98be 78d0 a5bd 35f6 433e
00000330: a73e 463e 44fd 823e 8ec8 98be 538a 0bbf
00000340: 2c8a 17be 8864 e93e c39b cb3e a754 dbbd
00000350: fbfe 4cbd 98ea 713e 62d5 95bd 6705 993c
00000360: 86c2 c5bd 9eaf be3e 77f7 ae3e 6928 d9bc
00000370: 17fd 163c 69e1 6e3e 6eb5 febd fd6e 96be
00000380: f491 373e 0dde ab3b dacb 2c3e ca96 013f
00000390: b6b0 f1be 6ed9 e8bd 44d9 3fbe 8fdf d4bd
000003a0: 26ef 15be cf79 2d3e d90d f4bd 0307 72be
000003b0: 15c0 433e f176 a63e e5cf ec3c 6d0b e63d
000003c0: 5c60 d3be 0037 36be b720 713d f27f 58be
000003d0: 508d 3cbe 612c 4abe 3f01 c2be 9387 6dbd
000003e0: 218d e13e 814a 5b3e 8c5e 20be 904e 3a3c
000003f0: 9abb 753e 73f4 a1bc c5fa 593d 9d9f b3bd

dist.1.linear.bias f4 [7]
0.11264576 0.14534849 0.13534553 0.045393795 -0.06915636 0.0076119816 -0.131056
00000000: d2b2 e63d 3cd6 143e 0598 0a3e d8ee 393d
00000010: daa1 8dbd ee6d f93b 8b33 06be

dist.2.linear.weight f4 [7, 64]
-0.039448645 0.06491208 0.11748499 0.31531298 0.31036136 -0.08291626 0.108882785 0.23430996
0.39011928 -0.17433684 -0.09894194 0.3057204 0.4958755 0.12025155 -0.16702315 0.2934579
0.23671347 0.21586749 -0.18847305 -0.09348692 -0.04670629 -0.26222146 -0.07011698 -0.32465827
-0.02693592 0.03497658 -0.0150307 -0.2055087 0.19233634 0.3879142 0.46002218 0.0020054604
-0.113808304 -0.29246762 -0.19258712 0.38805073 -0.07344942 -0.03161948 -0.008909963 -0.37683287
0.1077718 0.4158176 0.38618565 0.6211137 -0.13787201 -0.4121862 0.20552287 0.07921924
0.17184956 0.06589879 -0.60888994 -0.08032768 -0.07235092 0.09329131 -0.20052625 -0.21372704
-0.20056176 -0.18721846 -0.1311969 -0.08764398 0.16517466 -0.17884767 -0.08141002 0.07358642
-0.16177136 -0.33477932 -0.17753048 -0.4354723 -0.1376184 -0.2964254 0.18323237 -0.14128755
0.18117279 -0.381251 -0.24775481 -0.0631615 0.16677572 -0.41736475 0.29783064 -0.3180242
0.0714758 -0.20496236 -0.13914762 -0.19966803 -0.13040991 0.3237257 0.0658068 0.23876274
0.13326506 0.11409183 0.11977691 0.08055625 0.2907044 -0.31648448 -0.6369978 0.4136691
-0.13708246 0.14986357 -0.15707754 0.11570471 -0.14116275 0.16422194 0.055616114 0.23201782
-0.26561117 -0.17271012 0.022686742 -0.18414868 0.3833832 0.10292815 -0.20782265 0.2560632
-0.22512707 0.15656793 -0.4325872 0.24106374 0.14802107 0.33758584 0.22730675 -0.28968963
0.09332155 -0.21638685 0.30313706 -0.20841387 -0.06792461 0.24886747 -0.089273624 -0.114626266
-0.24772866 0.28107384 0.42207244 0.17022257 -0.23120625 0.19321135 0.14446689 -0.18844984
-0.50505304 0.42786834 -0.16156082 -0.043325637 -0.6387523 0.42435834 -0.15130626 0.058201775
0.18281525 0.058812764 0.10129744 -0.20147656 0.12810396 0.009538854 -0.05248436 0.38598913
-0.1387393 -0.17841177 -0.046045408 0.15409604 -0.15067016 -0.095928244 0.25511503 -0.36273867
-0.2409973 0.118844576 0.38415876 -0.5490891 0.33081773 -0.37192664 -0.11725436 0.016451484
-0.07128522 -0.22279257 -0.2178201 -0.3809713 0.04441914 0.2597395 0.084146515 0.17649661
0.13691759 -0.39531407 0.73044413 0.2686767 -0.10214582 -0.28080595 -0.343105 0.3760685
-0.08734863 0.43312988 -0.27544704 -0.19855177 0.1434274 -0.3701898 0.36148056 0.11056953
0.05209704 0.15191671 -0.061685454 -0.08627863 -0.23791045 0.09477394 -0.08876466 -0.26317373
-0.07488811 0.27667418 0.12605037 0.09347655 0.032391857 0.1855158 -0.06219992 -0.013404193
0.009457343 -0.15069629 0.05303124 0.109322935 -0.008356711 -0.04062737 0.057633877 -0.0068488913
0.01771236 -0.067668535 -0.17911243 0.18080749 -0.017512448 -0.030649625 0.08624961 -0.057882436
0.13177167 0.025500592 0.13014318 -0.11690662 0.049686804 -0.19845392 -0.15514185 -0.08905854
-0.011943955 0.10303481 -0.13875704 -0.2373107 -0.0139692295 0.025485974 -0.10933805 -0.13108721
0.10315934 -0.0038188992 0.053071283 -0.07268298 -0.106205024 0.11446083 0.1607479 0.01012152
0.096847 0.13634695 0.007968953 0.092727885 -0.07567664 -0.12393508 0.08144628 -0.12208582
00000000: e794 21bd a0f0 843d f89b f03d b470 a13e
00000010: afe7 9e3e 00d0 a9bd f0fd de3d f3ee 6f3e
00000020: b7bd c73e 5b85 32be 12a2 cabd 6287 9c3e
00000030: 65e3 fd3e 7246 f63d 1e08 2bbe 1d40 963e
00000040: 0465 723e 5e0c 5d3e 14ff 40be 1276 bfbd
00000050: 184f 3fbd e441 86be 7e99 8fbd 9c39 a6be
00000060: b8a8 dcbc 9a43 0f3d 5343 76bc df70 52be
00000070: d1f3 443e b19c c63e 0788 eb3e 0b6e 033b
00000080: 5414 e9bd 51be 95be 8f35 45be 96ae c63e
00000090: a66c 96bd 6e83 01bd 18fb 11bc 3df0 c0be
000000a0: 76b7 dc3d 0be6 d43e 20ba c53e 4f01 1f3f
000000b0: 522e 0dbe 120a d3be 9674 523e b23d a23d
000000c0: 55f9 2f3e f2f5 863d 36e0 1bbf d782 a4bd
000000d0: b82c 94bd 840f bf3d c156 4dbe 43db 5abe
000000e0: 1060 4dbe 32b6 3fbe 7b58 06be b07e b3bd
000000f0: 8c23 293e d823 37be 4cba a6bd 7ab4 963d
00000100: 64a7 25be 3268 abbe 8dca 35be 3af6 debe
00000110: d6eb 0cbe 12c5 97be 44a1 3b3e afad 10be
00000120: 5c85 393e 5533 c3be 70b3 7dbe d15a 81bd
00000130: 41c7 2a3e d5b0 d5be 427d 983e 11d4 a2be
00000140: e761 923d a7e1 51be b77c 0ebe c775 4cbe
00000150: 2d8a 05be 60bf a53e b7c5 863d 387e 743e
00000160: a376 083e faa8 e93d 994d f53d adfa a43d
00000170: 35d7 943e 410a a2be 4a12 23bf 70cc d33e
00000180: 585f 0cbe d675 193e efd8 20be 97f6 ec3d
00000190: f88c 10be cc29 283e b9cd 633d 1496 6d3e
000001a0: 30fe 87be ecda 30be 8cd9 b93c 7991 3cbe
000001b0: ce4a c43e fecb d23d 76cf 54be b71a 833e
000001c0: b687 66be 5853 203e 127c ddbe 6ad9 763e
000001d0: d692 173e 0dd8 ac3e 1ac3 683e 3352 94be
000001e0: 5e1f bf3d 8494 5dbe c834 9b3e 726a 55be
000001f0: 0f1c 8bbd 1dd7 7e3e 17d5 b6bd 2dc1 eabd
00000200: 95ac 7dbe e9e8 8f3e e119 d83e d34e 2e3e
00000210: 55c1 6cbe 32d9 453e 21ef 133e fff8 40be
00000220: 284b 01bf 8f11 db3e 3370 25be 3976 31bd
00000230: 4585 23bf 7f45 d93e 07f0 1abe fc64 6e3d
00000240: ec33 3b3e a7e5 703d 0875 cf3d df4f 4ebe
00000250: af2d 033e da48 1c3c d7f9 56bd 5ea0 c53e
00000260: ad11 0ebe 93b1 36be 1c9a 3cbd 5acb 1d3e
00000270: 4749 1abe 0776 c4bd 709e 823e e2b8 b9be
00000280: ffc7 76be c964 f33d 75b0 c43e 1a91 0cbf
00000290: f160 a93e 2b6d bebe 0e23 f0bd 43c5 863c
000002a0: fcfd 91bd bc23 64be 3b0c 5fbe ac0e c3be
000002b0: d8f0 353d 93fc 843e 0255 ac3d 87bb 343e
000002c0: 2034 0c3e 9b66 cabe 63fe 3a3f fe8f 893e
000002d0: d431 d1bd ccc5 8fbe 75ab afbe 0d8c c03e
000002e0: d7e3 b2bd 33c3 dd3e 6507 8dbe 2851 4bbe
000002f0: a2de 123e 8489 bdbe fb13 b93e 4772 e23d
00000300: b563 553d 0e90 1b3e e3a9 7cbd dab2 b0bd
00000310: cc9e 73be d718 c23d 3fca b5bd b5be 86be
00000320: f05e 99bd 3da8 8d3e 5913 013e a270 bf3d
00000330: 53ad 043d dbf7 3d3e 58c5 7ebd 439d 5bbc
00000340: f9f2 1a3c 2150 1abe 4937 593d b4e4 df3d
00000350: 96ea 08bc e368 26bd 8011 6c3d aa6c e0bb
00000360: 8319 913c cd95 8abd 4069 37be 9925 393e
00000370: 4476 8fbc ec14 fbbc a3a3 b03d 2216 6dbd
00000380: 27ef 063e 9ee6 d03c 4144 053e bd6c efbd
00000390: 6484 4b3d 8137 4bbe 81dd 1ebe 5364 b6bd
000003a0: 94b0 43bc ea03 d33d 5316 0ebe 9301 73be
000003b0: 32df 64bc f6c7 d03c a1ec dfbd ba3b 06be
000003c0: 3445 d33d 7f46 7abb 4661 593d d0da 94bd
000003d0: 0582 d9bd 716a ea3d 199b 243e bbd4 253c
000003e0: b857 c63d 899e 0b3e 3690 023c 1ee8 bd3d
000003f0: 5bfc 9abd add1 fdbd 4fcd a63d 2108 fabd

dist.2.linear.bias f4 [7]
0.09132504 0.20938058 0.1949522 -0.09881888 -0.03653794 -0.09352208 -0.031057434
00000000: 9f08 bb3d dd67 563e 8da1 473e 8e61 cabd
00000010: cfa8 15bd 8188 bfbd 296c febc

dist.3.linear.weight f4 [7, 64]
0.10006982 -0.088971496 0.25905332 0.63296455 0.07485654 0.19151114 0.407026 0.14081559
0.25713426 -0.31712168 -0.1490058 0.41193494 0.23737513 0.049612235 -0.14732084 -0.38132682
-0.23606844 0.2907724 0.36981264 -0.19167498 0.06610533 0.03375518 -0.22730683 -0.55115706
0.26775047 -0.28691515 0.42635626 0.108107395 0.108607985 -0.23698093 -0.21280663 -0.15163316
-0.23177612 0.3483524 -0.27606735 0.14109248 -0.047830407 -0.15231474 -0.060121927 -0.43668726
0.014925913 -0.057689913 0.3117532 -0.1466868 -0.6041041 0.4611293 0.18504126 0.0051300637
-0.08688805 -0.37882772 0.13238782 -0.13553005 -0.10839653 0.20776919 -0.25822574 0.3939858
0.23629545 0.2870577 -0.027912492 0.28669715 -0.13752675 -0.13424149 -0.30512285 -0.44215196
-0.16699848 0.50608206 -0.39824653 -0.25170827 -0.330923 0.50778115 0.030625165 -0.05542941
-0.054048825 0.15748565 -0.29390723 0.09696045 -0.0357753 -0.41051316 0.18549511 0.2989834
-0.46854448 0.086229324 -0.5485742 -0.1117896 0.48771062 0.7133133 0.27244246 0.2625543
-0.04052382 0.5379478 -0.1838159 0.49871725 -0.091708235 -0.15168627 -0.008660983 0.19658782
0.34695294 0.2780586 -0.30293834 0.29889813 0.13687302 0.32286388 0.09787736 0.22936885
0.05705902 -0.3725698 -0.3297603 -0.13865998 -0.11072776 0.28714746 -0.2981355 0.1616875
-0.5828816 0.3557321 0.49902365 0.14964055 -0.3623111 -0.1712711 -0.2409353 -0.28497916
0.22374204 0.21820652 -0.1746293 -0.038026895 -0.52978784 0.34771115 -0.24766128 0.23879625
-0.40407234 -0.23451316 0.2993957 -0.14732245 0.13592051 -0.6930163 -0.1719552 -0.30828384
-0.3153756 0.24300015 -0.023463912 -0.26020607 -0.28372172 0.5065503 -0.26280814 0.2866804
0.5420593 -0.0737321 0.13203894 -0.1826521 -0.14084555 -0.29130992 -0.00090334046 0.2516771
-0.33186194 -0.004701818 -0.23939075 -0.29081556 0.41868532 0.30666637 -0.13393956 -0.009550913
-0.2672355 -0.32036275 0.6023976 -0.32599974 0.30812433 -0.6185955 0.048144322 0.38611493
0.047367387 0.21985622 0.14407457 0.1490656 0.58414346 -0.41965556 0.08119332 0.2577824
0.75119805 0.2188138 -0.6165703 0.43802413 0.24342385 0.23492564 0.26266557 -0.360252
-0.41225526 -0.3848671 -0.0858554 -0.3408901 0.57348263 -0.17454392 0.0007991082 0.2551287
0.15561758 0.012392162 -0.06684307 0.057910576 -0.048281334 0.10386099 0.08007726 0.06331144
0.049566038 0.09144011 0.17011714 -0.12494063 0.051102363 -0.015931526 0.18496065 0.1220728
-0.21963347 -0.12146309 -0.23861255 0.08566201 -0.116679884 -0.4534812 -0.07605579 -0.014193368
-0.13685568 -0.044408247 -0.29258734 -0.14665021 -0.12196683 -0.14358036 0.074669115 -0.081648946
0.15335579 0.08653575 0.019874223 -0.06876741 -0.039160218 0.019442659 -0.12629431 0.039032605
-0.07336996 0.15904342 -0.038075175 0.22510329 0.16154368 -0.19797152 -0.15785904 -0.1346723
-0.025777265 -0.13422006 -0.083366394 -0.22619528 0.09792463 -0.16735442 0.06290061 -0.042030748
0.023117185 0.18537374 0.061561298 -0.07619332 -0.025448373 0.08311816 0.0715502 -0.0057842056
00000000: 68f1 cc3d b036 b6bd a3a2 843e f709 223f
00000010: 634e 993d 7f1b 443e b665 d03e f631 103e
00000020: 1aa7 833e c65d a2be fa94 18be 23e9 d23e
00000030: 7712 733e 3336 4b3d 46db 16be 453d c3be
00000040: edbb 71be 1fe0 943e 1558 bd3e 7246 44be
00000050: 3b62 873d df42 0a3d 1fc3 68be a118 0dbf
00000060: 9716 893e 8be6 92be 5e4b da3e 6967 dd3d
00000070: dd6d de3d 21ab 72be fbe9 59be b945 1bbe
00000080: b856 6dbe 3f5b b23e b358 8dbe 8c7a 103e
00000090: d1e9 43bd 65f8 1bbe 6942 76bd 7995 dfbe
000000a0: d18b 743c 424c 6cbd 1e9e 9f3e 1135 16be
000000b0: 91a6 1abf 2419 ec3e 757b 3d3e 181a a83b
000000c0: 5df2 b1bd b5f5 c1be ac90 073e 64c8 0abe
000000d0: 00ff ddbd 72c1 543e 2a36 84be 82b8 c93e
000000e0: 6ff7 713e 3af9 923e bda8 e4bc f8c9 923e
000000f0: d0d3 0cbe 9a76 09be 1039 9cbe be61 e2be
00000100: a601 2bbe 988e 013f f8e6 cbbe e8df 80be
00000110: bd6e a9be f2fd 013f a0e1 fa3c f309 63bd
00000120: 4d62 5dbd eb43 213e 027b 96be 3393 c63d
00000130: 1f89 12bd c82e d2be 6ef2 3d3e 5a14 993e
00000140: 10e5 efbe 0099 b03d 5c6f 0cbf f2f1 e4bd
00000150: 35b5 f93e b39b 363f 947d 8b3e 846d 863e
00000160: 4efc 25bd f2b6 093f 3c3a 3cbe de57 ff3e
00000170: 87d1 bbbd a553 1bbe cce6 0dbc 514e 493e
00000180: d1a3 b13e b25d 8e3e bc1a 9bbe 2d09 993e
00000190: 7128 0c3e 6a4e a53e ed73 c83d abdf 6a3e
000001a0: b8b6 693d 78c1 bebe 58d6 a8be e2fc 0dbe
000001b0: 3cc5 e2bd fe04 933e 37a5 98be 6891 253e
000001c0: bb37 15bf 8522 b63e 0780 ff3e 5f3b 193e
000001d0: d780 b9be b161 2fbe beb7 76be cae8 91be
000001e0: a21c 653e 8871 5f3e 06d2 32be 17c2 1bbd
000001f0: 2da0 07bf 3207 b23e eb9a 7dbe 0187 743e
00000200: 92e2 cebe 3824 70be 654a 993e b2db 16be
00000210: bf2e 0b3e 8469 31bf 0615 30be 61d7 9dbe
00000220: e978 a1be 08d5 783e 6437 c0bc bb39 85be
00000230: f943 91be 48ad 013f ca8e 86be c6c7 923e
00000240: 66c4 0a3f db00 97bd 3735 073e 2709 3bbe
00000250: d139 10be 9326 95be 27ce 6cba d2db 803e
00000260: cfe9 a9be b511 9abb d922 75be c7e5 94be
00000270: ec5d d63e 6003 9d3e 7427 09be 6f7b 1cbc
00000280: 17d3 88be 9606 a4be bb36 1a3f 70e9 a6be
00000290: 79c2 9d3e 465c 1ebf fb32 453d dbb0 c53e
000002a0: 4e04 423d fd21 613e 4988 133e a7a4 183e
000002b0: 6d8a 153f 18dd d6be af48 a63d 0efc 833e
000002c0: 844e 403f ba10 603e 8dd7 1dbf b344 e03e
000002d0: 1a44 793e 5990 703e 1a7c 863e f372 b8be
000002e0: 1f13 d3be 4d0d c5be f5d4 afbd 2689 aebe
000002f0: c2cf 123f a4bb 32be 3e7b 513a 3ba0 823e
00000300: 375a 1f3e 7f08 4b3c 05e5 88bd a433 6d3d
00000310: a6c2 45bd 12b5 d43d 8cff a33d 6ea9 813d
00000320: c205 4b3d f444 bb3d 3033 2e3e dfe0 ffbd
00000330: b650 513d d582 82bc 5366 3d3e 4e01 fa3d
00000340: 99e7 60be a4c1 f8bd d956 74be 906f af3d
00000350: ddf5 eebd b02e e8be 23c3 9bbd 4d8b 68bc
00000360: e523 0cbe 6ce5 35bd 02ce 95be 792b 16be
00000370: bfc9 f9bd bb06 13be 1fec 983d 9037 a7bd
00000380: 4d09 1d3e a839 b13d 44cf a23c eed5 8cbd
00000390: 7766 20bd 3646 9f3c 4c53 01be a7e0 1f3d
000003a0: fd42 96bd 47dc 223e b7f4 1bbd 7a81 663e
000003b0: b56b 253e 0cb9 4abe cda5 21be 89e7 09be
000003c0: d82a d3bc fc70 09be 00bc aabd bc9f 67be
000003d0: b58c c83d f55e 2bbe 09d2 803d 6f28 2cbd
000003e0: 4060 bd3c 9dd2 3d3e b327 7c3d 3e0b 9cbd
000003f0: 1b79 d0bc db39 aa3d e988 923d 6f89 bdbb

dist.3.linear.bias f4 [7]
0.034279168 0.11360515 0.26506382 -0.16764188 -0.09697295 -0.03133091 -0.06171787
00000000: 5068 0c3d d1a9 e83d 72b6 873e 50aa 2bbe
00000010: c199 c6bd d754 00bd e1cb 7cbd
