BLIP/RL/trained_models/ppo/2023-01-27_minigrid_5e5_unlockpick-doorkey-wallgap-lavagap-redbluedoor-emptyrand_fine-tuning_3_task_3.pth (torch, 738769 bytes, 22 tensors)

features.actor.0.weight f4 [64, 2739]
-0.017419333 0.064933896 3.4198252e-05 -0.09710127 -0.12413169 -0.029659295 -0.15208074 -0.120137416
-0.015869709 -0.2991453 -0.39581808 0.16548905 0.13927141 -0.11147653 0.030662764 -0.07231724
0.117977254 0.122885555 0.17945257 -0.3038591 0.3409778 0.014141791 0.06845942 -0.0050341724
-0.035516724 -0.005745554 -0.011067472 -0.12016066 -0.11056408 0.12257242 -0.0010422601 -0.39165813
0.32445225 0.28810507 -0.24586466 0.017965883 0.36623365 -0.14423425 0.1604891 0.5279644
-0.12400893 -0.1444497 0.012599783 0.091231585 -0.0353882 0.005788633 0.014614983 0.013688092
0.06746902 0.10296012 0.011234175 -0.44804034 -0.2740621 0.16245784 0.18482058 0.47210425
0.022689682 -0.08873013 -0.038568534 0.090581484 0.6200917 0.055044003 -0.12967376 0.05455672
0.117807925 0.00894263 -0.03816808 0.041644182 0.027951304 0.14350653 0.062070485 0.11223689
-0.24704598 -0.3467057 -0.18248668 -0.08978191 -0.30813438 -0.23473048 -0.3385644 -0.6080886
0.15003231 0.5279425 0.3117827 0.03256274 0.083832026 0.00059307716 0.00043460372 -0.02228419
-0.10965374 0.04571051 0.05508758 0.036995918 -0.07955454 -0.52341944 -0.22056042 0.055999614
0.38016126 0.2544973 0.10023693 -0.038589004 0.035274312 -0.18718491 -0.45406237 0.2441528
0.12304081 0.0128565375 0.08585388 -0.03300074 0.028850613 0.055490762 0.030310683 -0.1780226
-0.13846894 -0.1523583 -0.13474071 -0.21758503 0.28731033 -0.013091193 0.047101293 0.045583766
-0.2689894 -0.46339506 -0.21509953 -0.35177642 -0.25038293 0.04777461 -0.024358837 -0.024343459
0.03735347 0.021804048 0.0052364715 0.03818302 -0.36501175 -0.3172137 -0.15857822 -0.0465596
-0.19131908 0.078656815 0.1868681 0.2855226 -0.25121552 -0.14970975 -0.16813096 -0.08663915
-0.15479761 -0.52619046 0.22962123 0.08453065 0.018198596 -0.016985834 -0.008002536 0.00847523
0.0803279 -0.009772009 -0.017038586 0.028728308 -0.008872174 -0.008673691 0.019800123 -0.019893236
0.00897654 -0.005315261 -0.004408742 0.025652258 0.0020842236 0.014481039 0.018690143 0.39252123
-0.0066808616 0.016847888 -0.030368038 0.018516637 -0.024264483 -0.00014853131 0.050231047 0.001445638
0.004760754 -0.0011389148 -0.0025467798 -0.03094031 0.036211953 -0.0453919 0.097399116 0.006867798
0.017656703 0.0025642524 0.015775835 0.028040145 0.05205061 0.005348924 0.010677873 0.033187665
0.3679118 -0.016422719 -0.035407852 0.06648559 0.040975474 0.014998295 -0.023481373 0.058942404
0.00028765478 0.016140394 0.0031932392 -0.038090784 -0.024658676 0.32808992 0.023068326 0.031140704
-0.056842122 0.04488477 0.007130472 0.01024673 0.047008082 0.020151863 0.058295727 0.16508313
0.023892364 0.008247348 0.0029892803 0.03223155 -0.041431576 -0.020319765 -0.0048755147 -0.005390685
-0.026095912 -0.021495383 0.0065146904 0.015288003 -0.012344855 -0.02611694 0.032190565 0.047383823
-0.058676515 -0.034474954 0.029945211 0.0025538253 0.043095056 -0.032422397 -0.022955466 -0.02893569
0.011268116 -0.03598162 0.0044555007 0.0066238237 0.014693581 0.00640723 0.027079348 0.007645882
-0.015992645 0.00793775 -0.017297266 0.0032924828 0.015742796 -0.043647945 0.3348697 -0.00532168
00000000: fdb2 8ebc 10fc 843d 1870 0f38 08dd c6bd
00000010: c138 febd 0df8 f2bc 0ebb 1bbe 9b0a f6bd
00000020: 3101 82bc 9329 99be aba8 cabe f675 293e
00000030: 2a9d 0e3e cf4d e4bd 7a30 fb3c 101b 94bd
00000040: 0f9e f13d 6cab fb3d 6ac2 373e 6c93 9bbe
00000050: a494 ae3e f8b2 673c 7434 8c3d b3f5 a4bb
00000060: fc79 11bd 3345 bcbb 5854 35bc cb16 f6bd
00000070: 6c6f e2bd 4007 fb3d 729c 88ba 6a87 c8be
00000080: 9b1e a63e 8282 933e f2c3 7bbe 302d 933c
00000090: fa82 bb3e 25b2 13be 4157 243e ad28 073f
000000a0: 65f8 fdbd 9fea 13be 526f 4e3c a0d7 ba3d
000000b0: 38f3 10bd 93ae bd3b af73 6f3c 0544 603c
000000c0: 332d 8a3d c1dc d23d 8c0f 383c 8b65 e5be
000000d0: de51 8cbe 595b 263e 9b41 3d3e a6b7 f13e
000000e0: b6df b93c 24b8 b5bd 0afa 1dbd c982 b93d
000000f0: 54be 1e3f d275 613d 33c9 04be de76 5f3d
00000100: 4845 f13d 1c84 123c 2256 1cbd 1793 2a3d
00000110: 22fa e43c 60f3 123e 9f3d 7e3d 74dc e53d
00000120: 9ff9 7cbe 6983 b1be cadd 3abe 94df b7bd
00000130: cac3 9dbe 305d 70be 5058 adbe b2ab 1bbf
00000140: 12a2 193e 3d27 073f fba1 9f3e 8260 053d
00000150: 20b0 ab3d bc78 1b3a 86db e339 558d b6bc
00000160: 2492 e0bd f23a 3b3d 84a3 613d 0889 173d
00000170: 7eed a2bd d1fe 05bf 97da 61be da5f 653d
00000180: 7fa4 c23e 784d 823e 0549 cd3d 810f 1ebd
00000190: cc7b 103d 67ad 3fbe dd7a e8be 3103 7a3e
000001a0: d2fc fb3d 3aa4 523c 29d4 af3d c92b 07bd
000001b0: 1f58 ec3c 484a 633d 1c4e f83c 8e4b 36be
000001c0: cdca 0dbe d003 1cbe 78f9 09be 9cce 5ebe
000001d0: 571a 933e 717c 56bc 49ed 403d 0bb6 3a3d
000001e0: fbb8 89be 1e42 edbe 0d43 5cbe 0a1c b4be
000001f0: 3132 80be 4faf 433d 2f8c c7bc ef6b c7bc
00000200: f4ff 183d 679e b23c b596 ab3b cc65 1c3d
00000210: d2e2 babe d669 a2be 5462 22be 47b5 3ebd
00000220: 26e9 43be d316 a13d 5a5a 3f3e 0530 923e
00000230: 529f 80be 834d 19be 862a 2cbe de6f b1bd
00000240: 4483 1ebe 6bb4 06bf d421 6b3e 681e ad3d
00000250: 3915 953c e025 8bbc 121d 03bc b1db 0a3c
00000260: f482 a43d c71a 20bc 8194 8bbc a157 eb3c
00000270: 985c 11bc 191c 0ebc de33 a23c 24f7 a2bc
00000280: 5612 133c a42b aebb 3577 90bb af24 d23c
00000290: 7897 083b e141 6d3c 121c 993c 8bf8 c83e
000002a0: 21eb dabb 9504 8a3c 64c6 f8bc 34b0 973c
000002b0: 4fc6 c6bc 12bf 1bb9 12bf 4d3d 907b bd3a
000002c0: 1900 9c3b a447 95ba e0e7 26bb 8876 fdbc
000002d0: fc52 143d dbec 39bd 3079 c73d 440b e13b
000002e0: caa4 903c 040d 283b 533c 813c 72b4 e53c
000002f0: 0533 553d 0746 af3b 3ff2 2e3c caef 073d
00000300: ef5e bc3e f088 86bc d307 11bd 9929 883d
00000310: e6d5 273d 69bb 753c 025c c0bc 976d 713d
00000320: 5fd0 9639 dc38 843c aa45 513b 1505 1cbd
00000330: fe00 cabc 67fb a73e c9f9 bc3c ca1a ff3c
00000340: 49d3 68bd 18d9 373d bca6 e93b e7e1 273c
00000350: 8c8b 403d 8515 a53c 80c7 6e3d 8d0b 293e
00000360: ebb9 c33c e21f 073c cde7 433b 3b05 043d
00000370: 28b4 29bd a375 a6bc c8c2 9fbb 58a4 b0bb
00000380: 18c7 d5bc 1617 b0bc 2f79 d53b 887a 7a3c
00000390: 1342 4abc 31f3 d5bc 41da 033d 8a15 423d
000003a0: c956 70bd 9c35 0dbd a94f f53c 145e 273b
000003b0: 7184 303d 59cd 04bd 1a0d bcbc 8a0a edbc
000003c0: e79d 383c 7761 13bd 73ff 913b a90c d93b
000003d0: 58bd 703c bef3 d13b 82d5 dd3c 4f8a fa3b
000003e0: 0203 83bc 560d 023c ffb2 8dbc b2c6 573b
000003f0: 09f7 803c 30c8 32bd 0b74 ab3e 7d61 aebb

features.actor.0.bias f4 [64]
0.6524267 -0.79369456 -0.28590888 0.614511 0.4362574 -0.044426396 -0.21659638 -0.10867664
-0.05261236 0.16210897 0.017834112 0.353338 -0.44859856 0.55872446 0.23091316 0.09343284
-0.30883437 -1.3061475 -0.33845514 0.37127998 0.2199703 -0.29356822 0.31547812 0.5342692
0.27772224 0.31328085 -0.36123535 0.38162956 -0.016626174 0.037128605 -0.29093927 0.105588265
-0.46977228 -0.39980194 0.0954558 -0.19142093 0.15730323 -0.32750484 0.2901889 0.251482
0.24464116 -0.41620168 -0.06825693 -0.058008302 0.06671261 -0.85402405 0.52255875 0.22574168
-0.14697808 0.9671842 -0.13534595 -0.0047195847 0.40598634 0.20798595 0.48238555 0.3897647
-0.031238718 -0.1671978 0.33192345 0.18065086 -0.58611196 0.8068977 -0.47597742 -0.16744472
00000000: 7005 273f 912f 4bbf a662 92be 9850 1d3f
00000010: 215d df3e 74f8 35bd 71cb 5dbe dc91 debd
00000020: 0f80 57bd e5ff 253e d818 923c b8e8 b43e
00000030: b6ae e5be 9108 0f3f 8074 6c3e b859 bf3d
00000040: 8a1f 9ebe d72f a7bf fe49 adbe 6918 be3e
00000050: e53f 613e 934e 96be 5986 a13e dec5 083f
00000060: 9c31 8e3e 5966 a03e d7f3 b8be f364 c33e
00000070: 9d33 88bc 2a14 183d fef5 94be a93e d83d
00000080: fe85 f0be d7b2 ccbe 557e c33d d903 44be
00000090: 1914 213e b7ae a7be a493 943e 40c2 803e
000000a0: 3683 7a3e 6318 d5be 4aca 8bbd 1d9a 6dbd
000000b0: 9fa0 883d 52a1 5abf 69c6 053f d428 673e
000000c0: 6c81 16be 6299 773f 2198 0abe bfa6 9abb
000000d0: 71dd cf3e 45fa 543e 3dfb f63e 3d8f c73e
000000e0: 57e8 ffbc e635 2bbe dff1 a93e 8afc 383e
000000f0: 6f0b 16bf d990 4e3f 50b3 f3be a176 2bbe

features.actor.2.weight f4 [64, 64]
0.096184455 0.2445166 -0.6587623 -0.18224394 -0.20051335 0.6023559 0.2738775 -0.33785567
-0.21533899 0.7285835 -0.06178913 -0.3131228 0.10272605 0.015670205 0.34902796 0.018591754
0.37226468 -0.17674695 -0.44719836 0.5822271 0.6337619 -0.09136251 0.42028064 -0.86765724
-0.20645992 -0.09838475 0.32707816 0.16401058 0.16139384 0.54009354 0.22065164 -0.028463352
0.07978219 -0.4032782 0.0420272 -0.22461976 -0.20678893 -0.17079462 -0.7907759 -0.45817167
-0.8273081 -0.37932247 -0.16660501 0.3005715 0.45554638 0.5989738 -0.07429345 -0.05136106
0.13360682 -0.024484834 0.6476 -0.36788625 -0.002751708 -0.03329921 -0.6833328 0.0047361916
-0.13267305 -0.33974788 0.09439271 0.056811776 0.47602454 0.048509803 0.2726581 0.44365555
-0.5706282 0.047675528 0.014299937 0.1666232 -0.32107437 0.07157221 -0.11719739 0.2589464
-0.33251184 0.3880675 -0.103125036 0.28594294 -0.24682482 -0.2313175 -0.27600273 0.03582392
0.19961256 -0.29460034 0.26014066 0.101987526 -0.0063495534 0.7326633 0.010240819 0.23838189
-0.22950935 -0.6418819 0.09913262 0.52310383 -0.19108061 -0.1782597 -0.5107165 0.013557985
0.020176617 0.23313074 -0.462993 0.2550966 -0.12141858 0.7822075 0.2581264 -0.09766556
0.91021967 0.93305415 0.14429608 -0.18530264 -0.38091272 0.07451738 -0.25688976 0.09495106
0.38317946 -0.3948873 0.5033585 0.3882321 -0.19504082 -0.04842614 0.2474856 0.41435632
0.3526729 0.2520262 0.3677596 -0.3629753 0.35890597 -0.2671718 -0.37103644 -0.5110756
-0.66644824 -0.3909434 -0.21409006 0.41747603 -0.11442769 -0.2298273 0.093939714 0.62686116
-0.24066633 -0.09334169 -0.01578409 -0.1614267 -0.34763697 -0.60580343 -0.3933486 -0.4471095
-0.2591664 -0.012092091 0.1899568 0.2416322 -0.50038606 -0.05035572 -0.19648011 0.76861304
-0.09953876 0.36543554 0.008466133 0.092770584 -0.0040115044 -0.32638958 0.115682244 -0.05084027
-0.32622904 0.6285757 -0.2075988 0.092255816 -0.06436248 -0.043822873 -0.14091244 -0.21233024
0.5946492 0.5546144 -0.45854893 -0.97427917 -0.65417 -0.37837422 -0.23684032 0.5067125
-0.14192173 0.49190813 0.20256507 -0.3364973 0.54775417 -0.13274409 0.35347584 0.15164088
0.26069424 0.030104104 -0.36461604 0.5090493 0.5289216 0.08976103 -0.15196978 -0.3514378
0.38696066 0.18326476 -0.5053115 -0.22750571 -0.46044183 0.4445035 0.055834528 -0.24335325
-0.05411975 0.23687862 -0.19070727 -0.40851945 0.0085858675 0.18033865 0.3907792 -0.051203202
-0.014660776 0.018053383 0.061720178 -0.24899115 0.0695844 -0.11857804 -0.010572198 -0.34467617
0.1067328 0.37199908 0.2918294 0.05964455 -0.0023264627 -0.009396845 -0.10792638 0.1617003
-0.393701 0.1124458 -0.3138246 -1.2185458 -0.26449403 -0.592069 0.2807938 0.73913616
-0.06963105 0.21224181 0.51778 0.63406503 -0.3401725 0.09064869 -0.21943678 0.68277025
-0.054223012 -0.18439053 -0.36969498 -0.21966594 0.19071339 -0.043488994 -0.29435614 -0.27026814
0.8729396 0.04829231 0.32289505 0.31993908 -0.44705966 0.5186021 0.19573493 -0.10504114
00000000: 5bfc c43d 8f62 7a3e a5a4 28bf 289e 3abe
00000010: 5f53 4dbe ff33 1a3f ac39 8c3e 6bfb acbe
00000020: d381 5cbe 7384 3a3f 9916 7dbd a251 a0be
00000030: 0962 d23d cd5e 803c cbb3 b23e bc4d 983c
00000040: 7a99 be3e 27fd 34be 2ff7 e4be d60c 153f
00000050: 383e 223f 451c bbbd 062f d73e c91e 5ebf
00000060: 3b6a 53be f27d c9bd ca76 a73e 64f2 273e
00000070: 6d44 253e 9243 0a3f 81f2 613e fa2b e9bc
00000080: d864 a33d 7b7a cebe b724 2c3d b902 66be
00000090: 7ac0 53be c9e4 2ebe 4a70 4abf 7a95 eabe
000000a0: 77ca 53bf 8e36 c2be 819a 2abe 82e4 993e
000000b0: 603d e93e 5956 193f 2a27 98bd fa5f 52bd
000000c0: 3ad0 083e 6b94 c8bc 1dc9 253f 965b bcbe
000000d0: 0056 34bb c164 08bd e6ee 2ebf 0e32 9b3b
000000e0: 72db 07be 6ff3 adbe f750 c13d 77b3 683d
000000f0: 7db9 f33e 37b2 463d d899 8b3e d226 e33e
00000100: b114 12bf 6a47 433d 484a 6a3c 469f 2a3e
00000110: dc63 a4be 7394 923d 2f05 f0bd 9f94 843e
00000120: fe3e aabe c9b0 c63e 3833 d3bd 1d67 923e
00000130: a5bf 7cbe 7fde 6cbe 3b50 8dbe 1abc 123d
00000140: 3c67 4c3e dbd5 96be 2831 853e d6de d03d
00000150: ea0f d0bb d28f 3b3f 1cc9 273c 621a 743e
00000160: 8004 6bbe 5f52 24bf 0b06 cb3d 22ea 053f
00000170: a3aa 43be b689 36be 51be 02bf 5022 5e3c
00000180: 6f49 a53c d3b9 6e3e 6b0d edbe 069c 823e
00000190: 4eaa f8bd c03e 483f 2529 843e e204 c8bd
000001a0: 2804 693f a3dc 6e3f 5ac2 133e fabf 3dbe
000001b0: fe06 c3be 919c 983d 0e87 83be b475 c23d
000001c0: 1930 c43e ab2e cabe 1adc 003f 5cc6 c63e
000001d0: c8b8 47be 7d5a 46bd dd6c 7d3e 8326 d43e
000001e0: 8b91 b43e 9409 813e fc4a bc3e e6d7 b9be
000001f0: 86c2 b73e beca 88be 7df8 bdbe dad5 02bf
00000200: 5a9c 2abf bc29 c8be 6d3a 5bbe 6bbf d53e
00000210: 1159 eabd d957 6bbe 7763 c03d f979 203f
00000220: 3c71 76be ee29 bfbd a34d 81bc 0a4d 25be
00000230: 79fd b1be ef15 1bbf fd64 c9be 89eb e4be
00000240: 75b1 84be e81d 46bc 0984 423e 6e6e 773e
00000250: 4d19 00bf cd41 4ebd 1532 49be d3c3 443f
00000260: fada cbbd 5e1a bb3e 89b5 0a3c 81fe bd3d
00000270: f072 83bb 891c a7be d0ea ec3d e33d 50bd
00000280: 7e07 a7be 56ea 203f c894 54be 9ef0 bc3d
00000290: 7ad0 83bd 9d7f 33bd 5a4b 10be 196d 59be
000002a0: ee3a 183f 36fb 0d3f edc6 eabe 5c6a 79bf
000002b0: af77 27bf 44ba c1be 4586 72be e9b7 013f
000002c0: ee53 11be 62db fb3e 386d 4f3e 6049 acbe
000002d0: 9e39 0c3f 11ee 07be c9fa b43e bf47 1b3e
000002e0: b779 853e e29c f63c f4ae babe 0e51 023f
000002f0: 6867 073f a2d4 b73d f79d 1bbe a8ef b3be
00000300: b51f c63e c2a9 3b3e 185c 01bf 42f7 68be
00000310: 08bf ebbe f695 e33e bfb2 643d 9831 79be
00000320: acac 5dbd 4f90 723e c448 43be 7629 d1be
00000330: bdab 0c3c b2aa 383e 3614 c83e 73ba 51bd
00000340: c033 70bc b0e4 933c 4cce 7c3d 89f7 7ebe
00000350: 4482 8e3d 0bd9 f2bd 0337 2dbc 6579 b0be
00000360: ba96 da3d aa76 be3e aa6a 953e d84d 743d
00000370: 9177 18bb 39f5 19bc 8208 ddbd c394 253e
00000380: 2d93 c9be fc49 e63d 9ead a0be 4ff9 9bbf
00000390: c36b 87be d591 17bf 34c4 8f3e 0738 3d3f
000003a0: b99a 8ebd eb55 593e 3b8d 043f 1652 223f
000003b0: 172b aebe 05a6 b93d 09b4 60be 08ca 2e3f
000003c0: f318 5ebd dfd0 3cbe a948 bdbe 1cf0 60be
000003d0: 5f4a 433e 8421 32bd d9b5 96be 9660 8abe
000003e0: f878 5f3f 28ce 453d 8052 a53e 0ecf a33e
000003f0: 01e5 e4be 1bc3 043f bd6e 483e cf1f d7bd

features.actor.2.bias f4 [64]
-0.5571036 -0.34179643 0.654308 -0.56474274 -0.59565765 0.61219716 -0.09976409 -0.26799005
-0.8953831 0.8682931 0.43960026 0.24536045 1.0708674 0.48196247 0.78880763 -0.081766784
0.98419595 0.18516627 0.34760097 -0.40858227 -0.7598484 -0.24585399 -1.2148517 -0.34432554
-0.52784556 0.85016733 2.561983 0.14353341 -0.40214992 0.46980184 0.40946954 -0.81295747
0.86505145 -0.4342464 -0.109559625 0.71726334 -0.036130372 1.977607 -1.1114074 0.93554056
0.66638756 -0.41240686 0.42280504 0.15045269 0.397598 0.6469664 -0.11599226 -0.84726405
-0.38692144 -0.58878726 0.4189039 0.508072 0.34705564 -0.009279987 1.8872864 1.5286034
-1.0530634 -0.0032604015 -0.26069894 -0.042767905 -0.6589172 0.042443234 -0.061186627 0.23826236
00000000: 579e 0ebf f1ff aebe bb80 273f fb92 10bf
00000010: 057d 18bf f4b8 1c3f 1d51 ccbd fe35 89be
00000020: d437 65bf 7548 5e3f 4913 e13e c53f 7b3e
00000030: 2f12 893f c9c3 f63e 4cef 493f 5875 a7bd
00000040: 44f4 7b3f 3a9c 3d3e c1f8 b13e b231 d1be
00000050: 6d85 42bf 26c1 7bbe 4380 9bbf 704b b0be
00000060: e320 07bf 91a4 593f 88f7 2340 6cfa 123e
00000070: 98e6 cdbe de89 f03e fea5 d13e fb1d 50bf
00000080: 0374 5d3f 8b55 debe cc60 e0bd 929e 373f
00000090: 71fd 13bd 3a22 fd3f 9942 8ebf 967f 6f3f
000000a0: 6098 2a3f fe26 d3be e779 d83e 4510 1a3e
000000b0: f791 cb3e 979f 253f 5a8d edbd 4ce6 58bf
000000c0: 911a c6be c3ba 16bf 927a d63e 0211 023f
000000d0: 47b1 b13e 160b 18bc 9a92 f13f 47a9 c33f
000000e0: c8ca 86bf 76ac 55bb 557a 85be 662d 2fbd
000000f0: ccae 28bf f5d8 2d3d d49e 7abd 0cfb 733e

critic.0.weight f4 [1, 64]
0.00013095385 -8.763575e-05 -0.00022373819 0.0004162267 4.5242163e-05 1.867361e-05 -0.0003253212 0.000370338
0.0002462362 -0.00050160475 -6.900863e-05 0.00030577928 0.00015849562 -0.00010702806 0.00021570986 0.00041828814
7.138169e-06 0.0001138963 8.227222e-05 -0.00024142532 -0.00024273814 -0.00012951302 1.0139676e-05 -5.4060194e-05
0.00012538391 -0.0005142659 -0.00018070982 -7.631632e-05 -8.03345e-05 -0.00054800644 0.00070645957 0.00018325583
0.00039615313 0.00028303903 -0.00048964383 -0.00032526912 5.0073722e-05 0.0010905411 -0.00010609758 -0.00042927405
-0.0006852133 -0.00032687103 0.00024232034 0.00016559605 9.639451e-05 0.00057187845 0.0006792653 0.0003947268
0.00025976557 -6.5240565e-05 -8.3315725e-05 -0.0006242952 -0.0003056202 -0.0004247014 0.0009615587 0.00038102904
-1.4399302e-05 1.78551e-05 6.76884e-05 0.0011159353 -0.00012845844 -8.831243e-05 -0.00017040403 0.00037473842
00000000: a850 0939 16c9 b7b8 439b 6ab9 0139 da39
00000010: 67c2 3d38 46a5 9c37 df8f aab9 ed29 c239
00000020: 4319 8139 207e 03ba bab8 90b8 0051 a039
00000030: d831 2639 4174 e0b8 2d30 6239 af4d db39
00000040: 6884 ef36 9cdb ee38 9089 ac38 1e27 7db9
00000050: 8687 7eb9 e3cd 07b9 941d 2a37 b1be 62b8
00000060: 7d79 0339 cdcf 06ba ec7c 3db9 030c a0b8
00000070: 4279 a8b8 17a8 0fba b331 393a 5d28 4039
00000080: c6b2 cf39 db64 9439 715b 00ba e288 aab9
00000090: 4006 5238 7df0 8e3a b480 deb8 3010 e1b9
000000a0: e39f 33ba e35f abb9 5f17 7e39 daa3 2d39
000000b0: 6927 ca38 1dea 153a b910 323a 56f3 ce39
000000c0: 2531 8839 c3d1 88b8 cab9 aeb8 bea7 23ba
000000d0: a63b a0b9 75aa deb9 1d11 7c3a dac4 c739
000000e0: 8894 71b7 89c7 9537 eff3 8d38 9344 923a
000000f0: cdb2 06b9 6034 b9b8 7cae 32b9 8a78 c439

critic.1.weight f4 [1, 64]
-0.06799252 0.026707742 0.10472983 -0.05029596 -0.0435794 0.18984964 0.008856683 0.0054804333
-0.22295424 0.015183601 0.03348521 0.091356255 0.042134322 -0.0073218 0.03159977 -0.023311887
0.15325017 0.012679978 0.031257592 -0.08158812 0.014220603 -0.032685373 -0.1445878 -0.005081606
-0.028875384 0.18056084 0.74051833 0.045428243 -0.022948623 0.04903162 0.0071528167 -0.08372106
0.123979345 -0.061260346 0.03495935 0.16269296 -0.007244424 0.49001127 -0.07349814 0.2401426
0.03868231 -0.09092469 0.01250725 0.0039827293 -0.042787477 0.08126814 -0.0022800385 -0.18347605
0.014198255 -0.08384691 -0.04552968 -0.074595094 -0.030914687 0.001727942 0.23391014 0.10163912
-0.034352202 0.06077867 -0.012828514 -0.009816247 -0.07113805 0.05374486 0.02565487 -0.04043916
00000000: aa3f 8bbd 32ca da3c 987c d63d 2303 4ebd
00000010: 5080 32bd f267 423e 9f1b 113c 3595 b33b
00000020: 1e4e 64be a3c4 783c ca27 093d fd18 bb3d
00000030: 0a95 2c3d b6eb efbb c36e 013d 92f8 bebc
00000040: 9ded 1c3e afbf 4f3c f607 003d ac17 a7bd
00000050: 88fd 683c 19e1 05bd d30e 14be 9a83 a6bb
00000060: 128c ecbc f1e4 383e 9c92 3d3f f712 3a3d
00000070: c0fe bbbc 61d5 483d 2d62 ea3b f275 abbd
00000080: e2e8 fd3d 21ec 7abd 8931 0f3d fc98 263e
00000090: a262 edbb c2e2 fa3e 3186 96bd f1e7 753e
000000a0: 5871 1e3d b936 babd 35eb 4c3c 8e81 823b
000000b0: ec41 2fbd e96f a63d b36c 15bb 25e1 3bbe
000000c0: cc9f 683c eeb7 abbd 547d 3abd 50c5 98bd
000000d0: cc40 fdbc 1d7c e23a 2486 6f3e 2c28 d03d
000000e0: e5b4 0cbd 0ef3 783d b02e 52bc 53d4 20bc
000000f0: d3b0 91bd 9223 5c3d 292a d23c 88a3 25bd

critic.2.weight f4 [1, 64]
-0.03411238 -0.02310126 -0.036611393 -0.016736971 0.032441523 -0.008193965 -0.009131932 -0.0065760775
0.021571675 0.04300853 -0.0048739864 -0.011832934 0.15546426 0.078532085 0.10494929 0.017475812
0.047692586 -0.006254025 -0.0419077 0.03351209 0.020207234 0.01840895 -0.06267401 0.004743014
0.021128237 -0.041561913 0.4297951 0.015087615 0.021130797 -0.02914142 0.051456753 -0.11534431
0.079206824 -0.043069504 -0.056197364 -0.016892087 -0.01466063 0.56193405 -0.022952313 0.05885711
0.10548444 0.0014663165 0.05966736 -0.007333562 0.01914588 0.13458468 0.0016004845 -0.0016823543
0.009716689 -0.025976155 -0.017556127 0.042113863 0.033256114 0.01889523 0.5246505 0.5512568
-0.08842664 0.022317583 -0.03385379 -0.028888877 0.006068258 -0.0019800519 0.046217922 -0.029393012
00000000: 6cb9 0bbd db3e bdbc d4f5 15bd f91b 89bc
00000010: 67e1 043d fb3f 06bc 199e 15bc 237c d7bb
00000020: 15b7 b03c b629 303d f6b5 9fbb ecde 41bc
00000030: 0632 1f3e 6ed5 a03d a7ef d63d 6f29 8f3c
00000040: 4d59 433d 90ee ccbb 69a7 2bbd f943 093d
00000050: a489 a53c 5ece 963c 3b5b 80bd 496b 9b3b
00000060: 2015 ad3c d33c 2abd 1a0e dc3e 0b32 773c
00000070: 7e1a ad3c fdb9 eebc 51c4 523d a339 ecbd
00000080: 3037 a23d a669 30bd 352f 66bd 4661 8abc
00000090: 2433 70bc e9da 0f3f 7d06 bcbc 2714 713d
000000a0: 3a08 d83d 6b31 c03a c365 743d 604e f0bb
000000b0: d2d7 9c3c 91d0 093e 59c7 d13a 7182 dcba
000000c0: bf32 1f3c f2cb d4bc ded1 8fbc 967f 2c3d
000000d0: 9037 083d 2bca 9a3c 7f4f 063f 2a1f 0d3f
000000e0: 0719 b5bd 5dd3 b63c 46aa 0abd 5ea8 ecbc
000000f0: 3dd8 c63b c2c3 01bb 014f 3d3d 9dc9 f0bc

critic.3.weight f4 [1, 64]
-0.18407986 -0.24721098 -0.010308697 0.07132135 -0.14720269 0.060944296 0.14213218 -0.11389821
0.22660021 0.18311486 0.113124534 -0.005807396 -0.19217575 0.064787276 -0.22984189 0.054476254
-0.053762257 0.10235486 -0.20927002 0.11924338 -0.114091635 -0.06645864 -0.27170205 -0.1950101
0.015332926 0.23592342 0.2810886 0.011760014 -0.20945819 0.20279962 0.14895421 -0.14787358
0.12593846 0.1260199 -0.19615437 -0.012303775 -0.041771688 0.48746705 -0.39435655 0.04716271
0.19703345 -0.16121033 0.47296956 0.19393136 0.2530191 0.09050724 -0.32869518 -0.038726803
-0.21962428 0.03517445 0.038049687 0.045993797 0.017677769 0.0040639797 0.30145276 0.32442936
-0.44882554 -0.20730397 -0.06115903 -0.039462373 0.21245615 0.0130254505 0.16376671 -0.03496345
00000000: 6e7f 3cbe e024 7dbe cfe5 28bc ee10 923d
00000010: 4dbc 16be baa0 793d 198b 113e 7743 e9bd
00000020: e309 683e 7682 3b3e d6ad e73d f84b bebb
00000030: b8c9 44be 31af 843d ac5b 6bbe 7e22 5f3d
00000040: d035 5cbd 6d9f d13d e14a 56be e035 f43d
00000050: e0a8 e9bd 781b 88bd 881c 8bbe bab0 47be
00000060: f436 7b3c e995 713e d8ea 8f3e 13ad 403c
00000070: 357c 56be b4aa 4f3e 7487 183e 2c6c 17be
00000080: 03f6 003e 5c0b 013e b1dc 48be c695 49bc
00000090: ca18 2bbd 4895 f93e 1ae9 c9be b02d 413d
000000a0: 23c3 493e 5214 25be 1129 f23e f195 463e
000000b0: b88b 813e dc5b b93d bc4a a8be ff9f 1ebd
000000c0: 30e5 60be 1613 103d fdd9 1b3d fe63 3c3d
000000d0: f8d0 903c 222b 853b 0458 9a3e 9b1b a63e
000000e0: 76cc e5be 7e47 54be e481 7abd 4ca3 21bd
000000f0: 1b8e 593e b368 553c 76b2 273e d635 0fbd

critic.4.weight f4 [1, 64]
0.010499477 0.051210135 -0.013591472 -0.18398131 -0.12561199 -0.13780105 0.2773965 0.06905444
0.010455886 0.085717976 0.06084955 0.083786614 -0.0776882 -0.054260798 -0.07289057 -0.16128726
0.076099224 -0.06169699 -0.038578648 -0.06434186 0.22942959 0.0042359717 0.080384396 -0.24213263
-0.2363066 -0.019104797 -0.26712006 0.13161473 -0.050777815 0.01878839 -0.022762708 0.29545525
-0.07447782 0.08733937 0.015949074 0.14983241 0.12293482 0.07512852 0.047469713 0.10071664
-0.028737482 -0.06804792 0.05659157 -0.043365348 -0.20022726 0.034133747 -0.003654028 0.026114592
-0.18280904 -0.14789212 -0.25888333 -0.15289849 0.003604467 -0.100873105 0.0046976004 -0.10408089
0.08942174 0.025389738 -0.054728758 0.1713302 -0.10930831 0.022992836 0.27099556 -0.06710371
00000000: 0006 2c3c b8c1 513d c4ae 5ebc 9965 3cbe
00000010: 6ea0 00be b81b 0dbe ea06 8e3e 6a6c 8d3d
00000020: 2a4f 2b3c e88c af3d 613d 793d 5198 ab3d
00000030: fe1a 9fbd 9240 5ebd a747 95bd 7d28 25be
00000040: e9d9 9b3d fcb5 7cbd a504 1ebd aac5 83bd
00000050: 97ef 6a3e e8cd 8a3b 93a0 a43d 9ef1 77be
00000060: 5bfa 71be aa81 9cbc f6c3 88be 03c6 063e
00000070: 66fc 4fbd 1cea 993c dc78 babc e945 973e
00000080: d487 98bd fcde b23d a2a7 823c ab6d 193e
00000090: 40c5 fb3d fbdc 993d 9a6f 423d 8744 ce3d
000000a0: de6a ebbc b55c 8bbd 90cc 673d dd9f 31bd
000000b0: 6008 4dbe d4cf 0b3d 6b78 6fbb 45ee d53c
000000c0: 4b32 3bbe 0871 17be 5b8c 84be 6c91 1cbe
000000d0: ec38 6c3b 8f96 cebd 54ee 993b 5d28 d5bd
000000e0: bf22 b73d 24fe cf3c 432b 60bd 2f71 2f3e
000000f0: 09dd dfbd 795b bc3c eebf 8a3e ab6d 89bd

critic.5.weight f4 [1, 64]
-0.02404964 -0.0585799 0.0840572 -0.0877396 -0.055910975 -0.08220054 -0.022194576 -0.10901922
-0.01015009 0.21222961 0.11787951 0.17163225 -0.020559462 -0.14421792 -0.09308837 -0.10701482
-0.18391164 -0.18447322 -0.17098118 0.0993528 -0.1274537 -0.06965507 -0.098437026 -0.17057854
0.10601892 0.001685415 0.09880961 0.24306726 -0.24336553 0.0059192544 -0.025198765 0.046127986
-0.0145316655 0.116053574 -0.08671673 0.20197164 -0.04905045 0.20345786 0.1674026 0.15866165
-0.1009219 0.17798035 0.13697915 -0.14437895 0.07510599 0.02790245 -0.11085448 0.06221322
-0.046715885 -0.0013364205 -0.13233413 -0.24913907 0.20211525 0.16256917 0.16118997 -0.055115666
-0.024199452 -0.0022450245 -0.019542478 0.07205462 -0.1822952 0.13073893 -0.14760189 0.028156655
00000000: c003 c5bc 7af1 6fbd 2e26 ac3d d2b0 b3bd
00000010: e802 65bd c258 a8bd 66d1 b5bc 7845 dfbd
00000020: 904c 26bc b852 593e d06a f13d 5dc0 2f3e
00000030: 516c a8bc ddad 13be 1ea5 bebd 962a dbbd
00000040: 5553 3cbe 8ce6 3cbe b115 2fbe 7b79 cb3d
00000050: 3983 02be 51a7 8ebd 5a99 c9bd 24ac 2ebe
00000060: 7320 d93d 25e9 dc3a b15c ca3d a0e6 783e
00000070: d034 79be 4ef6 c13b a46d cebc b3f0 3c3d
00000080: 3916 6ebc 7fad ed3d 8a98 b1bd a7d1 4e3e
00000090: 20e9 48bd 4257 503e 966b 2b3e 3378 223e
000000a0: 24b0 cebd 7b40 363e 4344 0c3e 13d8 13be
000000b0: 2bd1 993d ae93 e43c ac07 e3bd 4ad3 7e3d
000000c0: 2859 3fbd d52a afba 9982 07be 501e 7fbe
000000d0: 4df7 4e3e 8878 263e fc0e 253e f7c0 61bd
000000e0: ee3d c6bc 4321 13bb 8c17 a0bc 5f91 933d
000000f0: 98ab 3abe 6de0 053e f324 17be c9a8 e63c

dist.0.linear.weight f4 [7, 64]
-0.046552856 -0.08744298 0.057747334 0.031971913 0.07527823 -0.061158344 0.09541376 0.085473694
0.027899545 -0.04767382 -0.1760182 0.011183835 -0.23561044 -0.19382465 -0.034432337 0.21087658
-0.016928151 -0.02889496 -0.10007759 0.15434909 -0.14894593 -0.08285605 -0.11049464 0.11388303
0.16176204 -0.046111904 0.026834227 0.0024247863 -0.024748897 0.25328273 0.28394955 -0.13332617
0.17695212 -0.00013751975 -0.077672146 -0.123493716 0.15404285 -0.018607816 -0.083939634 -0.28752124
-0.11495711 -0.0038547223 0.09389883 -0.060282566 0.15284176 -0.08053102 0.0057130447 -0.016358506
0.049773432 0.08052587 -0.14073794 0.14331228 -0.09702443 -0.32529613 -0.12327814 -0.0993468
-0.24442156 -0.086233094 0.15253952 0.32935455 -0.14709274 0.010075105 -0.0405217 -0.12195897
-0.06691849 0.12152423 -0.037922796 0.006340079 0.016358238 0.088261195 0.09127747 0.098977916
0.18660243 0.061580934 0.08051603 -0.02033717 0.039717644 0.050203044 0.2804503 0.034296453
-0.25787568 0.15987755 -0.25550336 0.024697952 0.17191373 0.08646723 -0.0545098 0.1411338
-0.1679837 0.071154006 0.040083125 0.07266385 -0.15214466 0.0146957915 -0.2619859 0.22109517
-0.19723237 0.14758724 0.07647333 -0.2249106 -0.0884007 0.12064311 0.000878647 0.24624273
0.043949015 -0.21176708 -0.044600148 -0.028898118 -0.026011394 -0.01675993 0.11334934 0.23671652
0.11479709 0.017164297 0.052581053 -0.06757078 0.16030376 -0.06551204 0.10079751 0.03801162
0.07134332 0.11864815 0.057143614 -0.13589315 0.19614857 -0.0024309354 0.083774626 -0.03465646
-0.12835935 0.096450604 0.1812772 -0.07967821 -0.14315079 -0.068581454 0.08719583 -0.20466332
-0.072728746 0.019579912 0.22723174 -0.09155512 0.14301758 0.12347242 0.15534244 -0.17682478
-0.0060854675 -0.11581494 0.08722959 -0.091582894 -0.18935001 -0.14244984 0.029193489 -0.034811147
0.08427166 -0.18411076 -0.19532375 -0.20573527 0.0986566 -0.20937362 0.08570145 -0.17388315
-0.09479365 -0.18794404 0.125741 0.25712612 -0.15483525 0.049675528 -0.011862289 -0.14122663
0.20652717 0.022747349 0.20824677 -0.047043607 -0.08837231 -0.23889212 -0.050185423 -0.009551485
-0.16641201 0.017644964 0.0019499715 -0.21204382 -0.19248678 0.1596342 0.04673786 -0.04478825
0.11232817 0.080564216 -0.059366506 -0.1186236 0.023815313 -0.039068755 0.10944185 0.34662047
0.074645855 -0.14947143 -0.05169803 0.015855642 -0.120760195 -0.09901488 -0.07390281 0.0020001037
-0.13441716 -0.01599577 0.06601238 -0.24011965 -0.1794635 0.14247467 0.07781278 -0.027325053
-0.040172227 -0.09167362 0.21864408 -0.22782493 0.0061753686 0.1344941 0.008377083 0.00040951133
-0.06718498 -0.016943503 0.0023954022 -0.003526214 0.15565443 -0.10460788 -0.08705166 0.019528296
-0.08445708 -0.06915022 -0.19053258 0.16543916 0.009485948 -0.24674553 -0.10091829 -0.04484857
-0.11113796 0.038762644 -0.13016596 -0.040366303 0.205731 0.14141634 0.10206659 0.030474521
0.13123956 -0.030365407 -0.018493783 0.24049543 -0.05110064 -0.15370141 -0.023905648 0.17306943
0.14705019 -0.23997323 0.10298041 -0.022768177 -0.0719434 0.08132994 -0.21637604 -0.15319209
00000000: 35ae 3ebd 4e15 b3bd 7888 6c3d fbf4 023d
00000010: 792b 9a3d 2c81 7abd 4a68 c33d d50c af3d
00000020: 968d e43c a045 43bd 1d3e 34be 673c 373c
00000030: dd43 71be f879 46be ec08 0dbd 08f0 573e
00000040: e8ac 8abc 20b5 ecbc 7bf5 ccbd b00d 1e3e
00000050: 4885 18be 6fb0 a9bd 044b e2bd 823b e93d
00000060: f3a4 253e d6df 3cbd 74d3 db3c 2ae9 1e3b
00000070: 33be cabc 46ae 813e d661 913e a886 08be
00000080: f032 353e 2d33 10b9 9312 9fbd 46ea fcbd
00000090: 69bd 1d3e 6b6f 98bc 8be8 abbd fc35 93be
000000a0: a26e ebbd 829f 7cbb 084e c03d daea 76bd
000000b0: 8d82 1c3e 73ed a4bd 7e34 bb3b 4602 86bc
000000c0: 3adf 4b3d bfea a43d 9b1d 10be 74c0 123e
000000d0: bfb4 c6bd 378d a6be 4079 fcbd 5676 cbbd
000000e0: a549 7abe fa9a b0bd 5233 1c3e 29a1 a83e
000000f0: 7b9f 16be 0e12 253c 15fa 25bd a0c5 f9bd
00000100: 900c 89bd b2e1 f83d ef54 1bbd 70c0 cf3b
00000110: b601 863c 49c2 b43d afef ba3d efb4 ca3d
00000120: b514 3f3e 4a3c 7c3d 97e5 a43d 239a a6bc
00000130: f8ae 223d b5a1 4d3d 2f97 8f3e 707a 0c3d
00000140: 4808 84be f1b6 233e 56d1 82be 5c53 ca3c
00000150: 270a 303e bb15 b13d ab45 5fbd 6185 103e
00000160: eb03 2cbe 31b9 913d 342e 243d c9d0 943d
00000170: cfcb 1bbe 9ec6 703c 0423 86be c666 623e
00000180: 48f7 49be 1c21 173e 0d9e 9c3d f74e 66be
00000190: 6d0b b5bd bc13 f73d 0155 663a 0e27 7c3e
000001a0: e203 343d 78d9 58be a5ae 36bd bfbb ecbc
000001b0: d915 d5bc 1f4c 89bc b323 e83d d165 723e
000001c0: bd1a eb3d 249c 8c3c 3b5f 573d 8d62 8abd
000001d0: ab26 243e 2d2b 86bd ed6e ce3d 13b2 1b3d
000001e0: 721c 923d cdfd f23d 6c0f 6a3d 9327 0bbe
000001f0: 2cdb 483e 5450 1fbb 0892 ab3d eff3 0dbd
00000200: a270 03be e587 c53d bba0 393e 542e a3bd
00000210: 1f96 12be 6f74 8cbd ba93 b23d 4393 51be
00000220: cff2 94bd 0d66 a03c 70af 683e 4081 bbbd
00000230: 3373 123e 1cdf fc3d 1712 1f3e 8e11 35be
00000240: 9a68 c7bb 6230 edbd 6da5 b23d d08f bbbd
00000250: f8e4 41be 5fde 11be 2f27 ef3c 2296 0ebd
00000260: 9f96 ac3d 8887 3cbe f302 48be 44ac 52be
00000270: 790c ca3d 0a66 56be 3e84 af3d 6d0e 32be
00000280: 2c23 c2bd 6774 40be 40c2 003e 09a6 833e
00000290: 228d 1ebe 9178 4b3d 0c5a 42bc b79d 10be
000002a0: dc7b 533e a658 ba3c a43e 553e ccb0 40bd
000002b0: 8bfc b4bd 23a0 74be 3b8f 4dbd d57d 1cbc
000002c0: e967 2abe 2c8c 903c 3096 ff3a 0422 59be
000002d0: 411b 45be 2677 233e 3370 3f3d e273 37bd
000002e0: 500c e63d dafe a43d 4b2a 73bd eef0 f2bd
000002f0: 5518 c33c 8f06 20bd 0c23 e03d 3d78 b13e
00000300: eddf 983d 0a0f 19be 50c1 53bd b1e3 813c
00000310: 1f51 f7bd 50c8 cabd 5b5a 97bd 2c14 033b
00000320: a7a4 09be 9009 83bc 8031 873d ede1 75be
00000330: 48c5 37be e1e4 113e 4f5c 9f3d cad8 dfbc
00000340: a28b 24bd 61bf bbbd 3ce4 5f3e f04a 69be
00000350: bf5a ca3b d2b8 093e 0840 093c aeb3 d639
00000360: 4798 89bd 1acd 8abc 2efc 1c3b 0e18 67bb
00000370: e063 1f3e a83c d6bd 2448 b2bd cef9 9f3c
00000380: d5f7 acbd a19e 8dbd f91a 43be e268 293e
00000390: f36a 1b3c dcaa 7cbe 40ae cebd 22b3 37bd
000003a0: 4c9c e3bd 94c5 1e3d 3a4a 05be 2357 25bd
000003b0: 26ab 523e 72cf 103e 4a08 d13d b4a5 f93c
000003c0: aa63 063e e0c0 f8bc 4680 97bc 6f44 763e
000003d0: e84e 51bd e763 1dbe c7d5 c3bc 1d39 313e
000003e0: 5394 163e 8bbb 75be 65e7 d23d 5484 babc
000003f0: 1057 93bd 5090 a63d ae91 5dbe 63de 1cbe

dist.0.linear.bias f4 [7]
0.03316245 -0.04447066 -0.03118805 0.029977024 0.11718907 -0.007619747 -0.012237053
00000000: 59d5 073d de26 36bd 157e ffbc 6092 f53c
00000010: d300 f03d 12af f9bb ec7d 48bc

dist.1.linear.weight f4 [7, 64]
-0.11245068 -0.11934229 0.066239685 -0.28491473 0.39593768 -0.018009296 0.09636927 -0.09176497
0.08756206 -0.23519523 0.026781384 0.016816108 0.007016861 -0.5829768 0.24720955 0.1508371
0.15516718 0.062147066 -0.07566767 0.07736938 0.5773077 0.51714724 0.11120108 -0.53577846
-0.2089864 0.14112236 0.09425351 -0.16324104 -0.11590305 -0.22149612 0.2854577 0.18950298
0.07505168 0.65891105 0.22669452 0.06895979 -0.41328138 0.14759378 0.39804474 0.18534873
-0.056271024 -0.18024834 -0.45233315 0.11513785 -0.44139066 0.031884648 -0.04132489 -0.20134176
0.5744647 0.08066505 0.030520761 -0.422256 -0.0731773 -0.38286594 0.20671321 -0.08824211
-0.3193427 -0.017873107 0.58142895 -0.19697809 0.5555194 -0.0076360605 0.0020264657 0.84037626
-0.48814306 0.39256015 0.28987858 -0.020578712 0.14533278 0.02589051 0.30452377 -0.032150775
-0.36260262 0.09170779 -0.35977113 -0.29923123 0.102145225 0.11343158 -0.24448998 -0.47607622
0.12533729 0.25544173 -0.25056085 -0.27227807 -0.6815046 0.048932213 -0.046169635 0.05313539
0.60039204 -0.22782162 0.15514089 -0.43260056 0.60879064 0.35693458 0.09883328 0.10648687
-0.033573166 -0.090143025 0.046635393 0.11280846 -0.23263252 0.17636643 -0.2045252 -0.05583655
0.44026726 0.12168878 0.7498454 -0.0741342 -0.100768104 -0.03588993 -0.025540426 -0.073237106
-0.63216937 -0.08687181 0.16825043 -0.13300532 -0.33340868 0.1966694 0.12728682 0.4161441
-0.09347386 0.14591606 -0.19314612 -0.2668818 -0.27153915 -0.5231367 -0.23275642 0.56245625
-0.50202626 -0.107946165 -0.049456146 0.15104975 -0.56045103 -0.0817004 -0.28414133 0.44618243
-0.36532563 0.2491147 0.26078293 0.27825797 0.28324574 -0.120850116 0.2636416 0.42072377
-0.23352341 -0.31324643 -0.2401188 0.17608324 -0.25291568 -0.401275 -0.043944173 0.2135401
-0.47430798 0.34325328 0.2357889 0.42194432 -0.05058704 0.20677863 -0.49489453 -0.43713892
-0.047391746 -0.17169663 -0.0698391 0.044735704 0.48710558 -0.10337448 -0.058862448 0.083515316
-0.15886281 -0.4287072 -0.26610756 -0.2255791 0.0732316 -0.14181799 -0.225909 0.093087636
-0.1788284 -0.20362593 0.01882964 0.5674536 0.38283864 -0.040628646 0.021964055 0.2454155
0.10694948 -0.40256757 -0.42686027 0.46647626 -0.24159676 0.4783156 0.14932513 -0.75786483
0.8079841 -0.3629407 -0.083361045 0.08950327 -0.10699117 0.064528205 -0.3017096 -0.4477217
-0.014927142 0.31292507 0.17861862 -0.0034144009 -0.055730414 0.34368145 -0.39948803 0.066901416
-0.012283477 -0.06053577 0.46935862 0.27259 0.2610861 -0.20960741 -0.11651016 -0.10699573
-0.22419117 -0.1854911 0.0008698542 -0.039593946 -0.44242933 -0.26199046 0.13129632 -0.030979684
0.08956951 -0.26351315 -0.25973302 -0.037155647 0.29105458 0.088368304 -0.09019449 0.013480044
0.12749134 0.14772172 -0.395074 0.08235064 0.35844442 0.13259943 0.3738647 0.021486914
-0.004406534 0.10362964 0.0009388711 0.06280679 -0.12351159 0.27862063 0.052588362 0.09230474
0.27442256 0.15984629 0.038261093 0.08029848 -0.024224946 -0.18556921 0.007820814 -0.2305037
00000000: 8b4c e6bd bb69 f4bd aca8 873d 58e0 91be
00000010: 58b8 ca3e 3b88 93bc 405d c53d 46ef bbbd
00000020: bd53 b33d 05d7 70be a264 db3c efc1 893c
00000030: b2ed e53b f83d 15bf 8024 7d3e 0a75 1a3e
00000040: 25e4 1e3e ec8d 7e3d a7f7 9abd d673 9e3d
00000050: 70ca 133f c363 043f 64bd e33d c728 09bf
00000060: 8800 56be 6182 103e fc07 c13d a928 27be
00000070: 945e edbd e1cf 62be 8327 923e 120d 423e
00000080: b2b4 993d 65ae 283f 9c22 683e ca3a 8d3d
00000090: 9e99 d3be d322 173e 85cc cb3e 0fcc 3d3e
000000a0: 727c 66bd 0593 38be 3698 e7be 65cd eb3d
000000b0: f5fd e1be 7a99 023d 4a44 29bd 892c 4ebe
000000c0: 1e10 133f b833 a53d ad06 fa3c f031 d8be
000000d0: fbdd 95bd 0107 c4be a1ac 533e 48b8 b4bd
000000e0: e380 a3be 9f6a 92bc 87d8 143f a0b4 49be
000000f0: 8536 0e3f eb37 fabb 74ce 043b e622 573f
00000100: e3ed f9be a5fd c83e f76a 943e b094 a8bc
00000110: 1ed2 143e 5618 d43c 8aea 9b3e 88b0 03bd
00000120: 0da7 b9be 4bd1 bb3d ec33 b8be d634 99be
00000130: 8431 d13d d14e e83d 955b 7abe 43c0 f3be
00000140: 6b58 003e 42c9 823e 8349 80be 0868 8bbe
00000150: 1677 2ebf 256d 483d 5f1c 3dbd 7fa4 593d
00000160: 4bb3 193f 124a 69be 41dd 1e3e d27d ddbe
00000170: b4d9 1b3f 21c0 b63e 1a69 ca3d ca15 da3d
00000180: 0484 09bd e89c b8bd c104 3f3d 1f08 e73d
00000190: 3837 6ebe 6799 343e 0e6f 51be deb4 64bd
000001a0: b66a e13e f837 f93d def5 3f3f acd3 97bd
000001b0: 825f cebd 5201 13bd 283a d1bc 56fd 95bd
000001c0: dad5 21bf d9e9 b1bd d749 2c3e 8c32 08be
000001d0: 8bb4 aabe b463 493e 7a57 023e d710 d53e
000001e0: 396f bfbd 056b 153e 19c8 45be bba4 88be
000001f0: 2e07 8bbe 49ec 05bf b357 6ebe 22fd 0f3f
00000200: cb84 00bf e112 ddbd 8792 4abd c9ac 1a3e
00000210: b879 0fbf 8a52 a7bd f97a 91be 0672 e43e
00000220: f60b bbbe ed17 7f3e 5785 853e d477 8e3e
00000230: 9605 913e 4480 f7bd 08fc 863e 1b69 d73e
00000240: c320 6fbe d661 a0be b4e1 75be 2a4f 343e
00000250: 2a7e 81be eb73 cdbe cefe 33bd 42aa 5a3e
00000260: 7fd8 f2be e5be af3e a572 713e 1609 d83e
00000270: 5b34 4fbd c7bd 533e d162 fdbe acd0 dfbe
00000280: d91d 42bd 3ed1 2fbe cd07 8fbd c93c 373d
00000290: e765 f93e 00b6 d3bd c019 71bd 140a ab3d
000002a0: efac 22be 837f dbbe 403f 88be 35fe 66be
000002b0: 73fa 953d bc38 11be b054 67be bba4 be3d
000002c0: cb1e 37be 5183 50be 9e40 9a3c a444 113f
000002d0: 6d03 c43e 396a 26bd f6ed b33c 334e 7b3e
000002e0: 5408 db3d 561d cebe 6e8d dabe fad5 ee3e
000002f0: 2465 77be c8e5 f43e b0e8 183e 6e03 42bf
00000300: 0cd8 4e3f 5dd3 b9be 32b9 aabd 7e4d b73d
00000310: 301e dbbd 5d27 843d ae79 9abe c73b e5be
00000320: f990 74bc b737 a03e cde7 363e 24c4 5fbb
00000330: 9345 64bd 04f7 af3e b289 ccbe 9c03 893d
00000340: a340 49bc 5bf4 77bd c64f f03e eb90 8b3e
00000350: 14ad 853e 53a3 56be e19c eebd 9420 dbbd
00000360: 5f92 65be 61f1 3dbe ed06 643a 432d 22bd
00000370: 1986 e2be 9d23 86be 8b72 063e 1bc9 fdbc
00000380: 3870 b73d 32eb 86be bafb 84be 8530 18bd
00000390: 1b05 953e 71fa b43d e4b7 b8bd 67db 5c3c
000003a0: 178d 023e 5d44 173e 2447 cabe 74a7 a83d
000003b0: 0786 b73e 25c8 073e 326b bf3e 5305 b03c
000003c0: b064 90bb c73b d43d 931e 763a d9a0 803d
000003d0: a5f3 fcbd 5da7 8e3e e566 573d 440a bd3d
000003e0: 1d81 8c3e bfae 233e aab7 1c3d 8873 a43d
000003f0: 6573 c6bc db05 3ebe df22 003c 2909 6cbe

dist.1.linear.bias f4 [7]
0.16013785 0.19397174 0.2038599 0.058625646 -0.3006602 -0.11221168 -0.12186936
00000000: 2dfb 233e 87a0 463e a6c0 503e 7221 703d
00000010: 22f0 99be 3dcf e5bd a596 f9bd

dist.2.linear.weight f4 [7, 64]
0.14204223 -0.13836668 -0.66097456 -0.25242364 0.33583018 0.40440273 0.05225899 0.24168849
0.3411195 0.08724401 0.2897378 0.42657083 -0.094795324 0.0014827675 0.1973701 0.014753688
0.15112706 0.22679897 -0.15019676 0.16497295 0.66614836 0.2012842 0.15005066 -0.35797927
0.044980958 -0.060303323 0.03395222 0.22347605 0.25995174 -0.10729494 -0.013822645 0.2060943
0.028186562 0.31096983 0.49230012 0.23400486 0.23843811 0.059791304 0.17471515 0.11378023
-0.18966632 -0.39263225 0.09324042 0.14044389 -0.1557304 0.19406709 -0.2174078 -0.30580616
0.73545545 -0.29028162 -0.08643967 -0.015216769 0.27606776 -0.58218646 0.07310979 0.124404095
0.25149024 -0.28589344 -0.2347326 0.01479827 0.32829976 0.48414072 -0.2868142 0.108043306
0.06283382 0.31365347 0.06959349 0.08674325 0.06957498 0.15471393 0.06966062 -0.31157938
-0.25539476 0.24594517 0.16855074 -0.42776293 0.119660504 0.2403247 -0.11893095 -0.6419972
0.053138986 0.3488547 -0.037228398 -0.37650114 -0.43901172 -0.06675156 -0.029766237 0.4481818
0.34496492 0.058091145 0.22334307 -0.49005833 0.43998542 0.23165843 0.2258463 -0.2380979
-0.023933996 -0.07327378 -0.022096915 0.21634287 -0.24538137 0.2331181 -0.026648404 -0.090413965
0.23194592 0.20231874 0.27373502 -0.049533647 -0.093790345 0.14169276 -0.102367364 0.37494043
-0.36010876 -0.42533013 0.1477366 0.12559493 -0.33905366 0.3205233 0.30041894 0.20286441
-0.28489473 0.039374013 -0.3867541 -0.18225096 0.20050064 -0.31404275 -0.15340821 0.53312397
-0.35419217 -0.37811998 0.6087532 -0.109898075 -0.31393546 -0.36578783 -0.325642 0.06788608
-0.29454216 0.12344454 -0.2889491 0.16265269 0.37851262 -0.18807305 0.21927804 0.54201454
0.048160736 -0.37872535 0.17166094 0.29107317 -0.20826264 -0.18201245 -0.2855545 -0.2591288
-0.5571429 0.20385836 0.3142819 0.19801077 -0.63037497 -0.058344975 -0.12798695 -0.31033272
0.18197252 -0.28770107 -0.39945167 -0.17731495 0.14557827 0.30849296 -0.5241694 0.35614604
0.1456318 0.017402887 -0.14099835 0.001650495 0.2613841 -0.002763734 0.3147048 -0.27691776
-0.3743775 0.28348446 0.13352941 0.02201307 0.22835675 0.058100376 0.283142 0.28414196
-0.25774944 0.01313068 0.54741156 0.22243176 -0.5565983 0.03365812 0.21908778 -0.4091239
0.09439571 -0.10232742 -0.17349626 0.0030344725 0.04257798 0.10607727 0.11385056 0.078446135
0.17556114 0.03147188 0.045385808 0.11077497 0.0012893024 -0.0839309 0.08835292 0.15372606
-0.09467455 0.03138985 -0.08983729 0.16361281 -0.23537505 -0.105263025 -0.17911632 0.048417047
-0.079614736 -0.15005818 -0.09832995 0.0246369 -0.10973813 -0.09012655 -0.13025293 -0.052282512
0.090479895 0.09958015 0.048951678 -0.13278463 -0.0072777458 -0.09322705 0.054628804 0.038531348
-0.035004362 -0.13432314 0.20111094 0.005001155 0.2151532 -0.4028172 -0.06726006 -0.08592163
-0.08174173 -0.009489139 0.13179365 -0.21515779 0.18313175 -0.10922626 -0.091328174 -0.015306963
-0.16520202 0.006673382 0.14364293 0.0786868 0.037337717 0.12488053 -0.1126901 -0.04993806
00000000: 8573 113e ffaf 0dbe a135 29bf ac3d 81be
00000010: eff1 ab3e e00d cf3e 860d 563d 307d 773e
00000020: 37a7 ae3e fdac b23d 8358 943e 7e67 da3e
00000030: 0d24 c2bd 6c59 c23a 631b 4a3e 74b9 713c
00000040: 0dc1 1a3e fd3d 683e 2ecd 19be abee 283e
00000050: b388 2a3f 721d 4e3e e1a6 193e 0f49 b7be
00000060: f43d 383d 9e00 77bd 7c11 0b3d e8d6 643e
00000070: 6518 853e 73bd dbbd 6078 62bc 620a 533e
00000080: 81e7 e63c 7037 9f3e c30e fc3e f89e 6f3e
00000090: 1f29 743e bae7 743d 87e8 323e 9c05 e93d
000000a0: e337 42be 1807 c9be d5f4 be3d 86d0 0f3e
000000b0: ca77 1fbe 86b9 463e 26a0 5ebe a092 9cbe
000000c0: cf46 3c3f cb9f 94be 4807 b1bd c14f 79bc
000000d0: c158 8d3e 2c0a 15bf 96ba 953d 93c7 fe3d
000000e0: 54c3 803e a060 92be be5d 70be 7174 723c
000000f0: e816 a83e 4be1 f73e 50d9 92be cf45 dd3d
00000100: 05af 803d 3097 a03e 0887 8e3d 72a6 b13d
00000110: 547d 8e3d 546d 1e3e 3aaa 8e3d 5587 9fbe
00000120: 1ac3 82be 0dd9 7b3e 9198 2c3e be03 dbbe
00000130: 9110 f53d ae17 763e 1292 f3bd ee59 24bf
00000140: 44a8 593d 159d b23e ce7c 18bd c2c4 c0be
00000150: 25c6 e0be 0bb5 88bd 53d8 f3bc 1678 e53e
00000160: 3e9f b03e fbf0 6d3d 0cb4 643e ede8 fabe
00000170: c545 e13e de37 6d3e 4144 673e f0cf 73be
00000180: 3a11 c4bc 9010 96bd 9704 b5bc fc88 5d3e
00000190: 4145 7bbe 83b6 6e3e c14d dabc f52a b9bd
000001a0: 3b83 6d3e a52c 4f3e ff26 8c3e cbe3 4abd
000001b0: 2715 c0bd e817 113e fba5 d1bd 31f8 bf3e
000001c0: 2d60 b8be dfc4 d9be 4348 173e f59b 003e
000001d0: 7198 adbe a11b a43e 83d0 993e b0bb 4f3e
000001e0: b9dd 91be a546 213d a204 c6be ff9f 3abe
000001f0: 0a50 4d3e 36ca a0be 0b17 1dbe d07a 083f
00000200: ad58 b5be f198 c1be 40d7 1b3f 3e12 e1bd
00000210: 26bc a0be 8b48 bbbe 8cba a6be db07 8b3d
00000220: 3bce 96be 7ed0 fc3d 23f1 93be 6d8e 263e
00000230: 68cc c13e 3996 40be 6c8a 603e 77c1 0a3f
00000240: 3144 453d 4ae8 c1be e3c7 2f3e 8b07 953e
00000250: cd42 55be 7961 3abe 3334 92be 88ac 84be
00000260: eba0 0ebf 3fc0 503e 8fe9 a03e 56c3 4a3e
00000270: 4160 21bf 24fb 6ebd 030f 03be eee3 9ebe
00000280: 0157 3a3e 8e4d 93be ee84 ccbe 0d92 35be
00000290: 7812 153e caf2 9d3e f72f 06bf c658 b63e
000002a0: 8120 153e 8090 8e3c df61 10be 6c55 d83a
000002b0: 23d4 853e c31f 35bb fd20 a13e 2ac8 8dbe
000002c0: 68ae bfbe e024 913e efbb 083e c154 b43c
000002d0: 5ad6 693e a9fa 6d3d fdf7 903e 0e7b 913e
000002e0: bcf7 83be 1022 573c 2a23 0c3f 27c5 633e
000002f0: 3a7d 0ebf 19dd 093d 8c58 603e b078 d1be
00000300: 8a52 c13d 0a91 d1bd 01a9 31be 00de 463b
00000310: 3f66 2e3d 0a3f d93d 7b2a e93d 5ea8 a03d
00000320: 4dc6 333e a8e8 003d 78e6 393d fddd e23d
00000330: cffd a83a f7e3 abbd 60f2 b43d 5d6a 1d3e
00000340: bbe4 c1bd a592 003d 9dfc b7bd 1e8a 273e
00000350: 2806 71be 2494 d7bd 456a 37be f450 463d
00000360: 0d0d a3bd daa8 19be 3661 c9bd 53d3 c93c
00000370: 62be e0bd 4594 b8bd 0661 05be 3026 56bd
00000380: 864d b93d adf0 cb3d 8e81 483d b2f8 07be
00000390: 287a eebb d3ed bebd 74c2 5f3d 0cd3 1d3d
000003a0: bc60 0fbd 018c 09be 07f0 4d3e bbe0 a33b
000003b0: 1f51 5c3e 0e3e cebe a4bf 89bd aef7 afbd
000003c0: 3568 a7bd 5578 1bbc eaf4 063e 5352 5cbe
000003d0: e486 3b3e 04b2 dfbd 440a bbbd 0eca 7abc
000003e0: b82a 29be 63ac da3b 2217 133e 8c26 a13d
000003f0: 6fef 183d 5dc1 ff3d 11ca e6bd da8b 4cbd

dist.2.linear.bias f4 [7]
0.0925197 0.21952055 0.29877675 -0.08077179 -0.09479524 -0.12863426 -0.14145562
00000000: f87a bd3d ffc9 603e 44f9 983e ae6b a5bd
00000010: 0224 c2bd b3b8 03be bed9 10be
