BLIP/RL/trained_models/ppo/2023-01-28_minigrid_5e5_distshift-doorkey-wallgap-lavagap-redbluedoor-emptyrand_fine-tuning_1_task_1.pth (torch, 738769 bytes, 22 tensors)

features.actor.0.weight f4 [64, 2739]
00000000: 3f0a 393e edaf eebc 5d2c 493c f5d6 ec3d
00000010: df7c e9bd deb5 9b3c b6ac 19be 7402 febd
00000020: 63ea d2bb 0a0c 0d3d e2b6 bfbc 0ba2 16bd
00000030: 0f24 813e a43d acbd d4a2 44be 8d4b f73d
00000040: 56d6 93bd a6c6 87be 2ea0 843e 73ae ef3d
00000050: 813d 753c 5e70 843d 13ba e53d 00a8 373d
00000060: 61e0 843e 0109 6abd dce1 033c f556 2dbe
00000070: fdfa 2dbd c5ee 01bd a0a8 2f3e a6a6 973c
00000080: 324e 26bd 1769 7c3c 5bb2 19be 2b01 0cbd
00000090: f080 e2bb 661f 83bd 043f a1bd 7d60 b53d
000000a0: 2b2a 4ebe 06fd 263e 2f7c 273e fd37 0d3e
000000b0: b79f 01bd 5082 03bd 9ba5 6dbd df2a 803d
000000c0: 82be e1bd b2d0 81bc 6dfa 2ebb 2b80 0b3d
000000d0: 8556 eabd b628 1d3e 333a 50be dfe5 67be
000000e0: aa5c 903c 7d5a 13be 7478 8bbd a771 8b3e
000000f0: 357f a7be 36b8 61be af1a a4ba bfb2 423e
00000100: 1534 013e 137f 803c bddb d2bc 5328 aebd
00000110: b75d f1bb 3791 50be 3c3a 95bd 0f2a 11bd
00000120: 5f2a 7ebe 4986 c3bd 2336 8fbb dc52 9ebe
00000130: f6c1 5ebe d3bd 153d 5e72 37be f162 553e
00000140: 9861 82be fc95 fbbe 7f1c 3abe 3393 96bb
00000150: 2a63 ef3d 6898 b33d 8771 3ebd 723a 9dbd
00000160: c953 78bd b8d3 83bc 2687 89bd d911 22bd
00000170: b169 143d f7b4 bdbd c910 14be 24a7 2a3d
00000180: ea22 eebe c66d 71bd 812e 253e 7b46 d9bb
00000190: b589 4b3e c7de 5b3e 695b 023f d937 b43e
000001a0: bf35 36be de18 bc3c 2ed4 533d 29c6 70bc
000001b0: e2b3 85bd f038 8fbd d11d 18bb 6dba 5fbd
000001c0: e353 b83c 6384 c13b 9c21 4fbe df8e 0fbe
000001d0: c9f7 dbbd ff1e b83c c423 073e b4cc f33d
000001e0: 23f1 d53c 060a 2b3e b1cc 803e bea4 c73e
000001f0: fb1e c53e 8d7b f1bd 58b8 36bc b6d2 0dbe
00000200: 4dad 8ebc 8cae 83bd e07a a2bd d58b 4c3a
00000210: 1d7f 90bd 2c85 fbbc 3d81 033d 9105 edbd
00000220: 9ea4 c13c 67ea 2fbd 1f3c 1cbe 8d54 88bc
00000230: 3c35 f6bc 55c3 c3bc 3cac d33d 6cd8 293e
00000240: 7794 ed3d d4c8 953e 3b1a 68bd 5982 9dbc
00000250: e333 88bc 9249 843c 734b c5bc 6717 b23c
00000260: f5ae bdbc 6f72 6ebe 93a5 debc 9c32 74bc
00000270: a47a 093d b084 09bd 1a4c 36bd 23c2 7bbb
00000280: 3fb7 25ba 2f29 5e3b 5865 34bd e6c0 3c3c
00000290: 6600 49bd 7143 b83c 6f26 343c 1966 1cbd
000002a0: 0470 babc 2e9f bfbc 6751 3cbc ec8f 28bb
000002b0: 0644 bc3b d7c6 9d3c d2ff e4bb d136 cb3b
000002c0: 2823 8dbc 55a4 e63c 0239 8abe 1409 7a3c
000002d0: 7822 143d f84b 25bd 68e2 ba3a 4fb6 153c
000002e0: 5066 483b d5ba e5bb 5a1e b23c 00fe 723c
000002f0: 8e78 993d 4e2e a23c af20 2fb8 0753 95bc
00000300: 8941 41bd 09a2 833c 230e 783c 3ae7 03bd
00000310: 9c4b 1b3d e02a f6bb 7729 6d3c cd13 0e3d
00000320: 6cef a7bc 9518 183d 1aa6 893c ad62 4e3b
00000330: b91b 993c 1fdc 5cbc 201c 983b fbef 7b3c
00000340: efdd 193c 92f3 6c3c d068 3bbc 43b1 c13c
00000350: c807 fd3a 5c34 db3b 44f6 2d3c 68bb caba
00000360: 6743 cf3c 0d16 1e3d eb74 28bc 2aea 3a3c
00000370: 1cdd 84be 9c20 0d3d 9cce 36bd 0c83 dd3c
00000380: 831c a13c deb2 8bbc 68bc 3ebc d541 62bc
00000390: 8b45 203c 99dd 193d 0bdf bdbc 2ee1 58bd
000003a0: bcdf f63b eb7c fdba 2d6a b6bb ab61 863d
000003b0: ecd5 0a3c a5ed 1dbd e721 c83b e49b 49bc
000003c0: c4b1 723b 86b3 383c c78f 5a3d 7094 4f3c
000003d0: 80ed 0bbc 4b35 c9bc f3b4 80bd 2814 29bd
000003e0: 8a83 20bd 7aa2 913c 19fb adba c434 d8bc
000003f0: b597 f1bc 561a 1dbd 5d34 bfbe d5d3 f0bc
0.18070315 -0.029136622 0.012278643 0.11564437 -0.114007704 0.01900762 -0.1500729 -0.12402812
-0.0064366325 0.03443531 -0.023402635 -0.03677563 0.25222823 -0.084101945 -0.19202739 0.12074957
-0.07218616 -0.26518744 0.25903457 0.117031954 0.014968277 0.06466745 0.112171315 0.04483795
0.25952438 -0.057137493 0.008049455 -0.16927703 -0.04247569 -0.03172185 0.17154169 0.018512081
-0.040601917 0.015405915 -0.15009443 -0.0341808 -0.006912343 -0.06402473 -0.078733474 0.08856294
-0.20133273 0.16307458 0.16355966 0.13790889 -0.031646457 -0.032106698 -0.05801926 0.06258177
-0.110226646 -0.015846584 -0.0026699558 0.034057777 -0.114422835 0.15347561 -0.20334701 -0.22646283
0.01762231 -0.14389987 -0.06810084 0.27235147 -0.3271424 -0.22042927 -0.0012520159 0.19013499
0.12617524 0.015685594 -0.025739545 -0.08503785 -0.007365908 -0.20367895 -0.07286498 -0.0354405
-0.24820851 -0.09547097 -0.0043704673 -0.30922592 -0.21753678 0.036557984 -0.17914721 0.20838524
-0.25465083 -0.49137866 -0.18174933 -0.0045951842 0.11688836 0.087693036 -0.046494987 -0.07677163
-0.06062678 -0.016092166 -0.06715231 -0.039567802 0.036233608 -0.09263032 -0.14459528 0.041663304
-0.46511012 -0.05894258 0.16131021 -0.0066307164 0.1987675 0.21471702 0.5092073 0.35198858
-0.1779394 0.022961076 0.051716022 -0.014695683 -0.065284505 -0.06993282 -0.0023211131 -0.05462115
0.022500938 0.0059056743 -0.20227665 -0.14019345 -0.10740621 0.022475718 0.13197237 0.119042784
0.02611596 0.16703042 0.25156167 0.38992876 0.385002 -0.117911436 -0.011152349 -0.13849911
-0.01741662 -0.064297765 -0.07933593 0.0007802819 -0.07055495 -0.03070315 0.032105673 -0.11573327
0.023638066 -0.042948153 -0.1525731 -0.01664188 -0.030054681 -0.023896853 0.103355855 0.16586465
0.11600583 0.29254782 -0.05666564 -0.019227194 -0.016626304 0.016148362 -0.024083829 0.021739675
-0.023154715 -0.2328584 -0.027178561 -0.014904644 0.033564225 -0.033573806 -0.04450617 -0.0038415275
-0.0006321556 0.003389906 -0.04404196 0.0115206 -0.049072646 0.022493096 0.010995491 -0.038183305
-0.022758491 -0.023391332 -0.011494017 -0.002572055 0.0057454137 0.019259853 -0.006988504 0.006201603
-0.017228678 0.028154531 -0.26996619 0.015260953 0.036165684 -0.040355653 0.0014258148 0.009137704
0.003057856 -0.0070107975 0.021742988 0.014831066 0.07493697 0.01979747 -4.175369e-05 -0.018228067
-0.04718164 0.016068475 0.015140089 -0.032202937 0.037913904 -0.0075124353 0.014475218 0.034686852
-0.020499907 0.03713282 0.016802836 0.003149192 0.018689977 -0.013480215 0.0046420246 0.01537704
0.009391292 0.014462369 -0.0114385635 0.023644095 0.0019304687 0.0066895913 0.010617796 -0.0015467228
0.025300695 0.038595248 -0.010281782 0.011408368 -0.25949943 0.034454927 -0.04463063 0.027040027
0.019666916 -0.017053064 -0.011641599 -0.013809641 0.009782205 0.037564848 -0.023177644 -0.052949123
0.0075339954 -0.0019339597 -0.0055668564 0.065615974 0.0084738545 -0.038556714 0.006107557 -0.012305234
0.0037032226 0.0112732705 0.053359773 0.012669668 -0.008540511 -0.024561545 -0.06284513 -0.041278988
-0.039187945 0.01777767 -0.0013273685 -0.026392348 -0.029491285 -0.038355194 -0.37344638 -0.029397884

features.actor.0.bias f4 [64]
00000000: 4aca 04bf 1299 06be 06e8 81bd 2074 143f
00000010: 2288 0fbe 484f adbc 8bc6 4b3f 5075 fd3e
00000020: bf7e b1bc 4a24 bb3e 9d15 0ebf c2d7 0abf
00000030: d55d 383e 52a8 a9be b8c6 c9be b05d 1a3f
00000040: 188d 2ebe 3b1a 8abd b1b7 8abf 6840 24be
00000050: 99eb 573f f358 bfbe fb55 213f ee2c e0be
00000060: 8f43 6ebf afcc 853e f140 553e ba94 aabe
00000070: 659a 07bf 8fc5 0cbf b09c 62bf a537 133f
00000080: 77b8 193f 581e 663e 20d1 32bd 4fba 073e
00000090: 967c 423e 13f6 d6bd 84e3 3d3e e57e 423e
000000a0: 740a 5fbf c936 c2be 2147 f63e 7db9 eebe
000000b0: 4036 f2be 135f 7bbe c876 833d 753c c2be
000000c0: edeb d5be a724 2d3e ed37 f63e 96f6 5b3d
000000d0: 45ea 103e 372f 51bd f41e 2fbe 348a fdbe
000000e0: c825 983d 208b 10bf 0b0b f13b e40d 68be
000000f0: eac2 e5be cf74 c3bd ad3e 7abd 11b4 c43e
-0.5187117 -0.13144329 -0.06343083 0.5798969 -0.14016774 -0.021155968 0.7959983 0.49503565
-0.021666883 0.36551124 -0.5550173 -0.5423547 0.18004544 -0.3313623 -0.39409423 0.60299206
-0.1704601 -0.06743284 -1.0837308 -0.16040194 0.8434387 -0.3737255 0.6302182 -0.4378428
-0.93071836 0.26132724 0.20825554 -0.33316594 -0.5296996 -0.5498895 -0.88520336 0.5750678
0.60047096 0.22472513 -0.04365647 0.13254665 0.18992838 -0.10496154 0.18543822 0.18993719
-0.87125325 -0.37932423 0.48101142 -0.4662589 -0.47307014 -0.24547987 0.0641914 -0.3793675
-0.4178156 0.16908513 0.48089543 0.05370196 0.14151867 -0.05107042 -0.17101651 -0.49519503
0.07429081 -0.5646229 0.0073560528 -0.22661549 -0.4487527 -0.09543764 -0.06109493 0.3841863

features.actor.2.weight f4 [64, 64]
00000000: 0655 9b3e 6f08 e73e 0748 2e3e e0c7 e8bb
00000010: 2dcc b03e 6184 e0be 735a 293f 06d8 a7be
00000020: a88f 533e f0a8 9cbe 0c9e b73e b372 753d
00000030: 0bac 95bd 9ee7 9bbe 483c 0abd 9d0f 97be
00000040: 65f8 cb3b d9d7 823e 9524 d43d 2c9b c6bd
00000050: 5823 cf3e 6432 9fbe a871 1a3e fc3b 2d3e
00000060: 14c3 483f 878d 2d3e f46d 79bd b944 30bf
00000070: 94d4 943e f9d4 ca3e 2a3a 843e dd2b 16be
00000080: 4c05 32be 3570 99be a7aa 63be 7996 ebbd
00000090: 53b2 95be 659d 243d 2a33 993e 13a7 e13e
000000a0: 97f7 713e 97cf 363f 71da 9e3e 89aa 0a3e
000000b0: a5cf aa3e e599 14be 7bcd 8a3e f347 f6be
000000c0: c268 81be db24 fcbd a771 d8be 7580 9c3e
000000d0: c8fe c8be f3bb d73d 5e87 913d d006 21be
000000e0: 24a9 bf3e 20a4 e33e 8fe4 c73e 2046 9d3d
000000f0: 0cfb 8dbe 662b a43a c2a5 2f3d aff4 483e
00000100: 8661 c3be 032e adbe 820d b8be 9bef 4d3c
00000110: 77b9 2c3d 4769 733e 8d1e b13e 7b50 113e
00000120: c90f 5cba 2507 823e 66aa 8e3e b43f f23e
00000130: e943 66bd 657d 4c3d e8fb 80bf d510 77be
00000140: 1a6a 18be 6ce1 0ebd 5b8b 5dbd 4731 f1be
00000150: bd56 c6bd b3d0 85be 6378 31be c4bc 293e
00000160: 46c5 06bf 4e4d 603e c708 dfbe e36b 9bbd
00000170: 0fe4 20bd a64f 14bf e857 86be b1b5 1d3e
00000180: f3c0 ee3e 45c5 e63e cd85 d13e 2e0c a03e
00000190: 816a 663e b6d3 3b3b 0300 3a3e 7047 d7bd
000001a0: 4001 753b 85b6 f7bc 5c7a 003e 9aa6 cdbe
000001b0: 3693 33bf 6ccf eebe 1144 ae3d 865b 55bd
000001c0: cdf2 d8bd 07b3 abbe 5389 88bd 4fe5 593c
000001d0: ea5b 2fbe e38d 59be 31a9 a5be 3ccc a9bd
000001e0: 75d3 83be 5cfc 1e3e 0b19 673e aada 82bd
000001f0: 8061 8fbd 9dac 90be 3340 1cbe e85c 67be
00000200: 73d7 45bf bf6e 0cbf 5fff ed3b 40df 13bd
00000210: ca07 4b3e 0e6f c2bd 3698 9cbe 1905 eabd
00000220: fd7c 9a3e 2f6c 09be 96e1 103e 0330 96ba
00000230: 7f13 aa3c 23ed 75be e172 8ebd 975c 653e
00000240: a3c1 bf3e 8734 2e3d 7523 3ebe 4c64 803e
00000250: 839f f0bd ad63 10bc 2c56 663c 280d 1d3f
00000260: 9d3c 653d 1659 7bbe 3077 353e ae3b 40be
00000270: 2b3e 40bf 823c 07bf 5d2b 7d3e b040 d83b
00000280: 32ac eabe 752e 1cbf 0663 853e cee4 0abf
00000290: 1176 72be 8db3 063e c23c 91be 080b 413f
000002a0: e958 20bd 9cde 69be 63f7 193e fe62 05bd
000002b0: f2ad 393a 591b c03d bbec 4cbe 7081 393e
000002c0: 64ed acbd f9ae b83c 0301 a73d 1085 933d
000002d0: 56d1 85be 2699 003f b2ca 963d e325 953c
000002e0: 6104 4ebe 84b9 65bd 0956 f83e 5fc8 1c3e
000002f0: 7d75 a73e f444 a8bd c092 9b3e d9af 2fbf
00000300: 88c2 bbbe c4ca e4bc 305a 233f da44 92ba
00000310: 2a20 29be 7aa7 df3d 687a e3be c28e 95be
00000320: 5ac7 873e c6e1 9cbe b9c3 57be f8ec 0b3e
00000330: 26b8 8d3d 96aa 383e 6ae0 d73e a057 f1be
00000340: d7e6 70be e12e 35bd f8cf 523e b184 f23e
00000350: d809 2a3d 7926 8abe ccc3 513e 7702 96be
00000360: b21f 953e 8591 c7bc 15d4 c1bb d2b2 e9bd
00000370: 27df d3be d5ad 953e 4c4c 733e 06f8 01bd
00000380: 69a9 813d 188c 0ebe f7f9 21be 89e9 f2bd
00000390: 72be 923e 88df b4be 31d1 81be 0166 bfbd
000003a0: e874 fbbd cc0a c0be b4e7 c4be 54f5 5f3e
000003b0: 3fee 4b3d 0733 b83c 2b05 b0be 4a69 eebd
000003c0: 4e14 e73e 0218 92bd e0a9 c7bd 4a7d 133e
000003d0: 8d10 1abe b26e cdbc 8c45 cf3e b1cc ed3b
000003e0: 6d44 2a3f 915e 813e 8b64 6a3e dbeb 223e
000003f0: 3c4a 123f eb72 cc3e 9c95 98bc 636c 53bd
0.30338305 0.45123622 0.17019664 -0.007103905 0.34530774 -0.43850997 0.6615364 -0.32782
0.2066027 -0.3059764 0.35862768 0.05992384 -0.07308205 -0.30450147 -0.033748895 -0.295041
0.0062246793 0.25555304 0.1035854 -0.096975654 0.40456653 -0.31093132 0.15082419 0.16917413
0.78422666 0.1694852 -0.060895875 -0.6885486 0.29068434 0.3961561 0.25825626 -0.1466517
-0.17384833 -0.2996842 -0.22233067 -0.1150331 -0.29237613 0.040189166 0.29921848 0.4407278
0.23629604 0.71410507 0.31026033 0.13541616 0.33361545 -0.14511831 0.27109894 -0.48101768
-0.25275236 -0.12311717 -0.4227421 0.30566755 -0.39256883 0.10533895 0.07105897 -0.15725255
0.37433732 0.44461155 0.39041564 0.07679391 -0.27730596 0.0012525141 0.04288269 0.1962459
-0.38160342 -0.33824167 -0.35947806 0.012569333 0.04216906 0.23770629 0.3459362 0.14190857
-0.0008394686 0.25396076 0.2786438 0.47314227 -0.056217108 0.049924273 -1.0076876 -0.24127515
-0.14884225 -0.034882948 -0.054087978 -0.47107908 -0.09684513 -0.26135787 -0.1733108 0.16575915
-0.52644765 0.2190449 -0.43561384 -0.07588937 -0.039279994 -0.57934034 -0.26238942 0.15401341
0.46631584 0.4507238 0.40922394 0.31259292 0.22501566 0.0028660125 0.18164067 -0.105116725
0.0037384778 -0.0302384 0.12546676 -0.4016617 -0.701465 -0.46642625 0.085090764 -0.052089237
-0.105931856 -0.33535025 -0.066668175 0.0132993 -0.17124906 -0.21245532 -0.32355645 -0.08290908
-0.25747266 0.15525955 0.22568147 -0.06389363 -0.070010185 -0.28256693 -0.15258865 -0.22594035
-0.77281874 -0.54856485 0.0072631086 -0.03610158 0.1982719 -0.09493838 -0.30584878 -0.114267536
0.30173483 -0.13420175 0.14148554 -0.00114584 0.02076125 -0.24016242 -0.06955505 0.22398601
0.3745242 0.042530563 -0.18568213 0.2507652 -0.117491744 -0.008812827 0.014058631 0.613482
0.05596601 -0.24545702 0.17721248 -0.18772766 -0.7509486 -0.528267 0.24723573 0.006599508
-0.458345 -0.6100839 0.2605211 -0.5425538 -0.23677851 0.1315443 -0.28366667 0.7540746
-0.03914729 -0.22838825 0.15035777 -0.03256511 0.000708311 0.09380216 -0.2001218 0.18115783
-0.08443716 0.022544371 0.0815449 0.07203114 -0.26136273 0.50233686 0.0736288 0.018206542
-0.20118858 -0.056085125 0.4850314 0.1531081 0.32706824 -0.08216277 0.303854 -0.686277
-0.36671853 -0.027928717 0.6380949 -0.0011159435 -0.16516176 0.109206155 -0.44429326 -0.29210478
0.2651928 -0.30641 -0.21070756 0.13664615 0.06919889 0.18033823 0.42163402 -0.47137165
-0.23525558 -0.04423416 0.20587146 0.4736686 0.041513294 -0.26982477 0.20484847 -0.29298756
0.29125744 -0.024361381 -0.0059151747 -0.114110604 -0.4138119 0.29234186 0.23759574 -0.031730674
0.063311405 -0.13920629 -0.1581801 -0.118609495 0.28660923 -0.3532679 -0.25354913 -0.093456276
-0.122781575 -0.37508237 -0.38458025 0.21870929 0.049787756 0.02248527 -0.34378943 -0.11641176
0.4513268 -0.071334854 -0.09749198 0.14403263 -0.15045376 -0.025077198 0.40482748 0.007257067
0.6651066 0.2526746 0.22889917 0.15910284 0.5714452 0.39931425 -0.018626027 -0.051617038

features.actor.2.bias f4 [64]
00000000: d54b 0dbe 4bd7 fe3d 69a3 a03e 5d76 a03e
00000010: 4f2e 903c b183 9abd 7ba9 59be aca4 09bf
00000020: 4d5f 08bd 083b 9b3e 60b5 293e 2f7a bc3f
00000030: c5f4 2a3e bda2 f83d 04fe 2d40 9c42 463e
00000040: 0a2a afbf a6ca 96bd a535 313f 1714 3f3e
00000050: e4f5 973b f890 b83e 9665 5b3d 1c49 df3e
00000060: d441 92be 4006 a9bf 4c76 f63f 0be6 fcbf
00000070: 5185 dcbe cf97 18be 09eb f9be 6cc9 e93e
00000080: 4d2d f43d ca40 34bf 0e89 d2be 6452 95be
00000090: 53c9 483f 5551 7ebf a18e 3ebf a5b9 c53f
000000a0: dcd3 793e e828 9c3e 3f98 fabe a6c4 0dbf
000000b0: 5739 29bf 5179 903d 817d 9c3f cc9c 1c3f
000000c0: d269 98be 4dee 7a3f c6b4 a1be 2540 df3e
000000d0: 37a2 f8bd bb34 213e a0e7 86bd 6584 bd3c
000000e0: c071 1e3f 3e99 b13d cd47 1fbf 31de d7be
000000f0: 76fa 0d40 7410 7fbd 84b9 093f 238f 57be
-0.13798459 0.124434076 0.31374672 0.31340304 0.017600207 -0.075446494 -0.21256058 -0.53766894
-0.03329401 0.30318475 0.16573095 1.4724787 0.16694935 0.12140415 2.718629 0.19361347
-1.3684704 -0.07362871 0.6922248 0.18660007 0.0046374667 0.36048102 0.053563677 0.43610466
-0.28565848 -1.3205032 1.9254851 -1.9757704 -0.43070462 -0.1490166 -0.4881213 0.45661485
0.11922703 -0.7041136 -0.4112019 -0.29164422 0.78432196 -0.9934285 -0.74436384 1.5447279
0.24397224 0.3049996 -0.4894428 -0.55378187 -0.6610312 0.07054389 1.2225801 0.61176753
-0.29768234 0.9801987 -0.31583232 0.43603626 -0.12140315 0.15742771 -0.06587148 0.02313442
0.6189232 0.08671807 -0.62218934 -0.42161706 2.218412 -0.06227155 0.537987 -0.21050696

critic.0.weight f4 [1, 64]
00000000: eeef 9e3c 44af afbd 565b a03d a945 f63d
00000010: c43a ec3d 6e14 9fbb 2fe1 17bd 4dae c43a
00000020: 4650 ebbd b8e8 da3d cbc3 94bb 33fe b03e
00000030: 5ac2 dd3b 29b1 b03d 4ee8 cf3e b507 bb3d
00000040: f197 d7bd 87c7 a33d 4347 8a3d 6982 593d
00000050: 8067 b7bd d102 823c 32ae 69bd 1d75 2e3c
00000060: 5bfb 1abd d12b 28be 28f5 693e 0320 81be
00000070: c394 edbd 2c69 32bd eb6d 9abc 2c90 fb3d
00000080: 05a7 4e3d 8861 5f3d d15a 9cbd 774e 91bd
00000090: 657b 2e3e ba68 21be c03c 73be 91ba 0b3f
000000a0: da16 d53d 72a2 053c da0c 963a 367a 18be
000000b0: 05a2 b83d 76d5 b93d e051 a03e 82de ebbc
000000c0: 4f71 9abc 92ef d53d 0f2b 34be 88d3 0d3d
000000d0: 1b31 10be b6ad dcbc c4e6 ffbc b164 86bd
000000e0: a1ed 2cbd 91e6 22bd 2b95 2cbd 108c 8dbd
000000f0: ae75 d83e 76f8 883e 2db2 893d 7f19 81be
0.019401517 -0.08578351 0.07829921 0.12025005 0.11534646 -0.0048547303 -0.037079986 0.0015005559
-0.1148992 0.10688919 -0.004539942 0.3456894 0.0067675533 0.086275406 0.40606922 0.091323294
-0.105270274 0.07997041 0.06751873 0.053102884 -0.08955288 0.015870484 -0.05705089 0.010648039
-0.037837368 -0.16422965 0.22847426 -0.25219736 -0.1160064 -0.04355733 -0.018851241 0.12283358
0.05045225 0.054536372 -0.07634509 -0.07095044 0.17039259 -0.15762606 -0.23753643 0.5458155
0.10404749 0.008156406 0.0011447922 -0.1489037 0.09015278 0.090739176 0.31312466 -0.028792623
-0.018852858 0.10446085 -0.1759455 0.03462556 -0.14081232 -0.0269383 -0.031237967 -0.06562174
-0.042218808 -0.039770667 -0.042134445 -0.069114804 0.42277282 0.2675206 0.067234375 -0.25214764

critic.1.weight f4 [1, 64]
00000000: 8f87 0cbd 5a14 073b d810 62bd 633f fdbb
00000010: a78a 19bc 3ceb a4bc 6f74 9ebb 590d 52bd
00000020: 8934 103d 6457 503d 71a0 4e3c b47a 2f3e
00000030: 7fbd cabc 175d 943c e0a2 243f 1000 f83b
00000040: 736f 1ebf 3308 9fbc 3bea 063d cc8b 0cbc
00000050: e1cc 073d 592c 2a3c d376 973c a9fa 883d
00000060: 79fd 5c3d d7c8 a6bb dcc2 0e3f befc 03bf
00000070: d0e5 8e3d 18f7 853c 1b76 cbbb 29bb 773c
00000080: 8aed 39b9 2fd1 86bd 33e3 1cbd cc17 c6bc
00000090: d691 fe3c 780c a6bc 5133 84bd 659d ae3c
000000a0: 49c5 11bd 76a6 333d 9049 42bd 74c5 d2bc
000000b0: b423 94bd 9b4c 2abc 1717 3ebd d4f1 79bc
000000c0: a8ce b23c 1976 053e 597a 0ebc 1469 08bd
000000d0: d36a 4f3c 3f7a a63c 6322 593d a2d3 9e3c
000000e0: b6fe 1fbc 49d6 143d eade 02bc 9889 0cbc
000000f0: 593a fb3e 6a7a 8abb 5a26 843c a6c2 acbc
-0.034308966 0.0020611496 -0.055191845 -0.0077285036 -0.009371436 -0.0201317 -0.0048356573 -0.05128226
0.03520635 0.050864592 0.012611494 0.17136651 -0.024748562 0.018110795 0.6431103 0.007568367
-0.6188881 -0.01941309 0.032938223 -0.008578252 0.033154372 0.01038655 0.018489277 0.06688435
0.053952668 -0.00508986 0.5576608 -0.5155753 0.06977427 0.016353175 -0.0062091476 0.015120306
-0.00017731465 -0.06582867 -0.03830261 -0.02418127 0.0310754 -0.020269617 -0.064551 0.021315286
-0.035588536 0.04385992 -0.047433436 -0.025728919 -0.07233372 -0.010394241 -0.04640874 -0.01525541
0.021827057 0.13033332 -0.008696162 -0.033303335 0.012659746 0.020321963 0.05301131 0.019388024
-0.009765318 0.03633717 -0.007987717 -0.008577727 0.49067953 -0.0042260187 0.016131569 -0.02108891

critic.2.weight f4 [1, 64]
00000000: 50a6 853e 9446 efbd 741a c2bc baee 103e
00000010: 671a 06be 631b 093e c33e 03bd e7e8 0c3e
00000020: 3cfe 3e3b 7f24 b23c 63e8 463e 90f3 e3ba
00000030: 3834 853e f4bc ccbd 9369 f9bc a29e 30be
00000040: dc9b 6b3e 93b3 a13d 9ea8 d9bc 3435 38bd
00000050: 8383 57be 39ee 91be dcc9 eb3d 9c0a 923d
00000060: b3c1 223e 2cfc 02be 2cc9 c1bc 475e 93bc
00000070: 5d3e 3e3d dbec ddbd c6c2 b23d a2f9 023c
00000080: 9136 643e 514e 003e 547a 99bd 6c32 30bd
00000090: ca02 223b 08d1 76be f1cb 563d 52fd 9fbd
000000a0: 80ca 29bc 8373 b93d e267 1a3d 20ab edbd
000000b0: 6e7e 8d3d e67e 973d a67a 34bd b9d1 56bd
000000c0: 4d8c c6bd 9d7c 1a3d e24f 4a3e 007e 31be
000000d0: b969 5cbe d0aa 9ebd c295 203e 76ef b73d
000000e0: 0a64 10be 8baa ccbd a416 d63b e6cf 233c
000000f0: 989a 183d 076b 033e 0700 7d3d 1325 363e
0.2610345 -0.116833836 -0.023694254 0.14153567 -0.13096009 0.13389353 -0.032042276 0.1376072
0.0029143235 0.021745918 0.19424586 -0.0017391313 0.26016402 -0.099969774 -0.03044585 -0.17248014
0.23008674 0.07895579 -0.02656966 -0.044972613 -0.21046261 -0.28502062 0.11513111 0.0713093
0.15894203 -0.12791508 -0.023655497 -0.01798929 0.046446193 -0.10836192 0.08728556 0.007994087
0.2228644 0.12529875 -0.07494035 -0.043016836 0.00247209 -0.24103177 0.052440587 -0.07811989
-0.010363221 0.09055235 0.037696727 -0.11604905 0.0690888 0.07397251 -0.04406228 -0.0524461
-0.09694729 0.037716497 0.19757035 -0.17333221 -0.21524705 -0.07747424 0.15682128 0.089812204
-0.14100662 -0.09993466 0.0065334607 0.009998297 0.037256807 0.12833796 0.061767604 0.1778758

critic.3.weight f4 [1, 64]
00000000: 8063 63bd 00df 3c3d 60e7 cd3d 31f6 9bb9
00000010: d574 4d3d ec40 5abe 4907 023e c59c 643b
00000020: f407 643e 6a33 7c3d 916b 3f3d 9a46 f5bd
00000030: 6365 8cbe 8267 b6bc 4c03 9bbd c248 15be
00000040: 6f9d 50bd 2901 0abe 11ab 98bd ef20 f13c
00000050: 9fb6 e0bc bea5 2bbd 90c6 2bbd 8a57 5ebd
00000060: 19db 663e a509 57bd 0cc0 25be 5bc2 50be
00000070: 4e20 06be c595 6fbe 90ad 4c3e 9b59 32bd
00000080: 0cb9 e43b 9609 9bbc 9c40 063d e555 693d
00000090: fa96 25bd 842e 203e 08dd 06be 3f81 bebd
000000a0: a0f8 33be ce12 dc3d 1b1b e23c 522a 313e
000000b0: ed28 c0bd 5535 9ebd 5c79 623e e872 9cbd
000000c0: c215 9bbd ee4a dd3a af32 953d 1965 d6bd
000000d0: 3243 d53d fccc 023e 9743 973e 0cc0 253e
000000e0: 4348 4bbd 6ca6 7dbb 3ca5 413e bd7f a43d
000000f0: 36e7 603e fafc 9e3d 9ad2 f33d 01b4 6abd
-0.055514812 0.046111107 0.10053897 -0.0002974733 0.050160248 -0.21313828 0.12698092 0.003488348
0.22268659 0.06157247 0.046733443 -0.11976357 -0.27421102 -0.022266153 -0.07568988 -0.14578536
-0.05093139 -0.13477005 -0.07454503 0.02943465 -0.02743083 -0.04190611 -0.04193741 -0.054282703
0.22544517 -0.052499432 -0.16186541 -0.2038664 -0.13098261 -0.23396976 0.19988084 -0.043542486
0.006980067 -0.01892547 0.03277646 0.05696668 -0.040427186 0.15642744 -0.13170254 -0.093019955
-0.17575312 0.10745774 0.027600816 0.173013 -0.09382806 -0.07725016 0.22116607 -0.07639104
-0.07572509 0.0016883293 0.07285058 -0.104685016 0.10413207 0.12773508 0.29543754 0.16186541
-0.04962946 -0.0038703931 0.18910688 0.08032177 0.219632 0.07763095 0.119054034 -0.05730057

critic.4.weight f4 [1, 64]
00000000: 38ec 023e cd40 c6bd 03c6 b5bd 44f5 df3d
00000010: 0b70 21be 33a1 6cbd 28c4 86be 5ec8 d83d
00000020: d01e 633d 4ba4 5cbd b2b3 333e 12da 10be
00000030: 9c71 e73c 2379 973e f9a0 23bd cd49 46bd
00000040: 53f1 02bd af58 0abe 0363 5bbd 7cc9 393e
00000050: 129b 8e3c c5e8 483e 6087 133d d58d c7bd
00000060: 1074 febd 488d 923e 9603 9ebd 6088 b23d
00000070: fee4 52be f416 d83d f9ef 213e b37d 75be
00000080: 9fc7 eabc a685 813c 876e 143d dbde fd3c
00000090: f283 c4bd b572 403c 5a1c 30bc f47a 233d
000000a0: b8cd 83bd 156e 51bd 025f 443d e571 f43d
000000b0: 1542 0abd d47e 0f3d 9f40 32be 45d3 3c3e
000000c0: 61b0 11bd 003b 033e 0d9e 04be 6b61 ce3d
000000d0: 7f88 853d cc93 52bd 7a44 703e c22e 93bd
000000e0: f69c 443e 5e1c afbd afa4 853c 6cd3 293e
000000f0: 6c6c bd3d 547b 16bc 3898 c6bd 604c 4a3e
0.12785423 -0.096803285 -0.08875658 0.109354526 -0.15765397 -0.05777092 -0.2632153 0.10585092
0.055449307 -0.05386762 0.17549017 -0.14145687 0.028252415 0.29584607 -0.039948437 -0.048410226
-0.031968426 -0.13510393 -0.05356122 0.18143266 0.017407928 0.19620045 0.036017776 -0.09743849
-0.12424481 0.28623414 -0.07715528 0.08717418 -0.20595166 0.10551253 0.15814199 -0.23973732
-0.02865964 0.015810799 0.03623822 0.030990055 -0.09595479 0.011746098 -0.010748947 0.03991218
-0.06435722 -0.051130373 0.04794217 0.11935786 -0.033754427 0.035033062 -0.17407463 0.18439968
-0.0355686 0.12815475 -0.12950917 0.10077175 0.06520175 -0.05141048 0.23463622 -0.07186653
0.19200501 -0.085503325 0.016313879 0.16584557 0.092491955 -0.009184677 -0.09697002 0.19755697

critic.5.weight f4 [1, 64]
00000000: 604d 9b3d 022f 203a 8880 8fbe c029 343d
00000010: e8db b8bc 371a 14bc 17a9 393d f80f ea3c
00000020: 41d7 803c c7e4 103e 39ef 1cbe 2bfe a7bc
00000030: 9a25 2b3d 405b bb3d 6c05 d23d e29a 25bc
00000040: f027 ef3c 888c ebbd 5d82 9c3c 943d e7bd
00000050: 825f 54be 41d9 dd3d 5ce8 853e 7900 1abd
00000060: 6a2e a3bd 9e40 31be c38e fbbc d170 9c3c
00000070: 0c9b 29be 4255 44be cfbf b33c 6fd7 05bd
00000080: 9c20 b83d 13b3 e13c bab6 913e 29db 663e
00000090: a268 a4be 9f0c 87be c220 43be 583a f43d
000000a0: e662 48bd 0d3a e93c e4a6 9bbb 06a7 7cbd
000000b0: c95c 5dbd a767 88bd 1051 47be 2fe0 183e
000000c0: babf 93bc 049b 023e c416 47bc 4fb9 cbbd
000000d0: 8b7d 8dbd 12b3 ec3b 832b cebd 39b2 12be
000000e0: 04a0 be3d 4c15 2ebe 2cfa 743d d179 f43d
000000f0: 2ac4 513b 7d48 d13d 36c1 0ebe ca3a 88bd
0.075831175 0.00061105203 -0.2802775 0.04398513 -0.022565797 -0.009039453 0.045327272 0.028572068
0.015727641 0.14149772 -0.15325631 -0.020506939 0.041783907 0.09148264 0.102549404 -0.010107728
0.029193848 -0.115014136 0.01910513 -0.11291042 -0.20739558 0.108324535 0.2615384 -0.037598107
-0.07967837 -0.17309806 -0.030707723 0.019096764 -0.16563052 -0.19173148 0.021942047 -0.032676157
0.08990595 0.02755121 0.28459722 0.2254454 -0.32111079 -0.26376817 -0.19055465 0.11925191
-0.048922442 0.028470064 -0.0047501195 -0.061682723 -0.054043565 -0.06660395 -0.19464517 0.14929269
-0.018035758 0.12754446 -0.012151424 -0.09947454 -0.06908711 0.0072234953 -0.10066893 -0.14325799
0.09307864 -0.17000312 0.059808895 0.11937297 0.0032007792 0.10218904 -0.13940892 -0.06651838

dist.0.linear.weight f4 [7, 64]
00000000: 8529 393e dc9a 19be aced 5e3e ec48 80bc
00000010: 2d87 6ebe 3c98 113e 140a 7b3e abe4 b03e
00000020: c49f 63be 6c94 c43e 5e0f 9fbd 3ca4 d3bd
00000030: 04ac 1b3e eb7c dd3d dc80 36bd cfd0 67be
00000040: d4eb e3bd 2d8c 413d aa48 a2be fa40 1e3e
00000050: f6ea 553e ee71 433c c210 813e 305c 3a3e
00000060: 0073 a73e 0854 e4bd d187 b0be ec44 bc3d
00000070: 34e3 d3bc 8823 b7bd 2631 b23e a79d 7fbe
00000080: d107 303e d5ee a53e 38a8 52bb 0e3f 60be
00000090: ba2c f83d a678 8ebd 3eb4 52be 8b65 7cbd
000000a0: fe75 623e 728a 2b3e 1139 b63d 17f7 32be
000000b0: 1193 ad3c 5a8a fdbc 116a 6d3d a925 2fbe
000000c0: 7a91 993e ec49 65be 24db a93e dfa7 3b3e
000000d0: bc15 633e 6f7c ce3d 1ffb 88bd 0d9e e9bd
000000e0: eea9 57be 0917 8d3e 2483 5b3e fedd 89be
000000f0: 5101 bd3d fd8c 5a3e 6d1e 283b 8e16 d3bd
00000100: 8d64 fa3d 1fb2 4e3d 0e81 953e ba3d 33be
00000110: 4ae2 8b3c 2888 c63c 2d88 d8bd 28ab 8fbe
00000120: dd6f 1cbe 002f a6be 3139 06bd 3194 633e
00000130: 7b48 903d c7ab b43e ec0d b33d 351d a83e
00000140: 3eeb 11be ddbc 773e 7e2b 1a3e 82d5 02be
00000150: 9a76 bfbd b08b bbbd 25af 6abe 953d f33c
00000160: 0734 79be 7b53 1dbe 107d 783d 7492 66be
00000170: 786c cdbc 708b 7fbe 83e4 38be f7f2 cd3e
00000180: d38b 17bd 31ca 44be 0bcf ae3e 8a80 92be
00000190: e88e 66be 2344 983a d0f0 d13e 36ca d73d
000001a0: bb29 a1bd 8574 9dbe 047a 123d 47fc dc3c
000001b0: 5606 013e 9df9 303e 4ee2 84bd 9e8b d2be
000001c0: fe29 bebe 7ad8 f23c 8064 30be 6929 acbe
000001d0: 4d46 05be 78db 88bd 071d f93d df45 c8bc
000001e0: da02 e3bc a6b8 94bc 180c 78bd 4ad3 e63e
000001f0: 1c80 0fbd 8515 bd3d ace8 513e e5e1 4e3e
00000200: 95c5 68be 136b 0d3e 9bd8 fabd a3a2 273e
00000210: e048 103e 7816 1cbd 4e3c 26be e8c0 67be
00000220: b937 403e c230 133d ae43 0c3e c4bf fd3e
00000230: 9cf1 16be 33da 53be 2a89 0e3f 24ef 23bd
00000240: b3dd 703c 2302 47be 27cd 423e 73e5 08be
00000250: 4025 88be 1fca 7c3e 4bfd 4e3c c7c3 483e
00000260: 09ed 29be 7d8c 8abe 8260 263f 33fa e9be
00000270: ec84 0ebf 0d83 723d b84a 80be 68f5 e93a
00000280: 6b5f 32bd 3b9b 8bbe 11de 96be 88eb 8c3e
00000290: fbbd e13e aa2c 06bf 7775 0abf 347f 073f
000002a0: 3e40 c5bd cc6c b33a baef 0abe 4d0a 78bd
000002b0: 50fc 56be a7e4 fbbc e3bc 093f 91dc b33e
000002c0: 33d9 063e 4cbb b43e 7ec5 02bf 562b ba3e
000002d0: da72 bbbd 1a4e c2be b6c9 7abe 902d c23d
000002e0: a08f 0d3e d73e cebd 28bb 66be f682 b6be
000002f0: caa9 283f 3c79 3abe 1b6d fe3b 32cc d9bd
00000300: 0aab c8bd 4a34 1a3c 3335 07be 0edc b9bc
00000310: 0138 7e3d b84e d03d bf15 04bd cee6 703d
00000320: 707e be3d 4ad8 b4bd 6e4b db3d e256 4f3d
00000330: e227 c43c 1078 8fbe 34c0 8e3d df60 4bbd
00000340: c41c 453c 737f eabd def4 5a3e 77ae fe3c
00000350: e121 1fbe 80f8 e43d 1489 0a3e ba2a 41be
00000360: 26f6 8fbe 30f8 3b3d 6ad3 323e b669 69bd
00000370: 01cf 2dbc a3e4 a53d 7a23 403c ef3e f4bd
00000380: 42c2 023d b59b a23d 2ad4 57bd dbb0 093e
00000390: c38e 2bbd d808 cabd 14cf c6bc 2a72 433d
000003a0: 9a06 44be a883 cf3d cca2 6dbd 0518 84bd
000003b0: 804c 5fbd 5e42 84be 8785 adbc fee3 633e
000003c0: 3878 9ebd aa44 0a3e 9ac6 1fbe cab0 d63c
000003d0: 1e91 0a3e dd43 8abe 883d 093d 9bad fa3c
000003e0: ce97 76bd 0b92 c53d 8b52 bebd 335c 7dbd
000003f0: 3f50 2f3c 418f a33d e450 67be d054 1bbd
0.18082245 -0.1500048 0.21770352 -0.015659772 -0.23293753 0.14218229 0.24515563 0.3454946
-0.22228914 0.38394487 -0.07766603 -0.103340596 0.15202338 0.10814842 -0.044556484 -0.22638248
-0.11128965 0.047252823 -0.31696063 0.15454474 0.20890412 0.011929018 0.25208098 0.18199229
0.32704926 -0.1114884 -0.3447862 0.09192833 -0.025865175 -0.08942324 0.34803122 -0.24962483
0.17190482 0.32408777 -0.0032143723 -0.21899053 0.12117906 -0.069566056 -0.2057657 -0.061620276
0.22115323 0.16752031 0.08897603 -0.1747707 0.02118829 -0.03094976 0.05796248 -0.1710421
0.29993802 -0.2239148 0.33175004 0.18325756 0.2217626 0.100823276 -0.066885225 -0.11407099
-0.21060917 0.27556637 0.21436745 -0.2692718 0.09228767 0.21342845 0.00256529 -0.10307036
0.1222621 0.05046284 0.29200023 -0.17504016 0.017075676 0.024234846 -0.105728485 -0.2806027
-0.15277047 -0.32457733 -0.032769386 0.222245 0.070450746 0.35287306 0.0874289 0.32834783
-0.14249894 0.2419314 0.15055653 -0.1277676 -0.09348793 -0.09157503 -0.22918375 0.02969245
-0.24336253 -0.15363877 0.060666144 -0.22516805 -0.025076136 -0.24955535 -0.1805592 0.4022443
-0.03699858 -0.19217755 0.34142336 -0.28613693 -0.22515452 0.0011616986 0.41004038 0.105366156
-0.078692876 -0.3075296 0.035760894 0.026975764 0.12600073 0.1728272 -0.06488477 -0.41122144
-0.37141412 0.02964424 -0.17225838 -0.33625343 -0.13015099 -0.06682485 0.1216374 -0.02444738
-0.02771132 -0.018154453 -0.06055841 0.45083076 -0.035034284 0.0923262 0.20498914 0.2020336
-0.22731622 0.13810377 -0.122483455 0.16370635 0.140903 -0.038107365 -0.16233942 -0.22632182
0.18771257 0.03593517 0.13697693 0.49560368 -0.14740604 -0.20688705 0.55678046 -0.040022984
0.014701295 -0.19434409 0.19023572 -0.13368778 -0.2659092 0.24686478 0.012633632 0.19605933
-0.16594328 -0.2706031 0.6499101 -0.456987 -0.5567157 0.05920701 -0.25057006 0.0017849626
-0.04354803 -0.2726687 -0.29466298 0.27523446 0.44090256 -0.524119 -0.5408549 0.5292847
-0.09631394 0.001368904 -0.13568011 -0.0605567 -0.20994687 -0.030748678 0.53803843 0.35129216
0.13168792 0.35299146 -0.510826 0.36361188 -0.091527656 -0.37950212 -0.24491009 0.094813466
0.1382432 -0.100705795 -0.22532332 -0.3564679 0.6588408 -0.1821031 0.007764471 -0.1063465
-0.09798248 0.009411881 -0.13203888 -0.022687938 0.06206513 0.101712644 -0.0322473 0.058813863
0.0930146 -0.08830316 0.107077464 0.050619967 0.023944799 -0.28021288 0.069702536 -0.04965293
0.012030784 -0.1145009 0.21382472 0.03108905 -0.15540268 0.1118021 0.13528854 -0.18863955
-0.28117484 0.045890987 0.1746346 -0.05698558 -0.010608436 0.081002496 0.011727208 -0.11926066
0.03192354 0.07939855 -0.05269257 0.13446371 -0.041884195 -0.09864968 -0.024268664 0.047716297
-0.19143143 0.10132533 -0.058016583 -0.06449894 -0.054516315 -0.25831884 -0.021181835 0.22254941
-0.07737774 0.13502756 -0.15603104 0.026207346 0.1353192 -0.270049 0.033505946 0.03060036
-0.060203366 0.09646996 -0.092930876 -0.061855506 0.0107002845 0.07986308 -0.22589451 -0.03792268

dist.0.linear.bias f4 [7]
00000000: ca42 803c d323 ea3d 671b 183f ab9a 273c
00000010: 9bc3 49bc 508d 4bbd 61ad 8dbd
0.015656848 0.11432614 0.5941681 0.010229747 -0.012314702 -0.049695313 -0.06917835

dist.1.linear.weight f4 [7, 64]
00000000: a9ca 743d 93e6 94be 45c8 953c e029 b03e
00000010: 198c 123e f0c4 ecbe 3cf8 c63e 4417 a1be
00000020: fe62 80bd 805d 583e a899 563e d402 843e
00000030: e8c8 1abe 13f7 fc3d 602a fb3d 633d 703e
00000040: 8a09 f93d 778d 6f3e 5e1d 333e 5b2a 4bbe
00000050: 405b 9bbc 0a89 203e 2153 fdbe fa52 74be
00000060: 9d29 873d e1ff 6f3e 38a4 803e 7233 2ebe
00000070: b53e 493e f437 f1be e978 c5be 6c8b 553d
00000080: 2e44 c13e 3902 91be 8c51 c8be 8683 9b3d
00000090: 63df e1be a136 c0be 5f32 793c c754 02be
000000a0: 5d46 253e 4e8e 023e 070f 923e 6e7a 113f
000000b0: 9e9e 2fbe 1397 023e 9d90 b83b 0048 c8be
000000c0: 49c0 8bbd d31a 4d3e 1335 10be 322b 763d
000000d0: ed67 dbbe 34f5 3f3e 02cd b63c c588 14be
000000e0: f3c8 1cbf caeb 56bf b189 d83e 89e1 8e3d
000000f0: 8d48 583e 156b 94be 8b6a afbd dd6d 1d3f
00000100: 01e9 823e 06b8 e2bc 8c2b ccbe 87bb 92be
00000110: 526b c7bd fce2 b7be dabc 543e 19c3 bdbe
00000120: 29f3 4a3e 5a8b ddbe 81c2 193d 1f40 e73d
00000130: 8987 a53e a3be 0bbf ca9c 173e 2abd 25bf
00000140: 2c04 903d 4cf1 30bd 4b35 89be ca9a 3d3e
00000150: 0405 c83c c5ea 833e e0df a23e 3fb9 f8bd
00000160: 9fea 2c3e c04e 98bd e888 cb3d 98e4 b43c
00000170: 757e 97bd 9d98 f33e ff47 44be 4cff 9c3e
00000180: cdac a1be 1fe1 76be 8220 93bd 9cbe 22be
00000190: e82f b13e 7b99 163d 493f 56be 7abc de3d
000001a0: 784f c93e c9bc 57bd 4909 41be 1b84 be3e
000001b0: 5d24 48be 9433 e9be 9b9b 5e3e 64c1 7b3e
000001c0: ec1e 39bd e82b 0bbe 37d4 013c 53d5 a03e
000001d0: 6739 f93d e968 f8bc 743a fbbd 6463 cdbe
000001e0: cef2 b13e 5784 5d3d a130 dc3e 8f67 6ebe
000001f0: 67f5 d03d 43f1 a1bd 3a2f 89be 218e 04be
00000200: 8823 62be 3176 1d3f dfba c13e 9ca3 e4bb
00000210: eabc 573e 9333 233f bf25 00bf e965 023e
00000220: 8e75 6ebd f0d3 14be 4b38 0fbe f478 733e
00000230: c238 fdbd b6d8 8b3e c8eb fe3d 41eb f43e
00000240: 3f25 a1be 4c51 12be f1be c3bd 28fe 18be
00000250: 4076 09be 4e7a e2bd 0a65 9dbe a9f3 f93e
00000260: ac28 48be 597f aabe 933d 683e c154 8dbe
00000270: 4f77 b4be 1021 b3ba 824a 073e 1da2 763e
00000280: 850d dbbe ec65 df3c 46d4 953e 6060 a4be
00000290: c835 9e3d 73d6 b0be 986a afbd 1f12 3f3e
000002a0: 54aa 88be 0b5c 473d a2f5 8fbe 2acb 8bbe
000002b0: 4b28 ed3d c8ad a63e f01a d73d 4636 083e
000002c0: b649 52be 216f 1d3e a7ad 95be ded8 c7be
000002d0: b042 373e b782 cb3d bc24 38bd 6379 853e
000002e0: 44f5 d73d b5c6 983e 7068 b3be 0371 d33e
000002f0: ca19 fb3d cf49 d2bd 3db7 903e cec8 ad3e
00000300: f1a4 003e 803a 01bf b62e 0d3e 34f6 853e
00000310: 1994 cf3d 6a94 683e 92ae 79be 2df4 863e
00000320: eb8a fcbd c34a 733e 107f 643e 3169 27be
00000330: cbd1 3ebe c744 f73d d3df 183e 63e4 1dbe
00000340: 1402 79bd 5284 41be 5dd0 ae3d 3c00 333e
00000350: 3dd3 dbbd c68b 9cbc e4ab b63e d108 f0be
00000360: 9715 8a3d 3acb 543c 1d00 ef3c 25fa de3c
00000370: 1c50 b13e 2fb6 eabd 7fe9 bf3d 7a89 8ebe
00000380: 237a 443c a57c 6b3e ea25 4ebe 300b b03e
00000390: 94d4 ab3c 6ac1 063f 564b b03d 26bf f4bd
000003a0: 10d4 5fbd 004e 983c c743 efbd b752 03bf
000003b0: 6315 513d 2095 143e 9c3f d93c f75c 203e
000003c0: 0c51 043e 3c7c e43c 0bc3 b23d 6d17 20be
000003d0: 4ebc 1a3e e8b0 f3bd 6189 333e 807d 3c3d
000003e0: c7c8 a93e 3203 853d 2a16 aabe be05 f4bd
000003f0: 0dd0 d0bd 3da0 a43e 2552 ec3d e31f f6be
0.059763584 -0.29082164 0.018283973 0.34406948 0.14311256 -0.46244 0.38861263 -0.31463063
-0.06268881 0.21129417 0.20957053 0.25783408 -0.15115702 0.12351813 0.12263942 0.23460917
0.121600226 0.23393808 0.17491671 -0.19840376 -0.01896441 0.15677276 -0.49477485 -0.23859778
0.06599734 0.23437454 0.2512529 -0.17011812 0.19652827 -0.47113 -0.3856881 0.052134916
0.3774733 -0.28322008 -0.39124715 0.075934455 -0.44115743 -0.3754168 0.015209763 -0.12727652
0.16140123 0.12749597 0.2852709 0.5682744 -0.17150351 0.12752943 0.0056324736 -0.39117432
-0.06823785 0.20029764 -0.14082746 0.060099788 -0.42852727 0.18745881 0.022314552 -0.14505298
-0.61244124 -0.83953536 0.4229255 0.06976611 0.21121426 -0.28987947 -0.08565243 0.61495763
0.25568393 -0.02767564 -0.39876974 -0.28658697 -0.097372666 -0.35915363 0.20775166 -0.3706291
0.1981932 -0.4327038 0.03753901 0.11291527 0.32329968 -0.54587764 0.14805904 -0.64741766
0.07032046 -0.04319887 -0.26798472 0.18516079 0.024416454 0.25765052 0.31811428 -0.12144708
0.16886376 -0.07436895 0.09938222 0.022081658 -0.07397167 0.47577372 -0.1916809 0.30663526
-0.3157715 -0.24109314 -0.07183935 -0.15893024 0.34606862 0.036767464 -0.20922579 0.10875793
0.39318442 -0.052670274 -0.18851198 0.37210163 -0.19545121 -0.45547163 0.21739046 0.24585491
-0.045195505 -0.13590968 0.007924131 0.31412753 0.12169152 -0.030323463 -0.122670084 -0.40114892
0.34755558 0.054081287 0.4300585 -0.23281692 0.10203057 -0.07907345 -0.26793844 -0.12944843
-0.22083867 0.6150847 0.37837884 -0.0069775116 0.21068159 0.6375057 -0.50057596 0.12734188
-0.058217578 -0.14533973 -0.13986318 0.23776609 -0.12364341 0.27313775 0.124473155 0.47835734
-0.3147373 -0.14288825 -0.095579036 -0.14940703 -0.13424015 -0.11058484 -0.3074115 0.4881871
-0.19546765 -0.33300284 0.22679739 -0.27603725 -0.35247275 -0.001366647 0.13212016 0.24085279
-0.42783752 0.02727028 0.29263514 -0.32104778 0.07725102 -0.34538612 -0.08565253 0.18659256
-0.2669245 0.048671763 -0.2811709 -0.2730344 0.11579951 0.3255446 0.10503185 0.13301954
-0.20535931 0.15374424 -0.2923405 -0.39032644 0.17896533 0.09937041 -0.044956908 0.26069173
0.105448276 0.298391 -0.35040617 0.4129716 0.12260778 -0.10267984 0.282648 0.33942264
0.1256292 -0.5047989 0.1378735 0.261644 0.10135669 0.22712865 -0.24383 0.26358166
-0.12331184 0.23758988 0.22314095 -0.16348721 -0.18634717 0.12073665 0.14929132 -0.15419154
-0.060792997 -0.18898132 0.08535836 0.17480558 -0.1073365 -0.019109618 0.35678017 -0.46881726
0.06742399 0.012987906 0.029174859 0.027218888 0.3463143 -0.1146053 0.09370708 -0.2783926
0.01199201 0.22996767 -0.2013165 0.34383535 0.020975389 0.52638876 0.08608119 -0.11950521
-0.054645598 0.01859188 -0.116828494 -0.5129809 0.051045787 0.14510012 0.02651959 0.15660463
0.12921542 0.02789127 0.08728608 -0.15633936 0.15110895 -0.118989766 0.17532875 0.046018124
0.33160993 0.0649475 -0.33220035 -0.11915158 -0.101959325 0.32153502 0.11539105 -0.48071203

dist.1.linear.bias f4 [7]
00000000: c22c 433e a36a 073e 9767 8d3d 8ebd fe3d
00000010: e2c9 9cbd 9510 37be fd11 05bd
0.19060043 0.13224272 0.06904524 0.124384984 -0.076556936 -0.1787742 -0.032487858

dist.2.linear.weight f4 [7, 64]
00000000: e1d4 72ba 3c3a a73a d548 f23a a76b 16ba
00000010: 864a deba 4f73 2dbb 49db 473a ed09 403b
00000020: 0be9 c4b9 6a0c bf39 dd3c 6838 3263 98b9
00000030: 26be 973a e403 96ba 4744 03bb be8c 4d3a
00000040: 8b12 55bb 5dd7 a13a 479d 6e3a 5680 91b9
00000050: 6c33 f539 819a c7ba 8cfa 54ba a2e8 2eba
00000060: 401f e8ba 9406 28b9 bfc0 0dbb 7716 0c3a
00000070: 49a3 d339 06ed d3b9 f337 95ba 73ef 3c3b
00000080: 379a 8e39 4eb3 cb39 551a d139 2ce6 e4b9
00000090: 7810 f7b8 b5ce e53a c9be cbba fb17 abba
000000a0: f853 7cba 4a75 77ba d5c3 90ba 5b97 95ba
000000b0: 37c0 92ba c5a1 b7ba a350 9bba a27d ad37
000000c0: 111a 87ba 1d74 aa3a de8b 1239 be0b bfb9
000000d0: ff78 1739 cb1c ca39 823b 86ba f69a 8eba
000000e0: be31 84b9 f081 8aba 7775 f139 877f 84ba
000000f0: 2791 e239 027b a3b8 82d3 2a3b 270e 7c3a
00000100: 185a edba 46c0 45ba ec43 fd39 9418 26ba
00000110: 59cd afba dbed 57b9 9e53 3dbb dcad 4a3a
00000120: 2581 993a c0f9 18ba 9522 57ba d795 ee39
00000130: 2180 723a 054b de38 38d0 43ba 18f0 46ba
00000140: 02e5 00ba d99e dd3a a2ed 8cb9 2c64 da3a
00000150: 215d 35ba 9e5e b5ba c0c9 253a 9050 5c3a
00000160: 4713 c9b7 3bb1 79ba ae2e b939 1d02 d0ba
00000170: d29c 09ba 854a 9fb9 7791 e2b8 4573 52ba
00000180: c1d1 a0ba 3ca2 3339 1003 8f3a f80d 653a
00000190: d5da 11b9 adcb 49b9 e752 11bb d44e 07bb
000001a0: 7871 153a 6c8e 753a 4af4 443b 6f63 c83a
000001b0: fe16 433a 34ce 433a 5e7c 383a c97e 49ba
000001c0: 6ba0 39bb 9a03 21bb d3b3 0aba ad90 053b
000001d0: a294 f4b9 d821 0ebb 2d91 1339 0f34 943a
000001e0: f897 f13a bb13 9dba b389 baba ede8 b33a
000001f0: aad0 a5ba f4d3 14ba 5cd6 c13a 02a7 86ba
00000200: 6fba bdba fdaf 1a39 bd15 023a 87e0 ffb7
00000210: 23c6 08b9 8e99 acb9 38a8 fd3a 4f57 293b
00000220: cf19 bdba cebd dfb9 77f9 a43a e5c3 d338
00000230: 7e5a f93a d55a b6b9 ef0b 133a eec4 583a
00000240: 7b25 ce3a a743 99ba 205b 873a d732 af3a
00000250: 297d 1b3a fb5e bf3a bea1 a83a c69f e0b9
00000260: 307b 3db9 448f 093b 5590 f939 3da2 513a
00000270: 60ab 44b8 b88d 27bb 3b8d 13bb f450 f43a
00000280: 6a9f ffba b436 933a 6496 3a3a ee72 49b8
00000290: a08c 63b8 0406 83ba 3829 29ba 8fec 593a
000002a0: a182 4cba 85bc 23b9 afe2 4d3a e6cb 07ba
000002b0: 693c 1a3b 94d3 ae3a 710b 053b f21b 6d3a
000002c0: f4aa 0e3a 4f76 fcb9 bbea 2cba 6ba6 913a
000002d0: ee6d f2ba b7ed 763a 7c5e 393b 9400 09ba
000002e0: 618d baba 9910 32ba 06bf 44ba 5ff7 1f3b
000002f0: 622b 863a c03b b7b9 eb3f 49ba 984d 9639
00000300: 0fae 03ba 69d1 aeb9 0611 43bb 0bd4 4a3a
00000310: 2f32 bd39 f035 e03a 6749 f13a 3bb9 073b
00000320: a2ae ad3a e5d0 d23a ce2e deba 6464 9a39
00000330: c4c5 c43a 81e6 d0ba d792 50ba 06f2 ca3a
00000340: bd97 f7b9 a075 69ba 0149 7039 a289 343a
00000350: 4df8 173a 3428 863a 9cb0 abb9 f786 fcb8
00000360: 8e6c 3bb9 587d cd37 2148 cf3a 4731 7db9
00000370: fc0d a838 ce30 373b 30aa 763a e8d0 82ba
00000380: 4657 733a 8574 10b9 64fe 613a 16e3 1f3b
00000390: 73b7 723a e784 fbb9 5e45 3b3a c2af 2dba
000003a0: 87d0 3cbb 4262 4f3a 2cf0 9aba 713e 89ba
000003b0: 29d8 23ba 34fa 8eb9 27f5 bbb9 5dff 143b
000003c0: 0104 03bb 0991 7fba a62f 363a 5dca d038
000003d0: 8cb8 dd39 2058 223b de53 feb9 384a a13a
000003e0: e284 ecb9 650f e3ba b4e1 73ba 879a 833a
000003f0: 4268 8cba 9dfa c739 8d0a 433a 816c adba
-0.0009263289 0.0012758444 0.001848484 -0.00057380873 -0.0016959466 -0.0026466434 0.00076239236 0.0029302791
-0.00037557664 0.00036439608 5.5369794e-05 -0.00029065605 0.0011577054 -0.0011445251 -0.002002971 0.00078411016
-0.0032512273 0.0012347508 0.00091024156 -0.00027752173 0.00046768354 -0.0015228541 -0.00081244926 -0.0006672238
-0.0017709509 -0.00016024179 -0.0021629778 0.00053439237 0.00040366713 -0.00040421652 -0.0011384472 0.0028829246
0.0002719925 0.0003885277 0.00039883205 -0.0004365904 -0.00011780945 0.0017532917 -0.0015544529 -0.0013053411
-0.00096255494 -0.00094397797 -0.0011044691 -0.0011412905 -0.00111962 -0.0014010003 -0.0011849593 2.068171e-05
-0.0010307451 0.0013004575 0.0001397575 -0.00036439107 0.00014445557 0.00038549895 -0.0010241123 -0.0010879922
-0.00025214063 -0.0010567289 0.0004605462 -0.0010108807 0.00043214226 -7.795358e-05 0.002606601 0.0009615146
-0.0018108515 -0.00075436046 0.00048306526 -0.000633606 -0.0013412639 -0.00020592606 -0.002888895 0.00077315955
0.0011711462 -0.00058355555 -0.0008206752 0.00045506537 0.000925066 0.000105997584 -0.00074696867 -0.00075888773
-0.00049169373 0.0016908302 -0.0002687993 0.0016661934 -0.00069184793 -0.0013837402 0.00063243136 0.0008404339
-2.3970044e-05 -0.00095250056 0.0003532073 -0.001586977 -0.00052495033 -0.00030382365 -0.00010803615 -0.0008028041
-0.0012269543 0.00017131207 0.0010910947 0.0008737738 -0.00013909799 -0.00019244729 -0.0022174658 -0.002064635
0.0005700807 0.0009367231 0.0030052834 0.0015288423 0.0007442086 0.00074693863 0.0007037575 -0.0007686434
-0.0028324376 -0.0024568797 -0.0005291078 0.0020380423 -0.00046650047 -0.0021687653 0.00014073095 0.0011307019
0.0018432131 -0.001198403 -0.0014231711 0.0013726034 -0.0012650688 -0.00056773354 0.0014788616 -0.0010273161
-0.0014475117 0.00014752145 0.00049623457 -3.0502923e-05 -0.00013043782 -0.00032920804 0.0019352501 0.0025839393
-0.0014427247 -0.0004267529 0.0012586553 0.00010097752 0.0019024161 -0.0003478142 0.0005609383 0.0008269091
0.0015727723 -0.0011693136 0.001032684 0.0013366592 0.0005931431 0.001460045 0.0012865586 -0.0004284365
-0.00018070335 0.0020989934 0.00047600517 0.00079968927 -4.6889647e-05 -0.0025566649 -0.00225146 0.0018639849
-0.0019502465 0.0011231513 0.0007117747 -4.802917e-05 -5.4251985e-05 -0.00099963 -0.00064529805 0.0008313143
-0.00078014476 -0.0001561512 0.0007853908 -0.00051802245 0.0023534542 0.0013338202 0.002030101 0.00090449967
0.0005442344 -0.00048153332 -0.0006596257 0.0011112218 -0.0018495896 0.00094195775 0.0028285077 -0.00052262214
-0.0014232808 -0.00067926344 -0.00075052714 0.002440892 0.0010236318 -0.00034948997 -0.0007677066 0.0002866804
-0.000502319 -0.0003334389 -0.0029764785 0.00077372853 0.0003608628 0.0017105918 0.0018408716 0.0020709771
0.0013250897 0.0016083984 -0.0016951205 0.00029447966 0.0015012552 -0.0015937836 -0.0007956451 0.0015483506
-0.00047224565 -0.0008905772 0.0002291538 0.0006886964 0.00057971926 0.001023537 -0.00032747246 -0.000120414355
-0.0001787415 2.4496272e-05 0.0015814343 -0.00024146317 8.013469e-05 0.0027952674 0.0009409515 -0.0009980472
0.0009282719 -0.00013776317 0.0008620976 0.0024396828 0.00092589034 -0.0004797347 0.00071438204 -0.0006625616
-0.0028810815 0.0007911065 -0.0011820844 -0.001047088 -0.0006250167 -0.00027270766 -0.00035850072 0.0022735216
-0.00199914 -0.000974909 0.0006949849 9.955906e-05 0.00042289903 0.0024771765 -0.0004850914 0.0012305444
-0.00045112433 -0.0017323314 -0.0009303347 0.001004056 -0.0010712224 0.0003814296 0.0007440232 -0.0013231189

dist.2.linear.bias f4 [7]
00000000: 0000 0000 0000 0000 0000 0000 0000 0000
00000010: 0000 0000 0000 0000 0000 0000
0.0 0.0 0.0 0.0 0.0 0.0 0.0
