BLIP/RL/trained_models/ppo/2023-01-28_minigrid_5e5_distshift-doorkey-wallgap-lavagap-redbluedoor-emptyrand_fine-tuning_1_task_0.pth (torch, 738769 bytes, 22 tensors)

features.actor.0.weight f4 [64, 2739]
0	0x3e390a3f	0.18070315
1	0xbceeafed	-0.029136622
2	0x3c492c5d	0.012278643
3	0x3decd6f5	0.11564437
4	0xbde97cdf	-0.114007704
5	0x3c9bb5de	0.01900762
6	0x3c93680b	0.017993947
7	0x3d346190	0.044038355
8	0xbbd2ea63	-0.0064366325
9	0x3d45546c	0.048176214
10	0xbb0fb2f6	-0.0021926737
11	0xbd16a20b	-0.03677563
12	0x3e14f83f	0.14547823
13	0xbe071214	-0.1319049
14	0x3d04c2e3	0.03241242
15	0x3e04a344	0.12952906
16	0xbe6a5735	-0.2288483
17	0x3d45a45d	0.048252452
18	0x3dd23884	0.10264686
19	0xbe2a2d27	-0.16618787
20	0x3c753d81	0.014968277
21	0x3d84705e	0.06466745
22	0x3de5ba13	0.112171315
23	0x3d37a800	0.04483795
24	0x3e84e061	0.25952438
25	0xbd6a0901	-0.057137493
26	0x3c03e1dc	0.008049455
27	0xbe34009e	-0.1757836
28	0xbd489e08	-0.048978835
29	0xbd01eec5	-0.03172185
30	0x3df62fff	0.12020873
31	0xbd9a1ed6	-0.07525413
32	0xbd264e32	-0.040601917
33	0x3d34b60f	0.044118937
34	0xbe0dbd92	-0.13841847
35	0xbce430cd	-0.027855301
36	0x3c65ee82	0.0140339155
37	0xbd52c774	-0.051459745
38	0x3d745166	0.05964794
39	0x3e1520e4	0.14563328
40	0xbe2fa72d	-0.17153616
41	0xbc291d42	-0.010321917
42	0x3e277c2f	0.16355966
43	0x3e0d37fd	0.13790889
44	0xbd019fb7	-0.031646457
45	0xbd038250	-0.032106698
46	0xbd6da59b	-0.05801926
47	0x3d802adf	0.06258177
48	0xbda0e5a1	-0.07856298
49	0x3c81959c	0.01581841
50	0xbb2efa6d	-0.0026699558
51	0x3dfa2861	0.12214733
52	0xbd4aeb73	-0.049540948
53	0x3cf03397	0.029321475
54	0xbd8af3d9	-0.067847915
55	0xbe02fa4e	-0.12790796
56	0xbcb9f8eb	-0.022701701
57	0xbd8a2562	-0.067454115
58	0xbcfe9885	-0.031078586
59	0x3c854ffd	0.016273493
60	0xbdd3e919	-0.10347194
61	0xbe415c9d	-0.18882985
62	0x3cc46b79	0.023977028
63	0x3e42b2bf	0.19013499
64	0x3e013415	0.12617524
65	0x3c807f13	0.015685594
66	0xbcd2dbbd	-0.025739545
67	0xbdae2853	-0.08503785
68	0xbbf15db7	-0.007365908
69	0xbe302487	-0.17201434
70	0xbd28c15a	-0.04120002
71	0xbd112a0f	-0.0354405
72	0xbe214487	-0.15748797
73	0xbd6811e7	-0.056657698
74	0xbb8f3623	-0.0043704673
75	0xbc2fcf06	-0.010730511
76	0xbd59bbe2	-0.053157695
77	0x3c597b4d	0.013274026
78	0x3da1533d	0.078772046
79	0x3d962f0b	0.073331915
80	0xbb9abc17	-0.004722129
81	0xbea45a88	-0.3210032
82	0xbc39fdc9	-0.011352011
83	0xbb969333	-0.0045951842
84	0x3def632a	0.11688836
85	0x3db39868	0.087693036
86	0xbd3e7187	-0.046494987
87	0xbd9d3a72	-0.07677163
88	0xbd7853c9	-0.06062678
89	0xbc83d3b8	-0.016092166
90	0xbd115b78	-0.035487622
91	0xbc017939	-0.007902437
92	0x3d1469b1	0.036233608
93	0xbc0cee08	-0.008601673
94	0xbdc3a21b	-0.095524035
95	0xbceb750a	-0.028742332
96	0xbe5f19ce	-0.21787187
97	0x3da8c783	0.08241179
98	0xbc23e90f	-0.010004296
99	0x3c98f5de	0.018671926
100	0x3e81ab8a	0.25326186
101	0x3c90c114	0.017670192
102	0x3e983235	0.29725805
103	0x3ebe7fe4	0.37206948
104	0x3c84ca41	0.016209723
105	0x3cbc18de	0.022961076
106	0x3d53d42e	0.051716022
107	0xbc70c629	-0.014695683
108	0xbd85b3e2	-0.065284505
109	0xbd8f38f0	-0.06993282
110	0xbb181dd1	-0.0023211131
111	0xbded231f	-0.115789644
112	0xbd1e6204	-0.038667694
113	0x3bc18463	0.0059056743
114	0xbdaa3209	-0.08310325
115	0xbd359362	-0.04433001
116	0x3c8d6a0f	0.017262487
117	0x3cc37e83	0.023864036
118	0x3dc235ff	0.09482955
119	0x3d0b92a5	0.034075398
120	0x3e417019	0.18890418
121	0x3dce4b05	0.100729026
122	0x3d2dfb48	0.04247597
123	0x3e1ad4fb	0.15120308
124	0x3e267a1e	0.16257522
125	0xbb6120b7	-0.0034351775
126	0xbc36b858	-0.011152349
127	0xbe0dd2b6	-0.13849911
128	0xbc8ead4d	-0.01741662
129	0xbd83ae8c	-0.064297765
130	0xbda27ae0	-0.07933593
131	0x3a4c8bd5	0.0007802819
132	0xbd8251d9	-0.063632675
133	0xbcc2d19c	-0.02378159
134	0x3d03813d	0.032105673
135	0xbd65576f	-0.055991586
136	0xbd12a734	-0.03580399
137	0xbd2fea67	-0.042948153
138	0xbd8c1dd4	-0.06841627
139	0x3dba240f	0.09088909
140	0xbcf6353c	-0.030054681
141	0x3d82d8c5	0.06389002
142	0x3da4fc37	0.08055919
143	0x3c87500b	0.01651766
144	0x3d93559a	0.071940616
145	0x3e2ecefe	0.17071149
146	0xbd681a3b	-0.05666564
147	0xbc9d8259	-0.019227194
148	0xbc8833e3	-0.016626304
149	0x3c844992	0.016148362
150	0xbcc54b73	-0.024083829
151	0x3cb21767	0.021739675
152	0xbcbdaef5	-0.023154715
153	0xbe6e726f	-0.2328584
154	0xbcdea593	-0.027178561
155	0xbc74329c	-0.014904644
156	0x3d097aa4	0.033564225
157	0xbd0984b0	-0.033573806
158	0xbd364c1a	-0.04450617
159	0xbb7bc223	-0.0038415275
160	0xba25b73f	-0.0006321556
161	0x3b5e292f	0.003389906
162	0xbd346558	-0.04404196
163	0x3c3cc0e6	0.0115206
164	0xbd490066	-0.049072646
165	0x3cb84371	0.022493096
166	0x3c34266f	0.010995491
167	0xbc25c80b	-0.010118495
168	0xbcba7004	-0.022758491
169	0xbcbf9f2e	-0.023391332
170	0xbc3c5167	-0.011494017
171	0xbb288fec	-0.002572055
172	0x3bbc4406	0.0057454137
173	0x3c9dc6d7	0.019259853
174	0xbbe4ffd2	-0.006988504
175	0x3bcb36d1	0.006201603
176	0xbc8d2328	-0.017228678
177	0x3ce6a455	0.028154531
178	0xbe8a3902	-0.26996619
179	0x3c7a0914	0.015260953
180	0x3d142278	0.036165684
181	0xbd254bf8	-0.040355653
182	0x3abae268	0.0014258148
183	0x3c15b64f	0.009137704
184	0x3b486650	0.003057856
185	0xbbe5bad5	-0.0070107975
186	0x3cb21e5a	0.021742988
187	0x3c72fe00	0.014831066
188	0x3d99788e	0.07493697
189	0x3ca22e4e	0.01979747
190	0xb82f20af	-4.175369e-05
191	0xbc955307	-0.018228067
192	0xbc9c9c48	-0.01911749
193	0x3c83a209	0.016068475
194	0x3c780e23	0.015140089
195	0xbd03e73a	-0.032202937
196	0x3d1b4b9c	0.037913904
197	0xbbf62ae0	-0.0075124353
198	0x3c6d2977	0.014475218
199	0x3d0e13cd	0.034686852
200	0xbca7ef6c	-0.020499907
201	0x3d181895	0.03713282
202	0x3c89a61a	0.016802836
203	0x3b4e62ad	0.003149192
204	0x3c991bb9	0.018689977
205	0x3c6ef62f	0.014585062
206	0x3b981c20	0.0046420246
207	0x3c7beffb	0.01537704
208	0x3c19ddef	0.009391292
209	0x3c6cf392	0.014462369
210	0xbc3b68d0	-0.0114385635
211	0x3cc1b143	0.023644095
212	0x3afd07c8	0.0019304687
213	0x3bdb345c	0.0066895913
214	0x3c2df644	0.010617796
215	0xbacabb68	-0.0015467228
216	0x3ccf4367	0.025300695
217	0x3d1e160d	0.038595248
218	0xbc2874eb	-0.010281782
219	0x3c3aea2a	0.011408368
220	0xbe84dd1c	-0.25949943
221	0x3d0d209c	0.034454927
222	0xbd36ce9c	-0.04463063
223	0x3cdd830c	0.027040027
224	0x3ca11c83	0.019666916
225	0xbc8bb2de	-0.017053064
226	0xbc3ebc68	-0.011641599
227	0xbc6241d5	-0.013809641
228	0x3c20458b	0.009782205
229	0x3d19dd99	0.037564848
230	0xbcbddf0b	-0.023177644
231	0xbd58e12e	-0.052949123
232	0x3bf6dfbc	0.0075339954
233	0xbafd7ceb	-0.0019339597
234	0xbbb66a2d	-0.0055668564
235	0x3d8661ab	0.065615974
236	0x3c0ad5ec	0.0084738545
237	0xbd1deda5	-0.038556714
238	0x3bc821e7	0.006107557
239	0xbc499be4	-0.012305234
240	0x3b72b1c4	0.0037032226
241	0x3c38b386	0.0112732705
242	0x3d5a8fc7	0.053359773
243	0x3c4f9470	0.012669668
244	0xbc0bed80	-0.008540511
245	0xbcc9354b	-0.024561545
246	0xbd80b4f3	-0.06284513
247	0xbd291428	-0.041278988
248	0xbd20838a	-0.039187945
249	0x3c91a27a	0.01777767
250	0xbaadfb19	-0.0013273685
251	0xbcd834c4	-0.026392348
252	0xbcf197b5	-0.029491285
253	0xbd1d1a56	-0.038355194
254	0xbeb0d562	-0.34537798
255	0xbcf0d3d5	-0.029397884

features.actor.0.bias f4 [64]
0	0xbeddac68	-0.43295598
1	0xbe1cb9a2	-0.15305188
2	0xbe5cc9b4	-0.21561319
3	0x3e8fc567	0.28080294
4	0xbe09e1fc	-0.13465112
5	0xbe59e4fc	-0.21278757
6	0x3f203c4a	0.62591994
7	0x3ec804ed	0.39066258
8	0x3d49443f	0.04913735
9	0x3df3175c	0.1186969
10	0xbe5386cb	-0.20656888
11	0xbdfd0927	-0.12355261
12	0x3e0b8562	0.136251
13	0xbe5b4dcc	-0.21416396
14	0xbe8057dc	-0.2506703
15	0x3e86d712	0.2633596
16	0xbe1bd675	-0.15218528
17	0xbe175757	-0.14779411
18	0xbede2b24	-0.4339229
19	0xbdbdaf79	-0.092619844
20	0x3ee61256	0.44935864
21	0xbe17d89a	-0.1482872
22	0x3ebf5372	0.3736835
23	0xbefe66b7	-0.4968774
24	0xbee099a6	-0.43867224
25	0x3e389c81	0.18028452
26	0x3df8d31d	0.12149642
27	0xbe6a8d42	-0.22905448
28	0xbeef7396	-0.46767873
29	0xbed39e7d	-0.41331854
30	0xbf4a2b7f	-0.7897262
31	0xbdc46c94	-0.09591022
32	0x3ea1d1df	0.3160543
33	0x3e15cc78	0.1462878
34	0x3db176a7	0.08665209
35	0x3e9ffcb7	0.31247494
36	0xbe6d3195	-0.23163445
37	0x3c3ff8bc	0.011717018
38	0x3e4e8368	0.20167315
39	0x3df9c57f	0.121958725
40	0xbf083581	-0.5320664
41	0xbea0d5d2	-0.31413132
42	0x3f06d0b8	0.5266223
43	0x3d4d892b	0.05017964
44	0xbdd2d392	-0.1029426
45	0xbe56c16b	-0.2097222
46	0xbdc5eeca	-0.09664686
47	0xbe67bd88	-0.22630894
48	0xbe672a1c	-0.22574657
49	0x3e882db9	0.26597384
50	0xbc5b3336	-0.013378909
51	0x3e29e9c4	0.16593081
52	0x3dc38216	0.09546296
53	0xbd488d9e	-0.04896318
54	0xbde92a3c	-0.11385009
55	0xbe9a20d6	-0.30103177
56	0x3e80b61f	0.25138947
57	0xbe67d76a	-0.22640768
58	0x3cb2d833	0.021831607
59	0xbe9b2cbd	-0.3030757
60	0x3db6c125	0.08923558
61	0xbebafe97	-0.36522362
62	0xbdfff5e7	-0.12498074
63	0x3ec41068	0.38293767

features.actor.2.weight f4 [64, 64]
0	0x3dca815d	0.09887955
1	0x3dccede1	0.10006309
2	0xbd331917	-0.0437251
3	0xbe51905f	-0.2046523
4	0x3e508387	0.20362674
5	0xbe4dc1fe	-0.20093533
6	0x3f0430e9	0.5163713
7	0xbecb4594	-0.3970152
8	0x3ed6c788	0.41949105
9	0xbe083a7d	-0.13303562
10	0x3d967bd5	0.07347838
11	0xbdab247e	-0.0835657
12	0xbe0c07c6	-0.1367484
13	0xbebe0321	-0.37111762
14	0xbd2b5fc3	-0.041839372
15	0xbe3dd958	-0.18539941
16	0xbd85fdeb	-0.06542572
17	0x3eb03d2a	0.34421664
18	0x3d9515f5	0.072795786
19	0xbde94973	-0.113909625
20	0x3edaf7e4	0.4276725
21	0xbe0edc46	-0.13951215
22	0x3ea41dfa	0.3205412
23	0x3d0ce63c	0.034399256
24	0x3f1dc34a	0.6162611
25	0x3d6af340	0.057360888
26	0xbc96cfd9	-0.018409656
27	0xbef38bfc	-0.47567737
28	0x3dbfa2d8	0.09357232
29	0x3e34ce3a	0.17656794
30	0x3e0ee246	0.13953504
31	0xbe4afba1	-0.19822551
32	0xbd993bda	-0.07482119
33	0xbec1baf3	-0.37837943
34	0xbd7bf52f	-0.061513122
35	0xbd972ad5	-0.073812164
36	0xbe587634	-0.21138841
37	0xbe251bcd	-0.16123886
38	0x3d6907d1	0.05689222
39	0x3f3f31aa	0.74685156
40	0xbd8d0adf	-0.06886839
41	0x3f1a3753	0.6024067
42	0x3e7c385b	0.24630873
43	0x3e5e7589	0.21724524
44	0x3e4cffa8	0.200194
45	0xbe7da075	-0.24768241
46	0x3e711d01	0.2354622
47	0xbf0d24cb	-0.55134267
48	0xbe01ef60	-0.1268897
49	0xbc4e7142	-0.012600245
50	0xbe909a22	-0.28242594
51	0x3ead0196	0.33790272
52	0xbea56e61	-0.32310775
53	0x3c5a4564	0.013322208
54	0x3dc4106a	0.09573443
55	0x3c36b93c	0.011152562
56	0x3ea6cef7	0.32579777
57	0x3e8d3821	0.27581885
58	0x3ec96a23	0.39338788
59	0x3db81efe	0.08990286
60	0xbe08fad7	-0.13376938
61	0xbd7a3dd0	-0.061094105
62	0x3e049da7	0.12950765
63	0xbd43e4f2	-0.04782576
64	0xbe5a4f8b	-0.21319406
65	0xbe43f461	-0.19136192
66	0xbe6356d3	-0.2220109
67	0x3e64cd61	0.22343971
68	0xbdf4f36f	-0.11960494
69	0x3dd4e1d3	0.10394635
70	0x3da6bda5	0.081416406
71	0x3e311bda	0.17295781
72	0xbdd273af	-0.10275971
73	0x3e8bbe82	0.27293783
74	0x3e5b28ca	0.21402279
75	0x3f0b583b	0.54431504
76	0x3d1ec9f5	0.03876682
77	0x3de40a08	0.11134726
78	0xbf13da4a	-0.5775496
79	0xbda910a1	-0.08255125
80	0xbe2d6fc6	-0.1693717
81	0xbe4ac929	-0.19803299
82	0x3daf409c	0.08557245
83	0xbeb7cb1c	-0.35897148
84	0x3d589d39	0.052884314
85	0xbe1dd8f4	-0.15414792
86	0xbeb8dab8	-0.3610437
87	0x3c98fa49	0.018674033
88	0xbed6908c	-0.41907156
89	0x3db4cadc	0.08827755
90	0xbdec8ea0	-0.11550641
91	0xbdd6d97e	-0.10490702
92	0xb98785fe	-0.00025849039
93	0xbeb408b2	-0.35162884
94	0xbe782e36	-0.24236378
95	0x3d3b410f	0.04571634
96	0x3e9988de	0.29987234
97	0x3eebb913	0.46039638
98	0x3e5f42ad	0.21802779
99	0x3ea0982a	0.31366092
100	0x3e2ea449	0.17054857
101	0x3e1d50c2	0.15362838
102	0x3e08e28d	0.13367672
103	0xbdf6663d	-0.12031219
104	0x3d152ae3	0.036417853
105	0x3dc0ca6f	0.09413611
106	0x3d669ef5	0.056303937
107	0xbec232c3	-0.37929353
108	0xbef26aac	-0.4734701
109	0xbe17422a	-0.14771333
110	0x3d504599	0.050847623
111	0xbde134d1	-0.10996402
112	0xbdaa6d29	-0.08321602
113	0xbea466d5	-0.32109705
114	0xbe45c75a	-0.19314328
115	0xbddce07b	-0.10785004
116	0xbbb46bc8	-0.0055060126
117	0xbe091c96	-0.13389811
118	0xbdda6c0e	-0.10665141
119	0xbe2ba9fb	-0.16764061
120	0xbe0923e1	-0.13392593
121	0x3d9b463d	0.07581756
122	0x3d5667ba	0.052345015
123	0xbe2c2d6d	-0.16814204
124	0x3cb8d598	0.022562787
125	0xbe54e0c4	-0.20788866
126	0xbe972804	-0.29522717
127	0xbd539bda	-0.051662304
128	0xbf049655	-0.5179189
129	0xbe87e670	-0.26542997
130	0xbdeead41	-0.11654139
131	0xbde6fe0f	-0.112789266
132	0x3d92de4a	0.071713045
133	0xbe812ae9	-0.2522805
134	0xbd76456c	-0.0601248
135	0xbe28a504	-0.16469198
136	0x3e232ed5	0.15935834
137	0xbcae7ad3	-0.021298802
138	0x3e6090be	0.21930215
139	0xbe68b6b6	-0.22725949
140	0x3d894d65	0.06704215
141	0xbe655aa1	-0.22397853
142	0xbd9998da	-0.07499857
143	0x3e2bcda5	0.16777666
144	0x3bf4d28a	0.0074713873
145	0xbd2b489e	-0.0418173
146	0xbebc93b1	-0.3683143
147	0x3e00878b	0.12551706
148	0xbda47668	-0.08030397
149	0xbdeac85a	-0.11463995
150	0xbe3e9409	-0.18611158
151	0x3f0311ec	0.5119922
152	0xbd66ab79	-0.056315873
153	0x3d8cf522	0.06882693
154	0x3e91a527	0.28446314
155	0xbeca7f7c	-0.39550388
156	0xbf14c7d1	-0.58117396
157	0xbef7f610	-0.48429918
158	0x3dba723a	0.09103818
159	0xbe094126	-0.13403758
160	0xbf1a15f5	-0.60189754
161	0xbe84420f	-0.2583165
162	0x3d1d9077	0.03846785
163	0xbe63166e	-0.22176525
164	0xbecf2650	-0.40458918
165	0x3de1e067	0.110291295
166	0xbdfd961c	-0.12382147
167	0x3f181a43	0.5941507
168	0xbd960b4b	-0.07326373
169	0xbe26b623	-0.16280417
170	0x3deb9c42	0.11504413
171	0x3ba70ddd	0.005098088
172	0x3d6f66c2	0.058447607
173	0x3dc1a695	0.09455601
174	0xbe93ef64	-0.28893578
175	0x3d36ae7e	0.044600002
176	0xbe71f009	-0.23626722
177	0x3de1edef	0.1103171
178	0xbe816b0b	-0.2527698
179	0x3db76f70	0.08956802
180	0xbe046a14	-0.1293109
181	0x3e4e314e	0.20135996
182	0xbd0e2504	-0.03470327
183	0xbdc4ae7a	-0.09603591
184	0x3b58fe33	0.00331105
185	0x3e20c292	0.15699223
186	0x3efd54c8	0.49478745
187	0x3e075792	0.13216999
188	0x3e9ca5a7	0.30595133
189	0xbd78f47e	-0.06078004
190	0x3dacfbbd	0.08446453
191	0xbe33f56d	-0.17574091
192	0xbe244414	-0.16041595
193	0x3d2ddb9a	0.042445756
194	0x3ed13dfc	0.40867603
195	0xbdad70bb	-0.08468767
196	0xbe529a1d	-0.20566602
197	0x3ca9e361	0.020738306
198	0xbe08d965	-0.1336418
199	0xbc08dfb8	-0.00835412
200	0x3d34e1ac	0.04416053
201	0xbe5fcea4	-0.21856171
202	0xbdf555a2	-0.11979224
203	0x3e1fb92e	0.15597984
204	0x3e45821c	0.19287914
205	0x3e9f4fe9	0.31115654
206	0x3daafc9a	0.08348961
207	0xbec918b4	-0.3927666
208	0xbe007a6a	-0.12546697
209	0xbeac18e8	-0.33612752
210	0x3e758e8b	0.23980157
211	0x3ec17c11	0.37789968
212	0x3d1dee90	0.03855759
213	0xbedb7c4e	-0.42868274
214	0x3def0b18	0.11672038
215	0xbe8cdb28	-0.27510953
216	0x3da2387c	0.0792093
217	0xbe3a6b57	-0.1820501
218	0xbdc74e04	-0.09731677
219	0xbe05aa89	-0.13053335
220	0xbdebc076	-0.115113184
221	0x3ea24cfe	0.31699365
222	0x3b24d5f3	0.0025151938
223	0xbe9576e0	-0.29192257
224	0x3d93464f	0.07191145
225	0xbd993be1	-0.07482124
226	0xbe186867	-0.14883576
227	0x3bf1afa5	0.007375675
228	0x3e6a6710	0.22890878
229	0xbd4573e4	-0.048206225
230	0xbe99f2d2	-0.3006807
231	0xbe8491b7	-0.25892422
232	0xbcb7f388	-0.022454992
233	0xbe8df785	-0.27727905
234	0xbe6bf2b3	-0.23041801
235	0x3da08e5d	0.07839654
236	0xbe17cd6f	-0.1482446
237	0x3e61e9d1	0.2206185
238	0xbea98873	-0.33111915
239	0x3d2d1a75	0.04226156
240	0x3e890608	0.26762414
241	0xbd59fc57	-0.053219166
242	0xbe7edd84	-0.24889189
243	0x3d4e2109	0.050324474
244	0x3c8cb07a	0.017173994
245	0xbe08e8b7	-0.13370024
246	0x3e278aab	0.16361491
247	0x3d721251	0.0590995
248	0x3f31acef	0.694045
249	0x3e4d63e3	0.20057635
250	0x3e2dc62f	0.16970132
251	0xbd878941	-0.06617976
252	0x3eb10d5b	0.34580502
253	0x3e606ded	0.21916933
254	0xbe25a4f4	-0.16176206
255	0x3db38ecd	0.087674715

features.actor.2.bias f4 [64]
0	0x3df1cc57	0.11806553
1	0xbdcbf50a	-0.09958847
2	0x3e80aff0	0.2513423
3	0x3e4482b1	0.1919048
4	0x3e51a748	0.20473969
5	0xbd01a700	-0.031653404
6	0xbe7f9d0d	-0.24962254
7	0xbea0621c	-0.31324852
8	0xbe43faea	-0.19138685
9	0x3ead2d78	0.33823752
10	0xbd1d99e5	-0.038476843
11	0x3f8b63ac	1.0889792
12	0x3d1b1b89	0.037868056
13	0x3e03214e	0.12805673
14	0x3fde3542	1.7360003
15	0x3e4124c4	0.18861681
16	0xbec2228f	-0.3791699
17	0xbcfb7525	-0.030695507
18	0x3ec607fe	0.38677973
19	0x3dd3a661	0.10334469
20	0xbe9b5a0c	-0.30342138
21	0x3e4b4fdb	0.19854681
22	0xbe2bc231	-0.16773297
23	0x3ef60736	0.48052377
24	0xbeac201a	-0.33618242
25	0xbf7170a5	-0.94312507
26	0x3f3106d4	0.69151044
27	0xbf9bac56	-1.2161968
28	0xbf2a863a	-0.66611063
29	0xbea1024d	-0.31447068
30	0xbe2f6719	-0.17129172
31	0x3e7d389e	0.24728629
32	0xbba00ea1	-0.0048845564
33	0xbe524a48	-0.20536149
34	0xbde54b28	-0.111959755
35	0xbe433a1c	-0.19065136
36	0x3f007b08	0.5018773
37	0xbf5f5d22	-0.87251484
38	0xbf16d612	-0.58920395
39	0x3fec6b68	1.8470278
40	0x3e8c98a2	0.274602
41	0xbc760521	-0.015015871
42	0xbd9230f0	-0.0713824
43	0xbf1840cc	-0.5947387
44	0xbd8a89a3	-0.06764533
45	0x3da337a8	0.079696
46	0x3f8923fa	1.0714104
47	0x3df28f04	0.11843684
48	0x3e81bb2b	0.2533811
49	0x3ef6cdee	0.48203987
50	0xbf0c8f49	-0.54906136
51	0x3ed19bea	0.40939265
52	0xbf077472	-0.52912056
53	0xbe911361	-0.28335097
54	0xbe71cbc0	-0.2361288
55	0xbe0dc55d	-0.1384482
56	0x3e75ef2e	0.24017021
57	0xbe1fe0b2	-0.15613058
58	0xbf01f045	-0.5075725
59	0xbe6fed42	-0.2343035
60	0x3f9df958	1.2341719
61	0x3e41747c	0.18892092
62	0x3e65da7e	0.2244663
63	0xbedd4909	-0.43219784

critic.0.weight f4 [1, 64]
0	0x3c9eefee	0.019401517
1	0xbdafaf44	-0.08578351
2	0x3da05b56	0.07829921
3	0x3df645a9	0.12025005
4	0x3dec3ac4	0.11534646
5	0xbb9f146e	-0.0048547303
6	0xbd17e12f	-0.037079986
7	0x3ac4ae4d	0.0015005559
8	0xbdeb5046	-0.1148992
9	0x3ddae8b8	0.10688919
10	0xbb94c3cb	-0.004539942
11	0x3eb0fe33	0.3456894
12	0x3bddc25a	0.0067675533
13	0x3db0b129	0.086275406
14	0x3ecfe84e	0.40606922
15	0x3dbb07b5	0.091323294
16	0xbdd797f1	-0.105270274
17	0x3da3c787	0.07997041
18	0x3d8a4743	0.06751873
19	0x3d598269	0.053102884
20	0xbdb76780	-0.08955288
21	0x3c8202d1	0.015870484
22	0xbd69ae32	-0.05705089
23	0x3c2e751d	0.010648039
24	0xbd1afb5b	-0.037837368
25	0xbe282bd1	-0.16422965
26	0x3e69f528	0.22847426
27	0xbe812003	-0.25219736
28	0xbded94c3	-0.1160064
29	0xbd32692c	-0.04355733
30	0xbc9a6deb	-0.018851241
31	0x3dfb902c	0.12283358
32	0x3d4ea705	0.05045225
33	0x3d5f6188	0.054536372
34	0xbd9c5ad1	-0.07634509
35	0xbd914e77	-0.07095044
36	0x3e2e7b65	0.17039259
37	0xbe2168ba	-0.15762606
38	0xbe733cc0	-0.23753643
39	0x3f0bba91	0.5458155
40	0x3dd516da	0.10404749
41	0x3c05a272	0.008156406
42	0x3a960cda	0.0011447922
43	0xbe187a36	-0.1489037
44	0x3db8a205	0.09015278
45	0x3db9d576	0.090739176
46	0x3ea051e0	0.31312466
47	0xbcebde82	-0.028792623
48	0xbc9a714f	-0.018852858
49	0x3dd5ef92	0.10446085
50	0xbe342b0f	-0.1759455
51	0x3d0dd388	0.03462556
52	0xbe10311b	-0.14081232
53	0xbcdcadb6	-0.0269383
54	0xbcffe6c4	-0.031237967
55	0xbd8664b1	-0.06562174
56	0xbd2ceda1	-0.042218808
57	0xbd22e691	-0.039770667
58	0xbd2c952b	-0.042134445
59	0xbd8d8c10	-0.069114804
60	0x3ed875ae	0.42277282
61	0x3e88f876	0.2675206
62	0x3d89b22d	0.067234375
63	0xbe81197f	-0.25214764

critic.1.weight f4 [1, 64]
0	0xbdf10270	-0.11768043
1	0x3e5a4fad	0.21319456
2	0xba9d0940	-0.0011980906
3	0x3c8e90b0	0.017402977
4	0xbd9ce74e	-0.07661305
5	0xbe19d917	-0.1502422
6	0xbd8c8135	-0.06860582
7	0x3db4449c	0.08802149
8	0x3e285181	0.16437341
9	0x3c5ffe71	0.013671503
10	0x3cd5a6aa	0.026080448
11	0xbe977c87	-0.29587194
12	0xbba266fb	-0.004956124
13	0x3d3dda92	0.046351023
14	0xbb8e2e4d	-0.0043390156
15	0x3e296fc1	0.16546537
16	0xbe487827	-0.19577084
17	0xbd2f4804	-0.04279329
18	0x3e5e7c7e	0.21727178
19	0x3cec6f97	0.028861804
20	0x3db7a8dd	0.08967755
21	0xbe142fdc	-0.14471382
22	0x3cab4dbd	0.020911092
23	0x3dd17dc2	0.102290645
24	0x3e312aa0	0.17301416
25	0x3d52fc01	0.05150986
26	0x3d8a5fae	0.06756531
27	0x3da487a0	0.08033681
28	0x3e7f0acf	0.24906467
29	0x3db86fc6	0.09005694
30	0xbccddbb1	-0.025129171
31	0x3bb7b71f	0.0056065465
32	0xbc39f2bb	-0.011349375
33	0xbdd0e88b	-0.10200604
34	0xbe112bff	-0.1417694
35	0xbc528d54	-0.012851078
36	0xbde344d7	-0.110971145
37	0x3c272391	0.010201351
38	0xbd7642ef	-0.060122427
39	0xbe182967	-0.14859544
40	0xbc817245	-0.015801558
41	0x3dd1565c	0.1022155
42	0x3cc975e3	0.024592346
43	0x3db023a0	0.08600545
44	0xbdfb6768	-0.122755826
45	0x3c69bdb3	0.014266419
46	0xbe355b1b	-0.17710535
47	0x3ea84e87	0.32872412
48	0xbd39b661	-0.045339946
49	0x3d7d2d29	0.061810646
50	0x3e07c6f3	0.13259487
51	0xbc8d5eab	-0.017257055
52	0x3d325364	0.04353656
53	0x3e1ad3b6	0.15119824
54	0x3e785c29	0.24253906
55	0xbc9cdcac	-0.019148193
56	0xbd8024ca	-0.06257017
57	0x3e0ac60f	0.13552116
58	0xbdccc927	-0.09999304
59	0x3d9469dc	0.072467536
60	0x3dd12e72	0.10213937
61	0xbd099de3	-0.033597838
62	0x3e6e70d6	0.23285231
63	0x3e780e52	0.24224213

critic.2.weight f4 [1, 64]
0	0x3e85a650	0.2610345
1	0xbdef4694	-0.116833836
2	0xbcc21a74	-0.023694254
3	0x3e10eeba	0.14153567
4	0xbe061a67	-0.13096009
5	0x3e091b63	0.13389353
6	0xbd033ec3	-0.032042276
7	0x3e0ce8e7	0.1376072
8	0x3b3efe3c	0.0029143235
9	0x3cb2247f	0.021745918
10	0x3e46e863	0.19424586
11	0xbae3f390	-0.0017391313
12	0x3e853438	0.26016402
13	0xbdccbcf4	-0.099969774
14	0xbcf96993	-0.03044585
15	0xbe309ea2	-0.17248014
16	0x3e6b9bdc	0.23008674
17	0x3da1b393	0.07895579
18	0xbcd9a89e	-0.02656966
19	0xbd383534	-0.044972613
20	0xbe578383	-0.21046261
21	0xbe91ee39	-0.28502062
22	0x3debc9dc	0.11513111
23	0x3d920a9c	0.0713093
24	0x3e22c1b3	0.15894203
25	0xbe02fc2c	-0.12791508
26	0xbcc1c92c	-0.023655497
27	0xbc935e47	-0.01798929
28	0x3d3e3e5d	0.046446193
29	0xbdddecdb	-0.10836192
30	0x3db2c2c6	0.08728556
31	0x3c02f9a2	0.007994087
32	0x3e643691	0.2228644
33	0x3e004e51	0.12529875
34	0xbd997a54	-0.07494035
35	0xbd30326c	-0.043016836
36	0x3b2202ca	0.00247209
37	0xbe76d108	-0.24103177
38	0x3d56cbf1	0.052440587
39	0xbd9ffd52	-0.07811989
40	0xbc29ca80	-0.010363221
41	0x3db97383	0.09055235
42	0x3d1a67e2	0.037696727
43	0xbdedab20	-0.11604905
44	0x3d8d7e6e	0.0690888
45	0x3d977ee6	0.07397251
46	0xbd347aa6	-0.04406228
47	0xbd56d1b9	-0.0524461
48	0xbdc68c4d	-0.09694729
49	0x3d1a7c9d	0.037716497
50	0x3e4a4fe2	0.19757035
51	0xbe317e00	-0.17333221
52	0xbe5c69b9	-0.21524705
53	0xbd9eaad0	-0.07747424
54	0x3e2095c2	0.15682128
55	0x3db7ef76	0.089812204
56	0xbe10640a	-0.14100662
57	0xbdccaa8b	-0.09993466
58	0x3bd616a4	0.0065334607
59	0x3c23cfe6	0.009998297
60	0x3d189a98	0.037256807
61	0x3e036b07	0.12833796
62	0x3d7d0007	0.061767604
63	0x3e362513	0.1778758

critic.3.weight f4 [1, 64]
0	0xbd636380	-0.055514812
1	0x3d3cdf00	0.046111107
2	0x3dcde760	0.10053897
3	0xb99bf631	-0.0002974733
4	0x3d4d74d5	0.050160248
5	0xbe5a40ec	-0.21313828
6	0x3e020749	0.12698092
7	0x3b649cc5	0.003488348
8	0x3e6407f4	0.22268659
9	0x3d7c336a	0.06157247
10	0x3d3f6b91	0.046733443
11	0xbdf5469a	-0.11976357
12	0xbe8c6563	-0.27421102
13	0xbcb66782	-0.022266153
14	0xbd9b034c	-0.07568988
15	0xbe1548c2	-0.14578536
16	0xbd509d6f	-0.05093139
17	0xbe0a0129	-0.13477005
18	0xbd98ab11	-0.07454503
19	0x3cf120ef	0.02943465
20	0xbce0b69f	-0.02743083
21	0xbd2ba5be	-0.04190611
22	0xbd2bc690	-0.04193741
23	0xbd5e578a	-0.054282703
24	0x3e66db19	0.22544517
25	0xbd5709a5	-0.052499432
26	0xbe25c00c	-0.16186541
27	0xbe50c25b	-0.2038664
28	0xbe06204e	-0.13098261
29	0xbe6f95c5	-0.23396976
30	0x3e4cad90	0.19988084
31	0xbd32599b	-0.043542486
32	0x3be4b90c	0.006980067
33	0xbc9b0996	-0.01892547
34	0x3d06409c	0.03277646
35	0x3d6955e5	0.05696668
36	0xbd2596fa	-0.040427186
37	0x3e202e84	0.15642744
38	0xbe06dd08	-0.13170254
39	0xbdbe813f	-0.093019955
40	0xbe33f8a0	-0.17575312
41	0x3ddc12ce	0.10745774
42	0x3ce21b1b	0.027600816
43	0x3e312a52	0.173013
44	0xbdc028ed	-0.09382806
45	0xbd9e3555	-0.07725016
46	0x3e62795c	0.22116607
47	0xbd9c72e8	-0.07639104
48	0xbd9b15c2	-0.07572509
49	0x3add4aee	0.0016883293
50	0x3d9532af	0.07285058
51	0xbdd66519	-0.104685016
52	0x3dd54332	0.10413207
53	0x3e02ccfc	0.12773508
54	0x3e974397	0.29543754
55	0x3e25c00c	0.16186541
56	0xbd4b4843	-0.04962946
57	0xbb7da66c	-0.0038703931
58	0x3e41a53c	0.18910688
59	0x3da47fbd	0.08032177
60	0x3e60e736	0.219632
61	0x3d9efcfa	0.07763095
62	0x3df3d29a	0.119054034
63	0xbd6ab401	-0.05730057

critic.4.weight f4 [1, 64]
0	0x3e02ec38	0.12785423
1	0xbdc640cd	-0.096803285
2	0xbdb5c603	-0.08875658
3	0x3ddff544	0.109354526
4	0xbe21700b	-0.15765397
5	0xbd6ca133	-0.05777092
6	0xbe86c428	-0.2632153
7	0x3dd8c85e	0.10585092
8	0x3d631ed0	0.055449307
9	0xbd5ca44b	-0.05386762
10	0x3e33b3b2	0.17549017
11	0xbe10da12	-0.14145687
12	0x3ce7719c	0.028252415
13	0x3e977923	0.29584607
14	0xbd23a0f9	-0.039948437
15	0xbd4649cd	-0.048410226
16	0xbd02f153	-0.031968426
17	0xbe0a58af	-0.13510393
18	0xbd5b6303	-0.05356122
19	0x3e39c97c	0.18143266
20	0x3c8e9b12	0.017407928
21	0x3e48e8c5	0.19620045
22	0x3d138760	0.036017776
23	0xbdc78dd5	-0.09743849
24	0xbdfe7410	-0.12424481
25	0x3e928d48	0.28623414
26	0xbd9e0396	-0.07715528
27	0x3db28860	0.08717418
28	0xbe52e4fe	-0.20595166
29	0x3dd816f4	0.10551253
30	0x3e21eff9	0.15814199
31	0xbe757db3	-0.23973732
32	0xbceac79f	-0.02865964
33	0x3c8185a6	0.015810799
34	0x3d146e87	0.03623822
35	0x3cfddedb	0.030990055
36	0xbdc483f2	-0.09595479
37	0x3c4072b5	0.011746098
38	0xbc301c5a	-0.010748947
39	0x3d237af4	0.03991218
40	0xbd83cdb8	-0.06435722
41	0xbd516e15	-0.051130373
42	0x3d445f02	0.04794217
43	0x3df471e5	0.11935786
44	0xbd0a4215	-0.033754427
45	0x3d0f7ed4	0.035033062
46	0xbe32409f	-0.17407463
47	0x3e3cd345	0.18439968
48	0xbd11b061	-0.0355686
49	0x3e033b00	0.12815475
50	0xbe049e0d	-0.12950917
51	0x3dce616b	0.10077175
52	0x3d85887f	0.06520175
53	0xbd5293cc	-0.05141048
54	0x3e70447a	0.23463622
55	0xbd932ec2	-0.07186653
56	0x3e449cf6	0.19200501
57	0xbdaf1c5e	-0.085503325
58	0x3c85a4af	0.016313879
59	0x3e29d36c	0.16584557
60	0x3dbd6c6c	0.092491955
61	0xbc167b54	-0.009184677
62	0xbdc69838	-0.09697002
63	0x3e4a4c60	0.19755697

critic.5.weight f4 [1, 64]
0	0x3d9b4d60	0.075831175
1	0x3a202f02	0.00061105203
2	0xbe8f8088	-0.2802775
3	0x3d3429c0	0.04398513
4	0xbcb8dbe8	-0.022565797
5	0xbc141a37	-0.009039453
6	0x3d39a917	0.045327272
7	0x3cea0ff8	0.028572068
8	0x3c80d741	0.015727641
9	0x3e10e4c7	0.14149772
10	0xbe1cef39	-0.15325631
11	0xbca7fe2b	-0.020506939
12	0x3d2b259a	0.041783907
13	0x3dbb5b40	0.09148264
14	0x3dd2056c	0.102549404
15	0xbc259ae2	-0.010107728
16	0x3cef27f0	0.029193848
17	0xbdeb8c88	-0.115014136
18	0x3c9c825d	0.01910513
19	0xbde73d94	-0.11291042
20	0xbe545f82	-0.20739558
21	0x3dddd941	0.108324535
22	0x3e85e85c	0.2615384
23	0xbd1a0079	-0.037598107
24	0xbda32e6a	-0.07967837
25	0xbe31409e	-0.17309806
26	0xbcfb8ec3	-0.030707723
27	0x3c9c70d1	0.019096764
28	0xbe299b0c	-0.16563052
29	0xbe445542	-0.19173148
30	0x3cb3bfcf	0.021942047
31	0xbd05d76f	-0.032676157
32	0x3db8209c	0.08990595
33	0x3ce1b313	0.02755121
34	0x3e91b6ba	0.28459722
35	0x3e66db29	0.2254454
36	0xbea468a2	-0.32111079
37	0xbe870c9f	-0.26376817
38	0xbe4320c2	-0.19055465
39	0x3df43a58	0.11925191
40	0xbd4862e6	-0.048922442
41	0x3ce93a0d	0.028470064
42	0xbb9ba6e4	-0.0047501195
43	0xbd7ca706	-0.061682723
44	0xbd5d5cc9	-0.054043565
45	0xbd8867a7	-0.06660395
46	0xbe475110	-0.19464517
47	0x3e18e02f	0.14929269
48	0xbc93bfba	-0.018035758
49	0x3e029b04	0.12754446
50	0xbc4716c4	-0.012151424
51	0xbdcbb94f	-0.09947454
52	0xbd8d7d8b	-0.06908711
53	0x3becb312	0.0072234953
54	0xbdce2b83	-0.10066893
55	0xbe12b239	-0.14325799
56	0x3dbea004	0.09307864
57	0xbe2e154c	-0.17000312
58	0x3d74fa2c	0.059808895
59	0x3df479d1	0.11937297
60	0x3b51c42a	0.0032007792
61	0x3dd1487d	0.10218904
62	0xbe0ec136	-0.13940892
63	0xbd883aca	-0.06651838

dist.0.linear.weight f4 [7, 64]
0	0x3e392985	0.18082245
1	0xbe199adc	-0.1500048
2	0x3e5eedac	0.21770352
3	0xbc8048ec	-0.015659772
4	0xbe6e872d	-0.23293753
5	0x3e11983c	0.14218229
6	0x3e7b0a14	0.24515563
7	0x3eb0e4ab	0.3454946
8	0xbe639fc4	-0.22228914
9	0x3ec4946c	0.38394487
10	0xbd9f0f5e	-0.07766603
11	0xbdd3a43c	-0.103340596
12	0x3e1bac04	0.15202338
13	0x3ddd7ceb	0.10814842
14	0xbd3680dc	-0.044556484
15	0xbe67d0cf	-0.22638248
16	0xbde3ebd4	-0.11128965
17	0x3d418c2d	0.047252823
18	0xbea248aa	-0.31696063
19	0x3e1e40fa	0.15454474
20	0x3e55eaf6	0.20890412
21	0x3c4371ee	0.011929018
22	0x3e8110c2	0.25208098
23	0x3e3a5c30	0.18199229
24	0x3ea77300	0.32704926
25	0xbde45408	-0.1114884
26	0xbeb087d1	-0.3447862
27	0x3dbc44ec	0.09192833
28	0xbcd3e334	-0.025865175
29	0xbdb72388	-0.08942324
30	0x3eb23126	0.34803122
31	0xbe7f9da7	-0.24962483
32	0x3e3007d1	0.17190482
33	0x3ea5eed5	0.32408777
34	0xbb52a838	-0.0032143723
35	0xbe603f0e	-0.21899053
36	0x3df82cba	0.12117906
37	0xbd8e78a6	-0.069566056
38	0xbe52b43e	-0.2057657
39	0xbd7c658b	-0.061620276
40	0x3e6275fe	0.22115323
41	0x3e2b8a72	0.16752031
42	0x3db63911	0.08897603
43	0xbe32f717	-0.1747707
44	0x3cad9311	0.02118829
45	0xbcfd8a5a	-0.03094976
46	0x3d6d6a11	0.05796248
47	0xbe2f25a9	-0.1710421
48	0x3e99917a	0.29993802
49	0xbe6549ec	-0.2239148
50	0x3ea9db24	0.33175004
51	0x3e3ba7df	0.18325756
52	0x3e6315bc	0.2217626
53	0x3dce7c6f	0.100823276
54	0xbd88fb1f	-0.066885225
55	0xbde99e0d	-0.11407099
56	0xbe57a9ee	-0.21060917
57	0x3e8d1709	0.27556637
58	0x3e5b8324	0.21436745
59	0xbe89ddfe	-0.2692718
60	0x3dbd0151	0.09228767
61	0x3e5a8cfd	0.21342845
62	0x3b281e6d	0.00256529
63	0xbdd3168e	-0.10307036
64	0x3dfa648d	0.1222621
65	0x3d4eb21f	0.05046284
66	0x3e95810e	0.29200023
67	0xbe333dba	-0.17504016
68	0x3c8be24a	0.017075676
69	0x3cc68828	0.024234846
70	0xbdd8882d	-0.105728485
71	0xbe8fab28	-0.2806027
72	0xbe1c6fdd	-0.15277047
73	0xbea62f00	-0.32457733
74	0xbd063931	-0.032769386
75	0x3e639431	0.222245
76	0x3d90487b	0.070450746
77	0x3eb4abc7	0.35287306
78	0x3db30dec	0.0874289
79	0x3ea81d35	0.32834783
80	0xbe11eb3e	-0.14249894
81	0x3e77bcdd	0.2419314
82	0x3e1a2b7e	0.15055653
83	0xbe02d582	-0.1277676
84	0xbdbf769a	-0.09348793
85	0xbdbb8bb0	-0.09157503
86	0xbe6aaf25	-0.22918375
87	0x3cf33d95	0.02969245
88	0xbe793407	-0.24336253
89	0xbe1d537b	-0.15363877
90	0x3d787d10	0.060666144
91	0xbe669274	-0.22516805
92	0xbccd6c78	-0.025076136
93	0xbe7f8b70	-0.24955535
94	0xbe38e483	-0.1805592
95	0x3ecdf2f7	0.4022443
96	0xbd178bd3	-0.03699858
97	0xbe44ca31	-0.19217755
98	0x3eaecf0b	0.34142336
99	0xbe92808a	-0.28613693
100	0xbe668ee8	-0.22515452
101	0x3a984423	0.0011616986
102	0x3ed1f0d0	0.41004038
103	0x3dd7ca36	0.105366156
104	0xbda129bb	-0.078692876
105	0xbe9d7485	-0.3075296
106	0x3d127a04	0.035760894
107	0x3cdcfc47	0.026975764
108	0x3e010656	0.12600073
109	0x3e30f99d	0.1728272
110	0xbd84e24e	-0.06488477
111	0xbed28b9e	-0.41122144
112	0xbebe29fe	-0.37141412
113	0x3cf2d87a	0.02964424
114	0xbe306480	-0.17225838
115	0xbeac2969	-0.33625343
116	0xbe05464d	-0.13015099
117	0xbd88db78	-0.06682485
118	0x3df91d07	0.1216374
119	0xbcc845df	-0.02444738
120	0xbce302da	-0.02771132
121	0xbc94b8a6	-0.018154453
122	0xbd780c18	-0.06055841
123	0x3ee6d34a	0.45083076
124	0xbd0f801c	-0.035034284
125	0x3dbd1585	0.0923262
126	0x3e51e8ac	0.20498914
127	0x3e4ee1e5	0.2020336
128	0xbe68c595	-0.22731622
129	0x3e0d6b13	0.13810377
130	0xbdfad89b	-0.122483455
131	0x3e27a2a3	0.16370635
132	0x3e1048e0	0.140903
133	0xbd1c1678	-0.038107365
134	0xbe263c4e	-0.16233942
135	0xbe67c0e8	-0.22632182
136	0x3e4037b9	0.18771257
137	0x3d1330c2	0.03593517
138	0x3e0c43ae	0.13697693
139	0x3efdbfc4	0.49560368
140	0xbe16f19c	-0.14740604
141	0xbe53da33	-0.20688705
142	0x3f0e892a	0.55678046
143	0xbd23ef24	-0.040022984
144	0x3c70ddb3	0.014701295
145	0xbe470223	-0.19434409
146	0x3e42cd27	0.19023572
147	0xbe08e573	-0.13368778
148	0xbe882540	-0.2659092
149	0x3e7cca1f	0.24686478
150	0x3c4efd4b	0.012633632
151	0x3e48c3c7	0.19605933
152	0xbe29ed09	-0.16594328
153	0xbe8a8c7d	-0.2706031
154	0x3f266082	0.6499101
155	0xbee9fa33	-0.456987
156	0xbf0e84ec	-0.5567157
157	0x3d72830d	0.05920701
158	0xbe804ab8	-0.25057006
159	0x3ae9f568	0.0017849626
160	0xbd325f6b	-0.04354803
161	0xbe8b9b3b	-0.2726687
162	0xbe96de11	-0.29466298
163	0x3e8ceb88	0.27523446
164	0x3ee1bdfb	0.44090256
165	0xbf062caa	-0.524119
166	0xbf0a7577	-0.5408549
167	0x3f077f34	0.5292847
168	0xbdc5403e	-0.09631394
169	0x3ab36ccc	0.001368904
170	0xbe0aefba	-0.13568011
171	0xbd780a4d	-0.0605567
172	0xbe56fc50	-0.20994687
173	0xbcfbe4a7	-0.030748678
174	0x3f09bce3	0.53803843
175	0x3eb3dc91	0.35129216
176	0x3e06d933	0.13168792
177	0x3eb4bb4c	0.35299146
178	0xbf02c57e	-0.510826
179	0x3eba2b56	0.36361188
180	0xbdbb72da	-0.091527656
181	0xbec24e1a	-0.37950212
182	0xbe7ac9b6	-0.24491009
183	0x3dc22d90	0.094813466
184	0x3e0d8fa0	0.1382432
185	0xbdce3ed7	-0.100705795
186	0xbe66bb28	-0.22532332
187	0xbeb682f6	-0.3564679
188	0x3f28a9ca	0.6588408
189	0xbe3a793c	-0.1821031
190	0x3bfe6d1b	0.007764471
191	0xbdd9cc32	-0.1063465
192	0xbdc8ab0a	-0.09798248
193	0x3c1a344a	0.009411881
194	0xbe073533	-0.13203888
195	0xbcb9dc0e	-0.022687938
196	0x3d7e3801	0.06206513
197	0x3dd04eb8	0.101712644
198	0xbd0415bf	-0.0322473
199	0x3d70e6ce	0.058813863
200	0x3dbe7e70	0.0930146
201	0xbdb4d84a	-0.08830316
202	0x3ddb4b6e	0.107077464
203	0x3d4f56e2	0.050619967
204	0x3cc427e2	0.023944799
205	0xbe8f7810	-0.28021288
206	0x3d8ec034	0.069702536
207	0xbd4b60df	-0.04965293
208	0x3c451cc4	0.012030784
209	0xbdea7f73	-0.1145009
210	0x3e5af4de	0.21382472
211	0x3cfeae77	0.03108905
212	0xbe1f21e1	-0.15540268
213	0x3de4f880	0.1118021
214	0x3e0a8914	0.13528854
215	0xbe412aba	-0.18863955
216	0xbe8ff626	-0.28117484
217	0x3d3bf830	0.045890987
218	0x3e32d36a	0.1746346
219	0xbd6969b6	-0.05698558
220	0xbc2dcf01	-0.010608436
221	0x3da5e4a3	0.081002496
222	0x3c40237a	0.011727208
223	0xbdf43eef	-0.11926066
224	0x3d02c242	0.03192354
225	0x3da29bb5	0.07939855
226	0xbd57d42a	-0.05269257
227	0x3e09b0db	0.13446371
228	0xbd2b8ec3	-0.041884195
229	0xbdca08d8	-0.09864968
230	0xbcc6cf14	-0.024268664
231	0x3d43722a	0.047716297
232	0xbe44069a	-0.19143143
233	0x3dcf83a8	0.10132533
234	0xbd6da2cc	-0.058016583
235	0xbd841805	-0.06449894
236	0xbd5f4c80	-0.054516315
237	0xbe84425e	-0.25831884
238	0xbcad8587	-0.021181835
239	0x3e63e3fe	0.22254941
240	0xbd9e7838	-0.07737774
241	0x3e0a44aa	0.13502756
242	0xbe1fc69a	-0.15603104
243	0x3cd6b0ca	0.026207346
244	0x3e0a911e	0.1353192
245	0xbe8a43dd	-0.270049
246	0x3d093d88	0.033505946
247	0x3cfaad9b	0.03060036
248	0xbd7697ce	-0.060203366
249	0x3dc5920b	0.09646996
250	0xbdbe528b	-0.092930876
251	0xbd7d5c33	-0.061855506
252	0x3c2f503f	0.0107002845
253	0x3da38f41	0.07986308
254	0xbe6750e4	-0.22589451
255	0xbd1b54d0	-0.03792268

dist.0.linear.bias f4 [7]
0	0x3c8042ca	0.015656848
1	0x3dea23d3	0.11432614
2	0x3f181b67	0.5941681
3	0x3c279aab	0.010229747
4	0xbc49c39b	-0.012314702
5	0xbd4b8d50	-0.049695313
6	0xbd8dad61	-0.06917835

dist.1.linear.weight f4 [7, 64]
0	0xba6c0fd7	-0.0009005046
1	0x39e4a4cf	0.0004361034
2	0xb9ac93d2	-0.0003291653
3	0x39b50a9b	0.00034530912
4	0xb8c2049c	-9.2514994e-05
5	0xb9d76cfd	-0.00041089198
6	0x3b8ffc1d	0.004394068
7	0xbaae2410	-0.0013285894
8	0xba5671bb	-0.00081803993
9	0x3a1611bd	0.0005724689
10	0x3a9d66e6	0.0012008816
11	0x3ab1a757	0.00135539
12	0x3aedc800	0.001814127
13	0x3a87a622	0.0010349194
14	0xba557262	-0.00081423495
15	0x3ae44fbe	0.0017418785
16	0xba06c4f3	-0.0005141042
17	0x3a1fde2b	0.0006098474
18	0xba7693b8	-0.0009406167
19	0xb988b453	-0.00026074293
20	0xb92df286	-0.00016588913
21	0xb7f8cf3d	-2.9660407e-05
22	0x3ad58265	0.0016289471
23	0xbabd25ad	-0.0014430784
24	0xb9dc9602	-0.00042073434
25	0xbb0c3a1a	-0.0021396936
26	0xbb488930	-0.0030599348
27	0x3a956918	0.0011399118
28	0x3a9d8a37	0.0012019341
29	0x39b8e43e	0.00035265269
30	0xb93fc658	-0.00018289068
31	0x3a7175fc	0.00092110015
32	0x3a767f77	0.0009403149
33	0xbb1ebcaf	-0.002422135
34	0xbb168aba	-0.002297087
35	0xbac8dffc	-0.0015325542
36	0xb92c0796	-0.00016406024
37	0x3af999e2	0.0019043053
38	0x3a1c6bd1	0.00059669936
39	0xb950febb	-0.0001993132
40	0x3a141197	0.0005648373
41	0x37e6b3b5	2.750182e-05
42	0x3af3bf9e	0.0018596535
43	0x3a643525	0.0008705429
44	0x380d7487	3.3725544e-05
45	0xbb0b2709	-0.0021232984
46	0xb8f0d730	-0.000114841736
47	0x3a2b9467	0.0006545246
48	0x3a82ed2f	0.0009988899
49	0xbaa0c9af	-0.0012267138
50	0xb79bc1e7	-1.8567733e-05
51	0xbb03ee42	-0.0020131026
52	0x3a49ecbc	0.00077028177
53	0x3a0b4762	0.0005313066
54	0xb9c76c30	-0.00038036844
55	0x399c76e0	0.00029843207
56	0x3a64e807	0.00087320845
57	0x3a5c9364	0.0008414297
58	0x3995a216	0.00028540258
59	0x39ac6609	0.0003288242
60	0x3a7a6cab	0.0009552936
61	0x3a9ecd51	0.0012115632
62	0x3a358dcf	0.0006925733
63	0xba73f26b	-0.00093058374
64	0x3956cb34	0.0002048433
65	0xbaef0145	-0.0018234631
66	0x39dc58b9	0.00042027773
67	0x3ac38f35	0.0014919998
68	0xba2d55d8	-0.0006612218
69	0xba49091d	-0.00076688995
70	0xbaae58e1	-0.0013301634
71	0xbb6e1acb	-0.0036331888
72	0x3b078a2f	0.002068173
73	0xba927c34	-0.0011175931
74	0xba5d867d	-0.0008450521
75	0x3b17d77d	0.0023169213
76	0x38b628e5	8.6860535e-05
77	0xbb0fa75a	-0.0021919818
78	0xb9c2e8c5	-0.0003717599
79	0x3a913db6	0.0011081013
80	0x3a968771	0.0011484456
81	0xba8a3357	-0.0010543865
82	0x385a8ab3	5.2104424e-05
83	0x3ab68860	0.0013926141
84	0x3a981023	0.0011601489
85	0xbad88f97	-0.0016522285
86	0x3a0c9726	0.0005363099
87	0x39ba7d0a	0.00035569846
88	0xb8f83a2a	-0.000118363954
89	0xbb1680b1	-0.002296489
90	0xb95c0019	-0.00020980871
91	0x3ab9e24a	0.0014181819
92	0xbad58e7d	-0.0016293075
93	0x3af5d397	0.0018755075
94	0x39e063e4	0.00042799034
95	0xb9f44c6a	-0.0004659624
96	0x3aed2730	0.0018093344
97	0x3aeb083e	0.0017931534
98	0x3aefa885	0.0018284476
99	0xb8b1cc42	-8.478064e-05
100	0xbaa06e4b	-0.0012239901
101	0xb99d744b	-0.0003003202
102	0x3a49f397	0.0007703839
103	0xb9a7cbd9	-0.000320046
104	0xba1ed80a	-0.0006059414
105	0xbaa45510	-0.0012537558
106	0x3aadc937	0.0013258819
107	0xba8dba11	-0.0010812898
108	0x39bca7d9	0.0003598321
109	0xba3acb5e	-0.0007125641
110	0x3a7461dc	0.00093224435
111	0xbaa0acaf	-0.0012258495
112	0x39fb538c	0.00047936698
113	0xba639413	-0.00086814276
114	0x39a5121b	0.00031484742
115	0x39844f7e	0.00025236228
116	0x397d68fb	0.00024167068
117	0x3abe0934	0.0014498592
118	0x3a7a4de2	0.00095483486
119	0x3b1ae69a	0.0023635984
120	0x39a7ee06	0.00032030063
121	0x3965f6d4	0.00021931092
122	0xbb2211ae	-0.0024729776
123	0x3a60b777	0.000857226
124	0xb96893c0	-0.00022180285
125	0x39869c6d	0.00025675018
126	0xba58b13d	-0.00082661567
127	0xb9875609	-0.00025813308
128	0xb91ef72e	-0.00015160136
129	0xba64774e	-0.00087152875
130	0x391229d7	0.00013939232
131	0x396de6b2	0.00022688022
132	0xbae8e150	-0.0017767344
133	0x3ae2a730	0.0017292257
134	0xb8af5a69	-8.3614905e-05
135	0x37a090e6	1.914096e-05
136	0xb878ccf3	-5.931868e-05
137	0x3aca7052	0.0015444851
138	0x3b0ef0a9	0.0021810925
139	0x3ae4e982	0.001746461
140	0x3aa4e38f	0.0012580025
141	0x3a35211c	0.0006909536
142	0xbaa0b5a9	-0.001226117
143	0x3b1aea1d	0.0023638078
144	0xbaef034f	-0.0018235239
145	0xb9ff2eb0	-0.00048672175
146	0x3a2f47c4	0.0006686414
147	0x3aa944a1	0.001291413
148	0x3ae6b2fe	0.0017600951
149	0x3aad4c50	0.0013221595
150	0xba556a29	-0.0008141124
151	0x3a8f4f32	0.0010933636
152	0xba642d3e	-0.00087042514
153	0x3a6a9043	0.0008947888
154	0x3aceb554	0.0015770593
155	0xb9972452	-0.00028828025
156	0x36f8477d	7.3992983e-06
157	0xba470549	-0.0007592035
158	0xb9b679b4	-0.0003480442
159	0xba88bf97	-0.0010433075
160	0xb95ad164	-0.00020868104
161	0x3aa04dd7	0.0012230229
162	0xb8ca545d	-9.6478245e-05
163	0xb9c79567	-0.0003806755
164	0xb96e32c6	-0.00022716363
165	0x3a068d6c	0.0005132768
166	0x3a07d6c8	0.0005181846
167	0xba89b1c0	-0.0010505244
168	0x3b49a226	0.0030766814
169	0xb9f2ef42	-0.00046336098
170	0x3adeb8be	0.0016992313
171	0xbafccdf3	-0.0019287452
172	0xb6bb79af	-5.5872e-06
173	0x3b3abbf0	0.0028493367
174	0x398167ef	0.00024682234
175	0x3a814b98	0.0009864448
176	0xbb00433e	-0.001957133
177	0xba161686	-0.0005725402
178	0xba620624	-0.0008622131
179	0xba6cb22a	-0.0009029234
180	0x3addbb66	0.0016916811
181	0x39d4b2d4	0.00040569028
182	0x3a5d354f	0.00084384246
183	0xba7c2752	-0.00096188963
184	0xbad62240	-0.0016337112
185	0xba5a307b	-0.0008323264
186	0xb9be2542	-0.00036267383
187	0x396e078f	0.00022700265
188	0xbacd2d74	-0.0015653805
189	0x3a2dd886	0.0006631691
190	0x3b4280dc	0.0029678857
191	0xba793361	-0.0009506252
192	0xbadc56f5	-0.0016810583
193	0x3b0e2ab2	0.002169293
194	0x3ad6be5b	0.0016383635
195	0xba626fc2	-0.0008637869
196	0xbb48d48d	-0.0030644268
197	0xb931302a	-0.00016897978
198	0x3b00a4b8	0.001962943
199	0xb9e33d92	-0.00043342687
200	0xb96bf8d2	-0.00022504039
201	0x38cc0d75	9.7299846e-05
202	0xbaf04d4f	-0.0018333587
203	0xb9dab615	-0.00041715862
204	0xba630362	-0.0008659867
205	0x3a818386	0.0009881116
206	0xba45c966	-0.00075449643
207	0xbad4a1c5	-0.0016222527
208	0x3778c799	1.4828424e-05
209	0x3a7d416a	0.00096609315
210	0x3b05ffd0	0.0020446666
211	0xb9d31329	-0.00040259332
212	0x3a343d1b	0.00068755605
213	0x3a98569a	0.0011622489
214	0xb9b86930	-0.00035173586
215	0x3adb6fc9	0.0016741689
216	0xbaba91e5	-0.0014234154
217	0x38a6813d	7.939569e-05
218	0xbaec9526	-0.0018049821
219	0xbaced19c	-0.0015779021
220	0xbae2b0e7	-0.0017295153
221	0x3a82a55b	0.0009967493
222	0x3a04f674	0.0005072125
223	0x39d0da14	0.00039835332
224	0xba70a289	-0.0009179493
225	0x3b09e7fd	0.0021042817
226	0x3ad19f14	0.0015992844
227	0x39e1340c	0.00042954122
228	0x3a1e1260	0.000602996
229	0xba4b4e1d	-0.0007755475
230	0x3a38873c	0.00070391945
231	0xba8fd792	-0.0010974279
232	0xba08b92b	-0.00052155805
233	0x3a8b79b8	0.0010641133
234	0xba667d2b	-0.0008792455
235	0xba42287b	-0.0007406545
236	0x3af3418c	0.0018558963
237	0xba6c477b	-0.0009013337
238	0x3b1293cd	0.0022365928
239	0xb865bf66	-5.477611e-05
240	0x3acc6135	0.0015592935
241	0xbb270e8e	-0.0025490853
242	0x3a5df1ab	0.0008466492
243	0xba46ca04	-0.0007583203
244	0x39985a7e	0.0002905912
245	0xba4f09d0	-0.00078978855
246	0xb9c92566	-0.00038365572
247	0xbafbf4d5	-0.0019222746
248	0x3ac04fc5	0.0014672211
249	0xb9f67dc0	-0.00047014467
250	0xba48f18f	-0.00076653896
251	0xb9d6bb6f	-0.0004095691
252	0xba83cfa4	-0.0010056389
253	0x3ae0e7e0	0.0017158948
254	0x39d79cf9	0.0004112495
255	0xb9cf5630	-0.0003954633

dist.1.linear.bias f4 [7]
0	0x00000000	0.0
1	0x00000000	0.0
2	0x00000000	0.0
3	0x00000000	0.0
4	0x00000000	0.0
5	0x00000000	0.0
6	0x00000000	0.0

dist.2.linear.weight f4 [7, 64]
0	0xba72d4e1	-0.0009263289
1	0x3aa73a3c	0.0012758444
2	0x3af248d5	0.001848484
3	0xba166ba7	-0.00057380873
4	0xbade4a86	-0.0016959466
5	0xbb2d734f	-0.0026466434
6	0x3a47db49	0.00076239236
7	0x3b4009ed	0.0029302791
8	0xb9c4e90b	-0.00037557664
9	0x39bf0c6a	0.00036439608
10	0x38683cdd	5.5369794e-05
11	0xb9986332	-0.00029065605
12	0x3a97be26	0.0011577054
13	0xba9603e4	-0.0011445251
14	0xbb034447	-0.002002971
15	0x3a4d8cbe	0.00078411016
16	0xbb55128b	-0.0032512273
17	0x3aa1d75d	0.0012347508
18	0x3a6e9d47	0.00091024156
19	0xb9918056	-0.00027752173
20	0x39f5336c	0.00046768354
21	0xbac79a81	-0.0015228541
22	0xba54fa8c	-0.00081244926
23	0xba2ee8a2	-0.0006672238
24	0xbae81f40	-0.0017709509
25	0xb9280694	-0.00016024179
26	0xbb0dc0bf	-0.0021629778
27	0x3a0c1677	0.00053439237
28	0x39d3a349	0.00040366713
29	0xb9d3ed06	-0.00040421652
30	0xba9537f3	-0.0011384472
31	0x3b3cef73	0.0028829246
32	0x398e9a37	0.0002719925
33	0x39cbb34e	0.0003885277
34	0x39d11a55	0.00039883205
35	0xb9e4e62c	-0.0004365904
36	0xb8f71078	-0.00011780945
37	0x3ae5ceb5	0.0017532917
38	0xbacbbec9	-0.0015544529
39	0xbaab17fb	-0.0013053411
40	0xba7c53f8	-0.00096255494
41	0xba77754a	-0.00094397797
42	0xba90c3d5	-0.0011044691
43	0xba95975b	-0.0011412905
44	0xba92c037	-0.00111962
45	0xbab7a1c5	-0.0014010003
46	0xba9b50a3	-0.0011849593
47	0x37ad7da2	2.068171e-05
48	0xba871a11	-0.0010307451
49	0x3aaa741d	0.0013004575
50	0x39128bde	0.0001397575
51	0xb9bf0bbe	-0.00036439107
52	0x391778ff	0.00014445557
53	0x39ca1ccb	0.00038549895
54	0xba863b82	-0.0010241123
55	0xba8e9af6	-0.0010879922
56	0xb98431be	-0.00025214063
57	0xba8a81f0	-0.0010567289
58	0x39f17577	0.0004605462
59	0xba847f87	-0.0010108807
60	0x39e29127	0.00043214226
61	0xb8a37b02	-7.795358e-05
62	0x3b2ad382	0.002606601
63	0x3a7c0e27	0.0009615146
64	0xbaed5a18	-0.0018108515
65	0xba45c046	-0.00075436046
66	0x39fd43ec	0.00048306526
67	0xba261894	-0.000633606
68	0xbaafcd59	-0.0013412639
69	0xb957eddb	-0.00020592606
70	0xbb3d539e	-0.002888895
71	0x3a4aaddc	0.00077315955
72	0x3a998125	0.0011711462
73	0xba18f9c0	-0.00058355555
74	0xba572295	-0.0008206752
75	0x39ee95d7	0.00045506537
76	0x3a728021	0.000925066
77	0x38de4b05	0.000105997584
78	0xba43d038	-0.00074696867
79	0xba46f018	-0.00075888773
80	0xba00e502	-0.00049169373
81	0x3add9ed9	0.0016908302
82	0xb98ceda2	-0.0002687993
83	0x3ada642c	0.0016661934
84	0xba355d21	-0.00069184793
85	0xbab55e9e	-0.0013837402
86	0x3a25c9c0	0.00063243136
87	0x3a5c5090	0.0008404339
88	0xb7c91347	-2.3970044e-05
89	0xba79b13b	-0.00095250056
90	0x39b92eae	0.0003532073
91	0xbad0021d	-0.001586977
92	0xba099cd2	-0.00052495033
93	0xb99f4a85	-0.00030382365
94	0xb8e29177	-0.00010803615
95	0xba527345	-0.0008028041
96	0xbaa0d1c1	-0.0012269543
97	0x3933a23c	0.00017131207
98	0x3a8f0310	0.0010910947
99	0x3a650df8	0.0008737738
100	0xb911dad5	-0.00013909799
101	0xb949cbad	-0.00019244729
102	0xbb1152e7	-0.0022174658
103	0xbb074ed4	-0.002064635
104	0x3a157178	0.0005700807
105	0x3a758e6c	0.0009367231
106	0x3b44f44a	0.0030052834
107	0x3ac8636f	0.0015288423
108	0x3a4316fe	0.0007442086
109	0x3a43ce34	0.00074693863
110	0x3a387c5e	0.0007037575
111	0xba497ec9	-0.0007686434
112	0xbb39a06b	-0.0028324376
113	0xbb21039a	-0.0024568797
114	0xba0ab3d3	-0.0005291078
115	0x3b0590ad	0.0020380423
116	0xb9f494a2	-0.00046650047
117	0xbb0e21d8	-0.0021687653
118	0x3913912d	0.00014073095
119	0x3a94340f	0.0011307019
120	0x3af197f8	0.0018432131
121	0xba9d13bb	-0.001198403
122	0xbaba89b3	-0.0014231711
123	0x3ab3e8ed	0.0013726034
124	0xbaa5d0aa	-0.0012650688
125	0xba14d3f4	-0.00056773354
126	0x3ac1d65c	0.0014788616
127	0xba86a702	-0.0010273161
128	0xbabdba6f	-0.0014475117
129	0x391aaffd	0.00014752145
130	0x3a0215bd	0.00049623457
131	0xb7ffe087	-3.0502923e-05
132	0xb908c623	-0.00013043782
133	0xb9ac998e	-0.00032920804
134	0x3afda838	0.0019352501
135	0x3b29574f	0.0025839393
136	0xbabd19cf	-0.0014427247
137	0xb9dfbdce	-0.0004267529
138	0x3aa4f977	0.0012586553
139	0x38d3c3e5	0.00010097752
140	0x3af95a7e	0.0019024161
141	0xb9b65ad5	-0.0003478142
142	0x3a130bef	0.0005609383
143	0x3a58c4ee	0.0008269091
144	0x3ace257b	0.0015727723
145	0xba9943a7	-0.0011693136
146	0x3a875b20	0.001032684
147	0x3aaf32d7	0.0013366592
148	0x3a1b7d29	0.0005931431
149	0x3abf5efb	0.001460045
150	0x3aa8a1be	0.0012865586
151	0xb9e09fc6	-0.0004284365
152	0xb93d7b30	-0.00018070335
153	0x3b098f44	0.0020989934
154	0x39f99055	0.00047600517
155	0x3a51a23d	0.00079968927
156	0xb844ab60	-4.6889647e-05
157	0xbb278db8	-0.0025566649
158	0xbb138d3b	-0.00225146
159	0x3af450f4	0.0018639849
160	0xbaff9f6a	-0.0019502465
161	0x3a9336b4	0.0011231513
162	0x3a3a9664	0.0007117747
163	0xb84972ee	-4.802917e-05
164	0xb8638ca0	-5.4251985e-05
165	0xba830604	-0.00099963
166	0xba292938	-0.00064529805
167	0x3a59ec8f	0.0008313143
168	0xba4c82a1	-0.00078014476
169	0xb923bc85	-0.0001561512
170	0x3a4de2af	0.0007853908
171	0xba07cbe6	-0.00051802245
172	0x3b1a3c69	0.0023534542
173	0x3aaed394	0.0013338202
174	0x3b050b71	0.002030101
175	0x3a6d1bf2	0.00090449967
176	0x3a0eaaf4	0.0005442344
177	0xb9fc764f	-0.00048153332
178	0xba2ceabb	-0.0006596257
179	0x3a91a66b	0.0011112218
180	0xbaf26dee	-0.0018495896
181	0x3a76edb7	0.00094195775
182	0x3b395e7c	0.0028285077
183	0xba090094	-0.00052262214
184	0xbaba8d61	-0.0014232808
185	0xba321099	-0.00067926344
186	0xba44bf06	-0.00075052714
187	0x3b1ff75f	0.002440892
188	0x3a862b62	0.0010236318
189	0xb9b73bc0	-0.00034948997
190	0xba493feb	-0.0007677066
191	0x39964d98	0.0002866804
192	0xba03ae0f	-0.000502319
193	0xb9aed169	-0.0003334389
194	0xbb431106	-0.0029764785
195	0x3a4ad40b	0.00077372853
196	0x39bd322f	0.0003608628
197	0x3ae035f0	0.0017105918
198	0x3af14967	0.0018408716
199	0x3b07b93b	0.0020709771
200	0x3aadaea2	0.0013250897
201	0x3ad2d0e5	0.0016083984
202	0xbade2ece	-0.0016951205
203	0x399a6464	0.00029447966
204	0x3ac4c5c4	0.0015012552
205	0xbad0e681	-0.0015937836
206	0xba5092d7	-0.0007956451
207	0x3acaf206	0.0015483506
208	0xb9f797bd	-0.00047224565
209	0xba6975a0	-0.0008905772
210	0x39704901	0.0002291538
211	0x3a3489a2	0.0006886964
212	0x3a17f84d	0.00057971926
213	0x3a862834	0.001023537
214	0xb9abb09c	-0.00032747246
215	0xb8fc86f7	-0.000120414355
216	0xb93b6c8e	-0.0001787415
217	0x37cd7d58	2.4496272e-05
218	0x3acf4821	0.0015814343
219	0xb97d3147	-0.00024146317
220	0x38a80dfc	8.013469e-05
221	0x3b3730ce	0.0027952674
222	0x3a76aa30	0.0009409515
223	0xba82d0e8	-0.0009980472
224	0x3a735746	0.0009282719
225	0xb9107485	-0.00013776317
226	0x3a61fe64	0.0008620976
227	0x3b1fe316	0.0024396828
228	0x3a72b773	0.00092589034
229	0xb9fb84e7	-0.0004797347
230	0x3a3b455e	0.00071438204
231	0xba2dafc2	-0.0006625616
232	0xbb3cd087	-0.0028810815
233	0x3a4f6242	0.0007911065
234	0xba9af02c	-0.0011820844
235	0xba893e71	-0.001047088
236	0xba23d829	-0.0006250167
237	0xb98efa34	-0.00027270766
238	0xb9bbf527	-0.00035850072
239	0x3b14ff5d	0.0022735216
240	0xbb030401	-0.00199914
241	0xba7f9109	-0.000974909
242	0x3a362fa6	0.0006949849
243	0x38d0ca5d	9.955906e-05
244	0x39ddb88c	0.00042289903
245	0x3b225820	0.0024771765
246	0xb9fe53de	-0.0004850914
247	0x3aa14a38	0.0012305444
248	0xb9ec84e2	-0.00045112433
249	0xbae30f65	-0.0017323314
250	0xba73e1b4	-0.0009303347
251	0x3a839a87	0.001004056
252	0xba8c6842	-0.0010712224
253	0x39c7fa9d	0.0003814296
254	0x3a430a8d	0.0007440232
255	0xbaad6c81	-0.0013231189

dist.2.linear.bias f4 [7]
0	0x00000000	0.0
1	0x00000000	0.0
2	0x00000000	0.0
3	0x00000000	0.0
4	0x00000000	0.0
5	0x00000000	0.0
6	0x00000000	0.0
