BLIP/RL/trained_models/ppo/2023-10-19_minigrid-redbluedoor-lavagap-doorkey-wallgap_fine-tuning_345678_task_3.pth (torch, 732265 bytes, 16 tensors)

features.actor.0.weight f4 [64, 2739]
0.08568383 0.08868658 -0.17431611 0.16325632 0.08413453 -0.1364349 -0.05105587 -0.066185884
0.1254091 0.36230686 0.106140755 -0.023726821 0.31820866 0.12208197 -0.26600227 0.34606516
0.00066470646 -0.20898063 0.28247282 -0.3363344 0.46337876 0.061395194 0.013191072 -0.047820408
0.074191764 0.03221908 -0.18255837 0.019433774 0.007124413 0.021147525 -0.24170457 -0.013539269
-0.053965423 -0.11645835 0.27477598 -0.11935482 0.052247252 0.08438788 -0.010205121 -0.41104808
-0.23099655 -0.30874005 0.047667373 0.01259953 -0.2791126 0.12135065 -0.049355082 -0.020867096
-0.07143282 0.07161066 -0.030025547 -0.01743142 0.34752688 -0.025698725 0.37489757 0.44649756
-0.0990686 0.20102854 -0.12922592 -0.13205707 0.26334795 -0.051980898 0.01792802 0.0408592
-0.054610383 -0.13418178 0.096257955 -0.06686241 -0.014372756 -0.047956437 0.035800915 0.22075252
0.2099028 0.16171308 0.017733669 -0.6857929 0.17702422 -0.11862261 -0.15200755 -0.05044148
0.26106003 -0.37214023 -0.45809838 0.02542957 0.07173009 0.03448828 -0.23291174 0.09657769
0.11169075 -0.1645788 -0.110968135 -0.07102644 -0.0004920516 0.1933867 0.45871446 0.029030576
0.3050036 0.049956553 0.030186271 -0.07451488 -0.07719347 -0.17419615 0.12282159 0.60817957
-0.044943906 0.024901876 -0.073180586 -0.0033131212 0.08666487 -0.0046526436 -0.15065715 -0.6137363
-0.57240283 -0.06639301 -0.06909481 -0.08260067 -0.17739308 0.014493314 -0.016693644 -0.14168003
-0.12070141 -0.6761132 0.23991026 -0.47173518 -0.3455469 0.094835564 0.10341624 0.061699465
-0.09310986 0.04688543 0.013566274 -0.15548123 -0.5807858 -0.6323206 0.030126963 -0.13326801
-0.19170418 -0.23701897 0.00841135 -0.18633506 0.09507706 -0.28196123 -0.24655303 0.08605787
-0.5535682 -0.6116633 0.18383187 0.15190119 -0.0039017599 0.039074972 -0.03846381 0.00038000615
-0.022949602 0.0047352007 0.032712195 0.02976088 0.042047836 -0.058452398 -0.018651588 0.02271708
0.015170175 0.06056232 -0.007452534 -0.029327992 -0.018454751 -0.012055351 0.0055232146 0.16474955
-0.0033859825 -0.019422036 0.04347722 0.0093952445 0.006637038 0.0070528085 0.00068639015 -0.020719172
0.012730893 0.010610071 0.014628428 0.02417243 -0.023137145 -0.038453292 -0.08187729 0.02618229
0.0042227274 -0.06990398 -0.0037203096 0.02982033 0.042130847 0.08396615 -0.0032209863 -0.05799838
0.18759541 -0.03896918 -0.011824721 0.17914042 0.021601565 0.0049585877 -0.015149142 -0.028715324
-0.03129925 0.02492094 0.010363654 -0.06049666 -0.019495543 0.2580903 -0.020356791 -0.0033672424
-0.01941005 0.010923859 -0.050816063 -0.019486396 -0.009753521 -0.00866043 -0.040222716 0.14766932
0.013804884 0.02894186 -0.0024302846 0.045724824 -0.0108464435 -0.01713333 0.030435178 0.037412442
0.029065728 0.029196749 0.013806499 -0.06814618 -0.015613049 -0.050559584 0.023111472 -0.021861877
-0.023080701 0.0393097 0.031779077 -0.01983891 0.12281282 0.07686838 0.0045021875 0.031740084
0.036518063 0.052260518 0.0074581685 0.016949818 0.020551752 0.0016856836 0.0025707972 -0.021834569
0.031886443 0.011955021 -0.011688076 -0.013474175 -0.042743787 -0.0093802735 0.1474048 -0.02817606
00000000: 017b af3d 4fa1 b53d ec7f 32be aa2c 273e
00000010: b94e ac3d 97b5 0bbe f61f 51bd 778c 87bd
00000020: 3e6b 003e 4980 b93e 5360 d93d c05e c2bc
00000030: 3fec a23e 1d06 fa3d 7331 88be 742f b13e
00000040: b23f 2e3a 05ff 55be 47a0 903e 0634 acbe
00000050: fb3f ed3e 8779 7b3d 5e1f 583c 55df 43bd
00000060: daf1 973d 27f8 033d 95f0 3abe 9433 9f3c
00000070: e873 e93b 933d ad3c 6781 77be cfd3 5dbc
00000080: d90a 5dbd b781 eebd 70af 8c3e 4d70 f4bd
00000090: 3701 563d 8ed3 ac3d 6133 27bc e574 d2be
000000a0: 5c8a 6cbe 2d13 9ebe dd3e 433d 426e 4e3c
000000b0: d9e7 8ebe b186 f83d 8e28 4abd 79f1 aabc
000000c0: 5f4b 92bd 9ca8 923d 23f8 f5bc 56cc 8ebc
000000d0: 0bef b13e 2286 d2bc 93f2 bf3e 549b e43e
000000e0: 7ae4 cabd 6dda 4d3e cd53 04be f839 07be
000000f0: 8bd5 863e ece9 54bd c8dd 923c fa5b 273d
00000100: 23af 5fbd f366 09be e422 c53d 29ef 88bd
00000110: b57b 6bbc f86d 44bd fba3 123d f30c 623e
00000120: c2f0 563e 1d98 253e 3346 913c 2090 2fbf
00000130: d645 353e 69f0 f2bd dea7 1bbe ba9b 4ebd
00000140: a9a9 853e 2a89 bebe df8b eabe ac51 d03c
00000150: 3ae7 923d 9543 0d3d 6a80 6ebe 86ca c53d
00000160: 1fbe e43d 5887 28be 4343 e3bd 4f76 91bd
00000170: 06fd 00ba 2a07 463e 9fdc ea3e 88d1 ed3c
00000180: 6f29 9c3e 3e9f 4c3d 3349 f73c 429b 98bd
00000190: 9c17 9ebd 7a60 32be e389 fb3d a8b1 1b3f
000001a0: 1a17 38bd 05ff cb3c b4df 95bd f320 59bb
000001b0: 5a7d b13d 3475 98bb de45 1abe d21d 1dbf
000001c0: fe88 12bf 0ff9 87bd 9481 8dbd 8a2a a9bd
000001d0: 88a6 35be 5d75 6d3c 1cc1 88bc 9214 11be
000001e0: 4d32 f7bd c115 2dbf 09ab 753e 4687 f1be
000001f0: 86eb b0be 2639 c23d e5cb d33d 94b8 7c3d
00000200: 62b0 bebd f00a 403d 1445 5e3c 7936 1fbe
00000210: 61ae 14bf c3df 21bf d2cc f63c 6977 08be
00000220: 1a4e 44be 1ab5 72be c2cf 093c 9ece 3ebe
00000230: c3b7 c23d 395d 90be 6678 7cbe 1c3f b03d
00000240: a5b6 0dbf f795 1cbf 6c3e 3c3e fc8b 1b3e
00000250: abb4 7fbb 140d 203d 3a8c 1dbd 903b c739
00000260: ce00 bcbc be29 9b3b 39fd 053d 17cd f33c
00000270: 5a3a 2c3d c86b 6fbd 37cb 98bc 2b19 ba3c
00000280: 538c 783c 3210 783d 6334 f4bb 4241 f0bc
00000290: 6b2e 97bc cf83 45bc 15fc b43b 1bb4 283e
000002a0: 5ce7 5dbb f61a 9fbc 2b15 323d 83ee 193c
000002b0: 837b d93b 3f1b e73b ddee 333a 41bb a9bc
000002c0: 3c95 503c ddd5 2d3c 13ac 6f3c 4305 c63c
000002d0: 1c8a bdbc 3381 1dbd 48af a7bd 3e7c d63c
000002e0: ce5e 8a3b d129 8fbd 70d0 73bb c449 f43c
000002f0: 6591 2c3d 72f6 ab3d 2f17 53bb b68f 6dbd
00000300: 0319 403e 269e 1fbd 79bc 41bc 9670 373e
00000310: c4f5 b03c a67b a23b 1b34 78bc 663c ebbc
00000320: a433 00bd 0027 cc3c 51cc 293c 59cb 77bd
00000330: 1eb5 9fbc 6924 843e 49c3 a6bc f4ac 5cbb
00000340: d301 9fbc fcf9 323c 8124 50bd efa1 9fbc
00000350: 3bcd 1fbc 7ae4 0dbc 93c0 24bd a036 173e
00000360: e12d 623c 7b17 ed3c 6945 1fbb f449 3b3d
00000370: 48b5 31bc 335b 8cbc 3253 f93c ca3d 193d
00000380: 401b ee3c 052e ef3c a734 623c 3990 8bbd
00000390: e0cd 7fbc 9117 4fbd 4554 bd3c ae17 b3bc
000003a0: bd13 bdbc 3503 213d c72a 023d 3685 a2bc
000003b0: 4a85 fb3d 2b6d 9d3d 1687 933b e401 023d
000003c0: f793 153d 200f 563d a763 f43b 58da 8a3c
000003d0: 265c a83c 28f2 dc3a d27a 283b 69de b2bc
000003e0: 5c9b 023d fede 433c 587f 3fbc c9c2 5cbc
000003f0: 1c14 2fbd b8af 19bc 49f1 163e 7bd1 e6bc

features.actor.0.bias f4 [64]
0.5340563 -0.2968076 -0.25559077 -0.02714739 1.5592923 -0.6889001 0.34061652 -1.2574593
0.1053101 0.46815118 0.65038645 -0.04992072 0.36094198 0.18073972 -0.6794726 0.48291594
-0.99600905 -0.7156939 0.25172442 -0.35660478 0.3485883 0.5986867 -0.01822447 0.7774013
-0.15010984 0.50812966 -0.886235 0.6972575 0.4707606 0.23604538 -0.46892455 0.3274357
-0.053675983 0.4603643 0.09732736 -1.0712329 -0.264745 -0.0126557015 -0.1527515 -0.4402225
0.06000598 0.11672831 0.32997268 0.31453326 0.3624657 -1.0773575 0.29045832 0.20776567
0.5829174 -0.42865205 -0.5427181 -0.17093983 -1.2520553 -0.6903839 -0.8599744 -0.5007319
-0.7124513 0.11107514 0.8519829 0.46021494 0.9512321 0.07222981 -0.3267332 -0.43915647
00000000: eab7 083f 2af7 97be cbdc 82be 3464 debc
00000010: e496 c73f c25b 30bf 4a65 ae3e 6df4 a0bf
00000020: d2ac d73d 83b1 ef3e ba7f 263f ab79 4cbd
00000030: 63cd b83e d513 393e ebf1 2dbf c240 f73e
00000040: 73fa 7ebf b737 37bf 06e2 803e e794 b6be
00000050: 2a7a b23e 8843 193f 7c4b 95bc c603 473f
00000060: 65b6 19be c914 023f 4ce0 62bf 787f 323f
00000070: 8907 f13e e1b5 713e e116 f0be a7a5 a73e
00000080: 59db 5bbd dfb4 eb3e 9153 c73d 291e 89bf
00000090: a88c 87be dc59 4fbc e46a 1cbe d864 e1be
000000a0: d5c8 753d 410f ef3d 2ef2 a83e 810a a13e
000000b0: 1b95 b93e dae6 89bf f4b6 943e 86c0 543e
000000c0: 133a 153f 4878 dbbe 93ef 0abf da0a 2fbe
000000d0: 5943 a0bf 00bd 30bf 4827 5cbf f72f 00bf
000000e0: 3563 36bf 5d7b e33d 8d1b 5a3f 4ba1 eb3e
000000f0: f283 733f 39ed 933d 9349 a7be 1ed9 e0be

features.actor.2.weight f4 [64, 64]
-0.17496485 0.29273793 0.9866434 0.3408173 0.23784411 0.19600016 -0.058218993 0.350978
0.13646401 -0.7528989 0.7541843 -0.21081968 -0.3378035 -0.09787864 -0.3253941 -0.2777652
-0.36887518 -0.31851044 -0.38204753 0.37385523 -0.55605733 -0.2380807 -0.31273732 0.09313777
-0.039040152 0.096049055 -0.2605734 -0.33996502 -0.42225707 -0.06506468 1.0048875 0.16140446
-0.20973517 0.80543786 0.13254255 -0.6263302 -0.01568856 0.28426182 -0.14682934 0.028415797
-0.5529662 0.055417944 0.065093406 -0.3680105 -0.6720594 0.124101795 0.023272043 -0.38092223
-0.7668669 -0.3143142 -0.10008885 0.22820036 0.4203628 0.8109821 -0.20343655 -0.17206278
0.018934086 -0.16567026 -0.77807903 0.027810039 -0.014454943 -0.021526309 -0.66704 -0.09830659
0.17773424 0.15782371 0.19857067 -0.58044344 -0.89160246 0.14363477 0.0947809 -0.111645706
-0.63603663 -0.5975854 -0.08240981 -0.11556828 -0.020029482 -0.08134203 -0.5461574 0.06426519
0.2941107 -0.32021058 0.25075668 -0.050992597 -0.2717657 0.1484325 -0.17578658 -0.86719215
0.59128743 0.2552257 0.3535408 0.2206854 0.3156222 0.21314897 0.42681694 -0.10044445
-0.10593662 0.5698834 -0.08854984 0.18129773 -0.12335591 0.3641314 -0.31559965 0.37580943
-0.17944564 0.57470024 -0.75190663 0.6138329 -0.04699854 -0.49095166 0.09395416 -0.36930594
0.4906822 0.47829264 0.06965883 0.22674978 -0.16865769 0.38803247 0.097080186 0.6750876
-0.2938314 0.6061605 -0.31869912 -0.40577272 -0.13291441 -0.013776629 0.46427447 0.5445438
-0.32028568 0.71442705 -0.55170995 -0.23009147 0.06257611 -0.6118747 -0.19111013 -0.2656266
0.15601413 0.14607394 -0.69858974 0.29950175 -0.1525459 -0.1024032 -0.16269027 0.3419453
0.1757525 0.0370279 -0.19124483 0.0055012666 -0.88398945 0.11877116 -0.060172778 0.32506627
0.16507131 -0.48659086 0.09761475 -0.17704964 0.2672387 -0.09170341 -0.15243737 -0.64039177
0.7643212 0.28899437 -0.062093064 -0.31433558 -0.3767134 0.21571134 -0.19628714 -0.45589557
0.6864757 0.20568755 0.014507729 -0.0544439 0.77433735 -0.7180597 -0.48662323 0.7376646
-0.08132797 0.014075477 -0.4188356 -0.14641732 0.034072023 0.13046502 -0.12984127 0.58245414
-0.58224535 0.32111755 -0.13549358 0.25606012 0.022672912 -0.43447283 -0.58383375 0.9166241
-0.1816533 0.17637081 0.48715854 -0.063131295 -0.07713715 -0.11734571 -0.036163285 0.22173347
-0.2950888 0.39448377 0.5088695 -0.3180212 -0.15380068 0.47289386 -0.6755167 -0.7518413
-0.2125604 -0.12631643 0.032227803 0.15442544 -0.7000655 -0.14146161 0.05324728 -0.03952287
0.23644415 -0.09360746 -0.043489683 -0.06170304 0.3561675 0.05141027 0.34987065 -0.41455865
-0.026015589 0.057951495 -0.21517523 -0.6445724 -0.1747401 0.2371954 -0.12827466 1.0848355
-0.6083501 0.16319042 -0.016083112 0.34488466 0.68659073 -0.1829814 0.19801266 -0.05444812
0.34295395 -0.38770306 -0.57231736 -0.119586684 0.11021085 -0.1940993 -0.20454057 -0.37897527
-0.5419308 0.07171276 0.31506 1.0095176 0.7029842 0.08479279 -0.036204465 -0.499303
00000000: fc29 33be bfe1 953e a994 7c3f 9b7f ae3e
00000010: 688d 733e 44b4 483e 0a77 6ebd 63b3 b33e
00000020: 39bd 0b3e fbbd 40bf 3912 413f 1de1 57be
00000030: 95f4 acbe 9974 c8bd 0e9a a6be 3e37 8ebe
00000040: 35dd bcbe cd13 a3be bc9b c3be f469 bf3e
00000050: c659 0ebf 6dcb 73be 1b1f a0be 04bf be3d
00000060: 91e8 1fbd 5eb5 c43d e069 85be e50f aebe
00000070: 1432 d8be a240 85bd 27a0 803f 3647 253e
00000080: d1c4 56be 2d31 4e3f 3cb9 073e 2d57 20bf
00000090: 4c85 80bc c48a 913e 6e5a 16be 3fc8 e83c
000000a0: 318f 0dbf edfd 623d b14f 853d df6b bcbe
000000b0: 160c 2cbf 1529 fe3d 03a5 be3c 3d08 c3be
000000c0: 6451 44bf caed a0be 62fb ccbd 5bad 693e
000000d0: cb39 d73e 869c 4f3f ac51 50be 3a31 30be
000000e0: a81b 9b3c 77a5 29be 3030 47bf e1d1 e33c
000000f0: 6dd4 6cbc f157 b0bc 22c3 2abf f754 c9bd
00000100: f7ff 353e 8a9c 213e 1c56 4b3e f197 14bf
00000110: 0f40 64bf fe14 133e 7d1c c23d 81a6 e4bd
00000120: 4cd3 22bf 5bfb 18bf 79c6 a8bd 10af ecbd
00000130: de14 a4bc a696 a6bd f9d0 0bbf 789d 833d
00000140: ad95 963e a4f2 a3be 2e63 803e 9ddd 50bd
00000150: e024 8bbe b0fe 173e 6601 34be 4e00 5ebf
00000160: 9d5e 173f f1ac 823e 4d03 b53e 5afb 613e
00000170: 3c99 a13e b943 5a3e c087 da3e d2b5 cdbd
00000180: 4cf5 d8bd e1e3 113f 9e59 b5bd 1da6 393e
00000190: 06a2 fcbd 6e6f ba3e 4796 a1be 186a c03e
000001a0: 99c0 37be 8e1f 133f f47c 40bf 2724 1d3f
000001b0: 8b81 40bd 045e fbbe 0a6b c03d ab15 bdbe
000001c0: b33a fb3e c6e2 f43e 4aa9 8e3d 1831 683e
000001d0: 9ab4 2cbe 31ac c63e fad1 c63d 8ad2 2c3f
000001e0: 1271 96be 562d 1b3f 882c a3be 71c1 cfbe
000001f0: b71a 08be 5fb7 61bc 62b5 ed3e 3967 0b3f
00000200: 7cfc a3be b1e4 363f dd3c 0dbf 199d 6bbe
00000210: e727 803d d2a3 1cbf 60b2 43be 3600 88be
00000220: 2bc2 1f3e 6894 153e c7d6 32bf 4b58 993e
00000230: fe34 1cbe c5b8 d1bd 4798 26be 7413 af3e
00000240: 77f8 333e 91aa 173d afd5 43be f843 b43b
00000250: 224d 62bf 4b3e f33d bb77 76bd 166f a63e
00000260: 7408 293e 7022 f9be 3eea c73d 804c 35be
00000270: 83d3 883e ffce bbbd 8b18 1cbe b7f0 23bf
00000280: 8eaa 433f 12f7 933e 4c55 7ebd 98f0 a0be
00000290: 94e0 c0be 6fe3 5c3e 7fff 48be 256b e9be
000002a0: dfbc 2f3f c29f 523e d3b1 6d3c 9100 5fbd
000002b0: f93a 463f c3d2 37bf ae26 f9be 96d7 3c3f
000002c0: 478f a6bd d49c 663c 9f71 d6be 6cee 15be
000002d0: 1b8f 0b3d 9f98 053e 1cf5 04be b71b 153f
000002e0: 080e 15bf 8569 a43e d4be 0abe 501a 833e
000002f0: 8bbc b93c 3973 debe 2176 15bf e1a7 6a3f
00000300: 5303 3abe 8d9a 343e d86c f93e fb4a 81bd
00000310: 15fa 9dbd f352 f0bd f41f 14bd 190e 633e
00000320: e115 97be c7f9 c93e 4645 023f add3 a2be
00000330: ed7d 1dbe 251f f23e aaee 2cbf ac78 40bf
00000340: 6fa9 59be 1859 01be 4d01 043d b421 1e3e
00000350: 7e37 33bf 50db 10be d219 5a3d bce2 21bd
00000360: 6a1e 723e 45b5 bfbd 3d22 32bd 54bc 7cbd
00000370: 965b b63e 9393 523d 3f22 b33e 0841 d4be
00000380: a51e d5bc 8c5e 6d3d e556 5cbe b202 25bf
00000390: 12ef 32be 5ae3 723e 6f5a 03be e4db 8a3f
000003a0: d5bc 1bbf 641b 273e bbc0 83bc b994 b03e
000003b0: 69c4 2f3f 7a5f 3bbe d5c3 4a3e fe04 5fbd
000003c0: a997 af3e 0481 c6be 6483 12bf dde9 f4bd
000003d0: 3ab6 e13d f8c1 46be 1573 51be 0c09 c2be
000003e0: fabb 0abf 24de 923d 8b4f a13e df37 813f
000003f0: c6f6 333f d8a7 ad3d 224b 14bd a5a4 ffbe

features.actor.2.bias f4 [64]
-0.19293936 0.053286284 0.3542748 0.0474386 -1.3094939 -0.5097811 -0.079897456 -1.9123955
0.08418302 -0.35233232 -0.9158853 0.008443181 2.3953388 0.027698696 -0.42332387 -0.27733248
-0.20953612 -0.4100322 -0.5630879 -2.0253146 0.8297539 0.46598217 0.10637499 0.7026887
1.5714897 0.805074 0.082546175 1.7046219 0.45539653 -1.1248099 1.1898237 2.0338159
-0.50048965 0.34778905 -0.47569698 -0.54652727 -2.2419708 -0.81423634 0.027688213 -0.2203702
-0.10752655 -0.39103356 -0.061777346 -0.3491262 -0.2718118 0.7068996 -0.16689761 0.1506673
-0.29413292 -0.96370155 -0.21225682 1.000385 -0.25122494 -1.9670287 0.5109161 0.6122834
0.49460202 -0.17959066 -0.109253004 -0.4497782 0.8613066 0.48760527 0.061937112 0.518722
00000000: e591 45be b842 5a3d 8263 b53e fa4e 423d
00000010: 7f9d a7bf 0481 02bf 47a1 a3bd 60c9 f4bf
00000020: 2668 ac3d e764 b4be 7677 6abf 4555 0a3c
00000030: 3b4d 1940 60e8 e23c e8bd d8be 86fe 8dbe
00000040: a390 56be beef d1be 8726 10bf c19e 01c0
00000050: c06a 543f 3795 ee3e 21db d93d 68e3 333f
00000060: 9326 c93f 5419 4e3f f80d a93d 0d31 da3f
00000070: bc29 e93e c5f9 8fbf 254c 983f 0a2a 0240
00000080: 1720 00bf 6811 b23e 8e8e f3be 36e9 0bbf
00000090: 737c 0fc0 cb71 50bf 64d2 e23c baa8 61be
000000a0: e136 dcbd 8d35 c8be 3e0a 7dbd abc0 b2be
000000b0: eb2a 8bbe 5ff7 343f 35e7 2abe 8748 1a3e
000000c0: 9798 96be 25b5 76bf da59 59be 9e0c 803f
000000d0: 8ea0 80be 99c7 fbbf 66cb 023f 9bbe 1c3f
000000e0: 7a3c fd3e 9de6 37be 0ac0 dfbd 5449 e6be
000000f0: 977e 5c3f 66a7 f93e c5b1 7d3d f7ca 043f

critic.0.weight f4 [1, 64]
-0.22425926 -0.021933878 -0.16984527 -0.13677795 -0.3464146 0.073198244 -0.21506436 -0.16457693
0.15560175 -0.18909715 -0.2281476 -0.090307966 0.42991862 -0.034774885 0.061422046 0.042723764
-0.09361897 -0.15353812 -0.18967868 -0.39994633 0.28049365 0.059748862 0.021423036 0.21470134
0.14484724 0.07592426 0.041407164 -0.009045179 0.012288128 -0.21400821 -0.10026285 0.37661827
-0.07379475 0.21196026 -0.044526402 0.09875844 -0.38090926 -0.32176122 0.17150038 -0.02950861
-0.11686334 -0.12368127 0.050442524 0.083046705 -0.043031264 0.07403683 0.13584444 0.21626928
-0.02297081 -0.266978 -0.1305584 0.4207235 -0.149408 -0.08079752 0.029639715 0.13028184
-0.21464153 -0.066126056 -0.07539078 -0.031223001 0.36581537 0.20471884 -0.20994999 0.12461528
00000000: 38a4 65be adae b3bc ebeb 2dbe 850f 0cbe
00000010: 415d b1be f6e8 953d d539 5cbe db86 28be
00000020: 1156 1f3e afa2 41be 869f 69be 62f3 b8bd
00000030: 4b1e dc3e 1c70 0ebd af95 7b3d 1dff 2e3d
00000040: 4dbb bfbd 1939 1dbe 213b 42be c4c5 ccbe
00000050: dd9c 8f3e 39bb 743d 5d7f af3c abda 5b3e
00000060: d652 143e 2e7e 9b3d 8f9a 293d 3b32 14bc
00000070: 2554 493c f824 5bbe 9c56 cdbd 1cd4 c03e
00000080: b421 97bd 1c0c 593e 5161 36bd dd41 ca3d
00000090: 8a06 c3be e3bd a4be cc9d 2f3e 0abc f1bc
000000a0: 0c56 efbd 9b4c fdbd d29c 4e3d 6414 aa3d
000000b0: 8d41 30bd 9fa0 973d ce1a 0b3e b275 5d3e
000000c0: 482d bcbc 57b1 88be 1ab1 05be 1269 d73e
000000d0: 69fe 18be 2c79 a5bd fdce f23c 9a68 053e
000000e0: fdca 5bbe 196d 87bd 7b66 9abd 61c7 ffbc
000000f0: 274c bb3e d1a1 513e 21fd 56be 4c36 ff3d

critic.1.weight f4 [1, 64]
0.17856047 0.25023943 0.0681215 -0.12685417 -0.10610449 -0.13493675 -0.17790876 -0.27153426
0.3609288 -0.17822811 -0.17901625 0.06407078 0.46400812 0.06437119 -0.1858899 0.04551607
0.18746108 -0.18266506 0.18798064 -0.35386965 0.28603506 0.1156302 0.07950942 0.23541628
0.24899499 0.20629673 -0.36755416 -0.13260484 0.31255257 -0.39380842 -0.025996614 -0.050107244
-0.45861945 0.20161773 -0.20910524 0.05150839 -0.42396605 0.024552952 0.089426704 -0.20067741
-0.3185981 0.017120846 0.18318199 -0.08437581 0.024495054 0.09822092 0.17743094 0.04851647
0.12837607 0.0017579865 0.1850912 0.21598887 -0.075249076 -0.53920776 0.07779923 0.3702084
0.15103641 -0.23861508 -0.12737858 -0.02840558 -0.0007799915 0.17751275 0.18052872 0.32874823
00000000: 8ed8 363e 621f 803e 4983 8b3d 0fe6 01be
00000010: 504d d9bd dc2c 0abe b72d 36be 8a06 8bbe
00000020: a9cb b83e 6e81 36be 0950 37be 8b37 833d
00000030: 7992 ed3e 0bd5 833d ec59 3ebe 0f6f 3a3d
00000040: ccf5 3f3e 8d0c 3bbe ff7d 403e 672e b5be
00000050: 3073 923e 87cf ec3d d6d5 a23d f710 713e
00000060: 8bf8 7e3e 733f 533e 0f30 bcbe 90c9 07be
00000070: e406 a03e 42a1 c9be daf6 d4bc 413d 4dbd
00000080: 2bd0 eabe e174 4e3e af1f 56be 76fa 523d
00000090: 1412 d9be 4623 c93c 5925 b73d 617e 4dbe
000000a0: 4a1f a3be 0441 8c3c 0f94 3b3e 3acd acbd
000000b0: daa9 c83c 0d28 c93d 75b0 353e 35b9 463d
000000c0: 0475 033e 3d6c e63a 8c88 3d3e 302c 5d3e
000000d0: 301c 9abd 8509 0abf 3455 9f3d f58b bd3e
000000e0: 4aa9 1a3e 8357 74be 886f 02be d2b2 e8bc
000000f0: 5878 4cba e7c5 353e 85dc 383e b051 a83e

critic.2.weight f4 [1, 64]
-0.034927905 0.009984273 0.026016288 0.03984814 -0.16465448 -0.010717964 -0.038562503 -0.25323257
-0.042144466 0.008742824 -0.007818722 -0.022388956 0.61794937 0.041358657 -0.03193249 -0.058403663
0.024305977 -0.0028326237 -0.010222577 -0.4163006 0.01378213 -0.034957778 0.0504892 0.08140159
0.13298276 0.056393825 -0.022791682 0.26426825 0.040000826 -0.11384205 0.08253098 0.19593014
-0.029076733 0.010586385 0.034377486 -0.054270964 -0.6743497 -0.09353278 -0.030889036 0.006847994
-0.021235691 -0.012791005 -0.06977511 -0.04367559 -0.004804118 0.10519374 -0.06440846 0.04587533
-0.050547272 -0.071126156 -0.057261117 0.024065603 0.03734169 -0.5895376 0.013696642 -0.029399717
0.075035885 0.02362441 -0.028347844 0.01866321 0.026987113 0.05102899 0.00044761464 -0.00089858554
00000000: 9010 0fbd 1495 233c 1c20 d53c ce37 233d
00000010: 2f9b 28be 669a 2fbc b7f3 1dbd b3a7 81be
00000020: ad9f 2cbd 103e 0f3c 191a 00bc 0b69 b7bc
00000030: ee31 1e3f b267 293d a5cb 02bd ae38 6fbd
00000040: 541d c73c 8aa3 39bb 987c 27bc 5a25 d5be
00000050: 71ce 613c e32f 0fbd c3cd 4e3d e0b5 a63d
00000060: a22c 083e 36fd 663d 9fb5 babc 2b4e 873e
00000070: e8d7 233d 0526 e9bd 0106 a93d e9a1 483e
00000080: 5432 eebc 8472 2d3c 68cf 0c3d 3b4b 5ebd
00000090: 2fa2 2cbf 1d8e bfbd 010b fdbc 2365 e03b
000000a0: 79f6 adbc 5d91 51bc 41e6 8ebd 2de5 32bd
000000b0: dd6b 9dbb d16f d73d 95e8 83bd c5e7 3b3d
000000c0: a80a 4fbd 97aa 91bd a28a 6abd 3a25 c53c
000000d0: 9af3 183d f0eb 16bf e167 603c add7 f0bc
000000e0: 6aac 993d fb87 c13c bd39 e8bc 97e3 983c
000000f0: 1414 dd3c c603 513d d2ad ea39 0e8f 6bba

critic.3.weight f4 [1, 64]
0.011893162 0.026446523 0.012462445 0.0019883285 -0.05047559 -0.054320455 0.036021177 -0.3061896
0.03685134 -0.0066748788 -0.024066227 -0.008372068 0.311883 0.044844348 0.02873047 0.002708276
0.0067295614 0.03634135 -0.03632493 -0.18581474 -0.061148185 0.05403902 -0.020297082 0.079968736
0.40351933 -0.01034116 0.03133836 0.3315874 0.022673938 0.043400466 0.09107352 0.39928737
-0.020652937 -0.043276332 -0.0053329216 0.003213981 -0.4405687 0.03181338 0.053823747 0.016402496
-0.019666687 0.028989473 -0.020944692 0.03789546 -0.016403172 0.02235485 -0.012410027 0.02759532
-0.03183504 -0.022443622 -0.013416438 0.048397914 0.0017057889 -0.36645406 -0.016753947 -0.03283368
0.019933267 0.023983672 0.02508841 0.013054782 -0.008054324 -0.006606213 0.02185718 0.025443684
00000000: 89db 423c 61a6 d83c 482f 4c3c 9e4e 023b
00000010: 7ebf 4ebd 207f 5ebd f18a 133d e2c4 9cbe
00000020: 6ef1 163d f1b8 dabb 8926 c5bc 002b 09bc
00000030: 21af 9f3e b5ae 373d 2a5c eb3c 557d 313b
00000040: a783 dc3b abda 143d 73c9 14bd 3846 3ebe
00000050: 8576 7abd 0558 5d3d 1146 a6bc a6c6 a33d
00000060: 169a ce3e f86d 29bc a75c 003d d3c5 a93e
00000070: b2be b93c b0c4 313d c184 ba3d 656f cc3e
00000080: 5930 a9bc 8642 31bd cabf aebb a7a1 523b
00000090: 3892 e1be bf4e 023d 4a76 5c3d 875e 863c
000000a0: 081c a1bc 557b ed3c 3494 abbc 4538 1b3d
000000b0: f25f 86bc 8521 b73c 6d53 4bbc 950f e23c
000000c0: 7565 02bd b0db b7bc 9fd0 5bbc e43c 463d
000000d0: c794 df3a de9f bbbe 933f 89bc 9c7c 06bd
000000e0: 174b a33c 6879 c43c 3686 cd3c b9e3 553c
000000f0: 49f6 03bc ee78 d8bb d40d b33c 466f d03c

dist.0.linear.weight f4 [7, 64]
-0.20703813 -0.21810666 0.4256559 -0.20934975 0.0719211 -0.37872562 0.3767575 -0.2200172
0.0471879 0.0731328 -0.022126347 0.5123258 0.1016089 -0.15388575 -0.2638056 -0.07592415
-0.17600779 -0.041903745 -0.054304432 -0.15095101 0.18716435 -0.036374956 0.111404866 0.096544504
0.16445528 -0.07775706 0.43066853 -0.24236889 0.24621505 -0.024858745 -0.2524214 0.1533843
0.32452655 0.13658348 -0.08859759 -0.18511552 -0.048982866 0.011530461 -0.12484878 -0.17699112
-0.271431 -0.22028649 0.08276861 -0.67950785 0.41414103 0.51395667 0.21665551 -0.019590547
0.3531951 0.18605933 -0.42960522 0.098444074 -0.12393712 0.32318562 0.41465962 -0.26636025
-0.12878801 -0.075939745 0.08388315 -0.44934875 0.09367168 0.13415974 -0.063019365 0.15969785
-0.058604687 -0.17072022 -0.20004815 0.056412645 0.029376049 0.57307976 -0.25311363 0.031165449
0.09520913 -0.106137715 0.12384776 0.434172 0.06671111 -0.41754743 0.27884352 -0.4531954
-0.4785522 -0.019480195 0.081286766 -0.024221245 -0.25451428 0.4838394 -0.9224543 -0.5209961
-0.38281995 0.037598245 -0.47423646 0.37539604 0.23543069 -0.037005812 -0.092292756 0.19167414
-0.34500733 0.2731335 0.27864775 -0.041161776 0.19873029 0.07799791 -0.20410725 0.14414209
-0.30433115 -0.0042725154 -0.48880106 0.24502143 -0.3407652 0.1154988 0.13948487 0.09240358
0.2476174 -0.096672215 0.16890168 0.07911854 -0.10977223 -0.26966614 -0.18932302 0.13793929
-0.08269214 -0.2379585 -0.37001827 0.26982346 -0.12109315 0.26590794 0.23756436 -0.45471346
-0.1519326 0.23402473 -0.2872326 0.1607433 -0.07718521 -0.3059757 -0.35344106 -0.04078265
0.061262194 -0.21523227 -0.12727822 -0.55583674 0.022369599 0.2852755 -0.27721128 0.27005616
0.26625267 -0.085936934 -0.06186931 -0.05618348 -0.05091971 -0.14951219 0.3744113 0.2512931
0.06441065 0.046930384 0.066956945 0.20636821 -0.07803461 -0.03273806 -0.07684706 0.027570121
-0.14148448 -0.05370702 -0.07049453 -0.054990057 -0.20093799 -0.1080817 0.61565 -0.41068935
0.40811768 0.18570313 -0.091866925 0.36904037 -0.02393713 -0.2612535 -0.19709226 -0.057407692
-0.6822269 -0.21266398 0.021770384 0.007444524 0.060529307 0.09141401 -0.07645428 0.030971358
0.13794266 0.039070785 0.14956982 0.36506578 0.093701445 -0.111047626 -0.18874925 0.4238354
0.12509234 0.014158034 0.16993581 0.07882749 0.027602471 -0.08681083 -0.09880273 0.044958595
0.10206061 0.09215829 0.015437104 0.024504755 -0.09158288 0.03943195 0.01577705 -0.13430645
-0.09779583 -0.1951413 -0.1786924 0.06927927 -0.11639193 -0.159538 0.15790549 0.0012971339
-0.04248456 -0.13138965 0.0014962616 0.02816095 -0.08826886 0.006034786 0.101362064 -0.1068849
0.059391662 -0.13671555 0.1360139 -0.07647453 0.10851819 0.14640124 -0.010528881 0.09694813
-0.004609547 -0.07774355 0.048465822 -0.13090779 0.017910786 0.102464005 -0.044415202 -0.07137508
0.05310857 0.022780715 0.040447038 -0.15631202 0.08326401 0.004085348 -0.096057795 -0.02912103
-0.006993189 -0.084920935 -0.04996792 -0.20066142 0.034542277 -0.117576554 0.13930623 -0.20524167
00000000: ce01 54be 5a57 5fbe 92ef d93e c85f 56be
00000010: 5f4b 933d 53e8 c1be 5ce6 c03e 304c 61be
00000020: 1948 413d a6c6 953d 5042 b5bc c927 033f
00000030: 5418 d03d 3a94 1dbe 8711 87be 1f7e 9bbd
00000040: 633b 34be 43a3 2bbd 536e 5ebd e792 1abe
00000050: 03a8 3f3e e8fd 14bd 3c28 e43d 20b9 c53d
00000060: f766 283e 183f 9fbd 9680 dc3e 8d2f 78be
00000070: cc1f 7c3e 91a4 cbbc 613d 81be c610 1d3e
00000080: 5828 a63e 8adc 0b3e a772 b5bd ec8e 3dbe
00000090: 42a2 48bd 42ea 3c3c b8b0 ffbd 293d 35be
000000a0: 01f9 8abe c892 61be 9782 a93d 3af4 2dbf
000000b0: 4b0a d43e aa92 033f f1da 5d3e 5b7c a0bc
000000c0: fdd5 b43e 5686 3e3e 37f5 dbbe 0c9d c93d
000000d0: bfd2 fdbd 9678 a53e 444e d43e 5f60 88be
000000e0: 01e1 03be 4c86 9bbd eeca ab3d 0a11 e6be
000000f0: f0d6 bf3d 2c61 093e 4c10 81bd d587 233e
00000100: 780b 70bd 48d1 2ebe 6cd9 4cbe f210 673d
00000110: 0aa6 f03c 5bb5 123f 1c98 81be af4e ff3c
00000120: 01fd c23d bb5e d9bd e5a3 fd3d cb4b de3e
00000130: d69f 883d c7c8 d5be 94c4 8e3e 3a09 e8be
00000140: cb04 f5be ee94 9fbc ad79 a63d a26b c6bc
00000150: b24f 82be ccb9 f73e f725 6cbf 0060 05bf
00000160: fa00 c4be 9e00 1a3d 1fcf f2be e933 c03e
00000170: be14 713e 6893 17bd fc03 bdbd 3a46 443e
00000180: cda4 b0be 27d8 8b3e ebaa 8e3e 4099 28bd
00000190: f47f 4b3e 5ebd 9f3d 7e01 51be fc99 133e
000001a0: 4bd1 9bbe 7500 8cbb 2244 fabe e6e6 7a3e
000001b0: c778 aebe a38a ec3d 1fd5 0e3e 173e bd3d
000001c0: 6a8f 7d3e 15fc c5bd 90f4 2c3e e708 a23d
000001d0: 43d0 e0bd ae11 8abe e5dd 41be f53f 0d3e
000001e0: 7f5a a9bd 65ab 73be 0973 bdbe 4d26 8a3e
000001f0: afff f7bd 1625 883e 1244 733e 34d0 e8be
00000200: 3894 1bbe 2ea4 6f3e 2710 93be e499 243e
00000210: 4813 9ebd d9a8 9cbe 3af6 b4be b50b 27bd
00000220: 11ee 7a3d d965 5cbe 3955 02be 514b 0ebf
00000230: 7340 b73c a10f 923e a3ee 8dbe cd44 8a3e
00000240: 4552 883e b4ff afbd ac6a 7dbd a620 66bd
00000250: 3091 50bd b919 19be d7b2 bf3e 7da9 803e
00000260: bbe9 833d 133a 403d b920 893d 3052 533e
00000270: 9cd0 9fbd 5818 06bd fe61 9dbd bcda e13c
00000280: 4fe1 10be e4fb 5bbd 705f 90bd 413d 61bd
00000290: b0c2 4dbe f059 ddbd 3d9b 1d3f e045 d2be
000002a0: cdf4 d03e f628 3e3e ba24 bcbd dcf2 bc3e
000002b0: cd17 c4bc 05c3 85be 8ed2 49be 5424 6bbd
000002c0: 6ca6 2ebf 96c4 59be ce57 b23c 32f1 f33b
000002d0: 94ed 773d 4537 bb3d 1094 9cbd a5b7 fd3c
000002e0: d740 0d3e b008 203d d528 193e e7e9 ba3e
000002f0: 8be6 bf3d f06c e3bd 7c47 41be f400 d93e
00000300: 3518 003e 19f7 673c a703 2e3e 4f70 a13d
00000310: 941e e23c e0c9 b1bd 1659 cabd 8126 383d
00000320: 2705 d13d 7cbd bc3d e8eb 7c3c 32be c83c
00000330: ce8f bbbd 6583 213d df3e 813c a187 09be
00000340: 2e49 c8bd 1fd3 47be 24fb 36be 4ae2 8d3d
00000350: e45e eebd ee5d 23be fab1 213e 9704 aa3a
00000360: 4a04 2ebd 028b 06be 351e c43a cbb1 e63c
00000370: 4ec6 b4bd 74bf c53b ea96 cf3d 78e6 dabd
00000380: ac44 733d 29ff 0bbe 3a47 0b3e ae9e 9cbd
00000390: c93e de3d 35ea 153e 5481 2cbc be8c c63d
000003a0: af0b 97bb 0338 9fbd 1984 463d b10c 06be
000003b0: a4b9 923c a6d8 d13d b7ec 35bd 192d 92bd
000003c0: 5f88 593d 9f9e ba3c cbab 253d 4210 20be
000003d0: 5286 aa3d 62de 853b f3b9 c4bd 3a8f eebc
000003e0: 1f27 e5bb 07eb adbd 29ab 4cbd 307a 4dbe
000003f0: 347c 0d3d facb f0bd 4ba6 0e3e df2a 52be

dist.0.linear.bias f4 [7]
0.2462316 0.019054297 0.20449619 -0.11883855 -0.17526233 -0.040047888 -0.21169548
00000000: 2324 7c3e c217 9c3c 7367 513e a061 f3bd
00000010: f877 33be 4109 24bd b3c6 58be

dist.1.linear.weight f4 [7, 64]
-0.07442742 0.16762136 0.004933049 -0.0062576155 0.07314597 0.21050763 0.09323703 0.241631
0.28266746 0.13253756 -0.33919004 0.26749313 -0.23630106 -0.013765514 0.07610014 -0.21324538
-0.57526463 -0.11154433 0.36773914 -0.012810231 0.25367314 0.20279342 0.24601573 0.2873532
0.055834886 -0.08305592 0.16257036 -0.3244425 0.032701757 -0.1992281 0.4365904 -0.35931075
0.18954715 -0.43420297 -0.40609604 0.34252998 0.007890892 -0.35596666 -0.39341602 0.34831142
0.031018918 0.11554771 0.29629236 0.52885455 0.2810262 -0.31249043 0.44152883 0.5402285
0.23742387 -0.12964296 0.31172228 -0.4441471 0.31559536 -0.016671063 -0.08069657 -0.18251237
-0.53700817 0.1707776 0.1677756 -0.16370079 0.1624244 0.28996593 -0.23369099 0.18148841
0.34016207 -0.29760966 0.018230198 -0.028068874 0.03219445 0.06696154 0.09720825 -0.09046377
-0.21746226 -0.19214381 0.070129655 -0.4522684 0.08031094 -0.24265096 0.10462773 -0.07148589
-0.11030576 -0.52892935 -0.455313 0.041327756 -0.21526328 0.19145101 -0.7277357 -0.30610055
0.3350537 -0.07861378 -0.1344181 0.40586668 0.011405699 0.07632348 -0.52506566 0.1664965
0.016322179 0.103018984 -0.15742034 0.05065915 0.019879246 0.049644455 -0.21944465 -0.13392295
-0.4288584 -0.57913613 -0.24673323 -0.45439324 -0.3675573 0.18663198 0.32722268 0.22263543
0.3879112 0.042084325 -0.06524835 0.29166254 -0.032665912 0.26521078 0.18286185 0.013041601
-0.120979086 -0.41786754 -0.5256791 -0.047900733 0.20338263 -0.63949704 0.07499397 -0.1590308
-0.29013038 -0.020520113 0.09176173 -0.02169577 -0.41977963 -0.33533895 -0.37771276 -0.312053
0.10133768 0.022743173 -0.040194057 0.2898756 0.5776271 0.1566538 -0.30106583 0.32174882
0.5547726 0.25030774 0.052171875 -0.34084994 0.2969557 -0.3000236 0.29285404 0.16004036
-0.27662802 0.31534863 -0.06705261 0.034454137 0.13888778 -0.23919268 0.20131469 0.30839553
-0.24533018 0.42693374 0.36197314 -0.3472358 -0.5178285 -0.030690456 0.38781086 -0.23698089
0.108378604 0.49573427 -0.04439714 -0.18106516 0.20531 0.2488193 -0.39646873 -0.42617476
-0.4260141 -0.2933423 -0.11897043 0.42899153 -0.350507 -0.5385431 0.04580757 0.40396604
0.5862546 -0.031177012 0.073711514 0.38480097 -0.061545093 0.3160151 0.335134 0.37156466
0.092322625 0.08444764 -0.13003677 0.005805135 0.084560916 -0.028797686 0.027503993 -0.009481374
0.0040106955 -0.075540185 0.1536844 -0.10369266 -0.076951325 0.061194275 -0.03678972 -0.033157416
-0.068442486 0.14077744 -0.014978301 0.042411286 -0.14839613 0.030489925 0.15535529 -0.038090646
0.03694296 -0.23304051 0.041632503 -0.048700605 -0.09582693 -0.025987657 -0.18444167 -0.045402974
0.16237038 -0.054570578 0.016134014 -0.1421305 0.14020994 0.1547026 0.23340455 -0.17101826
0.27857667 0.03688387 -0.16594633 0.059632342 -0.02964423 -0.08218892 0.07234466 -0.2285585
-0.0088266935 0.25416097 -0.0768318 -0.035404384 -0.07826585 0.055189308 -0.08048631 0.02941832
-0.0027064686 -0.009537054 0.19594108 0.012005172 0.0048664794 -0.119684525 0.14200239 -0.13163306
00000000: 676d 98bd efa4 2b3e 6aa5 a13b af0c cdbb
00000010: 8ecd 953d 508f 573e 0ef3 be3d 1e6e 773e
00000020: cab9 903e edb7 073e 51aa adbe dcf4 883e
00000030: e8f8 71be c088 61bc 64da 9b3d ff5c 5abe
00000040: 8b44 13bf 5b71 e4bd 4e48 bc3e 01e2 51bc
00000050: 72e1 813e 14a9 4f3e 8ceb 7b3e f51f 933e
00000060: 1fb3 643d 3919 aabd d878 263e 541d a6be
00000070: 47f2 053d 7302 4cbe c788 df3e 94f7 b7be
00000080: a618 423e da4f debe d2eb cfbe 1760 af3e
00000090: cd48 013c 4341 b6be d36d c9be e055 b23e
000000a0: 631b fe3c 47a4 ec3d a2b3 973e 0363 073f
000000b0: abe2 8f3e bffe 9fbe 1110 e23e 6a4c 0a3f
000000c0: 3e1f 733e 20c1 04be 109a 9f3e 4067 e3be
000000d0: b795 a13e c191 88bc 3e44 a5bd 86e4 3abe
000000e0: 5e79 09bf 53e0 2e3e 5ecd 2b3e 2ea1 27be
000000f0: 9552 263e 6a76 943e b14c 6fbe 19d8 393e
00000100: b929 ae3e 4b60 98be 7f57 953c b2f0 e5bc
00000110: 54de 033d 2223 893d 1e15 c73d 1245 b9bd
00000120: 6dae 5ebe 59c1 44be 23a0 8f3d b98f e7be
00000130: 107a a43d 7e79 78be 1047 d63d 3267 92bd
00000140: fce7 e1bd ea67 07bf c91e e9be 4b47 293d
00000150: fa6d 5cbe bc0b 443e e34c 3abf 36b9 9cbe
00000160: 298c ab3e 4300 a1bd e6a4 09be c2cd cf3e
00000170: f8de 3a3c 7c4f 9c3d b46a 06bf 0f7e 2a3e
00000180: 17b6 853c 9efb d23d cc32 21be f87f 4f3d
00000190: cdd9 a23c fc57 4b3d 19b6 60be 1923 09be
000001a0: 5493 dbbe 4442 14bf a3a7 7cbe 3ba6 e8be
000001b0: 7830 bcbe 741c 3f3e bb89 a73e 8bfa 633e
000001c0: 4c9c c63e 9d60 2c3d eda0 85bd cb54 953e
000001d0: b1cc 05bd b5c9 873e 2340 3b3e 70ac 553c
000001e0: e2c3 f7bd bcf2 d5be e892 06bf 8f33 44bd
000001f0: 8943 503e 14b6 23bf 7096 993d f8d8 22be
00000200: f88b 94be cc19 a8bc 93ed bb3d 54bb b1bc
00000210: 5bed d6be 8cb1 abbe 9163 c1be 69c5 9fbe
00000220: 218a cf3d e44f ba3c 86a2 24bd 936a 943e
00000230: 5fdf 133f db69 203e 4d25 9abe 43bc a43e
00000240: 9405 0e3f 5628 803e 2db2 553d e283 aebe
00000250: 940a 983e b19c 99be f7f0 953e 9fe1 233e
00000260: 30a2 8dbe 6075 a13e e152 89bd c81f 0d3d
00000270: 9938 0e3e edee 74be 7025 4e3e 05e6 9d3e
00000280: d637 7bbe 0f97 da3e 8b54 b93e e4c8 b1be
00000290: 6990 04bf 8d6a fbbc 258f c63e 1eab 72be
000002a0: 9af5 dd3d e2d0 fd3e c7d9 35bd 2569 39be
000002b0: c93c 523e 7dca 7e3e f3fd cabe 9433 dabe
000002c0: 851e dabe f630 96be c5a6 f3bd c7a4 db3e
000002d0: a775 b3be f6dd 09bf b8a0 3b3d a3d4 ce3e
000002e0: c814 163f ef66 ffbc 10f6 963d a204 c53e
000002f0: b516 7cbd bbcc a13e af96 ab3e b93d be3e
00000300: a513 bd3d e2f2 ac3d 5c28 05be 0039 be3b
00000310: 462e ad3d 20e9 ebbc 0e50 e13c c457 1bbc
00000320: 276c 833b d0b4 9abd 715f 1d3e d15c d4bd
00000330: a898 9dbd d9a6 7a3d d1b0 16bd 12d0 07bd
00000340: 932b 8cbd f627 103e 8c67 75bc 75b7 2d3d
00000350: 28f5 17be 02c6 f93c 7515 1f3e f004 1cbd
00000360: 8051 173d 2ca2 6ebe d886 2a3d 497a 47bd
00000370: e940 c4bd 11e4 d4bc 47de 3cbe 78f8 39bd
00000380: 6c44 263e 6685 5fbd 7b2b 843c a88a 11be
00000390: 3293 0f3e 5c6a 1e3e 9a01 6f3e 691f 2fbe
000003a0: 9aa1 8e3e 8a13 173d d6ed 29be 0b41 743d
000003b0: 75d8 f2bc aa52 a8bd 7029 943d 3d0b 6abe
000003c0: d69d 10bc 6321 823e fe59 9dbd 3004 11bd
000003d0: d949 a0bd 2f0e 623d 02d6 a4bd b0fe f03c
000003e0: 025f 31bb 4e41 1cbc c7a4 483e 57b1 443c
000003f0: fd76 9f3b 291d f5bd 1369 113e d1ca 06be

dist.1.linear.bias f4 [7]
-0.07989298 0.13720189 0.49650526 -0.15321186 -0.16716965 -0.13466576 -0.15477687
00000000: ee9e a3bd a77e 0c3e f035 fe3e 92e3 1cbe
00000010: 852e 2bbe d2e5 09be d47d 1ebe

dist.2.linear.weight f4 [7, 64]
0.15609303 -0.24552815 -0.28468803 -0.5021642 0.20461331 0.7688696 0.08295784 -0.14899893
0.46384406 0.07980395 -0.16037191 0.06339681 0.030263966 -0.012818704 -0.0012550359 -0.48094067
-0.67469156 -0.3761305 0.053665705 -0.19499841 -0.107314944 0.13830355 -0.30407858 -0.22530292
0.416407 -0.5020376 -0.113807715 0.07328149 0.3200397 -0.02718274 -0.105928585 0.02447099
0.330504 -0.24030493 0.20430346 0.027566986 0.09174792 0.11192353 0.09266182 -0.009418312
-0.3364449 -0.38745064 -0.04838542 0.4421327 -0.3451762 0.27893487 0.04747632 -0.074040845
-0.018708311 0.1299394 0.2099283 0.34191853 -0.50897294 -0.31545007 -0.5888787 0.35279825
0.34997305 0.21807966 -0.8409902 -0.13702431 0.21641424 0.008572494 0.5825836 -0.65132755
0.48321676 0.42487916 -0.1295409 0.29217526 -0.11174766 -0.4728972 -0.31175599 -0.21242025
-0.17298165 -0.3704895 -0.37139443 -0.36896318 0.23206456 -0.24089612 -0.38928246 0.05329032
0.2782374 0.249898 0.045915592 -0.17950551 0.23883504 0.105649956 -0.012137113 -0.2667196
0.04782281 0.6715526 0.47043762 0.12053584 0.42223433 -0.11348288 0.17128165 0.290913
0.11445051 -0.29210377 0.001511801 0.32811773 -0.24638762 0.2142916 -0.025198456 -0.35210347
0.6702139 0.51568943 -0.25557244 -0.032126058 0.45684394 0.0022207687 0.05569769 0.33809632
0.12558371 -0.29152107 -0.019228015 0.65036076 -0.48009375 -0.047102883 -0.13063234 -0.3900255
-0.14085072 -0.46111658 -0.19376874 -0.26162395 0.24695063 0.524407 -0.07995111 -0.10005858
-0.44080445 -0.34368053 0.28195432 0.31758407 -0.31845382 -0.49916092 0.1799109 0.10558713
-0.3219235 0.21442261 -0.17274967 0.5008239 -0.019604448 0.098024055 0.20822799 -0.046706095
0.6979105 0.21082124 -0.2945655 -0.14845559 0.32225433 -0.24612655 0.30477485 0.03584939
-0.3421281 -0.35362118 -0.50913835 0.009334212 0.051444925 0.38155928 0.15535767 0.17671902
-0.44054925 0.13098677 0.31848454 -0.6190703 -0.026371073 -0.31596017 -0.14497872 0.50432175
-0.08410676 -0.3912269 0.3414879 -0.1265999 0.21787316 0.17836308 0.1070139 -0.51411045
0.15847859 -0.3293599 0.088638335 -0.29012614 0.4356912 -0.14340489 0.30694962 0.21644327
0.13220677 0.44232985 0.36813015 0.27495638 0.14777714 -0.47342408 -0.119960114 0.58377784
-0.40307435 0.21818048 0.39119607 -0.3267792 -0.049086 0.19352303 0.32882923 -0.21600696
-0.18875629 0.13825685 0.7780438 -0.1391595 0.3097664 -0.2705165 -0.2458167 0.24287401
-0.33087012 -0.049511172 -0.011043387 0.09292963 -0.331679 0.18892975 0.026221026 0.36858356
0.14969867 -0.059027087 0.4931228 -0.059592843 -0.53926027 -0.24875073 0.23615432 -0.16880424
-0.04390833 0.034253806 -0.37309098 -0.17757773 -0.053516977 0.11962172 0.04470233 -0.35866466
-0.023646949 0.19523606 0.237012 -0.24560876 -0.23432781 0.17760678 0.008409772 -0.05269648
0.02956486 0.37622133 -0.27677596 -0.61717 0.1836724 -0.1715949 0.17261077 0.17576624
0.048992556 -0.42207918 0.35838893 -0.295791 -0.34711847 0.22150187 -0.22323829 0.11770339
00000000: dad6 1f3e bb6b 7bbe a1c2 91be d58d 00bf
00000010: 2786 513e a3d4 443f cde5 a93d 2d93 18be
00000020: f87c ed3e 4170 a33d 8938 24be 30d6 813d
00000030: 23ec f73c 8b05 52bc 0480 a4ba db3d f6be
00000040: 96b8 2cbf 2d94 c0be 92d0 5b3d aaad 47be
00000050: f0c7 dbbd 729f 0d3e 30b0 9bbe cfb5 66be
00000060: 4c33 d53e 8985 00bf 0514 e9bd 9b14 963d
00000070: 3edc a33e 56ae debc 16f1 d8bd 6377 c83c
00000080: d237 a93e 7f12 76be ed34 513e 29d4 e13c
00000090: 55e6 bb3d 2a38 e53d 7bc5 bd3d 444f 1abc
000000a0: 8242 acbe ee5f c6be ca2f 46bd 385f e23e
000000b0: efba b0be 8dd0 8e3e 8876 423d baa2 97bd
000000c0: 2c42 99bc d60e 053e 72f7 563e f20f af3e
000000d0: 0d4c 02bf ac82 a1be c1c0 16bf f9a1 b43e
000000e0: ab2f b33e 4650 5f3e 224b 57bf 1a50 0cbe
000000f0: b29b 5d3e a573 0c3c 3324 153f 67bd 26bf
00000100: 3068 f73e c389 d93e 5fa6 04be ff97 953e
00000110: f5db e4bd 951f f2be 7b9e 9fbe b284 59be
00000120: 1a22 31be cdb0 bdbe 6927 bebe bee8 bcbe
00000130: 55a2 6d3e 79ad 76be 0850 c7be f346 5a3d
00000140: 2275 8e3e 43e5 7f3e fd11 3c3d 4bd0 37be
00000150: 2c91 743e 015f d83d beda 46bc 798f 88be
00000160: dae1 433d dfea 2b3f 33dd f03e 7fdb f63d
00000170: 192f d83e b669 e8bd 7564 2f3e 8cf2 943e
00000180: 0765 ea3d a08e 95be a027 c63a 0cff a73e
00000190: 094d 7cbe 426f 5b3e fe6c cebc e846 b4be
000001a0: 2393 2b3f 3904 043f 64da 82be 9d96 03bd
000001b0: 73e7 e93e 518a 113b 4323 643d f61a ad3e
000001c0: 0499 003e 4042 95be 1284 9dbc 0b7e 263f
000001d0: d9ce f5be f4ee 40bd 7cc4 05be 6cb1 c7be
000001e0: 2c3b 10be 7917 ecbe 506b 46be 93f3 85be
000001f0: a0e0 7c3e 8a3f 063f 68bd a3bd 83eb ccbd
00000200: 1fb1 e1be e5f6 afbe 515c 903e 619a a23e
00000210: 610c a3be 0592 ffbe 903a 383e 113e d83d
00000220: 28d3 a4be 9a91 5b3e 4ae5 30be ff35 003f
00000230: 8299 a0bc d6c0 c83d b839 553e e44e 3fbd
00000240: 43aa 323f 86e1 573e 4ad1 96be be04 18be
00000250: 85fe a43e 9908 7cbe 730b 9c3e cfd6 123d
00000260: 6a2b afbe d60d b5be e456 02bf 86ee 183c
00000270: eab7 523d bd5b c33e 1516 1f3e d5f5 343e
00000280: ac8f e1be 6521 063e 6810 a33e 647b 1ebf
00000290: 2608 d8bc 88c5 a1be 4d75 14be 3b1b 013f
000002a0: 2a40 acbd e44e c8be 81d7 ae3e 67a3 01be
000002b0: 241a 5f3e d0a4 363e 1b2a db3d be9c 03bf
000002c0: 3648 223e dca1 a8be 0488 b53d 6a8b 94be
000002d0: eb12 df3e bbd8 12be 8028 9d3e 4ea3 5d3e
000002e0: 3661 073e 0f79 e23e 8e7b bc3e 15c7 8c3e
000002f0: e452 173e a464 f2be a6ad f5bd 7772 153f
00000300: c35f cebe b46a 5f3e da4a c83e 9a4f a7be
00000310: 670e 49bd e72a 463e 4e5c a83e ee30 5dbe
00000320: 5449 41be 3493 0d3e e12d 473f d47f 0ebe
00000330: b499 9e3e 2481 8abe 5fb7 7bbe f7b3 783e
00000340: cf67 a9be 3acc 4abd 53ef 34bc e451 be3d
00000350: d4d1 a9be cd76 413e 7acd d63c fcb6 bc3e
00000360: 9c4a 193e 63c6 71bd 977a fc3e a017 74bd
00000370: f60c 0abf 83b8 7ebe 70d2 713e 05db 2cbe
00000380: 39d9 33bd b84d 0c3d c805 bfbe f0d6 35be
00000390: 9e34 5bbd 3bfc f43d ca19 373d e5a2 b7be
000003a0: 3fb7 c1bc f6eb 473e 46b3 723e dd80 7bbe
000003b0: a1f3 6fbe 8dde 353e 24c9 093c 44d8 57bd
000003c0: 0132 f23c 15a0 c03e 94b5 8dbe dafe 1dbf
000003d0: 9e14 3c3e 93b6 2fbe e1c0 303e 11fc 333e
000003e0: 6bac 483d c31a d8be c17e b73e eb71 97be
000003f0: 83b9 b1be 63d1 623e 9498 64be 7a0e f13d

dist.2.linear.bias f4 [7]
0.17027298 0.18909943 -0.026612345 0.15885459 -0.11106885 -0.23083816 -0.028350199
00000000: 0a5c 2e3e 48a3 413e 2202 dabc c7aa 223e
00000010: 1178 e3bd d760 6cbe ad3e e8bc

dist.3.linear.weight f4 [7, 64]
-0.50156915 0.112892784 -0.4208555 -0.100574695 -0.10380243 0.5129787 0.2662083 0.010611474
0.17779106 -0.032344006 0.3218928 0.023132764 -0.01703443 -0.7653837 -0.13486777 -0.22969177
-0.40789005 -0.45461044 0.033971064 -0.061611716 -0.19169208 0.18039344 -0.14123744 -0.07522043
0.075795345 0.14707567 -0.039365433 -0.07870658 -0.33589268 -0.18375234 -0.17831059 0.009754133
0.031302743 0.21225049 0.14551133 0.044738002 -0.0024309242 0.074537076 0.03551715 0.2880336
0.22113645 0.06589833 0.113648266 0.21621056 -0.19665028 -0.19336252 -0.40170243 -0.22169437
-0.03613816 -0.09474206 -0.19587736 0.06540051 -0.16881134 -0.015235555 -0.23115447 0.11476616
0.49533945 0.02105871 -0.37460807 -0.187482 0.2526211 0.06660389 -0.5001744 -0.53264844
0.02316953 -0.19444874 0.48447987 0.12999202 0.17639352 -0.5398703 0.14366831 -0.23502482
0.33183974 -0.4365519 -0.010371562 0.15988807 0.26354054 -0.004026881 -0.4829462 0.1690185
0.004897615 -0.11651759 0.19814898 -0.23682992 0.18549642 -1.7897095e-05 -0.5154474 0.007131619
0.18303117 0.31717807 0.54648226 0.2940745 0.35344648 0.30084333 0.29292512 0.25531396
0.18026243 0.05015953 0.14469059 0.12436923 -0.25372913 0.11432291 -0.11585639 -0.56745034
0.18883055 0.06932581 -0.4789448 -0.17341334 -0.13931023 -0.02496688 0.5240068 0.37037435
0.08609175 -0.09442776 0.16751412 0.2217467 -0.11391252 -0.25704193 0.09844725 0.11018322
-0.34008408 -0.5727493 -0.19552064 0.23180808 0.29833874 0.61438996 0.11602712 -0.07594349
0.1741745 -0.086087696 -0.04706434 0.29869628 -0.42744967 -0.017991956 -0.17877965 -0.22881238
-0.46302286 0.49306217 -0.39723387 -0.10432373 0.20240706 0.7240051 0.45437464 -0.09909035
0.33077472 0.388101 -0.34341028 -0.1854763 0.21515784 -0.014450444 0.59490573 0.026258385
0.18296571 -0.4637008 -0.46434382 0.27636465 0.2509518 -0.25751275 0.31679934 0.2195823
-0.45692632 -0.13439633 -0.20469083 -0.4150749 -0.21627079 -0.2247568 0.038647387 0.31985173
-0.37680215 -0.27272007 0.26784357 -0.07547825 0.19332896 0.32785803 -0.2851491 -0.25790673
-0.17827758 -0.02659578 0.060829572 0.093046315 0.3850581 -0.19354676 0.18068248 0.048319634
0.093591295 0.45438534 0.52340686 0.017709378 -0.30544388 -0.6214341 0.34205592 0.49345058
0.052625913 -0.18744087 0.044498026 0.05324619 -0.006095631 0.01639112 0.008186078 0.052195597
0.035777647 0.05588805 -0.17684826 0.16112149 -0.05303535 -0.16591118 0.06655312 -0.057064105
-0.019839315 0.041674316 -0.09766519 0.0080174245 0.06976947 0.0102919 0.03982112 -0.08304493
0.01567961 -0.18125154 -0.2758987 -0.0847093 -0.061012823 -0.07686979 -0.024719156 -0.042553812
0.05486119 0.09969674 -0.090821564 -0.07488471 0.030018046 -0.19602783 -0.05595958 0.25335985
-0.0015282916 -0.114663266 0.14629018 0.030965561 0.1240485 0.12642469 0.07304064 0.007406419
0.18019708 0.02210794 -0.2347855 -0.011596116 -0.05024536 0.06396593 -0.07924934 -0.25072613
-0.119561 0.15257515 0.19676387 -0.20209041 -0.15982364 0.035827134 0.030228794 -0.0155706
00000000: d666 00bf 5534 e73d 5f7a d7be 1bfa cdbd
00000010: 5e96 d4bd 9252 033f 744c 883e bfdb 2d3c
00000020: dc0e 363e 267b 04bd 22cf a43e ec80 bd3c
00000030: ca8b 8bbc 30f0 43bf c71a 0abe 5234 6bbe
00000040: f7d6 d0be b3c2 e8be 3e25 0b3d 915c 7cbd
00000050: ee4a 44be 0fb9 383e 8ca0 10be 2b0d 9abd
00000060: 973a 9b3d 019b 163e a63d 21bd ea30 a1bd
00000070: 20fa abbe 9329 3cbe 0d97 36be cdcf 1f3c
00000080: 4e37 003d 3158 593e ec00 153e 323f 373d
00000090: 2450 1fbb e5a6 983d 6e7a 113d 2479 933e
000000a0: 9871 623e b4f5 863d 6cc0 e83d 4d66 5d3e
000000b0: b15e 49be d300 46be f1ab cdbe d903 63be
000000c0: 9b05 14bd 2008 c2bd 1394 48be b4f0 853d
000000d0: e1dc 2cbe 8d9e 79bc c2b3 6cbe 850a eb3d
000000e0: 229d fd3e 5183 ac3c a1cc bfbe 48fb 3fbe
000000f0: 8e57 813e 9f67 883d 6e0b 00bf a65b 08bf
00000100: 07ce bd3c 921d 47be bf0d f83e a11c 053e
00000110: 81a0 343e f134 0abf c91d 133e 59aa 70be
00000120: e6e6 a93e bb83 dfbe 7ced 29bc b3b9 233e
00000130: c9ee 863e edf3 83bb b944 f7be 3013 2d3e
00000140: 2c7c a03b c6a0 eebd 91e7 4a3e 8b83 72be
00000150: c6f2 3d3e b821 96b7 5cf4 03bf 5bb0 e93b
00000160: 866c 3b3e 2a65 a23e 43e6 0b3f ef90 963e
00000170: f0f6 b43e 2308 9a3e 48fa 953e 83b8 823e
00000180: b796 383e 1474 4d3d c529 143e 4bb5 fe3d
00000190: c9e8 81be 2122 ea3d 1d46 edbd 6d44 11bf
000001a0: cc5c 413e b1fa 8d3d 4138 f5be 4493 31be
000001b0: 57a7 0ebe 5887 ccbc 4f25 063f b5a1 bd3e
000001c0: df50 b03d 5763 c1bd d288 2b3e 9111 633e
000001d0: f84a e9bd 009b 83be b69e c93d bda7 e13d
000001e0: 801f aebe b39f 12bf 9036 48be 195f 6d3e
000001f0: dbbf 983e a948 1d3f a09f ed3d 4388 9bbd
00000200: cd5a 323e bf4e b0bd 8ac6 40bd b8ee 983e
00000210: afda dabe de63 93bc 0312 37be cb4d 6abe
00000220: 5511 edbe a572 fc3e 3d62 cbbe aea7 d5bd
00000230: cc43 4f3e 6658 393f cba3 e83e e2ef cabd
00000240: 4e5b a93e 2db5 c63e 79d3 afbe 80ed 3dbe
00000250: 5652 5c3e 8ec1 6cbc be4b 183f d31b d73c
00000260: 5d5b 3b3e 316a edbe 79be edbe ab7f 8d3e
00000270: c17c 803e b6d8 83be 8633 a23e 2fda 603e
00000280: 3ff2 e9be 319f 09be 799a 51be b384 d4be
00000290: 1776 5dbe a626 66be b94c 1e3d 9bc3 a33e
000002a0: 36ec c0be f7a1 8bbe cb22 893e 5794 9abd
000002b0: 07f8 453e 02dd a73e 10ff 91be 5a0c 84be
000002c0: 668e 36be 65df d9bc 6e28 793d 118f be3d
000002d0: 5626 c53e 1f31 46be d404 393e cfea 453d
000002e0: cbac bf3d 32a5 e83e fefd 053f 4213 913c
000002f0: 2463 9cbe 4e16 1fbf f421 af3e 8ea5 fc3e
00000300: 458e 573d 80f0 3fbe 9043 363d ad18 5a3d
00000310: dcbd c7bb ac46 863c e61e 063c 0dcb 553d
00000320: 958b 123d deea 643d b617 35be 08fd 243e
00000330: 983b 59bd 9fe4 29be 014d 883d 0dbc 69bd
00000340: 0f86 a2bc b0b2 2a3d b004 c8bd 845b 033c
00000350: 4ce3 8e3d 5b9f 283c 791b 233d 7613 aabd
00000360: 8772 803c 019a 39be 9842 8dbe 127c adbd
00000370: 95e8 79bd e96d 9dbd d47f cabc e84c 2ebd
00000380: 21b6 603d ce2d cc3d a800 babd 285d 99bd
00000390: 68e8 f53c 85bb 48be df35 65bd 62b8 813e
000003a0: f550 c8ba 93d4 eabd 18cd 153e 7dab fd3c
000003b0: 240d fe3d 7975 013e 5596 953d 8cb1 f23b
000003c0: 9585 383e b61b b53c 9c6b 70be a3fd 3dbc
000003d0: 14ce 4dbd 9200 833d 7a4d a2bd 2d5f 80be
000003e0: 66dc f4bd a93c 1c3e 787c 493e caf0 4ebe
000003f0: cfa8 23be 79bf 123d 60a2 f73c d41b 7fbc

dist.3.linear.bias f4 [7]
0.012309516 0.269786 0.2128736 -0.04461963 -0.097921126 -0.119845435 -0.0817207
00000000: daad 493c 6421 8a3e 89fb 593e 13c3 36bd
00000010: df8a c8bd 8671 f5bd 2f5d a7bd
