BLIP/RL/trained_models/ppo/2023-01-29_minigrid_5e5_doorkeylava-doorkey-wallgap-lavagap-redbluedoor_fine-tuning_1_task_4.pth (torch, 735517 bytes, 19 tensors)

features.actor.0.weight f4 [64, 2739]
-0.087288834 0.013717412 -0.036161743 -0.08192606 -0.078237996 0.005770538 -0.5155882 -0.50719815
-0.030821534 -0.33825502 -0.42513946 0.07522768 -0.26104283 -0.20748636 -0.12886922 -0.13171321
-0.1385141 0.09193883 -0.286904 -0.44501686 -0.11379024 -0.15139008 -0.05896789 -0.046913814
-0.2318093 -0.15274921 0.00014253585 -0.13425632 -0.12957036 -0.03996173 0.09231362 0.2897545
0.12988572 -0.20588073 -0.10966145 -0.48186582 -0.49460584 -0.47174817 -0.46340656 -0.72491384
0.24700888 -0.09946411 -0.012724289 0.10114365 -0.05268035 -0.09189668 -0.0334376 0.05917249
-0.015701482 0.015044423 0.039156143 0.08058555 -0.013845594 0.31032577 0.15759921 -0.011566421
-0.51724374 0.438124 0.21285126 -0.10385978 0.1706899 0.39005718 -0.16424513 -0.08599073
0.08500232 0.036409196 -0.097185224 -0.028330224 0.030585112 -0.08005964 -0.08191622 -0.08363429
0.26879635 -0.06488983 -0.06800891 -0.2835411 0.07966401 0.23849449 0.60919076 0.4044942
0.43090487 -0.10408662 -0.022346161 -0.0045951842 -0.0472207 -0.03413292 -0.049120013 -0.12758337
-0.051187556 -0.11158578 -0.027636807 -0.05554452 0.05809337 -0.17719923 -0.14434953 0.14954217
0.020176109 -0.2627531 0.20591095 0.6048365 0.061073344 0.3921974 0.08982528 0.18876116
0.15143886 0.032308664 0.13496351 -0.034920473 0.00044792733 0.06438541 -0.08421531 -0.012982145
-0.07130482 0.048073612 0.17747582 -0.45672774 -0.034942817 0.042053968 -0.016411781 0.047748007
-0.3549727 -0.27074674 -0.36432076 -0.8702474 -0.6095151 -0.30641478 0.09244403 -0.055583138
-0.09149505 0.0034418602 -0.03401856 0.034773953 0.5370033 0.5554724 0.04823191 0.22792496
0.3076928 -0.026679695 0.103395335 0.5706883 -0.19458412 -0.3833169 -0.0043684044 0.63587034
-0.16318335 0.34723663 -0.043249577 0.013749743 -0.016626304 0.016148362 -0.024083829 0.021739675
-0.1126172 0.056240186 -0.027178561 -0.014904644 0.033564225 -0.033573806 -0.04450617 -0.0038415275
-0.0006321556 -0.0013082692 -0.04404196 0.0115206 -0.049072646 0.022493096 0.010995491 0.12736313
-0.022758491 -0.023391332 -0.011494017 -0.002572055 0.0057454137 0.019259853 -0.006988504 0.006201603
-0.017228678 0.028154531 0.019132065 0.015260953 0.036165684 -0.040355653 -0.08803547 0.009137704
0.003057856 -0.0070107975 0.021742988 0.014831066 0.07493697 0.0151001355 -4.175369e-05 -0.018228067
0.11836471 0.016068475 0.015140089 0.00077476026 0.037913904 -0.0075124353 0.014475218 0.034686852
-0.020499907 0.03713282 0.016802836 0.003149192 0.018689977 0.14736806 0.0046420246 0.01537704
0.009391292 0.014462369 -0.0114385635 0.023644095 0.0019304687 0.0066895913 -0.078845 0.031429928
0.025300695 0.038595248 -0.010281782 0.011408368 0.029600132 0.034454927 -0.04463063 0.027040027
0.019666916 -0.017053064 -0.011641599 -0.013809641 0.009782205 0.037564848 -0.023177644 -0.14241345
0.0075339954 -0.0019339597 -0.0055668564 0.065615974 0.041450333 -0.038556714 0.006107557 -0.012305234
0.0037032226 0.006575334 0.053359773 0.012669668 -0.008540511 -0.024561545 -0.06284513 -0.041278988
-0.039187945 0.01777767 -0.0013273685 -0.026392348 -0.029491285 -0.038355194 0.08119784 -0.029397884
00000000: 7dc4 b2bd ffbe 603c 561e 14bd dac8 a7bd
00000010: 3e3b a0bd c816 bd3b 97fd 03bf bdd7 01bf
00000020: 717d fcbc c32f adbe e1ab d9be f810 9a3d
00000030: 68a7 85be 4e77 54be 4bf6 03be d4df 06be
00000040: a4d6 0dbe 6d4a bc3d 15e5 92be 40d9 e3be
00000050: db0a e9bd 0006 1bbe 5088 71bd b328 40bd
00000060: 6b5f 6dbe 4a6a 1cbe ad75 1539 7d7a 09be
00000070: 18ae 04be e9ae 23bd ec0e bd3d b45a 943e
00000080: c300 053e 66d2 52be 2f96 e0bd 1eb7 f6be
00000090: fa3c fdbe fa88 f1be a043 edbe f493 39bf
000000a0: e5ef 7c3e d7b3 cbbd 8979 50bc 6724 cf3d
000000b0: 5ac7 57bd 5434 bcbd ddf5 08bd da5e 723d
000000c0: 65a0 80bc e27c 763c 3162 203d 090a a53d
000000d0: a1d8 62bc 05e3 9e3e b061 213e 1681 3dbc
000000e0: 166a 04bf ca51 e03e aef5 593e 70b4 d4bd
000000f0: 55c9 2e3e 93b5 c73e e02f 28be e81b b0bd
00000100: b215 ae3d cf21 153d 0c09 c7bd c914 e8bc
00000110: a18d fa3c 4ff6 a3bd b1c3 a7bd 7448 abbd
00000120: ad9f 893e f6e4 84bd 4148 8bbd 4d2c 91be
00000130: e226 a33d e637 743e edf3 1b3f dd19 cf3e
00000140: 909f dc3e 5e2b d5bd 4c0f b7bc 3393 96bb
00000150: 7e6a 41bd f6ce 0bbd 1132 49bd 37a5 02be
00000160: 0baa 51bd 1687 e4bd 9666 e2bc a782 63bd
00000170: 50f3 6d3d b773 35be 5dd0 13be 9521 193e
00000180: 5e48 a53c 9387 86be 52da 523e 91d6 1a3f
00000190: 0b28 7a3d 19ce c83e 51f6 b73d 9b4a 413e
000001a0: ca12 1b3e 1756 043d e033 0a3e c508 0fbd
000001b0: cad7 ea39 7fdc 833d 1479 acbd 10b3 54bc
000001c0: 4308 92bd d6e8 443d 39bc 353e 38d8 e9be
000001d0: 3320 0fbd c840 2c3d 0072 86bc 6a93 433d
000001e0: fbbe b5be 519f 8abe 4088 babe 89c8 5ebf
000001f0: 2e09 1cbf 66e2 9cbe 4c53 bd3d 25ab 63bd
00000200: c261 bbbd d590 613b 0c57 0bbd 226f 0e3d
00000210: 0c79 093f 7033 0e3f d38e 453d 2965 693e
00000220: e989 9d3e 608f dabc efc0 d33d a118 123f
00000230: 0f41 47be 1d42 c4be d524 8fbb 66c8 223f
00000240: 8919 27be 00c9 b13e 7826 31bd 9a46 613c
00000250: e333 88bc 9249 843c 734b c5bc 6717 b23c
00000260: d9a3 e6bd 1c5c 663d 93a5 debc 9c32 74bc
00000270: a47a 093d b084 09bd 1a4c 36bd 23c2 7bbb
00000280: 3fb7 25ba 3b7a abba 5865 34bd e6c0 3c3c
00000290: 6600 49bd 7143 b83c 6f26 343c 7b6b 023e
000002a0: 0470 babc 2e9f bfbc 6751 3cbc ec8f 28bb
000002b0: 0644 bc3b d7c6 9d3c d2ff e4bb d136 cb3b
000002c0: 2823 8dbc 55a4 e63c d9ba 9c3c 1409 7a3c
000002d0: 7822 143d f84b 25bd f14b b4bd 4fb6 153c
000002e0: 5066 483b d5ba e5bb 5a1e b23c 00fe 723c
000002f0: 8e78 993d 8f66 773c af20 2fb8 0753 95bc
00000300: 3269 f23d 09a2 833c 230e 783c 4819 4b3a
00000310: 9c4b 1b3d e02a f6bb 7729 6d3c cd13 0e3d
00000320: 6cef a7bc 9518 183d 1aa6 893c ad62 4e3b
00000330: b91b 993c a7e7 163e 201c 983b fbef 7b3c
00000340: efdd 193c 92f3 6c3c d068 3bbc 43b1 c13c
00000350: c807 fd3a 5c34 db3b 7d79 a1bd abbc 003d
00000360: 6743 cf3c 0d16 1e3d eb74 28bc 2aea 3a3c
00000370: fa7b f23c 9c20 0d3d 9cce 36bd 0c83 dd3c
00000380: 831c a13c deb2 8bbc 68bc 3ebc d541 62bc
00000390: 8b45 203c 99dd 193d 0bdf bdbc d5d4 11be
000003a0: bcdf f63b eb7c fdba 2d6a b6bb ab61 863d
000003b0: d3c7 293d a5ed 1dbd e721 c83b e49b 49bc
000003c0: c4b1 723b e675 d73b c78f 5a3d 7094 4f3c
000003d0: 80ed 0bbc 4b35 c9bc f3b4 80bd 2814 29bd
000003e0: 8a83 20bd 7aa2 913c 19fb adba c434 d8bc
000003f0: b597 f1bc 561a 1dbd 0e4b a63d d5d3 f0bc

features.actor.0.bias f4 [64]
0.17914326 0.5640338 -0.37789112 -0.33743897 0.6672693 1.0819459 0.6846647 -0.3927048
0.31319103 -0.58975327 0.4025828 0.0947123 -0.6278473 0.03660696 -0.4643123 -0.7592895
-0.49888155 0.014837343 0.07117828 -0.71873313 -0.4492227 0.48771527 0.5207328 -0.59517646
-0.21321736 0.54053235 0.20165811 -0.026354756 -0.04337547 1.0355145 -0.35421723 0.3207802
0.85411793 0.9822803 -1.1297138 -0.0154224755 -1.236701 0.10226354 -0.036048144 -1.3784417
-0.17985049 -0.16499203 -0.3370737 0.4564059 0.9611907 0.19790031 -0.67242694 0.1187635
-0.106885836 -0.3477559 -0.4595869 0.5878181 -0.492512 0.14181928 0.24875621 0.3488631
0.0010790005 0.61933047 0.5474738 0.8361378 0.33083338 0.23273511 -0.33011866 0.23921703
00000000: 5571 373e 8564 103f f27a c1be cdc4 acbe
00000010: 29d2 2a3f 347d 8a3f 3046 2f3f 9b10 c9be
00000020: 935a a03e 12fa 16bf 551f ce3e 86f8 c13d
00000030: 9aba 20bf 2ef1 153d 57ba edbe cc60 42bf
00000040: 676d ffbe 5418 733c ebc5 913d e5fe 37bf
00000050: 8500 e6be d1b5 f93e bf4e 053f 7c5d 18bf
00000060: a755 5abe 5460 0a3f 777f 4e3e eee5 d7bc
00000070: 7aaa 31bd bd8b 843f f65b b5be 4d3d a43e
00000080: 79a7 5a3f b976 7b3f 769a 90bf 8dae 7cbc
00000090: 384c 9ebf 8c6f d13d 38a7 13bd c770 b0bf
000000a0: ba2a 38be acf3 28be ed94 acbe 09ae e93e
000000b0: 9810 763f 61a6 4a3e 2c24 2cbf 473a f33d
000000c0: f6e6 dabd 100d b2be f94e ebbe 3f7b 163f
000000d0: 882a fcbe 1339 113e f3b9 7e3e 2f9e b23e
000000e0: 406d 8d3a 718c 1e3f 3e27 0c3f 200d 563f
000000f0: fe62 a93e 1d52 6e3e 5005 a9be 4ff5 743e

features.actor.2.weight f4 [64, 64]
-0.18969907 -0.65999365 -0.12578972 -0.09022557 -0.36858147 -0.3232965 0.8669356 -0.43660888
-0.11070334 -0.09725818 0.6388103 -0.07927068 -0.02134114 -0.6298795 0.1224117 0.45234454
-0.53015107 0.10657621 -0.1974796 0.24732463 0.015230053 -0.9745934 0.5802257 -0.24374913
0.11575314 -0.1734416 -0.6821219 -0.2529766 0.040367883 0.3482641 0.7974021 -0.628457
-0.22108395 -0.5133858 -0.17325588 0.19326153 0.0066525512 -0.18911003 0.3205263 0.28145778
0.7919292 0.31466702 0.16002308 -0.155245 -0.34367847 -0.27452478 -0.12620573 -0.35866466
0.03759452 0.17105708 0.64524895 0.037984937 0.10783392 -0.08197547 -1.0285653 0.17772385
0.24276862 -0.008254971 0.29619354 -0.22496298 -0.8137474 0.63223183 -0.23087758 -0.04107765
0.43748674 -0.76507705 -0.35735187 0.09429945 -0.19911432 0.052049752 0.053852975 0.6421997
-0.3077217 0.3769352 -0.30376646 0.47400218 0.37108508 -0.16377525 -1.218062 -0.6635663
-0.61972874 0.24920659 0.12960565 -0.20182657 -0.5958097 -0.3602834 -0.27355954 0.07399379
-0.5116769 -0.08773375 -0.2640239 -0.39634585 0.4404643 -0.2361477 0.40658602 0.2906727
1.2042557 0.7670007 -0.119107775 0.26172423 0.25326592 0.023939867 0.04742455 -0.5699033
-0.25582108 0.35333088 0.21902432 -0.56878614 -0.59664327 0.05182249 0.45886025 -0.2242946
-0.03663817 -0.37187234 -0.6524235 -0.2871926 0.043363247 0.005990687 -0.409517 -0.3163393
-0.1043927 0.34374782 0.6468931 -0.5081403 0.20490389 0.019263318 -0.18861373 -0.15591535
-0.28987518 -0.7294235 0.17779389 -0.17656963 -0.7521865 -0.17979614 0.117685296 0.02342771
0.17227003 0.20270777 0.5706701 -0.19394168 0.29467642 -0.3660396 -0.6769243 0.51832974
-0.16187063 0.28560084 0.53678036 0.5128621 -0.34964138 -0.7009262 0.022977134 0.43850437
0.25510445 -0.05194218 0.16851792 0.11503285 -0.02476653 -0.5514942 0.47752765 -0.14599518
-0.23387973 -0.34914076 0.23698972 -0.0767648 0.29186895 -0.14152928 0.11672811 0.7625745
0.21034896 -0.005884375 0.1337896 -0.65669256 -0.60738456 0.17916021 0.53430116 0.04758795
-0.021223389 0.11487075 0.23066238 0.18799071 0.031720318 -0.024998037 -0.5113103 -0.29696473
-0.043404207 -0.103936575 0.09800274 -0.49709314 -0.12579979 0.034748994 0.13538796 -0.16888776
-0.46625197 0.2706739 0.52202004 -0.15061365 0.56391424 0.6479587 -0.36581478 -0.37707934
0.3281917 -0.49651885 0.03797927 0.030565232 -0.25189888 0.5976583 -0.014146792 -0.14947526
0.14914905 -0.8413737 0.33122092 0.72510684 -0.43732548 -0.054107375 0.18945459 -0.2546654
-0.5015932 0.05686194 0.10418666 -0.17760965 -0.04591884 0.21435365 -0.13441938 -0.579488
0.3503603 -0.06778305 -0.13587928 -0.057987038 -0.09974285 0.070348695 0.6008607 0.05871279
0.1871221 -0.4901068 -0.16758323 -0.023176983 0.38074708 0.28123313 -0.30891985 -0.6134731
0.59933174 0.21989055 -0.33936313 0.45745838 -0.6767258 -0.3152002 0.23706377 0.7152772
1.7630504 0.42220187 0.023540538 -0.1613916 0.26228163 -0.08803701 0.24592024 0.31805128
00000000: 7940 42be 58f5 28bf 05cf 00be 2fc8 b8bd
00000010: b6b6 bcbe 1e87 a5be 7eef 5d3f 338b dfbe
00000020: 6fb8 e2bd 4c2f c7bd 1289 233f ab58 a2bd
00000030: 9dd3 aebc c83f 21bf fcb2 fa3d b499 e73e
00000040: fbb7 07bf a144 da3d 1838 4abe ab42 7d3e
00000050: 7987 793c f47e 79bf ac89 143f 5f99 79be
00000060: fb0f ed3d ad9a 31be 8a9f 2ebf 2686 81be
00000070: cb58 253d ac4f b23e 8b22 4c3f 8fe2 20bf
00000080: d563 62be 406d 03bf fd69 31be 5ae6 453e
00000090: a5fd d93b 0fa6 41be 061c a43e 3c1b 903e
000000a0: dfbb 4a3f 091c a13e 17dd 233e 8cf8 1ebe
000000b0: a0f6 afbe 838e 8cbe 133c 01be e5a2 b7be
000000c0: b6fc 193d 9629 2f3e 092f 253f 1896 1b3d
000000d0: 08d8 dc3d c1e2 a7bd 07a8 83bf 3efd 353e
000000e0: 5698 783e dc3f 07bc aea6 973e b25c 66be
000000f0: c051 50bf f2d9 213f 2c6b 6cbe 0a41 28bd
00000100: 43fe df3e 17dc 43bf d3f6 b6be 1220 c13d
00000110: a0e4 4bbe 1f32 553d f094 5c3d 3367 243f
00000120: b38d 9dbe a7fd c03e 4787 9bbe 6ab0 f23e
00000130: ddfe bd3e b3b4 27be 75e9 9bbf 7bdf 29bf
00000140: 8ba6 1ebf 0330 7f3e 58b7 043e a0ab 4ebe
00000150: fc86 18bf 1177 b8be ff0f 8cbe 0e8a 973d
00000160: 42fd 02bf c1ad b3bd 242e 87be d8ed cabe
00000170: 8984 e13e b4d0 71be 0b2c d03e 0dd3 943e
00000180: 0d25 9a3f 285a 443f c7ee f3bd b800 863e
00000190: 12ac 813e 8a1d c43c 3f40 423d 2fe5 11bf
000001a0: fbfa 82be c9e7 b43e e947 603e f89b 11bf
000001b0: 9dbd 18bf d243 543d bbef ea3e 7cad 65be
000001c0: e811 16bd 0d66 bebe 3a05 27bf e90a 93be
000001d0: a99d 313d 864d c43b 36ac d1be 3af7 a1be
000001e0: d7cb d5bd b7ff af3e c99a 253f 7c15 02bf
000001f0: 53d2 513e 1bce 9d3c f523 41be 46a8 1fbe
00000200: 856a 94be 80bb 3abf 9a0f 363e abce 34be
00000210: 4b8f 40bf 7b1c 38be fd04 f13d 78eb bf3c
00000220: 8e67 303e a092 4f3e 7017 123f a698 46be
00000230: d4df 963e 8b69 bbbe e94a 2dbf 42b1 043f
00000240: 6ac1 25be 463a 923e 706a 093f ee4a 033f
00000250: 3204 b3be e66f 33bf 8b3a bc3c a583 e03e
00000260: 0d9d 823e 53c1 54bd f68f 2c3e 5896 eb3d
00000270: 2ee3 cabc b92e 0dbf 817e f43e c37f 15be
00000280: 2b7e 6fbe 94c2 b2be 6fad 723e dd36 9dbd
00000290: d96f 953e 0ded 10be 260f ef3d 1538 433f
000002a0: b865 573e b7d1 c0bb 2400 093e 011d 28bf
000002b0: 8e7d 1bbf c675 373e f6c7 083f 95eb 423d
000002c0: acdc adbc 5b41 eb3d c232 6c3e a380 403e
000002d0: 2aed 013d afc8 ccbc 3be5 02bf c30b 98be
000002e0: 9cc8 31bd b3dc d4bd a9b5 c83d fe82 febe
000002f0: a9d1 00be f654 0e3d 24a3 0a3e eaf0 2cbe
00000300: 94b8 eebe c595 8a3e 1ba3 053f 773a 1abe
00000310: af5c 103f 9fe0 253f 134c bbbe 8b10 c1be
00000320: be08 a83e b837 febe 2790 1b3d f063 fa3c
00000330: e4f8 80be 2200 193f f2c7 67bc 0b10 19be
00000340: 87ba 183e 4464 57bf ca95 a93e 9aa0 393f
00000350: 20e9 dfbe b29f 5dbd 6200 423e 8163 82be
00000360: 6968 00bf 11e8 683d d15f d53d 4edf 35be
00000370: 6515 3cbd 867f 5b3e 3ca5 09be 5359 14bf
00000380: 6d62 b33e d7d1 8abd f023 0bbe d183 6dbd
00000390: fb45 ccbd fa12 903d 02d2 193f d37c 703d
000003a0: f09c 3f3e 47ef fabe f09a 2bbe a8dd bdbc
000003b0: 48f1 c23e cafd 8f3e be2a 9ebe 930c 1dbf
000003c0: ce6d 193f fd2a 613e 01c1 adbe fc37 ea3e
000003d0: e73d 2dbf ec61 a1be d8c0 723e 681c 373f
000003e0: a3ab e13f d82a d83e 16d8 c03c d743 25be
000003f0: c749 863e bf4c b4bd 84d2 7b3e 9ed7 a23e

features.actor.2.bias f4 [64]
-0.6543411 -0.1946184 -1.7012084 -0.048934385 0.29996073 -0.74728996 -1.906214 0.09707785
-1.0020485 -0.034072142 0.42253557 -0.18072622 0.64820266 0.23338932 0.42435995 -2.2793565
-0.10088633 1.0299507 -1.8200929 -0.041854355 0.083030924 0.04166455 -0.62274367 -0.3924891
0.50236255 -0.5183074 -1.7159857 0.16890544 0.055583633 0.09157003 0.60522896 -0.52916723
-0.4731849 -0.5003161 0.05122281 0.074243605 -0.928171 -0.83120626 -0.2932944 -0.7649813
0.19521266 -1.4466532 -1.7986444 -0.72012514 0.74025196 0.48803172 -0.04278703 0.24322693
0.06979856 0.0035472559 0.99480486 -0.8339251 -0.03979672 0.02898358 0.30812973 0.35544574
0.18502255 -0.51239055 -0.3650173 -0.7997562 -0.4590483 1.0574564 0.3095137 -0.7513364
00000000: e682 27bf 0c4a 47be 32c1 d9bf 6c6f 48bd
00000010: 7494 993e 654e 3fbf d2fe f3bf c0d0 c63d
00000020: 2043 80bf 3b8f 0bbd 9556 d83e 4b10 39be
00000030: 9cf0 253f 9cfd 6e3e b545 d93e fae0 11c0
00000040: 7e9d cebd 6dd5 833f cef8 e8bf 796f 2bbd
00000050: 1e0c aa3d 72a8 2a3d 216c 1fbf 55f4 c8be
00000060: d59a 003f cbaf 04bf 6ba5 dbbf 8cf5 2c3e
00000070: aaab 633d 1189 bb3d 49f0 1a3f 8177 07bf
00000080: 4b45 f2be b714 00bf 02cf 513d 080d 983d
00000090: 9d9c 6dbf efc9 54bf af2a 96be d1d5 43bf
000000a0: d4e5 473e ef2b b9bf fb39 e6bf 1f5a 38bf
000000b0: 2781 3d3f 4bdf f93e 7441 2fbd 7b10 793e
000000c0: 8cf2 8e3d 1479 683b 88ab 7e3f 1e7c 55bf
000000d0: e301 23bd f96e ed3c 2ec3 9d3e fcfc b53e
000000e0: 8d76 3d3e 072c 03bf 8ce3 babe d3bc 4cbf
000000f0: 6108 ebbe bb5a 873f 9478 9e3e 9557 40bf

critic.0.weight f4 [1, 64]
0.0714834 -0.20528245 -0.21489877 -0.09665499 -0.20155998 -0.2607247 -0.4052124 -0.19146757
-0.21745083 -0.16094454 -0.10651235 0.076370515 0.20803505 0.06507237 0.20148125 -0.1466549
-0.12921321 0.07774105 -0.7149279 -0.10129976 -0.23237556 0.015756581 -0.038825642 -0.051775657
0.08253939 -0.28432927 -0.30582982 0.11077825 0.1135201 -0.055278223 -0.0146446815 -0.1261038
-0.025618307 -0.0010255369 -0.17507178 0.2671289 -0.08582421 -0.08064969 -0.1372158 0.016273886
-0.07530491 -0.41941884 -0.32874474 -0.26229587 -0.03577175 0.27949527 0.06808983 0.012287658
0.15010418 0.098848544 0.12985222 0.048328165 0.028901597 -0.17541005 0.045302846 -0.040047184
0.08979034 -0.17014098 -0.013058461 -0.13988687 0.0053701494 0.11178264 -0.09219086 -0.07120039
00000000: e465 923d 9035 52be 6c0e 5cbe 0df3 c5bd
00000010: bd65 4ebe b57d 85be 0078 cfbe 1310 44be
00000020: 6eab 5ebe a5ce 24be 2623 dabd 2568 9c3d
00000030: 2407 553e aa44 853d 1a51 4e3e b42c 16be
00000040: 7850 04be b336 9f3d 8405 37bf 4076 cfbd
00000050: dcf3 6dbe f213 813c a307 1fbd b612 54bd
00000060: 690a a93d 9b93 91be ba95 9cbe b5df e23d
00000070: 3a7d e83d 6b6b 62bd 3ff0 6fbc 5b21 01be
00000080: 7cdd d1bc 4f6b 86ba 0446 33be 1fc5 883e
00000090: 9ac4 afbd aa2b a5bd 4c82 0cbe d050 853c
000000a0: 7639 9abd 11be d6be 3b51 a8be a54b 86be
000000b0: 6685 12bd 011a 8f3e ae72 8b3d 2c52 493c
000000c0: e9b4 193e 1b71 ca3d fbf7 043e c1f3 453d
000000d0: 0bc3 ec3c b19e 33be 7a8f 393d 8408 24bd
000000e0: ffe3 b73d 7039 2ebe 28f3 55bc 813e 0fbe
000000f0: 14f8 af3b 4cee e43d 90ce bcbd 83d1 91bd

critic.1.weight f4 [1, 64]
-0.045202136 -0.01483946 -0.27196684 0.02894317 0.028767938 -0.04673929 -0.48844975 -0.026191829
-0.027304204 -0.0043626167 0.05110618 -0.03418402 0.028770767 -0.040452845 0.012407817 -0.6239425
-0.025432551 0.09211761 -0.58537376 0.035807565 0.013982099 0.034036998 -0.03690248 0.031439763
0.023086298 -0.037346736 -0.06604294 -0.03130786 0.043676954 0.012401294 0.012608138 0.01848879
0.0009149801 -0.04160551 0.026953002 -0.03527715 0.025319695 -0.026138524 0.02138877 -0.07872745
0.026590712 -0.6321159 -0.42132005 -0.0064829653 0.068007186 -0.03333939 0.030983375 -0.0005328626
0.018396813 -0.04258814 0.05436948 -0.051054437 0.015229353 -0.0025119232 -0.030595427 -0.029604096
0.003928364 -0.002658212 -0.0018911025 -0.022023926 -0.060292177 -0.0056863353 0.0022022706 0.016320992
00000000: e025 39bd 3521 73bc 3d3f 8bbe 3a1a ed3c
00000010: bdaa eb3c b371 3fbd 1616 fabe 3f90 d6bc
00000020: 11ad dfbc 48f4 8ebb b754 513d 8b04 0cbd
00000030: acb0 eb3c e2b1 25bd 284a 4b3c b2ba 1fbf
00000040: ed57 d0bc 28a8 bc3d 0edb 15bf f4aa 123d
00000050: 2c15 653c 616a 0b3d 0e27 17bd fbc6 003d
00000060: 7a1f bd3c e4f8 18bd 8541 87bd ac3c 00bd
00000070: 9be6 323d cc2e 4b3c 5d92 4e3c ce75 973c
00000080: 46db 6f3a 8a6a 2abd 8bcc dc3c c67e 10bd
00000090: 406b cf3c 7520 d6bc 8037 af3c db3b a1bd
000000a0: c4d4 d93c 59d2 21bf 43b7 d7be 0e6f d4bb
000000b0: 5a47 8b3d e28e 08bd d9d0 fd3c ceaf 0bba
000000c0: eab4 963c e770 2ebd 88b2 5e3d 751e 51bd
000000d0: 8984 793c 149f 24bb 43a3 fabc 4a84 f2bc
000000e0: 81b9 803b 6635 2ebb dfde f7ba 856b b4bc
000000f0: eef4 76bd 7054 babb f853 103b 9ab3 853c

critic.2.weight f4 [1, 64]
0.014896887 -0.0313299 -0.41272175 0.027898744 -0.035039634 0.008913219 -0.3561679 -0.008041089
-0.043915432 0.011496786 -0.014337458 0.015592041 0.042079322 0.011269658 -0.0020573523 -0.5783039
0.10567036 0.39996684 -0.41795322 -0.003930083 -0.03950284 -0.039566725 0.014099432 0.018193739
-0.0212609 0.042027995 -0.038293593 -0.027941763 0.057818137 0.0019299877 0.014732164 0.0252247
0.0081823915 -0.010000185 -0.04106721 -0.022381676 0.013761596 -0.079646714 0.0077600786 -0.016938364
0.011144613 -0.019586777 -0.3464888 0.023547748 0.05958198 -0.011248847 0.0021615468 0.00339436
0.016745917 -0.0017008471 -0.0135496985 0.015178496 -0.010107799 0.026509829 0.0071105715 0.008161806
-0.06293032 -0.023846932 0.017705299 -0.051206175 -0.019508427 0.03416554 -0.019774972 0.036819596
00000000: 1312 743c c853 00bd 4450 d3be e88b e43c
00000010: b885 0fbd c008 123c a45b b6be c6be 03bc
00000020: abe0 33bd 045d 3c3c a8e7 6abc c375 7f3c
00000030: 5e5b 2c3d 5fa4 383c a5d4 06bb b90b 14bf
00000040: b469 d83d 74c8 cc3e f7fd d5be edc7 80bb
00000050: bbcd 21bd b810 22bd 4e01 673c 090b 953c
00000060: 572b aebc 8c25 2c3d bed9 1cbd 20e6 e4bc
00000070: b6d2 6c3d a4f7 fc3a 2d5f 713c 08a4 ce3c
00000080: 700f 063c d1d7 23bc 1736 28bd c759 b7bc
00000090: 5178 613c d11d a3bd 4248 fe3b 53c2 8abc
000000a0: e597 363c 7374 a0bc fb66 b1be 35e7 c03c
000000b0: 3c0c 743d 154d 38bc bda8 0d3b e973 5e3b
000000c0: bc2e 893c f5ee deba 8eff 5dbc 3aaf 783c
000000d0: 2f9b 25bc 242b d93c ccff e83b 18b9 053c
000000e0: 9de1 80bd a45a c3bc b40a 913c 91bd 51bd
000000f0: 23d0 9fbc 2af1 0b3d 1fff a1bc 25d0 163d

critic.3.weight f4 [1, 64]
-0.15601158 0.034349527 -0.2229329 0.038993046 0.06611454 -0.2760211 -0.05646835 -0.014067363
0.06225095 -0.08405934 0.06880619 -0.064445235 -0.12021471 -0.018988227 -0.117081076 -0.49371144
-0.043116793 0.025363473 -0.29952276 0.013055824 -0.04776652 -0.12805966 -0.025619905 -0.051878184
0.3695958 -0.05224581 -0.74229026 -0.13555071 -0.100765534 -0.23275594 0.20187506 -0.13501814
0.062306955 -0.0691208 0.04963324 -0.13141121 -0.13260022 -0.02397882 -0.20898774 -0.19130348
-0.21161146 0.012090748 -0.16978322 0.15139644 -0.038132284 -0.030878572 0.0989323 -0.035504226
-0.06268322 0.21330543 0.19624287 -0.07099072 0.06290747 0.11619682 0.2572267 0.1661012
-0.055110853 -0.016425485 0.15811136 0.044000857 0.087470226 0.18638104 0.037194338 -0.1974685
00000000: 80c1 1fbe 17b2 0c3d 8648 64be 2cb7 1f3d
00000010: 0f67 873d a352 8dbe 5b4b 67bd cc7a 66bc
00000020: dafa 7e3d 4e27 acbd 42ea 8c3d ddfb 83bd
00000030: 2133 f6bd 338d 9bbc 34c8 efbd bfc7 fcbe
00000040: 3c9b 30bd 0fc7 cf3c 0c5b 99be 18e8 553c
00000050: d4a6 43bd 1222 03be d6e0 d1bc 387e 54bd
00000060: a93b bd3e b4ff 55bd bc06 3ebf cecd 0abe
00000070: 295e cebd 9357 6ebe 56b8 4e3e 3242 0abe
00000080: 9435 7f3d 358f 8dbd 394c 4b3d a990 06be
00000090: 5ac8 07be 3b6f c4bc e200 56be 0fe5 43be
000000a0: adb0 58be 4618 463c a7db 2dbe ab07 1b3e
000000b0: 9930 1cbd 0ff5 fcbc 059d ca3d e16c 11bd
000000c0: 0f60 80bd bd6c 5a3e e4f3 483e 9563 91bd
000000d0: a2d5 803d 99f8 ed3d 38b3 833e 6f16 2a3e
000000e0: ebbb 61bd bd8e 86bc f2e7 213e 3e3a 343d
000000f0: 9723 b33d acda 3e3e 1759 183d 2f35 4abe

critic.4.weight f4 [1, 64]
0.0005376064 0.00025241988 0.00087946985 0.0011986265 0.00095582457 4.6551893e-05 0.00013686006 0.00054195256
0.0005022582 0.00067943335 0.0010374042 0.000103196595 -0.0004731572 0.00031180563 -0.0002374469 -0.0013670754
0.00072971114 0.00074601435 0.00012996087 2.8634262e-05 -0.00033988644 -0.00033693365 3.3021235e-05 -0.00016008121
-8.990181e-05 -0.00055266154 0.0003698517 8.8724795e-05 -0.00026126904 -0.00063903147 1.5849666e-05 0.00022213267
-0.000196857 0.00045393137 -0.00030590204 0.00011191652 -0.00041330044 -0.00012407183 0.00010384958 0.00022368465
0.00019066286 -0.00094018225 0.0012572521 -6.527913e-05 -0.00059874577 -0.0010223319 -1.2939544e-05 0.0005995249
-6.203371e-05 -7.607977e-05 0.0003566721 9.908513e-05 -0.00080633373 -0.00018146356 0.0014903008 0.0010362818
0.00046952692 0.0004181588 -0.00013584766 0.0003168633 0.0005933355 -0.0004216896 0.00056993484 -0.00017786701
00000000: 28ee 0c3a 3957 8439 398c 663a 3b1b 9d3a
00000010: 4d90 7a3a b740 4338 1882 0f39 d211 0e3a
00000020: faa9 033a 001c 323a 82f9 873a 406b d838
00000030: 1612 f8b9 d879 a339 2bfb 78b9 702f b3ba
00000040: 164a 3f3a 2d90 433a 1b46 0839 9c33 f037
00000050: c932 b2b9 78a6 b0b9 4880 0a38 79db 27b9
00000060: ab89 bcb8 7de0 10ba a8e8 c139 c311 ba38
00000070: f0fa 88b9 ad84 27ba e6f4 8437 49ec 6839
00000080: 666b 4eb9 a3fd ed39 7a61 a0b9 b9b4 ea38
00000090: 3fb0 d8b9 4719 02b9 d2c9 d938 e48c 6a39
000000a0: acec 4739 9076 76ba 61ca a43a 77e6 88b8
000000b0: 26f5 1cba c4ff 85ba eb16 59b7 6f29 1d3a
000000c0: 1818 82b8 048d 9fb8 b8ff ba39 edcb cf38
000000d0: 2460 53ba 4147 3eb9 3256 c33a d9d3 873a
000000e0: d62a f639 533c db39 5472 0eb9 ac20 a639
000000f0: 128a 1b3a 3816 ddb9 ae67 153a d081 3ab9

dist.0.linear.weight f4 [7, 64]
0.2453992 -0.19060045 0.27630684 0.056104474 -0.31958866 -0.09055391 0.17370509 0.1720991
-0.10837563 -0.14207643 -0.13357003 -0.31819463 0.21096621 -0.14768197 -0.087554574 0.2054228
-0.19280775 -0.09726572 -0.013510825 -0.19236575 -0.25155014 -0.12047282 -0.087335296 -0.09296277
0.21210116 -0.049337953 -0.12213851 0.24609283 0.24888566 0.5336703 -0.5372649 0.24173191
0.46832958 0.18662326 0.051012345 0.09431944 0.047248434 -0.104873076 0.37761724 -0.2654067
0.114823036 -0.077661194 0.17550136 -0.05960626 -0.2406061 0.100272 -0.12039034 0.27930003
0.05637364 -0.15645464 -0.36856884 0.4591032 0.5011115 0.3129965 0.36015695 0.4994881
-0.22578232 -0.12621059 -0.20562373 0.49008283 -0.04787295 0.30103388 0.2801124 0.30733046
-0.3553464 -0.2881126 -0.15225263 -0.20917588 0.52704656 0.12784845 -0.21315621 -0.38322827
-0.3054234 -0.24867931 -0.25565386 0.30786285 -0.30084935 0.11008467 0.29684502 -0.07661247
-0.31985605 -0.18808998 -0.2748978 0.38557523 -0.021665273 -0.66947097 0.06432649 -0.1571062
0.08052367 -0.08012563 -0.035318714 -0.579237 -0.2018129 -0.08044772 -0.13981192 -0.23139615
-0.13091372 0.051172864 0.4401507 0.24497582 0.13559178 -0.5893633 -0.42011356 -0.2019511
0.2152249 -0.21720633 -0.177275 0.14252453 0.41564378 0.19285692 -0.22488043 0.17325883
0.17882116 -0.28315157 -0.048557058 0.22683275 0.39190862 0.05588072 0.1196623 0.4048076
0.32003444 0.23539606 -0.67669374 -0.421965 0.3890413 -0.2012688 -0.5474487 -0.18180045
-0.32333317 -0.1607758 -0.07965664 0.29701716 -0.24389187 -0.10086507 -0.1913792 -0.023002077
-0.063861154 0.16589406 -0.056537863 0.12770288 0.25849232 0.431077 -0.1350443 -0.07792665
0.29712313 0.23630616 -0.080696695 -0.26010272 0.2534195 0.37736884 -0.21515016 0.13497156
-0.2925279 -0.15537554 -0.24847315 0.4143301 0.20388068 -0.4021199 0.20971915 -0.33846673
-0.19369268 -0.074222304 -0.26960757 0.3097881 -0.44394365 0.45968613 -0.06464412 0.2372812
-0.37098643 -0.14310995 -0.12796247 -0.055846054 0.054930408 -0.08337058 0.23975465 -0.62004465
0.0401458 0.31747967 0.07068888 -0.43726367 -0.4263431 -0.57754165 -0.2554658 -0.25255263
-0.8959666 -0.15545164 0.48806864 -0.09934064 0.36827528 0.29513052 -0.12508559 -0.09797517
0.36212406 0.06695731 -0.19322911 -0.17224646 -0.17718025 0.089224204 -0.16779771 0.1326196
0.3135429 0.06541823 0.5835193 0.007947116 -0.055965967 0.11639554 -0.18673486 -0.17126612
0.07065403 0.028885212 0.08076741 -0.0035206538 -0.18139996 0.17600034 -0.20325907 -0.10177164
0.10547407 -0.054567747 -0.0884605 -0.4335695 -0.27214396 -0.17475729 0.29433215 0.055568177
0.07623129 -0.14708138 -0.10593934 -0.38135466 0.2992227 0.25232157 -0.4271226 0.1366086
-0.09311911 0.004896239 -0.14282484 -0.062665135 -0.23656628 0.045887098 0.21889856 0.20316178
-0.28476802 0.15118662 0.17388357 -0.00034716135 -0.060856674 -0.13378753 -0.27666584 -0.26136938
0.5180708 -0.123805374 0.121268965 -0.11006657 -0.6057944 -0.4197073 0.14141136 -0.029996522
00000000: ee49 7b3e c42c 43be 1778 8d3e cecd 653d
00000010: 20a1 a3be 5474 b9bd bfdf 313e bf3a 303e
00000020: 0bf4 ddbd 7c7c 11be 95c6 08be 68ea a2be
00000030: 8707 583e f139 17be d04f b3bd 5b5a 523e
00000040: 656f 45be 4033 c7bd 825c 5dbc 87fb 44be
00000050: 2ecb 80be 74ba f6bd d9dc b2bd 4463 bebd
00000060: 0c31 593e 9816 4abd c123 fabd c2ff 7b3e
00000070: e2db 7e3e 9e9e 083f 318a 09bf 9288 773e
00000080: e5c8 ef3e 2b1a 3f3e 52f2 503d 8d2a c13d
00000090: 9387 413d b2c7 d6bd 0c57 c13e 63e3 87be
000000a0: 5728 eb3d d50c 9fbd a1b6 333e b225 74bd
000000b0: 7261 76be 685b cd3d 368f f6bd 6a00 8f3e
000000c0: 0ce8 663d a535 20be 0eb5 bcbe 930f eb3e
000000d0: d848 003f 1441 a03e 7e66 b83e e7bc ff3e
000000e0: 7b33 67be 593d 01be 078f 52be 23ec fa3e
000000f0: 6d16 44bd 1d21 9a3e e46a 8f3e 6b5a 9d3e
00000100: f7ef b5be 7f83 93be 1de8 1bbe 3432 56be
00000110: 86ec 063f b4ea 023e 9f45 5abe 7f36 c4be
00000120: 7560 9cbe caa5 7ebe 10e5 82be 33a0 9d3e
00000130: ed08 9abe 1274 e13d 12fc 973e 00e7 9cbd
00000140: 2cc4 a3be a99a 40be 68bf 8cbe 1e6a c53e
00000150: 5f7b b1bc 7362 2bbf 9bbd 833d 73e0 20be
00000160: 98e9 a43d e818 a4bd 5baa 10bd e048 14bf
00000170: 0aa8 4ebe c6c1 a4bd db2a 0fbe 1df3 6cbe
00000180: 3f0e 06be a39a 513d 6f5b e13e f1da 7a3e
00000190: 92d8 0a3e 83e0 16bf 2019 d7be 45cc 4ebe
000001a0: eb63 5c3e 566b 5ebe 9487 35be f3f1 113e
000001b0: 43cf d43e 497c 453e 0e47 66be c36a 313e
000001c0: e51c 373e 3ef9 90be c4e3 46bd d846 683e
000001d0: 3fa8 c83e 2fe3 643d 8211 f53d f142 cf3e
000001e0: 8edb a33e aa0b 713e cd3b 2dbf cc0b d8be
000001f0: 6c30 c73e 6919 4ebe 9925 0cbf e629 3abe
00000200: ed8b a5be 69a2 24be 0523 a3bd a212 983e
00000210: cabe 79be 5992 cebd e9f8 43be da6e bcbc
00000220: a3c9 82bd 22e0 293e 3f94 67bd 8bc4 023e
00000230: 1b59 843e 20b6 dc3e 0e49 0abe 0298 9fbd
00000240: 8620 983e 3efa 713e 4f44 a5bd 2f2c 85be
00000250: 33c0 813e 7d36 c13e 5350 5cbe fc35 0a3e
00000260: 38c6 95be c41a 1fbe bf6f 7ebe 1323 d43e
00000270: 19c6 503e a9e2 cdbe 9ec0 563e 834b adbe
00000280: 6057 46be dd01 98bd 010a 8abe 8c9c 9e3e
00000290: 954c e3be fb5b eb3e 2364 84bd d8f9 723e
000002a0: eff1 bdbe 6a8b 12be 9808 03be d5be 64bd
000002b0: b5fe 603d 32be aabd 3e82 753e 3fbb 1ebf
000002c0: ec6f 243d b28c a23e 55c5 903d 06e1 dfbe
000002d0: a549 dabe c5d9 13bf 6acc 82be 944e 81be
000002e0: 115e 65bf b72e 1fbe 22e4 f93e 1b73 cbbd
000002f0: 948e bc3e 591b 973e 7016 00be 35a7 c8bd
00000300: 5368 b93e ea20 893d dadd 45be 6061 30be
00000310: bd6e 35be 2ebb b63d 2ad3 2bbe 6fcd 073e
00000320: b288 a03e fef9 853d 8561 153f 9f34 023c
00000330: 923c 65bd c960 ee3d 6c37 3fbe 6360 2fbe
00000340: 0fb3 903d aea0 ec3c 6269 a53d c5ba 66bb
00000350: e9c0 39be 6f39 343e 2523 50be a66d d0bd
00000360: ca02 d83d 6e82 5fbd c72a b5bd d2fc ddbe
00000370: 7456 8bbe 93f3 32be b4b2 963e 759b 633d
00000380: 271f 9c3d 809c 16be baf6 d8bd eb40 c3be
00000390: b833 993e 4b30 813e d0af dabe 20e3 0b3e
000003a0: 3bb5 bebd a170 a03b ad40 12be 9456 80bd
000003b0: 6e3e 72be 1cf4 3b3d f226 603e a409 503e
000003c0: 1dcd 91be aad0 1a3e 890e 323e 3503 b6b9
000003d0: d944 79bd 99ff 08be 25a7 8dbe 35d2 85be
000003e0: 4aa0 043f ac8d fdbd dd5b f83d 956a e1bd
000003f0: 5815 1bbf e0e3 d6be 24ce 103e 44bb f5bc

dist.0.linear.bias f4 [7]
0.04649163 0.3705172 0.1302912 0.04195363 -0.2581326 -0.114141226 -0.013631219
00000000: 026e 3e3d 6eb4 bd3e 0e6b 053e 92d7 2b3d
00000010: f529 84be e0c2 e9bd 7a55 5fbc

dist.1.linear.weight f4 [7, 64]
-0.2024236 -0.036594488 -0.022757685 -0.32061931 -0.37735286 0.063503414 -0.22576003 0.087133236
0.09953276 0.045394965 -0.007732278 -0.13910949 0.5944981 -0.21773688 -0.2610363 -0.24820416
-0.34071818 0.13673463 -0.2269703 -0.5473835 -0.2605766 -0.39087465 -0.22175738 0.03879853
-0.0015838182 -0.13912317 0.050272442 0.37269372 0.42633495 -0.14751694 -0.35483122 0.2202472
0.50980103 0.5616022 -0.07050422 0.35183483 -0.004278758 -0.38836524 0.024314696 -0.22696336
0.030343033 -0.11241499 -0.24150118 -0.4591766 -0.21572094 -0.105406985 0.076176584 -0.458071
0.21305028 -0.0682232 0.30463925 -0.120350964 -0.14114316 0.48340943 0.12156509 0.4030958
-0.28533068 -0.008601539 -0.30928054 0.3381397 0.38367483 0.31740904 0.1473086 0.013596997
0.09865958 -0.25491253 -0.053835776 -0.34050795 0.17721881 -0.10042548 -0.1068777 0.36668032
-0.39154196 0.20680904 0.36034203 0.25979093 0.048836682 -0.030863121 -0.37624592 -0.016635304
-0.07199954 -0.25710693 -0.035049986 0.18008858 -0.14575815 0.36704805 -0.13500106 -0.40429917
-0.38117063 -0.3280269 -0.33729306 -0.2152339 0.18566915 -0.2664653 0.30241188 -0.27503645
-0.43943998 -0.29779258 0.29189935 0.41642556 -0.1683613 0.08523352 -0.69443876 0.17002384
0.3609421 0.07864846 -0.15739281 0.5163685 0.23066019 -0.25903496 0.14134386 -0.34959352
0.04471568 -0.15574606 -0.4322119 0.111820795 0.1027704 -0.42874306 0.3591747 0.23174801
-0.45434022 -0.23651153 -0.13537133 -0.33857465 0.023662211 -0.08831597 0.11471286 0.15457222
-0.29892144 0.30279565 -0.19452204 0.5833933 0.14815667 0.15969442 -0.1049371 -0.0133353835
-0.2155685 -0.36160675 0.030819608 0.104076184 -0.40689388 0.30552235 0.16004568 -0.12109117
0.30159503 0.001842681 -0.041409664 0.14903156 0.24989319 -0.098561265 0.00051570794 0.5186277
0.11899434 0.45724216 -0.20924212 0.34090078 -0.45806646 0.35348156 0.119926706 -0.12723273
0.011343168 -0.14187716 -0.23908891 -0.3730675 -0.31683415 -0.142347 0.29515985 -0.18603913
-0.17549802 -0.27865282 -0.09075858 -0.27980897 0.19241887 0.43090555 -0.109082006 0.4029654
0.1060455 0.14357528 0.3975035 -0.1862499 0.3995649 0.077710904 -0.29957557 -0.10896835
0.15947096 0.28994197 0.24422683 -0.19979887 -0.20372643 0.24777697 -0.21573608 -0.45605627
0.36382985 -0.10845207 -0.07362741 0.0055526835 -0.23038204 -0.26421544 -0.09679942 -0.31671163
0.28539264 0.00016954662 0.04778121 -0.01736477 -0.08057591 0.024583517 0.14495517 -0.09653326
0.15043758 0.24708785 -0.17598021 0.015910447 0.048053727 0.0065363073 -0.20171057 -0.25101858
0.24280338 -0.1384792 0.11838662 -0.4009084 -0.062914304 -0.23575577 0.29430363 -0.07411316
0.005213731 -0.06910947 -0.16474408 -0.27037206 0.42888534 0.17482285 -0.1469102 0.252036
0.13243417 -0.08053747 0.057295028 -0.16535242 -0.33897206 0.05623533 0.14051697 0.044292856
-0.41458052 0.25387433 0.043734252 -0.09264556 -0.34056753 0.13458005 -0.27182168 -0.32164538
0.22787869 0.08890531 -0.095096745 -0.124124505 -0.1754087 -0.44441777 -0.19846414 0.44019833
00000000: 2248 4fbe 1ae4 15bd 536e babc 3728 a4be
00000010: 6534 c1be 140e 823d a32d 67be e972 b23d
00000020: d5d7 cb3d 12f0 393d 0d5f fdbb b872 0ebe
00000030: 0731 183f 6bf6 5ebe 8da6 85be 3b29 7ebe
00000040: 9d72 aebe 2a04 0c3e e76a 68be 5321 0cbf
00000050: 4c6a 85be b920 c8be 5e14 63be 35eb 1e3d
00000060: 1f98 cfba 4e76 0ebe 7aea 4d3d b6d1 be3e
00000070: 9348 da3e ae0e 17be 70ac b5be 7b88 613e
00000080: 5282 023f 29c5 0f3f 8464 90bd b223 b43e
00000090: d334 8cbb cfd7 c6be 9d2f c73c 1569 68be
000000a0: f491 f83c d539 e6bd 164c 77be 3219 ebbe
000000b0: f3e5 5cbe 9edf d7bd 7802 9c3d 4888 eabe
000000c0: da29 5a3e 9bb8 8bbd adf9 9b3e 917a f6bd
000000d0: d587 10be 7181 f73e 1ef7 f83d 9362 ce3e
000000e0: dd16 92be 78ed 0cbc 055a 9ebe a620 ad3e
000000f0: 0771 c43e 7083 a23e 11d8 163e f0c5 5e3c
00000100: 090e ca3d e583 82be e782 5cbd 0f57 aebe
00000110: d978 353e e0ab cdbd b2e2 dabd 86bd bb3e
00000120: 3078 c8be c0c5 533e c07e b83e 5103 853e
00000130: f908 483d a8d4 fcbc 4ea3 c0be c346 88bc
00000140: 7f74 93bd 85a3 83be 9390 0fbd 2469 383e
00000150: a041 15be b9ed bb3e b83d 0abe 4d00 cfbe
00000160: cc28 c3be 24f3 a7be adb1 acbe 4766 5cbe
00000170: 0e20 3e3e 246e 88be bbd5 9a3e 94d1 8cbe
00000180: 47fe e0be 4578 98be d573 953e bb35 d53e
00000190: e866 2cbe e98e ae3d bdc6 31bf bb1a 2e3e
000001a0: 67cd b83e 7212 a13d 952b 21be ba30 043f
000001b0: 2f32 6c3e 3ba0 84be 72bc 103e ecfd b2be
000001c0: ca27 373d e57b 1fbe e14a ddbe 4d02 e53d
000001d0: 4a79 d23d 3684 dbbe bfe5 b73e 5a4f 6d3e
000001e0: 489f e8be 1430 72be c89e 0abe a859 adbe
000001f0: 41d7 c13c 01df b4bd 93ee ea3d 2e48 1e3e
00000200: 3b0c 99be 0808 9b3e c930 47be 4359 153f
00000210: 62b6 173e ef86 233e 43e9 d6bd a77c 5abc
00000220: fdbd 5cbe 8524 b9be 6779 fc3c e525 d53d
00000230: 6554 d0be 6d6d 9c3e 04e3 233e a6fe f7bd
00000240: aa6a 9a3e 1d86 f13a 2e9d 29bd bb9b 183e
00000250: 00e4 7f3e 7dda c9bd 9330 073a c9c4 043f
00000260: 4eb3 f33d a51b ea3e 9143 56be 8c8a ae3e
00000270: b087 eabe 89fb b43e 229c f53d 4c49 02be
00000280: b2d8 393c 3f48 11be b9d3 74be b402 bfbe
00000290: 1638 a2be 69c3 11be 311f 973e 0b81 3ebe
000002a0: c1b5 33be 95ab 8ebe a2df b9bd 1f43 8fbe
000002b0: 7409 453e a79f dc3e 6366 dfbd 7b51 ce3e
000002c0: 622e d93d 6605 133e 9485 cb3e 4bb8 3ebe
000002d0: c593 cc3e e526 9f3d f861 99be cc2a dfbd
000002e0: 5b4c 233e 4673 943e 9916 7a3e 1398 4cbe
000002f0: a99d 50be 3fb9 7d3e ebe9 5cbe 3580 e9be
00000300: e847 ba3e 1e1c debd f8c9 96bd 49f3 b53b
00000310: 45e9 6bbe 3f47 87be c63e c6bd 0728 a2be
00000320: fc1e 923e 53c8 3139 3bb6 433d 9040 8ebc
00000330: fc04 a5bd 5f63 c93c 216f 143e 3bb3 c5bd
00000340: 4f0c 1a3e 9904 7d3e 2834 34be a056 823c
00000350: fcd3 443d 852e d63b 378d 4ebe 8285 80be
00000360: 73a1 783e 7ecd 0dbe af74 f23d de43 cdbe
00000370: 37d9 80bd f669 71be f7ae 963e a4c8 97bd
00000380: f2d7 aa3b 4489 8dbd acb2 28be 356e 8abe
00000390: dc96 db3e c304 333e a16f 16be dd0a 813e
000003a0: d39c 073e d4f0 a4bd 31ae 6a3d 2552 29be
000003b0: bf8d adbe 0457 663d aee3 0f3e 6d6c 353d
000003c0: e643 d4be d1fb 813e b022 333d f5bc bdbd
000003d0: de5e aebe 5acf 093e 362c 8bbe b4ae a4be
000003e0: 0859 693e fd13 b63d 15c2 c2bd fd34 febd
000003f0: 579e 33be ba8a e3be 2f3a 4bbe ad61 e13e

dist.1.linear.bias f4 [7]
0.23486377 0.11721446 0.0592465 0.033757057 -0.12470444 -0.12204912 -0.10643977
00000000: 2180 703e 230e f03d 75ac 723d d744 0a3d
00000010: 0b65 ffbd e4f4 f9bd 18fd d9bd

dist.2.linear.weight f4 [7, 64]
-0.23721538 -0.15407114 -0.1147304 -0.46413335 -0.2724994 -0.15169267 -0.124675125 0.14072633
0.41121948 0.3972075 -0.5628256 -0.51545334 0.14637938 -0.29843894 -0.13965805 -0.10954885
-0.06595642 0.117665105 -0.10483352 -0.5313019 -0.01573201 -0.025771499 -0.41358143 -0.37961695
-0.17648199 -0.0019715955 -0.088720344 0.2018757 0.19539742 -0.10811492 0.01259948 0.24641019
0.37843063 0.17237194 0.015871448 0.31874034 0.030170241 -0.06853228 0.030901577 -0.020622179
0.08523576 -0.17367244 -0.15074435 0.057957437 -0.47508392 -0.16459945 0.091299444 -0.3063013
0.1183386 -0.10361556 0.0582579 -0.20705214 -0.018680751 0.3324103 0.16377276 -0.071341395
0.08809935 -0.11408003 -0.06018797 0.10651082 0.44610187 -0.21253799 -0.44323426 0.0500045
-0.18792461 -0.23869205 -0.17694247 -0.023495063 0.26429522 -0.20904839 -0.109428726 0.32583988
-0.14443368 0.3821052 0.44377872 0.5483844 0.23556896 0.034276336 -0.28352636 -0.18025866
0.010794969 0.12740342 -0.18039921 0.36076707 -0.14780958 0.17170559 0.15910074 -0.21619782
-0.4933408 -0.52437776 0.14250799 -0.2718824 0.3519361 -0.24698155 0.16787322 -0.24942745
-0.33038667 -0.4158103 0.072961114 0.327402 -0.028677152 0.006707208 -0.38877523 0.3239005
-0.018360581 0.13855459 -0.15332387 -0.005640552 0.29496047 -0.32020265 0.25867373 -0.33924526
-0.08103209 -0.26680833 -0.22252281 -0.12698525 -0.31996396 -0.30469647 0.13596958 0.13784054
-0.13160203 -0.3767763 -0.18499461 -0.16706316 -0.27027142 0.07913231 0.30179113 -0.03903912
0.0149292145 0.3020781 -0.32071343 0.2987743 -0.19930102 0.09253748 -0.37215418 -0.16706361
-0.51768255 -0.5740212 0.31675822 -0.12657736 0.08273418 0.2484462 0.24984147 -0.33509004
0.12373434 0.33338127 -0.3243901 0.094262846 0.035307053 -0.13885751 0.16605316 0.52566886
0.56406486 0.3364199 -0.3508085 0.03264025 -0.37713137 0.20307271 -0.045742027 -0.02020099
-0.1666531 0.2971968 -0.08791572 -0.45612487 -0.15652177 -0.5202922 0.29484415 -0.48182607
0.23127638 -0.33599353 -0.32660913 -0.33595273 0.2968575 0.423526 -0.36170036 0.6227602
-0.034016255 0.32910284 0.42456725 0.124944635 0.21977964 -0.14606515 -0.1496598 0.14296226
-0.08537027 0.19342323 0.17209049 -0.29230604 -0.2181032 0.3532794 0.055954695 -0.26682553
-0.050540186 0.057862338 0.07808643 0.32279396 0.049961425 0.27854875 0.07546734 0.06729569
0.05307542 -0.14033277 0.043817647 0.10388085 -0.041792363 0.103274085 -0.062937684 0.08867368
0.046567734 -0.06661049 0.09751297 0.06482791 0.102351785 -0.026994068 -0.17386308 0.19546714
0.08438866 0.20732778 -0.05547898 0.19977064 -0.06283958 -0.1779834 0.052563425 -0.009204601
0.015849635 0.02314958 0.05462449 -0.1703807 -0.0720656 0.13662285 0.16768648 0.08238504
-0.11978269 -0.010567347 0.09302028 -0.19654971 0.015230071 0.08053917 0.066057295 0.1323291
-0.040846057 0.06672604 0.015645383 0.002984579 -0.021496441 -0.3175935 -0.109146416 0.10960657
-0.07386224 0.11943442 -0.06768144 -0.18595786 -0.10193529 0.07566318 0.13132831 -0.05806237
00000000: 97e8 72be d3c4 1dbe c6f7 eabd e3a2 edbe
00000010: 0b85 8bbe 5355 1bbe ac55 ffbd 901a 103e
00000020: 5c8b d23e c85e cb3e 5715 10bf c0f4 03bf
00000030: 7ae4 153e fdcc 98be 8502 0fbe 265b e0bd
00000040: 2914 87bd 67fa f03d f5b2 d6bd 6703 08bf
00000050: 6be0 80bc c01e d3bc f2c0 d3be 275d c2be
00000060: b2b7 34be e235 01bb 03b3 b5bd 81b8 4e3e
00000070: 4316 483e 5b6b ddbd 0d6e 4e3c f452 7c3e
00000080: a9c1 c13e 4582 303e d704 823c ef31 a33e
00000090: 9527 f73c a75a 8cbd 4e25 fd3c d8ef a8bc
000000a0: 1690 ae3d 30d7 31be ba5c 1abe c764 6d3d
000000b0: 333e f3be c28c 28be 34fb ba3d 86d3 9cbe
000000c0: 825b f23d 6534 d4bd d69f 6e3d 7a05 54be
000000d0: 6008 99bc af31 aa3e 0cb4 273e 701b 92bd
000000e0: 6f6d b43d caa2 e9bd a987 76bd 5822 da3d
000000f0: 7767 e43e 8fa3 59be 9aef e2be 85d1 4c3d
00000100: 4f6f 40be b06b 74be 6830 35be b878 c0bc
00000110: b451 873e c810 56be 2b1c e0bd 7cd4 a63e
00000120: 6ce6 13be 4ba3 c33e f736 e33e ec62 0c3f
00000130: fd38 713e 5865 0c3d 5e2a 91be ba95 38be
00000140: 62dd 303c 0b76 023e 92ba 38be 76b6 b83e
00000150: 655b 17be 97d3 2f3e 4eeb 223e f662 5dbe
00000160: 2a97 fcbe 9f3d 06bf 9ded 113e 2c34 8bbe
00000170: f830 b43e bbe8 7cbe f5e6 2b3e e969 7fbe
00000180: 7128 a9be 16e5 d4be a36c 953d 3ca1 a73e
00000190: 59ec eabc 24c8 db3b 8c0d c7be 49d6 a53e
000001a0: ee68 96bc 41e1 0d3e ef00 1dbe 61d4 b8bb
000001b0: 0f05 973e 9af1 a3be e270 843e 8eb1 adbe
000001c0: 27f4 a5bd 1a9b 88be 05dd 63be 6c08 02be
000001d0: 51d2 a3be 2d01 9cbe 9c3b 0b3e 1226 0d3e
000001e0: afc2 06be d3e8 c0be 3a6f 3dbe 9b12 2bbe
000001f0: 0461 8abe 1f10 a23d 5e84 9a3e 7ce7 1fbd
00000200: aa99 743c fba9 9a3e 8d34 a4be f2f8 983e
00000210: 9115 4cbe 4a84 bd3d fe8a bebe b912 2bbe
00000220: d886 04bf 0ef3 12bf 222e a23e 7f9d 01be
00000230: 8a70 a93d ae68 7e3e 71d6 7f3e ec90 abbe
00000240: 6e68 fd3d f3b0 aa3e 7616 a6be e10c c13d
00000250: 219e 103d aa30 0ebe d709 2a3e 3c92 063f
00000260: 8e66 103f 3b3f ac3e 2c9d b3be c8b1 053d
00000270: 5d17 c1be 4bf2 4f3e fe5b 3bbd 8c7c a5bc
00000280: 1ca7 2abe 2e2a 983e 280d b4bd 3389 e9be
00000290: 3e47 20be df31 05bf d0f5 963e e8b1 f6be
000002a0: b7d3 6c3e 5807 acbe 5039 a7be ff01 acbe
000002b0: b5fd 973e 66d8 d83e ca30 b9be 366d 1f3f
000002c0: a154 0bbd 2b80 a83e e160 d93e f9e2 ff3d
000002d0: ea0d 613e 1a92 15be 6b40 19be b364 123e
000002e0: 9cd6 aebd bd10 463e 7d38 303e 23a9 95be
000002f0: 7256 5fbe 0ae1 b43e c030 653d 5b9d 88be
00000300: 3a03 4fbd 0f01 6d3d c7eb 9f3d 4045 a53e
00000310: 5aa4 4c3d f19d 8e3e 9f8e 9a3d 53d2 893d
00000320: 9d65 593d 65b3 0fbe 227a 333d 7cbf d43d
00000330: 782e 2bbd 5d81 d33d 79e5 80bd 8c9a b53d
00000340: cfbd 3e3d 156b 88bd e1b4 c73d 7fc4 843d
00000350: d09d d13d aa22 ddbc 2a09 32be 8a28 483e
00000360: f6d3 ac3d bc4d 543e ed3d 63bd ad90 4c3e
00000370: 0ab2 80bd 4841 36be bf4c 573d e5ce 16bc
00000380: 18d7 813c 30a4 bd3c eebd 5f3d 4778 2ebe
00000390: 2197 93bd dce6 0b3e 01b6 2b3e 7db9 a83d
000003a0: a150 f5bd aa22 2dbc 6b81 be3d 5444 49be
000003b0: 8c87 793c b8f1 a43d 0c49 873d 4881 073e
000003c0: 324e 27bd a9a7 883d bf2a 803c ed98 433b
000003d0: 4e19 b0bc 9d9b a2be 2888 dfbd 6979 e03d
000003e0: 1645 97bd 089a f43d 919c 8abd bd6b 3ebe
000003f0: 73c3 d0bd 4cf5 9a3d ee7a 063e cfd2 6dbd

dist.2.linear.bias f4 [7]
0.10757239 0.18831918 0.32369775 -0.08612736 -0.081719354 -0.017657261 -0.047040112
00000000: ea4e dc3d bed6 403e b6bb a53e 8b63 b0bd
00000010: 7a5c a7bd f6a5 90bc 22ad 40bd

dist.3.linear.weight f4 [7, 64]
0.3328193 -0.05850687 0.0107122185 -0.5151028 -0.22341989 -0.15170166 0.05297424 0.23525953
0.20487154 -0.4386877 0.5171347 0.047873415 0.16611283 0.06898186 -0.080239825 -0.03984098
-0.23673107 -0.14814427 0.18926491 -0.29712903 -0.07672126 -0.015194872 -0.10260852 -0.3564139
-0.1278841 -0.2764105 0.18537846 -0.12280897 0.20668495 -0.20064661 -0.11835493 0.08651301
0.3599809 0.016584935 0.35888258 0.17141251 0.3663931 -0.11954397 -0.36097813 0.040160377
0.20184943 -0.060345836 0.09559436 0.59473044 -0.022087606 -0.10763758 -0.40564698 -0.11245807
-0.27120045 -0.36515746 -0.38603517 -0.21614672 0.3431767 0.58692926 0.2505168 0.10003765
-0.06384731 0.3125841 -0.49666715 0.4710972 0.41120413 -0.1682726 -0.47511604 0.18079378
0.26412287 -0.5150203 -0.15546557 -0.03818105 0.32082275 -0.34938145 -0.33543968 -0.17509165
0.002679878 -0.057489898 0.0820577 0.17925023 0.32168007 -0.22903913 -0.49801198 -0.14528242
-0.33240902 -0.11975357 0.31800488 0.37360787 -0.45540923 0.24436836 -0.15586671 -0.30750123
0.08764458 -0.28469145 -0.24415247 -0.5312732 0.17733252 -0.40890405 0.095949486 -0.08727995
-0.4359727 -0.42285222 0.18263939 0.32424378 0.16742203 0.3516164 -0.07692245 -0.18224825
-0.19033451 0.45968166 -0.110174775 0.04842805 -0.4140924 -0.30105674 -0.07292998 -0.11193897
-0.07523056 -0.060651116 -0.17665549 0.44323757 0.19553122 -0.5112113 -0.06728447 -0.46277094
-0.23732361 -0.29524675 0.22841729 -0.25774735 -0.082121916 -0.3580629 0.3599137 0.08918564
-0.5590911 0.54785216 -0.39421687 0.36530185 0.0048188325 0.19456352 -0.19085999 -0.017186824
-0.2548669 0.27777588 -0.1713339 -0.063452005 -0.122422405 0.15279633 0.2612273 -0.35572657
0.4159281 0.44830686 -0.72877115 -0.0151921995 0.42002228 -0.08188862 0.089809835 0.44492784
0.09759708 0.30644646 -0.528546 0.40245765 -0.29656163 0.31904876 0.29080892 -0.23571211
0.02199071 0.17983863 -0.32685167 -0.31628767 -0.5283906 -0.39246047 0.065047406 -0.1730927
0.044836354 -0.46137038 -0.35121012 -0.38302645 0.51173437 0.44456366 0.32149124 0.35879964
0.11332714 0.20666318 0.57920355 -0.53236985 -0.3444591 0.0378934 -0.02529198 0.43491066
0.03764438 0.047966637 0.36363593 -0.37768552 -0.40465385 0.6579185 0.07727696 -0.26537094
-0.20712245 -0.0122425845 0.09532755 -0.25287977 -0.17152888 0.0712349 0.13416757 0.06438783
-0.028824633 0.12406843 -0.11885243 -0.051297985 -0.16527599 -0.11068873 0.0930248 0.16763073
-0.11457458 0.0084871035 -0.032168902 -0.04899144 -0.14694281 -0.07253212 -0.1493512 -0.043167014
-0.07447325 0.12180836 0.08994617 0.04079736 -0.043308523 0.16749838 -0.09847613 0.08326917
0.16377437 0.026824722 -0.06439791 0.14674379 -0.08961336 0.010330078 0.032377433 0.06736496
0.07877303 0.056458697 0.06572359 -0.058996756 0.065845296 -0.1589623 0.13434146 -0.16772696
0.006383067 -0.09394081 0.059733965 -0.07822725 0.020928854 -0.09589938 -0.027133418 0.023755036
0.17343712 -0.057379607 -0.06641035 0.123632945 0.11028471 0.056718443 -0.07123687 -0.09232025
00000000: 4b67 aa3e e6a4 6fbd 4d82 2f3c c7dd 03bf
00000010: 2fc8 64be ae57 1bbe 84fb 583d e0e7 703e
00000020: d8c9 513e ad9b e0be f162 043f ea16 443d
00000030: 7b19 2a3e 5d46 8d3d c754 a4bd 4c30 23bd
00000040: a169 72be 22b3 17be a9ce 413e 4c21 98be
00000050: 0920 9dbd eaf3 78bc 6a24 d2bd e27b b6be
00000060: 0df4 02be ad85 8dbe dad3 3d3e 4583 fbbd
00000070: 38a5 533e 4e76 4dbe 1264 f2bd bc2d b13d
00000080: 6b4f b83e 21dd 873c 75bf b73e c386 2f3e
00000090: e097 bb3e 78d3 f4bd 20d2 b8be 357f 243d
000000a0: 9eb1 4e3e 322d 77bd fac6 c33d 4140 183f
000000b0: 11f1 b4bc 1771 dcbd f6b0 cfbe 6b50 e6bd
000000c0: c9da 8abe ebf5 babe 67a6 c5be 9155 5dbe
000000d0: dbb4 af3e ff40 163f bd43 803e 8ae0 cc3d
000000e0: 61c2 82bd 060b a03e 284b febe a733 f13e
000000f0: 5989 d23e a74f 2cbe 6942 f3be 0122 393e
00000100: 1d3b 873e 5fd8 03bf 5e32 1fbe bc63 1cbd
00000110: e142 a43e 20e2 b2be c0be abbe 3a4b 33be
00000120: e4a0 2f3b 877a 6bbd de0d a83d 5f8d 373e
00000130: 40b3 a43e 3c89 6abe 6dfb febe eac4 14be
00000140: 8431 aabe 5c41 f5bd 89d1 a23e 8849 bf3e
00000150: 662b e9be b33b 7a3e 869b 1fbe cd70 9dbe
00000160: 007f b33d 14c3 91be 1b03 7abe 8501 08bf
00000170: a896 353e df5b d1be 2a81 c43d d5bf b2bd
00000180: d037 dfbe 1680 d8be d205 3b3e 4803 a63e
00000190: ae70 2b3e 1107 b43e 8489 9dbd 499f 3abe
000001a0: 0de7 42be 655b eb3e 50a3 e1bd 7e5c 463d
000001b0: eb03 d4be 1c24 9abe 505c 95bd 4240 e5bd
000001c0: 7b12 9abd 4e6d 78bd 2de5 34be 09f0 e23e
000001d0: 5639 483e bede 02bf 71cc 89bd 50f0 ecbe
000001e0: f604 73be 952a 97be 39e6 693e 76f7 83be
000001f0: 892f a8bd 0554 b7be 9c46 b83e f6a6 b63d
00000200: 9820 0fbf 0a40 0c3f cbd6 c9be d808 bb3e
00000210: 4ce7 9d3b a93b 473e cd70 43be 62cb 8cbc
00000220: ea7d 82be a438 8e3e 2772 2fbe 20f3 81bd
00000230: 99b8 fabd a476 1c3e 96bf 853e cb21 b6be
00000240: 87f4 d43e 7a88 e53e bf90 3abf b4e8 78bc
00000250: 290d d73e 39b5 a7bd 38ee b73d 95cd e33e
00000260: fae0 c73d 8de6 9c3e ca4e 07bf ee0e ce3e
00000270: edd6 97be 5c5a a33e e8e4 943e 845e 71be
00000280: dd25 b43c 9e27 383e 1a59 a7be 75f0 a1be
00000290: 9b44 07bf 94f0 c8be 9337 853d 363f 31be
000002a0: 53a6 373d bd38 ecbe d0d1 b3be 0b1c c4be
000002b0: 0601 033f d99d e33e 809a a43e 96b4 b73e
000002c0: 0f18 e83d 839f 533e af46 143f 6449 08bf
000002d0: f15c b0be 1c36 1b3d 2031 cfbc 9cac de3e
000002e0: fe30 1a3d aa78 443d 7d2e ba3e ff5f c1be
000002f0: ca2e cfbe 596d 283f 6243 9e3d b3de 87be
00000300: e817 54be 1f95 48bc 173b c33d 7579 81be
00000310: 44a5 2fbe 9ae3 913d 3963 093e c4dd 833d
00000320: a321 ecbc 9717 fe3d e768 f3bd d61d 52bd
00000330: 1c3e 29be c6b0 e2bd c983 be3d 64a7 2b3e
00000340: 14a6 eabd 7e0d 0b3c 8ac3 03bd 40ab 48bd
00000350: 2d78 16be b88b 94bd 85ef 18be e5cf 30bd
00000360: 6e85 98bd a976 f93d b335 b83d 221b 273d
00000370: 4764 31bd b284 2b3e daad c9bd 0789 aa3d
00000380: 78b4 273e 85bf db3c 0de3 83bd 0144 163e
00000390: 3687 b7bd 7d3f 293c 339e 043d a4f6 893d
000003a0: c153 a13d 3c41 673d 179a 863d 95a6 71bd
000003b0: e6d9 863d 03c7 22be cf90 093e 9ec0 2bbe
000003c0: 0c29 d13b 0a64 c0bd 9aab 743d 9c35 a0bd
000003d0: fd72 ab3c e566 c4bd e746 debc ec99 c23c
000003e0: 8099 313e e106 6bbd 2602 88bd 4533 fd3d
000003f0: f3dc e13d 9951 683d a3e4 91bd 6612 bdbd

dist.3.linear.bias f4 [7]
-0.03105891 0.13558115 0.3750019 -0.097774215 -0.065144055 -0.116244376 -0.042713795
00000000: 416f febc c9d5 0a3e 4000 c03e d93d c8bd
00000010: 3f6a 85bd 8811 eebd a9f4 2ebd
