BLIP/RL/trained_models/ppo/2023-01-18_minigrid-tb-ft-5e5-doorkey-wallgap-lavagap-redbluedoor_fine-tuning_3_fullmodel_task_3.pth (torch, 739343 bytes, 16 tensors)

weight f4 [64, 2739]
0	0xbdbe593c	-0.09294364
1	0xbdcd173c	-0.10014197
2	0xba847962	-0.0010106976
3	0x3d398836	0.045295916
4	0xbd0291d1	-0.031877343
5	0x3c94d5e3	0.018168395
6	0x3dd670d5	0.1047074
7	0x3d11368a	0.035452403
8	0x3dd84ba4	0.10561302
9	0xbe75d42a	-0.24006715
10	0xbe9fb3c3	-0.31191835
11	0xbe212247	-0.15735732
12	0xbd791c40	-0.060817957
13	0xbe569ea8	-0.2095896
14	0xbdcb17bc	-0.09916636
15	0x3d8104c3	0.06299736
16	0x3df6dbe6	0.12053661
17	0xbe7e0289	-0.24805655
18	0x3f1c800d	0.6113289
19	0x3da693c7	0.08133655
20	0x3e288632	0.16457441
21	0xbdd53c5b	-0.104119025
22	0xbd7f4168	-0.062318236
23	0x3d58962c	0.05287759
24	0xbd8056fc	-0.06266591
25	0xbd8d138c	-0.06888494
26	0x3da8819a	0.082278445
27	0x3ddbd71e	0.1073439
28	0x3d91bfd5	0.07116667
29	0x3e165468	0.14680636
30	0x3e91b8bc	0.28461254
31	0x3dd2d0ca	0.102937296
32	0x3e858701	0.26079562
33	0xbe80ac1c	-0.2513131
34	0xbe201ad6	-0.15635237
35	0x3e8561ba	0.26051122
36	0xbdbd7692	-0.09251131
37	0x3edddba4	0.43331635
38	0xbe371d7c	-0.17882341
39	0x3ee82473	0.4534031
40	0xbe57f31f	-0.21088837
41	0xbe3428d4	-0.175937
42	0xbddaeff4	-0.10690299
43	0xbdc890e9	-0.097932644
44	0x3de3b516	0.11118524
45	0xbda35dc2	-0.07976867
46	0xbd5af72e	-0.053458385
47	0x3d7e3bb8	0.06206867
48	0x3dbe91cb	0.093051516
49	0x3d8b8636	0.06812708
50	0x3d11ce2b	0.035597008
51	0x3da2b92e	0.079454765
52	0xbc84737e	-0.016168352
53	0x3d9c86f2	0.07642926
54	0xbe922cca	-0.28549796
55	0xbe3307f0	-0.17483497
56	0x3e2a9e2a	0.16661897
57	0xbf83843d	-1.0274731
58	0x3cd349a7	0.025791956
59	0xbf0d8179	-0.55275685
60	0xbe55dd26	-0.20885143
61	0xbeb445f1	-0.3520961
62	0xbe1a21b5	-0.1505192
63	0xbd9572df	-0.072973005
64	0x3c88226a	0.016617972
65	0xbae7cc2b	-0.0017684748
66	0xbd76a27a	-0.060213543
67	0x3d3f0ebb	0.046644907
68	0x3e1c163c	0.15242857
69	0x3dd7f5e0	0.10544944
70	0x3df01016	0.11721818
71	0x3d23c26e	0.039980344
72	0xbd6be7a3	-0.057593953
73	0xbdf1cb4b	-0.11806353
74	0xbe914cb9	-0.28378847
75	0xbf75a195	-0.9594968
76	0xbc7f4168	-0.015579559
77	0xbded409f	-0.11584591
78	0x3daff7ae	0.08592163
79	0xbe357f4f	-0.17724346
80	0x3e9c78e2	0.30560976
81	0x3f447a8a	0.7674948
82	0x3f1d380f	0.61413664
83	0x3d056082	0.03256274
84	0xbb94ee5b	-0.0045450157
85	0xbcec1328	-0.028817728
86	0x3c2f614e	0.010704352
87	0xbd0f2509	-0.03494743
88	0xbcaa55ad	-0.020792807
89	0x3d6947d5	0.05695327
90	0x3e0042bd	0.12525459
91	0x3d560c88	0.052258044
92	0x3d22ab44	0.039714113
93	0xbe38962a	-0.18026033
94	0xbe09da47	-0.13462172
95	0x3e3cb37d	0.18427844
96	0xbdceb4ac	-0.10093054
97	0xbd4f1276	-0.050554715
98	0x3e64fbad	0.22361632
99	0xbf23924a	-0.63895094
100	0xbc234060	-0.009964079
101	0xbea3c355	-0.31984964
102	0x3ba1b383	0.0049347295
103	0x3e749945	0.23886593
104	0xbebedf8e	-0.37279934
105	0xbe06cbb4	-0.13163644
106	0xbdba415d	-0.09094498
107	0xbc77f52b	-0.015134136
108	0xbe037949	-0.12839235
109	0xbd56a279	-0.05240104
110	0x3c76342c	0.015027087
111	0xbde4240e	-0.111396894
112	0xbd14b035	-0.036300857
113	0xbe2aaa64	-0.16666561
114	0xbd5d00b5	-0.053955752
115	0xbd6e433e	-0.058169596
116	0xbef70cf4	-0.4825207
117	0x3cee017f	0.029053448
118	0xbed6d686	-0.41960543
119	0x3ed60586	0.4180109
120	0xbe5f31c2	-0.21796325
121	0xbe853c45	-0.26022545
122	0xbd0ad8b2	-0.033898063
123	0xbe311a26	-0.17295131
124	0xbe02241b	-0.12709086
125	0xbe908410	-0.28225756
126	0xbe06355a	-0.1310629
127	0xbd8f46de	-0.06995939
128	0x3d038b58	0.03211531
129	0xbe0fba74	-0.1403597
130	0xbe0272ca	-0.12739101
131	0x3d656202	0.05600167
132	0xbdacdd8b	-0.084406935
133	0xbd902bb7	-0.07039588
134	0xbdfb0ad2	-0.12257923
135	0xbdac3d1d	-0.08410094
136	0x3c46f7da	0.012144053
137	0xbe0ea5c4	-0.13930422
138	0xbe0b48aa	-0.13601938
139	0x3e40a7ae	0.18813965
140	0xbd0f6068	-0.03500405
141	0xbe9443fa	-0.28958112
142	0xbe9c6368	-0.3054459
143	0x3e22d666	0.15902099
144	0x3df38ea2	0.118924394
145	0x3d6594a7	0.05604997
146	0xbd3ca688	-0.046057254
147	0xbbfe1378	-0.0077537857
148	0x3c95153a	0.018198598
149	0xbc8b25e2	-0.016985837
150	0xbc031d12	-0.008002536
151	0x3c0adbb2	0.008475231
152	0x3e11883b	0.14212124
153	0xbc201ac8	-0.00977201
154	0xbc8b9488	-0.017038599
155	0x3ceb57a2	0.02872831
156	0xbc115c99	-0.008872175
157	0xbc0e1c19	-0.008673691
158	0x3ca233e0	0.019800127
159	0xbca2f725	-0.019893238
160	0x3c131254	0.008976538
161	0x3bdd8e5c	0.0067613553
162	0x3bff48b0	0.0077906474
163	0x3cd224b0	0.02565226
164	0x3b089779	0.0020842238
165	0x3c6d41e3	0.014481041
166	0x3c991c13	0.018690145
167	0xbda21184	-0.07913497
168	0xbbdaeb2e	-0.0066808676
169	0x3c8a0497	0.016847892
170	0xbcf8c666	-0.030368041
171	0x3c97b035	0.01851664
172	0xbcc6c650	-0.024264485
173	0xb91bc0ee	-0.00014853824
174	0x3d4dbf13	0.05023105
175	0x3abd7b92	0.0014456382
176	0x3b9c0018	0.0047607534
177	0xba9547a2	-0.0011389146
178	0xbb26e7e1	-0.00254678
179	0xbcfd7688	-0.03094031
180	0x3d1452ff	0.036211964
181	0xbd39ecdc	-0.045391902
182	0x3e2f8104	0.1713906
183	0x3be10b45	0.0068677985
184	0x3c90a4cb	0.017656704
185	0x3b280d05	0.0025642526
186	0x3c813c54	0.015775837
187	0x3ce5b479	0.028040158
188	0x3d553306	0.052050613
189	0x3c8ec051	0.017425688
190	0x3c2ef240	0.010677874
191	0x3d07efcb	0.03318767
192	0xbdd477a6	-0.10374384
193	0xbc8688f1	-0.01642272
194	0xbd1107d4	-0.035407856
195	0xbcd3599b	-0.025799563
196	0x3d27d5e7	0.040975478
197	0x3c75bb5e	0.014998285
198	0xbcc05c01	-0.02348137
199	0x3d716d98	0.058942407
200	0x3996d060	0.0002876548
201	0x3c8438dd	0.016140396
202	0x3b5145ab	0.0031932394
203	0xbcd41abf	-0.02589166
204	0xbcca0100	-0.02465868
205	0xbe06a582	-0.13149074
206	0x3cbcf9ce	0.023068335
207	0x3cff1acc	0.031140707
208	0xbd68d349	-0.056842122
209	0x3d37d919	0.044884775
210	0x3be9a6be	0.007130473
211	0x3c27e1e8	0.010246731
212	0x3d408b8c	0.047008082
213	0x3ca51585	0.020151863
214	0x3df5f2da	0.12009211
215	0x3d951482	0.07279302
216	0x3cc3b9f3	0.023892378
217	0x3c071fe3	0.0082473485
218	0x3b43e7cf	0.0029892807
219	0x3d04053c	0.032231554
220	0xbd29b429	-0.04143158
221	0xbca675a3	-0.020319765
222	0xbb9fc2ba	-0.004875508
223	0xbbb0a4a4	-0.0053907204
224	0xbcd5c716	-0.026095908
225	0xbcb01717	-0.021495385
226	0x3bd57937	0.006514694
227	0x3c7a7a89	0.015288004
228	0xbc4a422d	-0.012344879
229	0xbcd5f331	-0.02611694
230	0x3d03da41	0.032190565
231	0x3ddf99d3	0.109180115
232	0xbd7056cc	-0.058676526
233	0xbd0d359d	-0.034474958
234	0x3cf54faa	0.029945213
235	0x3b275e15	0.0025538255
236	0xbd497dd6	-0.049192272
237	0xbd04cd5a	-0.0324224
238	0xbc303ab4	-0.010756183
239	0xbced0a8b	-0.028935691
240	0x3c389de7	0.011268116
241	0xbcc3d46b	-0.023905
242	0x3b91ff62	0.004455493
243	0x3bd90caa	0.006623824
244	0x3c70bd59	0.0146935815
245	0x3bd1f3c0	0.006407231
246	0x3cddd583	0.02707935
247	0x3bfa8a4c	0.007645881
248	0xbc830303	-0.015992647
249	0x3c020d57	0.007937751
250	0xbc8db301	-0.01729727
251	0x3b57c6b3	0.003292483
252	0x3c80f70a	0.015742797
253	0xbd32c831	-0.04364795
254	0xbe0c112c	-0.13678426
255	0xbbae6185	-0.005321684

bias f4 [64]
0	0x3dea8ba2	0.11452414
1	0xbf0fb9a7	-0.5614266
2	0xbd914835	-0.070938505
3	0x3f5bf0cc	0.859143
4	0xbe068172	-0.13135317
5	0xbef61e8b	-0.48070177
6	0x3b606b76	0.003424374
7	0x3f6d9632	0.92807305
8	0x3f0d51ec	0.5520313
9	0xbf5e5ea2	-0.8686315
10	0x3e40f5d6	0.18843779
11	0x3ec17d76	0.37791032
12	0xbf143299	-0.57889706
13	0x3f077e11	0.5292674
14	0xbc8defb3	-0.017326212
15	0xbf1c51a7	-0.6106209
16	0xbec74b6b	-0.38924727
17	0xbedfe1b4	-0.43726885
18	0xbe73f3ff	-0.23823546
19	0x3e81d3bb	0.2535685
20	0x3f69b503	0.91291827
21	0xbdd1f1c8	-0.10251194
22	0xbf3fed33	-0.7497131
23	0x3f40c380	0.7529831
24	0xbf52f000	-0.8239746
25	0xbe850151	-0.25977567
26	0x3ddc8e32	0.10769309
27	0xbf59c8e5	-0.85072166
28	0xbe568fc1	-0.20953275
29	0xba83bb4d	-0.0010050327
30	0x3eaf6682	0.34257895
31	0x3f1bf58b	0.60921544
32	0x3f2a8856	0.6661428
33	0xbec2d8e5	-0.38056102
34	0x3ed72132	0.42017514
35	0x3e3f79c8	0.186988
36	0xbf114a62	-0.56754124
37	0xbea836b4	-0.32854235
38	0x3f1a3b89	0.60247093
39	0x3f338798	0.70128775
40	0x3e00d6df	0.12581967
41	0x3d049fcb	0.032378953
42	0xbe5c955f	-0.21541356
43	0x3f0f9eb9	0.56101567
44	0xbe9f6d17	-0.31137916
45	0x3f67042a	0.9024073
46	0x3dc5767c	0.0964174
47	0x3f7498a8	0.95545435
48	0x3f598cc1	0.849804
49	0xbce2243a	-0.027605165
50	0xbec69c60	-0.3879118
51	0xbe05bde4	-0.13060719
52	0xbf51757d	-0.818199
53	0xbf84ff8f	-1.039049
54	0xbec22f18	-0.37926555
55	0x3cd1eb64	0.025624938
56	0x3ed4692f	0.414865
57	0x3cafed37	0.021475418
58	0x3e3b2cfe	0.18278882
59	0x3f25b133	0.6472351
60	0x3f23504d	0.63794404
61	0xbc92138d	-0.017831588
62	0xbc8b99bb	-0.017041078
63	0x3f028624	0.5098593

weight f4 [64, 64]
0	0xbdce5418	-0.10074633
1	0xbe048ff7	-0.12945543
2	0xbd829c96	-0.06377523
3	0xbf1c18f9	-0.60975605
4	0x3e8859a5	0.26630893
5	0xbd4d476c	-0.05011694
6	0xbdb7e36a	-0.08978923
7	0x3e2e45fb	0.17018883
8	0xbe4829bf	-0.19547175
9	0x3ecbe89a	0.39825898
10	0xbe8ff87a	-0.2811926
11	0x3dc9a060	0.09845042
12	0xbecaeb41	-0.3963261
13	0x3e0d7c9d	0.13817067
14	0xbe33c5b0	-0.1755588
15	0x3e1522ba	0.14564028
16	0x3f0f9fd9	0.56103283
17	0x3eaea0f8	0.34107184
18	0xbe9ae18b	-0.302502
19	0x3f003d1d	0.5009325
20	0x3f05d9cb	0.5228545
21	0xbf1d9cc3	-0.61567324
22	0xbeb111d8	-0.34583926
23	0x3ebf02a8	0.37306714
24	0x3e9dc858	0.30816913
25	0x3ea29b39	0.3175905
26	0x3e18902c	0.14898747
27	0x3cf21309	0.029550092
28	0x3f50f9cc	0.8163116
29	0x3e38b856	0.18039069
30	0x3f080d93	0.5314571
31	0xbec6f06b	-0.388553
32	0x3ec0e061	0.37671188
33	0x3ec61ac7	0.38692304
34	0x3a221628	0.0006183111
35	0xbecd6556	-0.40116376
36	0x3e11e1f1	0.14246346
37	0xbe98aef8	-0.2982099
38	0xbbc39752	-0.0059689665
39	0xbf20fa14	-0.6288159
40	0xbf359483	-0.70929736
41	0x3ee48e18	0.4463966
42	0xbf0e0c7c	-0.554878
43	0x3deef331	0.11667479
44	0x3df84b13	0.12123694
45	0x3edf07d8	0.43560672
46	0x3ddefbeb	0.10887893
47	0x3e949881	0.290226
48	0xbdcd471b	-0.10023328
49	0x3e841708	0.2579882
50	0x3ef44b89	0.4771388
51	0xbe9ebfbd	-0.3100566
52	0xbe333ce7	-0.17503701
53	0x3da75731	0.08170927
54	0xbeda73ea	-0.4266656
55	0xbeaf1d9e	-0.34202284
56	0x3e53ed38	0.2069596
57	0xbeb24796	-0.3482024
58	0x3e164300	0.14673996
59	0x3f2e260c	0.68026805
60	0xbdbd32f8	-0.09238237
61	0xbeadb4ba	-0.33926946
62	0x3c8aa97b	0.016926518
63	0x3d886ec1	0.0666175
64	0xbe0bffdc	-0.13671821
65	0x3d244cd2	0.040112324
66	0x3e58b25e	0.21161792
67	0x3e9ecbb9	0.31014803
68	0x3e30d00c	0.17266864
69	0x3f368a72	0.71305
70	0x3dced6e2	0.100995794
71	0x3ebdd503	0.37076578
72	0x3e988ce1	0.29794982
73	0x3f1e4e25	0.6183799
74	0x3e72d972	0.23715761
75	0x3f0c61cb	0.5483672
76	0x3e8e52b6	0.27797478
77	0xbdf8e8dd	-0.1215379
78	0x3ed10090	0.40820742
79	0x3f1ca048	0.6118207
80	0x3c1c075d	0.00952324
81	0x3f60a5db	0.87753075
82	0x3e9c9138	0.30579543
83	0xbe232df0	-0.15935493
84	0x3e84c79a	0.25933534
85	0x3d7f7dce	0.062375836
86	0x3e874c9e	0.26425642
87	0x3f15d172	0.58522713
88	0x3e24628c	0.16053218
89	0xbf8dc17f	-1.1074675
90	0xbc94852f	-0.018129913
91	0x3d357cfb	0.044308644
92	0xbeab317c	-0.3343619
93	0xbec693df	-0.38784692
94	0xbe93bc9f	-0.28854844
95	0x3c22b4ef	0.009930833
96	0x3ea9f040	0.3319111
97	0x3ec1ac1b	0.3782662
98	0xbef4cbeb	-0.47811827
99	0x3ebeef81	0.37292102
100	0x3dae44e0	0.085092306
101	0x3f29bfb7	0.6630816
102	0x3e458e1c	0.19292492
103	0xbecdb153	-0.4017435
104	0x3ebdd51a	0.37076646
105	0x3e926808	0.28594995
106	0x3ba210d6	0.0049458547
107	0x3e5d9032	0.21637037
108	0xbcdd12c1	-0.026986482
109	0xbdc1268c	-0.0943118
110	0x3d3a456d	0.045476366
111	0x3ec45b16	0.38350743
112	0x3ea916dd	0.33025256
113	0xbef58efe	-0.47960657
114	0x3e9a3628	0.30119443
115	0x3eabdcd8	0.33566928
116	0xbee3756f	-0.44425532
117	0x3c7a0128	0.015259065
118	0x3f1df699	0.61704403
119	0xbe715591	-0.23567797
120	0x3f08bcc3	0.5341303
121	0xbf026a9b	-0.5094392
122	0x3ec7e3e3	0.3904105
123	0xbe567838	-0.20944297
124	0x3d60c90d	0.054879237
125	0xbe0c1dfd	-0.13683315
126	0x3f53c1a9	0.82717377
127	0x3edb9cf7	0.42893192
128	0xbeac2e3e	-0.3362903
129	0xbecd3021	-0.40075782
130	0xbf245458	-0.641912
131	0x3e0868e0	0.13321257
132	0xbdd3d42d	-0.10343204
133	0xbdb71637	-0.08939784
134	0x3e5f89c2	0.21829894
135	0x3e50f245	0.20404918
136	0xbcf5bce4	-0.029997297
137	0x3dd40719	0.10352916
138	0x3c3237ad	0.010877532
139	0x3cbcb5ea	0.023035962
140	0x3dd63642	0.104595676
141	0xbe8ab0f1	-0.2708812
142	0x3ec53059	0.3851345
143	0x3d73d680	0.059530735
144	0x3ed6b8a4	0.41937745
145	0x3ee58f87	0.44836065
146	0xbefef5a4	-0.49796784
147	0x3dacef0d	0.08444033
148	0x3e9b8554	0.3037516
149	0x3d05de98	0.032682985
150	0x3d0662b9	0.032808993
151	0xbc0bf88d	-0.008543146
152	0x3f2a4b62	0.66521275
153	0xbeb63f83	-0.3559533
154	0xbe4149c1	-0.18875791
155	0xbd591b07	-0.05300429
156	0xbe3457cd	-0.17611618
157	0xbe314164	-0.17310101
158	0xbe134394	-0.14381248
159	0x3e2c917e	0.16852376
160	0xbe4dbc5d	-0.20091386
161	0x3f18b81d	0.59655935
162	0xbd7e1f1c	-0.062041387
163	0xbe994f12	-0.29943138
164	0xbe2b58d9	-0.16733111
165	0xbe27e2b6	-0.16395077
166	0xbe5b60fe	-0.21423718
167	0xbe84b3cc	-0.25918424
168	0x3dbc633b	0.09198614
169	0x3f40707c	0.7517164
170	0x3dbb1a95	0.091359295
171	0xbef9cc94	-0.48788893
172	0x3e02fa0a	0.12790695
173	0xbf68e00c	-0.9096687
174	0xbf2a7d99	-0.66597897
175	0x3f04f092	0.5192958
176	0xbe5ac31d	-0.21363492
177	0x3e9ae3c5	0.302519
178	0xbea23f73	-0.31689033
179	0xbeab82d3	-0.33498248
180	0x3cb327d1	0.021869572
181	0xbe097fee	-0.13427708
182	0x3f1a4337	0.6025881
183	0xbf776116	-0.96632516
184	0x3e8974f1	0.26847032
185	0xbdca95ca	-0.09891851
186	0xbe68e3fa	-0.22743216
187	0x3f26bb3d	0.6512945
188	0xbdfaafb0	-0.12240541
189	0x3f6acf72	0.91722786
190	0xbd8910b0	-0.06692636
191	0x3ebb1657	0.3654048
192	0x3d852e41	0.06502963
193	0x3eab1716	0.3341605
194	0xbe9af5aa	-0.30265552
195	0x3e886883	0.26642236
196	0xbf207c56	-0.6268972
197	0x3f17b458	0.5925956
198	0xbe889c53	-0.26681766
199	0xbe234a2d	-0.15946265
200	0x3f1505f5	0.58212215
201	0xbdbbf6c1	-0.09177924
202	0x3db05bbd	0.08611248
203	0xbd7335fc	-0.059377655
204	0xbd853bfe	-0.06505583
205	0x3e115c89	0.14195456
206	0x3f07819d	0.5293215
207	0x3f047ae7	0.51750034
208	0xbe8be2bd	-0.27321425
209	0xbe3e71d2	-0.18598107
210	0xbf15af07	-0.58470196
211	0xbe3cbb7f	-0.18430899
212	0xbd85e69c	-0.06538126
213	0x3f00afda	0.5026833
214	0xbdd2c2b6	-0.102910444
215	0xbea9f833	-0.33197173
216	0x3df6a37c	0.12042901
217	0x3ef6cf67	0.4820511
218	0xbe189184	-0.1489926
219	0x3e3b720b	0.18305223
220	0xbf1c5066	-0.6106018
221	0xbe2a654b	-0.16640203
222	0xbdf9bb9e	-0.12193988
223	0x3de4b500	0.111673355
224	0xbeed701c	-0.46374595
225	0x3f064f75	0.5246499
226	0x3e2e88f5	0.17044432
227	0xbf7c580c	-0.9857185
228	0xbebabe72	-0.36473423
229	0xbf3b100c	-0.7307136
230	0x3f44ce14	0.7687695
231	0x3f1c063c	0.6094701
232	0x3e037f05	0.12841423
233	0xbea440e9	-0.32080773
234	0x3e52ea3c	0.20597166
235	0x3ebceb4b	0.36898264
236	0xbe66ae30	-0.22527385
237	0x3cf49cf8	0.029860005
238	0x3d199802	0.03749848
239	0x3d6252d2	0.055254765
240	0xbd7ea1d4	-0.06216605
241	0xbea45565	-0.320964
242	0xbee42c9d	-0.44565287
243	0x3f330f0c	0.69944835
244	0xbe8788e7	-0.26471636
245	0x3f2822c8	0.6567807
246	0x3f58ee7b	0.8473889
247	0xbda50c81	-0.080590256
248	0x3f1acd38	0.6046939
249	0x3ec8e416	0.39236516
250	0xbd852eab	-0.06503042
251	0xbc0e0f38	-0.008670621
252	0xbe22821e	-0.15869948
253	0x3e6a6b32	0.22892454
254	0x3e612e47	0.2199031
255	0xbe7d2559	-0.24721278

bias f4 [64]
0	0x3ebb94ce	0.36636966
1	0xbd15edf9	-0.0366039
2	0x3edc2710	0.42998552
3	0xbdb43dbd	-0.08800838
4	0xbe9587da	-0.2920521
5	0x3e03e23b	0.12879269
6	0x3ddf296c	0.108965725
7	0xbf77e4e2	-0.9683362
8	0x3ea6327c	0.32460392
9	0xbfaef15c	-1.3667407
10	0xbedb470b	-0.4282764
11	0xbf260904	-0.64857507
12	0x3d244d1d	0.040112603
13	0xbee557b6	-0.4479348
14	0xbef37f78	-0.47558188
15	0x3efae1b4	0.49000323
16	0x3f837b35	1.0271975
17	0xbf2ad35b	-0.6672875
18	0xbeb885da	-0.3603962
19	0xbe20d0af	-0.15704606
20	0x4000fb41	2.0153353
21	0xbef5bf51	-0.47997525
22	0x3c7dcbe9	0.0154905105
23	0x3eb1b4cd	0.34708253
24	0xbe026e88	-0.12737477
25	0x3fe3275c	1.7746387
26	0xbf022bee	-0.5084828
27	0x3d7abfad	0.061217953
28	0x400b2b18	2.1745052
29	0x3d2c11c5	0.042009134
30	0x3e56e459	0.20985545
31	0x3c37ed94	0.011226077
32	0xbfa6ee5a	-1.3041489
33	0xbf0146ff	-0.50498956
34	0xbd15ea92	-0.036600657
35	0x3e1fd675	0.15609153
36	0xbf2471a3	-0.64235896
37	0xbf311a49	-0.6918073
38	0x3eec89dd	0.4619893
39	0xbf0cfc84	-0.5507281
40	0x3f1cf089	0.6130453
41	0x3ebbd60b	0.3668674
42	0xbf13c292	-0.57718766
43	0xbed24d6c	-0.41074693
44	0x3dbfae91	0.09359468
45	0x3f0d5015	0.5520032
46	0x3e6ae555	0.22939046
47	0xbfb2a89b	-1.3957704
48	0xbf6d658b	-0.9273307
49	0x3e8d1fd0	0.27563334
50	0xbe5dfa1c	-0.2167744
51	0xbf000a71	-0.5001593
52	0xbf40e2b6	-0.75345933
53	0xbcc2061c	-0.023684554
54	0xbe0dd0f2	-0.13849238
55	0x3e735c08	0.23765576
56	0xc003af0c	-2.057559
57	0xbee0835b	-0.43850216
58	0x3ee870c3	0.4539853
59	0xbe0ba8b0	-0.13638568
60	0xbf38eaa0	-0.7223301
61	0x3e6d3ee6	0.23168525
62	0x3f1ef337	0.62089866
63	0xbe7bea19	-0.2460102

weight f4 [1, 64]
0	0x3d32c549	0.043645177
1	0xbcc3d0b4	-0.023903228
2	0x3da72ddf	0.08163046
3	0x3d49b442	0.049244173
4	0x3cb48d0e	0.022039916
5	0xbcbbfc19	-0.022947358
6	0x3d4b6e88	0.049665958
7	0xbd05ee50	-0.032697976
8	0xbd1ffe82	-0.039061077
9	0xbee472c2	-0.44618803
10	0xbd1638ce	-0.036675267
11	0x3c4dd8ae	0.0125638675
12	0x3cd9dbc7	0.026594056
13	0x3bd14e93	0.0063875406
14	0xbda35658	-0.07975453
15	0x39db7241	0.0004185606
16	0x3db8271c	0.089918345
17	0xbc533465	-0.01289091
18	0xbd2f43db	-0.04278932
19	0xbcbab7b8	-0.022792682
20	0x3eddfbcf	0.43356177
21	0xbcc8c1ef	-0.024506537
22	0x3d021fd6	0.031768642
23	0x3d88d9ee	0.06682192
24	0xbd14c7c2	-0.036323316
25	0x3f298336	0.66215837
26	0xbd9881e6	-0.07446651
27	0xbaedb039	-0.0018134183
28	0x3eeda46d	0.4641451
29	0xbb51ec19	-0.0032031594
30	0xbd2467cb	-0.040138047
31	0x3beda0a5	0.0072518163
32	0xbeae6885	-0.34064117
33	0x3cf048d3	0.0293316
34	0xbcbc86cb	-0.023013493
35	0xbc14dc0d	-0.009085667
36	0xbd8e4a84	-0.069478065
37	0xba760d36	-0.0009386124
38	0xbba0fa12	-0.004912623
39	0x3b090047	0.0020904706
40	0x3d01eee7	0.031721976
41	0x3d60351c	0.05473815
42	0xbcfc1956	-0.0307738
43	0xbd1b048a	-0.037846126
44	0x3ab47fe0	0.001377102
45	0xbc3c1fe3	-0.011482212
46	0x3dc0167b	0.09379288
47	0xbaae25f1	-0.0013286454
48	0xbd4444d1	-0.04791719
49	0x3be43791	0.006964632
50	0xbc19e64f	-0.009393289
51	0xbb0fa9e4	-0.002192133
52	0xbd0e5cb1	-0.034756366
53	0xbcb54266	-0.022126388
54	0xbad90ae0	-0.0016559027
55	0x3b3c20f6	0.002870617
56	0xbf0961a3	-0.53664607
57	0x3a5ff5ba	0.0008543391
58	0x3c4c2d7e	0.012462018
59	0xbc869a92	-0.016431127
60	0xbb8c3f20	-0.004279986
61	0x3c703f24	0.014663491
62	0xbd4bfee1	-0.04980362
63	0x3c9ac734	0.018893816

weight f4 [1, 64]
0	0x3d4f7f7f	0.0506587
1	0x3c2c97c4	0.010534231
2	0x3d4d9725	0.05019297
3	0xbc04ca44	-0.0081048645
4	0xbcf280f6	-0.029602509
5	0xbd118754	-0.03552945
6	0x3ca940e9	0.020660834
7	0xbe036dba	-0.12834826
8	0xbd1e5cbe	-0.038662665
9	0xbd2a0727	-0.041510727
10	0x3b3ad76c	0.002850975
11	0x3d20a974	0.039224103
12	0x3b6c949a	0.0036099316
13	0x3d17b4e6	0.037037753
14	0xbd384c94	-0.044994906
15	0xbc6fe2a2	-0.014641436
16	0x3e1bdc57	0.15220772
17	0xbc428960	-0.011873573
18	0xbcbaf634	-0.022822477
19	0xbad7a459	-0.0016452178
20	0x3eb1b15b	0.34705624
21	0xbb8d2884	-0.0043078084
22	0xbc9449b2	-0.018101547
23	0xbca99c94	-0.020704545
24	0x3cbccf05	0.023047933
25	0x3f1bc8f8	0.6085353
26	0xbb32730c	-0.0027229218
27	0xbc73cae3	-0.014879915
28	0x3f06e7e4	0.52697587
29	0x3da0ae96	0.078457996
30	0x3ce649f7	0.028111441
31	0xbc115b91	-0.008871929
32	0xbe821683	-0.254078
33	0xbdb76b87	-0.08956056
34	0x3d046ec2	0.03233219
35	0x3c94862d	0.018130386
36	0xbc6b6896	-0.014368197
37	0xbcd04739	-0.025424587
38	0xbdcf190b	-0.101121984
39	0x3d9273be	0.07150982
40	0x3d338687	0.043829467
41	0x3cc461ac	0.023972355
42	0xbcf0abad	-0.029378736
43	0xbb46e653	-0.0030349686
44	0xbb60caec	-0.0034300638
45	0x3d4900e5	0.04907312
46	0x3d8ee52a	0.06977303
47	0xbe09b289	-0.13447012
48	0xbd510bf6	-0.051036797
49	0xbde85309	-0.11343963
50	0x3c4e641c	0.01259711
51	0x3c953be2	0.01821703
52	0x3ae23622	0.0017258564
53	0x3d09a35b	0.033603054
54	0x3cefa854	0.02925507
55	0xbcd44c89	-0.025915401
56	0xbf0f7725	-0.56041175
57	0x3b23bc39	0.0024984016
58	0x3dcbecd1	0.099572785
59	0x3a46e174	0.0007586696
60	0xbdd77509	-0.105203696
61	0x3cafa148	0.02143921
62	0xbc48ac98	-0.012248181
63	0x3cee5b6f	0.029096333

weight f4 [1, 64]
0	0x3bdd6b4e	0.0067571765
1	0xbd9fa59d	-0.0779526
2	0x3b8b584c	0.004252469
3	0xbdf7ea82	-0.12105276
4	0xbd1545ef	-0.036443647
5	0xbe011652	-0.12606171
6	0x3e3b9b68	0.18321002
7	0xbd9934a6	-0.07480745
8	0x3ac6579f	0.0015132314
9	0xbebb568d	-0.3658947
10	0xbd55f71d	-0.05223762
11	0xbe418bab	-0.18900935
12	0x3dfa64fc	0.122262925
13	0xbd900c24	-0.07033566
14	0xbcf1819b	-0.029480746
15	0x3dc0b7e3	0.094100736
16	0x3e6db471	0.23213364
17	0xbe11c23b	-0.1423425
18	0xbdfee796	-0.12446515
19	0x3e4db7a4	0.20089585
20	0x3e9fc859	0.3120754
21	0xbe0b7d6b	-0.13622062
22	0xbd611c61	-0.054958705
23	0xbbfaa395	-0.007648895
24	0x3d6cc5a6	0.05780568
25	0xbd218eee	-0.03944295
26	0xbeb09646	-0.3448965
27	0x3d277b13	0.040888857
28	0x3ee84505	0.45365158
29	0xbe00208a	-0.12512413
30	0x3dca4323	0.098760866
31	0xbbeeb762	-0.0072850445
32	0xbe0b342b	-0.13594119
33	0xbd9b438e	-0.075812444
34	0xbe322160	-0.17395544
35	0xbea4a6c3	-0.3215848
36	0xbe448749	-0.19192232
37	0x3d200a70	0.039072454
38	0x3e12da4c	0.14341086
39	0x3d7b92da	0.061419345
40	0x3e84add0	0.25913858
41	0x3e00a9ad	0.12564726
42	0x3e15b624	0.14620262
43	0xbcebf07d	-0.028801197
44	0x3e201f05	0.15636833
45	0x3e78c8e1	0.24295379
46	0x3db9bb45	0.09068922
47	0xbea64a55	-0.32478586
48	0xbe1ed1f0	-0.15509772
49	0x3d3c61ff	0.045991894
50	0x3e17c85a	0.14822522
51	0x3db3ea22	0.08784892
52	0x3cda7ed7	0.02667181
53	0x3e2f5376	0.17121682
54	0xbda4b623	-0.08042552
55	0x3d526869	0.051369105
56	0xbee13818	-0.4398811
57	0x3dcba8c6	0.099443
58	0x3df4d282	0.11954214
59	0xbdcbe613	-0.099559925
60	0xbe0d6bcb	-0.13810651
61	0xbe12010f	-0.14258216
62	0x3e130d0f	0.1436045
63	0x3dd2bb8d	0.10289679

weight f4 [1, 64]
0	0xbbac7fc0	-0.0052642524
1	0xbc3a08a1	-0.011354596
2	0x3c06bdf2	0.008223997
3	0x3b122e31	0.0022305364
4	0x3c3924fd	0.011300323
5	0xbc039757	-0.008031688
6	0xbb1ff6d4	-0.0024408596
7	0x3b521ab7	0.003205938
8	0x39ba136c	0.00035491155
9	0x3c4abc20	0.012373954
10	0xbbc5dad9	-0.0060380516
11	0xbb9901c5	-0.0046694004
12	0xbc26eccb	-0.010188292
13	0xbb0c6826	-0.0021424382
14	0xbb9dc69e	-0.004814937
15	0xbc273b74	-0.010207046
16	0xba6c2f29	-0.0009009713
17	0x3b4f0359	0.0031587689
18	0x3c47aae9	0.012186744
19	0xbb7dd977	-0.0038734355
20	0x39cf1d0d	0.0003950376
21	0x3b2b555a	0.0026143403
22	0xba53291f	-0.0008055139
23	0xbb416d6d	-0.0029514686
24	0x3bdba31f	0.006702795
25	0xbb8e3801	-0.0043401723
26	0xbbb3e7ea	-0.005490293
27	0x3b957ac5	0.0045617544
28	0xba020b23	-0.0004960766
29	0xb8b67c72	-8.701616e-05
30	0x3bb45335	0.005503083
31	0x3b005621	0.0019582587
32	0xbc844660	-0.016146839
33	0xbaaad1e4	-0.0013032523
34	0xbb1750de	-0.0023088972
35	0x3ba38b4d	0.004990971
36	0xbbd7ac82	-0.006581844
37	0xbc151b7f	-0.009100794
38	0xbc2e26ea	-0.010629395
39	0x3a9eea22	0.001212422
40	0xbb8c3b62	-0.00427954
41	0x3c12d476	0.008961787
42	0xba6e92c3	-0.00091008487
43	0xbafeac8c	-0.0019430085
44	0xbc26d594	-0.010182757
45	0xbbe60b36	-0.0070203794
46	0xbb5172a1	-0.0031959193
47	0xbc52b1d0	-0.012859777
48	0xba090c45	-0.00052279636
49	0xba9c2918	-0.0011914102
50	0xbbab3278	-0.005224522
51	0xbc013afc	-0.007887598
52	0x3ba1b859	0.004935306
53	0xbb876b27	-0.0041326466
54	0xbbc65f2e	-0.006053827
55	0x3c24bf93	0.0100554405
56	0xbbf60bad	-0.007508716
57	0x3b9fa6a1	0.0048721586
58	0x3bb0ec2e	0.0053992486
59	0x3b5d38f7	0.0033755878
60	0xbb35fdda	-0.0027769716
61	0x3b438dc0	0.0029839128
62	0x3af02b37	0.0018323426
63	0xbb89faea	-0.0042108195

weight f4 [7, 64]
0	0x3cb77731	0.022395702
1	0x3ebf7b3a	0.37398702
2	0x3ddbeef1	0.10738934
3	0xbed6aaca	-0.41927177
4	0xbe092a10	-0.13394952
5	0xbe7189ef	-0.23587774
6	0xbe85cc4e	-0.26132435
7	0x3e8643e5	0.26223674
8	0x3e71499f	0.2356324
9	0x3cc05f88	0.023483053
10	0x3d0efd01	0.034909252
11	0xbebab415	-0.36465517
12	0xbd88e422	-0.06684138
13	0xbe0c2bfb	-0.13688652
14	0xbd8eb202	-0.06967546
15	0xbe9b14d8	-0.3028934
16	0xbd7b01a0	-0.061280847
17	0xbe17c197	-0.14819942
18	0xbe7094dd	-0.23494287
19	0x3eb6b42f	0.35684344
20	0x3e0d5d8f	0.13805221
21	0xbd0841a8	-0.03326574
22	0x3d8480b5	0.064698614
23	0x3e6cb308	0.2311517
24	0x3e8e2870	0.27765226
25	0x3e25c8a4	0.1618982
26	0xbe427549	-0.18990053
27	0x3eb6b921	0.35688117
28	0xbe317910	-0.17331338
29	0xbe92e458	-0.28689837
30	0xbee89d05	-0.45432296
31	0x3e6af600	0.22945404
32	0xbd29e8d7	-0.04148182
33	0xba907868	-0.0011022212
34	0xbe29ea84	-0.16593367
35	0x3da5369c	0.080670565
36	0xbe23b96b	-0.159887
37	0xbee6299c	-0.4495362
38	0xbec297cd	-0.3800644
39	0x3e912eea	0.28356105
40	0xbeda0d02	-0.4258805
41	0xbeb054b4	-0.34439623
42	0x3e3ed86b	0.18637244
43	0xbe3be609	-0.1834947
44	0xbea98909	-0.33112362
45	0xbe95cb35	-0.29256597
46	0x3dbe660f	0.0929681
47	0x3e18ad62	0.1490989
48	0xbd2c128f	-0.042009886
49	0x3d66ce86	0.0563493
50	0xbecd0d08	-0.40049005
51	0x3ea2a7da	0.31768686
52	0xbe5de5c5	-0.21669681
53	0x3e9ae47d	0.30252448
54	0x3d024d59	0.031812046
55	0xbe1349ba	-0.14383593
56	0xbc13cd86	-0.009021169
57	0xbed1acb1	-0.40952066
58	0xbe81e387	-0.25368902
59	0xbe46fe97	-0.19433056
60	0xbe255830	-0.16146922
61	0xbd8f8593	-0.07007899
62	0x3d781e06	0.060575508
63	0x3e3e1baf	0.18565248
64	0x3e7ae62c	0.24501866
65	0xbe0083a2	-0.12550214
66	0x3d4c0344	0.0498078
67	0xbedfdf99	-0.4372528
68	0xbeae61f3	-0.34059104
69	0x3e35573d	0.1770906
70	0xbd4e4067	-0.050354388
71	0xbea258e8	-0.31708455
72	0x3de5d02d	0.11221347
73	0xbe060356	-0.1308721
74	0x3f11dfe3	0.5698225
75	0xbed7ca0a	-0.4214633
76	0x3d13dc47	0.036098745
77	0xbdfc62dc	-0.123235434
78	0xbd2f3f2e	-0.042784862
79	0x3d6f4142	0.058411844
80	0x3de10c1d	0.109886386
81	0xbe205e63	-0.15661006
82	0x3eaa7d64	0.3329879
83	0xbdcccae5	-0.099996366
84	0x3e05b06f	0.13055585
85	0xbeb7f49e	-0.35928816
86	0xbdce0d74	-0.1006116
87	0x3ea45300	0.32094574
88	0xbe95a094	-0.29224074
89	0xbde736f7	-0.112897806
90	0xbe1b27ba	-0.15151873
91	0xbd0aee52	-0.033918686
92	0x3dde1089	0.108429976
93	0xbeeeeb09	-0.46663693
94	0xbf0a5540	-0.5403633
95	0x3ecba637	0.3977525
96	0xbd37093f	-0.044686552
97	0xbec6a100	-0.38794708
98	0x3ef6bf8b	0.4819301
99	0xbdf2347b	-0.11826416
100	0x3d9eaf40	0.0774827
101	0x3ec65307	0.3873522
102	0x3e821e01	0.25413516
103	0x3ef95f85	0.48705688
104	0x3e82aa1f	0.25520417
105	0x3dcbcaf2	0.09950818
106	0xbf0c897d	-0.5489729
107	0x3e9f9c79	0.31174067
108	0xbd27db69	-0.04098073
109	0x3dd5345b	0.10410377
110	0x3e0f2ace	0.13981172
111	0xbe6bc59b	-0.23024599
112	0x3d73ce06	0.05952265
113	0x3c8f4c8c	0.017492555
114	0x3eba4a04	0.36384594
115	0xbed32585	-0.41239563
116	0xbe933607	-0.28752157
117	0xbe907684	-0.2821542
118	0x3ec39420	0.38198948
119	0xbe93c3de	-0.28860372
120	0xbcab85e7	-0.020937873
121	0x3f0ac814	0.54211545
122	0xbd1e2c3f	-0.038616415
123	0x3ef04470	0.46927214
124	0xbde75e2a	-0.11297257
125	0x3a921d2a	0.0011147608
126	0xbe3dd314	-0.18537551
127	0xbdb0bdf3	-0.0862998
128	0xbe271527	-0.16316663
129	0xbe9890b0	-0.29797888
130	0x3e796374	0.24354345
131	0x3ed2513b	0.410776
132	0x3e8f7fba	0.28027135
133	0x3de46ca8	0.11153537
134	0x3ea903fe	0.33010858
135	0xbc7d1f0f	-0.0154492995
136	0xbee617ae	-0.4493994
137	0xbe9ddabb	-0.3083094
138	0xbebc15cf	-0.3673539
139	0xbda7c52b	-0.08191904
140	0xbeeb8f27	-0.46007654
141	0x3e148fda	0.14508
142	0x3c51dbb4	0.012808729
143	0x3e30ced3	0.17266397
144	0xbe42460f	-0.18972038
145	0x3ef64a3a	0.48103505
146	0xbeada229	-0.3391278
147	0xbef7e217	-0.4841468
148	0x3e2a0219	0.16602363
149	0xbeb57569	-0.3544114
150	0x3e2cbe62	0.168695
151	0xbd8be32f	-0.06830441
152	0xbe31539b	-0.17317049
153	0x3e82d2e2	0.25551516
154	0x3e0132c5	0.12617023
155	0xbed0cc26	-0.40780753
156	0x3eadb56d	0.3392748
157	0x3f1b13c9	0.60577065
158	0x3e89cc0c	0.26913488
159	0xbeeb9f4a	-0.46019965
160	0xbe5d7d35	-0.21629794
161	0xbde48bd0	-0.111594796
162	0xbe3fa0b7	-0.18713652
163	0xbd2eb633	-0.042654227
164	0x3d287cf9	0.04113481
165	0xbed180b2	-0.409185
166	0xbdce3f2f	-0.10070645
167	0xbeecd1f7	-0.4625394
168	0x3e133c6c	0.14378518
169	0x3d6c7d09	0.05773643
170	0xbe7b8a38	-0.24564445
171	0xbd6f59f5	-0.0584354
172	0x3e8592fc	0.26088703
173	0xbe9e8b30	-0.30965567
174	0xbee59208	-0.44837976
175	0xbe2ad1ca	-0.1668159
176	0xbea1190e	-0.31464428
177	0x3ea0a065	0.3137237
178	0x3e36724f	0.17817043
179	0x3e438694	0.19094306
180	0x3de27d8c	0.110591024
181	0xbc21c4d3	-0.009873587
182	0x3dbd169b	0.09232827
183	0x3ef65551	0.48111966
184	0xbea0e835	-0.3142716
185	0xbe9181fb	-0.2841948
186	0x3e8c4238	0.2739427
187	0x3e8283da	0.2549122
188	0xbe2f70e8	-0.17132914
189	0x3e69cbd4	0.2283166
190	0x3eabf851	0.33587888
191	0x3e6f5827	0.23373471
192	0xbe9ec6da	-0.31011087
193	0x3c2fdd9f	0.010733991
194	0x3d8df08b	0.069306456
195	0x3e3f2715	0.18667252
196	0x3e1d8c5c	0.15385574
197	0x3ea5dde4	0.32395852
198	0xbeb58990	-0.35456514
199	0x3c0dd837	0.008657507
200	0x3e81b9b8	0.25337005
201	0x3b91d841	0.0044508283
202	0xbe366756	-0.17812857
203	0x3ee97b73	0.45601997
204	0x3e51f610	0.20504022
205	0x3e9bd0a6	0.30432624
206	0x3d209e83	0.03921367
207	0xbe18cd0f	-0.14921974
208	0xbd366c55	-0.044536907
209	0xbe765835	-0.24057086
210	0xbb949cd9	-0.0045352993
211	0x3ec5f075	0.38660017
212	0x39427882	0.00018546174
213	0x3eba88e6	0.3643257
214	0x3e4b2a2a	0.19840303
215	0x3dba0f8e	0.09084998
216	0xbc575c05	-0.013144498
217	0xbddd5826	-0.108078286
218	0x3de6d4c8	0.112710536
219	0xbe38288e	-0.1798422
220	0xbd504421	-0.050846223
221	0x3e940c26	0.2891552
222	0x3eb07ade	0.3446874
223	0xbe31fbf6	-0.17381272
224	0x3c033280	0.008007646
225	0x3e5af2d7	0.21381699
226	0xbe342515	-0.1759227
227	0x3cc9c1b6	0.024628501
228	0xbd0902c2	-0.033449896
229	0xbdbc622f	-0.091984145
230	0x3e667359	0.22504939
231	0xbe23f25c	-0.16010422
232	0xbcfff5f5	-0.031245211
233	0x3e15fab7	0.14646421
234	0x3ea56569	0.32303932
235	0xbe732291	-0.23743655
236	0xbb99ae2a	-0.0046899514
237	0x3e50e225	0.20398767
238	0x3e3c2fef	0.1837766
239	0xbda5fc5d	-0.08104775
240	0x3ebc43f2	0.36770588
241	0xbee98394	-0.456082
242	0xbe85f1cf	-0.26161048
243	0x3e795c38	0.24351585
244	0x3ead641c	0.3386544
245	0xbe040d7e	-0.12895772
246	0xbdfa1a4d	-0.12212048
247	0x3d020094	0.031738833
248	0x3d025bfc	0.031826004
249	0x3bfdb83a	0.007742909
250	0x3bd750c4	0.0065709073
251	0xbe8e46db	-0.27788433
252	0x3eeb5e8a	0.45970565
253	0xbe4bff88	-0.19921696
254	0xbde216a7	-0.11039477
255	0x3b1d40b2	0.002399486

bias f4 [7]
0	0x3dc8cfb8	0.09805244
1	0x3e09082e	0.13382027
2	0x3e412949	0.18863405
3	0x3d7c5647	0.061605718
4	0xbe2dde8f	-0.1697943
5	0xbd8ac713	-0.06776252
6	0xbdb2191e	-0.08696197

weight f4 [7, 64]
0	0x3d3fc0e5	0.046814818
1	0x3ef3c7c2	0.4761334
2	0x3f1bbbf9	0.608337
3	0xbd036cfe	-0.032086365
4	0xbe942342	-0.2893315
5	0xbd9c82a6	-0.07642107
6	0xbe3b52ca	-0.182933
7	0xbdefd11e	-0.11709808
8	0x3ebfb7a8	0.37444806
9	0xbe30d93c	-0.17270368
10	0x3d3371cf	0.04380971
11	0x3e04e17f	0.12976645
12	0x3b6f85b9	0.003654821
13	0xbe3cffa1	-0.1845689
14	0x3d2ad5cd	0.041707803
15	0xbeb33226	-0.34999198
16	0xbdb1223f	-0.0864911
17	0xbe12b360	-0.14326239
18	0x3d261c24	0.04055418
19	0x3edb6da5	0.4285709
20	0x3e1da504	0.1539498
21	0xbe81b15e	-0.25330633
22	0x3e20f152	0.15717056
23	0xbd80e3d3	-0.06293454
24	0x3e1359ba	0.14389697
25	0x3e2bdc31	0.16783215
26	0x3e4cd2a0	0.20002222
27	0x3e76fe8a	0.24120536
28	0x3e77b2f1	0.24189354
29	0xbd9da3c9	-0.07697255
30	0xbe3873e1	-0.18012954
31	0x3e073ce6	0.13206825
32	0xbdecbc61	-0.11559368
33	0x3ea9b91b	0.33149037
34	0x3d915ded	0.07097993
35	0xbe52dbe4	-0.20591694
36	0xbe8decff	-0.27719876
37	0xbe7a4c23	-0.24443106
38	0xbdd128d8	-0.102128685
39	0xbe0f4df6	-0.13994583
40	0xbe3c895f	-0.18411778
41	0x3e8d661c	0.27616966
42	0x3f233923	0.6375906
43	0xbe125f30	-0.14294124
44	0x3db0d7f0	0.08634937
45	0xbe6e326c	-0.23261422
46	0xbf036f45	-0.5134166
47	0x3d808405	0.06275181
48	0xbe8a4c05	-0.27011123
49	0x3dfe8bdc	0.1242902
50	0xbefd5af8	-0.49483466
51	0x3d52a24a	0.051424302
52	0xbe10d3f9	-0.14143361
53	0xbc939a5f	-0.018017946
54	0xbe418a37	-0.18900381
55	0xbe50d9e2	-0.20395616
56	0xbe41d873	-0.18930225
57	0xbdc49e93	-0.09600558
58	0x3e7417f2	0.2383726
59	0xbf010736	-0.5040163
60	0xbe967714	-0.29387724
61	0x3e99ea99	0.30061796
62	0x3f0610f2	0.52369606
63	0xbe919378	-0.28432822
64	0x3d2bb00a	0.04191593
65	0xbea49dc0	-0.32151604
66	0xbed9d201	-0.42543033
67	0xbcdc850f	-0.026918916
68	0xbe9ecd1c	-0.3101586
69	0x398c387a	0.0002674496
70	0xbe89f693	-0.26945934
71	0x3d80617d	0.062685944
72	0xbc647772	-0.013944494
73	0x3c1508fc	0.00909638
74	0x3eae9939	0.34101275
75	0xbe8f9d32	-0.28049618
76	0x3ea616b4	0.32439196
77	0xbe7c085b	-0.24612562
78	0x3e2faf24	0.17156655
79	0x3e531a02	0.2061539
80	0x3dcacfa6	0.09902887
81	0xbf1baabb	-0.6080739
82	0xbe741a4c	-0.23838156
83	0xbe94dbd6	-0.29073972
84	0x3d8463ce	0.06464349
85	0xbe855954	-0.26044714
86	0xbe55873c	-0.20852369
87	0x3e9ef966	0.3104965
88	0xbe9560a1	-0.29175285
89	0x3d952bfa	0.072837785
90	0x3d34cbe7	0.04413977
91	0xbedf39de	-0.43598837
92	0x3db26fec	0.08712754
93	0xbecf2854	-0.40460455
94	0xbe417c43	-0.18895058
95	0x3e9d91ee	0.30775398
96	0xbdd4185c	-0.10356209
97	0xbe4a7fdd	-0.19775338
98	0x3eab5022	0.33459574
99	0xbe5f66d0	-0.21816564
100	0xbe39516d	-0.18097468
101	0xbd8fe644	-0.070263416
102	0x3cce7c64	0.025205798
103	0x3e70eba3	0.23527388
104	0x3e833f1d	0.2563409
105	0x3f098566	0.53719175
106	0xbd876b99	-0.066123195
107	0x3eb988b5	0.36237112
108	0xbe99dfd1	-0.3005357
109	0x3d818d38	0.063257635
110	0x3e87cac8	0.26521897
111	0xbe7b4bd2	-0.24540642
112	0xbdee621b	-0.11639806
113	0xbe9ad367	-0.30239412
114	0x3d94d811	0.07267774
115	0xbd93f94d	-0.07225285
116	0x3d2f90c1	0.042862657
117	0x3e1e566f	0.1546266
118	0x3edba7b1	0.42901376
119	0xbe9e73dd	-0.30947772
120	0xbdcde687	-0.10053735
121	0x3eae4d63	0.34043416
122	0x3d765491	0.060139243
123	0x3d8189ef	0.06325137
124	0x3e38caf7	0.18046175
125	0xbd3dfcd3	-0.04638369
126	0xbe8067ee	-0.25079292
127	0xbeaa7ed0	-0.33299875
128	0xbce0c7f3	-0.027439093
129	0xbe9b8ba4	-0.30379975
130	0xbd5f9318	-0.05458364
131	0x3be433f4	0.006964201
132	0x3eb5bac5	0.35494056
133	0x3e031316	0.1280025
134	0x3e7f5406	0.24934396
135	0xbe297181	-0.16547205
136	0xbe7c095a	-0.24612942
137	0xbe571be9	-0.2100674
138	0xbecd952d	-0.40152875
139	0xbc95a32f	-0.018266289
140	0xbeca3380	-0.39492416
141	0x3e21030b	0.15723817
142	0xbeeb3e99	-0.45946196
143	0x3eb8dda6	0.36106604
144	0x3e0d9cc5	0.13829334
145	0x3f1531ec	0.582793
146	0xbdfa5bdf	-0.12224554
147	0xbe12e3aa	-0.1434466
148	0x3eac1427	0.33609125
149	0x3e8658a5	0.26239505
150	0xbd18718d	-0.037217665
151	0xbdec38f9	-0.11534304
152	0x3ddbc80b	0.107315145
153	0x3e935a3e	0.28779787
154	0xbee6b152	-0.4505716
155	0x3e0469eb	0.1293103
156	0x3e6f8ff1	0.23394753
157	0x3ee898a6	0.45428962
158	0x3e594016	0.21215853
159	0xbecc5612	-0.39909416
160	0xbe9698b5	-0.2941338
161	0xbe8fd044	-0.28088582
162	0xbe8bb706	-0.27288073
163	0x3e8b3898	0.27191615
164	0x3ebdaa8d	0.37044182
165	0xbe63633e	-0.22205827
166	0x3d75b092	0.059982844
167	0xbde7957d	-0.113078095
168	0x3e5c62bb	0.21522038
169	0xbf1d4f4b	-0.61449116
170	0xbf54afff	-0.8308105
171	0xbf084487	-0.53229564
172	0x3d5e799f	0.054315206
173	0x3e8d6b20	0.27620792
174	0x3e730ede	0.2373614
175	0xbdc093cc	-0.0940319
176	0x3d45e8e3	0.0483178
177	0x3cb33fce	0.02188101
178	0x3ecf8eec	0.40538728
179	0x3d0a3f07	0.033751514
180	0x3e125080	0.14288521
181	0xbde41402	-0.11136629
182	0xbe3bc7f6	-0.18337998
183	0x3ee3b85c	0.44476593
184	0xbe7d9bd7	-0.2476648
185	0xbed30031	-0.41211084
186	0xbcdac821	-0.026706757
187	0x3e8b0187	0.27149603
188	0xbe9f8be9	-0.3116143
189	0xbdb211f0	-0.086948276
190	0xbe661af5	-0.22471221
191	0x3ee0122c	0.43763864
192	0x3d3c5b91	0.045985762
193	0x3e04b126	0.12958202
194	0xbe1ad2cf	-0.1511948
195	0xbddccc3f	-0.10781144
196	0x3dcf0fa4	0.10110405
197	0xbdc7d37c	-0.09757134
198	0x3e843411	0.25820974
199	0x3d09f6a0	0.033682466
200	0xbdcfa1a4	-0.101382524
201	0xbd969d0d	-0.07354174
202	0xbbe43050	-0.006963767
203	0xbe520f56	-0.20513663
204	0x3d9dff32	0.0771469
205	0xbe310996	-0.17288813
206	0x3e1dd598	0.15413511
207	0xbdf7cc32	-0.12099494
208	0x3dbbb68c	0.091656774
209	0x3d827b34	0.063711554
210	0x3d89e973	0.0673398
211	0xbcbd517c	-0.023110144
212	0xbe142dc6	-0.14470586
213	0xbe12cc0c	-0.1433565
214	0xbe4bf830	-0.19918895
215	0xbdef9cc1	-0.1169982
216	0x3cacc4bc	0.021089904
217	0xbdc1fef1	-0.09472454
218	0xbcea9c20	-0.0286389
219	0xbce399ea	-0.027783353
220	0xbdc5bc58	-0.09655064
221	0xbc027078	-0.007961385
222	0xbd86ca1c	-0.06581518
223	0x3e00dac3	0.12583451
224	0x3de9928a	0.11404903
225	0xbe017a50	-0.12644315
226	0xbdd3e1f9	-0.10345835
227	0x3ba8e0b1	0.0051537384
228	0xbdb0ae8a	-0.08627041
229	0x3ea8e63e	0.3298816
230	0xbc8bdddf	-0.01707357
231	0x3dc36ae3	0.095418714
232	0xbe32cb82	-0.17460445
233	0xbe29d0c9	-0.16583551
234	0xbd6433e1	-0.055713538
235	0xbdd08ba4	-0.10182884
236	0xbdc78665	-0.097424306
237	0xbe1d9b77	-0.15391336
238	0x3dcc0499	0.099618144
239	0x3cf16120	0.029465258
240	0xbdd5c186	-0.10437302
241	0x3e99a82d	0.3001112
242	0x3d386cb2	0.045025535
243	0xbdb4c7ce	-0.08827172
244	0xbc34afd9	-0.0110282535
245	0xbd37a42f	-0.044834312
246	0xbd6b4a12	-0.057443686
247	0xbd333160	-0.04374826
248	0x3dd6a0f2	0.10479917
249	0x3c2f560f	0.01070167
250	0x3d9e989a	0.0774395
251	0x3e68e65d	0.22744127
252	0xbc6abd4c	-0.014327358
253	0x3d988dfc	0.07448956
254	0x3db3fbcb	0.0878826
255	0x3c871b60	0.016492546

bias f4 [7]
0	0x3e31d42a	0.1736609
1	0x3d9c3e26	0.076290414
2	0x3e95323d	0.2913989
3	0xbdcb3604	-0.09922412
4	0xbdf6cec4	-0.12051156
5	0xbc789b78	-0.015173785
6	0xbe0a177b	-0.1348552

weight f4 [7, 64]
0	0x3e07784a	0.1322948
1	0x3eb6af69	0.35680702
2	0x3ea54317	0.32277748
3	0xbea5f635	-0.32414404
4	0x3dcf65a2	0.10126807
5	0xbf185314	-0.5950177
6	0x3db73bf2	0.089469805
7	0xbdddae76	-0.108242914
8	0x3e53c03b	0.20678799
9	0xbc950e38	-0.018195257
10	0xbe81bf57	-0.25341293
11	0x3df0bacb	0.11754378
12	0x3ef7b463	0.48379812
13	0x3d669d90	0.056302607
14	0xbead9832	-0.33905178
15	0xbec23150	-0.37928247
16	0xbec3b697	-0.38225242
17	0xbe8d66dc	-0.27617538
18	0x3d36c956	0.044625603
19	0x3ddca222	0.10773112
20	0xbdac2ed3	-0.084073685
21	0x3dfa2b8d	0.12215338
22	0x3f143cb8	0.5790515
23	0xbe32968b	-0.1744024
24	0x3e83d6a7	0.25749704
25	0xbe91d9b3	-0.28486404
26	0x3e720e49	0.23638262
27	0x3ea05d8c	0.3132137
28	0xbdb2ed0e	-0.08736621
29	0x3f0e4042	0.555668
30	0xbe545bac	-0.20738095
31	0xbd454797	-0.048163977
32	0x3e2dd1ae	0.16974518
33	0x3ea11d62	0.3146773
34	0xbe25e5c8	-0.16200936
35	0x3dca6357	0.09882229
36	0xbec42aac	-0.38313806
37	0xbe529962	-0.20566323
38	0xbeacf39d	-0.33779612
39	0xbea0e75b	-0.3142651
40	0xbedaa2d6	-0.4270236
41	0x3d85fcfa	0.06542392
42	0x3f2e55de	0.6809977
43	0xbccd0fef	-0.025032012
44	0x3e9fe32d	0.3122801
45	0xbe8dd005	-0.2769777
46	0xbedfc64d	-0.4370598
47	0x3e02bab4	0.12766534
48	0xbce60545	-0.028078685
49	0x3d9b01c1	0.07568694
50	0xbf171cc9	-0.590283
51	0x3eb908fd	0.3613967
52	0x3d687cb3	0.056759547
53	0xbe8accba	-0.2710932
54	0xbe3fdda0	-0.18736887
55	0x3d83e2dc	0.06439754
56	0x3d7ba579	0.061437104
57	0xbe72877f	-0.236845
58	0x3ee3c836	0.44488686
59	0xbece3d5a	-0.40281183
60	0xbb141576	-0.00225958
61	0x3ee53aec	0.44771516
62	0xbc896051	-0.01676956
63	0x3d5af003	0.05345155
64	0x3ee5712d	0.4481291
65	0x3e5dff97	0.21679531
66	0x3e8a9216	0.2706458
67	0x3e711267	0.23542176
68	0xbec28e49	-0.3799918
69	0xbe333531	-0.1750076
70	0xbea9f9d3	-0.33198413
71	0x3f178256	0.5918325
72	0x3ef3e372	0.47634465
73	0x3dbd2d36	0.09237139
74	0xbe230504	-0.15919882
75	0x3e24d4bb	0.16096775
76	0x3ed02b75	0.40658155
77	0xbb7d74c7	-0.003867434
78	0x3f299709	0.66246086
79	0xbe5e5054	-0.2171033
80	0x3e138040	0.14404392
81	0x3c10cd3a	0.008837992
82	0x3ea9f9a6	0.3319828
83	0x3f0aa3ba	0.54156077
84	0x3dec755c	0.11545822
85	0x3dbe1d25	0.09282903
86	0xbe42d0b5	-0.19024928
87	0xbe02483a	-0.12722865
88	0xbe593ff2	-0.212158
89	0x3de73487	0.11289316
90	0x3e270646	0.16310987
91	0xbf04bed3	-0.51853675
92	0x3e286cc7	0.16447745
93	0xbdab18f7	-0.08354371
94	0xbe486b56	-0.19572195
95	0x3e513301	0.20429613
96	0x3c059ffa	0.008155817
97	0x3e8e19d8	0.27754092
98	0x3d135fd3	0.035980057
99	0xbe5e2b03	-0.21696095
100	0x3d9e2ef0	0.07723796
101	0x3de4a13f	0.11163568
102	0x3f025a08	0.50918627
103	0x3f0d6f88	0.5524831
104	0x3ed70559	0.41996267
105	0x3e9bdf17	0.30443642
106	0x3ee8ec49	0.4549277
107	0x3e613648	0.21993363
108	0xbcdc7c44	-0.026914723
109	0x3c902d93	0.017599856
110	0xbe4b8bdb	-0.1987757
111	0xbe51afb3	-0.2047718
112	0xbea3372f	-0.3187804
113	0xbe5d8f6f	-0.21636747
114	0xbd9a99c3	-0.07548859
115	0xbecfe575	-0.4060475
116	0xbe150239	-0.14551629
117	0x3e451091	0.19244601
118	0xbe3b4238	-0.18286979
119	0xbed444d0	-0.4145875
120	0xbe023754	-0.12716419
121	0x3e726928	0.23672926
122	0x3db4a242	0.08820011
123	0xbd97f2e4	-0.074193746
124	0x3e326ff5	0.1742552
125	0x3d7220c6	0.059113286
126	0x3e8985c1	0.2685986
127	0xbe6afb9f	-0.22947548
128	0xbef1dee4	-0.47240365
129	0xbeccf924	-0.4003383
130	0xbe9b2229	-0.302995
131	0xbd92de70	-0.07171333
132	0x3da2d29f	0.07950329
133	0x3ed376b5	0.41301504
134	0x3e86ab08	0.2630236
135	0xbf1e4c30	-0.61835
136	0xbe8b37c9	-0.27190998
137	0xbf13fe37	-0.57809776
138	0x3d46cc3b	0.048534613
139	0xbe85f178	-0.2616079
140	0xbf21b5eb	-0.6316821
141	0xbe057b4e	-0.13035318
142	0xbe902026	-0.28149527
143	0x3ece4105	0.4028398
144	0x3eecd0d9	0.46253088
145	0x3e307418	0.17231786
146	0xbe6c870c	-0.23098391
147	0xbed9c634	-0.4253403
148	0x3eed39dc	0.46333206
149	0xbecff004	-0.40612805
150	0xbeb43d54	-0.3520304
151	0x3ebf4ecc	0.37364805
152	0xbbc20cfa	-0.005921957
153	0x3ec2b7ec	0.38030946
154	0xbeeb0626	-0.45903128
155	0x3db5909a	0.08865471
156	0x3ee27416	0.44229192
157	0xbe8bfb7d	-0.27340308
158	0x3e9f8661	0.3115721
159	0xbe4388dd	-0.19095178
160	0xbf09c6ca	-0.53818953
161	0xbf2cbb54	-0.6747334
162	0xbb7b80a3	-0.0038376234
163	0xbda59497	-0.08084982
164	0x3cede6db	0.029040745
165	0xbe00ec44	-0.12590128
166	0x3e3685bb	0.17824452
167	0xbebe00d4	-0.37110007
168	0x3e649850	0.22323728
169	0xbe76d31e	-0.24103972
170	0xbf2db610	-0.6785593
171	0xbeb8d1b2	-0.36097485
172	0xbd95f598	-0.07322234
173	0x3eaf1241	0.34193614
174	0x3ea6ec17	0.32601997
175	0xbec007f9	-0.37506083
176	0xbdc3fcfa	-0.09569736
177	0x3e535428	0.20637572
178	0x3e873b67	0.26412508
179	0x3d612586	0.054967426
180	0xbe1e0d9e	-0.15434882
181	0x3eb8e99c	0.3611573
182	0x3e4e7815	0.20162995
183	0x3e72bbe5	0.23704489
184	0xbec76972	-0.38947636
185	0xbdf4f29a	-0.11960335
186	0xbe18013a	-0.14844218
187	0x3ec0baad	0.37642422
188	0xbef00fcb	-0.4688705
189	0xbe3240a7	-0.17407475
190	0x3e58a065	0.21154936
191	0x3e3aa536	0.18227085
192	0x3d8b66d8	0.06806725
193	0x3db24410	0.08704388
194	0x3cd9e0eb	0.026596507
195	0x3dd8a9e8	0.10579282
196	0x3e48252e	0.19545433
197	0x3e37d7f0	0.17953467
198	0x3d6cf36f	0.057849344
199	0x3dc47acb	0.095937334
200	0x3b99ea05	0.0046970868
201	0x3c220f85	0.009891395
202	0xbdcc4bf2	-0.09975423
203	0xbddc899b	-0.10768434
204	0xbd46b31d	-0.04851066
205	0x3e420542	0.18947318
206	0x3c75d419	0.015004181
207	0x3d842b19	0.06453533
208	0x3ce11bea	0.02747913
209	0xbdb211c0	-0.08694792
210	0xbe1302a8	-0.14356482
211	0xbddeb391	-0.10874093
212	0xbd65865f	-0.05603635
213	0x3dd333f3	0.10312643
214	0xbc633161	-0.013866753
215	0xbded8695	-0.11597935
216	0xbe04e074	-0.12976247
217	0xbc2ea2ef	-0.010658964
218	0xbe2e47ce	-0.17019579
219	0xbd74af23	-0.059737336
220	0xbd5fd238	-0.05464384
221	0xbd4f343c	-0.050586924
222	0x3d4a04df	0.04932105
223	0xbddc4d3c	-0.10756919
224	0x3c2bc592	0.010484116
225	0xbe5b5d86	-0.21422395
226	0xbe7961b5	-0.24353679
227	0x3dd29844	0.102829486
228	0x3e239254	0.15973788
229	0x3e06aae9	0.13151135
230	0xbd87d424	-0.066322595
231	0x3d501f93	0.05081136
232	0x3d053795	0.03252371
233	0xbdf220b8	-0.11822647
234	0xbe063e1c	-0.1310963
235	0x3e1cc071	0.15307786
236	0x3e24c043	0.16088967
237	0xbde1c82c	-0.11024508
238	0x3cf974e7	0.030451251
239	0x3bb90006	0.0056457547
240	0x3d931b6f	0.07182967
241	0x3e08f418	0.13374364
242	0x3e8f435e	0.27981085
243	0x3c2e1fa7	0.010627664
244	0x3cf6250f	0.030046968
245	0xbe8005c3	-0.25004396
246	0x3cd3245d	0.025774175
247	0x3e0226bc	0.12710088
248	0x3e1fdbf8	0.15611255
249	0x3dada400	0.08478546
250	0x3ce075f5	0.027399996
251	0xbd16e04b	-0.036834996
252	0x3dfad812	0.122482434
253	0xbd0447c3	-0.032295
254	0xbd27687b	-0.040871125
255	0x3ba47a51	0.005019464

bias f4 [7]
0	0xbdb2448a	-0.08704479
1	0x3e0b42c3	0.13599686
2	0x3ee0e2cd	0.43923035
3	0xbd2de2a5	-0.042452473
4	0xbdb3b36c	-0.087744564
5	0x3acdabe9	0.0015691492
6	0xbdccfbc2	-0.100089565
