BLIP/RL/trained_models/ppo/2023-01-28_minigrid_5e5_distshift-doorkey-wallgap-lavagap-redbluedoor-emptyrand_fine-tuning_1_task_5.pth (torch, 738769 bytes, 22 tensors)

features.actor.0.weight f4 [64, 2739]
00000000: 70a7 e73c 6309 25be c507 973e 9da7 ad3d
00000010: 8006 abbd fca2 803e e0b1 6bbe 1bbc 1dbe
00000020: 0024 693e 8249 303e c601 08be 6d6f 39be
00000030: 77b4 aa3d 9e14 8fbe 0765 15be fdf0 023e
00000040: 51b4 7f3e bd03 eabe 4c6d 113f 7f51 c63e
00000050: e03a cdbd 825f 8cbc 9a11 e93d 0db1 8a3e
00000060: 7f05 063e c3e5 d7bb 8e13 20bc 8960 7ebe
00000070: 3151 50be 1251 62bc 4f0a 873e bb2b 933c
00000080: 11bd 863e 5e0f d53e 5208 fdbc 055f 6cbe
00000090: b354 133d ec9b 0c3d cb5e 353e 8d6a e5bd
000000a0: e260 cdbe b7d4 a03e df58 323d 2d02 c23c
000000b0: 45e5 763e 1166 d3bd abec 843d 5319 f4b9
000000c0: 8af2 40be 36dc e5bd 6ddf 12be 012c 8c3e
000000d0: 191b 213e 93e0 bb3e fc8f c9be d111 49be
000000e0: 544e 6bbe 4bbc d8be 2d89 f6bd 59be 013f
000000f0: fb0b 4ebf 59ca 11bf 1809 8b3e 7463 ca3c
00000100: 71a0 8d3c 73b3 a33d fd9b c3bd d768 7cbb
00000110: 4ae3 57bc 49f4 78be 75c6 c4be a390 653d
00000120: 9321 81bc 1146 723e 3343 2fbe b679 273e
00000130: 7b7e cfbe 0523 013f 7317 8a3e a7d4 cf3e
00000140: 6633 afbe ef78 5fbf 7f1c 3abe 3393 96bb
00000150: a3a8 f13a 904f 90bd 77ba 463e 00fd 30be
00000160: 1443 a6bd 938c 003e a4d7 24be 4947 1ebe
00000170: d5a1 aa3d 8851 773e eb96 903d b666 f13c
00000180: f41c 1fbf e9f2 4abe 2c65 ff3e 839f bfbe
00000190: d98a 0e3f 075c 14be b8c5 243f 41e6 123f
000001a0: eb9a 8fbe 2534 8dbd ecea c2bd 7666 5b3e
000001b0: 3ea1 12be 00a1 c7bd 2c46 e13c e742 633d
000001c0: 56b1 763d 62b0 573b 5a9c 083d 5101 813e
000001d0: f661 3bbd c0bc b13e 46b1 913e bdef c33e
000001e0: 3cf9 69be 0ef6 0ebe 0c62 893d d09a 0b3f
000001f0: 0deb 243f cda4 f5bd 934a 063e 58c2 1d3c
00000200: a6cb 833e 8d96 94bd 8cdc 8ebd 0778 753e
00000210: 97fe f23d 3e22 183e 5b17 993e a0df b63e
00000220: 8edb d93e 388d 583d 5f42 453e db4f 613e
00000230: c2bc 8f3e 626e 92bc 54ab 6d3e 2c8d ca3d
00000240: a16d 323e ac71 1e3f e7f0 8b3a afb6 33be
00000250: e333 88bc 9249 843c 734b c5bc 6717 b23c
00000260: 980e 91bd 6430 89be 93a5 debc 9c32 74bc
00000270: a47a 093d b084 09bd 1a4c 36bd 23c2 7bbb
00000280: 3fb7 25ba 7372 0ebe 5865 34bd e6c0 3c3c
00000290: 6600 49bd 7143 b83c 6f26 343c 1966 1cbd
000002a0: 0470 babc 2e9f bfbc 6751 3cbc ec8f 28bb
000002b0: 0644 bc3b d7c6 9d3c d2ff e4bb d136 cb3b
000002c0: 2823 8dbc 55a4 e63c d82f 9cbe 1409 7a3c
000002d0: 7822 143d f84b 25bd f66d 3dbd 4fb6 153c
000002e0: 5066 483b d5ba e5bb 5a1e b23c 00fe 723c
000002f0: 8e78 993d 4349 fbbd af20 2fb8 0753 95bc
00000300: 8941 41bd 09a2 833c 230e 783c 5700 41be
00000310: 9c4b 1b3d e02a f6bb 7729 6d3c cd13 0e3d
00000320: 6cef a7bc 9518 183d 1aa6 893c ad62 4e3b
00000330: b91b 993c 3db8 1fbe 201c 983b fbef 7b3c
00000340: efdd 193c 92f3 6c3c d068 3bbc 43b1 c13c
00000350: c807 fd3a 5c34 db3b 66c7 17bd ed9b 21be
00000360: 6743 cf3c 0d16 1e3d eb74 28bc 2aea 3a3c
00000370: f2d3 96be 9c20 0d3d 9cce 36bd 0c83 dd3c
00000380: 831c a13c deb2 8bbc 68bc 3ebc d541 62bc
00000390: 8b45 203c 99dd 193d 0bdf bdbc ce12 cebd
000003a0: bcdf f63b eb7c fdba 2d6a b6bb ab61 863d
000003b0: 1559 17be a5ed 1dbd e721 c83b e49b 49bc
000003c0: c4b1 723b 855f 06be c78f 5a3d 7094 4f3c
000003d0: 80ed 0bbc 4b35 c9bc f3b4 80bd 2814 29bd
000003e0: 8a83 20bd 7aa2 913c 19fb adba c434 d8bc
000003f0: b597 f1bc 561a 1dbd 342b d1be d5d3 f0bc
0.028278083 -0.16116862 0.29498115 0.08479235 -0.08350849 0.25124347 -0.23017073 -0.15403788
0.22767639 0.17215541 -0.13281927 -0.18108912 0.08335202 -0.27945417 -0.1458932 0.12787242
0.24971129 -0.45705977 0.568074 0.38734052 -0.10020995 -0.017135385 0.1138031 0.27088204
0.13088034 -0.006588669 -0.009770287 -0.24841513 -0.20343472 -0.013813274 0.26375052 0.017965188
0.2631612 0.41613287 -0.030887756 -0.23083122 0.035969447 0.034328386 0.17711942 -0.112019636
-0.40112978 0.3141229 0.043541785 0.023682678 0.24110897 -0.10322202 0.06490453 -0.00046558175
-0.18842521 -0.112236425 -0.14343043 0.27377322 0.15732993 0.36694774 -0.39367664 -0.19635703
-0.22979099 -0.42331156 -0.12037883 0.5068107 -0.8048703 -0.56949383 0.27155375 0.024705626
0.017288418 0.079932116 -0.09551237 -0.0038514638 -0.0131767485 -0.24311937 -0.3843266 0.05604614
-0.01576308 0.2365954 -0.17115478 0.16355023 -0.40526184 0.5044406 0.26971015 0.40591928
-0.342189 -0.87293905 -0.18174933 -0.0045951842 0.0018437098 -0.07046425 0.19407068 -0.17284012
-0.08118263 0.12553625 -0.16097885 -0.1545688 0.08331648 0.24152195 0.07060035 0.029467922
-0.62153554 -0.19819225 0.49881876 -0.37426385 0.55680615 -0.1448823 0.64364195 0.5738259
-0.2804788 -0.068947114 -0.09517464 0.21425804 -0.14319322 -0.09747505 0.02749928 0.055483725
0.060227714 0.0032911529 0.033352233 0.25196317 -0.04574772 0.34714317 0.2845556 0.38268843
-0.22848982 -0.1396105 0.06708154 0.545331 0.6442116 -0.11994324 0.13114385 0.009628855
0.2574131 -0.07255278 -0.0697566 0.23971568 0.118649654 0.14856812 0.2990063 0.35717487
0.4255032 0.05286905 0.192636 0.22003119 0.28073698 -0.0178749 0.23209888 0.09890208
0.17424633 0.618922 0.0010676653 -0.17550157 -0.016626304 0.016148362 -0.024083829 0.021739675
-0.07082862 -0.26794732 -0.027178561 -0.014904644 0.033564225 -0.033573806 -0.04450617 -0.0038415275
-0.0006321556 -0.13910846 -0.04404196 0.0115206 -0.049072646 0.022493096 0.010995491 -0.038183305
-0.022758491 -0.023391332 -0.011494017 -0.002572055 0.0057454137 0.019259853 -0.006988504 0.006201603
-0.017228678 0.028154531 -0.30505252 0.015260953 0.036165684 -0.040355653 -0.046247445 0.009137704
0.003057856 -0.0070107975 0.021742988 0.014831066 0.07493697 -0.12269833 -4.175369e-05 -0.018228067
-0.04718164 0.016068475 0.015140089 -0.18847786 0.037913904 -0.0075124353 0.014475218 0.034686852
-0.020499907 0.03713282 0.016802836 0.003149192 0.018689977 -0.15597625 0.0046420246 0.01537704
0.009391292 0.014462369 -0.0114385635 0.023644095 0.0019304687 0.0066895913 -0.037055396 -0.15782137
0.025300695 0.038595248 -0.010281782 0.011408368 -0.29458576 0.034454927 -0.04463063 0.027040027
0.019666916 -0.017053064 -0.011641599 -0.013809641 0.009782205 0.037564848 -0.023177644 -0.100621805
0.0075339954 -0.0019339597 -0.0055668564 0.065615974 -0.14780076 -0.038556714 0.006107557 -0.012305234
0.0037032226 -0.13122375 0.053359773 0.012669668 -0.008540511 -0.024561545 -0.06284513 -0.041278988
-0.039187945 0.01777767 -0.0013273685 -0.026392348 -0.029491285 -0.038355194 -0.40853274 -0.029397884

features.actor.0.bias f4 [64]
00000000: d178 6dbf 73cc e9be 8ef0 913d 9108 423f
00000010: d03e 0d3e 1192 bb3d b3f9 cc3f 09f8 30bd
00000020: facc 7fbd eecb 693f 3e42 67bf 4a6b dbbe
00000030: 8d6c 103e ac28 acbe c979 2ebf 8884 623f
00000040: 70b0 8b3d ecd6 663c 1f56 80bf 1c47 08be
00000050: db1b 9d3f 1750 0dbf 1942 3b3f c97a 2dbf
00000060: 152b dcbf 1d78 cf3e e5c8 f93e 2765 f0be
00000070: 06f2 25bf c539 92bf aa8d 38bf eecb da3e
00000080: 9dc3 403f 6edb 133f 6674 ccbc 8e54 85be
00000090: be47 623e 8a8b 4cbf fc64 0cbe 0a1a 423e
000000a0: 6cda 94bf 9c28 83bf 205f 3a3f f2b2 51bf
000000b0: 78f0 42bf 73da f9be adef 513f efef 31bf
000000c0: 8fbf d1be 2044 533e 9dfe 953f bc3a 613e
000000d0: d692 903e 352c fabe 4104 803d 126f 81bf
000000e0: 958f 8dbe 5ebb 92bf 6fc9 0cbe 3f31 8f3d
000000f0: ca80 dcbe 68cc 5abd 5023 4cbd 96db 433e
-0.92762476 -0.45663795 0.0712596 0.7579432 0.13793492 0.09158719 1.6013702 -0.043205295
-0.06245134 0.91326797 -0.9033545 -0.42855293 0.14103909 -0.3362478 -0.6815458 0.88483477
0.06820762 0.014089327 -1.0026282 -0.13308376 1.2274126 -0.5520033 0.7314773 -0.6776548
-1.7200648 0.40521327 0.48786083 -0.46952173 -0.64822423 -1.142388 -0.7209116 0.4273371
0.7529848 0.577567 -0.024957847 -0.26041073 0.2209768 -0.7990042 -0.13710397 0.18955246
-1.1629157 -1.0246768 0.728014 -0.81913674 -0.76148176 -0.48799476 0.8200634 -0.69506735
-0.4096646 0.20631456 1.1718327 0.21995062 0.28237027 -0.48861852 0.06250811 -1.0112021
-0.27648607 -1.146343 -0.13748716 0.06991815 -0.43067008 -0.053417593 -0.049838364 0.19126734

features.actor.2.weight f4 [64, 64]
00000000: 26ca 0c3f 302a ea3e da35 53be 626e d6bd
00000010: 67b6 8b3e cf76 d93b 6c8c bd3e 7efa 0abf
00000020: 1080 8cbe bafe b4be 6055 9d3e ee95 6c3e
00000030: 7284 113e 9b20 09bf db39 f23d 2644 04bf
00000040: 683b fe3d 1d43 b63e 8b88 5a3e 32e3 b3be
00000050: 32a5 663e 71b3 12bf f8eb 7b3e 5d59 b43d
00000060: 50b0 453f 3936 3a3e 44b6 963e 4ee6 5bbf
00000070: 4891 493f 5314 cf3e 5670 95be 9c4f c8be
00000080: 4e9e fdbe 0445 913c 3535 f1bd 215c 12bf
00000090: f083 80be bf07 d03d 11dc ea3d 9627 e73e
000000a0: db98 a03e 116a 573f 7763 8c3e cf97 9cbe
000000b0: d304 c83c 3fa3 533e fa08 d03e 1f8e 17bf
000000c0: 2957 f5be 7f05 b63c 9b6c 52be 3273 ffbd
000000d0: dfc5 e8bd 61d5 16bf 2e12 943e d238 0abf
000000e0: 4fcb 513f ed35 5a3e 0036 ab3e 04db 93be
000000f0: f86a eabe 6557 4ebe f737 4ebe 2239 183f
00000100: ecb3 953d 8044 38bd 2e8f efbe 7f42 fdbe
00000110: ada4 0a3f 5b6a 313e 8568 263f 84c2 8c3e
00000120: 5453 c0bd fc40 4fbe f3c1 ab3e f902 1f3f
00000130: 4195 8fbe 519b 39be aee0 98bf 9332 11bf
00000140: 0927 91be 6d36 5e3e f2ae 41bc a424 bebe
00000150: 7be2 c8be c9d1 c3bd 48ec 30bf e50a c93e
00000160: 1cf1 a9be 5f3a e83d 32ec f3be 92e9 29bf
00000170: 4a81 d23e 5b06 39bf f630 0fbf 67b1 f53c
00000180: 4e69 593f 5ae3 313f a5a6 393f 3399 3abe
00000190: ceaa 70bd 5a18 813e e8b8 073e 143a 423e
000001a0: f5e8 033b 19d0 2f3d 3214 8e3e 97d5 14bf
000001b0: cb32 83bf 760f 12bf 7da4 0d3e 40ca e13c
000001c0: 4a70 a9be 070e d4be 932c 0bbf 6c40 6f3e
000001d0: 8b17 4c3e b5a2 55be dd00 1ebe 63f7 e4be
000001e0: 31e6 46bf 1d88 b13e 58fa e13e 2ee3 f8be
000001f0: 080e 3f3d ccd1 4ebe 41c7 8fbe 4ce7 04bd
00000200: 4d63 06bf f8d3 5ebf fb1b 623d e7e0 edbd
00000210: 10d1 c33e 8d30 163d f6f0 b1be 8ee7 2f3e
00000220: 9f3d 183e efa1 c1be 931f 833e dd5a 533e
00000230: c8bb 6a3e 39e4 863e de35 90be 41b0 503e
00000240: fab3 983e 5704 0bbf 9d9a f7bd 32ad 413f
00000250: 2066 743e 6d3b 4abd a87e 4b3e fa8b 173f
00000260: 9bdf b93e e7ef bdbe 51b1 623f 2596 83be
00000270: 9104 aabe cdc3 0abf 62eb cbbd 8533 0d3f
00000280: caf6 23bf 2c3c 64bf b1d1 24be f939 55bf
00000290: 9a96 a8be 4fc1 81be 5eac 44be 6f17 653f
000002a0: afe5 92bc ac7d bf3e b504 92be 0086 01be
000002b0: e0d9 0dbe 7d0f 883e 3229 c2be daf6 cf3e
000002c0: 377f a7be 9812 b53d 01ce 7cbd 3e3d 5c3e
000002d0: aded c3be def5 403f cef9 0c3f 3e38 e2be
000002e0: d4aa 8fbe 2f37 a6be 84d4 ac3e d07d cabd
000002f0: 971b 0b3f b30c 9c3c e4d0 853d d81b bfbe
00000300: 0c39 a7be 6020 b7bd 70f0 453f 7549 863e
00000310: cbe2 a93c 05fb db3d e521 0bbf bfd1 31bf
00000320: b2db 403f 373b 713e fa3d 43be cd6b 763d
00000330: 0299 72bd 2587 853e 232b 8b3e 353a 5fbc
00000340: 2f4c 063c 01ec b73d cf60 1b3f 41c3 1f3b
00000350: d447 80be 3d58 cfbd df9e 4a3e 2390 b4bd
00000360: 9719 3f3e ff63 2bbf 2625 ddbe 50b2 35bd
00000370: a23e 7ebf fa28 c83e b4ea 6a3e d4f9 543e
00000380: 78bb 3fbe fda9 c3be 054d 45be ecd8 5abe
00000390: de16 273f f7f9 3ebd 5f4a 03bf ee8a f5be
000003a0: b95c 703e e1cd efbe a738 32be 09cf 073e
000003b0: ab6f e13e 409d 943e cd59 2cbf f849 d8be
000003c0: b70b 123f eba8 8ebd a8f3 56be a538 ba3d
000003d0: 5410 39bd 4452 853d b2a6 0f3f e191 bc3e
000003e0: 177d 643f 8a55 973e 313f 29bd c39c 3f3d
000003f0: 30a0 ab3e c672 103f 057b be3d 22a1 173d
0.54995954 0.45735312 -0.20626011 -0.104702726 0.272876 0.0066364775 0.37021196 -0.5428847
-0.27441454 -0.3535059 0.30729198 0.23104069 0.1421068 -0.53565377 0.11827441 -0.51666486
0.124136746 0.35598078 0.2134115 -0.35134274 0.22523955 -0.57305056 0.24601734 0.08806107
0.77222157 0.18184747 0.29435933 -0.8589829 0.78737307 0.40445194 -0.29187268 -0.39123237
-0.4953484 0.017733105 -0.117777266 -0.5717183 -0.2510066 0.101577275 0.114677556 0.4514739
0.3136662 0.8414622 0.27419636 -0.3058457 0.024416363 0.20667742 0.4063185 -0.59201235
-0.4791806 0.022219418 -0.20549242 -0.12473144 -0.11365866 -0.5891934 0.2892012 -0.5399295
0.8195085 0.21309634 0.33439636 -0.28878033 -0.45784736 -0.20150526 -0.20138536 0.5946218
0.07309708 -0.0449872 -0.46788925 -0.49464795 0.54157525 0.17325728 0.65003234 0.27492154
-0.093908936 -0.20239633 0.3354641 0.6211391 -0.2804356 -0.18125655 -1.1943567 -0.56717795
-0.28350094 0.2170045 -0.011821495 -0.3713733 -0.3923529 -0.09561498 -0.69110537 0.39266124
-0.33191764 0.113392584 -0.4764114 -0.66372025 0.41114265 -0.7227532 -0.55934083 0.029991819
0.8492631 0.69487536 0.72519904 -0.18222503 -0.058756642 0.2521389 0.1325413 0.18967468
0.0020127867 0.042923067 0.27749783 -0.5813841 -1.0249876 -0.5705484 0.13832279 0.02756226
-0.33093482 -0.41416952 -0.5436489 0.23364419 0.19930856 -0.20862849 -0.15430017 -0.4471999
-0.77694994 0.3467416 0.4413631 -0.48610824 0.04664424 -0.20197219 -0.28081706 -0.032447144
-0.5249527 -0.8704219 0.055202466 -0.11615162 0.3824544 0.036667395 -0.3475415 0.17178175
0.14867257 -0.37818858 0.25610027 0.2064013 0.22923195 0.26345995 -0.28166097 0.20379736
0.2982481 -0.543035 -0.12090037 0.756549 0.23867083 -0.04937308 0.19872534 0.5919796
0.3630341 -0.37097093 0.88551813 -0.2570049 -0.3320661 -0.5420502 -0.09957005 0.5515674
-0.64048445 -0.89154315 -0.16095616 -0.83291584 -0.329274 -0.25342795 -0.19206378 0.8948888
-0.017931787 0.37400568 -0.28519216 -0.12648773 -0.13852644 0.26574317 -0.37922055 0.4061802
-0.32714245 0.08841437 -0.061719898 0.21507737 -0.3826727 0.75375164 0.5506867 -0.44183534
-0.2806002 -0.32463977 0.33755887 -0.09887278 0.54338974 0.019049024 0.06533983 -0.3732593
-0.3266071 -0.08941722 0.77320004 0.26227918 0.020738026 0.107412376 -0.54348594 -0.6946067
0.7533523 0.23557745 -0.19066611 0.0601614 -0.05922795 0.2607967 0.27181348 -0.0136247175
0.0081968745 0.08980561 0.60694593 0.0024377855 -0.250548 -0.10124252 0.19787167 -0.088165544
0.18662106 -0.66949457 -0.43192405 -0.044359505 -0.9931432 0.39093763 0.22941095 0.20798427
-0.18723857 -0.38215628 -0.19267662 -0.21371812 0.6526927 -0.046625104 -0.51285356 -0.47957557
0.23472871 -0.4683676 -0.17404424 0.13262571 0.44030508 0.29026222 -0.67324525 -0.42243934
0.57049125 -0.06965812 -0.20991385 0.09092835 -0.045181587 0.065098315 0.5611373 0.36830047
0.8925337 0.2955745 -0.04132003 0.04678036 0.3352065 0.5642513 0.09300808 0.037018903

features.actor.2.bias f4 [64]
00000000: c49f f6be db64 6c3d f909 083f 872b 1a3e
00000010: ee33 0bbf b917 5dbd 5395 e339 950c d6be
00000020: b781 4c3e 8907 0cbc 5b63 4f3f c945 913f
00000030: b844 6a3f 02fb 993d 3b3e 6840 be8d 73bd
00000040: 234f febf 6c8d 2dbf 675a 6c3f 7a88 d9bd
00000050: c5f8 17bf 76e4 b83e 583a 153f 5e17 293f
00000060: de94 89be 488a 16c0 ccc1 e43f b344 42c0
00000070: 6b3e 1abe 29e8 5dbe 710b 0abe 1016 3c3e
00000080: a06a a73c 237b 8abf 0981 84bf f56c 233d
00000090: 1ded 9d3f 14cc 07c0 db14 64bf 580c d43f
000000a0: 8126 8b3e 0d7a 943e 6527 4abf 66f5 d4be
000000b0: 5a13 2abf c97d 6f3e 83ea 4a3f 52a7 583f
000000c0: 72fa e1bf e936 2c40 6d77 493d 49cb 5cbd
000000d0: f208 f5bd 6880 2fbe 307d 0b3f 6be4 a13e
000000e0: 1db9 613f 9e54 693c 348b 1abf f2ba b83d
000000f0: 7294 5a40 c57f 0a3f 6fa1 e23f 1f0e c3bd
-0.48168766 0.05771337 0.5314022 0.15055667 -0.54376113 -0.0539777 0.0004340807 -0.41806474
0.19971357 -0.008546718 0.8101098 1.1349422 0.91511106 0.07518579 3.6287982 -0.059461348
-1.9867901 -0.6779392 0.92325443 -0.10621734 -0.5936397 0.36111802 0.5829215 0.6605128
-0.2687139 -2.35219 1.7871642 -3.035443 -0.15062873 -0.21670593 -0.13480927 0.18367791
0.020436585 -1.0818828 -1.0351878 0.03989883 1.2337986 -2.121831 -0.8909432 1.6566267
0.27177814 0.28999367 -0.7896636 -0.41593474 -0.6643578 0.23387827 0.79264086 0.8463031
-1.7654555 2.6908514 0.04918616 -0.053904805 -0.11964597 -0.17138827 0.54487896 0.31619582
0.88173085 0.014241366 -0.6036866 0.09020032 3.4153104 0.5410121 1.7705516 -0.09524178

critic.0.weight f4 [1, 64]
00000000: eeef 9e3c 44af afbd 565b a03d a945 f63d
00000010: c43a ec3d 6e14 9fbb 2fe1 17bd 4dae c43a
00000020: 4650 ebbd b8e8 da3d cbc3 94bb 33fe b03e
00000030: 5ac2 dd3b 29b1 b03d 4ee8 cf3e b507 bb3d
00000040: f197 d7bd 87c7 a33d 4347 8a3d 6982 593d
00000050: 8067 b7bd d102 823c 32ae 69bd 1d75 2e3c
00000060: 5bfb 1abd d12b 28be 28f5 693e 0320 81be
00000070: c394 edbd 2c69 32bd eb6d 9abc 2c90 fb3d
00000080: 05a7 4e3d 8861 5f3d d15a 9cbd 774e 91bd
00000090: 657b 2e3e ba68 21be c03c 73be 91ba 0b3f
000000a0: da16 d53d 72a2 053c da0c 963a 367a 18be
000000b0: 05a2 b83d 76d5 b93d e051 a03e 82de ebbc
000000c0: 4f71 9abc 92ef d53d 0f2b 34be 88d3 0d3d
000000d0: 1b31 10be b6ad dcbc c4e6 ffbc b164 86bd
000000e0: a1ed 2cbd 91e6 22bd 2b95 2cbd 108c 8dbd
000000f0: ae75 d83e 76f8 883e 2db2 893d 7f19 81be
0.019401517 -0.08578351 0.07829921 0.12025005 0.11534646 -0.0048547303 -0.037079986 0.0015005559
-0.1148992 0.10688919 -0.004539942 0.3456894 0.0067675533 0.086275406 0.40606922 0.091323294
-0.105270274 0.07997041 0.06751873 0.053102884 -0.08955288 0.015870484 -0.05705089 0.010648039
-0.037837368 -0.16422965 0.22847426 -0.25219736 -0.1160064 -0.04355733 -0.018851241 0.12283358
0.05045225 0.054536372 -0.07634509 -0.07095044 0.17039259 -0.15762606 -0.23753643 0.5458155
0.10404749 0.008156406 0.0011447922 -0.1489037 0.09015278 0.090739176 0.31312466 -0.028792623
-0.018852858 0.10446085 -0.1759455 0.03462556 -0.14081232 -0.0269383 -0.031237967 -0.06562174
-0.042218808 -0.039770667 -0.042134445 -0.069114804 0.42277282 0.2675206 0.067234375 -0.25214764

critic.1.weight f4 [1, 64]
00000000: 8f87 0cbd 5a14 073b d810 62bd 633f fdbb
00000010: a78a 19bc 3ceb a4bc 6f74 9ebb 590d 52bd
00000020: 8934 103d 6457 503d 71a0 4e3c b47a 2f3e
00000030: 7fbd cabc 175d 943c e0a2 243f 1000 f83b
00000040: 736f 1ebf 3308 9fbc 3bea 063d cc8b 0cbc
00000050: e1cc 073d 592c 2a3c d376 973c a9fa 883d
00000060: 79fd 5c3d d7c8 a6bb dcc2 0e3f befc 03bf
00000070: d0e5 8e3d 18f7 853c 1b76 cbbb 29bb 773c
00000080: 8aed 39b9 2fd1 86bd 33e3 1cbd cc17 c6bc
00000090: d691 fe3c 780c a6bc 5133 84bd 659d ae3c
000000a0: 49c5 11bd 76a6 333d 9049 42bd 74c5 d2bc
000000b0: b423 94bd 9b4c 2abc 1717 3ebd d4f1 79bc
000000c0: a8ce b23c 1976 053e 597a 0ebc 1469 08bd
000000d0: d36a 4f3c 3f7a a63c 6322 593d a2d3 9e3c
000000e0: b6fe 1fbc 49d6 143d eade 02bc 9889 0cbc
000000f0: 593a fb3e 6a7a 8abb 5a26 843c a6c2 acbc
-0.034308966 0.0020611496 -0.055191845 -0.0077285036 -0.009371436 -0.0201317 -0.0048356573 -0.05128226
0.03520635 0.050864592 0.012611494 0.17136651 -0.024748562 0.018110795 0.6431103 0.007568367
-0.6188881 -0.01941309 0.032938223 -0.008578252 0.033154372 0.01038655 0.018489277 0.06688435
0.053952668 -0.00508986 0.5576608 -0.5155753 0.06977427 0.016353175 -0.0062091476 0.015120306
-0.00017731465 -0.06582867 -0.03830261 -0.02418127 0.0310754 -0.020269617 -0.064551 0.021315286
-0.035588536 0.04385992 -0.047433436 -0.025728919 -0.07233372 -0.010394241 -0.04640874 -0.01525541
0.021827057 0.13033332 -0.008696162 -0.033303335 0.012659746 0.020321963 0.05301131 0.019388024
-0.009765318 0.03633717 -0.007987717 -0.008577727 0.49067953 -0.0042260187 0.016131569 -0.02108891

critic.2.weight f4 [1, 64]
00000000: 669d f03d 2c59 eebc 9a6a 07bb 9c9e 993c
00000010: b529 f4bc ceb0 c13c ebfd b9bb c6ca 2bbc
00000020: 6e40 a1bc 5eb5 4cbd 6b12 bc3c 1a0a be3e
00000030: 0237 653c f298 813d 8fa4 c73e dc8f 183c
00000040: 0731 09bc 998c fdbb 4f9d 3a3d f645 50bd
00000050: 3ee7 f6bd f43e e3bb e386 21bc 8da3 0f3c
00000060: e1c4 8abc 1fd5 0ebd d4b0 ef3b 7b05 d1be
00000070: 676c 93bc cfd2 cfbb 9b75 4f3d 8561 7e3c
00000080: d8ab f13d 22bb 0b3d ba3b 963b 0b2b cdbb
00000090: 7d97 50bc 55af 0dbe e429 83bb 2856 a7bc
000000a0: 872d 25bc 5989 8f3b 6952 5d3c 213f 98bc
000000b0: d1b2 773b 484f 01bb e817 0ebd 6ab3 e83c
000000c0: 7cf3 d6be 1d2d c83e b6a1 c73c 3741 5e3b
000000d0: cc2b 89bd e96c a83b 072a 08bc a140 ccbc
000000e0: d8df 1e3d b3c1 f13c 5e2d e03c 3d55 ee3b
000000f0: b98e d53e 8b12 6f3d ca70 de3d a372 6cbb
0.11748771 -0.029095255 -0.0020662905 0.018752389 -0.029805044 0.023643877 -0.0056760213 -0.010485357
-0.019684043 -0.049977653 0.022958001 0.37117082 0.013990166 0.06328 0.38992736 0.0093116425
-0.008373505 -0.007737708 0.045560177 -0.05084797 -0.12055825 -0.006934995 -0.00985882 0.008767021
-0.016939582 -0.034871217 0.0073147807 -0.40824494 -0.017996026 -0.006342269 0.050649267 0.01552618
0.11800355 0.03411401 0.0045847567 -0.0062612346 -0.01273143 -0.13836415 -0.0040027965 -0.020426825
-0.010081655 0.004380387 0.013508418 -0.01858479 0.0037795792 -0.0019731093 -0.034690768 0.028405864
-0.4198264 0.3909692 0.024369102 0.0033913383 -0.06697807 0.005139936 -0.008310801 -0.024933161
0.038787693 0.029511308 0.027365383 0.007273345 0.4171045 0.058367293 0.108613566 -0.003607907

critic.3.weight f4 [1, 64]
00000000: 6573 e7bc a9b7 6a3e 928f 753e cfe0 5cbd
00000010: dae0 723d a9b6 83be d46f 203d ec1a 953d
00000020: 848f 133e 3c40 dabd 00bb dd3d ef76 bebb
00000030: 3104 76be 6ab7 0ebe 1fd2 ab3b e265 a6bd
00000040: 6251 52be af07 7ebe 80b6 a03d cd93 e83c
00000050: bebe 23be 6089 66bd 0fcc 93bd 6f33 bbbd
00000060: 2db2 a83d 0448 95be c208 fe3b 4bde 0fbf
00000070: b7d9 4dbe 67a7 57be 599a f03d f9eb c33d
00000080: 7057 90bd 00de 67bd cb66 69bd a9f0 ef3c
00000090: 0495 1cbe 344f 1b3e 6164 63be 5fd0 8d3d
000000a0: 8237 e6bd c3df 943d f089 5bbd 2b6e 563d
000000b0: 6882 9ebd 0da3 84bd 9020 e93e a2ab 163c
000000c0: 22c3 80be 28c9 1c3e 57e8 ab3d 5d91 dcbd
000000d0: a8c2 663e aa25 fa3d adb1 853e 9913 7f3e
000000e0: 2906 763d 076c 2dbd 3e4e 103e 73d0 183e
000000f0: 3755 1d3f 5fae 053e b4cd ce3e bc36 cebc
-0.028253267 0.22921623 0.23980549 -0.05392533 0.059296466 -0.25725296 0.039169148 0.072805256
0.14410216 -0.10656783 0.10826683 -0.005812518 -0.24025036 -0.13937154 0.0052435542 -0.08124901
-0.20538858 -0.24807619 0.07847309 0.02839079 -0.15990731 -0.056283355 -0.072166555 -0.091406696
0.08237109 -0.29156506 0.007752509 -0.5619857 -0.20102583 -0.21059953 0.117481895 0.095664926
-0.070479274 -0.0566082 -0.056982797 0.02928956 -0.1529122 0.15166932 -0.2220626 0.06924509
-0.11241056 0.07269242 -0.053598344 0.052351158 -0.07739717 -0.06476412 0.45532656 0.009196194
-0.25148875 0.1531111 0.08393925 -0.10769913 0.22535193 0.12214215 0.26112118 0.2490982
0.06006447 -0.04233935 0.14092347 0.14923267 0.6145815 0.13054799 0.40391314 -0.025172584

critic.4.weight f4 [1, 64]
00000000: 682c 3bbe 5206 0bbd 2966 c63d 2130 3e3d
00000010: 1202 04be 8e7c 87be c8d1 8f3d 4eff 393c
00000020: c14a 693d 4c2f 23be c7cd c43e 1738 ee3c
00000030: 762b a43d c348 5e3e befb b73e ab8b 32bc
00000040: f7a6 b5be 5981 3ebe 35af df3d 9a75 293e
00000050: f680 893d 8b6b 2d3d 8659 063e 1cad 093e
00000060: 6611 2fbd fc27 8b3d 9bc9 b63d 7aa5 b1be
00000070: 62e4 52be 2ec9 b3bc e55b 1b3e e6d3 a73b
00000080: 970b 17bb afee e1bd e643 2fbe f35f 8a3d
00000090: 86d5 293d 135e 39be 8a18 3bbd b3e2 153e
000000a0: 41b9 b4bd f085 94bd 62f5 9ebd 3b57 363b
000000b0: d2b6 3dbe 0c0c 9d3d 82bf acbd 18aa 893e
000000c0: d943 05bf 1700 1a3f a1f6 d3bd a776 223e
000000d0: 80f6 d93d ba50 a1bd 2dcd ab3e 9ce4 2c3d
000000e0: 07e8 a93d 209f 15be a6c4 013e 76b7 963d
000000f0: ef10 1c3f 8f0b aa3d 1c59 ab3e 78d1 e43d
-0.18278658 -0.033941574 0.09687454 0.046432618 -0.12891415 -0.26462215 0.070224345 0.011352373
0.056956057 -0.15936011 0.38438246 0.02907948 0.08016102 0.21707444 0.35934252 -0.010897557
-0.35478947 -0.1860403 0.1092209 0.16548768 0.067140505 0.04233889 0.13120088 0.13444942
-0.0427412 0.06794736 0.08925172 -0.3469656 -0.20594934 -0.021946516 0.15171774 0.005121696
-0.002304768 -0.110318534 -0.17115745 0.06756582 0.041463397 -0.18102293 -0.0456777 0.1463726
-0.08824397 -0.07252109 -0.07761647 0.002782299 -0.18526772 0.076683134 -0.08434965 0.26887584
-0.5205665 0.6015639 -0.10349775 0.15865575 0.10642719 -0.078767255 0.33554974 0.042210206
0.08296209 -0.14611483 0.12672672 0.07359211 0.6096334 0.08302986 0.33466423 0.111727655

critic.5.weight f4 [1, 64]
00000000: 133c 373c 4528 29bc 8783 0ebd 970e 463d
00000010: 2f0a 1bbd 8550 c6bc 7831 41bc f0c7 b8bc
00000020: f59d 81bc f0f1 583d 76ee 7f3b 8166 19bc
00000030: 5240 133d a93e f43c 741a bc3e e6bb 5dbd
00000040: 835f 8abd 600f 353c 8709 9d3b f561 1dbd
00000050: 4fef 35bd 6003 083c 5262 243d d344 5abb
00000060: 8ae0 51bc 6bbb aebe 4c21 70bb 3344 66be
00000070: 74e5 b33c 295d 1abd a773 243d 2ae0 8f3c
00000080: f9f3 e93c b094 08bc 6a52 8c3c ac8a 063c
00000090: e24f 5dbd 8588 efbe 0b97 45ba a144 343d
000000a0: a382 04bc 00af ae3c dd2d bdbb 26dd 423b
000000b0: 07bb 1bbc 1ceb e7bc 5f5b a6bc d3d0 4e3c
000000c0: 1f2e 4ebd 16a4 c53e 3bad 0e3d be25 24bc
000000d0: f147 ab3b 9714 aa3b dfc3 e83c 7143 e0bc
000000e0: eb58 6c3d b96f 17bd ce4e cb3b 156f 4f3c
000000f0: c76e 593e fc8f c13c e67e ce3b e3c9 ef3c
0.011183756 -0.010324542 -0.034793403 0.048353758 -0.03785151 -0.024208317 -0.011791579 -0.022556275
-0.01582239 0.052965105 0.0039052046 -0.009362818 0.035950013 0.029815035 0.36738932 -0.054134272
-0.06756499 0.011051029 0.0047923955 -0.038423497 -0.044417676 0.008301586 0.040132828 -0.0033305183
-0.012809882 -0.34127364 -0.003664094 -0.22486953 0.021959998 -0.0376865 0.040149357 0.017562944
0.028558718 -0.008336231 0.017129142 0.008211773 -0.05403126 -0.46783844 -0.0007537461 0.044010762
-0.008087787 0.02132368 -0.0057732896 0.0029733866 -0.00950504 -0.028310351 -0.020307241 0.01262303
-0.050336953 0.3860175 0.034833174 -0.010018764 0.005227082 0.005190443 0.028413711 -0.027375909
0.057701986 -0.03697178 0.0062044626 0.012660761 0.21233664 0.023628227 0.0063017486 0.029271072

dist.0.linear.weight f4 [7, 64]
00000000: 8529 393e dc9a 19be aced 5e3e ec48 80bc
00000010: 2d87 6ebe 3c98 113e 140a 7b3e abe4 b03e
00000020: c49f 63be 6c94 c43e 5e0f 9fbd 3ca4 d3bd
00000030: 04ac 1b3e eb7c dd3d dc80 36bd cfd0 67be
00000040: d4eb e3bd 2d8c 413d aa48 a2be fa40 1e3e
00000050: f6ea 553e ee71 433c c210 813e 305c 3a3e
00000060: 0073 a73e 0854 e4bd d187 b0be ec44 bc3d
00000070: 34e3 d3bc 8823 b7bd 2631 b23e a79d 7fbe
00000080: d107 303e d5ee a53e 38a8 52bb 0e3f 60be
00000090: ba2c f83d a678 8ebd 3eb4 52be 8b65 7cbd
000000a0: fe75 623e 728a 2b3e 1139 b63d 17f7 32be
000000b0: 1193 ad3c 5a8a fdbc 116a 6d3d a925 2fbe
000000c0: 7a91 993e ec49 65be 24db a93e dfa7 3b3e
000000d0: bc15 633e 6f7c ce3d 1ffb 88bd 0d9e e9bd
000000e0: eea9 57be 0917 8d3e 2483 5b3e fedd 89be
000000f0: 5101 bd3d fd8c 5a3e 6d1e 283b 8e16 d3bd
00000100: 8d64 fa3d 1fb2 4e3d 0e81 953e ba3d 33be
00000110: 4ae2 8b3c 2888 c63c 2d88 d8bd 28ab 8fbe
00000120: dd6f 1cbe 002f a6be 3139 06bd 3194 633e
00000130: 7b48 903d c7ab b43e ec0d b33d 351d a83e
00000140: 3eeb 11be ddbc 773e 7e2b 1a3e 82d5 02be
00000150: 9a76 bfbd b08b bbbd 25af 6abe 953d f33c
00000160: 0734 79be 7b53 1dbe 107d 783d 7492 66be
00000170: 786c cdbc 708b 7fbe 83e4 38be f7f2 cd3e
00000180: d38b 17bd 31ca 44be 0bcf ae3e 8a80 92be
00000190: e88e 66be 2344 983a d0f0 d13e 36ca d73d
000001a0: bb29 a1bd 8574 9dbe 047a 123d 47fc dc3c
000001b0: 5606 013e 9df9 303e 4ee2 84bd 9e8b d2be
000001c0: fe29 bebe 7ad8 f23c 8064 30be 6929 acbe
000001d0: 4d46 05be 78db 88bd 071d f93d df45 c8bc
000001e0: da02 e3bc a6b8 94bc 180c 78bd 4ad3 e63e
000001f0: 1c80 0fbd 8515 bd3d ace8 513e e5e1 4e3e
00000200: 95c5 68be 136b 0d3e 9bd8 fabd a3a2 273e
00000210: e048 103e 7816 1cbd 4e3c 26be e8c0 67be
00000220: b937 403e c230 133d ae43 0c3e c4bf fd3e
00000230: 9cf1 16be 33da 53be 2a89 0e3f 24ef 23bd
00000240: b3dd 703c 2302 47be 27cd 423e 73e5 08be
00000250: 4025 88be 1fca 7c3e 4bfd 4e3c c7c3 483e
00000260: 09ed 29be 7d8c 8abe 8260 263f 33fa e9be
00000270: ec84 0ebf 0d83 723d b84a 80be 68f5 e93a
00000280: 6b5f 32bd 3b9b 8bbe 11de 96be 88eb 8c3e
00000290: fbbd e13e aa2c 06bf 7775 0abf 347f 073f
000002a0: 3e40 c5bd cc6c b33a baef 0abe 4d0a 78bd
000002b0: 50fc 56be a7e4 fbbc e3bc 093f 91dc b33e
000002c0: 33d9 063e 4cbb b43e 7ec5 02bf 562b ba3e
000002d0: da72 bbbd 1a4e c2be b6c9 7abe 902d c23d
000002e0: a08f 0d3e d73e cebd 28bb 66be f682 b6be
000002f0: caa9 283f 3c79 3abe 1b6d fe3b 32cc d9bd
00000300: 0aab c8bd 4a34 1a3c 3335 07be 0edc b9bc
00000310: 0138 7e3d b84e d03d bf15 04bd cee6 703d
00000320: 707e be3d 4ad8 b4bd 6e4b db3d e256 4f3d
00000330: e227 c43c 1078 8fbe 34c0 8e3d df60 4bbd
00000340: c41c 453c 737f eabd def4 5a3e 77ae fe3c
00000350: e121 1fbe 80f8 e43d 1489 0a3e ba2a 41be
00000360: 26f6 8fbe 30f8 3b3d 6ad3 323e b669 69bd
00000370: 01cf 2dbc a3e4 a53d 7a23 403c ef3e f4bd
00000380: 42c2 023d b59b a23d 2ad4 57bd dbb0 093e
00000390: c38e 2bbd d808 cabd 14cf c6bc 2a72 433d
000003a0: 9a06 44be a883 cf3d cca2 6dbd 0518 84bd
000003b0: 804c 5fbd 5e42 84be 8785 adbc fee3 633e
000003c0: 3878 9ebd aa44 0a3e 9ac6 1fbe cab0 d63c
000003d0: 1e91 0a3e dd43 8abe 883d 093d 9bad fa3c
000003e0: ce97 76bd 0b92 c53d 8b52 bebd 335c 7dbd
000003f0: 3f50 2f3c 418f a33d e450 67be d054 1bbd
0.18082245 -0.1500048 0.21770352 -0.015659772 -0.23293753 0.14218229 0.24515563 0.3454946
-0.22228914 0.38394487 -0.07766603 -0.103340596 0.15202338 0.10814842 -0.044556484 -0.22638248
-0.11128965 0.047252823 -0.31696063 0.15454474 0.20890412 0.011929018 0.25208098 0.18199229
0.32704926 -0.1114884 -0.3447862 0.09192833 -0.025865175 -0.08942324 0.34803122 -0.24962483
0.17190482 0.32408777 -0.0032143723 -0.21899053 0.12117906 -0.069566056 -0.2057657 -0.061620276
0.22115323 0.16752031 0.08897603 -0.1747707 0.02118829 -0.03094976 0.05796248 -0.1710421
0.29993802 -0.2239148 0.33175004 0.18325756 0.2217626 0.100823276 -0.066885225 -0.11407099
-0.21060917 0.27556637 0.21436745 -0.2692718 0.09228767 0.21342845 0.00256529 -0.10307036
0.1222621 0.05046284 0.29200023 -0.17504016 0.017075676 0.024234846 -0.105728485 -0.2806027
-0.15277047 -0.32457733 -0.032769386 0.222245 0.070450746 0.35287306 0.0874289 0.32834783
-0.14249894 0.2419314 0.15055653 -0.1277676 -0.09348793 -0.09157503 -0.22918375 0.02969245
-0.24336253 -0.15363877 0.060666144 -0.22516805 -0.025076136 -0.24955535 -0.1805592 0.4022443
-0.03699858 -0.19217755 0.34142336 -0.28613693 -0.22515452 0.0011616986 0.41004038 0.105366156
-0.078692876 -0.3075296 0.035760894 0.026975764 0.12600073 0.1728272 -0.06488477 -0.41122144
-0.37141412 0.02964424 -0.17225838 -0.33625343 -0.13015099 -0.06682485 0.1216374 -0.02444738
-0.02771132 -0.018154453 -0.06055841 0.45083076 -0.035034284 0.0923262 0.20498914 0.2020336
-0.22731622 0.13810377 -0.122483455 0.16370635 0.140903 -0.038107365 -0.16233942 -0.22632182
0.18771257 0.03593517 0.13697693 0.49560368 -0.14740604 -0.20688705 0.55678046 -0.040022984
0.014701295 -0.19434409 0.19023572 -0.13368778 -0.2659092 0.24686478 0.012633632 0.19605933
-0.16594328 -0.2706031 0.6499101 -0.456987 -0.5567157 0.05920701 -0.25057006 0.0017849626
-0.04354803 -0.2726687 -0.29466298 0.27523446 0.44090256 -0.524119 -0.5408549 0.5292847
-0.09631394 0.001368904 -0.13568011 -0.0605567 -0.20994687 -0.030748678 0.53803843 0.35129216
0.13168792 0.35299146 -0.510826 0.36361188 -0.091527656 -0.37950212 -0.24491009 0.094813466
0.1382432 -0.100705795 -0.22532332 -0.3564679 0.6588408 -0.1821031 0.007764471 -0.1063465
-0.09798248 0.009411881 -0.13203888 -0.022687938 0.06206513 0.101712644 -0.0322473 0.058813863
0.0930146 -0.08830316 0.107077464 0.050619967 0.023944799 -0.28021288 0.069702536 -0.04965293
0.012030784 -0.1145009 0.21382472 0.03108905 -0.15540268 0.1118021 0.13528854 -0.18863955
-0.28117484 0.045890987 0.1746346 -0.05698558 -0.010608436 0.081002496 0.011727208 -0.11926066
0.03192354 0.07939855 -0.05269257 0.13446371 -0.041884195 -0.09864968 -0.024268664 0.047716297
-0.19143143 0.10132533 -0.058016583 -0.06449894 -0.054516315 -0.25831884 -0.021181835 0.22254941
-0.07737774 0.13502756 -0.15603104 0.026207346 0.1353192 -0.270049 0.033505946 0.03060036
-0.060203366 0.09646996 -0.092930876 -0.061855506 0.0107002845 0.07986308 -0.22589451 -0.03792268

dist.0.linear.bias f4 [7]
00000000: ca42 803c d323 ea3d 671b 183f ab9a 273c
00000010: 9bc3 49bc 508d 4bbd 61ad 8dbd
0.015656848 0.11432614 0.5941681 0.010229747 -0.012314702 -0.049695313 -0.06917835

dist.1.linear.weight f4 [7, 64]
00000000: a9ca 743d 93e6 94be 45c8 953c e029 b03e
00000010: 198c 123e f0c4 ecbe 3cf8 c63e 4417 a1be
00000020: fe62 80bd 805d 583e a899 563e d402 843e
00000030: e8c8 1abe 13f7 fc3d 602a fb3d 633d 703e
00000040: 8a09 f93d 778d 6f3e 5e1d 333e 5b2a 4bbe
00000050: 405b 9bbc 0a89 203e 2153 fdbe fa52 74be
00000060: 9d29 873d e1ff 6f3e 38a4 803e 7233 2ebe
00000070: b53e 493e f437 f1be e978 c5be 6c8b 553d
00000080: 2e44 c13e 3902 91be 8c51 c8be 8683 9b3d
00000090: 63df e1be a136 c0be 5f32 793c c754 02be
000000a0: 5d46 253e 4e8e 023e 070f 923e 6e7a 113f
000000b0: 9e9e 2fbe 1397 023e 9d90 b83b 0048 c8be
000000c0: 49c0 8bbd d31a 4d3e 1335 10be 322b 763d
000000d0: ed67 dbbe 34f5 3f3e 02cd b63c c588 14be
000000e0: f3c8 1cbf caeb 56bf b189 d83e 89e1 8e3d
000000f0: 8d48 583e 156b 94be 8b6a afbd dd6d 1d3f
00000100: 01e9 823e 06b8 e2bc 8c2b ccbe 87bb 92be
00000110: 526b c7bd fce2 b7be dabc 543e 19c3 bdbe
00000120: 29f3 4a3e 5a8b ddbe 81c2 193d 1f40 e73d
00000130: 8987 a53e a3be 0bbf ca9c 173e 2abd 25bf
00000140: 2c04 903d 4cf1 30bd 4b35 89be ca9a 3d3e
00000150: 0405 c83c c5ea 833e e0df a23e 3fb9 f8bd
00000160: 9fea 2c3e c04e 98bd e888 cb3d 98e4 b43c
00000170: 757e 97bd 9d98 f33e ff47 44be 4cff 9c3e
00000180: cdac a1be 1fe1 76be 8220 93bd 9cbe 22be
00000190: e82f b13e 7b99 163d 493f 56be 7abc de3d
000001a0: 784f c93e c9bc 57bd 4909 41be 1b84 be3e
000001b0: 5d24 48be 9433 e9be 9b9b 5e3e 64c1 7b3e
000001c0: ec1e 39bd e82b 0bbe 37d4 013c 53d5 a03e
000001d0: 6739 f93d e968 f8bc 743a fbbd 6463 cdbe
000001e0: cef2 b13e 5784 5d3d a130 dc3e 8f67 6ebe
000001f0: 67f5 d03d 43f1 a1bd 3a2f 89be 218e 04be
00000200: 8823 62be 3176 1d3f dfba c13e 9ca3 e4bb
00000210: eabc 573e 9333 233f bf25 00bf e965 023e
00000220: 8e75 6ebd f0d3 14be 4b38 0fbe f478 733e
00000230: c238 fdbd b6d8 8b3e c8eb fe3d 41eb f43e
00000240: 3f25 a1be 4c51 12be f1be c3bd 28fe 18be
00000250: 4076 09be 4e7a e2bd 0a65 9dbe a9f3 f93e
00000260: ac28 48be 597f aabe 933d 683e c154 8dbe
00000270: 4f77 b4be 1021 b3ba 824a 073e 1da2 763e
00000280: 850d dbbe ec65 df3c 46d4 953e 6060 a4be
00000290: c835 9e3d 73d6 b0be 986a afbd 1f12 3f3e
000002a0: 54aa 88be 0b5c 473d a2f5 8fbe 2acb 8bbe
000002b0: 4b28 ed3d c8ad a63e f01a d73d 4636 083e
000002c0: b649 52be 216f 1d3e a7ad 95be ded8 c7be
000002d0: b042 373e b782 cb3d bc24 38bd 6379 853e
000002e0: 44f5 d73d b5c6 983e 7068 b3be 0371 d33e
000002f0: ca19 fb3d cf49 d2bd 3db7 903e cec8 ad3e
00000300: f1a4 003e 803a 01bf b62e 0d3e 34f6 853e
00000310: 1994 cf3d 6a94 683e 92ae 79be 2df4 863e
00000320: eb8a fcbd c34a 733e 107f 643e 3169 27be
00000330: cbd1 3ebe c744 f73d d3df 183e 63e4 1dbe
00000340: 1402 79bd 5284 41be 5dd0 ae3d 3c00 333e
00000350: 3dd3 dbbd c68b 9cbc e4ab b63e d108 f0be
00000360: 9715 8a3d 3acb 543c 1d00 ef3c 25fa de3c
00000370: 1c50 b13e 2fb6 eabd 7fe9 bf3d 7a89 8ebe
00000380: 237a 443c a57c 6b3e ea25 4ebe 300b b03e
00000390: 94d4 ab3c 6ac1 063f 564b b03d 26bf f4bd
000003a0: 10d4 5fbd 004e 983c c743 efbd b752 03bf
000003b0: 6315 513d 2095 143e 9c3f d93c f75c 203e
000003c0: 0c51 043e 3c7c e43c 0bc3 b23d 6d17 20be
000003d0: 4ebc 1a3e e8b0 f3bd 6189 333e 807d 3c3d
000003e0: c7c8 a93e 3203 853d 2a16 aabe be05 f4bd
000003f0: 0dd0 d0bd 3da0 a43e 2552 ec3d e31f f6be
0.059763584 -0.29082164 0.018283973 0.34406948 0.14311256 -0.46244 0.38861263 -0.31463063
-0.06268881 0.21129417 0.20957053 0.25783408 -0.15115702 0.12351813 0.12263942 0.23460917
0.121600226 0.23393808 0.17491671 -0.19840376 -0.01896441 0.15677276 -0.49477485 -0.23859778
0.06599734 0.23437454 0.2512529 -0.17011812 0.19652827 -0.47113 -0.3856881 0.052134916
0.3774733 -0.28322008 -0.39124715 0.075934455 -0.44115743 -0.3754168 0.015209763 -0.12727652
0.16140123 0.12749597 0.2852709 0.5682744 -0.17150351 0.12752943 0.0056324736 -0.39117432
-0.06823785 0.20029764 -0.14082746 0.060099788 -0.42852727 0.18745881 0.022314552 -0.14505298
-0.61244124 -0.83953536 0.4229255 0.06976611 0.21121426 -0.28987947 -0.08565243 0.61495763
0.25568393 -0.02767564 -0.39876974 -0.28658697 -0.097372666 -0.35915363 0.20775166 -0.3706291
0.1981932 -0.4327038 0.03753901 0.11291527 0.32329968 -0.54587764 0.14805904 -0.64741766
0.07032046 -0.04319887 -0.26798472 0.18516079 0.024416454 0.25765052 0.31811428 -0.12144708
0.16886376 -0.07436895 0.09938222 0.022081658 -0.07397167 0.47577372 -0.1916809 0.30663526
-0.3157715 -0.24109314 -0.07183935 -0.15893024 0.34606862 0.036767464 -0.20922579 0.10875793
0.39318442 -0.052670274 -0.18851198 0.37210163 -0.19545121 -0.45547163 0.21739046 0.24585491
-0.045195505 -0.13590968 0.007924131 0.31412753 0.12169152 -0.030323463 -0.122670084 -0.40114892
0.34755558 0.054081287 0.4300585 -0.23281692 0.10203057 -0.07907345 -0.26793844 -0.12944843
-0.22083867 0.6150847 0.37837884 -0.0069775116 0.21068159 0.6375057 -0.50057596 0.12734188
-0.058217578 -0.14533973 -0.13986318 0.23776609 -0.12364341 0.27313775 0.124473155 0.47835734
-0.3147373 -0.14288825 -0.095579036 -0.14940703 -0.13424015 -0.11058484 -0.3074115 0.4881871
-0.19546765 -0.33300284 0.22679739 -0.27603725 -0.35247275 -0.001366647 0.13212016 0.24085279
-0.42783752 0.02727028 0.29263514 -0.32104778 0.07725102 -0.34538612 -0.08565253 0.18659256
-0.2669245 0.048671763 -0.2811709 -0.2730344 0.11579951 0.3255446 0.10503185 0.13301954
-0.20535931 0.15374424 -0.2923405 -0.39032644 0.17896533 0.09937041 -0.044956908 0.26069173
0.105448276 0.298391 -0.35040617 0.4129716 0.12260778 -0.10267984 0.282648 0.33942264
0.1256292 -0.5047989 0.1378735 0.261644 0.10135669 0.22712865 -0.24383 0.26358166
-0.12331184 0.23758988 0.22314095 -0.16348721 -0.18634717 0.12073665 0.14929132 -0.15419154
-0.060792997 -0.18898132 0.08535836 0.17480558 -0.1073365 -0.019109618 0.35678017 -0.46881726
0.06742399 0.012987906 0.029174859 0.027218888 0.3463143 -0.1146053 0.09370708 -0.2783926
0.01199201 0.22996767 -0.2013165 0.34383535 0.020975389 0.52638876 0.08608119 -0.11950521
-0.054645598 0.01859188 -0.116828494 -0.5129809 0.051045787 0.14510012 0.02651959 0.15660463
0.12921542 0.02789127 0.08728608 -0.15633936 0.15110895 -0.118989766 0.17532875 0.046018124
0.33160993 0.0649475 -0.33220035 -0.11915158 -0.101959325 0.32153502 0.11539105 -0.48071203

dist.1.linear.bias f4 [7]
00000000: c22c 433e a36a 073e 9767 8d3d 8ebd fe3d
00000010: e2c9 9cbd 9510 37be fd11 05bd
0.19060043 0.13224272 0.06904524 0.124384984 -0.076556936 -0.1787742 -0.032487858

dist.2.linear.weight f4 [7, 64]
00000000: dd0c 133d 62c5 91be b50c 503e c27f b43e
00000010: 45b5 f43d 854e 55be 3643 833e aca5 04be
00000020: 536d 3cbe 5501 e73e c4b1 b73e 9281 733d
00000030: bd61 90be 7f46 253e 27b6 3e3d 0e86 76bd
00000040: 4110 23bd 0a7d 353e 3821 e0bd 5325 9f3e
00000050: 9f65 3d3e 2f17 f73e 8e8b 85be 51ad b6be
00000060: e19a 53bd 61b7 b23e 4bf0 183c c0ce fcbc
00000070: 12a9 903e 75cf e53c ccc8 8fbc ba5d a0be
00000080: d41a a43e a646 a5bd 87cc 9abe 8036 923e
00000090: ce75 a8be 5544 563e 4690 cd3e cb06 e6be
000000a0: 75e8 073e 27bd 333e eb21 b13e b1af 5bbe
000000b0: 3153 f3bd 89f5 9dbd e2a2 c6bd 3d65 4ebe
000000c0: 122c 62bc a570 5e3c 3c51 c43e e721 f73c
000000d0: 020c 80bd 8dc7 283e 0b1b aa3e da4d a13d
000000e0: c37a 64be 0779 2abe f008 893e 1e77 3b3e
000000f0: 15ff 253d 0e3b e2bd 344e 4a3b fd89 8fbe
00000100: 18d1 24bc ed89 613e c8d7 1bbe bb83 43be
00000110: 470f 49be 7406 febd cc17 42bb ecd4 adbe
00000120: edf0 c43e af89 80be 0c15 ad3e 9f37 013e
00000130: 2dab 773e c49b 90be 10d8 2c3e fd09 8fbe
00000140: 1d76 443e 4350 3bbe 1f51 71bb 76e3 96bd
00000150: bd23 8fbe 9628 863e a916 8e3e 4922 003d
00000160: f20d b93e 2b95 24be 4484 ebbc c8df babd
00000170: 8911 9abe efde c73e 2f87 2fbe 70de c43e
00000180: b606 1c3c 4b35 a8be 7eb9 f8be 1198 dabd
00000190: 8463 903e 8be6 90bd 3ba3 af3d bab7 c63e
000001a0: cabb 033f 1b5a 723e c87d 9cbe 8745 0f3f
000001b0: 081b 243d 3229 b7be 880f 90bd 285a c23d
000001c0: ddbf 5dbe 6287 803e 8485 663e 3f64 9b3e
000001d0: d0b2 8d3d 127d 9fbe f14c 96be 092b 9cbe
000001e0: b633 8b3e 9b7f c6be d336 9bbc 81c5 0ebe
000001f0: 9777 1f3e dcfd abbe b820 853e 9ad3 44be
00000200: 9ff7 47bb 5ea7 5c3d 2bc2 4a3c 8b7e bbbd
00000210: c50c a63d ac63 9d3e 2fe0 4cbe 8ca6 943e
00000220: d180 92be ba59 05be 9627 e9be b94c 3c3e
00000230: ac54 1c3e a4fe a93c 1a19 423e eaae ae3e
00000240: c895 7cbe 3d1e c93b 767f 3c3e c707 cdbe
00000250: 8639 e2bd 98b9 02bf 8c3a 0b3e 7147 d73e
00000260: bc1d a5be 3bc8 d3be a721 863e f6ce 6abe
00000270: 9b4a eabc 6526 9bbe 06bd 2b3e 3470 aa3d
00000280: 33a9 69be 5f19 923e 38ea 2a3f 90a5 0abe
00000290: ee8a 803e 3ffb d4be 5fe5 ccbe 7c94 823e
000002a0: 5564 0dbf 79b4 edbd 5d00 2bbe 6d8f e1be
000002b0: ab18 09be 337c af3e 1b53 e53e ef09 943e
000002c0: d390 10be c9b8 223e 2094 fabe 6491 aebe
000002d0: fa64 cebc 621e d6bd a2d0 183e eb8c 863e
000002e0: 6bb4 d3bc 0b53 143f 9011 41be 3990 88bd
000002f0: 0ba9 573e e08b 8c3e 8aa3 9d3d 8d50 ad3e
00000300: e434 92bd 7b3f 1d3d 3888 60bd 1a42 04be
00000310: 796b c8bd b268 643e c62b a1bd 10a2 4d3e
00000320: eb88 febb 35c5 b1bc af6d 5f3d b1c3 8abd
00000330: 15bc 72bd f8b4 d53c fae4 83bd ab8d f03c
00000340: a3b1 593d 6c1d 0ebc 18ee 9c3c 6959 ddbd
00000350: 35a0 673e d6e6 99bd eeb2 303d 6c9f 43be
00000360: 0c1f 17be 55a5 14bd 3147 0f3d 9605 1f3d
00000370: ee6a 3b3d 7076 81bd b790 62bc 0eef 8bbd
00000380: 1186 ca3c 612c b7bd fed7 40bc bd48 e3bd
00000390: 3667 b5bc d5ca babd 2656 9bbe 1ecc 01be
000003a0: 12f5 c0bd 27dd 82bd 0311 a9bd 40e9 aebd
000003b0: 2978 10bd 98db 9b3d 05a7 bb3b 4068 3abd
000003c0: bfb3 8e3c 1fbb 09bd d00f 82bd 811a aa3c
000003d0: 3651 593e 1694 9e3e a145 04bd e87c 0e3e
000003e0: f60c 83bc 2f23 cfbd 54d3 7ebb 2ccc 42bd
000003f0: 636e 0cbd 8b57 c03d 1784 32be 91cf f33d
0.03590094 -0.28470904 0.20317347 0.3525372 0.11948637 -0.20830734 0.25637215 -0.12953824
-0.18401079 0.45118204 0.35877812 0.05944974 -0.28199568 0.16140173 0.046560433 -0.06018644
-0.039810423 0.1772348 -0.10943836 0.31083164 0.18495797 0.48259875 -0.26083034 -0.35679105
-0.051661376 0.34905532 0.009334634 -0.030860305 0.2825399 0.028053025 -0.017551802 -0.31321508
0.32051718 -0.08070116 -0.30234167 0.28557205 -0.32902378 0.20924504 0.40149134 -0.44927058
0.13272269 0.17552625 0.3459619 -0.2145374 -0.11881102 -0.07712848 -0.09699036 -0.20155807
-0.0138044525 0.013576661 0.38343227 0.030167533 -0.0625229 0.16482373 0.33223757 0.07876177
-0.22312455 -0.16647731 0.2676463 0.18307158 0.04052647 -0.1104642 0.0030869367 -0.28034964
-0.010059617 0.22025271 -0.15219033 -0.1909322 -0.19634734 -0.124035746 -0.0029616235 -0.3395151
0.38465062 -0.25105044 0.3380512 0.12618874 0.24186392 -0.2824384 0.16879296 -0.27937308
0.19185682 -0.18292336 -0.0036822034 -0.073676035 -0.27956954 0.2620284 0.27751663 0.031282697
0.36143452 -0.16072528 -0.028749593 -0.09124714 -0.30091503 0.39037272 -0.17141412 0.38450956
0.009523084 -0.3285316 -0.4857902 -0.106735356 0.28200924 -0.070752226 0.085760556 0.38812047
0.5145842 0.23667185 -0.30564713 0.55965465 0.04006484 -0.35773617 -0.07034212 0.09489852
-0.21655221 0.2510329 0.2251187 0.3034992 0.069188714 -0.3115011 -0.29355577 -0.30501583
0.2718789 -0.3876923 -0.01894704 -0.1394253 0.15572964 -0.33592117 0.26001525 -0.19221345
-0.0030512584 0.05387055 0.012375395 -0.091549955 0.08107904 0.30740106 -0.20007394 0.29033315
-0.28613904 -0.13022509 -0.45538014 0.18388642 0.15266675 0.020751305 0.18954888 0.34117824
-0.24666512 0.006137638 0.18407997 -0.40044996 -0.11046128 -0.51064444 0.13596553 0.42046693
-0.32249248 -0.413637 0.2619755 -0.22930512 -0.028600028 -0.3030273 0.16771325 0.08322182
-0.2281845 0.28534982 0.6676364 -0.1353972 0.25105995 -0.41597936 -0.40018746 0.2550391
-0.5523122 -0.11606688 -0.16699357 -0.44054738 -0.13388316 0.34274444 0.44789967 0.2891383
-0.14117746 0.15890802 -0.48941135 -0.340953 -0.025194634 -0.10455014 0.14923337 0.26279387
-0.025842866 0.57939214 -0.18854356 -0.06668133 0.21060579 0.27450466 0.07697208 0.33850518
-0.07138994 0.038390618 -0.05481741 -0.1291584 -0.09786124 0.22305563 -0.07869677 0.20081353
-0.0077677867 -0.021700481 0.05454796 -0.067756064 -0.0592614 0.02608727 -0.06440158 0.029364428
0.053147923 -0.008674007 0.0191565 -0.10808069 0.22619708 -0.075147316 0.04313939 -0.19103783
-0.14757937 -0.036290485 0.034980003 0.038823687 0.045756273 -0.06321418 -0.013828448 -0.068327054
0.024722131 -0.089440115 -0.011770247 -0.11097858 -0.022143941 -0.091207184 -0.30339164 -0.12675521
-0.094217435 -0.06389838 -0.08255198 -0.08540583 -0.035270844 0.076102436 0.0057266974 -0.045509577
0.017419694 -0.03362572 -0.06350672 0.020764591 0.21222386 0.30972356 -0.032292966 0.13914835
-0.015997391 -0.101141326 -0.0038883286 -0.047557995 -0.03428496 0.093916975 -0.17433201 0.119048245

dist.2.linear.bias f4 [7]
00000000: e4d3 113d 9e38 363e 4a37 3f3e 5707 75bd
00000010: 2d49 6abd cf95 07be 7e2c e6bd
0.035602465 0.17795035 0.18673435 -0.059821453 -0.057198692 -0.13240741 -0.11238955

dist.3.linear.weight f4 [7, 64]
00000000: 995d 453e 5fd3 cb3d c577 71bc 6342 ccbd
00000010: 641a 09be ea7a a1be 63f5 d5be 662e f1bd
00000020: 2e56 513e 5403 803e c101 b13e 63d4 ecbd
00000030: 1f0a 3b3e 59b9 b4be 58b4 273e 02ad 34bf
00000040: 009a 8c3b 1274 d23d 2fc7 c33e e44c 7dbe
00000050: 2ed6 5fbe 19d5 cabe 5beb 42bd ee28 eabe
00000060: 85bd 933e 0f64 0b3f 1e77 a6be 8dfc 8bbd
00000070: 6b87 c9be b0dd 5c3d 7420 acbd 3efa c03d
00000080: 9a65 8a3e 6b25 14be ce2d 10bf 868f 093f
00000090: b505 60be d03f 34bd 8343 51bc 4403 1d3f
000000a0: 53ca cf3a 2676 e2be 5e08 d13e 6fc5 cfbd
000000b0: 1f78 92be 0e51 0fbf 9798 4b3e 4fe7 9f3d
000000c0: ad28 be3e 6c72 04be ca9a 7abe 485d d7be
000000d0: 2b68 f13e 55fb e53d 12ad 40be a987 703b
000000e0: ce99 45be b186 f5be e1d8 413d a053 cb3e
000000f0: 448d 833c 216a 593d 8bd7 5bbd 823c 8a3e
00000100: 9bbc 07be 1171 5a3e 7c1c 2f3e f802 b6be
00000110: 5192 ecbe d8f9 cbbd 5ca8 973b 320c 373e
00000120: 0995 e93e 2af9 1fbe 342f d93e 91ca 8c3e
00000130: 1e91 c33d 5a89 ab3d 1622 d9bd 9c3a f43e
00000140: 134d 35be f82c b2be 9b71 b93d 7a52 13bf
00000150: 3def c33e a74d 68be a8d5 c63e 37c8 993e
00000160: beef fabe 1d6f 3b3d 90bf bd3e 997d 29be
00000170: 065b 8bbe 8799 f939 1272 babc 15b3 6cbe
00000180: 0c41 cc3d 5d6e acbe 430c 3e3f 0fbc 2a3e
00000190: 4b9b 7f3e 725b b63e e635 69bd 1b00 e2bb
000001a0: d92c 943e 5feb 3fbe ba71 74be d753 27be
000001b0: 34dc af3e 317c 303e f128 b3bc 26d2 1dbe
000001c0: 108b 42be 08ad b8bb dfeb 9abe 81de ec3e
000001d0: 66ff a4bd 66d7 1cbf c096 ca3d 808a f6bd
000001e0: fdf6 f03e 00a7 1c3e 04f1 3dbb 0435 0c3e
000001f0: 4467 173e 0ede 8bbe 3944 fb3d 0a5b 1abf
00000200: 1883 04be 2c6e 87bd 7d02 66bd fd4e a43e
00000210: 3f02 f63e 9c93 953e 64c4 683e 0ee6 d5bd
00000220: 8d71 16bf 4b71 a2be 259b f7be 464f 313e
00000230: 5658 48be e708 773e 56b1 7f3e 0b8a 81bc
00000240: ceee c1bd 9fa8 963c 1a84 37be fb25 173f
00000250: edff 17bf 9f93 d23e 06b4 d0be 4223 5d3e
00000260: fb17 733e ca96 26bf 9a07 6b3e 7d03 a7be
00000270: 3ecc c93e a9b3 48be 7530 903e d737 ba3e
00000280: bf6b 83be cae1 a03e b8b2 f1be 7ca0 01bf
00000290: ce2b 77bc e613 07bf ceba aebc 7e28 3abe
000002a0: 955d c4be 5d24 0d3f 393a e5be 1eba 983e
000002b0: c851 9fbe e4fc 293e 3291 cf3e acab df3e
000002c0: 299a ebbe ed6b f93e ac32 e03e c588 7fbe
000002d0: e6ac 49bd 00b1 b03e b87a 7e3e 3b60 c13e
000002e0: f439 04be 0874 683b c643 c33c 3933 3ebe
000002f0: 7663 b83e dd9a 983e 8870 f13e ba27 eb3e
00000300: 166c 5bbd 52ae 81be 92c1 a63d d9d3 6b3e
00000310: 6a85 243e 2ddb b6bd 6f34 2d3d 3bff 9e3e
00000320: 42c4 19be 1824 a13d c593 f0bd dbef c4be
00000330: 2f5b 0fbe e343 9e3d bc08 6dbd 4dfe dc3d
00000340: aa57 343d 2d05 b13d 3e75 ca3d ec0e b43d
00000350: 0e02 5ebd a2f2 d0bc 241e b9be 8189 a6bd
00000360: c6f5 0abb 7fc0 163e 1a7e 88bd fccd 293e
00000370: 0025 cabd a523 d03b e3fd 52bd f37f 20bd
00000380: a864 e7bd 259d 1d3e dc43 b7bc 8060 16be
00000390: 6007 0fbe 9edb 2b3c fb1d 4f3e 7750 51be
000003a0: 7773 16be c3dc ddbd 66a6 923e ba89 96bd
000003b0: e47b 21bd d618 0b3d 76c4 15be bc3d 99bd
000003c0: 6da6 be3d 61de ecbc 3914 36be 3cc7 12be
000003d0: 1fed 9fbc e92b 41bd cf51 223d ca33 a33b
000003e0: a215 9fbd 6fe3 13be 9c5c 873d ce4f c2bb
000003f0: d433 b3bd 6242 53bd 9eba 5bbe 1b79 9c3d
0.19273986 0.09952425 -0.014738028 -0.099736 -0.13388973 -0.31539088 -0.41788778 -0.11776428
0.20443031 0.2500254 0.3457165 -0.11563947 0.1826558 -0.3529766 0.1637739 -0.7057649
0.004290819 0.10276045 0.38237903 -0.24736363 -0.21859047 -0.39615706 -0.047587734 -0.45734352
0.2885553 0.5444955 -0.32512754 -0.068352796 -0.39361128 0.053922355 -0.084046274 0.0942273
0.2703064 -0.14467399 -0.5631989 0.53734624 -0.21877177 -0.04400617 -0.012772444 0.6133311
0.0015853144 -0.44230765 0.40826696 -0.10145079 -0.2860727 -0.55983055 0.19882427 0.078077905
0.37140408 -0.12934273 -0.2447311 -0.42063355 0.47149786 0.112295784 -0.18816021 0.0036701954
-0.19296953 -0.47954324 0.047325972 0.39712238 0.016058572 0.053079728 -0.053672355 0.2699929
-0.13255541 0.21332194 0.1710071 -0.3554914 -0.4620538 -0.09959763 0.0046282243 0.17875746
0.45621517 -0.15622392 0.42418826 0.27498296 0.09549163 0.08375807 -0.106022045 0.47700965
-0.17705183 -0.34799933 0.09054872 -0.57547724 0.38268462 -0.22685872 0.38834882 0.30035564
-0.49011034 0.045760263 0.37060213 -0.16551818 -0.27217883 0.00047607368 -0.022759471 -0.2311519
0.09973344 -0.3367795 0.7423746 0.16673301 0.24961583 0.35616642 -0.056936167 -0.006896985
0.28940466 -0.1874213 -0.23871508 -0.16340576 0.3434769 0.17234875 -0.021870108 -0.15412197
-0.1899836 -0.0056358613 -0.3025808 0.46263507 -0.08056526 -0.6126617 0.098920345 -0.120381355
0.47063437 0.1529808 -0.0028982768 0.13692099 0.14785486 -0.27317852 0.12268872 -0.60295165
-0.12940633 -0.066128105 -0.056154717 0.32091513 0.4804859 0.2921418 0.22731167 -0.1044427
-0.58767015 -0.3172706 -0.48360553 0.17315397 -0.19564947 0.2412449 0.24969992 -0.015812894
-0.094693765 0.018390952 -0.17921486 0.5904233 -0.59374887 0.4112825 -0.40762347 0.21595481
0.23739617 -0.65073836 0.22952119 -0.3261985 0.39413637 -0.19599785 0.2816197 0.36370727
-0.2566814 0.31422263 -0.47206664 -0.50635505 -0.015086127 -0.5276474 -0.02132931 -0.18179509
-0.38352647 0.5513361 -0.44770983 0.29829496 -0.31117082 0.16600376 0.40540463 0.43685663
-0.46016052 0.48715153 0.4378866 -0.24954517 -0.049237154 0.3451004 0.24851501 0.3776873
-0.12912732 0.003546955 0.023836028 -0.18574227 0.36013383 0.2980565 0.47156167 0.45928746
-0.053569876 -0.25328308 0.08142389 0.23030032 0.16066518 -0.08928523 0.042286333 0.310541
-0.15016273 0.078682125 -0.11746935 -0.38464245 -0.13999628 0.07727792 -0.057869658 0.107906915
0.044028915 0.08643565 0.098856434 0.087919086 -0.05420118 -0.025506321 -0.36155808 -0.081316955
-0.0021203621 0.14721869 -0.06664677 0.16582483 -0.098703384 0.0063519054 -0.051511656 -0.039184522
-0.112984955 0.15391977 -0.022371225 -0.1468525 -0.13967657 0.010489373 0.2022628 -0.20440851
-0.14692484 -0.108331226 0.28642577 -0.07350488 -0.039424792 0.033959232 -0.14625725 -0.07482478
0.09309087 -0.028914632 -0.17781152 -0.14333814 -0.019522248 -0.047161017 0.0396288 0.004980539
-0.07767798 -0.14442228 0.06609461 -0.0059299236 -0.0875012 -0.05157698 -0.21457908 0.076402865
