BLIP/RL/trained_models/ppo/2023-01-22_minigrid_5e5_lavagap-doorkey-emptyrand-redbluedoor-wallgap_ewc_2_lamb_5000.0_task_0.pth (torch, 735517 bytes, 19 tensors)

features.actor.0.weight f4 [64, 2739]
00000000: bc94 c63b fce4 8bbc 2b95 2fbd f39c 9b3c
00000010: fdb6 6cbd bc22 8b3c 77a6 4abc 49d9 dbbb
00000020: b3d3 1e3d 1d03 213d 03b4 39be a176 0f3b
00000030: 5575 763e ee37 203c 5886 b23c 964e 2e3e
00000040: 2dcb ad3d 1118 50bd 9403 253e 7493 be3d
00000050: 2847 8cbc bf98 3ebb 1abc 70bd 9430 9cbc
00000060: 5216 a7b9 a74f 333d 21a8 dcbc e667 32bd
00000070: 1468 9dbd 4e02 643d eb8a 53bc d9f1 103d
00000080: db62 7d3c eaa1 47bc 9436 023e 57ee 813c
00000090: dc36 9abd 3284 933d 2999 d93c 2a81 e0bc
000000a0: 56d7 403d a420 0c3b b80a e1bb 01ec 8f3c
000000b0: d017 d5bc e62d c03c 2749 193d 14fe 20bb
000000c0: c2d9 afbd 1271 e4bd 9e19 56bd 8f39 4dbc
000000d0: 53ef 6e3d 363e 983c 9ada 7fbe 4b17 0abd
000000e0: 30d3 cd3c 37f1 023e 6faf a23d bb4b 5d3c
000000f0: b3f4 a93e cdbc 3fbd d621 303d a5bf 8f3c
00000100: 65fc 193d 4605 1fbb 432f 613d e167 a3bc
00000110: 803e a7bc e43e d5bd e4be b6bd e723 51bc
00000120: 22ec 58bd 10b9 c43d 02e5 37bd 864b d8be
00000130: ac75 1bbe a1f1 143b bbaf c93d 801c 093e
00000140: c16a 95bc f127 03bd 8c9f 9e3b b23b bd3c
00000150: 2a98 c8bc 2673 223a 4468 743c cef2 6d3b
00000160: f115 363d 564b 50bd 045c d3bd 1631 59bd
00000170: 390f dd3c bf31 9e3e 265b 613d c6fa ad38
00000180: 26cd f73d 9ad4 12be 0abb 583d 2ee4 b3bd
00000190: f786 a63d bac8 c439 cc3b 9cbe b3d2 b33d
000001a0: 3b5a 88bc 9ac5 583d e0c5 3a3c c653 ddbc
000001b0: 9774 0b3d c31d d93c 77ab 7fbc 9f62 99bd
000001c0: 701b afbd 7dc2 c9bc 797a 3ebe 5038 4bbd
000001d0: 09c3 393d 0228 58be 1034 c7be b560 413c
000001e0: 81e7 453e 120a 163e 40e7 f43c 4334 1f3e
000001f0: 2a83 033e 2b1c af3c 102b 513d c564 bebc
00000200: 430f 933c b0f9 ccbc 1312 ebba 09ad 99bb
00000210: e2a9 3cbc 70fd a13c 0a37 193a f840 52bd
00000220: a5b2 f23d f7b4 55bc 4536 2fbe b738 51be
00000230: 67ab 7a3d bdf2 c73d 04f4 c93d cc14 b3ba
00000240: 2da4 b33d 1cdf 393d d488 133d 9b8e 6cbd
00000250: e3d6 73bd c2e9 043c faeb 8b3d 8eaf 1f3d
00000260: 6769 26bc 4321 2a3c e719 4dba 37e5 4e3d
00000270: 2bfa 8fbb ec82 febb 3dfb 323c 25fb fabc
00000280: c524 993c 4d5e 41bd c408 803a 3fcf 5c3a
00000290: 0014 10bc 303c 003d d2db 99bc 8c8f 5fbb
000002a0: d0fb 9fbc 6cd2 ff3c 73fc 983c 45b9 303b
000002b0: bdad 12bc 3e7d bc3b a43f 793c 2582 313d
000002c0: f3fc edbb 3c24 113c fddd 8c3c fc21 4ebc
000002d0: da8b 163d 70c4 3a3a e060 debc 003b e53c
000002e0: 9868 543d 17e2 3d3b 87df 54bc ca7c b3bb
000002f0: f470 bf3c 2cb0 313b b1f1 cb3c 04ad 05bd
00000300: ceba 013d ad65 8ebc 06b7 4d3d 6980 9fbd
00000310: 0c88 32bc 304f 873b 64fc 513c cbe3 82bb
00000320: c2ef 94bc d7ec 093c be10 303d 07c9 ea3c
00000330: d09c caba 96d7 523d 34dc 78bc 09d4 c0bc
00000340: 58fc 753b d34f 88bd 0301 8a3c fae1 67bb
00000350: 2076 46bc 9aeb c2bb 36b0 de3c d99e b3bd
00000360: 82b6 3a3d b17e 723d 334e 0abd 9345 9bbc
00000370: 5d3f 01bd 5993 39bc f119 983c 8cb7 e4bb
00000380: ace2 0e3d 1bbb eebc 4ff4 b3bc 62f9 adbc
00000390: ee02 38bd ab61 24bd 9fa5 7b3c a409 ce3c
000003a0: ec09 b13c 340a 37ba a7bb 263d a235 2abd
000003b0: 5b31 cdbd 7bcd 32bc ff72 14bd 324c 703d
000003c0: 4d2d 05bc ebb3 8b3c c3dc 16bc 32b1 d9ba
000003d0: 6ca5 e5bc 6334 e3bb b1a6 22bd da6c 4fbc
000003e0: e343 6e3c 41a4 513d fced c33c d7d1 033c
000003f0: 1f43 df3c 5f1c 54bd b627 1ebd fa96 d7bb
0.006060211 -0.017076962 -0.042866867 0.018995738 -0.0577917 0.016984336 -0.01236879 -0.006709252
0.03877611 0.03930961 -0.18135075 0.0021890777 0.24068196 0.00977896 0.021792576 0.17022166
0.08486018 -0.0508042 0.16114646 0.09305468 -0.017123774 -0.0029082743 -0.058773138 -0.019066133
-0.00031869352 0.043777134 -0.026935639 -0.043556117 -0.07685867 0.05566626 -0.012911539 0.035386894
0.0154654635 -0.012184599 0.12716132 0.01586072 -0.07529995 0.07202949 0.02656229 -0.02740534
0.04708036 0.002138176 -0.006867733 0.01756859 -0.026012331 0.023459386 0.03742328 -0.0024565505
-0.08586456 -0.11154379 -0.052270524 -0.01252593 0.058333706 0.018584352 -0.24985734 -0.03371362
0.025125116 0.12787329 0.079436176 0.013506825 0.33194503 -0.046810914 0.04300102 0.017547438
0.037594218 -0.0024264618 0.054976713 -0.019946994 -0.020415545 -0.10412386 -0.08923128 -0.012764907
-0.05295957 0.0960561 -0.044896133 -0.4224512 -0.15181607 0.002272703 0.09847971 0.13389778
-0.01823938 -0.032020513 0.004840797 0.023099754 -0.02448662 0.0006196968 0.014917437 0.0036308053
0.04445452 -0.050853096 -0.10320285 -0.053025328 0.026984798 0.30897328 0.055018567 8.295993e-05
0.12099676 -0.14338914 0.05291275 -0.08783756 0.08131211 0.00037533586 -0.3051437 0.08780422
-0.016644588 0.052922823 0.011399716 -0.027017485 0.034046736 0.02650345 -0.015604845 -0.074895136
-0.08550155 -0.024628872 -0.18601407 -0.04961425 0.045352016 -0.21109012 -0.38906908 0.011802842
0.19326593 0.14652279 0.029895425 0.1554728 0.12843004 0.021375736 0.05106646 -0.02324141
0.017951613 -0.025021404 -0.0017934464 -0.004689817 -0.011515113 0.019774169 0.0005844688 -0.05133149
0.1185048 -0.013043634 -0.17110546 -0.20431791 0.06119862 0.097630955 0.098609954 -0.0013662814
0.087715484 0.04537879 0.03601916 -0.057753187 -0.059531104 0.008112373 0.06832118 0.03898578
-0.010156966 0.010383907 -0.0007823989 0.050511565 -0.004393836 -0.007767072 0.010924158 -0.030637333
0.01869429 -0.047209073 0.0009768237 0.0008423216 -0.008793831 0.0313074 -0.018781576 -0.003411266
-0.019529253 0.031228267 0.018675065 0.0026965898 -0.008952555 0.0057522347 0.015212927 0.043337006
-0.00726282 0.008858737 0.017195696 -0.012581345 0.036754467 0.00071246084 -0.027145803 0.027982235
0.05185756 0.0028973871 -0.012992746 -0.0054775225 0.02336929 0.0027113063 0.02489552 -0.032635704
0.03167229 -0.017382467 0.050223373 -0.07788164 -0.010896694 0.004129313 0.012816522 -0.00399444
-0.018180732 0.008418283 0.042984717 0.02866031 -0.0015458111 0.05147513 -0.015189219 -0.023538606
0.0037534442 -0.0665585 0.016846186 -0.0035382495 -0.012113124 -0.005948496 0.027183633 -0.08770532
0.04558421 0.059202854 -0.033765983 -0.018954074 -0.03155457 -0.011326634 0.018567057 -0.0069798883
0.03488414 -0.029141953 -0.021967081 -0.021237079 -0.04492467 -0.040132206 0.015359311 0.025151081
0.021611176 -0.00069824164 0.040706303 -0.041555054 -0.100191794 -0.010913248 -0.03624248 0.058666416
-0.008128476 0.017053565 -0.009207907 -0.0016608594 -0.02803298 -0.006933735 -0.03970975 -0.01266023
0.014542553 0.051182035 0.02391719 0.008045635 0.027253686 -0.05178487 -0.03861209 -0.006579277

features.actor.0.bias f4 [64]
00000000: 604a 83bd c296 84be 15d6 b9be 1035 b13c
00000010: b4e0 d13d a309 05be 5648 8cbe be23 d73e
00000020: 289e 4bbe b1b6 debe dc46 2c3e 8c64 773e
00000030: 4e58 c4bc 3542 34be 976b 343e fd17 b5be
00000040: 7b73 943d d61c 903d ee75 25bd 16cb 7d3d
00000050: e38d 703e 8c1d 413d add9 a53e f597 33bf
00000060: d6a9 8bbe 798f b43e 1348 e1bd 7ab5 d9bd
00000070: b3dd 6ebe d0ac 6c3e ecfb 0e3e 53bc 963e
00000080: b32c b73e 3627 ff3e f370 99bd 9094 4fbd
00000090: 817b 173d 51b1 033d bd4e 42be 4cb4 fb3e
000000a0: 977b f83e b754 31be 09cf debe 0dfe 823d
000000b0: 0ae8 e73d e3c6 28bf c00d 5cbe f858 13bc
000000c0: 1406 9e3e b82c cc3d 7103 943e 9e8a 02bf
000000d0: 49a1 1abe 1acf fa3e 9ae9 f83e 3ca1 7e3e
000000e0: 4264 a53e bd03 773e b557 f3bd f80b 9bbe
000000f0: 5b31 df3c e00e 103e adad 2abf 689d b63d
-0.0641067 -0.2589627 -0.36296144 0.021631747 0.10247937 -0.12991957 -0.27398938 0.42019457
-0.1988455 -0.43498757 0.16823906 0.2415945 -0.023967888 -0.17603381 0.17619167 -0.35369864
0.07248589 0.0703675 -0.04039567 0.061961256 0.23491625 0.04714732 0.32392636 -0.70153743
-0.27278012 0.3526571 -0.11000075 -0.10630317 -0.23326759 0.23112798 0.13963288 0.29440555
0.3577629 0.49834603 -0.074922465 -0.05067879 0.036983017 0.032151524 -0.18975349 0.49160993
0.48531792 -0.17317472 -0.4351733 0.063961126 0.11323555 -0.6592848 -0.2148962 -0.00899338
0.30864012 0.09969467 0.28908876 -0.50992763 -0.15100588 0.4898613 0.48615724 0.24866194
0.32303053 0.2412252 -0.11881963 -0.3028257 0.027245214 0.14068174 -0.6667126 0.089167416

features.actor.2.weight f4 [64, 64]
00000000: 8eaf c43d e154 09be 5e9e 903d d70a 233d
00000010: db6a 8d3e 415e aabc 2c3a cbbd 4e64 b53e
00000020: 2a9c f1bd 5fa6 82be 6a71 e33d 7a33 2c3f
00000030: 5560 3c3d 0105 c7bd bf25 b63d 2102 32bf
00000040: ca54 00bf 900c 8d3e c931 023e b558 d2bd
00000050: e28e 803e 4926 703c 3df4 ad3d 7d1d 26be
00000060: 856a 52bc 9728 26bd d06e 86be 154f 84be
00000070: 7da4 913e 4416 5cbe 5a6e 203d 3b3a 103e
00000080: ccc0 653c d6e6 3fbe 0ac0 eabd 719e a6bd
00000090: 3f23 de3e 2931 5cbe 39eb bdbe 3920 31bd
000000a0: 4a1e 243c 13cc 503e 9a67 f9bd b3b8 e33d
000000b0: 500d 9a3e 5e21 f6bc db29 013d a3da 87bd
000000c0: 9ec7 e93d 5385 c63c 9cd4 743e a6b6 10bf
000000d0: 8732 013e 0496 bfbd ce23 b4be 3924 1abd
000000e0: e973 56be f77f 98bd 34ae a3be fad7 76be
000000f0: a25d d23d fac5 b13d 98ac 49bd fd3e 383e
00000100: f46f 0dbd 34ea a43c f423 9dbe 0540 1abe
00000110: e222 cdbe dc15 00bd 823b 8ebe 38fa 993e
00000120: ab46 48bd b669 8cbe a9e5 48be 5867 9f3d
00000130: 6db8 aa3d 0424 7abe 4c53 0e3c eee3 a7be
00000140: 9000 5dbe 24ab 383e d8f2 e4be 91e1 593e
00000150: 115f 1dbb 2020 9c3d 8f69 05be 6b56 85be
00000160: 8b70 e83d 7f8b 16be 225c 7ebd 2293 0a3f
00000170: 724d dfbe 06f5 1cbd caef bc3c 3388 bebd
00000180: 5d7f 4f3e 9701 863e 1164 97be 3e33 16be
00000190: b6f6 3d3d 220f 60be b201 49be 408d 89bc
000001a0: 4acf 353e 63c2 233e ebd3 82be 9641 40be
000001b0: 419e 5b3e 8e31 87be c1c0 e7bd 4e9f 32be
000001c0: 2fc7 a93e dca3 91be 117b c73e 0a24 5ebe
000001d0: 15cf fc3a 9668 cbbc b66c 793e 5f40 283f
000001e0: 2a84 473e fa9e 7d3d 8092 39be 5cc5 9d3d
000001f0: 09c2 4abd 85c5 1ebe 49ea 30be 6951 e1bd
00000200: 5948 44be 7ac2 023f eacf 8abe 3167 843e
00000210: a554 993e 9a52 3dbe 69f4 65be 219a 89bd
00000220: d467 5b3e 9adc 183e 3ac2 e1bc 3f17 e03e
00000230: 0fb8 aabe 09b0 11be f673 e53e 86f8 90bd
00000240: 8679 e83d e45a 8e3e 2260 c33d 2d6f 173d
00000250: cd5a 9f3e 5d82 2a3e 4f36 0e3e 42c4 963a
00000260: 2678 2b3d 2177 83be 668a 5abe 2c83 c8be
00000270: f3ed 99be 141f b53e 98e8 21be c7d0 8c3d
00000280: ac53 cdbd 12ea 403e 0adf 813c 0886 343d
00000290: 5fa8 c3bb f872 2dbe 2eaf 1e3d 3f6c aebe
000002a0: fe29 573d d734 06bd c4f7 bbbd 2d3a 043f
000002b0: 4895 30be 2039 07be df51 1ebf 28f5 a23d
000002c0: 8007 173e af8b 53be 467d 123f 4c1b 0fbf
000002d0: 996b 88bd 4d13 a13c 8970 c63d ee56 0cbe
000002e0: 3b93 4cbe e47e 64be 2168 8ebb 60ca 3a3d
000002f0: e497 86be 8ee3 893e b1d5 febe 2bf3 ce3d
00000300: ed79 cbbd 319c 193e dcd0 fabe eb79 253e
00000310: b2dd 233c af37 6e3e 8009 b3be 415d 47be
00000320: 3ebb 7dbe 5823 fc3d d3d6 0f3e 2dd0 5fbe
00000330: 7b0c 4a3e 4d45 81bd 327d ad3d d2d1 1c3e
00000340: 352a f5bd 5012 803e c249 b63e 0c57 663e
00000350: d104 b8be 8759 1bbe 28f8 743e 216d 313f
00000360: 534a 84be 342f 8dbe 589d dabe 6519 d03c
00000370: d237 fc3d 509a 31be af29 fd3c 9c1d 50be
00000380: c179 fabe 3142 9a3e fbbd fdbd 906a 983d
00000390: fea2 8abe 7322 033d 1dd1 ac3d becd e73d
000003a0: a1c4 a63c 54c3 2fbd a3d0 e7bc d89f cbbc
000003b0: a5d1 aabc c98d 533e 4daa 563d c536 cdbe
000003c0: eef6 943e aae6 3dbd 3cbb a4be 2f20 d9be
000003d0: 6663 483e 1e28 4d3f fbad 94be 7315 953d
000003e0: 7b48 a43e a97a 89bd 26ed e0bd 272d ac3d
000003f0: fd42 a5bd bc90 f13d 6049 453d 8f08 283e
0.09603797 -0.13411285 0.07061456 0.03980526 0.27620587 -0.020796897 -0.09923205 0.3542809
-0.11797364 -0.25517556 0.111056164 0.67266047 0.045990307 -0.09717751 0.08893918 -0.695345
-0.5012938 0.27548647 0.12714304 -0.10270826 0.2510901 0.014657565 0.084938504 -0.16222186
-0.012842779 -0.040566053 -0.26256418 -0.25841585 0.28445807 -0.21492869 0.03916774 0.14084713
0.014023017 -0.187404 -0.1146241 -0.08135689 0.43386266 -0.21503128 -0.37093523 -0.04324362
0.010016987 0.20390348 -0.121779636 0.11119213 0.30088282 -0.030045208 0.031534057 -0.066334985
0.11415027 0.024233496 0.23909229 -0.565287 0.12616931 -0.09354785 -0.35183567 -0.0376322
-0.20942654 -0.07446282 -0.31968844 -0.24105826 0.10271765 0.08680339 -0.049236864 0.17992778
-0.034530595 0.020131208 -0.30691493 -0.15063484 -0.40065676 -0.031270847 -0.27779776 0.30073714
-0.04889552 -0.274244 -0.19618858 0.07783383 0.08335958 -0.24427801 0.008686852 -0.32791084
-0.21582246 0.18034035 -0.44716525 0.21277453 -0.0024012963 0.07623315 -0.13028549 -0.26042494
0.11349591 -0.14701651 -0.062099583 0.54130757 -0.43613774 -0.03831961 0.02306356 -0.09303322
0.20263429 0.26173088 -0.29568532 -0.14667985 0.04637786 -0.21880773 -0.19629553 -0.016790986
0.17754856 0.15992121 -0.25552306 -0.18775019 0.21447088 -0.26404995 -0.11316062 -0.17443582
0.33159778 -0.28445327 0.3896108 -0.21693435 0.001928779 -0.024830144 0.24357876 0.6572322
0.1948401 0.06191919 -0.18122292 0.07703659 -0.049501453 -0.15505035 -0.17276873 -0.11001856
-0.19168223 0.51078 -0.2711175 0.2585998 0.2994739 -0.18488541 -0.22456516 -0.06718851
0.21426326 0.14927903 -0.027558435 0.43767735 -0.3334355 -0.14227308 0.44815034 -0.07078652
0.11351304 0.2780372 0.0953982 0.03697126 0.31123963 0.16651292 0.13887905 0.0011502581
0.04186263 -0.25676826 -0.21341857 -0.39162576 -0.30064353 0.35375273 -0.15811384 0.068757586
-0.10025725 0.1883929 0.015853424 0.044073135 -0.005970999 -0.16938388 0.038741283 -0.3406696
0.05253028 -0.032765236 -0.09178117 0.5165127 -0.17244446 -0.13205385 -0.61843675 0.07956916
0.14748955 -0.20658754 0.572224 -0.55901027 -0.066611476 0.019662524 0.09689433 -0.13705036
-0.19978039 -0.2231403 -0.004345909 0.045603156 -0.26287758 0.26931423 -0.4977241 0.10104974
-0.09935365 0.15000989 -0.48987472 0.1615979 0.010001587 0.23263429 -0.34968185 -0.19469167
-0.24778458 0.12311429 0.14046793 -0.21856757 0.19731323 -0.06312046 0.08471145 0.15314415
-0.11970941 0.2501397 0.35603148 0.22494143 -0.35941175 -0.1517087 0.23922789 0.6930714
-0.25837955 -0.27575076 -0.4269817 0.025402734 0.123153344 -0.17344022 0.030903665 -0.20323795
-0.48921016 0.30128625 -0.123897515 0.074422 -0.27077478 0.032015275 0.08438323 0.11318539
0.020357432 -0.04291089 -0.028297728 -0.024856493 -0.02085192 0.20659555 0.052408505 -0.40080848
0.29094642 -0.046362557 -0.32174098 -0.42407367 0.19569167 0.8013934 -0.29038987 0.07279482
0.32086548 -0.06712849 -0.109827325 0.084070496 -0.080694176 0.11795184 0.04816568 0.16409515

features.actor.2.bias f4 [64]
00000000: 7fc5 ba3e 8a87 173f 74c9 4ebe 8fae 903e
00000010: f03d 3e3f a0c8 d63e dc8e f8be e4b3 00bf
00000020: 883d 943e 42fc cfbe e5aa 8a3d 6d9f 093f
00000030: 4033 2abf 0416 5ebe 92fb 07bf 4b10 0b3f
00000040: 3f62 103f fc47 a9be 5d32 063f 03dc 5fbe
00000050: 9390 6ebe 8138 173f 20cb db3e 1045 92be
00000060: a154 c93e a216 6c3f b8ee 80bc 7260 f9be
00000070: 8f08 8a3e 59a6 74be 4c4e a0be 584f bfbe
00000080: 3150 99be d277 693d 6adc af3e 9a49 e7be
00000090: 0a74 ebbd 378e 8c3e 7e72 15bf f11b ce3e
000000a0: 9286 c6be f946 e3be 619f 793e 2485 ca3e
000000b0: a32b 62be f420 a93e a6de 94be 63e0 103f
000000c0: b87a f2be 009f b7bd dddb 0e3f 0517 dabe
000000d0: 17dc 63be 95cd 27bf 9d7c 87be 8211 b83d
000000e0: e04c bf3e f485 cb3e 27ec 35be d658 dc3e
000000f0: a568 ad3e 2f29 82bd 5026 0b3e 4ce1 c23e
0.36478803 0.5919119 -0.20194036 0.28258178 0.7431326 0.4194994 -0.48546493 -0.5027449
0.28953195 -0.40622145 0.06770877 0.5375889 -0.6648445 -0.21688086 -0.5311824 0.54321736
0.5639991 -0.33062732 0.524206 -0.21861272 -0.23297338 0.59070593 0.4292841 -0.28568316
0.3932238 0.92222035 -0.01573883 -0.48706394 0.26959655 -0.23891582 -0.31309736 -0.37365222
-0.29943994 0.056999035 0.3434785 -0.4517334 -0.11496742 0.2745225 -0.58377826 0.40255693
-0.38774544 -0.44390085 0.24377204 0.39554703 -0.22086959 0.33032954 -0.29076117 0.56592387
-0.47359252 -0.08965874 0.55804235 -0.42595688 -0.22251926 -0.6554807 -0.2646226 0.08987714
0.37363338 0.39750636 -0.17765866 0.43036526 0.338689 -0.063555114 0.13588834 0.38062513

critic.0.weight f4 [1, 64]
00000000: 8373 ebbc e632 fb3d f7f3 e2bd d621 8d3c
00000010: 8039 b23e 045b cc3e 998b c1bd a152 b6bd
00000020: 5bb8 1d3e 1a9b 85be 371d 953c f93a bb3e
00000030: 39af bebe c757 babd fac9 3bbe 7097 333c
00000040: 7869 213e b399 5ebe 406d a53e 0bbc 71bd
00000050: 8796 32be 3ee1 4e3e 6028 c33d cc65 99bd
00000060: f640 0d3e 6df4 9e3e a3db 513e 3cf7 a8be
00000070: af08 e13d b7b8 3abc 86d0 90bd 299e 0ebe
00000080: 02f3 46be e56f 9cbc 1572 213e 07c6 3fbe
00000090: fc49 203c 871f 0c3d bdad 11be 1365 9f3e
000000a0: 7553 91be 0e11 45be c915 233c 0749 6b3e
000000b0: 26a2 44bd 4ec7 8b3e c80c d1bd 4f20 aa3e
000000c0: a87f 02be 6bdb 10bd a03b f73e 903f 63bd
000000d0: 8f3e 30be c8fa 57be a586 8a3d 1e2f 033e
000000e0: 6f43 823e 46fa e83e 34aa 92bc a132 773e
000000f0: 3fb9 a23d c0b0 5bbd da97 813d c6c0 953e
-0.028741604 0.122655675 -0.11081689 0.017228048 0.34809494 0.3991319 -0.09450454 -0.08902479
0.15402357 -0.26094896 0.018202407 0.3656843 -0.3724306 -0.090987734 -0.18338767 0.0109613985
0.1576289 -0.21738319 0.32309914 -0.059017222 -0.17440234 0.2020311 0.09529185 -0.07490119
0.13794312 0.31045857 0.20493941 -0.33001125 0.109879844 -0.0113965785 -0.07071023 -0.13927521
-0.19428638 -0.019096324 0.15766175 -0.18727885 0.009783264 0.034209754 -0.14226432 0.311318
-0.28383985 -0.19244787 0.009953924 0.22977076 -0.0480062 0.27300495 -0.10207516 0.33227775
-0.1274401 -0.035365503 0.48287678 -0.05548054 -0.17211364 -0.21091759 0.06763963 0.12810943
0.25442073 0.45503443 -0.017903425 0.24140407 0.07945489 -0.05363536 0.063277915 0.29248637

critic.1.weight f4 [1, 64]
00000000: 6876 2fbe eeff 01be e7a4 653e b995 863d
00000010: ab13 383d 86bc 063e 34e5 323e 8630 b0bc
00000020: ca04 ec3c bb1c e83d ab5f 853d 3c20 0abe
00000030: 47cd 2abd 929a bdbc 6744 76bd bf10 38be
00000040: 4a39 c7bd 2b92 94bc 8c2a 0c3e 7c59 463e
00000050: 9689 37bc b4b3 203e 9b74 e83d c34a c33d
00000060: 2fda c7bd 08ed e13d 1e1f 1cbd 5629 31be
00000070: 2d85 e63b 9b7d 62bd fd49 24bd eea4 82bd
00000080: dfd7 d53c 443d 7c3e db0f 77bc c476 23bd
00000090: 7662 b2bd 96f5 a7bd 482e 413e d2c5 963e
000000a0: e199 e9bb 652c a83c 8d98 983d 6638 c03c
000000b0: 10b9 113e b1a6 e03d 81df 753e d084 f43d
000000c0: 9008 42bd 6abb 493e 3b1a a13c bab1 763d
000000d0: 3596 aa3d 10e7 ba3c 7626 bcbd b8fa 84bd
000000e0: f2bd ac3d 0eca 0cbe a107 49be 7476 b13e
000000f0: 12a5 d4bd ec8c c4bd 6f53 473d 24c5 08be
-0.17135012 -0.12695286 0.22426187 0.06571526 0.04494063 0.13157853 0.17470247 -0.021507513
0.028810877 0.11333605 0.06512388 -0.13488859 -0.041699674 -0.023144994 -0.060123827 -0.17975138
-0.09727724 -0.018136105 0.13688105 0.19370073 -0.011202237 0.15693551 0.11350366 0.09535744
-0.09758412 0.11031538 -0.038115613 -0.17300925 0.0070349188 -0.055295568 -0.040109623 -0.06379114
0.026103912 0.24632746 -0.015079464 -0.039908186 -0.08710186 -0.08201139 0.18865311 0.294478
-0.0071289395 0.020528981 0.07450972 0.023464393 0.14230752 0.10969294 0.24011041 0.119393945
-0.047371447 0.19700399 0.019665828 0.060228087 0.08329431 0.022815257 -0.09187023 -0.06493133
0.08434667 -0.13748953 -0.19631816 0.34660685 -0.10383047 -0.09597191 0.048663553 -0.13356453

critic.2.weight f4 [1, 64]
00000000: c0e5 853d b5ae 2a3e 3004 c4bd f271 63be
00000010: 5524 f73d 08ec c83d a45b 943e b4fe 6dbe
00000020: 97d6 86bd ff93 1abe 05a6 7b3d fb11 9b3c
00000030: f800 73bd 8820 713e 7e02 6abd e897 8ebd
00000040: 3e09 be3d 49b2 df3d 7d72 f33d 3628 26bd
00000050: 6b46 5b3d a52e 683d 1bf1 2b3e 5840 09be
00000060: 18e9 dfbd 2297 ecbb 0e47 6b3e f8a9 0d3e
00000070: efb2 6b3e fae2 613e b1b4 a7bd 4e06 bebd
00000080: 4770 2abd e006 4f3e 71c6 5e3e d028 3cbd
00000090: 5e68 5b3d 691d 8cbd 654a 9fbc f3cd 07be
000000a0: 649d 7ebd 58b4 d0bc ca73 38be 57e8 6ebd
000000b0: e6d8 6fbd 42d2 083e 8a85 cb3a 1baa 3ebb
000000c0: 79ab a2bd 12e8 9a3d dc76 a63c 593f 5dbd
000000d0: 5173 f5bb ea19 133c 6d45 86bd c21a 1e3d
000000e0: a377 803e 8f11 4c3d 3504 913e fb2e 4dbd
000000f0: 959f aabc 4304 023d 9192 9fbd f9bd 6b3d
0.06537962 0.16668208 -0.09571111 -0.22211435 0.12067477 0.098106444 0.28976166 -0.23241693
-0.065838985 -0.15095519 0.061437625 0.018929472 -0.059327096 0.23547566 -0.057131283 -0.069625676
0.092791066 0.10922677 0.11887071 -0.040565692 0.053533953 0.05668511 0.16791193 -0.13403451
-0.10933131 -0.007220165 0.22976324 0.13834369 0.23017476 0.22059241 -0.08188761 -0.09278546
-0.041610982 0.20217466 0.21755387 -0.04593736 0.05356633 -0.06841547 -0.019444654 -0.13262157
-0.06216182 -0.02547662 -0.1801292 -0.058327045 -0.05855646 0.13361457 0.0015527469 -0.002909309
-0.07942862 0.07563795 0.020320348 -0.05401549 -0.0074905534 0.008978346 -0.06556211 0.038599737
0.25091276 0.049821433 0.28323522 -0.050093632 -0.020828048 0.031742346 -0.07791627 0.05755422

critic.3.weight f4 [1, 64]
00000000: d0cc 97bd 9add 5a3d 5131 e8bd 43e3 f83d
00000010: 0d36 00be 0148 34bd 6d72 edbd 6700 a1be
00000020: e57b 70bd e3e2 323d 60c8 13be d63b 2abe
00000030: f0b3 19be 4d8f 073e d4af 7bbe ab92 843d
00000040: 3b17 1fbe e346 013e 36ae 9e3d a110 ca3c
00000050: 5c9f 4b3e e160 b53d aba3 cb3c 3921 35bd
00000060: 1dd7 b63c aadc d73d d33b f5bd 7707 403c
00000070: 93b7 6a3e a187 ebbc 32c3 8ebd 746d 373e
00000080: a139 273a f55f 26bd ddfb a83b 8a92 053e
00000090: 0a25 c73d 3425 03be ff71 153e 2645 dbbc
000000a0: 6ee8 4ebd 19e3 923d 352b 083e 2965 2e3d
000000b0: 9855 803c 7898 3dbd 3619 833d b864 f73d
000000c0: 50b0 593e 6559 af3d fedb 683e 49fc ac3e
000000d0: 56c8 29be f7c0 2dbd ffea 0d3d 83da e7bd
000000e0: b364 33bd 3f30 4dbe c42b d3bd 903b 343d
000000f0: 9d79 dcbd 3224 f83d c488 fcbc c479 843d
-0.07412112 0.053433992 -0.11337531 0.12152722 -0.12520619 -0.04401398 -0.115940906 -0.3144562
-0.058711905 0.043673407 -0.14431906 -0.16624388 -0.15010047 0.13238259 -0.24578792 0.06473287
-0.15536205 0.12624697 0.07748072 0.024666132 0.1988501 0.08856369 0.024858316 -0.044221137
0.02231937 0.10540135 -0.11974301 0.01172053 0.2292159 -0.028751196 -0.06970824 0.17912847
0.0006379132 -0.040618856 0.0051569776 0.13044181 0.097238615 -0.1280716 0.14594267 -0.026766371
-0.05051463 0.07172222 0.13297732 0.042576943 0.015665814 -0.046287984 0.06401293 0.120797575
0.21258664 0.085619725 0.2274017 0.33786228 -0.16580328 -0.042420354 0.034647938 -0.11320975
-0.043797206 -0.20037936 -0.10311082 0.044002116 -0.107653834 0.12116279 -0.030826934 0.064685374

critic.4.weight f4 [1, 64]
00000000: 1072 01be 37b4 883d a721 02bd 527c f8bd
00000010: 632a f13c b517 c1bc 852e 0bbe f38e a8bd
00000020: f044 fa3d 23be d9bd 8bd2 b6bd 7044 a93d
00000030: 6fe8 473d d10f 9cbd d17a cebd 8af7 90be
00000040: 4394 1a3e 1d36 8ebd 49f4 55be 93b8 773e
00000050: aa53 0f3e ecfe 3f3c f164 fdbd 621c 8fbd
00000060: d691 e83d ab77 5e3e 8ccd 3a3d 049c aa3a
00000070: 0f2c a83c a172 a53d 891c 943d 64dc 0e3d
00000080: 268f 8d3b bfbc aebc b66f 7ebd e995 b6bd
00000090: a56d 663e dd5b 9dbd f591 5c3d b9fb 943d
000000a0: dbd4 33be abcc 7f3d ed40 93bd b10b f7bd
000000b0: 21b9 8fbe 337d 48be 5f0f 4ebd a824 92be
000000c0: ebe5 b6ba 6003 303d f932 63bb 228e 603e
000000d0: 166d 7b3e 7acb f4bd b6ab 68bc 917a 043e
000000e0: 2c25 eebd 40d9 5abd a273 3a3e 2678 5fbd
000000f0: 31ef d93d 6292 9d3d b700 493d 51e1 9fbd
-0.12641168 0.06674998 -0.031770375 -0.12133087 0.029439157 -0.023570875 -0.13591965 -0.082303904
0.1222018 -0.10631969 -0.08926877 0.082650065 0.04880565 -0.07620204 -0.10082019 -0.28313857
0.1509562 -0.06943915 -0.20893969 0.24191503 0.13996759 0.011718493 -0.12372769 -0.069878355
0.11355941 0.21725337 0.04560618 0.0013016467 0.020528821 0.08078504 0.07232005 0.03487815
0.004320043 -0.021330236 -0.062118255 -0.08915312 0.22502764 -0.07683537 0.053850133 0.07274575
-0.17561667 0.062451046 -0.07190118 -0.12062777 -0.2807093 -0.1957901 -0.050307628 -0.28543591
-0.0013954019 0.04297197 -0.0034667833 0.2192922 0.24553332 -0.119528726 -0.014201095 0.1293738
-0.11628184 -0.053429842 0.18208173 -0.05455794 0.10641325 0.07693936 0.049072947 -0.078066476

dist.0.linear.weight f4 [7, 64]
00000000: 7a04 503d 82c5 453c c33f b9be 03a0 293b
00000010: aee9 473c d3d9 dbbc 6fd7 843e bbe7 513c
00000020: a900 f5be 6afb 273e 9cd1 bbbe fcfb 113e
00000030: 89ff 143e 5ac1 c6bc 5f66 043d 5539 a6be
00000040: da2d 1b3c 9c20 dc3d d8e6 99be c695 8f3e
00000050: 3d4d 9dbe cc7c a2bd 5698 abbd 332d 39be
00000060: 5f95 d33d dbc2 79be 2283 3a3e c777 e7bc
00000070: 2c26 213e a1aa 2b3d 27bf 873e 0b7c 473e
00000080: 4cf9 8e3e 3cef fdbd ed27 5e3e 145d a53d
00000090: c7be 4bbe ca81 88bd 58c8 dc3e a3c5 07be
000000a0: 4163 0f3e 447e 72be 7dcf 02bf 21d7 2a3e
000000b0: 4357 7dbd 1b38 a33d b3b5 63be 3730 f0bd
000000c0: 0576 ac3e ed8b cbbe ccdf 04bd ac1a a6be
000000d0: 7d0f 63be 887b d0bc 3a6d 24be 3940 d83e
000000e0: 4fa5 fbbe a7cc 673e 3ba5 8dbe 6c0f 5fbe
000000f0: d7c0 76be 235d 90be fc1e 853e 8da3 8e3d
00000100: 29a2 a5be cd59 91bd e2c2 02be 68f2 c8bd
00000110: ccf2 f73d 062b a03e 0aa1 e03d 63f4 8f3e
00000120: 3d8d 083e f01f 19be ed23 f03e 6c47 93be
00000130: dab5 b63e 1280 293e 1b6c 9dbd aec2 9e3e
00000140: f7a7 fc3c aedd 11be 4466 763e 453a 88be
00000150: ed09 60be 786c 4a3e dfb2 debd 56f2 8dbe
00000160: cf39 273e 1dd5 dc3d b350 b23e a819 54be
00000170: 46ba 0e3e 97d8 943e 71c2 82be 4ac8 26bd
00000180: 876d 82be 4677 9abe af3f 543e 44a6 d73e
00000190: 23cf 87be 7ab3 b6be 08e9 69be 97e0 d8bd
000001a0: 313b 493e d2a2 50bd b5b6 8f3e c51d a5be
000001b0: 2fd5 8e3e 4623 4a3d 0c8a 14be a415 003e
000001c0: d245 35bd 860f 06be eb87 3bbc 8d64 873e
000001d0: 382c 25bd 8a61 babc 754d f3bc 11cd 66be
000001e0: c0d6 9b3e e09f 6dbd 6e36 033f cfd7 0b3e
000001f0: cb48 2d3e 7fb5 913e 781f a83e f863 bebe
00000200: 461c 3d3e 42f3 bd3e 0705 1a3e 9564 433e
00000210: e9d6 1a3e 3b57 673e 112c 9ebe 7d75 82be
00000220: cca8 d53e 81b9 0ebe 1c8b 37be 703b e23e
00000230: af0e 01bf 0040 5abd d925 51be 78f7 333e
00000240: d1ab 043e b275 f4bd 0215 443e 979f 2fbd
00000250: 1a91 8d3e 96dd b43d 78d5 8f3e 9456 253e
00000260: e7ae 8fbd 399f d83e 1e8c 12bf e3dc 12be
00000270: b17a 18be 3dc0 8fbe 442b a9bd 6956 60be
00000280: cc11 fb3d bcd6 b73e e832 1cbe 3e87 04bf
00000290: 894f aa3e 49de 8f3e 2979 a7be f159 e23e
000002a0: 35df aabe cb08 b0bc 346c 463e a526 393e
000002b0: bd89 2ebe b8ee f3bd 3439 5e3c 7568 fd3d
000002c0: f308 99be da8c b93e 5ba9 973e 8ef2 05be
000002d0: a66f 2e3e eab4 a8be fffa 5abe 47f2 d9bd
000002e0: 58c4 803e f0c4 a73d c9e2 80be cd20 a13e
000002f0: 666a 423e cde1 9f3c c384 7fbe eed9 be3e
00000300: 13b5 363b c349 563e b7a9 433e 874b 1fbd
00000310: 8d29 b4bd 0be8 34be 7304 9f3c 25cd 583c
00000320: e1fd 81be cf53 c13d 851d 93bd f6c6 9dbd
00000330: 1981 843c 26f9 873d 6d2c c7bd 74c9 eabc
00000340: 91f5 733e fca2 7c3e a416 1fbd aaea f6bd
00000350: aa8d d03d a2ee 1bbe 0cfb 5abd 1ef4 e7bd
00000360: d4e0 03be 0a50 c93d b86f 76bc b90c 97bd
00000370: 6d1b 3fbc 71aa 323d 6ac7 a53c 3a59 813c
00000380: 05d8 12be 77b4 43be b6b6 09be 022d b7bc
00000390: d618 8ebe 1797 c43c ea1f 393e 0120 08be
000003a0: 0da3 99bc 50ca 8a3d 5d82 88bd dcdb f83b
000003b0: d079 633e bbaf 6c3d 917d a1bb 9ef3 3fbc
000003c0: 1a7e cdbd 1c88 7dbe 6e00 babd 6c9f ccbd
000003d0: 43b3 dabd 5592 673e 06ae 5a3d db31 0c3d
000003e0: 0dcf 91be f02c 27bc b3b4 103d 1525 acbd
000003f0: 1c16 623e 172a a13d a254 b23c c2f0 813d
0.05078552 0.012071015 -0.3618146 0.0025882728 0.01220171 -0.026837265 0.25945613 0.0128115965
-0.47852066 0.164045 -0.36683357 0.1425628 0.14550604 -0.02426212 0.03232419 -0.32465616
0.009471381 0.10748407 -0.30058932 0.28043956 -0.3072299 -0.07933959 -0.08378665 -0.18083648
0.10331225 -0.24390738 0.18214086 -0.028255356 0.15737218 0.04191077 0.26513025 0.19480912
0.27924573 -0.12399146 0.21694918 0.08074394 -0.19896995 -0.0666538 0.431216 -0.13258986
0.14002706 -0.23680979 -0.5109785 0.16683628 -0.061850797 0.07969686 -0.22237282 -0.11727946
0.33683792 -0.39755192 -0.03243999 -0.32442224 -0.22173877 -0.02544953 -0.16057292 0.42236498
-0.49149558 0.22636662 -0.27665123 -0.21783227 -0.24097 -0.28196058 0.26000202 0.069647886
-0.3235028 -0.07097206 -0.12769654 -0.0981186 0.12106857 0.31282824 0.10968216 0.2811614
0.13335128 -0.1495359 0.4690241 -0.28765428 0.35685617 0.16552761 -0.07686635 0.31007904
0.03084181 -0.1424472 0.24062449 -0.26606956 -0.21878786 0.1976794 -0.10873961 -0.2772395
0.16330646 0.10782836 0.34827194 -0.20712912 0.13938245 0.29071495 -0.25538972 -0.040718354
-0.25474188 -0.30169123 0.20727418 0.42119038 -0.2652522 -0.35683805 -0.228428 -0.10589712
0.19651486 -0.050936528 0.28069082 -0.32249275 0.2789702 0.049350046 -0.14505786 0.12508255
-0.04425604 -0.13091859 -0.01144598 0.26443902 -0.040325373 -0.022751588 -0.02970002 -0.22539164
0.3043728 -0.058013797 0.5125493 0.13656543 0.169223 0.28458783 0.3283651 -0.37185645
0.18467817 0.37099653 0.1504098 0.19081338 0.15121044 0.2259187 -0.30892995 -0.2548026
0.41730344 -0.13937952 -0.1792416 0.44185972 -0.5041303 -0.05328369 -0.20424594 0.1757487
0.12956168 -0.11936511 0.19148639 -0.042876806 0.27649766 0.08831327 0.2809255 0.16146308
-0.07015782 0.42308977 -0.5724505 -0.14342074 -0.14890553 -0.28076354 -0.082602054 -0.21907963
0.12259254 0.35906017 -0.15253794 -0.51768863 0.33263806 0.28099278 -0.32709625 0.44209245
-0.33373418 -0.021488568 0.19377214 0.18081148 -0.1704473 -0.11910766 0.013563443 0.12373439
-0.2988964 0.36240274 0.29621395 -0.13080809 0.17034778 -0.32950526 -0.2138481 -0.10641914
0.25149798 0.0819186 -0.25173023 0.31470338 0.189859 0.01951685 -0.24952988 0.37275642
0.0027878925 0.20926575 0.1910771 -0.038890388 -0.08796988 -0.17666642 0.019411301 0.013232504
-0.25389007 0.09439813 -0.07183365 -0.077039644 0.01617484 0.06639318 -0.097252704 -0.028660513
0.23824145 0.24671549 -0.03883995 -0.12056477 0.1018327 -0.1522775 -0.053462073 -0.113258585
-0.12878734 0.09829719 -0.015041284 -0.073754735 -0.011664254 0.043619577 0.02023669 0.015789617
-0.14340217 -0.1911181 -0.13448605 -0.022360329 -0.27753323 0.023997827 0.1807858 -0.13293459
-0.018754506 0.06776869 -0.0666549 0.0075945687 0.22214437 0.057784777 -0.0049282988 -0.011715798
-0.100338176 -0.24758953 -0.09082113 -0.09991345 -0.10678723 0.22614415 0.053388618 0.034227233
-0.2847828 -0.010203585 0.03532858 -0.0840551 0.22078747 0.07869356 0.021768872 0.06344749

dist.0.linear.bias f4 [7]
00000000: e603 e93c f449 c43d 2330 d23e e3c7 13be
00000010: dd40 57be 1e35 b1bd 0318 5ebe
0.028444242 0.09584418 0.4105235 -0.1443172 -0.21020837 -0.086527094 -0.21688847

dist.1.linear.weight f4 [7, 64]
00000000: 8fd4 033b 10de 1e3b 44b6 8f3a a154 d7ba
00000010: 5dd8 d3b9 efac 57ba 2b32 f8ba c55c b5ba
00000020: fe9c 0dba 39fb e7ba efd0 fc3a 04b7 1a3a
00000030: 9089 d539 786f 533a 97c6 03bb 4e85 1fba
00000040: 6140 293b 5077 5839 30d4 db3a b491 ebba
00000050: c062 9c3a 2560 423a 3727 0f3a 1746 023b
00000060: 0e78 b338 3c83 88ba 78cd e4b7 9e9e dab9
00000070: 5fce 05ba 1d69 3b3a c63d 9d3a 0275 0cba
00000080: 32aa 05bb feb6 9eb9 f4fa 783a e6a3 5bba
00000090: 07b3 7939 a2d4 f2b8 f8ae 0a3b a970 5e3a
000000a0: b9ce 923a dc86 23ba eb73 493b 3801 9db9
000000b0: 2433 25bb 6f7c 95b8 73d8 f4b9 77fd 9b3a
000000c0: 3a34 9f3a 93c8 a439 ecb7 d83a 78f1 1c3a
000000d0: 5471 68b9 be68 933a bb30 02ba 45c4 f93a
000000e0: 9848 b33a 951f 02b9 8953 383a c679 18b9
000000f0: 380f d038 bf37 a33a 7d77 02ba 4a52 3738
00000100: 95e9 04bb 29df 94ba ae14 d4b9 6f1d 74ba
00000110: 0f98 dfb7 5023 0fba 2e34 9db8 2b88 9bba
00000120: 986c 413a b732 233a d464 0a3a 9d1e 073a
00000130: 84bc 0fb9 2cf8 69ba 50c0 bb3a 0769 8aba
00000140: 3812 e2ba fe6d 9a3a b8c6 7136 52ad a739
00000150: 522d 1dba e9a5 c93a 6c54 8eba 2636 1339
00000160: fe09 9aba acbf efba ebe6 593a a9ef 16ba
00000170: e966 a9b9 b09d d13a 253f a63a 6d8c 4a3a
00000180: f018 bfba 85a0 6c3a 892c 803a ee65 b83a
00000190: 7938 6439 4cc3 633a 4a6b 5739 d20f eeb9
000001a0: 7844 80ba acaf 9bb9 24ec e6ba 26c6 b23a
000001b0: 6cd3 5b39 1ee4 ac3a 99fc ddba f402 5f3a
000001c0: 74e5 ddba 478e 3739 6b92 57ba 2cce d93a
000001d0: 46fb 21ba 1132 1f3b 2e61 8a3a e863 153b
000001e0: ea2f df3a 533a 62bb cbd7 7dba 89a7 98ba
000001f0: 0c7f 753a 99dd c43a 0612 49bb 78bc 37ba
00000200: 742d 6cb9 9bfa f439 7f45 043a 924a c8ba
00000210: 43cf f7ba fdf1 0ab9 c241 e039 ec06 0d3b
00000220: 7c74 cc3a 1df0 c0b8 eb05 35ba 5958 aa3a
00000230: 1081 c5ba de57 f93a 01ac 2c3a eebf 7aba
00000240: 7898 f5ba 1b84 02ba dcbf 39bb b6e5 9eba
00000250: 572a 2a3b c6b3 b1ba 0bc4 f93a 14f3 0c39
00000260: 0c8c 993a ea06 47ba 3928 a4b9 1275 623a
00000270: 65b7 703a d202 053a e96b a53a 3bfb a43a
00000280: 8c10 793a f268 9039 d93d 693a 0440 89b9
00000290: 4a17 d1ba 026d ba3a 5bdc 523a 756a 4f3a
000002a0: 8520 353b a9d0 c0b9 920a 06ba 78a2 c3ba
000002b0: 3386 c13a 15d8 593a 1392 75b9 3413 153a
000002c0: f4c5 e13a 94e2 0b3b 4914 cdba 2626 df37
000002d0: db1e 8e3a 791e a0ba c12d 9b3a cf31 903a
000002e0: 1927 3538 3836 e339 78e0 2e39 a59d 5939
000002f0: 8dd4 a4ba a9c2 ec3a 61af acba 6dee 853a
00000300: f9a3 9b3a e3ff 98ba 62e4 65bb c0c8 083a
00000310: 0bba f53a 8432 aaba 032f 843a 01aa 5bba
00000320: 249b 08bb 974c 0bbb 3632 a6ba d7dd 9eb9
00000330: abc7 f2b9 e540 043a 9799 c8b9 7cd8 bfba
00000340: 139d 8f3a 6208 983a af3d f73a bd29 c539
00000350: bd92 c539 d30b 1f3a ae5a e639 73f3 dbb9
00000360: e714 2cb9 7d5b d1ba b8dd 4fba 795c 3cba
00000370: afb8 7e38 6219 2c3a a12a 39bb 04df be3a
00000380: 72c9 2e39 e467 143a f8a6 513a 1789 3a3b
00000390: be5b 31ba 2ba3 4fba d9bb 373a 2feb 91b8
000003a0: 856f 4d3a dfe4 87ba 0f80 66ba 6cfe 6dba
000003b0: fd24 3139 a167 8b3a 08ed 8539 aeb7 1437
000003c0: dc43 433a 8cbb 9d3a fbe8 233a d2d2 823a
000003d0: 4d8e 143b a265 f2b9 e038 f03a 7435 3b3a
000003e0: 848f a7ba abeb d93a 4169 a5ba 2912 183b
000003f0: d5b3 e6b9 47ea 3139 dc9f 4aba e658 e4ba
0.0020115708 0.0024241246 0.0010964354 -0.001642842 -0.0004040626 -0.0008227368 -0.001893585 -0.0013836852
-0.0005402117 -0.0017698772 0.0019288341 0.0005901905 0.00040729018 0.00080656214 -0.0020107382 -0.00060852326
0.0025825726 0.00020643813 0.0016771611 -0.00179725 0.0011931285 0.00074148393 0.00054608606 0.0019878203
8.557747e-05 -0.0010415087 -2.7275397e-05 -0.0004169838 -0.0005104299 0.0007149147 0.0011996559 -0.00053580117
-0.0020395634 -0.00030272448 0.0009497844 -0.000837861 0.00023813183 -0.00011579065 0.0021161418 0.00084854156
0.0011200524 -0.0006238052 0.0030739259 -0.00029946282 -0.0025207484 -7.128051e-05 -0.00046700574 0.00119011
0.0012146302 0.00031429957 0.0016534305 0.00059869094 -0.00022167462 0.0011246426 -0.0004966368 0.0019055685
0.0013678251 -0.00012409531 0.00070314907 -0.00014541214 9.9210476e-05 0.0012452527 -0.00049769116 4.3707238e-05
-0.0020280827 -0.0011358011 -0.000404512 -0.0009312247 -2.665448e-05 -0.0005460279 -7.4960626e-05 -0.0011866143
0.00073785475 0.00062255136 0.0005279307 0.0005154403 -0.0001370777 -0.0008925225 0.0014324281 -0.0010559865
-0.0017247861 0.0011782048 3.6027468e-06 0.00031981856 -0.0005995828 0.0015384528 -0.00108589 0.00014039184
-0.0011752245 -0.0018291376 0.00083123025 -0.0005757758 -0.00032310866 0.0015992429 0.0012683613 0.00077266135
-0.0014579576 0.0009026605 0.0009778898 0.0014068463 0.00021764812 0.00086884643 0.00020543966 -0.00045406685
-0.000978603 -0.0002969479 -0.0017617983 0.0013639375 0.00020964228 0.0013190543 -0.0016936242 0.0008507215
-0.0016929344 0.00017505242 -0.0008223417 0.001661723 -0.0006179105 0.0024291317 0.0010557526 0.0022795144
0.0017027829 -0.0034519627 -0.000968334 -0.0011646609 0.000936494 0.0015019655 -0.0030680909 -0.000700898
-0.00022523646 0.00046726022 0.0005045756 -0.0015281013 -0.0018906373 -0.00013250853 0.00042773603 0.0021519018
0.001559868 -9.199998e-05 -0.0006905484 0.00129963 -0.0015068371 0.0019023379 0.000658691 -0.0009565343
-0.0018737456 -0.00049787917 -0.0028343117 -0.0012122903 0.0025965178 -0.0013557605 0.0019055618 0.00013441994
0.0011714711 -0.0007592278 -0.00031310486 0.00086386607 0.00091826014 0.00050739676 0.0012620661 0.001258708
0.0009501062 0.0002754401 0.00088974606 -0.00026178372 -0.0015952375 0.0014223161 0.00080437 0.00079122867
0.0027637791 -0.00036776558 -0.00051132694 -0.0014925739 0.0014764726 0.0008310092 -0.00023419438 0.00056867604
0.0017225132 0.0021344768 -0.0015646304 2.6601436e-05 0.0010842936 -0.0012216113 0.0011839197 0.0011001172
4.3190175e-05 0.0004333721 0.00016677554 0.0002075346 -0.0012575552 0.0018063384 -0.0013174826 0.0010218151
0.0011874429 -0.001167294 -0.0035078754 0.00052179024 0.0018747462 -0.0012985026 0.0010084811 -0.00083795196
-0.0020844424 -0.0021255368 -0.0012679759 -0.00030301392 -0.000463066 0.00050450704 -0.00038261406 -0.0014636661
0.0010956846 0.0011599178 0.0018862988 0.00037605866 0.00037684097 0.00060671306 0.0004393658 -0.0004195232
-0.00016410985 -0.00159727 -0.0007929462 -0.00071854104 6.073032e-05 0.00065650616 -0.0028254169 0.0014562313
0.00016668977 0.0005661233 0.00079975976 0.002846306 -0.0006765685 -0.0007920737 0.00070088875 -6.957945e-05
0.0007836747 -0.0010367892 -0.0008792886 -0.00090787443 0.00016893815 0.0010635742 0.0002554434 8.864254e-06
0.00074487715 0.0012034043 0.00062526733 0.0009981042 0.0022667826 -0.0004623356 0.0018327497 0.0007141449
-0.001278386 0.0016626021 -0.0012619869 0.0023204184 -0.00044003004 0.0001696731 -0.00077295094 -0.0017421513

dist.1.linear.bias f4 [7]
00000000: 0000 0000 0000 0000 0000 0000 0000 0000
00000010: 0000 0000 0000 0000 0000 0000
0.0 0.0 0.0 0.0 0.0 0.0 0.0

dist.2.linear.weight f4 [7, 64]
00000000: 8f06 003a b0d0 5539 3bcb 9aba eed5 66ba
00000010: 6b8b 5538 022d 3938 8a31 c93a f242 9e3a
00000020: 5b8f 173b 0351 06bb 3b28 04bb 06ec 1a3a
00000030: 3436 0fba 74e3 423a 60d7 86b9 aee3 4a3a
00000040: 973e edba 50e5 16bb 574b 5fba d8be 723a
00000050: 8ba7 06ba d9cf 9a39 85ff c8ba 2b13 86b9
00000060: 59a7 c1b9 a7ca 3c39 5373 2239 06c7 42bb
00000070: 7c1d e43a 3e73 6c3a 670f a1ba a6ed feba
00000080: 1835 d23a 46c8 cd3a 6ab8 6cb9 e244 1b3a
00000090: 0202 9739 13b6 f0ba 995e f13a 0ca0 f83a
000000a0: 607b 45b9 4ded b9b9 b7ce 013b 7e83 99ba
000000b0: 8d63 2bb9 5d0d ab39 82d9 14ba 7213 893a
000000c0: ac05 03bb 6987 b6b9 4a7c 0c3b e95a e63a
000000d0: 58d4 aa3a 85f1 c439 1618 abba 0282 31ba
000000e0: 9246 2239 63d0 6d3a fc3d bdba d34a 3fb9
000000f0: 1bb8 a2ba b43d 86ba 2163 b4ba ff40 84ba
00000100: 4960 9f3a c73d bc3a d07f 103a d9b8 80b9
00000110: 4ff6 10b9 16c7 a1b6 1c54 47b9 d966 b2b8
00000120: 379e 1bbb db32 8b3a d245 63b9 30f2 ba39
00000130: c53a dbb9 ce0e 2c3a 201b 8f38 972e 1cb9
00000140: f6ce a237 304c 5e3b fd87 98ba 39d1 61ba
00000150: 5b3e 2d3a 29a6 903a 99e8 21ba e01e a3b8
00000160: 0405 c83a 52ad 9fba 3589 e4ba 0ffa 79b9
00000170: 2aa6 3b3b 5b29 dc39 7e44 1bb9 feeb cab9
00000180: 4614 41b9 8796 fd39 fcef 12b9 4a20 ab3a
00000190: ddea 0e3b beac b03a 7e2f 423a f21c a439
000001a0: 478f 84ba 13ae 14bb b33f ce39 a7a5 04bb
000001b0: 45d0 cc3a 641c 163b d91c 73b9 2f06 283a
000001c0: 9da7 703a c914 493a 15e2 363b f3ed e4ba
000001d0: 0b8f adba caf7 6fba f497 b3ba 2124 a0ba
000001e0: a402 aa3a 505c 983a dadb 023a 0eb3 d438
000001f0: 56ad 90b9 8c79 5b3a a215 063b 8046 e6ba
00000200: d279 2aba 7d98 383a 3f8b 8b3b 20d0 06ba
00000210: 16d8 143b 8f08 beba d78d 003a f375 f8b7
00000220: d74d 623a ea5a 2bba ab5f 81b9 d6eb 993a
00000230: acdf a2b9 4cf3 733a 736e edba 964f aa39
00000240: bd87 153b d743 2937 b8e4 483b f2c9 a1ba
00000250: 2475 0a3a 92f0 4f3a 856c 5eba b2ff 14bb
00000260: 5bcb 1ab9 af06 01ba 72fb feba 1b6d 513a
00000270: c5d0 523a a201 6f39 8da8 2bb9 10a6 e5b9
00000280: 53b9 43ba 35db f6b9 54db fcb9 390d 5aba
00000290: 6689 e2b8 803b 2cb9 81c1 2d3b 301b c239
000002a0: 924f 44ba be8f 68b9 751d e23a 44f2 de39
000002b0: 3492 96ba 1cb0 f2ba 0dfb 933a 2cbf eeba
000002c0: ae4d ecb9 42a5 e5b9 c77f 55ba d445 1c38
000002d0: b5ce b43a 6738 c639 aefc 9739 1424 1abb
000002e0: f0ea 01ba fbf0 ab3a 4714 0c3b 30a6 e3b8
000002f0: 5756 3cb9 b2ac a9b9 9210 ff39 4704 3d39
00000300: 70c2 2ebb d4a4 a939 8f35 273a 3df1 29bb
00000310: 73e8 ceba c6b6 ab3a f890 f33a d061 a83a
00000320: 9524 93ba 0544 3e3a 19f9 4239 b46f 343b
00000330: 9e88 31ba a04b 2eba 62f5 0c3b 20ea 4539
00000340: f56c e138 66e3 d4ba cbdb 6339 bd80 8a3a
00000350: 26f2 0f3a ed45 07bb 4c4b 6339 8ec5 1e3a
00000360: 2e7c 5238 76e7 8139 6d87 23ba cfb3 c13a
00000370: fbc8 72b9 007b da3a c95a db3a 3962 bd39
00000380: c2a3 4838 1c0e 7839 8f42 84b9 24bb 28ba
00000390: abfd ecba 2b72 8d3a 012e 9439 7df1 adb9
000003a0: 6e96 1bbb 99ea 323a 0f5c df3a 67e7 ef3a
000003b0: 8f67 023a 7771 483b a7f5 0639 cc25 d739
000003c0: dc58 c139 377a ca3a 2440 ad3a ac35 cf39
000003d0: 4a86 5b3a 42db c83a 47fc 24b8 b7d7 fdb9
000003e0: 3c9b 3b3a a28b a0b9 8ccd 603a c9b2 83ba
000003f0: ecc0 deba f3ae 863a 94f7 323a d792 cb3a
0.000488379 0.00020391005 -0.0011809835 -0.0008805682 5.0913e-05 4.4149354e-05 0.0015349847 0.0012074395
0.0023126218 -0.0020495064 -0.002016558 0.0005909804 -0.0005463094 0.0007434406 -0.0002571894 0.00077396154
-0.0018100318 -0.0023024864 -0.00085180014 0.00092600053 -0.000513666 0.00029528028 -0.001533494 -0.00025572753
-0.00036936512 0.00018004571 0.00015492486 -0.0029720678 0.0017403807 0.0009019858 -0.0012287915 -0.0019449487
0.0016037552 0.0015699945 -0.00022575413 0.0005923045 0.0002880246 -0.0018364809 0.0018415033 0.0018968596
-0.00018833345 -0.00035462753 0.001980705 -0.0011712161 -0.00016344916 0.00032625618 -0.0005678163 0.0010458066
-0.0019992394 -0.00034814634 0.0021436387 0.0017574701 0.0013033254 0.0003756398 -0.0013053443 -0.0006771387
0.00015475813 0.00090718846 -0.0014438028 -0.00018243054 -0.0012414487 -0.0010241778 -0.0013762453 -0.0010090171
0.0012159433 0.0014361673 0.00055122096 -0.00024551785 -0.00013824667 -4.8213506e-06 -0.00019009452 -8.506858e-05
-0.0023745426 0.0010620015 -0.00021674417 0.00035657128 -0.00041814722 0.00065634854 6.823824e-05 -0.00014894675
1.9408279e-05 0.0033919923 -0.0011637207 -0.00086142455 0.0006608718 0.0011035848 -0.00061763223 -7.7781966e-05
0.0015260284 -0.0012182391 -0.001743591 -0.00023839645 0.0028632977 0.00041992482 -0.00014807467 -0.0003870427
-0.00018413467 0.00048368072 -0.00014013046 0.0013055888 0.002180747 0.0013479216 0.00074075896 0.00031302084
-0.0010113501 -0.0022686764 0.0003933884 -0.0020240338 0.0015626034 0.0022905106 -0.00023185032 0.0006409613
0.000918025 0.0007670639 0.0027905751 -0.0017465934 -0.0013241483 -0.000915405 -0.0013701902 -0.0012217799
0.0012970758 0.0011624191 0.0004991867 0.00010142299 -0.00027594966 0.0008372299 0.0020459672 -0.0017568618
-0.0006503138 0.00070417655 0.004258543 -0.00051427074 0.0022711805 -0.00144984 0.0004903948 -2.9618828e-05
0.0008632815 -0.00065366796 -0.00024676076 0.0011743258 -0.00031065696 0.00093059684 -0.0018114581 0.00032484223
0.0022816502 1.008898e-05 0.0030653905 -0.001234351 0.00052817375 0.0007932271 -0.00084847986 -0.0022735414
-0.0001476234 -0.00049219554 -0.0019453599 0.0007988975 0.00080419733 0.00022793424 -0.00016370621 -0.0004380201
-0.0007466275 -0.00047084098 -0.00048228598 -0.00083180104 -0.00010802112 -0.00016425364 0.0026513042 0.0003702282
-0.00074886635 -0.00022178792 0.001725121 0.00042523642 -0.0011487664 -0.001851562 0.0011290029 -0.0018214933
-0.00045071304 -0.0004380141 -0.00081443455 3.725833e-05 0.0013794514 0.00037807526 0.00028989225 -0.002352004
-0.0004955968 0.0013118082 0.002137439 -0.00010855158 -0.00017961241 -0.0003236286 0.00048649736 0.00018026038
-0.0026666187 0.00032356998 0.0006378525 -0.0025931143 -0.0015785828 0.0013100735 0.0018582633 0.0012846533
-0.0011226112 0.00072580605 0.00018594078 0.00275324 -0.00067723717 -0.0006648842 0.0021508564 0.00018874602
0.00010749131 -0.0016242086 0.00021730286 0.0010566931 0.00054911 -0.0020641044 0.00021676457 0.00060566596
5.0183553e-05 0.0002477725 -0.00062381366 0.0014778319 -0.0002315379 0.0016668737 0.001673543 0.0003612207
4.7836227e-05 0.00023656379 -0.00025226592 -0.00064365775 -0.001808097 0.0010791471 0.00028263035 -0.00033177054
-0.0023740786 0.0006825119 0.0017040985 0.0018303216 0.0004974538 0.0030585208 0.00012870748 0.00041036156
0.00036878034 0.00154478 0.0013217968 0.00039522105 0.00083741976 0.0015324133 -3.93356e-05 -0.0004841664
0.00071566156 -0.00030621613 0.0008575551 -0.0010047789 -0.0016994751 0.0010275528 0.0006827053 0.0015531433

dist.2.linear.bias f4 [7]
00000000: 0000 0000 0000 0000 0000 0000 0000 0000
00000010: 0000 0000 0000 0000 0000 0000
0.0 0.0 0.0 0.0 0.0 0.0 0.0

dist.3.linear.weight f4 [7, 64]
00000000: 1e40 af3a e219 253b b4e5 243b 0974 9c39
00000010: 4ff5 273a e20a 103a 5011 2239 21e4 2538
00000020: a596 95ba 81b2 6f39 a0a5 a6b9 5cc5 a23a
00000030: aeed 17bb cd12 34ba 97c9 003b c598 6039
00000040: a118 b8ba 53d4 37b9 fe5e a13a fb2f 20ba
00000050: 8468 b539 f04f 2a39 db0c 2fba d3df 2eba
00000060: 7ce0 12bb 3781 84ba 1e6d df3a 941c 90ba
00000070: e923 6eb9 81bc 6cbb 9919 fa38 6e7a ceba
00000080: 6640 b0ba acca 4d3a 6c03 79ba a6e6 a439
00000090: 05eb e0b8 40d9 bcb9 5f0c 88b8 05de da3a
000000a0: 6006 e7b8 fcf6 ee3a 6c3c fe39 d80c 69ba
000000b0: 5d1f 53ba 2798 a539 7759 24ba 90da d9ba
000000c0: 41b4 86ba 1503 7338 95fe ecba d4f3 e9ba
000000d0: ba7d 95ba 823c 48ba 13cf ddb9 a032 31bb
000000e0: 8497 cb39 344b 14ba 0d5f 3db9 5264 0a3a
000000f0: 9082 e6ba 976b ba39 a988 b73a 6757 ff3a
00000100: 8b9d 6eba 95f1 4b3a b4ed 083b b72d d9b9
00000110: c6bd 29ba 50d8 82ba bb75 8ab9 9ef1 963a
00000120: b940 f43a 4408 d13a ee4a dc3a c069 91b8
00000130: 4b75 253b 2cd8 67ba 625e da39 a52a 3a3a
00000140: 423f 883a 655b 44bb 755c ca39 d220 82ba
00000150: 9146 003a 779f e83a 267f 31ba 9270 643a
00000160: e008 0eb9 a4b0 b83a fdf3 5239 09ea 00ba
00000170: bc1a 80ba 79ba 4239 b2b9 0c3b 002c 433a
00000180: 20a4 ce3a 5ea2 e43a 855f 303a 1066 4f3a
00000190: cd92 27b9 9c78 4b3a c7ce c73a ef9e 26bb
000001a0: d89d 97ba c662 4f3a 13ff 80ba 6468 caba
000001b0: 4fc9 23ba dba6 aab9 a74c b33a 6de9 8139
000001c0: 2d6d 95ba 0efa c7b9 82ec e8ba dceb d4ba
000001d0: 8f0e 81ba e73f f4b9 4abd f03a 841a 3aba
000001e0: 6a5f 9d39 dc4d c73a dfb5 83ba 9673 b0ba
000001f0: 8fba 283b 62da 863a bb1a 7a3a 73ff 253a
00000200: 49ae 84ba e252 57bb 670e 57b9 0962 4e3a
00000210: a413 e1ba aab2 4a3b dd50 3fba aab3 69ba
00000220: 8013 a038 db68 51ba 100f a3ba 792e f8b9
00000230: c11e ce3a e2ab 89ba 3d93 09ba 101d f4b9
00000240: 4d38 c53a b7e9 503a abfb 073b 5cce 273a
00000250: b97c df39 1887 1f3a 49cb 32ba ebfa dbba
00000260: 6948 8f3a ae5b 64ba f2db 203b f997 1cba
00000270: 5ce5 3fba 9fee 933a 49d0 03bb ebac 163a
00000280: 02e5 dab9 acf7 7a3a ca3f b3b9 bd45 cc3a
00000290: bbec 13bb 61fe 543a 50a0 283a c698 1d3a
000002a0: f273 703a a6fd eeba c29e 6439 b489 9f39
000002b0: 4063 8f39 fb4d f738 383f e0b9 12e6 17ba
000002c0: 6190 a23a 593b 95ba e7d5 c7ba e425 613a
000002d0: b8e4 fbb9 efa5 48ba 1bcb 0b3b d981 13bb
000002e0: fb86 3f3a cf25 8d38 3daa f2b8 c22c 433a
000002f0: 3d95 88b9 9e6a 863a d569 213b 78ac a13a
00000300: 744b 6b3b 2e7e 22bb c262 a13a 5254 ffb9
00000310: 2fe1 0a3a c48e 8739 cda5 0a3b ce02 44ba
00000320: 41df c33a 79e2 3538 2f5b 5c3a 84ff 243b
00000330: 7766 3dba 6e33 ac3a 3ea8 7d3a 74fa 8739
00000340: 4474 91b9 d83e 4839 f4d3 e0ba 9e76 e239
00000350: d2af 86b9 07e3 d239 1dfe 8fba 3040 5439
00000360: 29d3 b238 aaab d53a 941c ac3a 67b2 8eb9
00000370: a73b c9ba a2bb 1d3a e515 1a3a cd55 bd39
00000380: 9d99 1fbb 6f5b 563a 389b 1139 d4db 97ba
00000390: 9998 653a b388 83ba 2f04 f33a c786 88b8
000003a0: 435f 193a ce7e 8db9 4960 d43a 59d3 7439
000003b0: 4a41 c238 cff3 a539 3f70 18ba 3347 98ba
000003c0: 40fc a83a 1fa7 923a b070 163b c7f2 b63a
000003d0: 8f76 6e37 2122 b3b9 509b 79ba b8e1 55b9
000003e0: d395 c839 f0e8 f33a 66a8 d3ba 6e1f a2ba
000003f0: 1efb c23a a63e ac39 1deb 393b 0d83 a2ba
0.0013370549 0.002519243 0.0025161328 0.00029841092 0.0006407098 0.0005494786 0.00015455973 3.9551527e-05
-0.0011412693 0.00022859314 -0.00031785388 0.0012418437 -0.002318244 -0.00068692566 0.0019651407 0.00021419216
-0.0014045426 -0.00017531337 0.0012311635 -0.0006110665 0.0003460088 0.00016242242 -0.0006677636 -0.00066709256
-0.0022411635 -0.001010931 0.0017046069 -0.0010994845 -0.00022710826 -0.00361231 0.00011925697 -0.001575304
-0.0013446927 0.000785033 -0.0009499106 0.00031452364 -0.00010724928 -0.00036020018 -6.48729e-05 0.0016698247
-0.00011016126 0.0018231566 0.00048491673 -0.00088901585 -0.0008053685 0.00031584615 -0.0006269435 -0.0016620923
-0.0010277109 5.7938585e-05 -0.0018081242 -0.0017849156 -0.0011405267 -0.0007638411 -0.00042306687 -0.0027038231
0.00038832065 -0.0005656958 -0.00018059854 0.0005279231 -0.0017586518 0.00035556845 0.001400252 0.0019481004
-0.0009102455 0.0007779834 0.0020893635 -0.00041423526 -0.0006475117 -0.0009982679 -0.00026409127 0.0011516099
0.0018635012 0.0015947898 0.0016806999 -6.933836e-05 0.0025246914 -0.0008844163 0.0004165052 0.00071016914
0.0010394829 -0.0029961702 0.00038597328 -0.0009927994 0.0004893328 0.001774772 -0.0006770961 0.0008714284
-0.00013545481 0.0014090729 0.00020118053 -0.00049176865 -0.0009773592 0.00018570748 0.0021472988 0.0007445216
0.0015765466 0.0017443409 0.00067281007 0.0007911632 -0.00015981049 0.00077618076 0.001524412 -0.0025424322
-0.0011567427 0.0007911142 -0.0009841643 -0.0015442488 -0.0006247954 -0.00032549244 0.001367946 0.00024778713
-0.0011400335 -0.00038142543 -0.001777068 -0.0016244608 -0.0009846258 -0.00046586918 0.0018366959 -0.0007099288
0.00030016463 0.0015205699 -0.0010048709 -0.0013462182 0.0025745963 0.0010288472 0.00095407263 0.00063323154
-0.0010122742 -0.0032855798 -0.00020509363 0.0007872885 -0.0017171991 0.0030929246 -0.00072981213 -0.00089150167
7.633027e-05 -0.0007988342 -0.0012440402 -0.0004733687 0.0015725718 -0.0010503496 -0.00052480755 -0.0004656096
0.0015046686 0.00079693965 0.002074937 0.00064012944 0.000426268 0.0006085499 -0.0006820453 -0.0016783153
0.0010931614 -0.0008711171 0.002454516 -0.00059735734 -0.0007320249 0.0011286325 -0.0020113161 0.00057478127
-0.00041750824 0.0009573649 -0.00034189067 0.0015584748 -0.0022571522 0.00081250636 0.000643258 0.000601184
0.00091725506 -0.0018233552 0.00021802916 0.0003042944 0.00027349032 0.00011792403 -0.0004277171 -0.0005794476
0.0012402647 -0.0011385485 -0.0015246243 0.0008588715 -0.0004804486 -0.00076541206 0.0021330777 -0.0022507815
0.00073061854 6.730446e-05 -0.000115711686 0.0007445329 -0.00026051133 0.0010255163 0.0024629731 0.0012334725
0.0035903128 -0.0024794447 0.0012312757 -0.00048700214 0.0005297837 0.00025855575 0.0021155954 -0.00074772246
0.0014943854 4.3364682e-05 0.00084059214 0.0025176713 -0.0007225046 0.0013137886 0.0009676254 0.0002593581
-0.0002774318 0.00019096897 -0.0017153011 0.00043194456 -0.00025689468 0.0004022347 -0.0010985766 0.00020241807
8.527033e-05 0.001630177 0.0013131076 -0.0002721727 -0.0015352861 0.0006017034 0.00058778963 0.00036112816
-0.0024353035 0.0008177077 0.00013886101 -0.00115859 0.00087583956 -0.0010035246 0.0018540676 -6.5100896e-05
0.0005850682 -0.00026988093 0.0016203012 0.00023348386 9.262802e-05 0.00031652904 -0.0005815066 -0.0011617899
0.0012892559 0.0011188722 0.002295535 0.0013957851 1.42135095e-05 -0.00034166969 -0.00095217396 -0.0002039735
0.000382586 0.001860885 -0.0016148209 -0.0012368986 0.0014875864 0.00032853073 0.0028368898 -0.0012398675
