BLIP/RL/trained_models/ppo/2023-01-22_minigrid_5e5_lavagap-doorkey-emptyrand-redbluedoor-wallgap_fine-tuning_3_task_3.pth (torch, 735517 bytes, 19 tensors)

features.actor.0.weight f4 [64, 2739]
0.13805304 0.13443424 0.10414521 0.18476425 0.18492499 0.04106076 0.11307698 0.14684367
0.051246405 0.111856185 0.17765196 -0.14908363 -0.11501344 -0.06274011 -0.21854736 -0.2805853
0.073668316 -0.12802675 0.07659277 0.40463936 0.061917443 0.07691282 0.07046667 0.12017382
0.08427658 0.07312042 -0.008005226 0.10650967 0.12578255 -0.044871975 0.14044064 0.30129695
0.15235955 -0.09147297 0.053784985 -0.046571746 -0.61632144 -0.4211835 0.033551034 -0.20615505
0.024085313 0.056027442 0.10005183 0.14561579 -0.0056714336 0.1252151 0.18202399 0.04393582
-0.10886356 -0.028867485 -0.13455357 0.24167404 0.02080794 0.13310158 0.14692353 0.10864099
0.04828506 -0.13034527 0.5294865 -0.24924292 -0.5827325 0.73282415 0.10597139 0.1483692
0.11610489 0.11318189 0.10541151 0.18004404 0.1207529 -0.032178655 -0.19338998 0.1837353
0.037634373 -0.009811598 0.17634149 0.012304148 0.21436906 0.14574648 0.31483886 0.3683348
-0.0031500736 -0.34228367 -0.17949815 0.03256274 0.14835867 0.05605241 -0.06361752 0.13712195
0.08989623 0.14145824 -0.012270184 -0.097547665 0.12679513 -0.11184468 0.02091158 -0.06963726
-0.25621822 0.07915983 -0.047504056 0.0484748 -0.34958816 0.16334221 -0.09468251 -0.993753
-0.08363799 0.044317875 0.0808316 -0.15960509 0.15375331 0.17680168 0.13808125 -0.10622691
-0.07218737 0.029725397 -0.49198458 -0.2514849 -0.09754203 -0.42612013 -0.24906518 0.0029124075
-0.15952803 -0.23346822 0.377614 -0.08028624 -0.34500486 -0.06493325 -0.0025289587 -0.04394705
0.07498135 0.059830185 -0.01993333 0.120546594 0.033638228 0.09461238 0.0068810326 0.03435095
-0.08158976 0.060718168 -0.10337527 -0.24504268 -0.123141386 -0.4316571 -0.12829605 0.079567045
0.21168129 -0.526473 0.15868634 -0.21049143 0.018198596 -0.016985834 -0.008002536 0.00847523
-0.0069308076 0.06756545 -0.017038586 0.028728308 -0.008872174 -0.008673691 0.019800123 -0.019893236
0.00897654 -0.03493526 0.007790646 0.025652258 0.0020842236 0.014481039 0.018690143 0.0014374097
-0.0066808616 0.016847888 -0.030368038 0.018516637 -0.024264483 -0.00014853131 0.050231047 0.001445638
0.004760754 -0.0011389148 0.07478989 -0.03094031 0.036211953 -0.0453919 0.022339694 0.006867798
0.017656703 0.0025642524 0.015775835 0.028040145 0.05205061 -0.024270877 0.010677873 0.033187665
-0.023172379 -0.016422719 -0.035407852 -0.22853802 0.040975474 0.014998295 -0.023481373 0.058942404
0.00028765478 0.016140394 0.0031932392 -0.025891654 -0.024658676 -0.09261368 0.023068326 0.031140704
-0.056842122 0.04488477 0.007130472 0.01024673 0.047008082 0.020151863 -0.028962826 -0.12994401
0.023892364 0.008247348 0.0029892803 0.03223155 0.035906233 -0.020319765 -0.0048755147 -0.005390685
-0.026095912 -0.021495383 0.0065146904 0.015288003 -0.012344855 -0.02611694 0.032190565 -0.039874297
-0.058676515 -0.034474954 0.029945211 0.0025538253 -0.25192848 -0.032422397 -0.010756183 -0.02893569
0.011268116 -0.065601304 0.0044555007 0.0066238237 0.014693581 0.00640723 0.027079348 0.007645882
-0.015992645 0.00793775 -0.017297266 0.0032924828 0.015742796 -0.043647945 0.021125028 -0.00532168
00000000: c75d 0d3e 21a9 093e 154a d53d d732 3d3e
00000010: fa5c 3d3e 542f 283d e794 e73d 305e 163e
00000020: c0e7 513d db14 e53d 65ea 353e 61a9 18be
00000030: 2b8c ebbd e37d 80bd e1ca 5fbe e0a8 8fbe
00000040: 6adf 963d 7219 03be acdc 9c3d e42c cf3e
00000050: 259d 7d3d 7884 9d3d d450 903d b11d f63d
00000060: 3399 ac3d 29c0 953d 5a28 03bc be21 da3d
00000070: 24cd 003e adcb 37bd accf 0f3e 9843 9a3e
00000080: 2404 1c3e 2e56 bbbd a54d 5c3d 04c2 3ebd
00000090: 3ec7 1dbf 5da5 d7be cf6c 093d 4f1a 53be
000000a0: 904e c53c 087d 653d f9e7 cc3d 4e1c 153e
000000b0: 6fd7 b9bb 6338 003e 7f64 3a3e 0cf6 333d
000000c0: dcf3 debd 817b ecbc 69c8 09be 6679 773e
000000d0: 6a75 aa3c c84b 083e 1f73 163e 2b7f de3d
000000e0: 8ec6 453d 3b79 05be 6d8c 073f 8939 7fbe
000000f0: f52d 15bf 5d9a 3b3f 8707 d93d 18ee 173e
00000100: 67c8 ed3d e8cb e73d fde1 d73d 775d 383e
00000110: 4c4d f73d c4cd 03bd 0608 46be 1b25 3c3e
00000120: 8026 1a3d d3c0 20bc dd92 343e 5697 493c
00000130: 9083 5b3e 913e 153e 8f32 a13e 6196 bc3e
00000140: 7771 4ebb ce3f afbe 5dce 37be 8260 053d
00000150: 56eb 173e 3697 653d e749 82bd b269 0c3e
00000160: 841b b83d 6eda 103e e208 49bc 12c7 c7bd
00000170: 95d6 013e d30e e5bd c34e ab3c fb9d 8ebd
00000180: 092f 83be 8d1e a23d 9d93 42bd 838d 463d
00000190: 38fd b2be 2e43 273e e7e8 c1bd 9966 7ebf
000001a0: 654a abbd a986 353d 0a8b a53d 846f 23be
000001b0: 8271 1d3e 800b 353e 2c65 0d3e 7f8d d9bd
000001c0: f9d6 93bd ad82 f33c 67e5 fbbe a1c2 80be
000001d0: 1ec4 c7bd 6b2c dabe f10a 7fbe 17de 3e3b
000001e0: 515b 23be 4b12 6fbe 9f56 c13e 1d6d a4bd
000001f0: 7aa4 b0be b9fb 84bd e3bc 25bb d201 34bd
00000200: d28f 993d 7f10 753d 394b a3bc 22e1 f63d
00000210: 3dc8 093d 23c4 c13d 497a e13b 95b3 0c3d
00000220: 8818 a7bd 9db3 783d 6ab6 d3bd 78ec 7abe
00000230: 8d31 fcbd 2902 ddbe 0a60 03be 0cf4 a23d
00000240: fbc2 583e efc6 06bf ac7e 223e 118b 57be
00000250: 3915 953c e025 8bbc 121d 03bc b1db 0a3c
00000260: d41b e3bb c15f 8a3d 8194 8bbc a157 eb3c
00000270: 985c 11bc 191c 0ebc de33 a23c 24f7 a2bc
00000280: 5612 133c 4618 0fbd ad48 ff3b af24 d23c
00000290: 7897 083b e141 6d3c 121c 993c 7767 bc3a
000002a0: 21eb dabb 9504 8a3c 64c6 f8bc 34b0 973c
000002b0: 4fc6 c6bc 12bf 1bb9 12bf 4d3d 907b bd3a
000002c0: 1900 9c3b a447 95ba 712b 993d 8876 fdbc
000002d0: fc52 143d dbec 39bd bc01 b73c 440b e13b
000002e0: caa4 903c 040d 283b 533c 813c 72b4 e53c
000002f0: 0533 553d b8d3 c6bc 3ff2 2e3c caef 073d
00000300: 00d4 bdbc f088 86bc d307 11bd df05 6abe
00000310: e6d5 273d 69bb 753c 025c c0bc 976d 713d
00000320: 5fd0 9639 dc38 843c aa45 513b bc1a d4bc
00000330: fe00 cabc 3eac bdbd c9f9 bc3c ca1a ff3c
00000340: 49d3 68bd 18d9 373d bca6 e93b e7e1 273c
00000350: 8c8b 403d 8515 a53c 7343 edbc 0b10 05be
00000360: ebb9 c33c e21f 073c cde7 433b 3b05 043d
00000370: 6a12 133d a375 a6bc c8c2 9fbb 58a4 b0bb
00000380: 18c7 d5bc 1617 b0bc 2f79 d53b 887a 7a3c
00000390: 1342 4abc 31f3 d5bc 41da 033d 3b53 23bd
000003a0: c956 70bd 9c35 0dbd a94f f53c 145e 273b
000003b0: c5fc 80be 59cd 04bd b43a 30bc 8a0a edbc
000003c0: e79d 383c fa59 86bd 73ff 913b a90c d93b
000003d0: 58bd 703c bef3 d13b 82d5 dd3c 4f8a fa3b
000003e0: 0203 83bc 560d 023c ffb2 8dbc b2c6 573b
000003f0: 09f7 803c 30c8 32bd 650e ad3c 7d61 aebb

features.actor.0.bias f4 [64]
-0.33600503 -0.9088074 -0.6623741 0.21435164 0.09129421 0.7549412 -0.9235813 -0.045229472
0.593698 -0.7940332 -0.10085856 -0.21282452 0.0139299305 -0.25149262 0.04245462 0.26651725
-0.5297464 -0.21385437 0.5623262 -0.5405104 -1.1126903 0.62066996 0.93398166 0.29810867
-1.1098572 0.0569664 -0.4697412 -0.74926615 0.30207372 -0.020435166 0.049063977 -0.19843487
-0.2164836 -0.42233765 0.18805353 0.7106961 -0.15745416 -0.41615814 0.7577987 -0.6197141
-0.31036398 0.1885661 0.6460801 -0.15697736 -0.26397827 0.3984433 -0.18423541 -0.25250226
0.3653415 -0.14529105 -0.44957107 0.07271186 -0.66802835 0.48271793 0.56803864 -0.12338647
-0.40109557 -0.0070859157 -0.9076976 -0.16348311 -0.2725393 -1.0352827 -0.10005973 -0.82383883
00000000: da08 acbe 9aa7 68bf 5991 29bf ff7e 5b3e
00000010: 75f8 ba3d d443 413f d36f 6cbf 8a42 39bd
00000020: 98fc 173f c345 4bbf ef8e cebd acee 59be
00000030: 5d3a 643c a4c3 80be e5e4 2d3d f374 883e
00000040: 769d 07bf a4fc 5abe 9cf4 0f3f e45e 0abf
00000050: a36c 8ebf 3ae4 1e3f 6c19 6f3f b3a1 983e
00000060: cd0f 8ebf 9a55 693d eb81 f0be e8cf 3fbf
00000070: 68a9 9a3e a667 a7bc 4ff7 483d 8332 4bbe
00000080: e0ad 5dbe a43c d8be 1b91 403e 2ef0 353f
00000090: aa3b 21be ae12 d5be 18ff 413f 95a5 1ebf
000000a0: 07e8 9ebe 7917 413e 8165 253f acbe 20be
000000b0: 2928 87be c300 cc3e 35a8 3cbe fa47 81be
000000c0: 0b0e bb3e 2dc7 14be 2e2e e6be f5e9 943d
000000d0: e803 2bbf ce26 f73e fb6a 113f 0cb2 fcbd
000000e0: 665c cdbe f830 e8bb df5e 68bf 1e68 27be
000000f0: 458a 8bbe 2584 84bf 1eec ccbd 1ae7 52bf

features.actor.2.weight f4 [64, 64]
0.014902701 0.27421296 -0.088998735 -0.56651586 0.71262366 0.092334546 0.31186754 -0.0697369
0.086694226 0.9128223 0.20684832 0.45263928 -0.17788391 0.44269294 0.047722958 0.5544107
0.50348526 -0.016350184 -0.3274898 0.55022 -0.07743838 -0.20585778 -0.5212666 0.041293595
-0.013294772 0.15729646 -0.33387926 -0.40470088 -0.05236694 0.68058217 0.9513681 -0.029830541
0.25311577 0.47777122 -0.16174492 -0.27696043 0.45886785 -0.47516686 -0.34693778 -0.46956423
-0.028637469 -0.5031506 0.031501703 0.16915664 0.2685005 0.33327612 -0.6122069 -0.46951047
0.68317086 0.8156546 0.29087275 -0.6361235 -0.033120573 -0.17151606 -0.033321988 0.34957737
0.09614486 -0.28019828 0.12959878 -0.07166067 0.07969769 -0.40125906 -0.012639834 -0.119159356
-0.087168895 -0.054706063 0.2183581 -0.2338549 -0.0048891483 0.6665156 0.32315785 0.17641528
0.021578306 0.43320557 0.17033547 -0.12457072 0.1846537 -0.058080807 -0.36929965 -0.21236551
0.429977 -0.05987412 0.48390958 0.18899105 -0.07008629 0.13841012 -0.08601996 0.08598881
-0.09550358 -0.33793467 -0.009574986 0.67238533 -0.5261499 -0.2814868 -0.28310925 -0.0058311224
0.2085781 0.74946696 -0.3956729 0.17159878 0.015252694 0.63435763 0.28508103 -0.49666783
0.050368644 1.2497442 -0.18112901 -0.037443925 0.039686058 0.06432122 0.7040012 0.31533706
-0.31177786 -0.20468518 0.19542792 -0.46804914 0.19995041 -0.024929857 -0.106237985 -0.0489516
0.40768847 -0.4317917 0.7022999 0.09349743 0.06694394 -0.2948089 0.30291635 -0.24680991
0.38060844 -0.58672434 -0.18339546 0.41917643 0.346909 0.66430235 -0.3249929 0.9814533
-0.43580246 0.2126954 -0.31854954 -0.01957988 -0.046785943 -0.48302403 -0.3627543 -0.2898657
0.16056524 -0.11879593 -0.24608183 0.21548374 0.40554667 0.43312666 0.20704575 0.301058
0.029709743 0.18785684 -0.44435266 0.5194499 -0.34731272 -0.39551947 -0.23035754 0.0024859207
0.36080092 0.94294333 0.19282575 -0.19137 0.7121446 0.23528999 -0.95849276 -0.39740297
0.3080104 0.39378577 0.2623332 -0.2722606 -0.2250942 -0.05687306 0.027398322 0.026593635
0.007263477 0.117744245 -0.15828219 -0.77796644 -0.048326384 -0.008911161 0.4353036 -0.65010273
0.09303454 0.38939518 -0.3731141 0.75000966 0.32173768 0.4418529 -0.27391416 0.323409
-0.18340956 0.38247815 -0.2518686 0.33588666 -0.49869594 0.7363187 -0.020155765 -0.28774896
0.728916 0.07039473 0.086398065 -0.07158501 -0.58200806 -0.45679504 0.52691334 0.3062602
0.054489564 -0.033188883 0.093079194 -0.9266865 -0.13849452 -0.4046556 0.2579837 -0.11313639
-0.21889631 0.1315004 0.36230597 -0.17173181 -0.39994708 -0.1283519 -0.3887795 -0.33885527
-0.26058307 -0.60036194 0.26492655 -0.66129696 -0.45190156 -0.25954854 0.45280924 0.03513494
-0.36558875 0.2967859 0.14191134 -0.2970133 0.17831221 0.07937379 0.11279617 0.3199686
-0.20368381 -0.37625587 -0.8098941 0.11052998 -0.36038098 0.4386631 0.29743138 0.16734946
0.36872235 0.28817227 0.059070565 0.3769183 -0.21023542 -0.5806765 -0.052966513 -0.24977706
00000000: 752a 743c a465 8c3e f844 b6bd 2f07 11bf
00000010: 816e 363f e519 bd3d 1aad 9f3e 38d2 8ebd
00000020: be8c b13d b9ae 693f 0cd0 533e 56c0 e73e
00000030: 3327 36be a6a8 e23e 2679 433d dced 0d3f
00000040: 69e4 003f d2f0 85bc beac a7be 38db 0c3f
00000050: 0398 9ebd 62cc 52be ba71 05bf 7923 293d
00000060: 51d2 59bc 5312 213e 39f2 aabe f434 cfbe
00000070: b77e 56bd a23a 2e3f dc8c 733f 2e5f f4bc
00000080: 6498 813e 6e9e f43e 76a0 25be c2cd 8dbe
00000090: baf0 ea3e 1249 f3be d4a1 b1be b96a f0be
000000a0: 2099 eabc 7ace 00bf ee07 013d 6637 2d3e
000000b0: e678 893e 2ba3 aa3e 97b9 1cbf ad63 f0be
000000c0: 49e4 2e3f bdce 503f 46ed 943e fdd8 22bf
000000d0: 70a9 07bd e8a1 2fbe a37c 08bd cefb b23e
000000e0: 99e7 c43d 2676 8fbe 8bb5 043e d4c2 92bd
000000f0: 8b38 a33d d471 cdbe 4e17 4fbc d209 f4bd
00000100: 9b85 b2bd 7713 60bd 4499 5f3e a977 6fbe
00000110: 2635 a0bb c4a0 2a3f f274 a53e 35a6 343e
00000120: fdc4 b03c 1fcd dd3e 6c6c 2e3e ef1e ffbd
00000130: dc15 3d3e 24e6 6dbd d814 bdbe 5876 59be
00000140: f225 dc3e 913e 75bd ffc2 f73e df86 413e
00000150: 6789 8fbd 62bb 0d3e 3c2b b0bd e71a b03d
00000160: 6297 c3bd c605 adbe 67e0 1cbc 7221 2c3f
00000170: c3b1 06bf 0a1f 90be b2f3 90be 0013 bfbb
00000180: 7f95 553e 11dd 3f3f a395 cabe 97b7 2f3e
00000190: 6fe6 793c 4365 223f 24f6 913e 3f4b febe
000001a0: 5a4f 4e3d 9ef7 9f3f e279 39be cd5e 19bd
000001b0: d98d 223d d8ba 833d 6c39 343f dc73 a13e
000001c0: 59a1 9fbe fe98 51be 421e 483e 23a4 efbe
000001d0: cdbf 4c3e b339 ccbc 4d93 d9bd 7981 48bd
000001e0: 8bbc d03e cd13 ddbe edc9 333f 957b bf3d
000001f0: e819 893d 31f1 96be da17 9b3e bdbb 7cbe
00000200: 1cdf c23e 9133 16bf 05cc 3bbe 4b9e d63e
00000210: 0e9e b13e b80f 2a3f 7865 a6be 8640 7b3f
00000220: 8021 dfbe d3cc 593e ed18 a3be fc65 a0bc
00000230: 9ea2 3fbd ed4e f7be eeba b9be 4769 94be
00000240: 376b 243e 484b f3bd e0fc 7bbe c5a7 5c3e
00000250: d0a3 cf3e c7c2 dd3e cd03 543e 4624 9a3e
00000260: d961 f33c 8b5d 403e 3182 e3be abfa 043f
00000270: f9d2 b1be 8781 cabe d9e2 6bbe d4ea 223b
00000280: e6ba b83e bc64 713f 1d74 453e 7ff6 43be
00000290: 1c4f 363f dcef 703e c85f 75bf 6778 cbbe
000002a0: 8ab3 9d3e 4a9e c93e 8a50 863e be65 8bbe
000002b0: 187f 66be baf3 68bd 7272 e03c e5da d93c
000002c0: 7602 ee3b e523 f13d ba14 22be cf28 47bf
000002d0: e3f1 45bd 1e00 12bc 1de0 de3e 226d 26bf
000002e0: e588 be3d ce5e c73e d008 bfbe a200 403f
000002f0: cdba a43e 8b3a e23e 7a3e 8cbe dd95 a53e
00000300: b7cf 3bbe 2dd4 c33e ecf4 80be 56f9 ab3e
00000310: 1355 ffbe 627f 3c3f b41d a5bc d553 93be
00000320: 3d9a 3a3f 1d2b 903d 78f1 b03d 299b 92bd
00000330: 7bfe 14bf 0ae1 e9be cbe3 063f 23ce 9c3e
00000340: 7330 5f3d 11f1 07bd 4ea0 be3d 543b 6dbf
00000350: 82d1 0dbe 052f cfbe 7116 843e 0db4 e7bd
00000360: 5b26 60be 0aa8 063e 2b80 b93e 77da 2fbe
00000370: ddc5 ccbe ae6e 03be 1b0e c7be 707e adbe
00000380: 256b 85be 52b1 19bf 74a4 873e c24a 29bf
00000390: a45f e7be 8ce3 84be 9dd6 e73e a8e9 0f3d
000003a0: 732e bbbe 52f4 973e 3551 113e 2112 98be
000003b0: 7a97 363e ba8e a23d ae01 e73d edd2 a33e
000003c0: 7d92 50be 9ca4 c0be 3855 4fbf 8b5d e23d
000003d0: db83 b8be 7398 e03e ed48 983e a85d 2b3e
000003e0: 2dc9 bc3e 518b 933e faf3 713d 6ffb c03e
000003f0: f447 57be 37a7 14bf 6af3 58bd 8fc5 7fbe

features.actor.2.bias f4 [64]
0.16637091 -0.91334736 0.42319608 1.2969737 -0.5940007 -0.44280437 0.5178062 -2.744362
0.1864868 -0.81640893 -0.17455167 -1.1285428 1.4632946 -0.4995042 0.39631882 1.4879068
-0.24869706 0.2055131 -0.3903299 -0.48102024 -1.0456306 -0.42543906 0.5430284 -0.999199
-0.025850825 0.50081116 -0.95163935 1.6016706 0.67904985 -0.51699525 -1.5445913 -0.48508194
-0.8475269 0.17648438 -0.1009999 0.6087075 0.013314592 -0.3837458 0.42830244 1.162696
0.11083156 0.35638142 -1.0496892 -0.6114962 0.34707764 0.28506804 0.110203505 0.72337806
-1.374854 -0.27290738 0.18595299 0.70870745 -2.1181078 0.09788121 -1.6521044 0.54068595
-0.6326076 -0.6109936 -0.123266324 0.07388337 -0.90623087 1.3681135 -0.45638403 -0.032292854
00000000: 235d 2a3e 22d1 69bf 28ad d83e 3c03 a63f
00000010: 6e10 18bf 41b7 e2be f28e 043f a1a3 2fc0
00000020: 65f6 3e3e 2d00 51bf acbd 32be 1774 90bf
00000030: 3d4d bb3f 04bf ffbe 4dea ca3e bb73 be3f
00000040: 71aa 7ebe 0772 523e 52d9 c7be 4948 f6be
00000050: 39d7 85bf 26d3 d9be e903 0b3f 81cb 7fbf
00000060: 1cc5 d3bc 2935 003f a39e 73bf 8b03 cd3f
00000070: 36d6 2d3f cd59 04bf 2bb5 c5bf a95c f8be
00000080: 86f7 58bf 52b8 343e 09d9 cebd 41d4 1b3f
00000090: 7225 5a3c 547a c4be 754a db3e 39d3 943f
000000a0: a8fb e23d a077 b63e 375c 86bf 048b 1cbf
000000b0: 29b4 b13e 70f4 913e 60b2 e13d 4e2f 393f
000000c0: 37fb afbf 84ba 8bbe 766a 3e3e da6d 353f
000000d0: 148f 07c0 f275 c83d 2878 d3bf 656a 0a3f
000000e0: 92f2 21bf 146a 1cbf 0e73 fcbd 2a50 973d
000000f0: bffe 67bf 581e af3f 2bab e9be 8345 04bd

critic.0.weight f4 [1, 64]
0.26976126 -0.097761765 0.104626015 0.19522494 0.08692913 0.2485675 0.17402372 -0.42491412
0.035913527 -0.1788094 -0.26768127 -0.08482381 0.12487788 -0.16709305 -0.29411292 0.132966
0.42655823 -0.023821758 -0.024626832 -0.096776366 0.051996186 -0.30063888 0.0075940285 -0.025854798
0.026155347 0.39517274 -0.10353614 0.16928092 0.23528711 0.012026135 -0.09111631 -0.030102674
-0.16329275 -0.0011854515 -0.052123047 -0.018883152 -0.051711276 -0.19122095 0.049043525 0.4536863
0.0016719402 0.17441003 -0.37573737 -0.35078183 -0.0037723295 0.19147797 0.2840807 -0.10023097
-0.42165524 0.030240173 -0.012510148 -0.07015485 -0.25971636 -0.060379732 -0.10418585 0.14739378
-0.21412395 -0.32167006 -0.010696501 -0.13818498 -0.17726615 0.20424467 -0.081025116 0.038913816
00000000: 261e 8a3e 5237 c8bd 2a46 d63d 0ce9 473e
00000010: e607 b23d 7b88 7e3e 4633 323e 588e d9be
00000020: 101a 133d d019 37be 850d 89be 1bb8 adbd
00000030: f9bf ff3d 711a 2bbe f895 96be 3d28 083e
00000040: d765 da3e d925 c3bc 36be c9bc b032 c6bd
00000050: f4f9 543d 57ed 99be 54d7 f83b 71cd d3bc
00000060: bd43 d63c 1554 ca3e c10a d4bd fa57 2d3e
00000070: 1bef 703e 4409 453c 309b babd e299 f6bc
00000080: 3736 27be 2761 9bba fa7e 55bd d7b0 9abc
00000090: 34cf 53bd 6dcf 43be dde1 483d 9249 e83e
000000a0: 0125 db3a 8b98 323e a660 c0be ad99 b3be
000000b0: 3039 77bb cd12 443e 0773 913e e545 cdbd
000000c0: 32e3 d7be 3dba f73c 5df7 4cbc 59ad 8fbd
000000d0: 8bf9 84be bd50 77bd 645f d5bd 65ee 163e
000000e0: 4f43 5bbe f0b1 a4be 6040 2fbc 5d80 0dbe
000000f0: 4285 35be 8425 513e 7ff0 a5bd 1864 1f3d

critic.1.weight f4 [1, 64]
-0.004112497 -0.04243573 -0.015992643 0.018655147 -0.13468936 -0.0026894913 -0.02790318 -0.46808374
-0.002981213 -0.09391401 0.047245707 0.042893186 0.14986618 -0.023919642 0.05168999 0.07833177
0.040097717 -0.009572135 -0.08145586 -0.049024113 -0.100346036 -0.09789282 0.037587628 -0.17161393
-0.02705742 -0.015250472 -0.07710451 0.20900388 0.07342669 -0.06504984 -0.09790869 -0.038435385
-0.09093456 -0.009731458 0.0687082 0.037264355 0.0245189 -0.17244235 -0.009092591 0.10221523
0.03990359 0.15486151 -0.49641544 -0.045105033 -0.01382392 0.004991478 -0.021512251 0.10129491
-0.24737866 -0.036465608 0.00843778 0.06947609 -0.7517477 -0.0022837669 -0.41550136 0.05923587
-0.06342078 0.0040129703 -0.01365149 -0.0758439 -0.11099219 0.03414667 0.04249772 -0.0016776817
00000000: 20c2 86bb 17d1 2dbd 0103 83bc aed2 983c
00000010: 02ec 09be 2d42 30bb 3695 e4bc aca8 efbe
00000020: 7460 43bb fd55 c0bd b784 413d c4b0 2f3d
00000030: 8576 193e 20f3 c3bc e2b8 533d 686c a03d
00000040: 813d 243d 72d4 1cbc 54d2 a6bd 82cd 48bd
00000050: 3982 cdbd 087c c8bd 7cf5 193d 90bb 2fbe
00000060: 86a7 ddbc 1edd 79bc f8e8 9dbd 1d05 563e
00000070: bc60 963d da38 85bd 5a84 c8bd 6c6e 1dbd
00000080: e63b babd b170 1fbc e2b6 8c3d 82a2 183d
00000090: dcdb c83c ba94 30be 17f9 14bc 3856 d13d
000000a0: f271 233d 0494 1e3e 2a2a febe 0ec0 38bd
000000b0: b97d 62bc 8d8f a33b 763a b0bc b573 cf3d
000000c0: d550 7dbe f65c 15bd 9d3e 0a3c 7b49 8e3d
000000d0: 8a72 40bf 40ab 15bb 98bc d4be 50a1 723d
000000e0: c1e2 81bd 3c7f 833b 80aa 5fbc 0c54 9bbd
000000f0: e04f e3bd 61dd 0b3d 1712 2e3d a8e5 dbba

critic.2.weight f4 [1, 64]
-0.04477832 -0.0005731962 0.013684343 -0.0074498765 0.008152793 -0.02333327 0.04377669 -0.5153926
-0.015389131 -0.044024684 -0.0605129 -0.17037766 0.29236054 -0.008095635 0.07054955 0.3180992
0.031501472 -0.015139973 -0.0019887206 0.006824834 -0.10227391 0.023729345 0.007229691 -0.07716133
0.12785216 0.0024235814 -0.1359295 0.10986264 0.0466299 -0.02590231 0.046175584 -0.05982351
0.022935808 -0.011410148 -0.063243 -0.011704635 -0.008819271 -0.048943337 0.022239596 0.059860054
0.029390387 0.13364424 -0.06543278 0.05899967 0.07244408 0.03866351 0.02369462 0.056685813
-0.088652454 -0.029256346 -0.0016754242 0.08368706 -0.11164661 0.013347832 -0.1632861 0.06603267
-0.07999943 0.014531129 -0.0800511 -0.055196702 -0.051945787 0.041200276 0.019360933 0.05379349
00000000: 7969 37bd 8c42 16ba 4b34 603c 181e f4bb
00000010: 4b93 053c 6a25 bfbc 304f 333d c5f0 03bf
00000020: b222 7cbc 3a53 34bd 60dc 77bd 7b77 2ebe
00000030: 48b0 953e 8ea3 04bc 487c 903d e6dd a23e
00000040: b007 013d a60d 78bc 3255 02bb dba2 df3b
00000050: fc74 d1bd 0b64 c23c 0be7 ec3b c206 9ebd
00000060: adeb 023e f3d4 1e3b 1a31 0bbe aaff e03d
00000070: fefe 3e3d 1531 d4bc 9c22 3d3d 7f09 75bd
00000080: e0e3 bb3c a1f1 3abc 8c85 81bd ccc4 3fbc
00000090: b47e 10bc cf78 48bd d02f b63c d12f 753d
000000a0: 1cc4 f03c 09da 083e 9f01 86bd a3a9 713d
000000b0: 905d 943d a15d 1e3d 381b c23c 622f 683d
000000c0: 6b8f b5bd 01ab efbc e899 dbba 1f64 ab3d
000000d0: faa6 e4bd ddb0 5a3c 7934 27be 233c 873d
000000e0: bed6 a3bd f913 6e3c d5f1 a3bd f015 62bd
000000f0: 1bc5 54bd 9fc1 283d d29a 9e3c 9056 5c3d

critic.3.weight f4 [1, 64]
-0.047278278 -0.37864536 0.07194264 0.2327996 -0.16505617 -0.12542455 0.087626755 -0.45639017
0.077680275 -0.21013996 0.051595528 -0.17238627 0.292048 0.03191824 0.14027204 0.3131364
-0.06964384 0.074282095 -0.25932226 -0.11139152 -0.261036 -0.11700705 -0.020299753 -0.36771584
-0.012648752 0.062765926 -0.053037565 0.29343516 -0.16502011 0.07976562 -0.268812 -0.10810396
0.008274528 0.15097223 -0.10178582 -0.014027924 0.11952258 0.036054328 -0.1045409 -0.12130705
0.01733689 -0.11326235 -0.05090985 0.00024140395 0.06754108 -0.09396104 -0.06044431 0.31361577
-0.25467137 0.19650021 0.23981687 0.19075961 -0.49890476 0.09189209 -0.34057263 0.0076155644
-0.34946442 -0.24157366 -0.16521344 0.12172966 -0.073601335 0.17356363 -0.055715732 -0.0036957655
00000000: dea6 41bd cedd c1be aa56 933d 0563 6e3e
00000010: 7c04 29be 4b6f 00be a875 b33d f9ab e9be
00000020: d616 9f3d ee2e 57be d555 533d 0786 30be
00000030: 5187 953e b3bc 023d 79a3 0f3e 6a53 a03e
00000040: 6ea1 8ebd 3621 983d e3c5 84be 3d21 e4bd
00000050: 83a6 85be 64a1 efbd ab4b a6bc 4045 bcbe
00000060: b63c 4fbc 6c8b 803d eb3d 59bd 223d 963e
00000070: 08fb 28be 285c a33d baa1 89be 9c65 ddbd
00000080: e391 073c 7798 1a3e 1675 d0bd 61d5 65bc
00000090: 41c8 f43d b4ad 133d 8a19 d6bd d56f f8bd
000000a0: 1806 8e3c 17f6 e7bd d986 50bd 6121 7d39
000000b0: fa52 8a3d a56e c0bd 7494 77bd 3f92 a03e
000000c0: 4964 82be 5a37 493e 8e92 753e 7d56 433e
000000d0: 7270 ffbe ec31 bc3d 895f aebe fc8b f93b
000000e0: 00ed b2be 165f 77be b62d 29be 664d f93d
000000f0: 4cbc 96bd aaba 313e 2e36 64bd a834 72bb

critic.4.weight f4 [1, 64]
0.010499477 0.051210135 -0.013591472 -0.18398131 -0.12561199 -0.13780105 0.2773965 0.06905444
0.010455886 0.085717976 0.06084955 0.083786614 -0.0776882 -0.054260798 -0.07289057 -0.16128726
0.076099224 -0.06169699 -0.038578648 -0.06434186 0.22942959 0.0042359717 0.080384396 -0.24213263
-0.2363066 -0.019104797 -0.26712006 0.13161473 -0.050777815 0.01878839 -0.022762708 0.29545525
-0.07447782 0.08733937 0.015949074 0.14983241 0.12293482 0.07512852 0.047469713 0.10071664
-0.028737482 -0.06804792 0.05659157 -0.043365348 -0.20022726 0.034133747 -0.003654028 0.026114592
-0.18280904 -0.14789212 -0.25888333 -0.15289849 0.003604467 -0.100873105 0.0046976004 -0.10408089
0.08942174 0.025389738 -0.054728758 0.1713302 -0.10930831 0.022992836 0.27099556 -0.06710371
00000000: 0006 2c3c b8c1 513d c4ae 5ebc 9965 3cbe
00000010: 6ea0 00be b81b 0dbe ea06 8e3e 6a6c 8d3d
00000020: 2a4f 2b3c e88c af3d 613d 793d 5198 ab3d
00000030: fe1a 9fbd 9240 5ebd a747 95bd 7d28 25be
00000040: e9d9 9b3d fcb5 7cbd a504 1ebd aac5 83bd
00000050: 97ef 6a3e e8cd 8a3b 93a0 a43d 9ef1 77be
00000060: 5bfa 71be aa81 9cbc f6c3 88be 03c6 063e
00000070: 66fc 4fbd 1cea 993c dc78 babc e945 973e
00000080: d487 98bd fcde b23d a2a7 823c ab6d 193e
00000090: 40c5 fb3d fbdc 993d 9a6f 423d 8744 ce3d
000000a0: de6a ebbc b55c 8bbd 90cc 673d dd9f 31bd
000000b0: 6008 4dbe d4cf 0b3d 6b78 6fbb 45ee d53c
000000c0: 4b32 3bbe 0871 17be 5b8c 84be 6c91 1cbe
000000d0: ec38 6c3b 8f96 cebd 54ee 993b 5d28 d5bd
000000e0: bf22 b73d 24fe cf3c 432b 60bd 2f71 2f3e
000000f0: 09dd dfbd 795b bc3c eebf 8a3e ab6d 89bd

dist.0.linear.weight f4 [7, 64]
-0.017549785 -0.1427827 0.3242431 -0.1548575 -0.18540044 0.057499476 0.1963008 0.11103085
0.29596657 -0.149016 0.078802034 0.040734738 -0.35254723 0.13613741 -0.15226354 -0.11615963
0.02273052 0.08697671 0.37875497 0.26288202 -0.37741238 -0.11747123 -0.41489264 -0.10300809
-0.20781359 -0.29250133 -0.05448922 -0.19564885 0.11466289 -0.17424957 0.37535098 0.008438661
0.23524626 -0.31079823 0.41557986 -0.3287618 -0.18611564 0.37347746 -0.39467078 -0.13651063
0.22613765 -0.049300935 -0.2957151 0.009498878 -0.2856167 -0.054343347 -0.14850186 -0.024995511
0.0860954 0.06707245 -0.13124056 -0.06415396 0.206226 -0.28478333 0.23844023 -0.301483
-0.07593572 -0.13123216 0.104189195 -0.12773995 0.19862776 0.042894654 -0.1853666 0.060576677
-0.14769429 0.2294127 0.16427243 0.22053592 -0.36027244 0.20682241 -0.5028844 -0.092824325
0.38893616 0.08990916 0.048537772 -0.054751385 0.12974548 -0.22756453 -0.30693284 -0.048395433
-0.051546033 -0.2389807 0.13878322 -0.0287397 0.002277649 0.13940057 0.15649548 0.24738187
0.12696128 0.086418584 -0.42880556 0.051457237 -0.4537178 0.28341693 -0.16225608 -0.060186896
-0.11633116 0.13761501 -0.19120799 0.088266514 0.25615063 -0.2595549 -0.036318213 0.05864208
0.3697544 -0.17931654 -0.2038471 0.16063207 0.1312368 0.04413121 0.13617828 0.32526803
-0.004634323 -0.06839227 0.3955491 0.1280495 0.110429965 -0.02608946 -0.09751775 -0.17244163
-0.25560156 -0.145666 -0.11427959 -0.461005 0.47870293 -0.3786792 -0.40482104 -0.24316189
0.30089837 0.09285318 -0.21559504 0.2576325 0.32225147 -0.17437412 0.13643582 -0.37681994
-0.25571075 -0.26225537 -0.34407082 -0.306226 0.22670658 -0.11125996 0.11409356 0.11374904
0.071114704 -0.024686329 -0.23466471 -0.07795108 0.17543052 -0.07228372 0.2094733 -0.29600984
0.21980143 0.21678989 0.18167606 0.13452913 0.21294276 -0.14683133 -0.06295543 -0.06103595
-0.21449645 0.22425933 0.16240801 0.32230192 0.016149685 -0.13256948 0.31587735 0.44661596
-0.285123 0.45091668 0.20762989 -0.3746641 0.110270426 0.09641109 0.1878727 -0.19726044
-0.19085656 -0.22920433 -0.23814546 0.04669999 -0.41293842 -0.0048747645 -0.30880582 0.24257211
0.1678976 -0.16338916 -0.20131135 0.39212027 -0.3531717 0.49739358 0.26712838 0.16266812
0.14405777 -0.03619035 -0.07199256 -0.1413402 0.10555862 -0.033653647 -0.15042531 0.01987466
-0.1415056 0.10338202 0.1016058 0.08386031 0.14550842 -0.0040611112 0.11143673 -0.14999117
0.035630774 0.022478845 -0.11744516 0.15400359 -0.063003965 0.11599912 0.006900682 -0.13471465
-0.06334168 -0.08881582 0.08273963 -0.16630948 0.0068347733 -0.08454508 -0.034738697 -0.0574715
0.025884934 -0.08607011 -0.12935944 0.10402911 0.12829208 0.182801 0.14582655 -0.18794872
-0.09466512 -0.1152556 -0.030320052 -0.01283686 0.27518976 -0.012166091 -0.13876829 -0.07175632
-0.047617342 0.12571892 0.052579995 -0.0015337287 -0.01970101 -0.15143064 -0.11590339 0.08557167
-0.12940623 0.08749654 0.11056299 0.17548738 -0.20653005 -0.0613844 -0.01266983 0.04422033
00000000: 91c4 8fbc a135 12be 3103 a63e f792 1ebe
00000010: 9dd9 3dbe 9284 6b3d 1403 493e 2464 e33d
00000020: ee88 973e a697 18be f662 a13d 78d9 263d
00000030: 1281 b4be 9b67 0b3e f9ea 1bbe 1ae5 edbd
00000040: 5b35 ba3c d820 b23d 2cec c13e 7998 863e
00000050: 323c c1be c294 f0bd cf6c d4be e8f5 d2bd
00000060: 16cd 54be bcc2 95be 1730 5fbd 2c58 48be
00000070: 61d4 ea3d 7b6e 32be 012e c03e 4f42 0a3c
00000080: 65e4 703e f220 9fbe e2c6 d43e 7753 a8be
00000090: 1995 3ebe 7038 bf3e 4a12 cabe 71c9 0bbe
000000a0: a190 673e c7ef 49bd f867 97be 2fa1 1b3c
000000b0: 5a3c 92be 2197 5ebd df10 18be 63c3 ccbc
000000c0: c952 b03d 485d 893d ed63 06be 2763 83bd
000000d0: e92c 533e 1fcf 91be ad29 743e fb5b 9abe
000000e0: 3084 9bbd b961 06be 2561 d53d 43ce 02be
000000f0: 1365 4b3e 4eb2 2f3d bed0 3dbe 401f 783d
00000100: 2c3d 17be 2aeb 6a3e 0837 283e 2bd4 613e
00000110: a175 b8be 41c9 533e 08bd 00bf ae1a bebd
00000120: a422 c73e 4b22 b83d 8bcf 463d fd42 60bd
00000130: 00dc 043e ad06 69be 4d26 9dbe 4a3a 46bd
00000140: ef21 53bd 5bb7 74be 301d 0e3e 856f ebbc
00000150: 9c44 153b 06bf 0e3e 5a40 203e ac51 7d3e
00000160: 2302 023e 3afc b03d 678c dbbe d3c4 523d
00000170: b34d e8be 061c 913e 7526 26be 8986 76bd
00000180: 083f eebd f3ea 0c3e 07cc 43be 13c5 b43d
00000190: 2d26 833e 61e4 84be 68c2 14bd ad32 703d
000001a0: 7350 bd3e c19e 37be 4bbd 50be bc7c 243e
000001b0: f162 063e edc2 343d 5272 0b3e 8889 a63e
000001c0: 85db 97bb 3f11 8cbd 6985 ca3e 681f 033e
000001d0: 1b29 e23d 90b9 d5bc 63b7 c7bd 8a94 30be
000001e0: 35de 82be 7829 15be 6b0b eabd d908 ecbe
000001f0: 8d18 f53e 3de2 c1be b444 cfbe 6eff 78be
00000200: 5a0f 9a3e cf29 be3d f2c4 5cbe 68e8 833e
00000210: 25fe a43e 218f 32be d5b5 0b3e 8bee c0be
00000220: 85ec 82be 5646 86be 0d2a b0be a7c9 9cbe
00000230: c525 683e 43dc e3bd e2a9 e93d 42f5 e83d
00000240: 96a4 913d fc3a cabc f24b 70be d1a4 9fbd
00000250: 0fa4 333e 7d09 94bd 2b80 563e 9a8e 97be
00000260: a013 613e 2bfe 5d3e 4a09 3a3e 01c2 093e
00000270: ab0d 5a3e f45a 16be c7ee 80bd d500 7abd
00000280: f5a4 5bbe 3da4 653e 494e 263e c204 a53e
00000290: 584c 843c 4bc0 07be adba a13e d9aa e43e
000002a0: a4fb 91be 8dde e63e ee9c 543e f9d3 bfbe
000002b0: 76d5 e13d 2d73 c53d b361 403e a4fe 49be
000002c0: e76f 43be 8ab4 6abe 67dc 73be 7d48 3f3d
000002d0: aa6c d3be 7dbc 9fbb cc1b 9ebe d364 783e
000002e0: 59ed 2b3e 7d4f 27be 9024 4ebe fdc3 c83e
000002f0: ecd2 b4be 5faa fe3e 0dc5 883e 7992 263e
00000300: e183 133e 553c 14bd d670 93bd 7cbb 10be
00000310: 1e2f d83d 68d8 09bd 1809 1abe 2fd0 a23c
00000320: d8e6 10be f4b9 d33d b416 d03d f4be ab3d
00000330: 2900 153e 1213 85bb f138 e43d 4997 19be
00000340: 93f1 113d 8e25 b83c 1787 f0bd 1eb3 1d3e
00000350: 3908 81bd f290 ed3d 1e1f e23b a3f2 09be
00000360: 48b9 81bd 12e5 b5bd 6573 a93d 084d 2abe
00000370: 3cf6 df3b f925 adbd 2a4a 0ebd 3c67 6bbd
00000380: a40c d43c 8745 b0bd cd76 04be 370d d53d
00000390: 005f 033e 2f30 3b3e 8e53 153e a175 40be
000003a0: c9df c1bd 210b ecbd c261 f8bc b151 52bc
000003b0: ace5 8c3e 4954 47bc 4619 0ebe faf4 92bd
000003c0: 670a 43bd 76bc 003e 1f5e 573d 6507 c9ba
000003d0: 0364 a1bc a210 1bbe c25e edbd 3340 af3d
000003e0: 1183 04be 6331 b33d d96e e23d f7b2 333e
000003f0: 9d7c 53be 356e 7bbd 1e95 4fbc 6020 353d

dist.0.linear.bias f4 [7]
-0.05861712 -0.023715226 0.503331 -0.14757927 -0.10350217 -0.08168665 -0.085962385
00000000: 8118 70bd 6f46 c2bc 4dda 003f 051f 17be
00000010: f2f8 d3bd 554b a7bd 0c0d b0bd

dist.1.linear.weight f4 [7, 64]
-0.43885693 -0.12929411 0.016939007 0.15882379 0.05491303 0.17499761 -0.02182332 -0.22353888
-0.09573015 -0.043069188 0.20823085 -0.27622843 -0.023909323 0.20572801 0.11511161 0.3982953
-0.054955203 0.20863177 -0.12994535 0.2839003 -0.16696145 -0.18669173 -0.5682343 0.044506982
-0.19510435 -0.61263824 -0.21871778 -0.09434403 -0.18875451 -0.27719724 0.285851 0.61270845
0.011342904 -0.23379359 -0.05712688 -0.38153467 -0.31184253 0.32473844 -0.23026823 0.021747326
0.44754094 0.23402211 -0.0015469779 0.20137462 -0.20087251 0.3752726 0.5049353 -0.20654102
0.30147302 -0.30728367 -0.54230094 0.2855287 0.0978388 -0.16017044 -0.052091073 -0.13717148
-0.03135285 -0.15488327 -0.13908227 -0.23742346 -0.21620277 -0.08711352 -0.053031597 0.38146874
0.40365958 0.25916436 0.2634582 -0.32281855 -0.026854742 -0.277005 -0.34322453 -0.19994755
0.18021159 0.8709719 -0.39280918 -0.31479883 0.13288052 0.6719966 0.3073175 -0.12316578
-0.42297128 -0.0069334335 -0.4524715 -0.4478518 -0.08892373 -0.10823722 0.33147123 -0.08391472
-0.029429737 -0.19628306 -0.09993005 -0.042743333 -0.1376176 -0.19877373 -0.2437171 -0.3228733
0.076742806 0.008709438 -0.5359548 0.30690816 -0.026548386 -0.22357774 0.004476671 0.04060612
-0.03675091 0.2868314 -0.14905491 -0.20392449 -0.42634547 -0.47378558 0.3874996 -0.09973593
-0.05263932 -0.092855364 0.15830818 0.11476848 -0.2294055 -0.20288487 0.016532741 -0.22202647
0.011524443 -0.09822164 -0.3153001 0.22019748 0.26355463 -0.031625394 -0.15629074 0.21791853
0.15355861 -0.23696771 -0.06734758 0.549619 -0.046901137 -0.46713647 0.03048588 -0.18765445
-0.2588255 -0.5342121 0.07924969 -0.19294481 0.10664357 -0.52652854 -0.03526466 0.327438
-0.20261028 -0.29176047 0.19355595 -0.008966868 0.2651817 0.2187306 0.26089242 -0.08689539
0.2708274 0.3976612 0.39749366 0.3113427 0.35607833 0.08901876 -0.22157958 0.14464767
-0.2785776 0.5301776 0.16539766 0.22119269 0.26892793 0.0756719 0.27958065 0.011239085
-0.165865 -0.21013229 -0.03488367 -0.3267778 0.40246737 0.21729378 -0.585719 0.48032662
-0.48568103 -0.095570035 0.034136195 0.057004604 -0.16364394 0.23325728 -0.20104457 0.37098718
0.073142186 -0.42378992 0.6131041 0.43459168 -0.34564793 0.35575357 -0.10086714 -0.33851245
-0.3444903 0.39274672 0.3025351 -0.19724855 0.08274707 0.2865612 -0.008815806 -0.050310772
0.14293316 -0.19250341 0.19555221 0.50474936 -0.07815975 -0.2817118 -0.014256226 -0.2075748
-0.06223185 0.323551 0.50139296 -0.20056053 -0.14340115 -0.15430227 0.20908418 0.015280308
-0.23150238 0.091512516 -0.22467329 0.1455566 0.0036436238 0.3034281 0.08950427 -0.105876125
0.08038601 -0.3124001 0.24593136 -0.05549905 -0.013078084 -0.2731282 0.20614007 -0.101008885
-0.054775055 0.021031732 -0.15842825 -0.16233915 0.18225592 0.328022 -0.23875569 -0.30376807
-0.02605436 0.55605483 0.33984452 -0.41284493 -0.095327355 -0.26571742 -0.13339433 -0.07837472
0.16213897 0.33653116 -0.20936453 -0.2712471 -0.20354137 -0.17751037 0.065719426 -0.3952731
00000000: dbb1 e0be ad65 04be acc3 8a3c b4a2 223e
00000010: 7cec 603d 9332 333e d2c6 b2bc 60e7 64be
00000020: 2b0e c4bd 5169 30bd 783a 553e d06d 8dbe
00000030: 7cdd c3bc 5daa 523e a3bf eb3d 5ded cb3e
00000040: b518 61bd 91a3 553e 6510 05be 615b 913e
00000050: f1f7 2abe 1e2c 3fbe ce77 11bf f44c 363d
00000060: 6fc9 47be dcd5 1cbf 8ef7 5fbe 7137 c1bd
00000070: dd48 41be ccec 8dbe 105b 923e 76da 1c3f
00000080: 96d7 393c 9667 6fbe e0fd 69bd 8358 c3be
00000090: d3a9 9fbe 1e44 a63e 6fcb 6bbe 7327 b23c
000000a0: 1624 e53e 7ea3 6f3e f7c3 caba 2635 4e3e
000000b0: 86b1 4dbe bb23 c03e 7143 013f 7d7f 53be
000000c0: ac5a 9a3e 4954 9dbe 3cd4 0abf d130 923e
000000d0: b55f c83d b803 24be 735d 55bd ae76 0cbe
000000e0: d96b 00bd b899 1ebe 956b 0ebe 231f 73be
000000f0: 4264 5dbe 9368 b2bd a937 59bd df4f c33e
00000100: 78ac ce3e 31b1 843e fee3 863e 7948 a5be
00000110: 7afe dbbc 99d3 8dbe 20bb afbe 0dbf 4cbe
00000120: 6389 383e 04f8 5e3f 491e c9be 502d a1be
00000130: d511 083e f807 2c3f b858 9d3e 573e fcbd
00000140: b18f d8be db31 e3bb 58aa e7be d54c e5be
00000150: a51d b6bd 7aab ddbd 99b6 a93e 7bdb abbd
00000160: a216 f1bc 6dfe 48be 20a8 ccbd a213 2fbd
00000170: a1eb 0cbe 578b 4bbe fa90 79be a64f a5be
00000180: 552b 9d3d 08b2 0e3c 5534 09bf 1123 9d3e
00000190: 007c d9bc 90f1 64be 0ab1 923b 9a52 263d
000001a0: 1f88 16bd 91db 923e daa1 18be 95d1 50be
000001b0: f449 dabe 0694 f2be 5966 c63e 5a42 ccbd
000001c0: 549c 57bd f42a bebd 8a1b 223e bd0b eb3d
000001d0: 47e9 6abe 0dc1 4fbe ac6f 873c e85a 63be
000001e0: 04d1 3c3c 6d28 c9bd 046f a1be 737b 613e
000001f0: a2f0 863e a189 01bd ae0a 20be 0926 5f3e
00000200: 783e 1d3e aaa7 72be 87ed 89bd d5b3 0c3f
00000210: 681b 40bd 832c efbe 86bd f93c 7d28 40be
00000220: c784 84be 20c2 08bf a94d a23d 5393 45be
00000230: f267 da3d 93ca 06bf ad71 10bd f4a5 a73e
00000240: 1279 4fbe a161 95be 8833 463e c5e9 12bc
00000250: e5c5 873e eafa 5f3e b193 853e 36f6 b1bd
00000260: e4a9 8a3e 409a cb3e 4a84 cb3e 4f68 9f3e
00000270: e64f b63e 784f b63d c2e5 62be 851e 143e
00000280: b9a1 8ebe b8b9 073f 015e 293e 5680 623e
00000290: ecb0 893e def9 9a3d 3225 8f3e 2424 383c
000002a0: 84d8 29be eb2c 57be 2ee2 0ebd 6b4f a7be
000002b0: 3410 ce3e 4382 5e3e aef1 15bf 5fed f53e
000002c0: 2fab f8be 39ba c3bd 65d2 0b3d a97d 693d
000002d0: 4792 27be ffda 6e3e a1de 4dbe 08f2 bd3e
000002e0: 92cb 953d fefa d8be 64f4 1c3f cd82 de3e
000002f0: c4f8 b0be 5525 b63e 6e93 cebd 8151 adbe
00000300: 0861 b0be 1916 c93e e1e5 9a3e 86fb 49be
00000310: 4c77 a93d 26b8 923e 2c70 10bc ab12 4ebd
00000320: 125d 123e 9d1f 45be d73e 483e 4137 013f
00000330: 3812 a0bd 873c 90be f292 69bc 7d8e 54be
00000340: d3e6 7ebd 7aa8 a53e 4a5b 003f bd5f 4dbe
00000350: c0d7 12be 6a01 1ebe 2a1a 563e 425a 7a3c
00000360: f60e 6dbe ea6a bb3d c110 66be ca0c 153e
00000370: ddc9 6e3b ee5a 9b3e 044e b73d 95d5 d8bd
00000380: 6ca1 a43d e8f2 9fbe 6ed5 7b3e f952 63bd
00000390: 7645 56bc 76d7 8bbe 6216 533e bfdd cebd
000003a0: cf5b 60bd bd4a ac3c 043b 22be 3c3c 26be
000003b0: 4ca1 3a3e 80f2 a73e 5f7c 74be 7d87 9bbe
000003c0: f46f d5bc 9c59 0e3f 1a00 ae3e 6960 d3be
000003d0: fd3a c3bd 1d0c 88be 8698 08be ed82 a0bd
000003e0: c207 263e d04d ac3e a863 56be e6e0 8abe
000003f0: 266d 50be 47c5 35be e897 863d 3c61 cabe

dist.1.linear.bias f4 [7]
0.024588414 0.06484084 0.20477785 0.21051866 -0.11859458 -0.21465729 -0.0976439
00000000: a46d c93c 46cb 843d 49b1 513e 3492 573e
00000010: b7e1 f2bd 1fcf 5bbe 86f9 c7bd

dist.2.linear.weight f4 [7, 64]
-0.074857205 -0.09266631 -0.2864476 -0.08364335 -0.018579325 -0.24891688 0.010407839 0.0030683656
-0.1110146 0.2203007 -0.19923885 -0.10386155 -0.07557312 0.10823459 0.25446188 -0.09401403
0.15233885 -0.108338594 -0.26453033 -0.016529657 -0.00031642185 -0.3214119 -0.1330529 -0.19612712
0.11239677 -0.18184847 -0.101030715 0.10073064 -0.31061476 -0.12129563 0.21386267 0.11634106
-0.19637948 -0.24241018 -0.30467293 -0.21112046 -0.054839995 0.19105653 -0.14685374 -0.268531
0.1075497 0.3448212 -0.052640554 0.30636472 -0.46163282 -0.23102513 0.39344034 0.28264883
0.37512812 -0.20156327 -0.3720807 0.13633725 0.025089758 0.26270792 -0.107792206 -0.10835816
0.21377112 -0.12101599 -0.43541908 0.23494092 0.23455846 0.021506565 0.2134431 0.25284588
0.0028746168 0.31800753 0.3315545 -0.42393875 0.23586123 0.06295883 -0.26204532 0.029718552
0.26984096 0.28925604 0.02472912 -0.104815744 0.034797724 0.3683281 0.25271213 -0.041365832
-0.24013986 0.13459805 -0.055467423 -0.31945512 -0.121139504 0.08781542 0.14331906 -0.12077083
-0.12395145 -0.015832592 -0.042040337 -0.006663028 -0.080323 -0.3065934 -0.14836407 -0.09376262
0.23760585 0.04545139 -0.40129125 0.18195845 0.15082543 -0.2104772 -0.36651838 0.12720957
-0.1533659 0.23169115 -0.057178862 -0.37643436 -0.26491404 -0.3106933 -0.04086467 -0.41047895
-0.1292643 -0.035293113 0.15798599 -0.102590404 0.011625677 -0.3092329 -0.18066742 -0.2304302
0.25029886 -0.10904263 -0.2441743 -0.019412344 -0.050408754 0.10853976 -0.10646875 -0.11202625
-0.10025223 -0.4177353 0.03894244 0.69386506 -0.34418842 -0.083369374 0.22762226 -0.7001134
-0.21806003 -0.50938725 0.03774859 -0.19885543 0.55711275 -0.54821634 -0.26990896 0.70649767
-0.03959464 -0.00882281 0.14849867 0.23395911 -0.31548893 0.0107401395 0.1208287 0.07171653
0.24257821 0.16212791 -0.22032373 0.34833217 0.5341171 0.017353527 -0.3749252 0.0056201858
-0.29575625 0.23069216 0.6157668 0.101304434 -0.14260037 -0.09850382 0.38318276 0.533996
0.077333726 -0.1641236 -0.28954932 -0.09003256 0.67000955 0.771893 -0.07357303 0.25361416
-0.46677306 0.05355607 0.031562954 0.18795218 -0.61620224 -0.052432165 -0.24031228 0.30428177
-0.40522316 -0.06983585 0.45889056 -0.1769116 -0.40749767 0.17957088 -0.27090028 -0.11882735
0.11261652 -0.04593689 0.06260899 -0.006871269 -0.03719482 -0.08695024 -0.024416788 0.041267794
0.0757777 -0.110867254 -0.07232542 0.10065934 0.13194332 -0.11658952 0.16043484 0.00829262
-0.022361811 0.06219471 0.033375245 -0.12177228 0.09679999 0.008229744 0.12248529 -0.0016224514
0.063335 0.17455678 0.008769453 -0.10102213 -0.14361444 -0.038557965 0.11400084 -0.07603675
0.015466606 -0.017834608 0.23297288 0.1014888 -0.0024196443 0.053528726 0.058260087 -0.08226641
0.02163799 -0.020976946 -0.013131764 0.11222733 0.06735585 0.088174865 -0.03142355 -0.076275885
0.041084025 -0.106612004 -0.051377438 -0.008122924 0.10644471 -0.047666118 -0.067946404 0.15508105
0.04766583 0.14258763 0.008888528 -0.081937484 -0.06520219 -0.057839718 -0.15060255 -0.05167708
00000000: bc4e 99bd d6c7 bdbd 43a9 92be 344d abbd
00000010: ab33 98bc 11e4 7ebe a485 2a3c a216 493b
00000020: 9f5b e3bd 8296 613e 4505 4cbe 5db5 d4bd
00000030: 14c6 9abd 19aa dd3d d448 823e 6e8a c0bd
00000040: b7fe 1b3e a0e0 ddbd 8570 87be 3469 87bc
00000050: 6ce5 a5b9 1a90 a4be 053f 08be 8cd5 48be
00000060: 4730 e63d 7c36 3abe 31e9 cebd de4b ce3d
00000070: e608 9fbe d869 f8bd d1fe 5a3e 3944 ee3d
00000080: b417 49be 603a 78be 17fe 9bbe f62f 58be
00000090: e79f 60bd 53a4 433e d460 16be e57c 89be
000000a0: 0443 dc3d 688c b03e 9f9d 57bd d6db 9c3e
000000b0: 235b ecbe da91 6cbe 0371 c93e 59b7 903e
000000c0: cb10 c03e 9a66 4ebe 5d81 bebe fe9b 0b3e
000000d0: 0989 cd3c a781 863e 29c2 dcbd e2ea ddbd
000000e0: d1e6 5a3e 3bd7 f7bd 40ef debe 5a94 703e
000000f0: 1830 703e 892e b03c d490 5a3e 0475 813e
00000100: 1164 3c3b e2d1 a23e 83c1 a93e 800e d9be
00000110: 9b85 713e 8ff0 803d ce2a 86be 5274 f33c
00000120: 9828 8a3e 5e19 943e b994 ca3c a3a9 d6bd
00000130: 0f88 0e3d 8095 bc3e 7c63 813e 386f 29bd
00000140: 39e7 75be 12d4 093e cf31 63bd 9f8f a3be
00000150: fd17 f8bd 92d8 b33d 3bc2 123e b256 f7bd
00000160: 42da fdbd 5ab3 81bc 7d32 2cbd 8855 dabb
00000170: 6380 a4bd cff9 9cbe c0ec 17be 9e06 c0bd
00000180: f34e 733e 3d2b 3a3d 0c76 cdbe 5153 3a3e
00000190: fb71 1a3e 5687 57be 4ca8 bbbe 3a43 023e
000001a0: f30b 1dbe 7240 6d3e 6234 6abd 01bc c0be
000001b0: d0a2 87be 3113 9fbe b661 27bd 4c2a d2be
000001c0: dc5d 04be 838f 10bd 14c7 213e eb1a d2bd
000001d0: a079 3e3c c653 9ebe e100 39be e5f5 6bbe
000001e0: 2c27 803e be51 dfbd d408 7abe a306 9fbc
000001f0: 6979 4ebd 184a de3d 4a0c dabd 056e e5bd
00000200: 0b51 cdbd 67e1 d5be 1c82 1f3d 24a1 313f
00000210: 7739 b0be 90bd aabd cf15 693e a23a 33bf
00000220: 214b 5fbe 3467 02bf 449e 1a3d c2a0 4bbe
00000230: f19e 0e3f e857 0cbf 8231 8abe 08dd 343f
00000240: fd2d 22bd 8c8d 10bc 0910 183e fa92 6f3e
00000250: c487 a1be 69f7 2f3c 0a75 f73d 1ee0 923d
00000260: 6c66 783e dc04 263e 8b9c 61be 9858 b23e
00000270: e6bb 083f fc28 8e3c 32f6 bfbe 8929 b83b
00000280: 5d6d 97be 913a 6c3e e5a2 1d3f b378 cf3d
00000290: d505 12be 5fbc c9bd 8830 c43e f6b3 083f
000002a0: 2561 9e3d 0410 28be cf3f 94be fe62 b8bd
000002b0: bf85 2b3f c89a 453f 75ad 96bd b7d9 813e
000002c0: e1fc eebe 9c5d 5b3d 2848 013d 8976 403e
000002d0: 6ebf 1dbf 1cc3 56bd 6c14 76be d2ca 9b3e
000002e0: 6979 cfbe 1906 8fbd b4f3 ea3e 5128 35be
000002f0: 89a3 d0be 6ee1 373e 71b3 8abe c15b f3bd
00000300: 7da3 e63d 5228 3cbd 2439 803d 6228 e1bb
00000310: 9859 18bd f812 b2bd b705 c8bc 6b08 293d
00000320: 5731 9b3d 5f0e e3bd 5a1f 94bd 7c26 ce3d
00000330: 261c 073e 7cc6 eebd 0849 243e c5dd 073c
00000340: 1e30 b7bc e1bf 7e3d 7bb4 083d bf63 f9bd
00000350: 133f c63d 0cd6 063c 91d9 fa3d 6fa8 d4ba
00000360: c8b5 813d 03bf 323e c0ad 0f3c b1e4 cebd
00000370: aa0f 13be f5ee 1dbd 4679 e93d 28b9 9bbd
00000380: a667 7d3c e219 92bc 7190 6e3e 5cd9 cf3d
00000390: e592 1ebb f040 5b3d 21a2 6e3d 4b7b a8bd
000003a0: 2742 b13c d8d7 abbc 9c26 57bc 71d7 e53d
000003b0: ddf1 893d 0695 b43d fbb5 00bd 8836 9cbd
000003c0: b947 283d 6557 dabd 2671 52bd 0316 05bc
000003d0: afff d93d 8c3d 43bd 7c27 8bbd 91cd 1e3e
000003e0: 3f3d 433d 7e02 123e 30a1 113c d7ce a7bd
000003f0: ba88 85bd 57e9 6cbd 8e37 1abe 59ab 53bd

dist.2.linear.bias f4 [7]
-0.0142166 -0.044493712 0.72241795 -0.046045423 -0.09050783 -0.0351852 0.049734823
00000000: beec 68bc 0a3f 36bd 62f0 383f 209a 3cbd
00000010: 2b5c b9bd 5b1e 10bd beb6 4b3d

dist.3.linear.weight f4 [7, 64]
-0.6731504 0.26304743 0.1235795 0.095242664 -0.11257829 0.15240592 -0.06528258 0.013654973
-0.31507215 -0.0029278 -0.033963438 -0.064926855 0.18475518 -0.029058972 -0.19672303 0.18406764
0.05816423 0.17148346 -0.10974686 0.47678566 -0.13153763 -0.4221355 -0.32467824 -0.05203832
-0.18242073 -0.47286123 0.017426284 -0.08663005 -0.5294248 -0.049096454 0.05669738 0.495054
-0.44299296 -0.28151578 -0.12701824 0.50601256 -0.20751883 0.009563491 -0.014150023 0.3038159
0.6440194 0.2798135 -0.09411656 0.4165206 0.37414998 0.34469825 0.333139 0.2617474
-0.32019338 0.23113504 -0.11468417 0.38578895 -0.03261583 -0.1600665 -0.15327795 0.12508065
0.182502 0.056196988 -0.14878958 0.48749843 0.86437017 -0.067940466 -0.5880312 0.17425558
0.060160812 -0.18178143 0.62845594 -0.5419472 -0.07278781 -0.40370357 0.1598383 0.0013413221
0.7392704 0.40928602 0.17847565 -0.38318855 0.06729212 0.615556 0.51575637 -0.023948595
0.059653983 0.14363693 -0.0018083515 -0.35019153 -0.072153926 -0.06905821 0.27272353 -0.12813216
0.35023502 -0.13313662 -0.54133385 -0.28887275 0.008499257 -0.4050567 -0.14387469 -0.38307962
0.72014606 -0.025434246 -0.22165342 0.06075282 -0.06972872 -0.29048052 -0.1697603 -0.27074006
-0.5022222 0.21014902 0.16934103 -0.12886748 -0.37524328 -0.23747005 0.2418423 0.027882935
-0.25409377 -0.16588387 -0.09365195 -0.50669074 -0.2280748 -0.061295602 -0.07157328 -0.27601767
-0.016156258 -0.2208023 -0.08676742 -0.60646814 -0.37395912 0.21298838 0.3434375 -0.020526214
0.55162853 -0.116972014 -0.44847608 0.41675845 0.0738753 -0.08630917 -0.20890923 -0.25546995
-0.42997837 -0.14574867 -0.3573714 -0.03046866 0.051194407 -0.6677107 -0.1454021 0.050151274
-0.24005651 -0.18060935 0.20820583 -0.2686183 -0.031012682 0.48857623 0.26098013 -0.04062317
-0.3710901 0.5814224 0.6525052 0.4893794 0.4625796 0.113145314 0.10764877 -0.19808508
-0.3306157 0.32096496 0.34023228 -0.08631195 0.2721585 0.024899872 0.27640998 0.32762143
-0.2954828 -0.13983928 -0.32829437 -0.4882156 0.19962008 0.22047979 -0.33516252 0.05569865
0.042103946 0.023685124 0.1474983 0.38802478 -0.08530429 -0.08341714 -0.084659845 0.10680703
0.2200652 -0.052931476 0.18607701 0.3366964 -0.33698496 0.11321331 -0.222039 -0.36120662
0.21016756 0.10259267 -0.124293454 -0.028470738 -0.12288475 0.10438051 -0.24922511 0.16022749
0.07709856 -0.0400172 -0.18002334 0.14661251 -0.14627555 -0.04036937 -0.24887104 -0.19758658
0.06447103 -0.12195705 0.07476643 0.09504782 0.05067518 0.010005582 -0.15587687 0.17859894
0.05226448 0.006676115 0.07555663 -0.15639946 0.11778836 0.16962877 0.11258614 0.18331914
0.15068762 -0.064816035 0.11556646 0.15284668 -0.07568519 0.13777614 0.1749782 -0.2777562
0.04579723 -0.10063389 0.30187783 0.08597182 -0.013245594 -0.010278903 -0.06049662 -0.092663765
0.11474484 -0.11984286 -0.0934187 -0.1572225 0.18710628 -0.12523286 0.1687662 0.14302352
0.007332279 -0.11594699 0.13478553 -0.08651365 0.16593862 -0.081323005 0.034895606 -0.13265368
00000000: 9653 2cbf 27ae 863e 4017 fd3d 960e c33d
00000010: 728f e6bd 4c10 1c3e e0b2 85bd 1cb9 5f3c
00000020: 2351 a1be 55e0 3fbb 3f1d 0bbd 5ff8 84bd
00000030: 7630 3d3e 150d eebc c371 49be 3a7c 3c3e
00000040: 9e3d 6e3d 5c99 2f3e f6c2 e0bd 401d f43e
00000050: cdb1 06be 2522 d8be 3a3c a6be 2226 55bd
00000060: 80cc 3abe de1a f2be 91c1 8e3c 186b b1bd
00000070: 6288 07bf 5d19 49bd 833b 683d b877 fd3e
00000080: f9cf e2be d622 90be 1211 02be 0a8a 013f
00000090: d17f 54be 30b0 1c3c 80d5 67bc c28d 9b3e
000000a0: 75de 243f b743 8f3e 2fc0 c0bd 3042 d53e
000000b0: 9690 bf3e 4a7c b03e 3291 aa3e c103 863e
000000c0: 63f0 a3be aaae 6c3e 89df eabd 2186 c53e
000000d0: 2d98 05bd 79e8 23be e5f4 1cbe 2415 003e
000000e0: cee1 3a3e d02e 663d 4c5c 18be 6599 f93e
000000f0: 5d47 5d3f 5f24 8bbd 3689 16bf 0e70 323e
00000100: 2f6b 763d e924 3abe 7de2 203f 0dbd 0abf
00000110: c611 95bd 3cb2 cebe a7ac 233e 4dcf af3a
00000120: d340 3d3f f08d d13e 52c2 363e 4a31 c4be
00000130: 73d0 893d 1495 1d3f 9c08 043f d82f c4bc
00000140: bc57 743d 8f15 133e 3506 edba 4e4c b3be
00000150: 70c5 93bd 646e 8dbd 6ba2 8b3e 1435 03be
00000160: 0152 b33e f754 08be db94 0abf 21e7 93be
00000170: 7840 0b3c 9763 cfbe e353 13be 0323 c4be
00000180: 7e5b 383f 7b5b d0bc 1df9 62be f3d7 783d
00000190: eecd 8ebd ddb9 94be a5d5 2dbe 719e 8abe
000001a0: a291 00bf 4e31 573e bc67 2d3e d6f5 03be
000001b0: e31f c0be 592b 73be 82a5 773e c16a e43c
000001c0: 9418 82be 76dd 29be 98cc bfbd 7cb6 01bf
000001d0: 718c 69be 1911 7bbd 0395 92bd 3052 8dbe
000001e0: 215a 84bc 001a 62be 1eb3 b1bd 7f41 1bbf
000001f0: 9277 bfbe a019 5a3e 0ad7 af3e 9726 a8bc
00000200: 8737 0d3f 068f efbd a89e e5be 5d61 d53e
00000210: ef4b 973d ddc2 b0bd 4dec 55be f5cc 82be
00000220: 2026 dcbe 243f 15be 62f9 b6be 6999 f9bc
00000230: 3ab1 513d 17ef 2abf 4ae4 14be 6c6b 4d3d
00000240: 60d1 75be a8f1 38be e933 553e 5688 89be
00000250: 4f0e febc aa26 fa3e 309f 853e 7b64 26bd
00000260: 86ff bdbe 19d8 143f 950a 273f f08f fa3e
00000270: 3cd7 ec3e bbb8 e73d f576 dc3d d1d6 4abe
00000280: 7646 a9be 8555 a43e ed32 ae3e 52c4 b0bd
00000290: 5c58 8b3e d1fa cb3c 9c85 8d3e ffbd a73e
000002a0: 8649 97be 0732 0fbe 3316 a8be 65f7 f9be
000002b0: 3569 4c3e 74c5 613e 6c9a abbe 4524 643d
000002c0: 3075 2c3d 4e07 c23c cb09 173e 2fab c63e
000002d0: 04b4 aebd 9bd6 aabd 2462 adbd a5bd da3d
000002e0: c658 613e adce 58bd f98a 3e3e 7863 ac3e
000002f0: 4b89 acbe 61dc e73d 315e 63be 13f0 b8be
00000300: 2a36 573e 1b1c d23d 918d febd 773b e9bc
00000310: 00ab fbbd 73c5 d53d de34 7fbe ad12 243e
00000320: dae5 9d3d 13e9 23bd 0a58 38be 9721 163e
00000330: 42c9 15be 5a5a 25bd 0dd8 7ebe 2354 4abe
00000340: 6309 843d 9ec4 f9bd 241f 993d 6ea8 c23d
00000350: c790 4f3d 74ee 233c 309e 1fbe a4e2 363e
00000360: 4813 563d 50c3 da3b 6fbd 9a3d 2e27 20be
00000370: 063b f13d 2ab3 2d3e 9093 e63d 03b8 3b3e
00000380: db4d 1a3e 45be 84bd 1cae ec3d d783 1c3e
00000390: d600 9bbd 3015 0d3e 7c2d 333e 1036 8ebe
000003a0: e095 3b3d 2419 cebd bb8f 9a3e fe11 b03d
000003b0: 0c04 59bc d868 28bc 4ecb 77bd 80c6 bdbd
000003c0: 58ff ea3d 2c70 f5bd 4e52 bfbd effe 20be
000003d0: ca98 3f3e 0b3d 00be 0cd1 2c3e c274 123e
000003e0: 9d43 f03b 9e75 edbd 3805 0a3e 122e b1bd
000003f0: d0eb 293e ad8c a6bd b2ee 0e3d 5ed6 07be

dist.3.linear.bias f4 [7]
0.056801416 0.20556554 0.049155753 -0.14175045 -0.24799223 -0.054978006 -0.19423576
00000000: 9aa8 683d c67f 523e 8b57 493d 0827 11be
00000010: adf1 7dbe 9e30 61bd bde5 46be
