BLIP/RL/trained_models/ppo/2023-01-17_minigrid-tb-ft-5e5-doorkey-wallgap-lavagap-redbluedoor_fine-tuning_1_task_3.pth (torch, 735859 bytes, 16 tensors)

features.actor.0.weight f4 [64, 2739]
0	0x3bc95ed9	0.00614534
1	0x3be68886	0.007035318
2	0x3c2dbfff	0.0106048575
3	0x3db52958	0.08845776
4	0x3d16c6b8	0.036810607
5	0x3dc4e1d1	0.096133836
6	0xbe2d9d6e	-0.16954586
7	0xbde928b7	-0.11384719
8	0xbe17f5c8	-0.14839852
9	0xbea6e8b6	-0.3259942
10	0xbe0ea85a	-0.13931409
11	0xbe5af443	-0.21382241
12	0x3eea2ffa	0.45739728
13	0x3e148500	0.1450386
14	0x3e16fad5	0.14744122
15	0x3edb681c	0.42852867
16	0x3e0dff9d	0.1386704
17	0x3dbe715c	0.09298965
18	0xbe0f849b	-0.14015429
19	0x3cc292ab	0.023751577
20	0x3dd4d13f	0.10391473
21	0x3dbfb1d7	0.09360092
22	0x3dc3c03d	0.09558151
23	0x3dc4d073	0.09610071
24	0x3c17eb2f	0.009272381
25	0x3ca172d1	0.019708069
26	0xbd7d6029	-0.061859284
27	0xbe037fa1	-0.12841655
28	0xbe1d631a	-0.15369835
29	0xbdc67876	-0.09690945
30	0x3e9fbfe1	0.3120108
31	0xbd1e2434	-0.038608745
32	0x3e8c1c67	0.2736542
33	0x3da0cb62	0.07851292
34	0xbdbb69a8	-0.09151012
35	0x3e6bfdd2	0.23046044
36	0x3e66a7f5	0.22525008
37	0x3e5c7ea1	0.2153268
38	0x3da2e917	0.079546146
39	0xbe2086b0	-0.15676379
40	0xbcc730c7	-0.024315251
41	0xbe34fa4c	-0.17673606
42	0x3e64614f	0.22302745
43	0x3e0cbd42	0.13744071
44	0xbd8a9429	-0.067665406
45	0x3e5ca14b	0.21545903
46	0x3e3a6805	0.18203743
47	0x3d16ded5	0.036833603
48	0x3d41e9c8	0.04734209
49	0x3daa4e32	0.08315696
50	0x3a241079	0.0006258558
51	0x3e48fd41	0.19627859
52	0x3e0129a2	0.12613538
53	0x3cb8c22c	0.022553526
54	0x3d78a366	0.060702704
55	0xbe5d4b06	-0.2161065
56	0x3e986b15	0.29769197
57	0x3eb10c2c	0.345796
58	0xbe922b88	-0.28548837
59	0x3f2444f0	0.6416769
60	0xbf19c85f	-0.6007137
61	0xbde768cb	-0.112992845
62	0xbe989faa	-0.29809314
63	0x3e0b5e31	0.1361015
64	0x3d2ee4b4	0.042698577
65	0x3daf090f	0.0854665
66	0x3e3fa677	0.18715845
67	0x3d20ce41	0.0392592
68	0xbab8f5f9	-0.0014111392
69	0x3cc906ff	0.024539469
70	0xbc7da40f	-0.015481009
71	0xbcd73d1e	-0.02627426
72	0x3e7b7f23	0.24560218
73	0x3d549607	0.05190089
74	0xbd5849b5	-0.052804668
75	0x3e82b10a	0.25525695
76	0xbed06d4a	-0.4070838
77	0x3e3509b4	0.17679483
78	0xbc94f33e	-0.018182393
79	0xbf167d87	-0.5878529
80	0x3e598655	0.2124265
81	0xbe937817	-0.2880256
82	0xbe94baf0	-0.29048872
83	0xbb969330	-0.004595183
84	0x3e25ec63	0.16203456
85	0x3b959f91	0.004566141
86	0x3b07be08	0.0020712633
87	0x3e117473	0.14204578
88	0x3d00d36f	0.03145164
89	0xbc975aee	-0.018475976
90	0x3d2184a4	0.039433137
91	0x3d6fb9c0	0.058526754
92	0xbd8bccb8	-0.068261564
93	0x3eec581b	0.4616097
94	0x3e5127ac	0.2042529
95	0xbdf39b49	-0.11894853
96	0x3d028c01	0.0318718
97	0xbc346e03	-0.011012557
98	0x3e6e3e66	0.2326599
99	0x3ee0b7e5	0.438903
100	0x3e1b3ea7	0.15160619
101	0x3ea7dcce	0.32785648
102	0x3d9074b7	0.070535116
103	0x3f0b99d3	0.5453159
104	0x3d9e7783	0.07737639
105	0x3e21e7e1	0.15811111
106	0x3d5a996d	0.053368974
107	0xbd9f4572	-0.077769175
108	0x3e3b019a	0.1826233
109	0x3da16a98	0.07881659
110	0x3cfc583f	0.030803798
111	0x3d318470	0.043339193
112	0xbd21617a	-0.0393996
113	0xbe09a132	-0.13440397
114	0x3e9fe5b5	0.3122994
115	0x3db1aa8e	0.08675109
116	0x3e8b9e78	0.2726934
117	0xbd6ae8f8	-0.057351083
118	0xbe87acef	-0.26499125
119	0xbe1b837b	-0.15186875
120	0x3e4c80cb	0.19971006
121	0x3e34dcab	0.17662303
122	0x3ea82868	0.32843328
123	0xbf23565e	-0.6380366
124	0x3e6a26fa	0.22866431
125	0x3e284738	0.16433418
126	0x3e938ee3	0.2881995
127	0x3d733587	0.05937722
128	0xbc0e75fa	-0.00869512
129	0x3e4bd64c	0.19905967
130	0x3dd1bb36	0.10240786
131	0xbd6855fe	-0.056722634
132	0xbe2a0a60	-0.1660552
133	0xbe2315bc	-0.1592626
134	0x3e2a6050	0.16638303
135	0xbda0f590	-0.07859337
136	0xbe2efceb	-0.17088668
137	0xbd83f9e9	-0.06444151
138	0xbea72c3e	-0.32650942
139	0xbd5d5bb1	-0.054042522
140	0x3d383129	0.044968758
141	0x3e00dbbe	0.12583825
142	0xbca638b7	-0.020290716
143	0xbe02d65c	-0.12777084
144	0xbed34a1d	-0.4126748
145	0xbd1ec527	-0.038762238
146	0xbe682e3e	-0.2267389
147	0xb9b518ff	-0.00034541634
148	0xbc8833dd	-0.016626293
149	0x3c844989	0.016148346
150	0xbcc54b70	-0.024083823
151	0x3cb21765	0.021739671
152	0xbd5e148c	-0.054218814
153	0x3d665c19	0.056240175
154	0xbcdea590	-0.027178556
155	0xbc743299	-0.014904642
156	0x3d097aa4	0.033564225
157	0xbd0984af	-0.033573803
158	0xbd364c17	-0.04450616
159	0xbb7bc220	-0.0038415268
160	0xba25b73d	-0.0006321555
161	0x3d1e1960	0.03859842
162	0xbd346555	-0.04404195
163	0x3c3cc0e2	0.011520596
164	0xbd490063	-0.049072634
165	0x3cb8436e	0.02249309
166	0x3c34266d	0.01099549
167	0xbdfca23c	-0.12335631
168	0xbcba7001	-0.022758486
169	0xbcbf9f2b	-0.023391327
170	0xbc3c5164	-0.011494014
171	0xbb289003	-0.0025720603
172	0x3bbc4404	0.005745413
173	0x3c9dc6d5	0.01925985
174	0xbbe4ffcd	-0.0069885016
175	0x3bcb36d3	0.006201604
176	0xbc8d2326	-0.017228674
177	0x3ce6a451	0.028154524
178	0x3c9cbad7	0.01913206
179	0x3c7a0911	0.015260951
180	0x3d142276	0.036165677
181	0xbd254bf6	-0.040355645
182	0xbcf2cc0e	-0.029638316
183	0x3c15b64d	0.009137702
184	0x3b48664e	0.0030578556
185	0xbbe5baf0	-0.00701081
186	0x3cb21e58	0.021742985
187	0x3c72fdfd	0.014831063
188	0x3d99788d	0.07493696
189	0x3d614d1a	0.05500517
190	0xb82f2167	-4.175436e-05
191	0xbc955305	-0.018228063
192	0xbe07882d	-0.1323554
193	0x3c83a208	0.016068473
194	0x3c780e20	0.015140086
195	0xbc5a44b5	-0.013322045
196	0x3d1b4b9a	0.037913896
197	0xbbf62add	-0.007512434
198	0x3c6d2974	0.014475215
199	0x3d0e13cb	0.034686845
200	0xbca7ef69	-0.020499902
201	0x3d181894	0.037132815
202	0x3c89a617	0.01680283
203	0x3b4e62cb	0.003149199
204	0x3c991bb7	0.018689973
205	0xbd81ef3a	-0.06344457
206	0x3b981c1e	0.0046420237
207	0x3c7beff9	0.015377038
208	0x3c19dded	0.00939129
209	0x3c6cf38c	0.014462363
210	0xbc3b68cd	-0.011438561
211	0x3cc1b140	0.02364409
212	0x3afd07c5	0.0019304684
213	0x3bdb3459	0.00668959
214	0xbca77eaf	-0.02044615
215	0x3c8dffed	0.017333949
216	0x3ccf4364	0.025300689
217	0x3d1e160b	0.03859524
218	0xbc2874e9	-0.01028178
219	0x3c3aea27	0.011408365
220	0x3cf27bf7	0.029600127
221	0x3d0d209b	0.034454923
222	0xbd36ce9a	-0.044630624
223	0x3cdd8309	0.027040021
224	0x3ca11c81	0.019666912
225	0xbc8bb2dc	-0.01705306
226	0xbc3ebc67	-0.011641598
227	0xbc6241d3	-0.013809639
228	0x3c204589	0.0097822035
229	0x3d19dd97	0.03756484
230	0xbcbddf08	-0.023177639
231	0xbdac0e84	-0.08401206
232	0x3bf6dfb8	0.0075339936
233	0xbafd7ce8	-0.0019339593
234	0xbbb66a2a	-0.005566855
235	0x3d8661aa	0.06561597
236	0x3ce0157f	0.027354
237	0xbd1deda1	-0.0385567
238	0x3bc821e4	0.0061075557
239	0xbc499be1	-0.012305231
240	0x3b72b170	0.003703203
241	0x3d3e638c	0.046481654
242	0x3d5a8fc5	0.053359766
243	0x3c4f946f	0.012669667
244	0xbc0bed7f	-0.00854051
245	0xbcc93548	-0.02456154
246	0xbd80b4f3	-0.06284513
247	0xbd291425	-0.041278977
248	0xbd20838a	-0.039187945
249	0x3c91a278	0.017777666
250	0xbaadfbf1	-0.0013273937
251	0xbcd834c1	-0.026392343
252	0xbcf197b2	-0.02949128
253	0xbd1d1a54	-0.038355187
254	0xbe2d9771	-0.16952302
255	0xbcf0d3d1	-0.029397877

features.actor.0.bias f4 [64]
0	0xbe49269e	-0.19643638
1	0x3f5e4553	0.8682453
2	0xbe866ae0	-0.26253414
3	0x3ee7f016	0.4530036
4	0x3e89ffbc	0.26952922
5	0x3e604030	0.21899486
6	0x3e9c409a	0.30518037
7	0xbcb4c43b	-0.022066226
8	0x3ef5bce1	0.47995666
9	0xbe10b0ac	-0.14129895
10	0x3eac3214	0.33631957
11	0x3e3193ac	0.17341489
12	0x3cf2e87d	0.029651875
13	0xbf60c52e	-0.8780087
14	0x3dd71d77	0.10503667
15	0x3e8057af	0.25066897
16	0x3e5b7e1c	0.21434826
17	0xbf03838b	-0.51372594
18	0xbf21832a	-0.63090765
19	0x3e68d036	0.22735676
20	0xbec8af68	-0.39196324
21	0xbea0184a	-0.3126853
22	0x3f6f26dc	0.9341867
23	0xbeb6cc79	-0.35702875
24	0xbf5513ec	-0.83233523
25	0x3ee320f2	0.44361073
26	0xbe3af08b	-0.18255822
27	0xbed9ae5e	-0.42515844
28	0xbe581bcf	-0.21104358
29	0xbe8c4349	-0.27395085
30	0xbf49fe55	-0.78903705
31	0x3e9751a0	0.29554462
32	0x3ee802f3	0.4531475
33	0x3e11625f	0.14197682
34	0xbf47e2a0	-0.7808018
35	0x3eae109c	0.33997047
36	0x3f205956	0.62636316
37	0xbf94bfc5	-1.1621023
38	0xbe4b8198	-0.19873655
39	0xbd93e3bc	-0.07221171
40	0xbf3b9c07	-0.73284954
41	0xbe9088bf	-0.2822933
42	0x3f24902f	0.64282507
43	0x3dd80ae9	0.10548956
44	0xbf6a0438	-0.9141269
45	0x3f013f9f	0.50487703
46	0x3eb83d6f	0.3598437
47	0xbeb0e66b	-0.34550795
48	0x3e806e10	0.2508397
49	0xbe58b284	-0.21161848
50	0xbf676f0b	-0.90403813
51	0xbf0611aa	-0.52370703
52	0xbe7a72e2	-0.24457887
53	0x3e6b6252	0.22986725
54	0x3edb1250	0.4278741
55	0x3dd0af3b	0.101896726
56	0x3f2965d7	0.6617102
57	0xbf409389	-0.7522512
58	0xbf2c6906	-0.67347753
59	0xbedea132	-0.43482357
60	0xbdb4d94a	-0.08830507
61	0xbf53afca	-0.8269011
62	0xbdd726b7	-0.10505431
63	0x3c24b2e9	0.010052421

features.actor.2.weight f4 [64, 64]
0	0x3f0487ee	0.5176991
1	0x3dd9ed99	0.10641021
2	0xbe6c1750	-0.23055768
3	0x3b9f000c	0.0048523005
4	0x3ea5e87c	0.32403934
5	0xbe52dc54	-0.20591861
6	0x3f00751a	0.5017868
7	0xbed3e53b	-0.41385826
8	0x3e35d5fa	0.17757407
9	0x3ddf3e70	0.10900581
10	0xbefab5be	-0.48966783
11	0xbeb94db8	-0.36192107
12	0x3dd3ef53	0.10348382
13	0xbd5ae3f6	-0.053440057
14	0xbf3682da	-0.71293414
15	0xbeb615a5	-0.35563388
16	0x3eaac354	0.3335215
17	0x3eb210bd	0.34778395
18	0xbc67ad05	-0.014140372
19	0x3e39f96d	0.18161555
20	0x3f531ead	0.8246868
21	0xbbba6f2c	-0.0056895223
22	0x3cc9d6fa	0.024638642
23	0xbe24f3d2	-0.16108635
24	0x3e8af985	0.27143493
25	0x3d4e8493	0.0504194
26	0xbea037c8	-0.31292558
27	0x3e38a755	0.18032582
28	0xbd4844c8	-0.04889372
29	0xbd14df9b	-0.03634606
30	0x3f1f47d4	0.62218976
31	0xbe095362	-0.13410714
32	0x3daaf697	0.083478145
33	0xbeb0bd34	-0.3451935
34	0x3d8fad9c	0.07015535
35	0x3ea1c3e0	0.31594753
36	0xbe8d6247	-0.27614042
37	0x3e5fe62b	0.21865146
38	0x3e182de6	0.14861259
39	0x3f04ab02	0.5182344
40	0x3ea2474a	0.31695014
41	0xbb16d0cb	-0.0023012634
42	0xbd965592	-0.0734054
43	0x3ea0e5d6	0.3142535
44	0xbe569c6b	-0.20958106
45	0xbe4d9b68	-0.20078814
46	0xbc11e690	-0.008905068
47	0xbe506b66	-0.20353469
48	0xbe8d89aa	-0.27644092
49	0xbe967274	-0.29384196
50	0x3e98ea01	0.2986603
51	0x3e014238	0.12622917
52	0x3e2ba259	0.1676115
53	0xbeb4f7e3	-0.35345373
54	0xbf192bf9	-0.5983272
55	0x3f29db3f	0.6635017
56	0x3ecf6dcf	0.40513465
57	0xbd810a75	-0.06300823
58	0x3dddc9c1	0.10829497
59	0xbe322148	-0.17395508
60	0xbed58a6e	-0.41707176
61	0x3dc2b711	0.095075734
62	0x3d931a21	0.07182718
63	0xbf948b89	-1.1605083
64	0xbeb155ba	-0.34635717
65	0x3e99f933	0.30072936
66	0xbd474636	-0.048650943
67	0x3dfb9521	0.122843035
68	0x3df31d34	0.118708044
69	0x3aecc129	0.0018062937
70	0x3d803ac0	0.06261206
71	0x3e649982	0.22324184
72	0xbe486feb	-0.19573943
73	0x3e0aaa5f	0.13541554
74	0x3f1eceff	0.620346
75	0x3f9ca042	1.2236407
76	0xbe0f4f10	-0.13995004
77	0x3ea32dc0	0.31870842
78	0x3e6015cf	0.2188332
79	0xbea77ad6	-0.32710904
80	0xbee98fb1	-0.4561744
81	0xbe1c22de	-0.15247676
82	0x3f12b656	0.5730947
83	0x3d7d8ca1	0.061901692
84	0xbeacfa30	-0.33784628
85	0xbf280e9b	-0.65647286
86	0xbda377a0	-0.07981801
87	0xbf076a8c	-0.5289695
88	0xbf291cef	-0.66059774
89	0x3c83bc3a	0.016080964
90	0xbe9f5d94	-0.31126082
91	0xbf03ca85	-0.51480895
92	0x3ecad2a4	0.3961383
93	0xbc608170	-0.013702735
94	0x3dc12869	0.09431536
95	0x3f66bee4	0.90135026
96	0xbd7f31d8	-0.062303394
97	0x3e49f2b5	0.19721492
98	0x3e283a11	0.164284
99	0x3e32e671	0.17470719
100	0x3f0c910e	0.54908836
101	0x3d4d5469	0.050129328
102	0xbd048c91	-0.032360617
103	0xbf5a8390	-0.85357
104	0xbd48a1c2	-0.04898239
105	0x3f841be1	1.0321008
106	0xbe92786c	-0.286075
107	0xbe8e4230	-0.27784872
108	0xbf1287ec	-0.5723865
109	0x3e2fc1af	0.17163728
110	0x3e18ace2	0.149097
111	0x3e2f7d31	0.171376
112	0xbdef0739	-0.116712995
113	0xbf2e16b8	-0.68003416
114	0xbe6daac5	-0.23209675
115	0xbf34e563	-0.70662516
116	0xbf2fae49	-0.68625313
117	0x3e6d2109	0.23157133
118	0x3e647523	0.22310309
119	0xbe2c3d16	-0.16820177
120	0x3d701bf9	0.058620427
121	0xbe7c7cd0	-0.24656987
122	0x3e77770b	0.24166505
123	0xbec3b62b	-0.3822492
124	0x3e3b3b8c	0.18284434
125	0xbe461a14	-0.19345886
126	0xbee590bb	-0.44836983
127	0xbd8fb082	-0.07016088
128	0xbd586b86	-0.052836917
129	0xbb6a610a	-0.0035763406
130	0xbe8a4471	-0.27005342
131	0x3ee0d494	0.43912184
132	0x3e2ec4bb	0.17067234
133	0x3e95134b	0.29116282
134	0x3e271b31	0.16318966
135	0xbf49a950	-0.78773975
136	0xbed141ea	-0.408706
137	0xbe9ec708	-0.31011224
138	0xbced6edb	-0.028983524
139	0xbe5184ef	-0.20460866
140	0x3de4ebc0	0.11177778
141	0xbebf14fa	-0.3732069
142	0xbf130c7c	-0.57440925
143	0x3d316556	0.043309532
144	0x3e4490bb	0.19195835
145	0xbe2af5f5	-0.16695388
146	0xbe439615	-0.1910022
147	0x3f496c98	0.78681326
148	0x3f1f5e76	0.6225351
149	0xbea4e782	-0.32207876
150	0xbd75c453	-0.060001682
151	0x3f464c1f	0.774599
152	0xbe85d770	-0.26140928
153	0x3e2931b2	0.16522864
154	0x3e371e0c	0.17882556
155	0xbe33a474	-0.17543203
156	0xbf234002	-0.63769543
157	0xbeb5d525	-0.3551418
158	0x3d99bfce	0.07507287
159	0x3e0784ab	0.13234203
160	0xbe4ff61b	-0.20308726
161	0xbf3f35fe	-0.7469176
162	0xbf56a6ca	-0.8384825
163	0xbeaface1	-0.34311584
164	0x3ebecddb	0.3726643
165	0x3eb5b792	0.35491616
166	0x3ea21f29	0.31664398
167	0x3dc13f41	0.09435893
168	0xbf076cab	-0.5290019
169	0xbec8472e	-0.39116806
170	0x3dc45357	0.09586208
171	0xbe631d01	-0.22179033
172	0x3e28a7dc	0.16470283
173	0xbe4bac8d	-0.19890042
174	0x3eba271c	0.36357963
175	0x3dd4a1a2	0.103823915
176	0x3d2d9fc3	0.04238869
177	0x3dd17e1e	0.10229133
178	0xbeaacb5f	-0.33358285
179	0xbead4df8	-0.33848548
180	0xbe8c99bc	-0.2746104
181	0xbd8ae1ed	-0.06781373
182	0x3e865c09	0.26242092
183	0xbe0267e8	-0.1273495
184	0x3eeb02fd	0.45900717
185	0x3ebab693	0.36467418
186	0xbd27266e	-0.040808134
187	0xbe196028	-0.14978087
188	0x3e98b62a	0.2982648
189	0xbd85b7f1	-0.06529225
190	0xbece85e0	-0.40336514
191	0xbee2b4b0	-0.4427848
192	0xbea25605	-0.31706253
193	0x3eaab7d5	0.33343378
194	0xbd97a0eb	-0.074037395
195	0x3e0e83ec	0.13917512
196	0x3e006628	0.1253897
197	0x3d7b0926	0.06128802
198	0x3d8de98d	0.06929312
199	0xbea1eb19	-0.31624678
200	0x3f0ab6c1	0.5418511
201	0xbf18cc08	-0.59686327
202	0xbd2d0fb7	-0.042251315
203	0x3db8da68	0.09026033
204	0xbecb8f73	-0.3975788
205	0xbd0de733	-0.034644317
206	0x3e8f04f4	0.27933466
207	0xbeddd387	-0.43325445
208	0x3e3966c7	0.18105613
209	0x3cb31c72	0.02186415
210	0xbe047c00	-0.12937927
211	0x3f13f677	0.5779795
212	0x3e2f2a7b	0.17106049
213	0xbec0d4da	-0.37662393
214	0x3f03da6e	0.5150517
215	0xbecfcf67	-0.40587923
216	0xbde3d494	-0.111245304
217	0xbdd970d5	-0.10617224
218	0xbf1cdce5	-0.6127456
219	0xbeedb5dc	-0.4642781
220	0xbe55bb47	-0.20872222
221	0x3c618ff5	0.013767232
222	0xbe930b50	-0.28719568
223	0xbe49f79c	-0.19723362
224	0x3e26bc85	0.16282852
225	0xbf127d51	-0.5722247
226	0xbec5682d	-0.38556042
227	0xbd33323a	-0.04374907
228	0x3f0c714f	0.54860395
229	0xbe1b309f	-0.15155266
230	0xbe688160	-0.22705603
231	0xbe90ff11	-0.283196
232	0xbf055ecb	-0.5209777
233	0xbf0323e5	-0.51226646
234	0x3d93bb36	0.07213442
235	0xbd51ab16	-0.05118855
236	0xbe026c55	-0.12736638
237	0x3cebb738	0.028773889
238	0x3e9142ee	0.28371376
239	0xbb157fa4	-0.0022811675
240	0xbd578b22	-0.05262292
241	0x3d28dbe6	0.041225336
242	0xbedb4c06	-0.4283144
243	0x3e7e6524	0.2484327
244	0x3c8cf88e	0.017208364
245	0x3ec49ef4	0.38402522
246	0x3e953549	0.29142216
247	0xbda7f671	-0.08201302
248	0x3f55855c	0.83406615
249	0x3f118ca7	0.56855243
250	0xbdfdb733	-0.12388458
251	0xbe245d64	-0.1605125
252	0xbddae1f1	-0.10687626
253	0x3e36cee8	0.17852366
254	0xbedcf5ea	-0.43156368
255	0x3e13cfe5	0.14434774

features.actor.2.bias f4 [64]
0	0xbe84c066	-0.25928038
1	0x3e0e0130	0.1386764
2	0x3ead80ce	0.33887333
3	0x3fa1a3a8	1.2628069
4	0xbe2a3a52	-0.1662381
5	0xbedc59be	-0.43037218
6	0xbe057c7a	-0.13035765
7	0x3e81109a	0.25207978
8	0xbfb2848d	-1.3946701
9	0x3e2d9faa	0.16955438
10	0x3e6c030c	0.23048037
11	0x3fc7663c	1.5578074
12	0xbe5148c4	-0.20437914
13	0x3dc18eb1	0.09451044
14	0x3f16f871	0.5897284
15	0x3e4f2372	0.20228365
16	0xbfc6c5ec	-1.5529151
17	0x3e0846a3	0.13308196
18	0x3f4458a2	0.7669774
19	0x3d8f7e01	0.07006455
20	0xbe873d88	-0.26414132
21	0xbe59feaa	-0.21288553
22	0x3ecef1f2	0.40418965
23	0xbe1a1afa	-0.15049353
24	0xbe0c36c4	-0.13692766
25	0x3ca6e06e	0.020370688
26	0x3f6dc689	0.92881066
27	0xbe9fc794	-0.31206954
28	0xbed294e5	-0.41129223
29	0x3e9b9c9d	0.30392924
30	0x3f0089bf	0.50210184
31	0xbc8b1e85	-0.016982326
32	0x3ea6f209	0.32606533
33	0xbe6608bb	-0.22464268
34	0xbeb435c6	-0.35197276
35	0xbf35a074	-0.7094796
36	0x3ec50e70	0.38487577
37	0xbfcc0c18	-1.5941191
38	0xbfc73c8c	-1.5565352
39	0xbd84fd13	-0.064935826
40	0x3e8ad99e	0.27119154
41	0x3fb17d93	1.3866447
42	0xbec2ee7b	-0.3807257
43	0xbe4115af	-0.18855928
44	0x3f33f83e	0.7030066
45	0x3e8c75d8	0.27433658
46	0x3dc454b9	0.09586472
47	0x3b8a9f17	0.004230391
48	0x3f134198	0.57521963
49	0x3ef00672	0.46879917
50	0xbf9aaf68	-1.208478
51	0x3fcec9ed	1.6155373
52	0x3e8ff637	0.28117535
53	0xbeb19a4c	-0.34688032
54	0x3ebb60d8	0.36597323
55	0xbeb593da	-0.35464364
56	0xbf2fbb36	-0.68645036
57	0xbeb26616	-0.3484351
58	0xbf13a26c	-0.5766971
59	0xbda55442	-0.080727115
60	0x4001b98e	2.0269504
61	0x3eb7a21d	0.3586587
62	0x3ed2a10a	0.41138488
63	0x3bc3c8bc	0.005974857

critic.0.weight f4 [1, 64]
0	0xbca41a4a	-0.020032067
1	0xbc61eaf6	-0.013788929
2	0x3d586a00	0.052835464
3	0xbc9a0d25	-0.018805096
4	0xbc363fab	-0.011123578
5	0xbd511147	-0.051041868
6	0x3b8b94ca	0.0042596804
7	0xbba5d773	-0.005061084
8	0xbebd8dab	-0.37022147
9	0x3d1152b7	0.035479274
10	0x3d00da57	0.031458225
11	0x3f000f9c	0.5002382
12	0xbd1211cf	-0.035661515
13	0xbaacdb4b	-0.0013187913
14	0xbc2a15aa	-0.010381142
15	0x3d1f92a2	0.0389582
16	0xbe926fd5	-0.28600946
17	0x3db8ea2f	0.09029042
18	0x3d272726	0.04080882
19	0xbd325b57	-0.04354414
20	0xbd78ccb6	-0.060742103
21	0x3c8305eb	0.015994033
22	0x3d41a93a	0.047280528
23	0x3d036a06	0.032083534
24	0x3cb5970b	0.02216675
25	0xbd0b2565	-0.03397121
26	0x3d722d96	0.059125505
27	0x3c53d62c	0.0129294805
28	0xbc816a8a	-0.015797872
29	0xbb9bd93a	-0.00475612
30	0xbb916956	-0.004437606
31	0x3ca28e64	0.019843288
32	0xbb888755	-0.0041665235
33	0x3cc8e18c	0.024521612
34	0xbd9bb690	-0.076031804
35	0xbd53d959	-0.05172095
36	0x3db1ed18	0.086878
37	0xbed2bb85	-0.4115869
38	0xbf061704	-0.5237887
39	0x3c15a5b1	0.009133742
40	0x3d04a432	0.03238315
41	0x3805edef	3.1931264e-05
42	0xbcc4954c	-0.023996972
43	0xbcdd1e9c	-0.026992135
44	0xbd0495e4	-0.03236951
45	0x3cc740b8	0.024322852
46	0x3d595b59	0.05306563
47	0xbbd89339	-0.006609347
48	0xbc0f95a5	-0.008763705
49	0x3c2f82ae	0.010712309
50	0xbe9dc65b	-0.30815396
51	0x3ed385bb	0.41312966
52	0x3bc84942	0.0061122486
53	0x3d1b3a97	0.037897673
54	0x3c3c6ae6	0.011500096
55	0xbd001407	-0.0312691
56	0x3c4dc3e2	0.012558909
57	0xbd15136c	-0.036395475
58	0xbc20324d	-0.009777618
59	0xbd6c7f17	-0.05773839
60	0x3ecb9f67	0.39770052
61	0x3c432e6f	0.011912926
62	0x3d24e107	0.040253665
63	0xbd0fe31c	-0.035128698

critic.1.weight f4 [1, 64]
0	0xbc79f4ad	-0.015256089
1	0x3ce9a8b0	0.02852282
2	0xbd2e3ebc	-0.042540297
3	0x3dd4aac4	0.103841335
4	0xbc4a6dbe	-0.012355266
5	0xbb8a59d9	-0.0042221365
6	0xbcb613cc	-0.022226237
7	0x3cc5b27d	0.024132961
8	0xbd800d08	-0.062524855
9	0x3c896514	0.01677183
10	0xbb9b8b52	-0.004746833
11	0x3c4f25ae	0.012643261
12	0x3c5bab3d	0.013407526
13	0x3c5f6159	0.013634049
14	0x3a8c6218	0.0010710387
15	0x3d0b1de1	0.03396404
16	0xbf08b411	-0.5339976
17	0x3c954edd	0.018226082
18	0x3d66ad27	0.056317475
19	0xbba8b124	-0.00514807
20	0x3c330c0c	0.010928165
21	0xbcf40024	-0.029785223
22	0x3c9fdb58	0.019513771
23	0x3c413121	0.011791498
24	0xbc4db4c5	-0.012555306
25	0xbc2420d2	-0.010017591
26	0x3e7aa217	0.24475895
27	0x3aa5184b	0.0012595741
28	0x3cd17bd5	0.025571743
29	0x3c9b5dca	0.01896562
30	0xbb909a2c	-0.00441291
31	0x3b9c5435	0.0047707804
32	0xbcddaaf7	-0.027059061
33	0x3d692d24	0.056927815
34	0xbd1fc407	-0.039005306
35	0xbaaf4668	-0.0013372423
36	0x3cc75bea	0.02433582
37	0xbe850422	-0.25979716
38	0xbe9f243a	-0.31082326
39	0xbca5b766	-0.020229053
40	0x3aabbb8c	0.0013102158
41	0x3e6b22d8	0.2296251
42	0xbd05aba8	-0.032634407
43	0x3c7086e0	0.014680594
44	0x3a5222e7	0.0008016065
45	0xbbb077c2	-0.00538537
46	0x3c0e0642	0.008668484
47	0x3cae6b5e	0.021291431
48	0x3d0caa82	0.034342296
49	0x3d33d4f7	0.04390427
50	0xbe3b1466	-0.182695
51	0x3e8f3e5d	0.27977267
52	0xbcc006fa	-0.023440827
53	0x3d3b8d00	0.045788765
54	0x3dbd14d0	0.09232485
55	0x3c54831b	0.012970711
56	0xbd508fd4	-0.050918415
57	0xbd06e43c	-0.032932505
58	0xbd213068	-0.039352804
59	0x3c89ce2a	0.01682194
60	0x3eda80b8	0.4267633
61	0x3ca6ba98	0.020352647
62	0x3ccdeafe	0.025136467
63	0xbd144dd8	-0.03620705

critic.2.weight f4 [1, 64]
0	0x3e3f4acd	0.18680878
1	0xbbdb7748	-0.006697569
2	0x3d9c551d	0.076334216
3	0x3e985ab1	0.29756692
4	0xbdf48244	-0.11938909
5	0x3e70ea9c	0.23526996
6	0xbe12fc54	-0.14354068
7	0x3e2232ca	0.15839687
8	0xbeb1bc58	-0.34714007
9	0x3dd6443a	0.10462232
10	0x3e2eb8d7	0.17062698
11	0x3e18097d	0.1484737
12	0x3e1991fa	0.14997092
13	0xbd855bab	-0.06511625
14	0xbe1bd965	-0.15219648
15	0xbe854dab	-0.26035818
16	0x3d434c6d	0.047680307
17	0x3dfbffeb	0.12304672
18	0x3e2932da	0.16523305
19	0xbe388ce9	-0.18022503
20	0xbdaceb58	-0.08443326
21	0xbe6f127f	-0.233469
22	0x3e5f72a3	0.21821074
23	0x3d9e6a63	0.077351354
24	0x3e0018a4	0.125094
25	0xbdc94206	-0.09827046
26	0x3d8f0dfc	0.06985089
27	0xbdcbd97a	-0.0995359
28	0x3cbd4bdb	0.02310746
29	0xbb6efaae	-0.0036465335
30	0x3dffb610	0.124858975
31	0xbcebb01c	-0.028770499
32	0x3e21f8aa	0.15817514
33	0x3e101399	0.14069976
34	0xbdce4b75	-0.10072986
35	0xbe14e503	-0.14540486
36	0xbce17f8b	-0.027526638
37	0xbf183c4a	-0.59466994
38	0xbdc80bd6	-0.097678825
39	0xbd99973b	-0.07499548
40	0xbb26fe0a	-0.002548101
41	0x3ee383d2	0.44436508
42	0x3c817b22	0.015805785
43	0xbdf4ed27	-0.11959296
44	0x3e4ff3c3	0.20307831
45	0xbd80ac2e	-0.06282841
46	0xbd4be2f1	-0.049776975
47	0xbd2f99a6	-0.04287114
48	0xbd44c267	-0.04803696
49	0x3c8a876f	0.016910283
50	0x3d18037a	0.03711269
51	0x3dc0d99b	0.09416505
52	0xbe43bd8e	-0.19115278
53	0x3c1fb5d1	0.009747938
54	0x3e087c5e	0.13328692
55	0x3d606b02	0.05478955
56	0xbe4a09a8	-0.19730246
57	0xbe1fa9ad	-0.1559207
58	0x3d06bbc8	0.032893926
59	0xbce03847	-0.027370585
60	0x3f06d62e	0.5267056
61	0x3e1e1bc4	0.15440279
62	0x3d0adac1	0.033900026
63	0x3e67d042	0.22638038

critic.3.weight f4 [1, 64]
0	0xbc17f87c	-0.009275552
1	0xb9eec95c	-0.00045544922
2	0x3c0147f4	0.00789069
3	0xbbd71b99	-0.006564569
4	0xbb4b1ed0	-0.0030993707
5	0x3b1f020e	0.00242627
6	0x3acf37da	0.0015809492
7	0x3b919df7	0.0044438797
8	0xbb96d39c	-0.0046028625
9	0xbb95b8a5	-0.0045691305
10	0xbb3f6d04	-0.0029209265
11	0x3b496b94	0.0030734288
12	0x3bc978bf	0.0061484273
13	0xbbc0a01b	-0.005878461
14	0x3b2d25b1	0.002642017
15	0x3b2ea91d	0.0026651092
16	0x3bdc9703	0.006731869
17	0x3b614ae0	0.0034376904
18	0x3b853e61	0.004066274
19	0x3bad61fd	0.005291222
20	0xbb4ffc8f	-0.003173623
21	0x3bb018e0	0.005374059
22	0xbb572641	-0.0032829198
23	0xbb6c38b8	-0.003604455
24	0xba310c21	-0.00067538215
25	0xbc07a95b	-0.008280124
26	0x3a941031	0.0011296329
27	0xbc2f5e05	-0.010703568
28	0x3b53973a	0.0032286183
29	0xbc140def	-0.009036525
30	0xbc0d1f8a	-0.0086134765
31	0xbb85ca72	-0.0040829713
32	0x3b87ccfd	0.0041443096
33	0xbb99769b	-0.0046833283
34	0xbaaacabe	-0.0013030393
35	0xbbc92d59	-0.006139439
36	0x3a304075	0.0006723472
37	0xbb6e6259	-0.0036374538
38	0x3c1065a5	0.008813296
39	0xbc0f25db	-0.008737053
40	0xbb453169	-0.0030089265
41	0xbbf8bb83	-0.0075907125
42	0xbc065dfd	-0.0082011195
43	0x3b6de05e	0.0036297063
44	0x3b2dad2b	0.0026500921
45	0x3c06c490	0.008225575
46	0x3a4f0483	0.00078970956
47	0xbb6d0913	-0.0036168739
48	0x3c0c6789	0.008569607
49	0x3c2ba5fe	0.010476587
50	0x3ab5f550	0.0013882313
51	0x3c1882f3	0.0093085645
52	0xbbb0c9e9	-0.0053951633
53	0x3aefd592	0.0018297902
54	0xbc49e675	-0.012323012
55	0xba094a91	-0.00052372465
56	0x3c1bddc4	0.009513322
57	0xbbd46909	-0.0064822477
58	0xbb59a1e6	-0.0033208071
59	0x3c2ddf47	0.0106123155
60	0xbc320697	-0.010865829
61	0x3b2b0e87	0.0026101188
62	0xba32cc8c	-0.0006820641
63	0xbb83455c	-0.004006071

dist.0.linear.weight f4 [7, 64]
0	0x3e37d728	0.1795317
1	0x3e8b83e4	0.27249062
2	0xbed9b857	-0.42523453
3	0x3db8deea	0.090268925
4	0xbec07d85	-0.37595764
5	0x3ed31094	0.41223586
6	0xbca8e331	-0.020616146
7	0xbd6cb017	-0.05778512
8	0xbdc3122f	-0.095249526
9	0x3c5352fb	0.012898202
10	0x3e4df31b	0.20112269
11	0x3da5274a	0.080641344
12	0x3ed05fe2	0.40698153
13	0x3e759bf6	0.23985276
14	0xbd86fe80	-0.06591511
15	0xbd8f4547	-0.069956355
16	0xbe06c804	-0.13162237
17	0xbd932592	-0.071849
18	0xbe16d6b3	-0.14730339
19	0xbc8f1a7a	-0.01746868
20	0xbe9ff22f	-0.3123946
21	0xbcefebf1	-0.02928731
22	0x3dcc7b76	0.09984486
23	0xbd4123be	-0.047153227
24	0x3eef2448	0.46707368
25	0x3e6d5a74	0.23179036
26	0xbea2bda0	-0.31785297
27	0x3e4c1f0e	0.19933721
28	0x3ebeb68f	0.37248656
29	0xbe1c61c7	-0.15271674
30	0x3dee42a4	0.116338044
31	0x3e63df99	0.22253264
32	0xbe853ffb	-0.26025376
33	0x3e89ab30	0.26888418
34	0xbe498eaa	-0.19683328
35	0xbe09d6ee	-0.13460895
36	0x3d8bcedd	0.068265654
37	0x3d365643	0.04451586
38	0xbd84d567	-0.06486016
39	0x3e9b06bb	0.30278572
40	0xbe9f2d1e	-0.3108911
41	0x3e8658f0	0.2623973
42	0xbeba2eeb	-0.3636392
43	0xbe2ab1d1	-0.16669394
44	0xbed31bfc	-0.41232288
45	0x3e531fd7	0.20617615
46	0x3eccda71	0.40010408
47	0xbe39b905	-0.18136986
48	0xbef2f09d	-0.47449198
49	0xbd7b4399	-0.061343763
50	0x3d749e0f	0.05972105
51	0xbb2c1c24	-0.002626189
52	0xbefde9f1	-0.49592546
53	0xbd931503	-0.07181742
54	0xbe882e36	-0.26597756
55	0x3da21c9e	0.079156145
56	0x3eba6c38	0.3641069
57	0xbebd2f07	-0.36949942
58	0xbe0b8a8a	-0.13627067
59	0x3e4bd339	0.19904794
60	0xbe356c24	-0.17717034
61	0x3e9a73c0	0.30166435
62	0x3e9cc6be	0.30620378
63	0x3eedde20	0.4645853
64	0xbe8775f1	-0.2645717
65	0x3e9add26	0.30246848
66	0x3d35ad43	0.04435469
67	0x3e9c9202	0.30580145
68	0x3e9dedbb	0.30845436
69	0xbe1fdb2a	-0.15610948
70	0x3ef78e78	0.48350883
71	0xbd9e122a	-0.07718308
72	0xbdd335ce	-0.10312997
73	0x3ecd7468	0.40127873
74	0xbe8acb9a	-0.2710846
75	0x3da87ca9	0.08226902
76	0xbe825425	-0.25454822
77	0xbef505dc	-0.47856033
78	0xbdc32940	-0.09529352
79	0xbebf5e46	-0.37376612
80	0xbcd18df0	-0.025580376
81	0x3d70486b	0.058662813
82	0x3e8f5ac2	0.2799893
83	0xbde67c0f	-0.11254131
84	0xbe58cca9	-0.21171822
85	0xbf116bd8	-0.5680518
86	0x3e3f9038	0.18707359
87	0xbf039da8	-0.5141244
88	0x3ed1f36c	0.4100603
89	0x3ee7675a	0.45196038
90	0x3e03c350	0.12867475
91	0x3e3c6334	0.18397218
92	0x3d8509b0	0.06495988
93	0xbd1760c4	-0.036957517
94	0x3e685b41	0.2269106
95	0xbf0b1485	-0.54328185
96	0x3d3e56f2	0.046469636
97	0xbee2ed0c	-0.44321477
98	0xbd9175c3	-0.071025394
99	0x3db56dd9	0.088588424
100	0xbe5de11a	-0.216679
101	0xbe2292bb	-0.15876286
102	0xbd9c9b31	-0.07646788
103	0x3edb8df2	0.42881733
104	0xbdd0d669	-0.101971455
105	0x3deae983	0.1147032
106	0xbe503a18	-0.20334661
107	0x3e3b2671	0.18276383
108	0x3e35d1e0	0.17755842
109	0xbeaf58d3	-0.34247455
110	0x3e938efb	0.28820023
111	0xbd999ed0	-0.07500994
112	0xbe27742c	-0.1635291
113	0xbca90ced	-0.020636046
114	0xbde5be3f	-0.11217927
115	0x3e3f06eb	0.18654983
116	0x3ea06a5d	0.3133115
117	0xbeb02ae6	-0.3440773
118	0xbd9c1307	-0.07620817
119	0x3ea822be	0.32839006
120	0x3ba67635	0.0050800093
121	0xbe1ea7ba	-0.1549367
122	0xbc92b95c	-0.017910652
123	0x3e439f3a	0.19103709
124	0x3e43a9ce	0.19107744
125	0xbe91d6a6	-0.28484076
126	0xbe707418	-0.23481786
127	0xbd7b0764	-0.061286345
128	0xbc248bc0	-0.010043085
129	0xbf200d56	-0.6252035
130	0x3e9bb1ef	0.3040919
131	0x3ea76733	0.32695922
132	0xbb13c13a	-0.0022545592
133	0x3e23fbc5	0.16014011
134	0xbe2b1166	-0.16705856
135	0x3f2c0327	0.6719231
136	0xbe10c40e	-0.14137289
137	0xbe2aef4f	-0.16692851
138	0xbd028907	-0.03186896
139	0x3e7fea5b	0.24991743
140	0x3d806454	0.06269136
141	0x3ecc5692	0.39909798
142	0x3edb80d0	0.42871714
143	0x3dd25e2f	0.1027187
144	0xbdbe265c	-0.0928466
145	0x3d420f57	0.04737791
146	0x3e124589	0.14284338
147	0xbde0718d	-0.10959158
148	0x3df38b9e	0.11891864
149	0x3f1ad0e9	0.6047502
150	0x3ebca2d7	0.36842987
151	0x3cd69adb	0.026196888
152	0xbe5e77e0	-0.21725416
153	0xbedc69a6	-0.43049353
154	0x3e3f187a	0.18661681
155	0x3dc651dd	0.09683583
156	0xbe6354e1	-0.22200347
157	0x3e775576	0.24153695
158	0xbe01b099	-0.12665023
159	0x3ecc872d	0.3994688
160	0x3ec695e9	0.38786247
161	0xbc5dad21	-0.013530047
162	0x3ecdbd12	0.40183312
163	0xbe3e3f7d	-0.18578906
164	0x3e8155ad	0.25260678
165	0xbe8ad5e9	-0.27116325
166	0xbe5da7a4	-0.21645981
167	0xbeeb9f82	-0.46020132
168	0x3e51563b	0.2044305
169	0x3d9a40b3	0.07531872
170	0xbe17b90a	-0.1481668
171	0xbd577953	-0.05260594
172	0x3d3e635f	0.046481486
173	0x3e4ab9a2	0.19797376
174	0xbecedd5d	-0.40403262
175	0x3eba4500	0.36380768
176	0x3f1c35eb	0.6101977
177	0xbc093283	-0.008373859
178	0xbe298b43	-0.1655703
179	0x3e8b908f	0.27258727
180	0x3eb973a0	0.36221027
181	0x3ec20e7a	0.3790167
182	0x3d7d413b	0.061829787
183	0x3e858e34	0.26085055
184	0xbe5b94ad	-0.21443434
185	0x3dcbe740	0.09956217
186	0xbdd760f4	-0.10516539
187	0x3d4f41cc	0.05059986
188	0x3e860258	0.26173663
189	0x3e5daca4	0.21647888
190	0x3e67708b	0.22601525
191	0xbee6502e	-0.44983047
192	0xbc8ff0eb	-0.017570933
193	0xbdd3965c	-0.10331413
194	0xbda427f1	-0.08015431
195	0xbf032d5b	-0.5124108
196	0xbee42157	-0.44556686
197	0xbdc8bab6	-0.09801237
198	0xbdff17e8	-0.12455732
199	0xbe6ef9c9	-0.23337473
200	0x3d0b973d	0.03407978
201	0xbd619bee	-0.055080347
202	0xbd72b772	-0.05925698
203	0x3cd4de98	0.025985047
204	0xbdab802c	-0.08374056
205	0x3ce2fef8	0.02770947
206	0xbea41d84	-0.3205377
207	0xbca2a90c	-0.019855998
208	0xbcfcc99a	-0.03085785
209	0xbeb62d76	-0.3558156
210	0x3d36eadd	0.044657577
211	0x3d3153d8	0.04329285
212	0x3de85f9b	0.1134636
213	0xbe18261a	-0.14858285
214	0xbe10df61	-0.14147712
215	0x3e9a32a8	0.30116773
216	0xbe89a6fd	-0.26885214
217	0xbe3b9a02	-0.18320468
218	0xbd803b45	-0.06261305
219	0xbecad88b	-0.39618334
220	0xbbbf1090	-0.005830832
221	0xbe8db465	-0.27676693
222	0xbe50d775	-0.2039469
223	0x3e10fc19	0.14158668
224	0xbeb7b2a7	-0.35878488
225	0x3d1a3b9c	0.037654504
226	0xbede4998	-0.43415523
227	0xbd83757e	-0.06418894
228	0x3e18c3e5	0.14918478
229	0xbd8fc806	-0.07020573
230	0x3cb63046	0.022239815
231	0xbe92a803	-0.28643808
232	0xbd7c16b7	-0.0615451
233	0xbe9e2f6c	-0.30895555
234	0x3efa28fb	0.4885939
235	0xbe36af2c	-0.1784026
236	0x3d2fb221	0.042894486
237	0xbe5b38c9	-0.2140838
238	0xbdadb752	-0.08482231
239	0x3da7817c	0.08178994
240	0xbe3fa4ee	-0.1871526
241	0xbe3d00ea	-0.1845738
242	0x3e18e0a2	0.1492944
243	0x3a619f09	0.0008606767
244	0xbecbf533	-0.3983551
245	0xbc2f5e24	-0.010703597
246	0x3e38bb70	0.18040252
247	0xbeee50e2	-0.46546084
248	0xbdba798c	-0.091052145
249	0xbd82d03c	-0.06387374
250	0xbdec02d7	-0.11523979
251	0xbe421c11	-0.18956019
252	0xbdfd0159	-0.12353773
253	0x3e05d103	0.13068013
254	0xbeb2391b	-0.34809193
255	0xbdbfb187	-0.093600325

dist.0.linear.bias f4 [7]
0	0x3ddcab42	0.10774852
1	0x3e50be19	0.20385017
2	0x3e86f574	0.2635914
3	0xbb64a60f	-0.0034889018
4	0xbdf2d2fd	-0.11856649
5	0xbd8dc145	-0.06921629
6	0xbdb3afea	-0.08773787

dist.1.linear.weight f4 [7, 64]
0	0x3e60167e	0.2188358
1	0x3e142b46	0.14469633
2	0xbe942a35	-0.2893845
3	0xbd289e8a	-0.04116682
4	0xbed0482c	-0.40680063
5	0x3eb6fa21	0.35737708
6	0xbe4b4c8f	-0.19853424
7	0xbdfa9df1	-0.12237156
8	0xbe00e0eb	-0.125858
9	0x3cecf142	0.028923634
10	0x3e9bc8a7	0.30426523
11	0x3d9843e6	0.074348256
12	0x3d7ecb15	0.062205393
13	0x3e89bafc	0.2690047
14	0x3e1f0de3	0.15532641
15	0x3dab89f4	0.08375922
16	0xbe0cd32b	-0.13752429
17	0xbeb4c834	-0.35308993
18	0xbd7b8278	-0.06140372
19	0x3ecacac4	0.39607823
20	0xbe776afa	-0.24161902
21	0x3e0ec0b4	0.13940698
22	0xbd651792	-0.05593068
23	0xbcf5b5bd	-0.029993886
24	0x3e9a084f	0.30084464
25	0x3de8be1a	0.11364384
26	0x3d581584	0.052754894
27	0x3e2c8966	0.16849288
28	0x3e81a130	0.2531829
29	0xbe830c55	-0.25595346
30	0xbe508d52	-0.2036641
31	0x3e0807e5	0.13284262
32	0xbeb54423	-0.35403547
33	0x3ddd85f9	0.10816569
34	0xbec6a470	-0.3879733
35	0xbed6862a	-0.41899234
36	0x3d7a5ef8	0.061125726
37	0xbd91ca19	-0.07118625
38	0xbe5f24d9	-0.217914
39	0x3e176b06	0.1478692
40	0xbe9aa996	-0.3020751
41	0x3dc901a9	0.0981477
42	0xbe0ed67b	-0.13949005
43	0xbeea90f8	-0.45813727
44	0xbe9ffe9e	-0.31248945
45	0x3de000e6	0.10937671
46	0x3dfeedf8	0.12447733
47	0xbe8c629f	-0.27418992
48	0xbf02e040	-0.5112343
49	0xbef82706	-0.48467273
50	0xbe105bf7	-0.14097582
51	0x3de084e2	0.109628454
52	0xbeedbc48	-0.4643271
53	0x3b84334e	0.0040344363
54	0x3c96388e	0.018337514
55	0xbd12b78e	-0.035819583
56	0x3e54ba3d	0.2077417
57	0xbea943d8	-0.33059573
58	0xbe099e81	-0.1343937
59	0x3e7473db	0.2387232
60	0x3e04ba7a	0.1296176
61	0x3e16520f	0.1467974
62	0x3a393fe0	0.0007066708
63	0x3e54b952	0.20773819
64	0xbe9798f7	-0.2960889
65	0x3e299859	0.16562022
66	0x3ddb4c99	0.10707969
67	0x3da31da1	0.07964636
68	0xbd73dfc2	-0.059539564
69	0xbe1ef435	-0.15522845
70	0x3e8bfa1c	0.27339256
71	0x3e22fecd	0.15917511
72	0xbe0c75ca	-0.13716808
73	0x3eaec023	0.34130964
74	0xbeb66b45	-0.35628715
75	0x3e0070cb	0.12543027
76	0xbe1d19f4	-0.15341932
77	0xbed431f1	-0.41444352
78	0x3e29d8d9	0.16586627
79	0xbe8876eb	-0.26653227
80	0xbe0de798	-0.13857877
81	0xbca3961f	-0.019969044
82	0x3e0fdaf7	0.14048372
83	0xbe7a25ae	-0.24428436
84	0xbeed9cfd	-0.46408835
85	0xbe8e629b	-0.27809605
86	0x3e99bdf7	0.30027744
87	0xbea07683	-0.31340417
88	0x3eac361f	0.3363504
89	0x3e8dd4e1	0.27701476
90	0x3e2abbd8	0.16673219
91	0xbe04f553	-0.12984209
92	0x3e034a8a	0.12821403
93	0xbbf5ba05	-0.007498982
94	0x3eb12338	0.34597182
95	0xbeab71cd	-0.3348526
96	0x3dc4f02f	0.09616124
97	0xbe02a7b3	-0.12759285
98	0xbec6505a	-0.38733178
99	0x3f03dc90	0.51508427
100	0x3e47432d	0.1945922
101	0xbdda580d	-0.106613256
102	0xbe070d85	-0.13188751
103	0x3e81ed1b	0.2537621
104	0x3dac2682	0.08405782
105	0x3e1e8916	0.15481982
106	0xbe19d52a	-0.15022722
107	0x3eba2235	0.36354223
108	0x3df3b7ae	0.119002685
109	0xbee8d7e3	-0.45477208
110	0x3e8cef4d	0.27526322
111	0xbe3a5d63	-0.18199687
112	0x3e3d2076	0.18469414
113	0x3e36e7f9	0.17861928
114	0xbe07893e	-0.13235947
115	0x3e177a6e	0.14792797
116	0xbd36b87f	-0.044609543
117	0xbecee7ce	-0.40411228
118	0x3d0e11b5	0.034684855
119	0xbe57f122	-0.21088079
120	0xbe1331f4	-0.14374524
121	0xbe6ebf73	-0.2331522
122	0x3dccda43	0.100025676
123	0x3e2bdbb9	0.16783036
124	0x3e1f9f79	0.15588178
125	0x3d690f8a	0.056899585
126	0xbe8c3fbe	-0.2739238
127	0x3e1b4c2d	0.15165778
128	0x3de11c1b	0.10991689
129	0xbead835e	-0.33889288
130	0x3e602443	0.21888833
131	0x3eeafc7e	0.4589576
132	0x3eb1c999	0.3472412
133	0xbe2795ea	-0.16365781
134	0xbd738c86	-0.059460185
135	0x3e8e0d37	0.27744457
136	0xbe7e2892	-0.24820164
137	0xbee759d2	-0.45185715
138	0x3dc7bd4d	0.09752903
139	0x3d7dd659	0.061971996
140	0xbba28b96	-0.0049604876
141	0x3df0e4b8	0.11762375
142	0x3d6d1cc7	0.057888772
143	0x3e5145f8	0.20436847
144	0xbe95cc28	-0.2925732
145	0x3ec49ff2	0.3840328
146	0x3e438218	0.19092596
147	0xbdaa5a47	-0.08318
148	0x3ee155c4	0.44010746
149	0xbd7aef08	-0.061263114
150	0xbd08b6c2	-0.033377416
151	0x3e8142da	0.25246316
152	0xbf051945	-0.51991683
153	0xbe5be999	-0.21475829
154	0x3eb70e13	0.35752925
155	0xbd616418	-0.055027097
156	0xbea65412	-0.32486016
157	0x3ea565b0	0.32304144
158	0xbcb73332	-0.022363279
159	0x3dfc6d7a	0.123255685
160	0x3e91e734	0.28496706
161	0xbda6a407	-0.081367545
162	0x3ef68705	0.48149887
163	0xbe53b3cb	-0.20674054
164	0x3d7ebfe3	0.062194716
165	0xbec8541f	-0.3912668
166	0xbe17231e	-0.1475949
167	0xbe9762b0	-0.2956748
168	0x3e3fe6ff	0.18740462
169	0x3e5ebb9f	0.2175126
170	0x3e017d41	0.12645437
171	0x3ce6553b	0.028116813
172	0x3e4d92d2	0.20075539
173	0x3e8ab4c7	0.27091047
174	0xbe90f946	-0.2831518
175	0x3ef586d8	0.4795444
176	0x3ed4b333	0.41542968
177	0x3ead7390	0.3387723
178	0xbe89299d	-0.2678956
179	0x3e928e2a	0.28624088
180	0x3f25be6f	0.64743704
181	0x3ea25618	0.3170631
182	0x3cb8dd28	0.022566393
183	0x3d6cc083	0.05780078
184	0xbd907a9f	-0.07054638
185	0x3ec431a9	0.38319138
186	0xbe852e61	-0.26011947
187	0xbe3885e6	-0.18019828
188	0x3e8e650f	0.27811477
189	0xbbf8188e	-0.0075712865
190	0x3ec16606	0.3777315
191	0xbebbca92	-0.36677986
192	0xbe0f6820	-0.14004564
193	0x3e3e24fe	0.18568799
194	0x3e715f97	0.23571621
195	0x39de3f6d	0.00042390396
196	0x3da1f0e6	0.07907276
197	0xbe861954	-0.261912
198	0x3e58dcc3	0.21177964
199	0x3e2029f9	0.15641011
200	0x3c19321d	0.009350327
201	0x3dc1ddc8	0.094661295
202	0xbde264c4	-0.11054376
203	0xbdb5f262	-0.088841215
204	0xbdc3e8d3	-0.09565892
205	0x3d200beb	0.039073866
206	0x3e89e760	0.26934338
207	0xbdcca8c8	-0.0999313
208	0x3ba78cff	0.0051132436
209	0x3e1307b6	0.1435841
210	0x3df0c306	0.11755948
211	0x3c8dbd05	0.017302046
212	0x3e2bc2c5	0.16773517
213	0x3dc74684	0.09730247
214	0xbe17f261	-0.14838554
215	0x3dced29a	0.10098763
216	0xbd3a0d8e	-0.045423083
217	0xbd1e4e07	-0.03864863
218	0x3c9d1516	0.019175094
219	0xbe0a3660	-0.13497305
220	0x3e1fd037	0.15606771
221	0x3e307bed	0.17234774
222	0x3e1e55c7	0.15462409
223	0xbe21be91	-0.15795352
224	0x3e7df338	0.24799812
225	0xbd988e7c	-0.07449052
226	0x3de6a696	0.112622425
227	0x3d194eea	0.037428774
228	0xbe4c25c5	-0.19936283
229	0x3ce65cfc	0.02812051
230	0xbd1e4648	-0.038641244
231	0xbef21d47	-0.47287962
232	0xbc6926c7	-0.014230437
233	0xbd068a1f	-0.032846566
234	0x3e05a296	0.13050303
235	0x3eaaec87	0.3338358
236	0x3d194c76	0.037426434
237	0xbe31d07d	-0.17364688
238	0xbea09548	-0.31363893
239	0x3e1bf679	0.1523074
240	0x3dacb655	0.084332146
241	0x3e60a59f	0.2193818
242	0x3cc108c5	0.023563752
243	0x3cb827b8	0.022479877
244	0x3c96a2f8	0.018388256
245	0xbe256e2a	-0.16155306
246	0xbd8e4eb4	-0.06948605
247	0xbdba19d4	-0.090869576
248	0x3d568738	0.05237505
249	0xbc39f754	-0.0113504715
250	0x3b2dbb76	0.002650944
251	0xbd49ecfc	-0.04929827
252	0x3b5bb524	0.0033524716
253	0xbe958ba7	-0.2920811
254	0x3e3c6056	0.18396124
255	0xbe293ebd	-0.16527839

dist.1.linear.bias f4 [7]
0	0x3e0e261a	0.13881722
1	0x3e0e9b2a	0.13926378
2	0x3e88bcb1	0.2670646
3	0xba99ee1c	-0.0011743936
4	0xbdb65f09	-0.08904845
5	0xbd9194a7	-0.07108431
6	0xbda74f27	-0.08169394

dist.2.linear.weight f4 [7, 64]
0	0xbb9d3c6d	-0.004798463
1	0x3e840ea5	0.25792423
2	0xbe8e447c	-0.27786624
3	0xbde78c58	-0.11306065
4	0x3cbee2fb	0.023301592
5	0x3effe552	0.49979645
6	0xbe8286b8	-0.25493407
7	0x3d33affa	0.043868996
8	0x3df4520b	0.11929711
9	0x3f01016e	0.50392807
10	0xbe8e709a	-0.27820283
11	0xbe81e0e3	-0.25366887
12	0x3e1b69d7	0.15177093
13	0xbe8f000e	-0.2792973
14	0x3d786bd4	0.060649708
15	0xbf29266d	-0.6607426
16	0xbd2b360e	-0.041799597
17	0xbe2afd7d	-0.1669826
18	0xbe2f2285	-0.17103012
19	0xbe9ddb8c	-0.30831563
20	0x3da37778	0.07981771
21	0xbcc3860a	-0.023867626
22	0x3e83970b	0.25701174
23	0xbe3ca254	-0.18421298
24	0x3cef5204	0.029213913
25	0x3e4799ce	0.19492266
26	0xbe3ba737	-0.18325506
27	0x3e90f45e	0.28311437
28	0x3ea89516	0.32926244
29	0x3b8095d4	0.003924111
30	0x3df10df9	0.11770243
31	0xbed169fe	-0.40901178
32	0xbf398118	-0.72462606
33	0x3e8078c8	0.2509215
34	0x3e7c40d8	0.24634111
35	0x3dd95f8f	0.106139295
36	0xbe1de9ce	-0.1542122
37	0x3e10362a	0.14083162
38	0x3d85fb89	0.06542117
39	0x3e238f88	0.15972722
40	0xbd452cca	-0.048138417
41	0xbca98696	-0.020694058
42	0xbe2f3cb6	-0.17113003
43	0xbea461e9	-0.3210595
44	0x3e599b64	0.21250683
45	0xbd98fdbf	-0.07470273
46	0x3dc5862a	0.096447304
47	0xbdd139b6	-0.102160856
48	0x3da17d8a	0.07885273
49	0xbd363745	-0.044486303
50	0xbbfc5b06	-0.0077012805
51	0x3d81de77	0.0634126
52	0xbe20fec0	-0.1572218
53	0xbe91d2bb	-0.28481087
54	0xbe827018	-0.25476146
55	0xbcfdae49	-0.030966895
56	0x3f2a0046	0.6640667
57	0x3caac16e	0.020844188
58	0x3e888476	0.2666356
59	0x3ee06e99	0.4383438
60	0x3b8ef848	0.0043630935
61	0x3e9efa85	0.31050506
62	0xbe689b2b	-0.22715442
63	0x3d90aa22	0.070637
64	0xbea8ff8a	-0.3300746
65	0x3e4d314d	0.20038338
66	0x3dc28d85	0.09499649
67	0xbdfffb57	-0.12499111
68	0xbe9a2020	-0.30102634
69	0xbeb14421	-0.3462229
70	0x3d7709c6	0.060312055
71	0xbed4f593	-0.41593608
72	0xbd89d341	-0.067297466
73	0xbec8d1e8	-0.39222646
74	0x3de52aa1	0.111897714
75	0xbe1f4fa7	-0.15557729
76	0xbebe440b	-0.37161288
77	0xbdd55ca4	-0.104180604
78	0xbd4235eb	-0.0474147
79	0x3e69a40a	0.22816482
80	0xbe952a50	-0.29133844
81	0x3ea4b935	0.32172552
82	0xbebfd682	-0.37468344
83	0xbe6da105	-0.23205955
84	0xbee73b94	-0.45162642
85	0xbe16a60b	-0.14711778
86	0xbcbd9d8e	-0.023146417
87	0xbe883124	-0.2659999
88	0x3e3e8231	0.18604352
89	0x3de8c5c8	0.11365849
90	0x3e804572	0.25052983
91	0xbe02a07d	-0.12756534
92	0xbf23e7dd	-0.6402567
93	0xbf238c40	-0.6388588
94	0x3d5b781c	0.053581342
95	0x3d92584e	0.07145749
96	0xbe0cac1b	-0.13737528
97	0xbeb6c999	-0.35700682
98	0xbe9d0656	-0.30668896
99	0xbe1d475c	-0.15359253
100	0xbde91f20	-0.1138289
101	0xbdc44d73	-0.09585085
102	0x3e850a61	0.2598448
103	0x3dc8f70f	0.09812748
104	0x3efaa24d	0.4895195
105	0x3d190a9c	0.037363634
106	0xbd95ea09	-0.07320029
107	0x3df7f906	0.12108044
108	0x3df1643b	0.117866956
109	0xbefbbdce	-0.49168247
110	0x3ed1d9b7	0.40986416
111	0x3e98c134	0.29834902
112	0x3ea2339e	0.31680006
113	0x3ec57178	0.38563132
114	0xbe910cd3	-0.28330097
115	0x3dad3277	0.08456891
116	0xbd04be47	-0.032408025
117	0xbd0ba9f3	-0.034097623
118	0x3ea606c2	0.3242703
119	0xbea87737	-0.32903454
120	0xbd5d4dd2	-0.054029293
121	0x3e24628d	0.16053219
122	0xbe57e870	-0.21084762
123	0xbf14746e	-0.5799016
124	0x3dc6a2e1	0.096990354
125	0x3de4b54b	0.111673914
126	0xbee1ae60	-0.4407835
127	0xbeb72f4b	-0.3577827
128	0x3e6891bd	0.22711845
129	0xbe9d55b8	-0.3072946
130	0x3eb5181a	0.3536995
131	0x3f190c9f	0.59784883
132	0x3ed421a9	0.4143193
133	0xbde6ee77	-0.11275952
134	0x3e023aae	0.12717697
135	0x3f227186	0.63454473
136	0xbe3af048	-0.18255723
137	0x3d9c12eb	0.07620796
138	0x3e1dffdf	0.15429638
139	0x3ecd1372	0.40053898
140	0x3e55fd5c	0.2089743
141	0x3edd6e0a	0.43248016
142	0x3d0479dc	0.032342777
143	0x3e4c48d1	0.19949652
144	0x3d224573	0.039617013
145	0x3df221d9	0.11822862
146	0x3f0cd91a	0.5501877
147	0x3e0f91a0	0.14020395
148	0x3e87ddf1	0.26536515
149	0x3d680c71	0.05665249
150	0x3dd07526	0.10178594
151	0x3ea736d1	0.3265901
152	0xbce6b2bc	-0.028161399
153	0xbeafdff3	-0.34350547
154	0x3e4f2be4	0.20231587
155	0xbdecba0d	-0.11558924
156	0x3eb0bf14	0.3452078
157	0x3f1db5ba	0.6160542
158	0xbd5e3d8a	-0.054257907
159	0x3e012796	0.12612757
160	0x3f3f51db	0.74734277
161	0x3d428f4d	0.047499944
162	0xbda2197e	-0.079150185
163	0xbd151372	-0.036395498
164	0x3eec72a8	0.46181226
165	0xbec1b4b9	-0.37833193
166	0xbeeb4e1d	-0.45958033
167	0xbec90187	-0.39258978
168	0xbe52f68c	-0.20601863
169	0x3eb88ff3	0.36047325
170	0x3d8438b9	0.064561315
171	0x3def2e90	0.11678803
172	0xbc5074a2	-0.01272312
173	0x3e9b39f0	0.3031764
174	0xbec67d4f	-0.38767478
175	0xbc46e7d5	-0.012140234
176	0xbd25752b	-0.040394943
177	0xbda1bb70	-0.07897079
178	0xbd1d8997	-0.038461294
179	0x3df67517	0.12034052
180	0x3e51c545	0.20485409
181	0x3dbc3072	0.09188928
182	0x3ddab30f	0.10678684
183	0x3ec758eb	0.38935027
184	0xbf1931cc	-0.5984161
185	0xbea0ea23	-0.31428632
186	0xbced6839	-0.028980361
187	0x3e1503ed	0.14552279
188	0x3e86f076	0.26355332
189	0xbe770b98	-0.24125516
190	0x3ee7bd73	0.45261726
191	0x3e864711	0.26226094
192	0x3d7ebd93	0.06219251
193	0x3dce761d	0.10081122
194	0x3c708949	0.014681169
195	0x3c96f004	0.018424995
196	0xbc802177	-0.015640957
197	0xbe0dc07c	-0.13842958
198	0xbe17c2ad	-0.14820357
199	0xbdbe9bfd	-0.09307096
200	0xbc5d856c	-0.01352058
201	0x3debcf19	0.1151411
202	0x3c7f6b16	0.015589496
203	0xbc9ec135	-0.019379238
204	0xbdc3e935	-0.09565965
205	0x3e8d3d79	0.27585962
206	0xbe39d13f	-0.18146227
207	0xbe22d5f4	-0.15901929
208	0xbd3406db	-0.04395185
209	0x3c88ac4a	0.016683716
210	0xbdb39452	-0.08768524
211	0x3de9ba16	0.11412446
212	0x3e5bee29	0.2147757
213	0x3df156aa	0.11784108
214	0xbd536536	-0.051610194
215	0xbd22a9de	-0.03971278
216	0xbcbed98a	-0.02329709
217	0x3d85b381	0.06528378
218	0xbe9387c0	-0.28814507
219	0xbdf682fe	-0.120367035
220	0x3ddb8eca	0.10720594
221	0xbdc58bb8	-0.0964579
222	0xbd95c666	-0.07313232
223	0x3dc9b883	0.09849646
224	0xbb9cec1a	-0.0047888877
225	0x3cf16c23	0.029470509
226	0x3e0514e7	0.12996255
227	0x3dad1c72	0.08452691
228	0xbd6ba72f	-0.057532486
229	0x3d61b061	0.05509985
230	0xbd78af0d	-0.060713816
231	0xbddf218c	-0.108950704
232	0xbec31eb0	-0.3810935
233	0xbde41001	-0.11135865
234	0xbd21f649	-0.039541516
235	0xbe1a11b9	-0.15045823
236	0xbd326fdf	-0.04356372
237	0x3c3f0895	0.011659761
238	0xbc03d578	-0.0080465
239	0xbe0b14a2	-0.1358209
240	0xbe95453a	-0.29154378
241	0xbe409769	-0.18807758
242	0x3d77d469	0.060505304
243	0xbd47db48	-0.048793107
244	0xbca3811c	-0.019959025
245	0xbda6aeb6	-0.08138792
246	0xbdd9ac45	-0.10628561
247	0xbdbf1027	-0.09329253
248	0xbd9e218f	-0.077212445
249	0xbcf55164	-0.029946037
250	0x3d4120cc	0.04715042
251	0xbe9434c4	-0.28946507
252	0xbcd33648	-0.02578272
253	0xbe5b033d	-0.21387954
254	0x3e880fcc	0.26574552
255	0xbe2db59c	-0.1696381

dist.2.linear.bias f4 [7]
0	0xbcafddb1	-0.021468015
1	0x3e0b32cf	0.135936
2	0x3e4f34bf	0.20234965
3	0xbd003787	-0.031302955
4	0xbe1e7bc8	-0.15476906
5	0xbdb1869c	-0.08668253
6	0x3b163133	0.0022917509
