BLIP/RL/trained_models/ppo/2023-01-22_minigrid_5e5_lavagap-doorkey-emptyrand-redbluedoor-wallgap_fine-tuning_3_task_1.pth (torch, 735517 bytes, 19 tensors)

features.actor.0.weight f4 [64, 2739]
-0.02772858 -0.0238823 3.4198252e-05 0.04063543 -0.02224155 -0.029659295 0.021051487 0.0031220047
-0.002762357 0.1469803 -0.04055413 0.005124012 0.03282264 0.016573288 -0.067702755 -0.27221477
0.06512165 -0.0034609488 -0.25422665 0.009075412 0.01608025 -0.010022889 0.00813151 -0.0050341724
0.017697677 0.029483596 -0.011067472 0.03596359 0.055221792 -0.03693696 -0.03468355 -0.11355308
-0.0037517294 -0.23721027 -0.098146304 0.13740723 -0.55970556 -0.2506419 0.02321403 -0.30313358
-0.38866112 0.12042335 -0.008277289 0.025152005 -0.0353882 0.018289382 0.0025102873 0.013688092
-0.17460522 -0.1396213 -0.067970335 0.16461903 -0.105829984 0.01033471 0.053127058 -0.013875162
-0.060440443 -0.011770901 0.0837265 -0.057389922 -0.68467355 0.21130131 0.048294242 0.028255407
0.022912549 0.00894263 -0.008662866 0.037234135 0.027951304 -0.13498816 -0.16341288 0.033225305
-0.1617747 -0.046413753 -0.045256954 0.012180296 0.024073366 0.0076233568 0.53734016 0.28118727
-0.07491855 -0.3900079 -0.17949815 0.03256274 0.06512856 -0.0415557 0.00043460372 0.017400747
-0.027480237 0.04571051 -0.12244934 -0.17741878 0.0023435566 -0.22028217 -0.0923591 -0.047391027
-0.3017925 -0.1238421 0.02272765 -0.055994242 -0.1227612 0.14803874 0.36753607 -0.2816154
-0.0037099915 -0.01154848 -0.031949855 -0.03300074 0.027663352 0.02117937 0.030310683 -0.08762858
-0.094699 0.009694713 -0.15461946 0.035586547 -0.023357593 -0.11845415 0.06798083 -0.185544
-0.008282457 0.07326293 0.24075407 0.21596894 0.028843407 -0.09404027 -0.018661981 -0.036010902
0.03735347 -0.010652903 -0.066665605 0.03818302 -0.030799914 0.010730431 0.0067315577 -0.10296844
-0.006038564 -0.015587859 -0.28751236 -0.11932276 0.0020545765 -0.28501424 -0.0016672037 0.006428464
0.19564196 -0.16738321 0.02377287 -0.21049143 0.018198596 -0.016985834 -0.008002536 0.00847523
-0.0069308076 -0.009772009 -0.017038586 0.028728308 -0.008872174 -0.008673691 0.019800123 -0.019893236
0.00897654 -0.005315261 0.007790646 0.025652258 0.0020842236 0.014481039 0.018690143 0.0014374097
-0.0066808616 0.016847888 -0.030368038 0.018516637 -0.024264483 -0.00014853131 0.050231047 0.001445638
0.004760754 -0.0011389148 -0.0025467798 -0.03094031 0.036211953 -0.0453919 0.022339694 0.006867798
0.017656703 0.0025642524 0.015775835 0.028040145 0.05205061 0.005348924 0.010677873 0.033187665
-0.023172379 -0.016422719 -0.035407852 -0.22853802 0.040975474 0.014998295 -0.023481373 0.058942404
0.00028765478 0.016140394 0.0031932392 -0.025891654 -0.024658676 -0.06299383 0.023068326 0.031140704
-0.056842122 0.04488477 0.007130472 0.01024673 0.047008082 0.020151863 -0.028962826 -0.12994401
0.023892364 0.008247348 0.0029892803 0.03223155 -0.041431576 -0.020319765 -0.0048755147 -0.005390685
-0.026095912 -0.021495383 0.0065146904 0.015288003 -0.012344855 -0.02611694 0.032190565 -0.039874297
-0.058676515 -0.034474954 0.029945211 0.0025538253 -0.25192848 -0.032422397 -0.010756183 -0.02893569
0.011268116 -0.03598162 0.0044555007 0.0066238237 0.014693581 0.00640723 0.027079348 0.007645882
-0.015992645 0.00793775 -0.017297266 0.0032924828 0.015742796 -0.043647945 -0.05621232 -0.00532168
00000000: 0c27 e3bc d0a4 c3bc 1870 0f38 5671 263d
00000010: e933 b6bc 0df8 f2bc 2b74 ac3c 8c9a 4c3b
00000020: a908 35bb 0182 163e 161c 26bd 54e7 a73b
00000030: 0871 063d b4c4 873c bea7 8abd bc5f 8bbe
00000040: 805e 853d 16d1 62bb ff29 82be 09b1 143c
00000050: baba 833c 0b37 24bc 063a 053c b3f5 a4bb
00000060: b8fa 903c 9587 f13c 5854 35bc 8f4e 133d
00000070: 3f30 623d 364b 17bd 5710 0ebd 848e e8bd
00000080: 93df 75bb 40e7 72be ee00 c9bd 7bb4 0c3e
00000090: dd48 0fbf 2354 80be 592b be3c 5334 9bbe
000000a0: 97fe c6be 84a0 f63d 779d 07bc 940b ce3c
000000b0: 38f3 10bd 9dd3 953c a283 243b 0544 603c
000000c0: b6cb 32be e3f8 0ebe 0834 8bbd e491 283e
000000d0: 64bd d8bd ea52 293c c29b 593d a654 63bc
000000e0: 6690 77bd bdda 40bc cd78 ab3d b211 6bbd
000000f0: c446 2fbf 5f5f 583e 2fd0 453d e277 e73c
00000100: 19b3 bb3c 1c84 123c b2ee 0dbc d282 183d
00000110: 22fa e43c 563a 0abe b555 27be 4217 083d
00000120: 44a8 25be 591c 3ebd 5b5f 39bd dd8f 473c
00000130: 8235 c53c 5acd f93b 208f 093f c7f7 8f3e
00000140: e66e 99bd 1eaf c7be 5dce 37be 8260 053d
00000150: 1f62 853d 4f36 2abd 86db e339 038c 8e3c
00000160: 3c1e e1bc f23a 3b3d b8c6 fabd 45ad 35be
00000170: 5b96 193b a691 61be c526 bdbd 181d 42bd
00000180: 8c84 9abe eda0 fdbd 562f ba3c 385a 65bd
00000190: 396a fbbd 7897 173e b02d bc3e e52f 90be
000001a0: 5423 73bb d635 3dbc dadd 02bd c92b 07bd
000001b0: 419e e23c 5c80 ad3c 1c4e f83c 9d76 b3bd
000001c0: 8df1 c1bd 93d6 1e3c 9054 1ebe 33c3 113d
000001d0: 6c58 bfbc 1798 f2bd 8939 8b3d 3fff 3dbe
000001e0: 24b3 07bc e00a 963d 3c88 763e f626 5d3e
000001f0: 0249 ec3c 2f98 c0bd 03e1 98bc 2b80 13bd
00000200: f4ff 183d 8389 2ebc fa87 88bd cc65 1c3d
00000210: 1a50 fcbc b1ce 2f3c 6694 dc3b 1ee1 d2bd
00000220: 25df c5bb 3864 7fbc d234 93be 7e5f f4bd
00000230: 13a6 063b 63ed 91be 1386 daba dda5 d23b
00000240: 5e56 483e 8166 2bbe 52bf c23c 118b 57be
00000250: 3915 953c e025 8bbc 121d 03bc b1db 0a3c
00000260: d41b e3bb c71a 20bc 8194 8bbc a157 eb3c
00000270: 985c 11bc 191c 0ebc de33 a23c 24f7 a2bc
00000280: 5612 133c a42b aebb ad48 ff3b af24 d23c
00000290: 7897 083b e141 6d3c 121c 993c 7767 bc3a
000002a0: 21eb dabb 9504 8a3c 64c6 f8bc 34b0 973c
000002b0: 4fc6 c6bc 12bf 1bb9 12bf 4d3d 907b bd3a
000002c0: 1900 9c3b a447 95ba e0e7 26bb 8876 fdbc
000002d0: fc52 143d dbec 39bd bc01 b73c 440b e13b
000002e0: caa4 903c 040d 283b 533c 813c 72b4 e53c
000002f0: 0533 553d 0746 af3b 3ff2 2e3c caef 073d
00000300: 00d4 bdbc f088 86bc d307 11bd df05 6abe
00000310: e6d5 273d 69bb 753c 025c c0bc 976d 713d
00000320: 5fd0 9639 dc38 843c aa45 513b bc1a d4bc
00000330: fe00 cabc e902 81bd c9f9 bc3c ca1a ff3c
00000340: 49d3 68bd 18d9 373d bca6 e93b e7e1 273c
00000350: 8c8b 403d 8515 a53c 7343 edbc 0b10 05be
00000360: ebb9 c33c e21f 073c cde7 433b 3b05 043d
00000370: 28b4 29bd a375 a6bc c8c2 9fbb 58a4 b0bb
00000380: 18c7 d5bc 1617 b0bc 2f79 d53b 887a 7a3c
00000390: 1342 4abc 31f3 d5bc 41da 033d 3b53 23bd
000003a0: c956 70bd 9c35 0dbd a94f f53c 145e 273b
000003b0: c5fc 80be 59cd 04bd b43a 30bc 8a0a edbc
000003c0: e79d 383c 7761 13bd 73ff 913b a90c d93b
000003d0: 58bd 703c bef3 d13b 82d5 dd3c 4f8a fa3b
000003e0: 0203 83bc 560d 023c ffb2 8dbc b2c6 573b
000003f0: 09f7 803c 30c8 32bd e43e 66bd 7d61 aebb

features.actor.0.bias f4 [64]
-0.33746666 -0.6753187 -0.53459436 -0.032519955 0.116741456 0.6771359 -0.73197687 -0.09606422
0.4530762 -0.8262233 -0.07178527 0.01596126 -0.082938634 -0.08451251 -0.16820012 -0.0062210956
-0.27955905 -0.44616854 0.5868674 -0.47591612 -0.8743919 0.34403113 0.5732526 0.30683985
-0.86779946 0.10954191 -0.2084375 -0.62130374 -0.014559845 0.053775404 -0.1458872 0.10806678
0.12903501 -0.32440943 0.3420612 0.6588725 0.11821327 -0.17275411 0.4291311 -0.53499734
-0.3503648 0.0074399104 0.55849797 -0.25051433 -0.17657988 0.46983632 -0.15214619 -0.43802935
0.46603686 -0.3346537 -0.29493123 0.07530747 -0.64192224 0.43027455 0.50526696 -0.16057034
-0.58664745 -0.12914987 -0.5318241 -0.054949872 -0.15220481 -1.1262945 0.05202841 -0.58522755
00000000: 6ec8 acbe b0e1 2cbf 2ddb 08bf a533 05bd
00000010: 2516 ef3d c758 2d3f d662 3bbf 51bd c4bd
00000020: 9bf9 e73e 5f83 53bf 2804 93bd 30c1 823c
00000030: bbdb a9bd e514 adbd a73c 2cbe 55da cbbb
00000040: 5d22 8fbe 3470 e4be f13c 163f 47ab f3be
00000050: 26d8 5fbf d924 b03e afc0 123f 1d1a 9d3e
00000060: 1b28 5ebf 8257 e03d a470 55be c30d 1fbf
00000070: 6b8c 6ebc 9943 5c3d 7463 15be 1e52 dd3d
00000080: c121 043e fe18 a6be a522 af3e deab 283f
00000090: cd19 f23d 74e6 30be 12b7 db3e 96f5 08bf
000000a0: 0463 b3be 7eca f33b b9f9 0e3f 6a43 80be
000000b0: 5bd1 34be 638e f03e 36cc 1bbe 6245 e0be
000000c0: 629c ee3e bb57 abbe 3a01 97be ce3a 9a3d
000000d0: 0455 24bf f24c dc3e 2d59 013f 8d6c 24be
000000e0: 872e 16bf dd3f 04be a025 08bf 1e13 61bd
000000f0: 94db 1bbe 6b2a 90bf be1b 553d 79d1 15bf

features.actor.2.weight f4 [64, 64]
-0.18728381 0.08482259 0.06633566 -0.43118656 0.358886 0.13916378 0.26368323 -0.07342685
-0.32282177 0.7255493 0.097367026 0.21829787 0.07242149 0.06583091 -0.09148919 0.5313807
0.46086612 0.31666705 -0.14348763 0.6451845 0.16624309 -0.29644123 -0.3068181 -0.01624717
-0.036129415 0.05362635 -0.51233035 -0.161245 0.06836321 0.6990482 0.8847971 -0.43439057
0.13939562 0.55737966 -0.0226827 -0.20960721 0.2111682 -0.26707047 -0.5357064 -0.4248478
-0.23521252 -0.21157934 0.04740881 0.36617258 0.12748654 0.28236055 -0.41092798 -0.3046973
0.09538603 0.70862216 0.21251264 -0.8094822 0.02021756 -0.12793471 0.010217535 0.080236
-0.22337992 -0.38318455 -0.1410423 0.028723951 -0.0794121 -0.1642398 -0.04928183 0.020829748
0.121371076 0.07607287 0.059996117 -0.0391375 0.14565918 0.534447 0.20657477 0.15830742
0.2006857 0.4074166 -0.027069746 0.12697202 -0.018906625 0.021569796 -0.029639782 -0.16569765
0.17614625 0.1331551 0.45065552 -0.085984595 -0.1661739 0.1191115 0.13831879 0.2057166
-0.18270591 -0.11080171 0.06623992 0.2838542 -0.26409745 -0.26237783 -0.3474764 -0.04551822
0.22071503 0.38696256 -0.387948 0.1706099 0.09930556 0.3355979 0.18390508 -0.7138204
-0.029599926 1.1238004 -0.2782192 0.030417316 -0.052507777 0.17609766 0.47125128 0.22449131
0.04838431 -0.12681668 0.10819115 -0.25487572 0.14364457 -0.122354634 -0.14027515 -0.0013852709
0.46140674 -0.38175252 0.6104612 -0.061545603 0.15829542 -0.37150258 -0.012288435 -0.20468895
0.037966214 -0.572356 -0.66475964 0.30946812 0.4401184 0.26511872 -0.35836905 0.6951252
-0.5068396 0.14903343 -0.17694221 -0.15706697 -0.04205161 -0.31990215 -0.21801691 -0.42289603
0.1966573 -0.11611612 -0.2663197 0.14879979 0.120930195 -0.0069934228 0.116769075 0.5638308
0.21613398 0.25451547 -0.19921322 -0.14762186 -0.16822678 -0.10282767 -0.308383 -0.19378923
0.14071186 0.69914633 0.026028574 -0.2799947 0.38184786 -0.14557089 -0.6841012 -0.39971873
0.39958295 0.28738713 0.32264954 -0.34553415 0.08550565 -0.06598978 -0.10226254 0.01253063
0.21304199 -0.05621184 0.016101977 -0.5022379 0.29600447 -0.15847903 0.0017096219 -0.40768343
0.2661627 0.43336836 -0.3521357 0.24758714 0.08880575 0.1836665 -0.14786159 0.058414675
-0.3206351 0.29010227 -0.33540618 0.42749906 -0.44393662 0.550322 -0.07007374 -0.13463883
0.46860346 -0.020282885 0.030143207 -0.123300694 -0.67091906 -0.2983117 0.428882 0.4892879
0.11289286 -0.09011793 0.08191764 -0.47073752 -0.12366671 -0.3048504 0.16659322 -0.46688607
-0.24942794 0.20841959 0.18134265 -0.07870618 -0.40049547 0.0042260396 -0.358401 -0.3201501
-0.1947081 -0.3781673 0.08460301 -0.5129824 -0.4739516 -0.1623108 0.47873425 0.12045599
-0.15991539 0.0846298 0.16141763 0.00231293 0.05979641 -0.031864278 -0.023933744 0.3446302
-0.1624612 -0.3609079 -0.44264516 0.3036328 -0.15335253 0.21090364 0.16766457 -0.0025232136
0.71942663 0.42784545 0.2451037 0.4199268 -0.1476246 -0.22162023 -0.05439582 -0.31300896
00000000: 54c7 3fbe 77b7 ad3d feda 873d 7cc4 dcbe
00000010: e8bf b73e f380 0e3e 7d01 873e d160 96bd
00000020: e548 a5be 99bd 393f 5d68 c73d 7a89 5f3e
00000030: b851 943d 5bd2 863d af5e bbbd 9108 083f
00000040: a5f6 eb3e 2f22 a23e 6cee 12be d02a 253f
00000050: a13b 2a3e 25c7 97be 4317 9dbe c918 85bc
00000060: 70fc 13bd 4ea7 5b3d 1528 03bf 691d 25be
00000070: 0302 8c3d d3f4 323f 1082 623f 7168 debe
00000080: babd 0e3e 6fb0 0e3f 12d1 b9bc 46a3 56be
00000090: 7a3c 583e 76bd 88be 0e24 09bf a785 d9be
000000a0: 8ddb 70be 41a8 58be be2f 423d f97a bb3e
000000b0: d58b 023e 9091 903e 2765 d2be 4901 9cbe
000000c0: c059 c33d 4368 353f ea9c 593e 3a3a 4fbf
000000d0: 4c9f a53c 5101 03be 7367 273c c652 a43d
000000e0: b5bd 64be c430 c4be 656d 10be 7e4e eb3c
000000f0: d0a2 a2bd 7a2e 28be bfdb 49bd 26a3 aa3c
00000100: 6691 f83d 18cc 9b3d 7dbe 753d a54e 20bd
00000110: ae27 153e 85d1 083f 5688 533e 571b 223e
00000120: 8d80 4d3e e998 d03e 5fc1 ddbc f404 023e
00000130: 11e2 9abc 24b3 b03c 21cf f2bc a5ac 29be
00000140: af5f 343e cf59 083e 52bc e63e b118 b0bd
00000150: 7e29 2abe bbf0 f33d 71a3 0d3e 5fa7 523e
00000160: 4217 3bbe 02ec e2bd cca8 873d 5655 913e
00000170: c837 87be 6356 86be 6de8 b1be 5071 3abd
00000180: 1f03 623e f51f c63e 1fa1 c6be 5db4 2e3e
00000190: b760 cb3d 7dd3 ab3e 9d51 3c3e efbc 36bf
000001a0: 8b7b f2bc b1d8 8f3f bf72 8ebe bc2d f93c
000001b0: 6512 57bd f252 343e d947 f13e 0de1 653e
000001c0: a02e 463d 3bdc 01be 5293 dd3d 127f 82be
000001d0: 9017 133e 1195 fabd 4aa4 0fbe fa91 b5ba
000001e0: 813d ec3e 1175 c3be 2f47 1c3f 3e17 7cbd
000001f0: 3218 223e 9635 bebe 6f55 49bc fb99 51be
00000200: 7682 1b3d ec85 12bf b02d 2abf 9b72 9e3e
00000210: 3357 e13e a4bd 873e 267c b7be baf3 313f
00000220: 3dc0 01bf 389c 183e 5730 35be 2ad6 20be
00000230: 4f3e 2cbd 37ca a3be d33f 5fbe d485 d8be
00000240: 8860 493e 4ace edbd 0e5b 88be f95e 183e
00000250: 40aa f73d 1529 e5bb a024 ef3d 3757 103f
00000260: 3a52 5d3e da4f 823e 8dfe 4bbe 2f2a 17be
00000270: a443 2cbe 5097 d2bd 60e4 9dbe af70 46be
00000280: c516 103e 41fb 323f e039 d53c 775b 8fbe
00000290: 9081 c33e 8910 15be 4221 2fbf efa7 ccbe
000002a0: 2396 cc3e 6824 933e 5232 a53e dae9 b0be
000002b0: 961d af3d a625 87bd 066f d1bd 464d 4d3c
000002c0: ae27 5a3e 633e 66bd 4be8 833c aa92 00bf
000002d0: e68d 973e 5448 22be 6415 e03a e2bb d0be
000002e0: 7a46 883e 75e2 dd3e 214b b4be 7c87 7d3e
000002f0: cadf b53d 1213 3c3e 0769 17be 3a44 6f3d
00000300: 492a a4be 4988 943e 5cba abbe 28e1 da3e
00000310: a94b e3be e7e1 0c3f d282 8fbd c3de 09be
00000320: cbec ef3e 4b28 a6bc e3ee f63c 1385 fcbd
00000330: 5ac1 2bbf 50bc 98be 6c96 db3e f283 fa3e
00000340: 5f34 e73d c08f b8bd 70c4 a73d 8204 f1be
00000350: f944 fdbd 5a15 9cbe 6a97 2a3e b10b efbe
00000360: 0a6a 7fbe f26b 553e e3b1 393e b530 a1bd
00000370: be0d cdbe 977a 8a3b 5680 b7be b7ea a3be
00000380: 8f61 47be 259f c1be 5844 ad3d d152 03bf
00000390: c9a9 f2be cd34 26be a81c f53e a1b1 f63d
000003a0: dcc0 23be 6352 ad3d aa4a 253e 8794 173b
000003b0: 15ed 743d 1e84 02bd b310 c4bc 5f73 b03e
000003c0: 3b5c 26be ecc8 b8be 63a2 e2be c275 9b3e
000003d0: 7208 1dbe 20f7 573e 43b0 2b3e 805c 25bb
000003e0: 582c 383f 8f0e db3e 77fc 7a3e a500 d73e
000003f0: e72a 17be 6af0 62be 27ce 5ebd b642 a0be

features.actor.2.bias f4 [64]
0.2130811 -0.3357945 0.31269366 0.83477813 -0.35297546 -0.03495022 -0.0023837185 -1.2976716
0.005980821 -0.50637746 -0.3672265 -0.42363903 0.90317005 -0.50238574 0.19070843 0.7976839
0.056512162 0.08471546 -0.42610547 -0.40068173 -0.4803727 -0.6583787 0.59701467 -0.6676643
0.067651615 0.40341926 -0.74983525 0.91670674 0.6490568 -0.41853353 -1.005108 -0.43029135
-0.97354805 -0.093315765 0.08482638 0.56462777 -0.101772994 -0.716809 0.4978702 1.1231904
0.10033743 0.7544176 -1.2459205 -0.69825774 -0.093662806 0.35396883 0.30237487 0.35935795
-0.92430824 -0.51746494 -0.15186256 0.40835744 -1.661086 -0.29121032 -1.1736419 0.09951114
-0.3528017 -0.50434905 -0.21180443 -0.0828353 -0.9526005 0.90747666 -0.10011066 -0.09033279
00000000: ef31 5a3e 42ed abbe 6219 a03e 05b4 553f
00000010: 33b9 b4be f627 0fbd 2938 1cbb 1a1a a6bf
00000020: c3fa c33b f4a1 01bf 1d05 bcbe 37e7 d8be
00000030: 2736 673f 5a9c 00bf 1249 433e 0335 4c3f
00000040: 4c79 673d 4d7f ad3d 7f2a dabe 2826 cdbe
00000050: 69f3 f5be 828b 28bf f4d5 183f 0cec 2abf
00000060: ee8c 8a3d f88c ce3e 34f5 3fbf 4bad 6a3f
00000070: 9628 263f 074a d6be 61a7 80bf 264f dcbe
00000080: 723a 79bf 561c bfbd 74b9 ad3d 728b 103f
00000090: 5c6e d0bd cb80 37bf d8e8 fe3e b4c4 8f3f
000000a0: b67d cd3d 8321 413f 537a 9fbf 05c1 32bf
000000b0: 49d2 bfbd 673b b53e e1d0 9a3e c4fd b73e
000000c0: 779f 6cbf 9578 04bf dc81 1bbe 3a14 d13e
000000d0: 779e d4bf 8519 95be e639 96bf 7fcc cb3d
000000e0: 6da2 b4be 051d 01bf 43e3 58be 8ea5 a9bd
000000f0: a0dd 73bf 6450 683f d106 cdbd 6600 b9bd

critic.0.weight f4 [1, 64]
0.26976126 -0.097761765 0.104626015 0.19522494 0.08692913 0.2485675 0.17402372 -0.42491412
0.035913527 -0.1788094 -0.26768127 -0.08482381 0.12487788 -0.16709305 -0.29411292 0.132966
0.42655823 -0.023821758 -0.024626832 -0.096776366 0.051996186 -0.30063888 0.0075940285 -0.025854798
0.026155347 0.39517274 -0.10353614 0.16928092 0.23528711 0.012026135 -0.09111631 -0.030102674
-0.16329275 -0.0011854515 -0.052123047 -0.018883152 -0.051711276 -0.19122095 0.049043525 0.4536863
0.0016719402 0.17441003 -0.37573737 -0.35078183 -0.0037723295 0.19147797 0.2840807 -0.10023097
-0.42165524 0.030240173 -0.012510148 -0.07015485 -0.25971636 -0.060379732 -0.10418585 0.14739378
-0.21412395 -0.32167006 -0.010696501 -0.13818498 -0.17726615 0.20424467 -0.081025116 0.038913816
00000000: 261e 8a3e 5237 c8bd 2a46 d63d 0ce9 473e
00000010: e607 b23d 7b88 7e3e 4633 323e 588e d9be
00000020: 101a 133d d019 37be 850d 89be 1bb8 adbd
00000030: f9bf ff3d 711a 2bbe f895 96be 3d28 083e
00000040: d765 da3e d925 c3bc 36be c9bc b032 c6bd
00000050: f4f9 543d 57ed 99be 54d7 f83b 71cd d3bc
00000060: bd43 d63c 1554 ca3e c10a d4bd fa57 2d3e
00000070: 1bef 703e 4409 453c 309b babd e299 f6bc
00000080: 3736 27be 2761 9bba fa7e 55bd d7b0 9abc
00000090: 34cf 53bd 6dcf 43be dde1 483d 9249 e83e
000000a0: 0125 db3a 8b98 323e a660 c0be ad99 b3be
000000b0: 3039 77bb cd12 443e 0773 913e e545 cdbd
000000c0: 32e3 d7be 3dba f73c 5df7 4cbc 59ad 8fbd
000000d0: 8bf9 84be bd50 77bd 645f d5bd 65ee 163e
000000e0: 4f43 5bbe f0b1 a4be 6040 2fbc 5d80 0dbe
000000f0: 4285 35be 8425 513e 7ff0 a5bd 1864 1f3d

critic.1.weight f4 [1, 64]
-0.004112497 -0.04243573 -0.015992643 0.018655147 -0.13468936 -0.0026894913 -0.02790318 -0.46808374
-0.002981213 -0.09391401 0.047245707 0.042893186 0.14986618 -0.023919642 0.05168999 0.07833177
0.040097717 -0.009572135 -0.08145586 -0.049024113 -0.100346036 -0.09789282 0.037587628 -0.17161393
-0.02705742 -0.015250472 -0.07710451 0.20900388 0.07342669 -0.06504984 -0.09790869 -0.038435385
-0.09093456 -0.009731458 0.0687082 0.037264355 0.0245189 -0.17244235 -0.009092591 0.10221523
0.03990359 0.15486151 -0.49641544 -0.045105033 -0.01382392 0.004991478 -0.021512251 0.10129491
-0.24737866 -0.036465608 0.00843778 0.06947609 -0.7517477 -0.0022837669 -0.41550136 0.05923587
-0.06342078 0.0040129703 -0.01365149 -0.0758439 -0.11099219 0.03414667 0.04249772 -0.0016776817
00000000: 20c2 86bb 17d1 2dbd 0103 83bc aed2 983c
00000010: 02ec 09be 2d42 30bb 3695 e4bc aca8 efbe
00000020: 7460 43bb fd55 c0bd b784 413d c4b0 2f3d
00000030: 8576 193e 20f3 c3bc e2b8 533d 686c a03d
00000040: 813d 243d 72d4 1cbc 54d2 a6bd 82cd 48bd
00000050: 3982 cdbd 087c c8bd 7cf5 193d 90bb 2fbe
00000060: 86a7 ddbc 1edd 79bc f8e8 9dbd 1d05 563e
00000070: bc60 963d da38 85bd 5a84 c8bd 6c6e 1dbd
00000080: e63b babd b170 1fbc e2b6 8c3d 82a2 183d
00000090: dcdb c83c ba94 30be 17f9 14bc 3856 d13d
000000a0: f271 233d 0494 1e3e 2a2a febe 0ec0 38bd
000000b0: b97d 62bc 8d8f a33b 763a b0bc b573 cf3d
000000c0: d550 7dbe f65c 15bd 9d3e 0a3c 7b49 8e3d
000000d0: 8a72 40bf 40ab 15bb 98bc d4be 50a1 723d
000000e0: c1e2 81bd 3c7f 833b 80aa 5fbc 0c54 9bbd
000000f0: e04f e3bd 61dd 0b3d 1712 2e3d a8e5 dbba

critic.2.weight f4 [1, 64]
-0.118246555 -0.09118596 -0.07740491 -0.11273658 0.14907144 -0.08634961 0.05678021 -0.14740072
0.07186967 -0.0074618026 -0.1504102 -0.16390298 0.12671593 0.07874282 0.028035678 0.15817256
0.040411152 0.001260801 -0.07436446 0.18092187 -0.10765981 0.1616992 -0.08071143 -0.08581546
0.17494336 -0.095407575 -0.060121175 -0.009823971 0.08129286 -0.0901319 0.23388846 -0.10863358
0.06722732 0.057181016 -0.22187307 -0.2497038 -0.30131784 0.039879616 -0.029708857 0.01556919
0.06797993 0.19163482 0.18694377 0.10360326 0.18563978 0.23437907 0.11187009 0.0043825433
-0.082466066 0.072816946 0.13324271 0.09807841 0.19753247 0.046632428 0.018028198 0.10784048
-0.07886969 0.042928033 -0.050552282 -0.18447876 -0.027544234 -0.20049526 -0.05006489 0.05348048
00000000: 402b f2bd b4bf babd 7786 9ebd 70e2 e6bd
00000010: 2fa6 183e 10d8 b0bd 5e92 683d 37f0 16be
00000020: 6830 933d 2382 f4bb 2205 1abe 2fd6 27be
00000030: d2c1 013e ea43 a13d 14ab e53c fdf7 213e
00000040: 2a86 253d 7641 a53a 654c 98bd 9543 393e
00000050: bf7c dcbd 7a94 253e 094c a5bd 04c0 afbd
00000060: 5a24 333e 0c65 c3bd 9f41 76bd b9f4 20bc
00000070: df7c a63d 1397 b8bd 7580 6f3e 487b debd
00000080: 7aae 893d a436 6a3d b232 63be 5ab2 7fbe
00000090: 5546 9abe cf58 233d fd5f f3bc ea15 7f3c
000000a0: 1039 8b3d eb3b 443e 306e 3f3e f22d d43d
000000b0: 5b18 3e3e 1101 703e 251c e53d 709b 8f3b
000000c0: f8e3 a8bd 0d21 953d c770 083e 55dd c83d
000000d0: f445 4a3e a501 3f3d dfaf 933c 78db dc3d
000000e0: 6f86 a1bd 4ed5 2f3d e90f 4fbd 00e8 3cbe
000000f0: 72a4 e1bc a14e 4dbe d810 4dbd 590e 5b3d

critic.3.weight f4 [1, 64]
-0.050458908 -0.050218787 0.02236731 0.12069064 -0.13601443 0.033634733 0.069951475 0.013515596
0.21584778 -0.0865246 0.12834524 0.023624096 -0.056346815 0.016138826 -0.0008035562 0.10226674
-0.1285809 0.03761139 -0.27600318 0.0034043447 -0.19180036 -0.039584342 -0.24507447 -0.07194587
-0.0682567 -0.01846757 -0.07076892 -0.04071718 -0.18881886 0.24272181 -0.053897977 0.027518086
0.07010641 0.07422258 -0.1766941 -0.144346 -0.007405418 0.17529948 -0.03214865 -0.115478694
0.11474518 -0.20327833 0.05727017 0.2042155 0.10321219 -0.056761935 -0.26751143 0.022855043
-0.1686296 0.16563094 0.12425767 0.015146346 -0.066406876 -0.000497583 -0.046145305 0.09289306
-0.2896987 -0.18256979 -0.08988908 0.10880948 0.13344951 0.014438774 0.16482499 -0.019946603
00000000: 00ae 4ebd 37b2 4dbd a63b b73c a72c f73d
00000010: 5e47 0bbe 93c4 093d b842 8f3d 8570 5d3c
00000020: 3307 5d3e cf33 b1bd ef6c 033e 5287 c13c
00000030: ebcb 66bd 9235 843c bea5 52ba 3971 d13d
00000040: b6aa 03be 670e 1a3d 4a50 8dbe 6d1b 5f3b
00000050: 5067 44be 3123 22bd cdf4 7abe 5b58 93bd
00000060: 2bca 8bbd 4d49 97bc 4cef 90bd 0fc7 26bd
00000070: bb59 41be 118c 783e 20c4 5cbd 9c6d e13c
00000080: f393 8f3d 0202 983d 4cef 34be 70cf 13be
00000090: 26a9 f2bb b581 333e 4eae 03bd 1880 ecbd
000000a0: 85ff ea3d 3228 50be 2094 6a3d de1d 513e
000000b0: ea60 d33d 347f 68bd 42f7 88be 803a bb3c
000000c0: 3dad 2cbe 289b 293e ce7a fe3d 6128 783c
000000d0: 5400 88bd 3b70 02ba dc02 3dbd b73e be3d
000000e0: 6353 94be 93f3 3abe c417 b8bd 81d7 de3d
000000f0: fda6 083e 9c90 6c3c e2c7 283e 0f67 a3bc

critic.4.weight f4 [1, 64]
0.010499477 0.051210135 -0.013591472 -0.18398131 -0.12561199 -0.13780105 0.2773965 0.06905444
0.010455886 0.085717976 0.06084955 0.083786614 -0.0776882 -0.054260798 -0.07289057 -0.16128726
0.076099224 -0.06169699 -0.038578648 -0.06434186 0.22942959 0.0042359717 0.080384396 -0.24213263
-0.2363066 -0.019104797 -0.26712006 0.13161473 -0.050777815 0.01878839 -0.022762708 0.29545525
-0.07447782 0.08733937 0.015949074 0.14983241 0.12293482 0.07512852 0.047469713 0.10071664
-0.028737482 -0.06804792 0.05659157 -0.043365348 -0.20022726 0.034133747 -0.003654028 0.026114592
-0.18280904 -0.14789212 -0.25888333 -0.15289849 0.003604467 -0.100873105 0.0046976004 -0.10408089
0.08942174 0.025389738 -0.054728758 0.1713302 -0.10930831 0.022992836 0.27099556 -0.06710371
00000000: 0006 2c3c b8c1 513d c4ae 5ebc 9965 3cbe
00000010: 6ea0 00be b81b 0dbe ea06 8e3e 6a6c 8d3d
00000020: 2a4f 2b3c e88c af3d 613d 793d 5198 ab3d
00000030: fe1a 9fbd 9240 5ebd a747 95bd 7d28 25be
00000040: e9d9 9b3d fcb5 7cbd a504 1ebd aac5 83bd
00000050: 97ef 6a3e e8cd 8a3b 93a0 a43d 9ef1 77be
00000060: 5bfa 71be aa81 9cbc f6c3 88be 03c6 063e
00000070: 66fc 4fbd 1cea 993c dc78 babc e945 973e
00000080: d487 98bd fcde b23d a2a7 823c ab6d 193e
00000090: 40c5 fb3d fbdc 993d 9a6f 423d 8744 ce3d
000000a0: de6a ebbc b55c 8bbd 90cc 673d dd9f 31bd
000000b0: 6008 4dbe d4cf 0b3d 6b78 6fbb 45ee d53c
000000c0: 4b32 3bbe 0871 17be 5b8c 84be 6c91 1cbe
000000d0: ec38 6c3b 8f96 cebd 54ee 993b 5d28 d5bd
000000e0: bf22 b73d 24fe cf3c 432b 60bd 2f71 2f3e
000000f0: 09dd dfbd 795b bc3c eebf 8a3e ab6d 89bd

dist.0.linear.weight f4 [7, 64]
-0.017549785 -0.1427827 0.3242431 -0.1548575 -0.18540044 0.057499476 0.1963008 0.11103085
0.29596657 -0.149016 0.078802034 0.040734738 -0.35254723 0.13613741 -0.15226354 -0.11615963
0.02273052 0.08697671 0.37875497 0.26288202 -0.37741238 -0.11747123 -0.41489264 -0.10300809
-0.20781359 -0.29250133 -0.05448922 -0.19564885 0.11466289 -0.17424957 0.37535098 0.008438661
0.23524626 -0.31079823 0.41557986 -0.3287618 -0.18611564 0.37347746 -0.39467078 -0.13651063
0.22613765 -0.049300935 -0.2957151 0.009498878 -0.2856167 -0.054343347 -0.14850186 -0.024995511
0.0860954 0.06707245 -0.13124056 -0.06415396 0.206226 -0.28478333 0.23844023 -0.301483
-0.07593572 -0.13123216 0.104189195 -0.12773995 0.19862776 0.042894654 -0.1853666 0.060576677
-0.14769429 0.2294127 0.16427243 0.22053592 -0.36027244 0.20682241 -0.5028844 -0.092824325
0.38893616 0.08990916 0.048537772 -0.054751385 0.12974548 -0.22756453 -0.30693284 -0.048395433
-0.051546033 -0.2389807 0.13878322 -0.0287397 0.002277649 0.13940057 0.15649548 0.24738187
0.12696128 0.086418584 -0.42880556 0.051457237 -0.4537178 0.28341693 -0.16225608 -0.060186896
-0.11633116 0.13761501 -0.19120799 0.088266514 0.25615063 -0.2595549 -0.036318213 0.05864208
0.3697544 -0.17931654 -0.2038471 0.16063207 0.1312368 0.04413121 0.13617828 0.32526803
-0.004634323 -0.06839227 0.3955491 0.1280495 0.110429965 -0.02608946 -0.09751775 -0.17244163
-0.25560156 -0.145666 -0.11427959 -0.461005 0.47870293 -0.3786792 -0.40482104 -0.24316189
0.30089837 0.09285318 -0.21559504 0.2576325 0.32225147 -0.17437412 0.13643582 -0.37681994
-0.25571075 -0.26225537 -0.34407082 -0.306226 0.22670658 -0.11125996 0.11409356 0.11374904
0.071114704 -0.024686329 -0.23466471 -0.07795108 0.17543052 -0.07228372 0.2094733 -0.29600984
0.21980143 0.21678989 0.18167606 0.13452913 0.21294276 -0.14683133 -0.06295543 -0.06103595
-0.21449645 0.22425933 0.16240801 0.32230192 0.016149685 -0.13256948 0.31587735 0.44661596
-0.285123 0.45091668 0.20762989 -0.3746641 0.110270426 0.09641109 0.1878727 -0.19726044
-0.19085656 -0.22920433 -0.23814546 0.04669999 -0.41293842 -0.0048747645 -0.30880582 0.24257211
0.1678976 -0.16338916 -0.20131135 0.39212027 -0.3531717 0.49739358 0.26712838 0.16266812
0.14405777 -0.03619035 -0.07199256 -0.1413402 0.10555862 -0.033653647 -0.15042531 0.01987466
-0.1415056 0.10338202 0.1016058 0.08386031 0.14550842 -0.0040611112 0.11143673 -0.14999117
0.035630774 0.022478845 -0.11744516 0.15400359 -0.063003965 0.11599912 0.006900682 -0.13471465
-0.06334168 -0.08881582 0.08273963 -0.16630948 0.0068347733 -0.08454508 -0.034738697 -0.0574715
0.025884934 -0.08607011 -0.12935944 0.10402911 0.12829208 0.182801 0.14582655 -0.18794872
-0.09466512 -0.1152556 -0.030320052 -0.01283686 0.27518976 -0.012166091 -0.13876829 -0.07175632
-0.047617342 0.12571892 0.052579995 -0.0015337287 -0.01970101 -0.15143064 -0.11590339 0.08557167
-0.12940623 0.08749654 0.11056299 0.17548738 -0.20653005 -0.0613844 -0.01266983 0.04422033
00000000: 91c4 8fbc a135 12be 3103 a63e f792 1ebe
00000010: 9dd9 3dbe 9284 6b3d 1403 493e 2464 e33d
00000020: ee88 973e a697 18be f662 a13d 78d9 263d
00000030: 1281 b4be 9b67 0b3e f9ea 1bbe 1ae5 edbd
00000040: 5b35 ba3c d820 b23d 2cec c13e 7998 863e
00000050: 323c c1be c294 f0bd cf6c d4be e8f5 d2bd
00000060: 16cd 54be bcc2 95be 1730 5fbd 2c58 48be
00000070: 61d4 ea3d 7b6e 32be 012e c03e 4f42 0a3c
00000080: 65e4 703e f220 9fbe e2c6 d43e 7753 a8be
00000090: 1995 3ebe 7038 bf3e 4a12 cabe 71c9 0bbe
000000a0: a190 673e c7ef 49bd f867 97be 2fa1 1b3c
000000b0: 5a3c 92be 2197 5ebd df10 18be 63c3 ccbc
000000c0: c952 b03d 485d 893d ed63 06be 2763 83bd
000000d0: e92c 533e 1fcf 91be ad29 743e fb5b 9abe
000000e0: 3084 9bbd b961 06be 2561 d53d 43ce 02be
000000f0: 1365 4b3e 4eb2 2f3d bed0 3dbe 401f 783d
00000100: 2c3d 17be 2aeb 6a3e 0837 283e 2bd4 613e
00000110: a175 b8be 41c9 533e 08bd 00bf ae1a bebd
00000120: a422 c73e 4b22 b83d 8bcf 463d fd42 60bd
00000130: 00dc 043e ad06 69be 4d26 9dbe 4a3a 46bd
00000140: ef21 53bd 5bb7 74be 301d 0e3e 856f ebbc
00000150: 9c44 153b 06bf 0e3e 5a40 203e ac51 7d3e
00000160: 2302 023e 3afc b03d 678c dbbe d3c4 523d
00000170: b34d e8be 061c 913e 7526 26be 8986 76bd
00000180: 083f eebd f3ea 0c3e 07cc 43be 13c5 b43d
00000190: 2d26 833e 61e4 84be 68c2 14bd ad32 703d
000001a0: 7350 bd3e c19e 37be 4bbd 50be bc7c 243e
000001b0: f162 063e edc2 343d 5272 0b3e 8889 a63e
000001c0: 85db 97bb 3f11 8cbd 6985 ca3e 681f 033e
000001d0: 1b29 e23d 90b9 d5bc 63b7 c7bd 8a94 30be
000001e0: 35de 82be 7829 15be 6b0b eabd d908 ecbe
000001f0: 8d18 f53e 3de2 c1be b444 cfbe 6eff 78be
00000200: 5a0f 9a3e cf29 be3d f2c4 5cbe 68e8 833e
00000210: 25fe a43e 218f 32be d5b5 0b3e 8bee c0be
00000220: 85ec 82be 5646 86be 0d2a b0be a7c9 9cbe
00000230: c525 683e 43dc e3bd e2a9 e93d 42f5 e83d
00000240: 96a4 913d fc3a cabc f24b 70be d1a4 9fbd
00000250: 0fa4 333e 7d09 94bd 2b80 563e 9a8e 97be
00000260: a013 613e 2bfe 5d3e 4a09 3a3e 01c2 093e
00000270: ab0d 5a3e f45a 16be c7ee 80bd d500 7abd
00000280: f5a4 5bbe 3da4 653e 494e 263e c204 a53e
00000290: 584c 843c 4bc0 07be adba a13e d9aa e43e
000002a0: a4fb 91be 8dde e63e ee9c 543e f9d3 bfbe
000002b0: 76d5 e13d 2d73 c53d b361 403e a4fe 49be
000002c0: e76f 43be 8ab4 6abe 67dc 73be 7d48 3f3d
000002d0: aa6c d3be 7dbc 9fbb cc1b 9ebe d364 783e
000002e0: 59ed 2b3e 7d4f 27be 9024 4ebe fdc3 c83e
000002f0: ecd2 b4be 5faa fe3e 0dc5 883e 7992 263e
00000300: e183 133e 553c 14bd d670 93bd 7cbb 10be
00000310: 1e2f d83d 68d8 09bd 1809 1abe 2fd0 a23c
00000320: d8e6 10be f4b9 d33d b416 d03d f4be ab3d
00000330: 2900 153e 1213 85bb f138 e43d 4997 19be
00000340: 93f1 113d 8e25 b83c 1787 f0bd 1eb3 1d3e
00000350: 3908 81bd f290 ed3d 1e1f e23b a3f2 09be
00000360: 48b9 81bd 12e5 b5bd 6573 a93d 084d 2abe
00000370: 3cf6 df3b f925 adbd 2a4a 0ebd 3c67 6bbd
00000380: a40c d43c 8745 b0bd cd76 04be 370d d53d
00000390: 005f 033e 2f30 3b3e 8e53 153e a175 40be
000003a0: c9df c1bd 210b ecbd c261 f8bc b151 52bc
000003b0: ace5 8c3e 4954 47bc 4619 0ebe faf4 92bd
000003c0: 670a 43bd 76bc 003e 1f5e 573d 6507 c9ba
000003d0: 0364 a1bc a210 1bbe c25e edbd 3340 af3d
000003e0: 1183 04be 6331 b33d d96e e23d f7b2 333e
000003f0: 9d7c 53be 356e 7bbd 1e95 4fbc 6020 353d

dist.0.linear.bias f4 [7]
-0.05861712 -0.023715226 0.503331 -0.14757927 -0.10350217 -0.08168665 -0.085962385
00000000: 8118 70bd 6f46 c2bc 4dda 003f 051f 17be
00000010: f2f8 d3bd 554b a7bd 0c0d b0bd

dist.1.linear.weight f4 [7, 64]
-0.43885693 -0.12929411 0.016939007 0.15882379 0.05491303 0.17499761 -0.02182332 -0.22353888
-0.09573015 -0.043069188 0.20823085 -0.27622843 -0.023909323 0.20572801 0.11511161 0.3982953
-0.054955203 0.20863177 -0.12994535 0.2839003 -0.16696145 -0.18669173 -0.5682343 0.044506982
-0.19510435 -0.61263824 -0.21871778 -0.09434403 -0.18875451 -0.27719724 0.285851 0.61270845
0.011342904 -0.23379359 -0.05712688 -0.38153467 -0.31184253 0.32473844 -0.23026823 0.021747326
0.44754094 0.23402211 -0.0015469779 0.20137462 -0.20087251 0.3752726 0.5049353 -0.20654102
0.30147302 -0.30728367 -0.54230094 0.2855287 0.0978388 -0.16017044 -0.052091073 -0.13717148
-0.03135285 -0.15488327 -0.13908227 -0.23742346 -0.21620277 -0.08711352 -0.053031597 0.38146874
0.40365958 0.25916436 0.2634582 -0.32281855 -0.026854742 -0.277005 -0.34322453 -0.19994755
0.18021159 0.8709719 -0.39280918 -0.31479883 0.13288052 0.6719966 0.3073175 -0.12316578
-0.42297128 -0.0069334335 -0.4524715 -0.4478518 -0.08892373 -0.10823722 0.33147123 -0.08391472
-0.029429737 -0.19628306 -0.09993005 -0.042743333 -0.1376176 -0.19877373 -0.2437171 -0.3228733
0.076742806 0.008709438 -0.5359548 0.30690816 -0.026548386 -0.22357774 0.004476671 0.04060612
-0.03675091 0.2868314 -0.14905491 -0.20392449 -0.42634547 -0.47378558 0.3874996 -0.09973593
-0.05263932 -0.092855364 0.15830818 0.11476848 -0.2294055 -0.20288487 0.016532741 -0.22202647
0.011524443 -0.09822164 -0.3153001 0.22019748 0.26355463 -0.031625394 -0.15629074 0.21791853
0.15355861 -0.23696771 -0.06734758 0.549619 -0.046901137 -0.46713647 0.03048588 -0.18765445
-0.2588255 -0.5342121 0.07924969 -0.19294481 0.10664357 -0.52652854 -0.03526466 0.327438
-0.20261028 -0.29176047 0.19355595 -0.008966868 0.2651817 0.2187306 0.26089242 -0.08689539
0.2708274 0.3976612 0.39749366 0.3113427 0.35607833 0.08901876 -0.22157958 0.14464767
-0.2785776 0.5301776 0.16539766 0.22119269 0.26892793 0.0756719 0.27958065 0.011239085
-0.165865 -0.21013229 -0.03488367 -0.3267778 0.40246737 0.21729378 -0.585719 0.48032662
-0.48568103 -0.095570035 0.034136195 0.057004604 -0.16364394 0.23325728 -0.20104457 0.37098718
0.073142186 -0.42378992 0.6131041 0.43459168 -0.34564793 0.35575357 -0.10086714 -0.33851245
-0.3444903 0.39274672 0.3025351 -0.19724855 0.08274707 0.2865612 -0.008815806 -0.050310772
0.14293316 -0.19250341 0.19555221 0.50474936 -0.07815975 -0.2817118 -0.014256226 -0.2075748
-0.06223185 0.323551 0.50139296 -0.20056053 -0.14340115 -0.15430227 0.20908418 0.015280308
-0.23150238 0.091512516 -0.22467329 0.1455566 0.0036436238 0.3034281 0.08950427 -0.105876125
0.08038601 -0.3124001 0.24593136 -0.05549905 -0.013078084 -0.2731282 0.20614007 -0.101008885
-0.054775055 0.021031732 -0.15842825 -0.16233915 0.18225592 0.328022 -0.23875569 -0.30376807
-0.02605436 0.55605483 0.33984452 -0.41284493 -0.095327355 -0.26571742 -0.13339433 -0.07837472
0.16213897 0.33653116 -0.20936453 -0.2712471 -0.20354137 -0.17751037 0.065719426 -0.3952731
00000000: dbb1 e0be ad65 04be acc3 8a3c b4a2 223e
00000010: 7cec 603d 9332 333e d2c6 b2bc 60e7 64be
00000020: 2b0e c4bd 5169 30bd 783a 553e d06d 8dbe
00000030: 7cdd c3bc 5daa 523e a3bf eb3d 5ded cb3e
00000040: b518 61bd 91a3 553e 6510 05be 615b 913e
00000050: f1f7 2abe 1e2c 3fbe ce77 11bf f44c 363d
00000060: 6fc9 47be dcd5 1cbf 8ef7 5fbe 7137 c1bd
00000070: dd48 41be ccec 8dbe 105b 923e 76da 1c3f
00000080: 96d7 393c 9667 6fbe e0fd 69bd 8358 c3be
00000090: d3a9 9fbe 1e44 a63e 6fcb 6bbe 7327 b23c
000000a0: 1624 e53e 7ea3 6f3e f7c3 caba 2635 4e3e
000000b0: 86b1 4dbe bb23 c03e 7143 013f 7d7f 53be
000000c0: ac5a 9a3e 4954 9dbe 3cd4 0abf d130 923e
000000d0: b55f c83d b803 24be 735d 55bd ae76 0cbe
000000e0: d96b 00bd b899 1ebe 956b 0ebe 231f 73be
000000f0: 4264 5dbe 9368 b2bd a937 59bd df4f c33e
00000100: 78ac ce3e 31b1 843e fee3 863e 7948 a5be
00000110: 7afe dbbc 99d3 8dbe 20bb afbe 0dbf 4cbe
00000120: 6389 383e 04f8 5e3f 491e c9be 502d a1be
00000130: d511 083e f807 2c3f b858 9d3e 573e fcbd
00000140: b18f d8be db31 e3bb 58aa e7be d54c e5be
00000150: a51d b6bd 7aab ddbd 99b6 a93e 7bdb abbd
00000160: a216 f1bc 6dfe 48be 20a8 ccbd a213 2fbd
00000170: a1eb 0cbe 578b 4bbe fa90 79be a64f a5be
00000180: 552b 9d3d 08b2 0e3c 5534 09bf 1123 9d3e
00000190: 007c d9bc 90f1 64be 0ab1 923b 9a52 263d
000001a0: 1f88 16bd 91db 923e daa1 18be 95d1 50be
000001b0: f449 dabe 0694 f2be 5966 c63e 5a42 ccbd
000001c0: 549c 57bd f42a bebd 8a1b 223e bd0b eb3d
000001d0: 47e9 6abe 0dc1 4fbe ac6f 873c e85a 63be
000001e0: 04d1 3c3c 6d28 c9bd 046f a1be 737b 613e
000001f0: a2f0 863e a189 01bd ae0a 20be 0926 5f3e
00000200: 783e 1d3e aaa7 72be 87ed 89bd d5b3 0c3f
00000210: 681b 40bd 832c efbe 86bd f93c 7d28 40be
00000220: c784 84be 20c2 08bf a94d a23d 5393 45be
00000230: f267 da3d 93ca 06bf ad71 10bd f4a5 a73e
00000240: 1279 4fbe a161 95be 8833 463e c5e9 12bc
00000250: e5c5 873e eafa 5f3e b193 853e 36f6 b1bd
00000260: e4a9 8a3e 409a cb3e 4a84 cb3e 4f68 9f3e
00000270: e64f b63e 784f b63d c2e5 62be 851e 143e
00000280: b9a1 8ebe b8b9 073f 015e 293e 5680 623e
00000290: ecb0 893e def9 9a3d 3225 8f3e 2424 383c
000002a0: 84d8 29be eb2c 57be 2ee2 0ebd 6b4f a7be
000002b0: 3410 ce3e 4382 5e3e aef1 15bf 5fed f53e
000002c0: 2fab f8be 39ba c3bd 65d2 0b3d a97d 693d
000002d0: 4792 27be ffda 6e3e a1de 4dbe 08f2 bd3e
000002e0: 92cb 953d fefa d8be 64f4 1c3f cd82 de3e
000002f0: c4f8 b0be 5525 b63e 6e93 cebd 8151 adbe
00000300: 0861 b0be 1916 c93e e1e5 9a3e 86fb 49be
00000310: 4c77 a93d 26b8 923e 2c70 10bc ab12 4ebd
00000320: 125d 123e 9d1f 45be d73e 483e 4137 013f
00000330: 3812 a0bd 873c 90be f292 69bc 7d8e 54be
00000340: d3e6 7ebd 7aa8 a53e 4a5b 003f bd5f 4dbe
00000350: c0d7 12be 6a01 1ebe 2a1a 563e 425a 7a3c
00000360: f60e 6dbe ea6a bb3d c110 66be ca0c 153e
00000370: ddc9 6e3b ee5a 9b3e 044e b73d 95d5 d8bd
00000380: 6ca1 a43d e8f2 9fbe 6ed5 7b3e f952 63bd
00000390: 7645 56bc 76d7 8bbe 6216 533e bfdd cebd
000003a0: cf5b 60bd bd4a ac3c 043b 22be 3c3c 26be
000003b0: 4ca1 3a3e 80f2 a73e 5f7c 74be 7d87 9bbe
000003c0: f46f d5bc 9c59 0e3f 1a00 ae3e 6960 d3be
000003d0: fd3a c3bd 1d0c 88be 8698 08be ed82 a0bd
000003e0: c207 263e d04d ac3e a863 56be e6e0 8abe
000003f0: 266d 50be 47c5 35be e897 863d 3c61 cabe

dist.1.linear.bias f4 [7]
0.024588414 0.06484084 0.20477785 0.21051866 -0.11859458 -0.21465729 -0.0976439
00000000: a46d c93c 46cb 843d 49b1 513e 3492 573e
00000010: b7e1 f2bd 1fcf 5bbe 86f9 c7bd

dist.2.linear.weight f4 [7, 64]
0.00033650635 0.00046752926 -0.0017639337 -0.0023909628 0.001450344 -7.4625474e-05 0.00047638855 -0.002162469
-0.0006372982 -0.00059094216 0.002150201 0.0016497858 0.0011013133 -7.710522e-05 0.0008647211 -0.0009363397
-0.0009787896 0.0033498486 -0.0009320046 0.0005715682 0.0005505804 0.0022348366 -0.00032519712 0.0019737117
0.0015900119 0.0016134251 -9.9380835e-05 -0.0008706951 0.00035604837 0.0014738787 6.286383e-05 -0.00067978416
-0.0013859567 -0.00036203465 0.00094508467 0.0005506565 -0.00061068236 0.0020821025 0.0016726066 0.0009697422
-0.0015966961 -0.00010543251 -0.0007632814 -0.00076642283 0.00041045624 0.00044480746 -0.0011283135 -1.588992e-07
0.0004915849 -0.0009663968 -0.0015177 -0.002579268 0.0010173563 7.95868e-05 -0.0012725475 -0.00044152248
-0.0010005492 -0.00068390754 -0.0016160485 0.00083900586 0.0009316877 0.0020363815 0.0012958334 -0.00012478305
0.0009239822 -0.00062739715 0.0006614486 -0.00041979563 -0.0006846179 -0.0026146218 0.0027229302 -0.0011208829
-0.00091592735 0.00046588024 -0.000701681 -0.0021828196 -0.0011142752 0.00130012 -0.00088537886 0.0003327042
0.00016502652 -0.0010590702 -0.00023282772 0.0024133208 0.0017845734 -0.0002683854 -0.000966488 0.0025427698
0.00013698403 0.00035142506 0.0035867079 -0.00071609154 0.00095078803 -0.0017442352 -0.00028253943 -0.0015002118
-6.9272966e-05 -0.0005078735 5.635061e-05 0.0006898058 0.001461753 -0.0010917013 0.0004334579 -0.0006605872
-0.0018657411 0.0005734881 -0.0011875076 -0.0021721998 -0.0021781202 -5.8306086e-05 -0.000100820034 0.0009056546
4.2501564e-05 0.0009110804 -0.00019306251 0.0013533053 0.00024406104 -7.798454e-06 -0.0010427696 -0.001350449
-0.00049440283 -0.0016880435 0.0015672321 -0.0005372236 -0.00047764095 0.0010937605 0.00020994115 0.001163637
-0.0012408549 -0.0012878318 0.0015041297 0.0012876047 0.0016086331 0.0021539754 5.1851384e-05 -0.000409653
0.0007739032 0.00060109526 0.0010712654 0.00048101103 0.0013050732 0.0010911614 -0.00083779416 0.00167959
0.0014388897 0.00019485179 0.000466192 -0.0009418102 -0.0017601202 0.00092658907 -0.0020857176 0.0016912548
4.3958516e-05 1.3703312e-05 0.0011955992 0.0015796868 0.00015145047 0.00061342446 0.00053993444 -0.00082876976
0.0017347607 -0.000741492 0.000623349 -0.0018094137 0.0008107445 -0.00069920137 0.0013432503 -0.0033793338
-0.0010185374 -0.0029836053 -0.0017351329 0.0014329859 0.00082764647 0.0010047446 -0.0009797714 -0.0005523139
-0.00083322934 0.0014515517 -0.0013379899 -0.0008617948 -0.001318463 0.00061259087 -0.000425598 -0.0015955522
-0.0007348087 0.00024401855 0.0017197909 0.0004344282 0.0006204753 -0.0009946132 0.00079463486 -0.0012497033
-0.002038786 0.0009708104 4.887769e-05 -0.00072202703 0.0016227056 -0.00020355619 0.0015605955 -0.0013131719
0.0025790357 0.00084335794 0.00024706172 0.00014274928 -3.646461e-05 -0.0004967597 -5.4553093e-05 0.00051427935
0.0016509073 -0.00012275997 0.00026632205 0.00097070093 4.4379476e-06 -0.0019184938 0.001216617 0.0015094527
-0.00078601175 -0.0005823251 -0.00061783753 -0.00043511397 0.0011565092 0.00012483822 0.00064059626 0.0020739364
-0.001714552 -0.00011418078 0.0013855357 0.0010181781 0.000882867 0.0028872017 -0.0001781585 -0.00060089276
0.0007725997 0.00034434628 -0.00077884994 0.00026736487 0.0013478958 0.00023731816 0.00014329725 0.00036792058
-0.0010200954 0.00024343116 0.0043248413 -0.00046815965 0.0009488084 -0.0006429835 0.001009995 -0.00012946533
-5.811583e-06 0.0016802818 0.0031551498 -0.0012581936 0.00023853111 0.0018735625 0.0012558153 -0.00027933804
00000000: 1e6d b039 b71e f539 cb33 e7ba b3b1 1cbb
00000010: 7819 be3a 3f80 9cb8 cac3 f939 36b8 0dbb
00000020: 5c10 27ba 75e9 1aba 63ea 0c3b a03d d83a
00000030: f159 903a 8db3 a1b8 73ae 623a b274 75ba
00000040: bb4a 80ba 2289 5b3b c551 74ba 4bd5 153a
00000050: d354 103a 5676 123b 387f aab9 6359 013b
00000060: f267 d03a 9079 d33a ae6a d0b8 5c3f 64ba
00000070: 01ac ba39 2a2f c13a c3d5 8338 8b33 32ba
00000080: fda8 b5ba 78cf bdb9 8fbf 773a ef59 103a
00000090: 3316 20ba e273 083b 5d3b db3a 4c36 7e3a
000000a0: 3b48 d1ba a61b ddb8 f316 48ba c4e9 48ba
000000b0: 8132 d739 0c35 e939 ebe3 93ba e19d 2ab4
000000c0: b4dd 003a cb55 7dba 90ed c6ba f008 29bb
000000d0: d058 853a d7e7 a638 9ccb a6ba 257c e7b9
000000e0: dc24 83ba 4248 33ba 97d1 d3ba bbf0 5b3a
000000f0: 813c 743a d074 053b f4d8 a93a 32d8 02b9
00000100: 6537 723a e977 24ba 1065 2d3a 0418 dcb9
00000110: ee77 33ba 135a 2bbb 3073 323b 97ea 92ba
00000120: d81a 70ba 6341 f439 04f1 37ba a30d 0fbb
00000130: df0c 92ba ca68 aa3a c518 68ba cd6e ae39
00000140: f80a 2d39 80d0 8aba 3723 74b9 ce28 1e3b
00000150: 59e8 e93a 14b6 8cb9 e95b 7dba 99a4 263b
00000160: 5fa3 0f39 793f b839 f90e 6b3b 17b8 3bba
00000170: 4e3e 793a d29e e4ba cd21 94b9 c1a2 c4ba
00000180: a446 91b8 d022 05ba 025a 6c38 15d4 343a
00000190: 4b98 bf3a 6b17 8fba bc41 e339 422b 2dba
000001a0: e28b f4ba 2356 163a 25a6 9bba 775b 0ebb
000001b0: cbbe 0ebb af8d 74b8 586f d3b8 7469 6d3a
000001c0: b543 3238 92d5 6e3a d370 4ab9 6461 b13a
000001d0: a3ea 7f39 1bd6 02b7 8bad 88ba 8d01 b1ba
000001e0: d09a 01ba 5741 ddba 956b cd3a 77d4 0cba
000001f0: e26b fab9 835c 8f3a a623 5c39 2e85 983a
00000200: 2ea4 a2ba 77cc a8ba 3826 c53a d8c4 a83a
00000210: c5d8 d23a b629 0d3b 007b 5938 b2c6 d6b9
00000220: c4df 4a3a d292 1d3a b469 8c3a 3530 fc39
00000230: fd0e ab3a 4d05 8f3a 6a9f 5bba b025 dc3a
00000240: 2099 bc3a 2151 4c39 3b6b f439 d0e3 76ba
00000250: d5b3 e6ba 57e6 723a 89b0 08bb 18ad dd3a
00000260: 1960 3838 47e7 6537 a7b5 9c3a 7e0d cf3a
00000270: adce 1e39 38ce 203a 638a 0d3a cc41 59ba
00000280: e960 e33a b060 42ba 3e68 233a d929 edba
00000290: 2488 543a 9c4a 37ba 0010 b03a d077 5dbb
000002a0: 7280 85ba 9788 43bb 666d e3ba 07d3 bb3a
000002b0: 6af6 583a a2b1 833a ac6b 80ba 29c9 10ba
000002c0: 136d 5aba fe41 be3a 7e5f afba 12ea 61ba
000002d0: 47d0 acba 4796 203a cc22 dfb9 d921 d1ba
000002e0: 2da0 40ba 3bdf 7f39 9b6a e13a f7c3 e339
000002f0: 64a7 223a ae5d 82ba 0b4f 503a 16cd a3ba
00000300: 279d 05bb fc7d 7e3a 0502 4d38 6a46 3dba
00000310: f7b0 d43a b371 55b9 e58c cc3a bd1e acba
00000320: 0a05 293b cb14 5d3a 1088 8139 f8ae 1539
00000330: 94f1 18b8 fb38 02ba f0cf 64b8 b4d0 063a
00000340: 4263 d83a 21b9 00b9 24a1 8b39 a376 7e3a
00000350: aee9 9436 f875 fbba e476 9f3a d4d8 c53a
00000360: 5b0c 4eba 2da7 18ba 60f6 21ba 0220 e4b9
00000370: 0296 973a 01e7 0239 b0ed 273a e1ea 073b
00000380: d2ba e0ba 5774 efb8 dd9a b53a 6374 853a
00000390: 3470 673a 3537 3d3b 0fd0 3ab9 3b85 1dba
000003a0: 4a88 4a3a 6089 b439 bc2b 4cba 1b2d 8c39
000003b0: e1ab b03a 9cd8 7839 1042 1639 77e5 c039
000003c0: b9b4 85ba 8e41 7f39 66b7 8d3b 5373 f5b9
000003d0: 74b9 783a e48d 28ba cf61 843a 16c1 07b9
000003e0: 1e01 c3b6 e73c dc3a a1c6 4e3b f9e9 a4ba
000003f0: 351e 7a39 5392 f53a 2b9a a43a 1e74 92b9

dist.2.linear.bias f4 [7]
0.0 0.0 0.0 0.0 0.0 0.0 0.0
00000000: 0000 0000 0000 0000 0000 0000 0000 0000
00000010: 0000 0000 0000 0000 0000 0000

dist.3.linear.weight f4 [7, 64]
-0.0008419287 -0.0022769424 -0.0018828838 -0.0010140635 -0.0003448821 0.002736887 -0.0001700013 0.00096183625
-0.00014944834 0.00067638827 -0.0014519608 -0.003043254 0.00016913227 -2.479875e-05 0.00019603905 0.00045960656
0.0007071665 0.0020801409 -0.0013737583 0.00013130737 0.00045857925 0.000630861 -0.00095935276 0.0032055133
-0.0012218878 -0.00045358302 -0.001242399 -0.00055221305 -0.00030020683 0.0003891122 0.0009966296 -0.0018400957
0.0017925112 0.00032628022 0.001335284 0.0014419034 -0.0011029205 -0.0015002204 0.0003075877 -0.0015723107
0.00067655207 0.00090185966 0.0006462809 -0.0020616741 -0.0005639354 -0.0016994835 -0.00040899223 0.0007213025
0.00070150284 0.00039186215 -0.00065000245 0.0010832277 -0.00067406293 -0.00030749102 -0.00019717307 0.00046842406
0.0006825088 -0.0014445343 0.00031648576 -0.0023861984 0.00023373117 0.0015625623 -0.0013073424 -0.0018677544
0.0009680747 4.934201e-05 0.0014925387 -0.0005446617 -0.00021838839 -0.00030307635 -0.00121914 -0.00051902124
0.00047277473 -0.00017851393 0.00073846575 0.001080369 0.000422288 0.0011431639 0.0010326336 0.00043767443
-0.0010337268 0.00067561225 0.00026126506 -0.0020684954 0.00055278826 -0.0024483649 -0.0007786948 0.00210011
-0.001695822 -0.0010806463 -0.002130662 0.002822836 0.0005496365 -0.0010667791 -0.0018276675 0.0009651834
-0.00013838585 0.0012921921 -0.0005170049 -0.0010148672 0.0007722315 0.0008060949 -0.0012241298 0.00079008593
0.0016737833 0.00031511247 0.0012030413 -0.0020108419 0.00035206208 -0.0017452982 -0.00043019172 -0.0003953
0.00036038403 -0.00054205087 5.2124975e-05 0.00089766644 0.00022647597 0.0022711188 -0.0022282407 0.0022970387
0.0005268361 -0.0011594269 0.0013372151 0.00032425806 0.0026936461 -0.0019956995 0.00085450447 0.0002290317
0.0012934784 0.00089298625 0.00183596 0.0005998214 0.0015155966 0.0007475883 0.0013466988 0.0028911468
0.0001125748 3.6076642e-06 0.0018183505 -0.001573763 0.0017399223 0.0009414334 -0.0017959757 0.0010440818
-0.0018868638 -0.00019785903 -0.00064050866 -0.0003596598 -0.0006148478 0.00043187232 -0.00077028445 -0.0012570354
0.00039297185 -0.001198337 -4.9636103e-05 -0.0014234469 0.0011923701 0.0020791045 0.0020603354 -0.001087683
-0.0003463264 -0.001099716 -0.0006371304 0.001612138 0.00058057084 -0.0011199518 0.0005819234 0.0034245106
1.5828758e-07 -0.0006064396 -0.0012324244 -0.0020088383 -0.00042623022 -0.0006956408 0.0005890626 0.00051026733
0.0013157674 -0.00047938628 -9.952746e-05 0.0011925885 0.0002724627 0.0003774207 -0.0007151488 0.0021439306
0.0005635684 0.0005450817 0.0020642534 0.00058253173 -0.002061889 -0.00078113197 0.0010467673 1.5264804e-05
0.00058356166 0.0015876436 0.0013084328 -0.0008155965 0.002722486 -0.0015418936 0.00034926983 -0.0014266678
-3.513461e-05 0.0006988743 0.0005816488 0.0004076691 -0.00019620887 -0.0008812124 -0.0024882364 0.00090290885
-0.0017746041 0.0020457949 -0.0011707252 -0.000866427 0.0005432498 -0.00051175564 0.001954258 0.00011077292
0.0012260084 0.002024758 0.0006461119 0.0009964859 -0.0015180233 -0.0004231161 0.0009682229 -0.00042107044
-0.0004261046 2.3483539e-05 -0.0008537187 0.0010597301 -0.0010681729 -0.0010331952 7.299917e-06 -0.0014298682
-0.0006945062 0.0012334255 0.001962741 0.0015630211 -0.0004632685 -0.0013660133 -0.0017840785 -0.00032478882
-0.0009895678 0.0034429047 -0.00092563883 0.0027938858 -2.7156671e-05 -4.4986653e-05 0.0012670606 0.00019558093
1.4022505e-05 -0.00067879696 0.0014923871 -4.008822e-06 -2.4939676e-05 -0.0011948193 -0.0014626026 -0.00043696514
00000000: e1b4 5cba c138 15bb 19cb f6ba 53ea 84ba
00000010: 4bd1 b4b9 585d 333b 6042 32b9 bd23 7c3a
00000020: 3cb5 1cb9 a64f 313a b84f beba 5471 47bb
00000030: 1959 3139 e906 d0b7 d58f 4d39 59f7 f039
00000040: 2461 393a f952 083b ae0f b4ba 8eaf 0939
00000050: 776d f039 5d60 253a 137d 7bba 9713 523b
00000060: c027 a0ba e2ce edb9 fed7 a2ba 64c2 10ba
00000070: 1465 9db9 c101 cc39 57a1 823a 5e2f f1ba
00000080: b2f2 ea3a 9710 ab39 b204 af3a 40fe bc3a
00000090: df8f 90ba 0ba3 c4ba b943 a139 fe15 ceba
000000a0: a45a 313a c76a 6c3a 2d6b 293a 271d 07bb
000000b0: 10d5 13ba 34c1 deba 026e d6b9 cb15 3d3a
000000c0: 0fe5 373a d972 cd39 ed64 2aba 17fb 8d3a
000000d0: 99b3 30ba bf36 a1b9 3ec0 4eb9 d096 f539
000000e0: 64ea 323a 8756 bdba 00ee a539 c461 1cbb
000000f0: bc15 7539 e4ce cc3a 225b abba 70cf f4ba
00000100: 65c6 7d3a 94f4 4e38 4aa1 c33a a1c7 0eba
00000110: 30ff 64b9 38e6 9eb9 8dcb 9fba ed0e 08ba
00000120: c0de f739 782f 3bb9 9995 413a 2b9b 8d3a
00000130: 8966 dd39 37d6 953a 6f59 873a ab77 e539
00000140: 1e7e 87ba 921b 313a 67fa 8839 988f 07bb
00000150: fee8 103a bf74 20bb 5321 4cba 00a2 093b
00000160: 5846 deba 79a4 8dba 94a2 0bbb 54ff 383b
00000170: 7b15 103a 2bd3 8bba 588e efba 5d04 7d3a
00000180: ab1b 11b9 c65e a93a 9d87 07ba 4b05 85ba
00000190: 946f 4a3a 1d50 533a fb72 a0ba c51d 4f3a
000001a0: d962 db3a ae35 a539 5eaf 9d3a 54c8 03bb
000001b0: f994 b839 7dc2 e4ba 5b8b e1b9 4540 cfb9
000001c0: edf1 bc39 6b18 0eba c4a0 5a38 6051 6b3a
000001d0: 2e7a 6d39 0dd7 143b ad07 12bb ea89 163b
000001e0: 5f1b 0a3a e9f7 97ba 7e45 af3a 2e01 aa39
000001f0: e287 303b 48ca 02bb d300 603a 3b28 7039
00000200: ef89 a93a 4b17 6a3a 98a4 f03a 553d 1d3a
00000210: fca6 c63a cdf9 433a b783 b03a 6579 3d3b
00000220: 2316 ec38 331b 7236 b855 ee3a b946 ceba
00000230: 1b0e e43a 87ca 763a f266 ebba 92d9 883a
00000240: a550 f7ba 6178 4fb9 cfe7 27ba b990 bcb9
00000250: bd2d 21ba ec6c e239 eaec 49ba 1cc3 a4ba
00000260: ca07 ce39 8411 9dba 5c30 50b8 f492 baba
00000270: 4d49 9c3a 9641 083b b106 073b 9690 8eba
00000280: 2493 b5b9 5924 90ba 1905 27ba 604e d33a
00000290: 7331 183a 59cb 92ba 388c 183a c16d 603b
000002a0: c2f5 2934 79f9 1eba 4d89 a1ba b7a6 03bb
000002b0: a777 dfb9 aa5b 36ba 526b 1a3a 76c3 053a
000002c0: d475 ac3a 2356 fbb9 66b9 d0b8 a150 9c3a
000002d0: 53d9 8e39 8de0 c539 d378 3bba 3081 0c3b
000002e0: 6fbc 133a d0e3 0e3a 6d48 073b 0bb5 183a
000002f0: c220 07bb e1c4 4cba af33 893a eb0c 8037
00000300: 29fa 183a 7b18 d03a b87f ab3a c1cd 55ba
00000310: bc6b 323b 5d19 caba 341e b739 07ff baba
00000320: 805d 13b8 a934 373a ca79 183a 6cbc d539
00000330: 6bbd 4db9 2a01 67ba ae11 23bb 30b1 6c3a
00000340: d599 e8ba be12 063b 0573 99ba ef20 63ba
00000350: e068 0e3a 5727 06ba 0213 003b c24e e838
00000360: 04b2 a03a cdb1 043b d65f 293a 859c 823a
00000370: 69f8 c6ba aed5 ddb9 57d0 7d3a 1ec3 dcb9
00000380: cb66 dfb9 84fe c437 18cc 5fba a4e6 8a3a
00000390: ef01 8cba 476c 87ba cff1 f436 6a6a bbba
000003a0: 860f 36ba e4aa a13a 54a1 003b 49de cc3a
000003b0: d8e2 f2b9 cd0b b3ba bed7 e9ba 6b48 aab9
000003c0: 63b4 81ba 5ba2 613b 92a6 72ba a019 373b
000003d0: 82ce e3b7 0db0 3cb8 8013 a63a db14 4d39
000003e0: 3342 6b37 4bf1 31ba 349c c33a 8583 86b6
000003f0: 8c35 d1b7 7c9b 9cba cdb4 bfba 7818 e5b9

dist.3.linear.bias f4 [7]
0.0 0.0 0.0 0.0 0.0 0.0 0.0
00000000: 0000 0000 0000 0000 0000 0000 0000 0000
00000010: 0000 0000 0000 0000 0000 0000
